checkpoints/q-mamba/20240816_041649/checkpoint-3.pt (torch, 115222 bytes, 42 tensors)

q_head.action_bin_embeddings f4 [2, 256, 9]
000000 7e de d9 3a d5 a8 2f bc 18 71 a9 bb 2e 43 c9 bc
       0.0016622094 -0.010721405 -0.0051709525 -0.024568167
000010 18 8a f4 3b 8f 37 bd 3c 65 07 a5 3b 22 43 1f 3b
       0.007462751 0.023097781 0.005036282 0.002430149
000020 3b 7a 9e bc fa 76 9b ba bf 19 a9 3c a9 ff 13 bd
       -0.019345393 -0.0011861019 0.02064216 -0.03613249
000030 c4 3a dd bb cf 41 d3 3c 49 66 57 3c e3 e6 07 3b
       -0.00675139 0.025788216 0.013146945 0.0020736984
000040 91 49 8b 3c be b8 33 3c ae d0 b0 bc 06 0a 04 3b
       0.017002853 0.010969339 -0.021583881 0.0020147576
000050 69 ab 0a bd db 16 d0 3c 12 c1 0b 3d 30 a7 70 3b
       -0.033854876 0.025401523 0.034119673 0.0036720745
000060 42 8c 3e bc 83 57 bc 3a f5 41 3c bc c9 b1 25 3c
       -0.01163012 0.0014369342 -0.011490335 0.010113188
000070 96 2d e5 3a 28 6c 97 3c fe 16 39 bc e3 46 62 3c
       0.0017484899 0.01848419 -0.011296986 0.013810846
000080 1b 01 ec 39 f5 41 89 bb 7f 2a 5f 3c 72 e7 b2 3b
       0.0004501425 -0.004188771 0.013620972 0.0054597193
000090 78 9c 81 bb ea 47 2e bc 18 ff 24 3c ac d5 9d ba
       -0.00395542 -0.010637263 0.010070585 -0.0012041829
0000a0 2a aa 4f bc 9c 5e df bb e9 78 04 3c ab 46 12 bd
       -0.012674848 -0.0068166982 0.008085468 -0.035711925
0000b0 a9 0f 34 3c 58 e0 01 3c 74 fb fd 3b b0 c4 a0 bc
       0.010990062 0.007927023 0.007750923 -0.019625038
0000c0 40 75 b2 bc e4 6e 22 3b 06 b3 59 bd 2a d4 a6 bc
       -0.021784425 0.0024785334 -0.053149246 -0.02036484
0000d0 50 1d 6f 3c 82 22 e1 3b d7 36 b4 bc c5 08 4f 3c
       0.014594391 0.0068705687 -0.021998806 0.012636368
0000e0 8a c3 19 3c f1 36 3b bd ce eb 11 3b 6a 5b d0 3c
       0.009384999 -0.045706693 0.0022265795 0.025434215
0000f0 d6 06 89 bb 1d 60 91 3c 09 b4 7b bc 4f c9 0f bd
       -0.004181723 0.017746026 -0.015362748 -0.035104092
000100 28 01 12 bd c5 92 a0 bb 09 0f 9e ba 8a dd be bc
       -0.035645634 -0.004900309 -0.0012058924 -0.023298997
000110 24 c5 bb bc b6 ee 62 3c 30 c1 10 3d 31 5c 63 3d
       -0.022921152 0.013850858 0.035340488 0.055507842
000120 38 8f 02 3c 43 fb 7d 3a 13 d6 c8 bc f1 8d 2a 3c
       0.007968716 0.0009688625 -0.024516141 0.010409818
000130 06 02 aa 3b f6 41 ca bc fb 7d 82 3c 6a 0c 01 bd
       0.0051882295 -0.024689656 0.015929213 -0.03150598
000140 e6 39 27 bc fe ac 62 bc a3 31 2e 3c c7 2c 6c 3c
       -0.010206675 -0.01383519 0.0106319515 0.014414973
000150 af 8d 00 3d 3d d1 f1 bb 32 20 b5 bc a0 19 31 bb
       0.03138512 -0.0073796795 -0.022110078 -0.002702333
000160 5d 17 b2 3c 47 70 b7 3b 02 f2 64 3b d6 7f 83 bc
       0.021739656 0.0055981013 0.0034934287 -0.016052168
000170 19 69 4b bd 67 42 64 3b 22 cc 3e 3b 37 28 47 bc
       -0.049660776 0.0034829618 0.0029113372 -0.012155584
000180 9d c0 62 3c ba 5b 1a bd 88 d7 5a bc 0c 92 5f bd
       0.013839868 -0.037685134 -0.013357051 -0.05458264
000190 61 4b 6f 3c 88 be 9f 3c fc b7 7a 3b 52 51 9a 3c
       0.014605374 0.019500032 0.0038256636 0.018837605
0001a0 d7 5d a9 3c de 26 01 39 c2 57 20 ba 11 dc d6 3b
       0.02067463 0.00012316878 -0.00061165926 0.0065569957
0001b0 d6 36 01 bd 25 b7 04 3c de 17 27 bd af 2e c5 3b
       -0.031546436 0.008100306 -0.040794246 0.006017528
0001c0 84 a8 88 bc ed b8 d8 3c 86 da c9 3b a5 fe 2b bc
       -0.016681917 0.026455367 0.006160083 -0.010497724
0001d0 d5 6f 17 bc 44 fa 89 bc 91 92 5f 3c f2 13 8f bc
       -0.009242971 -0.016842969 0.013645784 -0.017465565
0001e0 e4 9c d6 bb df 19 a2 3b 9d 32 ca bc ed 17 0f 3d
       -0.0065494645 0.0049469317 -0.024682337 0.034934927
0001f0 cf 15 a3 39 3f 19 1a bc 3a fa d0 bc 35 81 83 3c
       0.0003110603 -0.009405433 -0.025509942 0.016052822
000200 cc b1 d7 bc d3 e9 da bb f8 17 6a 3b a3 36 e9 3b
       -0.026329897 -0.006680706 0.0035719853 0.007117109
000210 d7 6c 93 3c a5 f7 b1 bc 26 36 28 bc 4a df a4 3b
       0.017996235 -0.021724531 -0.010266816 0.005031501
000220 3c 03 42 3c 06 ff f7 3b ec 75 67 bc d6 48 67 3c
       0.011841591 0.007568243 -0.014127236 0.014116487
000230 77 d1 a4 3b be 15 60 bc b3 54 9a 3c 06 cb 9a bc
       0.005029853 -0.013677059 0.018839216 -0.018895637
000240 03 10 af 3a 27 4d 84 3c c6 53 32 3d 9d 79 6c 3b
       0.0013356212 0.01615007 0.043536924 0.003608323
000250 17 80 21 3d 94 43 94 bc c9 56 c0 3b 58 b1 90 bc
       0.039428797 -0.01809863 0.0058697206 -0.01766269
000260 0e 64 48 bc ce 94 c1 3c 9a 41 3d 3c f9 71 0b 3c
       -0.012230886 0.023630526 0.011551285 0.00851106
000270 da 4d 7a 3c d3 29 84 ba 8c 0e 69 3c 79 98 95 3c
       0.01527735 -0.0010083265 0.01422466 0.018261181
000280 f4 7e e9 3c 4b 4d 75 bc 4e 31 ad bc 9c 7a ea bc
       0.028502919 -0.014972041 -0.021141674 -0.028622918
000290 5a de 63 bc a8 53 dd 3c 63 f5 9a bc 38 19 ae bc
       -0.013907993 0.02701743 -0.018915838 -0.02125226
0002a0 24 41 b1 bc e3 b4 7f bc 8f 4d 95 3c b5 d3 4a 3c
       -0.021637507 -0.015607092 0.01822546 0.012379576
0002b0 fc 32 2c bd 4f eb 96 3c be 95 4c bc 27 8a 8a 3c
       -0.04204081 0.01842275 -0.012486873 0.01691158
0002c0 dc de 2c bb 49 3d 65 3b 7b c1 17 3d f8 6c 51 bc
       -0.0026377952 0.0034979156 0.03704975 -0.012782328
0002d0 35 18 94 3c 4f af 8d 3c e8 c2 29 bd 41 fe 52 bb
       0.018077949 0.017295508 -0.041445643 -0.0032195004
0002e0 18 e1 5b ba 40 da 5b 3a 22 de 04 3b b8 50 c5 bc
       -0.00083877286 0.0008386709 0.0020274003 -0.024086341
0002f0 4e 04 8d 3b 6c b3 1a bd 39 75 d7 bc fe 78 d4 bc
       0.0043034917 -0.037768766 -0.026301013 -0.0259366
000300 5f 6e 81 3c f7 54 81 3b d2 d7 0d 3c 8a 81 72 bc
       0.0157997 0.003946896 0.008657413 -0.014801392
000310 c9 5f 99 bc b5 47 bc bc 18 1d b8 bc d9 3e e2 3b
       -0.018722432 -0.022983411 -0.02247481 0.0069044647
000320 f1 d4 0d bc b8 3e 92 bc ec 31 5b bb 98 12 b0 bb
       -0.008656726 -0.017852172 -0.0033446504 -0.0053733103
000330 5e d4 1e 3d f0 b2 52 bc 8b eb 3d 3c 65 ae 15 bd
       0.038776748 -0.012860045 0.011591802 -0.03654327
000340 04 c6 f1 bc cf c4 01 3c a6 b5 f6 bc 9f c9 43 bc
       -0.029513367 0.007920458 -0.030115914 -0.011949926
000350 36 34 4b 3c f7 cf 86 3b ec 5c 0b 3d d9 31 12 bc
       0.012402585 0.004114147 0.034024164 -0.008923017
000360 55 41 f5 39 71 c4 83 3c 28 ad 33 bd 5a ed ad bc
       0.00046778718 0.016084881 -0.043866307 -0.021231342
000370 58 f0 99 3c 13 a3 dc ba 91 b1 70 bc 6f 80 1c 3c
       0.018791363 -0.0016833268 -0.014690773 0.009552105
000380 67 94 d2 3c 61 e6 cd bc 14 b0 01 bd 42 3b 15 bc
       0.02570553 -0.025134267 -0.03166206 -0.009108366
000390 90 76 4d 3b c9 60 6b 3a 20 b2 9c bc ae 84 32 bd
       0.0031351186 0.00089789607 -0.019127905 -0.043583564
0003a0 26 7e 38 3d f0 ac 88 bc 54 5d f7 bc 39 0f 08 bd
       0.04504218 -0.016684026 -0.03019587 -0.033217642
0003b0 04 02 2d bd d2 89 df 3b f0 05 bc bb 2a 8d 84 3c
       -0.04223825 0.0068218494 -0.0057380125 0.016180594
0003c0 3f 9e 20 bb a8 7b a1 bb 18 b6 53 bc 18 45 9e bc
       -0.0024508385 -0.004928071 -0.0129218325 -0.019320056
0003d0 12 45 b9 bb 0f 13 03 bc 83 7f 96 bc 8b c0 1a 3c
       -0.005653986 -0.008000149 -0.01837135 0.00944532
0003e0 cf 0b c8 bc 0e 1b 24 bc 6a 9f eb 3b 8f 42 53 3c
       -0.024419693 -0.010016216 0.0071906345 0.012894287
0003f0 47 49 40 bc d5 45 b6 bc 1d 24 45 b9 3a 80 28 3b
       -0.011736221 -0.022250095 -0.00018800837 0.0025711195

q_head.mamba.A_log f4 [18, 16]
000000 8a ef e9 33 18 72 31 3f 54 9f 8c 3f 18 72 b1 3f
       1.089348e-07 0.6931472 1.0986123 1.3862944
000010 10 02 ce 3f 60 58 e5 3f 95 13 f9 3f 92 15 05 40
       1.609438 1.7917595 1.9459101 2.0794415
000020 54 9f 0c 40 8e 5d 13 40 1e 77 19 40 b6 08 1f 40
       2.1972246 2.3025851 2.3978953 2.4849067
000030 3c 28 24 40 51 e6 28 40 b2 50 2d 40 18 72 31 40
       2.5649557 2.6390574 2.7080503 2.7725887
000040 e5 40 4c 2f 18 72 31 3f 54 9f 8c 3f 18 72 b1 3f
       1.8576747e-10 0.6931472 1.0986123 1.3862944
000050 10 02 ce 3f 60 58 e5 3f 95 13 f9 3f 92 15 05 40
       1.609438 1.7917595 1.9459101 2.0794415
000060 54 9f 0c 40 8e 5d 13 40 1e 77 19 40 b6 08 1f 40
       2.1972246 2.3025851 2.3978953 2.4849067
000070 21 28 24 40 51 e6 28 40 b2 50 2d 40 18 72 31 40
       2.5649493 2.6390574 2.7080503 2.7725887
000080 e4 e6 ab 31 18 72 31 3f 54 9f 8c 3f 18 72 b1 3f
       5.0030042e-09 0.6931472 1.0986123 1.3862944
000090 10 02 ce 3f 60 58 e5 3f 95 13 f9 3f 92 15 05 40
       1.609438 1.7917595 1.9459101 2.0794415
0000a0 54 9f 0c 40 8e 5d 13 40 1e 77 19 40 b6 08 1f 40
       2.1972246 2.3025851 2.3978953 2.4849067
0000b0 21 28 24 40 51 e6 28 40 b2 50 2d 40 18 72 31 40
       2.5649493 2.6390574 2.7080503 2.7725887
0000c0 41 54 59 b4 18 72 31 3f 54 9f 8c 3f 18 72 b1 3f
       -2.0240351e-07 0.6931472 1.0986123 1.3862944
0000d0 10 02 ce 3f 60 58 e5 3f 95 13 f9 3f 92 15 05 40
       1.609438 1.7917595 1.9459101 2.0794415
0000e0 54 9f 0c 40 8e 5d 13 40 1e 77 19 40 b6 08 1f 40
       2.1972246 2.3025851 2.3978953 2.4849067
0000f0 f5 27 24 40 51 e6 28 40 b2 50 2d 40 18 72 31 40
       2.5649388 2.6390574 2.7080503 2.7725887
000100 fc 9d 21 31 18 72 31 3f 54 9f 8c 3f 18 72 b1 3f
       2.3518387e-09 0.6931472 1.0986123 1.3862944
000110 10 02 ce 3f 60 58 e5 3f 95 13 f9 3f 92 15 05 40
       1.609438 1.7917595 1.9459101 2.0794415
000120 54 9f 0c 40 8e 5d 13 40 1e 77 19 40 b6 08 1f 40
       2.1972246 2.3025851 2.3978953 2.4849067
000130 21 28 24 40 51 e6 28 40 b2 50 2d 40 18 72 31 40
       2.5649493 2.6390574 2.7080503 2.7725887
000140 4b a4 89 b0 18 72 31 3f 54 9f 8c 3f 18 72 b1 3f
       -1.0014757e-09 0.6931472 1.0986123 1.3862944
000150 10 02 ce 3f 60 58 e5 3f 95 13 f9 3f 92 15 05 40
       1.609438 1.7917595 1.9459101 2.0794415
000160 54 9f 0c 40 8e 5d 13 40 1e 77 19 40 b6 08 1f 40
       2.1972246 2.3025851 2.3978953 2.4849067
000170 21 28 24 40 51 e6 28 40 b2 50 2d 40 18 72 31 40
       2.5649493 2.6390574 2.7080503 2.7725887
000180 ba 2a 31 b5 18 72 31 3f 3c 9f 8c 3f 0d 72 b1 3f
       -6.5999814e-07 0.6931472 1.0986094 1.386293
000190 15 02 ce 3f 68 58 e5 3f 7f 13 f9 3f 92 15 05 40
       1.6094385 1.7917604 1.9459075 2.0794415
0001a0 54 9f 0c 40 8d 5d 13 40 f9 76 19 40 b6 08 1f 40
       2.1972246 2.302585 2.3978865 2.4849067
0001b0 f0 26 24 40 5a e6 28 40 a8 50 2d 40 26 72 31 40
       2.5648766 2.6390595 2.7080479 2.772592
0001c0 07 ef 42 33 18 72 31 3f 51 9f 8c 3f 17 72 b1 3f
       4.538654e-08 0.6931472 1.098612 1.3862942
0001d0 12 02 ce 3f 60 58 e5 3f 93 13 f9 3f 92 15 05 40
       1.6094382 1.7917595 1.9459099 2.0794415
0001e0 54 9f 0c 40 8e 5d 13 40 11 77 19 40 b6 08 1f 40
       2.1972246 2.3025851 2.3978922 2.4849067
0001f0 f7 27 24 40 51 e6 28 40 b1 50 2d 40 17 72 31 40
       2.5649393 2.6390574 2.70805 2.7725885
000200 ee d2 0a 31 18 72 31 3f 54 9f 8c 3f 18 72 b1 3f
       2.0201543e-09 0.6931472 1.0986123 1.3862944
000210 10 02 ce 3f 60 58 e5 3f 95 13 f9 3f 92 15 05 40
       1.609438 1.7917595 1.9459101 2.0794415
000220 54 9f 0c 40 8e 5d 13 40 1e 77 19 40 b6 08 1f 40
       2.1972246 2.3025851 2.3978953 2.4849067
000230 20 28 24 40 51 e6 28 40 b2 50 2d 40 18 72 31 40
       2.564949 2.6390574 2.7080503 2.7725887
000240 1b 47 ac 33 18 72 31 3f 54 9f 8c 3f 18 72 b1 3f
       8.022308e-08 0.6931472 1.0986123 1.3862944
000250 10 02 ce 3f 60 58 e5 3f 95 13 f9 3f 92 15 05 40
       1.609438 1.7917595 1.9459101 2.0794415
000260 54 9f 0c 40 8e 5d 13 40 17 77 19 40 b6 08 1f 40
       2.1972246 2.3025851 2.3978937 2.4849067
000270 16 28 24 40 51 e6 28 40 b2 50 2d 40 18 72 31 40
       2.5649467 2.6390574 2.7080503 2.7725887
000280 9d b1 f8 30 18 72 31 3f 54 9f 8c 3f 18 72 b1 3f
       1.8094856e-09 0.6931472 1.0986123 1.3862944
000290 10 02 ce 3f 60 58 e5 3f 95 13 f9 3f 92 15 05 40
       1.609438 1.7917595 1.9459101 2.0794415
0002a0 54 9f 0c 40 8e 5d 13 40 1e 77 19 40 b6 08 1f 40
       2.1972246 2.3025851 2.3978953 2.4849067
0002b0 21 28 24 40 51 e6 28 40 b2 50 2d 40 18 72 31 40
       2.5649493 2.6390574 2.7080503 2.7725887
0002c0 d5 00 c5 35 16 72 31 3f 7d 9f 8c 3f 2e 72 b1 3f
       1.4677886e-06 0.69314706 1.0986172 1.386297
0002d0 03 02 ce 3f 54 58 e5 3f b0 13 f9 3f 92 15 05 40
       1.6094364 1.7917581 1.9459133 2.0794415
0002e0 54 9f 0c 40 90 5d 13 40 45 77 19 40 b6 08 1f 40
       2.1972246 2.3025856 2.3979046 2.4849067
0002f0 34 29 24 40 4b e6 28 40 b8 50 2d 40 0b 72 31 40
       2.5650148 2.639056 2.7080517 2.7725856
000300 2a 0b bc 2d 18 72 31 3f 54 9f 8c 3f 18 72 b1 3f
       2.1378083e-11 0.6931472 1.0986123 1.3862944
000310 10 02 ce 3f 60 58 e5 3f 95 13 f9 3f 92 15 05 40
       1.609438 1.7917595 1.9459101 2.0794415
000320 54 9f 0c 40 8e 5d 13 40 1e 77 19 40 b6 08 1f 40
       2.1972246 2.3025851 2.3978953 2.4849067
000330 21 28 24 40 51 e6 28 40 b2 50 2d 40 18 72 31 40
       2.5649493 2.6390574 2.7080503 2.7725887
000340 15 fd 90 2d 18 72 31 3f 54 9f 8c 3f 18 72 b1 3f
       1.6483296e-11 0.6931472 1.0986123 1.3862944
000350 10 02 ce 3f 60 58 e5 3f 95 13 f9 3f 92 15 05 40
       1.609438 1.7917595 1.9459101 2.0794415
000360 54 9f 0c 40 8e 5d 13 40 1e 77 19 40 b6 08 1f 40
       2.1972246 2.3025851 2.3978953 2.4849067
000370 21 28 24 40 51 e6 28 40 b2 50 2d 40 18 72 31 40
       2.5649493 2.6390574 2.7080503 2.7725887
000380 8f d8 6b b2 18 72 31 3f 54 9f 8c 3f 18 72 b1 3f
       -1.372804e-08 0.6931472 1.0986123 1.3862944
000390 10 02 ce 3f 60 58 e5 3f 95 13 f9 3f 92 15 05 40
       1.609438 1.7917595 1.9459101 2.0794415
0003a0 54 9f 0c 40 8e 5d 13 40 1e 77 19 40 b6 08 1f 40
       2.1972246 2.3025851 2.3978953 2.4849067
0003b0 21 28 24 40 51 e6 28 40 b2 50 2d 40 18 72 31 40
       2.5649493 2.6390574 2.7080503 2.7725887
0003c0 7e f1 8f 33 18 72 31 3f 54 9f 8c 3f 18 72 b1 3f
       6.7028836e-08 0.6931472 1.0986123 1.3862944
0003d0 10 02 ce 3f 60 58 e5 3f 95 13 f9 3f 92 15 05 40
       1.609438 1.7917595 1.9459101 2.0794415
0003e0 54 9f 0c 40 8e 5d 13 40 1e 77 19 40 b6 08 1f 40
       2.1972246 2.3025851 2.3978953 2.4849067
0003f0 23 28 24 40 51 e6 28 40 b2 50 2d 40 18 72 31 40
       2.5649498 2.6390574 2.7080503 2.7725887

q_head.mamba.D f4 [18]
000000 b9 13 80 3f 21 d0 7f 3f ff dc 7e 3f 42 93 80 3f
       1.0006019 0.99926955 0.99555963 1.004494
000010 71 96 80 3f 4f bd 7f 3f a4 94 80 3f 5d 02 80 3f
       1.0045911 0.99898237 1.0045362 1.0000721
000020 b2 65 80 3f 87 e2 7e 3f b1 6e 80 3f 63 86 80 3f
       1.0031035 0.99564403 1.003378 1.0041012
000030 bc 79 7f 3f e0 59 7f 3f 75 8a 80 3f 59 96 80 3f
       0.99795127 0.99746513 1.0042254 1.0045882
000040 d2 7b 80 3f 0c a2 7f 3f
       1.0037787 0.9985664

q_head.mamba.in_proj.weight f4 [36, 9]
000000 13 de 9c bd 68 b4 a3 3d 13 96 e4 bd 3d b3 4c 3d
       -0.07659545 0.07993394 -0.11161437 0.049975622
000010 d6 58 97 bd 2c f0 89 be 7b ac 0c 3c d1 4a 24 bd
       -0.07389991 -0.2694105 0.008586044 -0.040110413
000020 56 37 a8 3e d1 18 e2 bc ff 06 1b 3e d2 03 36 3e
       0.32854718 -0.027599724 0.15139388 0.17774895
000030 ae df 93 be 95 49 e7 3d 2d 30 38 3e 8c 72 30 3e
       -0.28881592 0.112933315 0.17987128 0.17231196
000040 f4 d8 93 3b e9 99 a7 be 7e 8c 1a 3e 72 85 62 bc
       0.004511947 -0.32734612 0.15092656 -0.013825761
000050 a7 54 8e 3d 1e 1d fe bd f0 83 0b be 80 ac 39 be
       0.0694974 -0.124078974 -0.13624549 -0.1813221
000060 16 91 90 3e b1 b6 de 3d a1 65 4f 3e e8 c1 32 be
       0.28235692 0.10874689 0.20253612 -0.17456782
000070 21 a5 07 bd b9 1f 80 3d 46 ab 0b be e5 48 22 3e
       -0.033116464 0.062560506 -0.13639554 0.1584812
000080 9d ec 0c be 3f 45 9f 3e 11 d5 92 be 89 f0 13 3e
       -0.13762136 0.31107518 -0.28678182 0.14447226
000090 64 aa 44 bd 4c 5a ba bc 9a f0 9a bd 52 f6 8d 3e
       -0.04801406 -0.022748135 -0.07565422 0.2772699
0000a0 b0 bd 22 3d 2c e6 a6 be cc ec 9f 3e 74 c7 ac 3d
       0.03973168 -0.32597482 0.3123535 0.0843648
0000b0 f5 4a 52 be 0e 25 e8 3d 47 c4 64 be 47 47 ab 3d
       -0.20536406 0.113351926 -0.22340499 0.083632044
0000c0 7d a6 54 3e c7 18 a0 3e 6e 7d 81 be 22 8f d3 3d
       0.20766635 0.31268904 -0.25291008 0.10330035
0000d0 93 85 43 bd d9 d5 72 be e4 cc 40 be 79 c0 42 be
       -0.04773481 -0.23714389 -0.1882816 -0.19018735
0000e0 37 b8 04 bd 99 fe 80 be ef cd 33 bd ca c3 3a 3e
       -0.032402243 -0.25194243 -0.043897565 0.1823875
0000f0 20 be 12 bd ce 37 56 be 0e 8a 52 3c a2 87 6b be
       -0.03582585 -0.20919725 0.012850298 -0.23000959
000100 ca 81 5e 3e 27 60 14 3e a6 25 08 3e 4b 07 83 3e
       0.21729198 0.14489804 0.13295612 0.25591502
000110 22 c6 8e 3e 24 50 46 bd 51 dc c3 38 a9 85 42 be
       0.27885538 -0.04841627 9.339362e-05 -0.189963
000120 9d 25 c2 3d 88 1d 41 3e c3 d4 30 be 75 14 18 3e
       0.094798304 0.18858922 -0.17268662 0.14851554
000130 c3 fe 1a 3e 89 88 8b be a9 af f1 3d 78 ab 51 be
       0.15136246 -0.27252606 0.11801083 -0.20475566
000140 24 cb 2c 3e bb e5 97 3e ee 3e 46 be 56 e9 48 be
       0.16874367 0.29667458 -0.19359943 -0.1962026
000150 43 04 92 be 01 d7 91 3e 23 1d 76 3e 5a 90 71 3e
       -0.28518876 0.28484347 0.24034552 0.23590222
000160 ff 3a 21 3d ae b0 3b 3e 36 98 46 3e a0 83 21 be
       0.039362904 0.18329117 0.19394001 -0.15772867
000170 1a 6d 19 be 92 97 3f 3e 23 43 3a be de 86 62 be
       -0.14983025 0.18710163 -0.18189673 -0.2212176
000180 57 b5 b8 bc 54 f1 9e 3e 24 32 20 bd b0 e5 9a bd
       -0.022547407 0.31043494 -0.039110318 -0.07563341
000190 4b 6c 91 3e d3 cc 8f 3d 02 9f 57 bd 3e 9b 4c be
       0.28402933 0.07021489 -0.052641876 -0.19981095
0001a0 20 15 3e be 08 bf 9b be 0f f1 3e 3e 3a cb 5c 3e
       -0.18562746 -0.30419183 0.18646644 0.215619
0001b0 61 49 88 be 0c 31 3e bd 05 e5 81 be ba 31 96 3e
       -0.26618484 -0.046433493 -0.2537004 0.29334813
0001c0 28 53 a7 3e 1c c7 85 3e ef b4 95 be 99 65 14 bd
       0.3268063 0.2612847 -0.29239604 -0.036229704
0001d0 d5 e0 dc bd d7 ee 14 3e 1f 34 12 3e e7 46 82 be
       -0.10785071 0.14544235 0.14277695 -0.2544472
0001e0 2c 7c 13 be 89 98 70 3e 21 38 fa bb ec f2 3b bd
       -0.14402837 0.23495688 -0.0076360856 -0.045885965
0001f0 01 d5 92 3d a5 7a 04 bc 41 ac a4 be 3d f0 96 be
       0.071695335 -0.008085881 -0.3216267 -0.29480162
000200 08 92 1a be 91 0c 80 bd ab 74 5c be f2 8d 00 be
       -0.15094769 -0.06252397 -0.2152888 -0.12554148
000210 a4 7a 9a 3e 2b 72 8c 3d 2b 68 7e 3d 5f 6d 82 3e
       0.30171692 0.06857713 0.06211106 0.2547407
000220 62 41 62 be b3 d8 35 3e e6 b9 a2 3e 60 b8 90 be
       -0.22095254 0.17758445 0.31782454 -0.28265667
000230 2b 2a 43 be c2 84 29 bc 78 38 96 3e b5 44 6e bd
       -0.19059055 -0.010346593 0.29339957 -0.058170993
000240 9a a5 1f 3e d4 43 9d be 93 68 76 3e 16 63 a3 be
       0.15590516 -0.3071581 0.2406333 -0.31911534
000250 0a 1b cc bc d9 df 62 bd 40 f7 0f 3e 5f f9 4e be
       -0.024915237 -0.05538926 0.14059162 -0.20212315
000260 40 25 e7 bd 88 99 37 3e 09 6b a2 be c5 25 8f 3e
       -0.11286402 0.17929661 -0.31722286 0.27958503
000270 4a bd 5c 3e cb 83 4e be 83 90 8e bd 7c fc 97 3c
       0.21556583 -0.20167463 -0.06961157 0.018553011
000280 a3 b9 63 be 84 21 1b 3c c5 dd 35 3e d1 dd 6a 3d
       -0.22238784 0.00946844 0.1776038 0.057340447
000290 d0 3e af bd d1 14 db 3c 6b ba af 3d 43 9e 8e bd
       -0.085569024 0.026743324 0.08580478 -0.0696378
0002a0 e2 f8 50 be 80 ca 45 3e 53 d7 89 3c a2 91 d4 3d
       -0.20407441 0.19315529 0.016826307 0.1037934
0002b0 d4 bb 56 3e 7b b8 9f 3e 45 c3 87 3c 68 9e f0 3c
       0.20970088 0.31195435 0.016572604 0.029372409
0002c0 3c 93 67 3e dc 63 95 be 13 2a 76 be 59 f1 55 be
       0.22614759 -0.2917775 -0.24039488 -0.20892848
0002d0 3d d1 6f be bf da 57 bd b6 3e 15 be 85 42 5c be
       -0.23419662 -0.052698847 -0.14574704 -0.2150975
0002e0 61 4f 98 3e d0 80 d5 3d 8e de 86 3e 64 98 0f 3c
       0.2974806 0.1042496 0.2634167 0.00876436
0002f0 15 39 88 3e de a7 b4 3c 9d 63 46 3e 64 fb 26 3e
       0.2660605 0.022052702 0.19373937 0.16306835
000300 94 82 5e bc e8 24 9d 3e a9 91 0b be 31 a5 f7 bd
       -0.013580937 0.3069222 -0.13629784 -0.12092055
000310 57 fd 02 3d e3 a6 91 3e 77 6b db 3d 6a 71 20 3e
       0.031979885 0.28447637 0.10713857 0.15668264
000320 b0 85 df bd 11 a4 56 bd 83 29 e0 bd df 74 45 be
       -0.10914171 -0.05240256 -0.10945418 -0.19282864
000330 f0 7b a2 bd d7 91 7e 3e 92 ad a9 be b9 26 2f be
       -0.079337955 0.24860321 -0.33140236 -0.17104615
000340 f2 33 a8 be 01 7b c6 3d de 27 85 3e 4f ef 9c be
       -0.3285213 0.0969143 0.2600698 -0.30651328
000350 b4 d8 ff bd 12 74 80 be f5 82 13 bb 59 e9 2c 3d
       -0.12492505 -0.25088555 -0.0022508476 0.042214725
000360 51 8d 25 be cf 68 a7 3e 82 11 ac be ce 47 7f 3e
       -0.16167189 0.3269715 -0.33607107 0.24929735
000370 f5 b4 89 be 2c bc 89 bd 4f d2 a8 3d 38 12 12 be
       -0.26895872 -0.06725344 0.08243238 -0.14264762
000380 a9 7c 94 be ab ea 4c 3e 1c a6 5f 3e 54 d7 df 3d
       -0.29001358 0.20011394 0.2184071 0.109297425
000390 44 5a 78 be 43 91 70 bd a6 2a bb 3c 31 fe 1e 3e
       -0.24253184 -0.058732282 0.022847485 0.15526654
0003a0 fc ee a4 3e fd f3 e5 3d 7b 0f 03 be e2 5f 84 3e
       0.3221358 0.11228178 -0.12798874 0.25854403
0003b0 d5 fe e6 bd 18 b0 38 be c2 c6 04 3e cf e0 dc 3d
       -0.11279074 -0.18035924 0.12966445 0.10785066
0003c0 34 78 30 3e 32 bf 9d 3e 2c 8a 93 be b0 84 16 3e
       0.17233354 0.30809933 -0.28816354 0.14699054
0003d0 e0 d1 1e be 7a 09 48 be b6 a9 77 bc 7b 2d a4 3e
       -0.15509748 -0.19534865 -0.015116146 0.3206595
0003e0 7a 63 91 be 64 50 79 be 52 3e 79 be 67 7a 06 3d
       -0.28396207 -0.24347073 -0.2434018 0.032831576
0003f0 1c c3 2b be c7 03 9f 3e 26 ee 0c 3e 8d 4c a7 bd
       -0.16773647 0.3105757 0.13762721 -0.08168898

q_head.mamba.conv1d.weight f4 [18, 1, 4]
000000 46 37 d0 be dc 75 f9 3e 48 98 ae be 98 87 60 bd
       -0.4066717 0.48722732 -0.34100556 -0.054816812
000010 90 be de be a0 00 07 be 1d bf ce be 78 1d e1 3e
       -0.43504763 -0.13183832 -0.40380183 0.43967795
000020 f0 49 d0 be 14 66 d9 3e cf 15 90 3e 84 98 f6 be
       -0.4068141 0.42460692 0.2814164 -0.48163235
000030 06 5f ca be 1a 9d f1 be 56 c8 9d bd 8e d7 bd be
       -0.39525622 -0.4719017 -0.07704227 -0.37078518
000040 a4 29 91 3e 68 65 ee be ed 38 fc be 07 bd bf be
       0.28352082 -0.46561742 -0.4926218 -0.37448904
000050 d8 02 79 3e 00 b5 11 3b 28 60 a8 be 70 2e da be
       0.24317491 0.0022233129 -0.3288586 -0.42613554
000060 94 60 9f 3e b6 72 d0 3e 84 d9 9d 3d e6 62 31 be
       0.3112837 0.40712517 0.077075034 -0.17322883
000070 7e 15 c7 3e 9c ba 52 3e de 62 f9 be df e4 31 3e
       0.38883585 0.20578998 -0.48708242 0.17372464
000080 80 7d ef bc 30 ab 43 be 7c 35 e0 3d e5 ed 9f be
       -0.029234648 -0.19108272 0.10947701 -0.31236187
000090 e2 87 95 3e 28 ab 34 be 19 9f 94 3e 38 87 71 be
       0.29205233 -0.17643416 0.29027632 -0.23586738
0000a0 32 f7 af 3e 12 ff c0 3e 12 0d 2f 3e 44 57 75 3e
       0.34368283 0.37694603 0.1709483 0.2395907
0000b0 a4 3a a3 3e 18 78 d3 bd 51 67 92 3d d4 46 c2 3e
       0.31880677 -0.103256404 0.07148612 0.37944663
0000c0 9c 1d 05 3e 06 8d d6 3e 3a 6e e4 be 55 f5 81 3e
       0.12999576 0.41904467 -0.44615346 0.25382486
0000d0 00 c6 8c 3b 78 7e 9e be cb ca eb 3e 50 8e fb be
       0.0042960644 -0.30955863 0.46053156 -0.49132013
0000e0 70 20 ce be 88 a2 80 3d 6e 9f d5 be 61 3c e3 bd
       -0.40259123 0.062810004 -0.41723198 -0.11095501
0000f0 b2 c2 c1 be e2 3c e2 3e e2 11 5a be 51 93 b5 3e
       -0.37843853 0.44187075 -0.21295884 0.35463956
000100 00 65 a7 3b 00 07 2d be 23 ac 77 be 4a b7 20 3e
       0.0051084757 -0.16897202 -0.24186759 0.15694919
000110 98 1a b4 bd 10 67 89 3d 85 8e f6 3e 5b 3a f4 3e
       -0.08794135 0.06709111 0.4815561 0.47700772

q_head.mamba.conv1d.bias f4 [18]
000000 46 b2 ba 3e 1c 7e 6f 3d d6 95 9e 3e 6b e6 e8 3e
       0.36464137 0.058469877 0.3097369 0.45488295
000010 a3 ff 4d 3e b8 7e bf be f2 a2 d3 3e 60 c2 b9 be
       0.20117049 -0.37401366 0.41335255 -0.3628111
000020 8d d9 bb 3d 78 64 ea 3e a1 13 f1 be 86 73 87 3d
       0.09172354 0.45779777 -0.47085288 0.06613831
000030 69 df 36 3d 12 69 f9 3e ac a0 a4 ba 9c f5 37 be
       0.044646654 0.48712975 -0.0012560091 -0.17964786
000040 8b 5c ee 3e 35 a6 8f 3e
       0.4655498 0.28056493

q_head.mamba.x_proj.weight f4 [33, 18]
000000 82 1a 09 be 3b 7d 74 bd b9 f8 da 3d da 1b 28 be
       -0.13389018 -0.05968974 0.10691971 -0.16416875
000010 b1 71 de bd a6 50 cb bc f8 41 2a 3d 6e b8 10 be
       -0.10861529 -0.02481873 0.04156682 -0.14132854
000020 1d a4 2e 3e 21 8c 04 3d 3d 9c 69 3e 9b 08 d5 bc
       0.17054792 0.0323602 0.22813506 -0.02600508
000030 06 12 19 be 4a f9 74 3d 05 ab e7 3d ae 73 53 3e
       -0.14948282 0.059808053 0.11311916 0.20649597
000040 43 32 54 3e 8e 5c 1d 3e e4 3d 40 3c 9b 18 5a 3c
       0.20722298 0.15367338 0.011733506 0.01331153
000050 05 70 89 bd 16 92 17 be 40 dd 12 3e 1f ad 32 3c
       -0.06710819 -0.14801821 0.14342213 0.010905533
000060 55 44 f6 3c a1 8f 61 bd ba a5 90 bc 54 34 3c 3e
       0.03006188 -0.055068616 -0.01765715 0.18379337
000070 ba c2 f4 bd 52 15 fb bd b1 21 44 be ca 59 4f be
       -0.11951204 -0.12259926 -0.19153477 -0.20249096
000080 79 cc 37 bd 1f 9b a0 bc 64 a6 73 bd b5 44 0e be
       -0.044872735 -0.019605218 -0.059484854 -0.13893397
000090 97 2a c1 3d de 56 2f 3c af 1d 43 be 39 ea 2a 3e
       0.094319515 0.010701863 -0.19054292 0.16690911
0000a0 80 da 2f be 94 fd d7 bc d8 45 73 bd e6 bd c0 3d
       -0.17173195 -0.026366033 -0.05939278 0.0941122
0000b0 d7 d2 ab bc 6c 8b 21 be 99 f0 d4 bd a7 6b d7 bd
       -0.02097456 -0.15775841 -0.10397453 -0.1051858
0000c0 b8 70 52 be d5 93 40 3e f8 e0 07 3d 9d aa d2 bd
       -0.20550811 0.18806393 0.03317353 -0.10286448
0000d0 af 2a 38 3e 2d ac b9 3d f0 4c 73 bd cd b2 67 3b
       0.17985032 0.09066043 -0.059399545 0.0035354376
0000e0 ee 7f 90 3d 88 14 df 3c a5 a0 42 3e 3d 8d fe bd
       0.07055651 0.02723147 0.19006594 -0.12429283
0000f0 c3 54 68 3e bf 3c c8 3d 47 24 1b be 5e cc d3 3d
       0.22688584 0.097772114 -0.15150557 0.10341714
000100 1c d0 4c be 0e 85 41 3e d3 ef 0a be 45 d6 ca 39
       -0.20001262 0.18898413 -0.13568048 0.00038688086
000110 0f 23 de bd ea 10 20 3b f5 93 5a be 97 a6 15 3e
       -0.10846531 0.0024424144 -0.21345504 0.1461433
000120 9b 3e 05 3b 30 86 45 be 31 c3 a1 bd cc 4a 9c 3d
       0.0020331505 -0.1928947 -0.07898558 0.07631454
000130 f3 a3 51 be 3a 7c 3b 3e 6d 44 97 bb 6f b3 70 be
       -0.20472698 0.18309107 -0.0046163113 -0.23505948
000140 9c 38 8e bd 4f 6a 95 bd 6b 45 09 3e fa 3c f2 bd
       -0.06944391 -0.072956674 0.13405387 -0.118280366
000150 f8 8b 3d be 55 18 66 3e 26 a2 1b 3e f1 5a b7 bd
       -0.18510425 0.2247022 0.15198573 -0.089528926
000160 3d 6d 15 3e 20 bb 74 bd 92 bc 8b bc 11 28 c3 3d
       0.14592452 -0.05974877 -0.01705769 0.095291264
000170 1a ed 5e bc 3b 62 b7 3c 9a fb 41 be c1 35 fb 3c
       -0.013606334 0.022385707 -0.18943635 0.03066528
000180 24 44 98 bd 6f d8 94 3d a6 2c 70 bb 36 df ad bd
       -0.07434872 0.07267844 -0.0036647706 -0.0848984
000190 a4 ed fe bd bd 8f 01 bc ef e0 08 be a1 fe 6e bd
       -0.1244767 -0.007907805 -0.13367055 -0.0583483
0001a0 f5 9c 44 be c0 5d 10 bd 00 00 bc bd 5a ae 46 bd
       -0.192005 -0.035245657 -0.091796875 -0.04850612
0001b0 1a 77 b6 bc 84 f5 8e 3d ee 0f 3b be c4 0c 66 be
       -0.022273589 0.06980422 -0.18267795 -0.22465807
0001c0 bf 34 12 be 82 23 98 bd 5a b9 ec bd a8 ca 8c 3d
       -0.14277934 -0.074286476 -0.115587905 0.06874591
0001d0 db d9 d2 bb b4 5a 47 3e f7 e9 f7 3d 0b c8 32 be
       -0.006434662 0.19468194 0.12105172 -0.17459123
0001e0 6a 97 a4 3d 75 5a 6b 3c 70 35 e6 3d ce 3f 27 be
       0.080366924 0.014364828 0.11240661 -0.16332933
0001f0 ef e4 6d 3e ef 33 5a 3e 48 bc 17 3e ec 7f 94 bd
       0.23231862 0.21308874 0.14817917 -0.07250962
000200 7b 5e 3c be 63 e2 61 be d2 d4 86 3d 1f f3 51 3b
       -0.18395416 -0.22059016 0.06583561 0.003203578
000210 c1 9b 0f be d2 4a 2f 3e 85 4c 5c 3d 7f 43 a9 bd
       -0.14024259 0.17118385 0.053783912 -0.08264827
000220 87 51 86 bb b2 23 0e 3e 86 a1 37 be 28 ea eb 3d
       -0.0040990743 0.13880804 -0.1793271 0.11519271
000230 c6 1a a0 3d a6 99 82 bd cd bd c9 3c 59 cc 53 3e
       0.07817607 -0.06376962 0.024626637 0.20683421
000240 2a 5a 4b be 39 4c 0f bd 00 f6 ae 3d e8 36 07 be
       -0.19858614 -0.0349848 0.085430145 -0.13204539
000250 cc ff 43 3e 63 86 76 bd 61 1d f1 3d 8a 06 c3 bd
       0.19140548 -0.060186755 0.11773182 -0.095227316
000260 0b c6 e1 3d 86 92 4e 3e 08 a8 3b bd df 7e 02 3e
       0.11024102 0.20173082 -0.045814544 0.1274371
000270 a6 5c bc 3d cc 38 ed bd d3 8f 58 3e 2e da cb 3d
       0.09197359 -0.11583099 0.21148615 0.09953724
000280 b2 8a e8 bd a5 2b 48 be be 2b d6 bc 84 bc 61 bd
       -0.11354579 -0.19547899 -0.026143905 -0.055111423
000290 8c a7 35 be 24 87 84 3c e6 a2 0a be 13 79 2b be
       -0.17739695 0.016177721 -0.13538703 -0.16745405
0002a0 d8 62 0f 3e 32 7b 95 3c 2d 04 57 3e a4 10 b5 3d
       0.1400255 0.01824722 0.20997687 0.088410646
0002b0 90 43 3a be 19 76 40 be 86 23 a8 bd 9f 29 20 be
       -0.18189836 -0.1879505 -0.082099006 -0.15640877
0002c0 d0 7f a2 3b be bb f6 3d ad 7c 52 3e 1d fd 85 3c
       0.004959084 0.12047528 0.20555373 0.016356045
0002d0 ec a9 6e 3d c7 ef 78 b9 68 d8 32 3c c2 df c7 3d
       0.05826752 -0.00023740447 0.010915853 0.09759475
0002e0 36 69 3d 3e 3d 56 61 bd 21 35 32 be a2 45 01 be
       0.18497166 -0.055013884 -0.1740308 -0.12624219
0002f0 bc 3d e2 3c f2 c9 4b be c0 ae 40 3d df 38 be 3d
       0.027617328 -0.19901255 0.047041655 0.09288191
000300 3a d1 13 be d2 8c 4f 3e 5f 5f 63 be 93 76 cb bd
       -0.14435282 0.20268562 -0.2220435 -0.099347256
000310 c1 b1 42 be 25 94 9e 3d d6 91 d9 3d fa 24 0a bd
       -0.1901312 0.077431 0.10623519 -0.03372667
000320 08 e5 a4 3d 35 8d ea 3d ed ca 5c 3e 3b ca 35 be
       0.08051497 0.11452714 0.21561785 -0.17752926
000330 90 5c 4d 3e a3 76 44 be 3f 2d 2b be 16 df f0 bd
       0.20054841 -0.19185881 -0.16716479 -0.117613
000340 b6 30 83 3d 14 31 16 be 2d e9 fd bd 6b 5f 43 3e
       0.06405775 -0.1466716 -0.123979904 0.19079368
000350 ec 4f 33 be 80 a3 5d be 95 c7 fc 3d 61 8c ea 3d
       -0.17510957 -0.21644402 0.12342755 0.114525564
000360 f1 80 c7 bb 29 3f 19 be f0 0b 00 bd 76 81 29 be
       -0.006088369 -0.149655 -0.031261384 -0.16553292
000370 5a 33 d1 3b 3b 74 0d 3e 63 e7 2b 3b cd 48 66 be
       0.0063842954 0.1381387 0.0026230447 -0.22488709
000380 e9 d4 ed bd 24 d8 0c 3e e1 b9 2f be e7 0f d8 3d
       -0.11612875 0.13754326 -0.17160751 0.10549908
000390 2b ad 40 be ce 22 a0 3c 3f c5 de bd 79 0c 0e be
       -0.18816058 0.019547846 -0.108774655 -0.13871945
0003a0 ca f5 6c 3e c6 c3 53 3c 88 b1 6d be 5e a0 2d 3e
       0.23140636 0.012925094 -0.23212254 0.16955706
0003b0 15 c7 47 be 67 80 69 be c8 cc af bd 87 c4 6c 3e
       -0.19509538 -0.22802888 -0.08583981 0.23121844
0003c0 6a 9f dd bc c1 25 2a 3e 5b ec e4 3c 40 20 34 be
       -0.027053554 0.16615964 0.027944734 -0.17590427
0003d0 fd 7c 57 3e c0 d4 30 3d bf 1a d6 bc b3 63 0a bd
       0.21043773 0.043171644 -0.0261358 -0.033786487
0003e0 ce 85 00 3e 6e 0b 45 be 56 b5 d8 bd 57 4f 6b bd
       0.12551042 -0.19242641 -0.10581462 -0.05744871
0003f0 7a fd 15 3e e1 72 15 3d 6e b5 2e 3e b2 1d b1 3c
       0.14647475 0.03648651 0.17061397 0.021620605

q_head.mamba.dt_proj.weight f4 [18, 1]
000000 ad 51 e4 3e 2c 01 ec be 23 25 29 bf 6c ee 58 3f
       0.44593564 -0.46094644 -0.6607229 0.847388
000010 ab 1f f3 be 06 95 db 3e f2 45 a8 be af dc 24 3f
       -0.47485098 0.42887133 -0.32865864 0.64399236
000020 d0 58 ed 3e a9 5e a0 3a 2e ea e2 3e 9c 1f f9 3e
       0.4635682 0.0012235242 0.4431929 0.4865693
000030 f6 60 15 3f e7 40 43 bf e9 99 ea be b1 c2 77 3f
       0.58351076 -0.7627091 -0.4582055 0.9678145
000040 d5 b1 1b be ba f9 61 bf
       -0.15204556 -0.8827168

q_head.mamba.dt_proj.bias f4 [18]
000000 f7 e9 6f c0 df 1d d0 c0 13 46 90 c0 ca 44 81 c0
       -3.748655 -6.5036464 -4.508554 -4.039647
000010 db 1a b7 c0 53 72 ae c0 6e 74 79 c0 b0 f7 38 c0
       -5.7220283 -5.4514556 -3.8977313 -2.8901176
000020 a1 e6 6b c0 31 bf 75 c0 d6 b8 c7 c0 c6 5f 13 c0
       -3.6859515 -3.8397944 -6.241313 -2.3027205
000030 b3 1d d3 c0 e6 82 ce c0 a4 90 6e c0 44 36 2d c0
       -6.5973754 -6.453479 -3.7275782 -2.706437
000040 5d 2a 91 c0 4f 53 9a c0
       -4.5364213 -4.8226695

q_head.mamba.out_proj.weight f4 [9, 18]
000000 8c 26 4f be d8 cf ac 3d 82 fe 6c be d9 ba 1c 3d
       -0.20229548 0.084380805 -0.23143962 0.03826413
000010 3c 61 33 3d da 12 6c 3e c6 26 10 be 68 38 24 be
       0.0437939 0.23054066 -0.14077291 -0.16037142
000020 06 28 f3 bd 36 8d ef bd 69 e0 b0 bd 3d 9e 13 3e
       -0.11872868 -0.11696856 -0.08636553 0.14415832
000030 f3 45 70 be b7 0f c4 bd a6 ec 53 3e f7 d3 07 be
       -0.23464184 -0.0957331 0.20695743 -0.13264452
000040 af 98 a0 bd de 2d 52 bd fe 9b 12 be 1f c3 8d 3d
       -0.07841622 -0.051313274 -0.14317319 0.06921982
000050 05 2f 27 3e 3d bc d1 3b 8c f1 45 3e 83 89 c5 3d
       0.1632653 0.0064006136 0.19330424 0.09645369
000060 9f 6d 1f be df 7e 0e bd b7 62 5f 3e b7 f1 9e bc
       -0.15569161 -0.034788962 0.21815 -0.019402368
000070 d4 b3 a1 3d 95 92 0f be 5d 59 47 be 00 79 53 3e
       0.078956276 -0.1402076 -0.19467683 0.20651627
000080 b3 e4 4f be 25 ac d6 3d 0a ac 3d 3c 3c 4b 32 3e
       -0.20302086 0.10482053 0.011576662 0.17411512
000090 e6 ba 18 be 9f 5d 55 be 29 89 32 be 22 7a 5d 3e
       -0.14915046 -0.20836495 -0.17435135 0.21628621
0000a0 81 2e ee 3d 94 37 9d 3d a4 b8 32 be 69 57 a9 bd
       0.11629964 0.07676616 -0.17453247 -0.08268625
0000b0 ce 15 b5 3c f2 99 21 3d 2f 34 a2 3c df 1d b8 3b
       0.022105124 0.039453454 0.019800274 0.0056187953
0000c0 2a 96 cd 3d c2 8e 4d be df 1e ef 3d 59 c0 3f be
       0.10038407 -0.20073989 0.1167581 -0.18725719
0000d0 64 64 e6 3d 3d 4d b6 bd 2f f7 10 be 40 32 34 3e
       0.11249617 -0.08901451 -0.14156793 0.17597294
0000e0 e4 49 05 3e 51 4a 5f 3e 27 e8 3b be 7f 72 6c be
       0.13016468 0.21805693 -0.18350278 -0.23090552
0000f0 99 d7 97 3d fa 80 f0 bd 3b 69 ef bc 0f 8f 49 be
       0.07414169 -0.1174335 -0.029224982 -0.19683479
000100 4a 2f a3 3c 7a 28 54 bd eb d3 07 3e 72 e7 5f 3e
       0.01992001 -0.051796414 0.13264434 0.21865633
000110 40 24 df bb 67 06 35 be 98 3f f7 bc 0c e0 c5 bd
       -0.0068097413 -0.17678224 -0.030181691 -0.09661874
000120 7d 61 1b be 75 2b ef bc 03 e4 24 be 67 3b 3b be
       -0.15173908 -0.029195527 -0.16102605 -0.18284379
000130 ee 36 68 3d ea c2 af bd a2 33 7f bc 5f 92 4d 3e
       0.05669301 -0.08582099 -0.015576275 0.20075367
000140 cd 96 9e 3d 5c 16 37 be 59 7f 04 be 4b 1a dc 3d
       0.07743607 -0.17879623 -0.12939204 0.107472025
000150 ce b7 c5 bd 04 ca f2 3d 9c 60 bc 3d 48 4e 3c 3c
       -0.096541986 0.11854938 0.09198114 0.011493273
000160 34 de df bd 01 58 aa 3d 61 a7 65 bc 1b 3f a3 bd
       -0.10931054 0.08317567 -0.014016957 -0.07971021
000170 3a a2 6d 3e 24 15 3a 3e 75 c8 19 be f5 9f 02 be
       0.23206416 0.18172127 -0.15017875 -0.12756331
000180 9e 23 5d 3e 3c cc 21 be 05 80 ca 3d 17 2a 90 3d
       0.21595618 -0.15800565 0.09887699 0.07039278
000190 9a 6e 5e be 3b 97 4f 3e 04 f1 22 bd d9 2e b0 bd
       -0.21721879 0.20272534 -0.03978063 -0.086026855
0001a0 b9 29 69 3e e6 10 cc bb 8d 69 24 be d9 a7 62 3e
       0.22769822 -0.0062276004 -0.1605589 0.22134341
0001b0 c8 bd ee 3c 28 ee 86 bd 35 24 4c ba d5 b4 00 be
       0.02914323 -0.065883934 -0.00077873777 -0.12568982
0001c0 c7 0e b3 3d d4 16 b9 3d 60 63 d9 3d b5 cc 02 3e
       0.08743053 0.09037557 0.106146574 0.12773402
0001d0 8c eb 3b 3c dc 0e 3c 3d 30 77 68 3d a0 7b 2a be
       0.011469733 0.04591261 0.05675429 -0.16648722
0001e0 7d bf 0f 3e 03 8d 62 be 09 9d 66 3c 29 b8 e5 bd
       0.1403789 -0.22124104 0.014075526 -0.112167664
0001f0 71 1e 65 3e 1e 02 fd bd 94 df 2e bd f7 65 ff 3d
       0.22374894 -0.123539194 -0.04269369 0.1247062
000200 60 16 1b be 2f ac 42 3d 7d 71 56 3e a8 ca 4f 3e
       -0.15145254 0.04752749 0.2094173 0.20292151
000210 2d d2 f3 3d 9f c4 0f be 86 5a 56 3e 9f df 39 be
       0.11905322 -0.14039849 0.2093297 -0.18151711
000220 75 ec 05 bd bb ce 49 3e 57 0f 33 3e 27 4b 0e 3e
       -0.032696206 0.19707768 0.1748632 0.13895856
000230 09 84 61 be a6 49 2d 3e 14 fa 02 3d 83 e2 55 be
       -0.22023024 0.16922626 0.031976774 -0.20887189
000240 46 b9 81 3d b4 28 34 3e bb 7a 44 be d5 2c 60 3e
       0.06334166 0.17593652 -0.19187443 0.21892102
000250 fc aa 70 be 40 57 cf 3d b9 d9 6d bc c8 54 6a 3e
       -0.23502725 0.101240635 -0.014517241 0.22883904
000260 70 be 44 be 25 64 6c 3e 02 6c 8b 3d b9 63 04 bd
       -0.19213271 0.23085077 0.0680771 -0.032321665
000270 90 0a 72 bd 93 fc 3c 3e 08 d0 01 3e d5 a2 26 bc
       -0.059092104 0.18455724 0.12677014 -0.010170658
000280 37 b1 27 3e 0f 72 6a 3d
       0.16376196 0.05723768

q_head.final_norm.gamma f4 [9]
000000 00 00 80 3f 00 00 80 3f 00 00 80 3f 00 00 80 3f
       1.0 1.0 1.0 1.0
000010 00 00 80 3f 00 00 80 3f 00 00 80 3f 00 00 80 3f
       1.0 1.0 1.0 1.0
000020 00 00 80 3f
       1.0

ema_model.q_head.action_bin_embeddings f4 [2, 256, 9]
000000 1a 10 3b 3b db 38 1c bc 04 e8 85 bb d7 68 bf bc
       0.0028543533 -0.00953504 -0.0040864963 -0.023365421
000010 e9 40 ce 3b 94 1c c7 3c dd d0 7a 3b f9 0e 5e 3b
       0.006294359 0.02430562 0.0038271465 0.0033883436
000020 fb 78 94 bc 81 d7 ec 35 0e cc b2 3c 37 6f 0f bd
       -0.018124094 1.764609e-06 0.021825816 -0.035018172
000030 33 e4 b5 bb 32 a1 c9 3c b6 29 6b 3c 02 3f 63 3a
       -0.005550885 0.024612997 0.014353206 0.00086687517
000040 66 26 93 3c 05 b9 47 3c 8d 15 a7 bc 7a 9c 51 3b
       0.017962646 0.012190108 -0.020396018 0.0031984136
000050 0c 1b 06 bd 7e ec d9 3c c7 f0 06 3d 70 da 9f 3b
       -0.032740638 0.026602026 0.032944467 0.0048783347
000060 06 52 52 bc 61 13 1d 3b b3 41 28 bc f1 ff 38 3c
       -0.012836939 0.002396785 -0.01026957 0.01129149
000070 ac 4c 40 3b 31 8a a0 3c b3 6d 25 bc 82 03 4f 3c
       0.0029342575 0.019597145 -0.010096955 0.012635114
000080 e8 0c d9 3a de c1 b0 bb 99 f7 6e 3c 4b ed da 3b
       0.0016559632 -0.0053942045 0.014585399 0.0066811196
000090 d7 2b 35 bb ff db 1a bc 42 56 37 3c 90 f9 e5 b5
       -0.0027644539 -0.009451865 0.011189999 -1.7134462e-06
0000a0 11 fe 62 bc e9 be b7 bb 95 5b e1 3b 16 5a 0e bd
       -0.013854519 -0.005607475 0.0068773725 -0.03475388
0000b0 78 13 48 3c a0 56 15 3c 5f 62 12 3c b9 a3 97 bc
       0.012211673 0.009114891 0.008934586 -0.018510686
0000c0 9a 9f a8 bc c5 d3 aa 3a 2a c2 54 bd 11 b7 b0 bc
       -0.020583916 0.0013033083 -0.05194298 -0.021571668
0000d0 ed d6 7e 3c 8e 91 04 3c af 7b aa bc 6e 6d 62 3c
       0.015554172 0.008091344 -0.02081093 0.013820035
0000e0 94 06 2c 3c 1b 4c 36 bd 6e cc 89 3a 1f 3d da 3c
       0.010499615 -0.044506174 0.0010513195 0.026640473
0000f0 8a 92 b0 bb 74 3c 99 3c b3 b3 67 bc b9 eb 0a bd
       -0.0053885626 0.018705584 -0.014141965 -0.03391621
000100 fa 27 0d bd a8 1b 78 bb 6c fe b3 b6 3c 7e c8 bc
       -0.034461953 -0.0037858281 -5.3642343e-06 -0.024474256
000110 64 e3 b1 bc d3 28 4f 3c 77 af 14 3d 49 5c 68 3d
       -0.021714874 0.012644011 0.03630015 0.056728635
000120 84 05 16 3c 66 11 0d 3b cf b4 bf bc 41 39 3e 3c
       0.009156588 0.0021525263 -0.023401646 0.01161033
000130 63 7f 83 3b 41 60 c0 bc 22 36 71 3c 52 3c fa bc
       0.0040129884 -0.023483397 0.014722379 -0.030546341
000140 96 39 13 bc ae 36 4f bc 51 96 41 3c 3c 6f 7e 3c
       -0.0089858975 -0.012647314 0.011815623 0.01552945
000150 85 78 05 3d fa 29 0c bc 76 3e ab bc 80 18 80 bb
       0.03258564 -0.00855493 -0.020903807 -0.0039091706
000160 05 f4 b9 3c f4 70 df 3b e4 fd 98 3b 30 d2 73 bc
       0.022699365 0.006818885 0.004668938 -0.014881656
000170 c2 d5 46 bd 80 62 99 3b c8 1f e4 3a 59 78 33 bc
       -0.0485437 0.0046809316 0.0017404491 -0.010953986
000180 a4 e3 4e 3c f8 69 16 bd f0 ce 46 bc 97 b7 5a bd
       0.012627516 -0.036722153 -0.012134299 -0.05339774
000190 94 57 81 3c 63 c4 a8 3c 79 b4 a4 3b 7b b9 90 3c
       0.01578883 0.020601457 0.005026397 0.017666569
0001a0 d7 3f b3 3c 7d 02 8e ba 48 1c b9 39 81 da fe 3b
       0.021881027 -0.0010834482 0.0003530702 0.0077775125
0001b0 86 b2 f8 bc c8 1b 18 3c 32 87 22 bd 4c 85 ec 3b
       -0.030358564 0.009283967 -0.039679714 0.0072180387
0001c0 30 49 92 bc a1 9a e2 3c df 4e a2 3b d5 45 1c bc
       -0.017857164 0.027661623 0.00495325 -0.009538134
0001d0 86 6f 03 bc 4a 2a 80 bc 72 e4 72 3c 98 fc 85 bc
       -0.008022195 -0.015645165 0.014824973 -0.016355798
0001e0 20 48 af bb 37 67 77 3b 28 53 c0 bc 09 27 0a 3d
       -0.005349174 0.003775073 -0.023477152 0.033728633
0001f0 7e 57 a7 3a 3a 18 06 bc 73 3a c7 bc e3 31 8d 3c
       0.0012767164 -0.008184487 -0.024319863 0.017235702
000200 ee 8d ce bc 44 97 b3 bb d7 1d 1d 3b 53 5c 08 3c
       -0.025214162 -0.0054806788 0.0023974085 0.008322793
000210 b1 8a 89 3c 04 1e aa bc 02 34 14 bc e1 cb cb 3b
       0.016789766 -0.020766266 -0.009045603 0.0062193726
000220 e4 67 55 3c 06 42 0e 3c 9a ca 53 bc 82 07 54 3c
       0.013025258 0.008682733 -0.012926722 0.012941243
000230 53 58 cc 3b 92 db 73 bc 54 31 a2 3c dc ca 90 bc
       0.006236115 -0.014883893 0.019798912 -0.017674856
000240 46 61 25 3b 7d ff 8d 3c 78 e4 36 3d 7e 93 9d 3b
       0.0025234981 0.01733374 0.04465148 0.004808842
000250 bf af 1c 3d db 61 8a bc 11 cb 98 3b d5 d4 88 bc
       0.038253542 -0.016892364 0.0046628793 -0.016703049
000260 b7 63 34 bc f5 4f cb 3c 44 a6 50 3c c2 b4 1d 3c
       -0.011010102 0.0248184 0.012734953 0.009625616
000270 97 fc 86 3c 65 1a 0f bb fa d1 7c 3c 8c b5 8b 3c
       0.016477866 -0.00218358 0.015430922 0.017054342
000280 83 5b f1 3c f4 4c 61 bc 21 76 a3 bc 40 c8 e0 bc
       0.029462582 -0.013751257 -0.01995379 -0.027439237
000290 cc 9b 51 bc 58 29 e7 3c 17 96 a4 bc 78 37 a4 bc
       -0.0127934925 0.028217956 -0.0200911 -0.02004598
0002a0 15 24 bb bc c9 fb 6f bc bd 4d 9f 3c 07 4a 5e 3c
       -0.022844354 -0.014647433 0.019446248 0.013567454
0002b0 d0 59 27 bd 88 0c a0 3c 66 ea 38 bc 7d e9 80 3c
       -0.040857136 0.019537225 -0.011286354 0.015736336
0002c0 24 a2 bb ba d4 25 16 3b d1 af 1b 3d 9f 6c 3d bc
       -0.001431529 0.002291073 0.03800947 -0.011561542
0002d0 5c d3 9d 3c a4 61 97 3c 45 32 25 bd fb 50 04 bb
       0.019265823 0.018479176 -0.040331144 -0.002018987
0002e0 a7 fd 03 bb 47 04 06 3b 40 1b 57 3a 34 74 bd bc
       -0.0020140202 0.0020449327 0.00082056597 -0.023126699
0002f0 ee 04 b5 3b da d5 15 bd e5 c2 cd bc d5 57 cb bc
       0.0055242693 -0.036580898 -0.025117347 -0.024822155
000300 06 44 8b 3c b7 a4 35 3b 3e 9b 21 3c af 23 83 bc
       0.01700021 0.0027716586 0.009863673 -0.016008226
000310 34 83 91 bc 8e 47 b2 bc ef 61 ae bc 16 84 04 3c
       -0.017762758 -0.021762636 -0.021286933 0.008088132
000320 df 23 f7 bb 0e 69 88 bc c1 1b 94 bb c9 8b 88 bb
       -0.007542118 -0.016651656 -0.00451991 -0.0041670543
000330 e7 e2 19 3d 6a fa 42 bc dd eb 51 3c ef dd 10 bd
       0.037569907 -0.011900524 0.012812582 -0.035367902
000340 be 23 e8 bc 1a fd 13 3c e5 e1 ec bc 97 f3 56 bc
       -0.028337356 0.009032512 -0.028916309 -0.0131196
000350 81 ec 5e 3c 70 7f 3e 3b aa 48 0f 3d b8 5b fc bb
       0.013606192 0.0029067658 0.034981407 -0.0077013634
000360 8a 48 d9 3a ac 76 8d 3c 75 1d 2f bd df 18 a4 bc
       0.0016577404 0.017268501 -0.0427527 -0.02003139
000370 59 50 90 3c fa 48 fa b9 1d 3b 82 bc 5d 08 2c 3c
       0.017616438 -0.00047738088 -0.015897328 0.010500041
000380 8a 92 dc 3c 3c 2b c4 bc d3 ad f9 bc 92 f9 02 bc
       0.026925344 -0.023946397 -0.030478394 -0.0079940725
000390 e7 11 8e 3b 98 65 91 b9 66 d0 92 bc 22 76 37 bd
       0.00433563 -0.00027732248 -0.017921638 -0.044790395
0003a0 a1 6c 3c 3d 90 59 7d bc 0c 8c ed bc 6a 44 03 bd
       0.046002034 -0.015463248 -0.028997444 -0.032047667
0003b0 4e 81 28 bd 90 67 03 3c 56 19 e2 bb 39 61 8e 3c
       -0.04113894 0.008020297 -0.006899993 0.017380344
0003c0 7f fb 6f bb 12 8c 82 bb 00 ae 3f bc 54 98 94 bc
       -0.003661841 -0.003983983 -0.0116992 -0.018139042
0003d0 f1 7e 92 bb 7f 9e e2 bb f9 aa 8c bc ab b9 07 3c
       -0.004470699 -0.006915867 -0.01717137 0.008284013
0003e0 2a 2f be bc f0 df 37 bc ce 92 05 3c 6d 41 67 3c
       -0.023215849 -0.011222824 0.008152677 0.01411472
0003f0 f4 d2 2c bc 7e 93 ac bc 0c e1 72 3a 95 2d 77 3b
       -0.010548342 -0.021066424 0.0009265102 0.0037716378

ema_model.q_head.mamba.A_log f4 [18, 16]
000000 4b 4d 3d 33 18 72 31 3f 54 9f 8c 3f 18 72 b1 3f
       4.407529e-08 0.6931472 1.0986123 1.3862944
000010 10 02 ce 3f 60 58 e5 3f 95 13 f9 3f 92 15 05 40
       1.609438 1.7917595 1.9459101 2.0794415
000020 54 9f 0c 40 8e 5d 13 40 1e 77 19 40 b6 08 1f 40
       2.1972246 2.3025851 2.3978953 2.4849067
000030 2c 28 24 40 51 e6 28 40 b2 50 2d 40 18 72 31 40
       2.564952 2.6390574 2.7080503 2.7725887
000040 58 2a f2 2e 18 72 31 3f 54 9f 8c 3f 18 72 b1 3f
       1.10124077e-10 0.6931472 1.0986123 1.3862944
000050 10 02 ce 3f 60 58 e5 3f 95 13 f9 3f 92 15 05 40
       1.609438 1.7917595 1.9459101 2.0794415
000060 54 9f 0c 40 8e 5d 13 40 1e 77 19 40 b6 08 1f 40
       2.1972246 2.3025851 2.3978953 2.4849067
000070 21 28 24 40 51 e6 28 40 b2 50 2d 40 18 72 31 40
       2.5649493 2.6390574 2.7080503 2.7725887
000080 5a ea 77 31 18 72 31 3f 54 9f 8c 3f 18 72 b1 3f
       3.6076444e-09 0.6931472 1.0986123 1.3862944
000090 10 02 ce 3f 60 58 e5 3f 95 13 f9 3f 92 15 05 40
       1.609438 1.7917595 1.9459101 2.0794415
0000a0 54 9f 0c 40 8e 5d 13 40 1e 77 19 40 b6 08 1f 40
       2.1972246 2.3025851 2.3978953 2.4849067
0000b0 21 28 24 40 51 e6 28 40 b2 50 2d 40 18 72 31 40
       2.5649493 2.6390574 2.7080503 2.7725887
0000c0 a7 e3 2f b4 18 72 31 3f 54 9f 8c 3f 18 72 b1 3f
       -1.6380964e-07 0.6931472 1.0986123 1.3862944
0000d0 10 02 ce 3f 60 58 e5 3f 95 13 f9 3f 92 15 05 40
       1.609438 1.7917595 1.9459101 2.0794415
0000e0 54 9f 0c 40 8e 5d 13 40 1e 77 19 40 b6 08 1f 40
       2.1972246 2.3025851 2.3978953 2.4849067
0000f0 fd 27 24 40 51 e6 28 40 b2 50 2d 40 18 72 31 40
       2.5649407 2.6390574 2.7080503 2.7725887
000100 5e 63 e2 30 18 72 31 3f 54 9f 8c 3f 18 72 b1 3f
       1.6471906e-09 0.6931472 1.0986123 1.3862944
000110 10 02 ce 3f 60 58 e5 3f 95 13 f9 3f 92 15 05 40
       1.609438 1.7917595 1.9459101 2.0794415
000120 54 9f 0c 40 8e 5d 13 40 1e 77 19 40 b6 08 1f 40
       2.1972246 2.3025851 2.3978953 2.4849067
000130 21 28 24 40 51 e6 28 40 b2 50 2d 40 18 72 31 40
       2.5649493 2.6390574 2.7080503 2.7725887
000140 ec d3 81 b0 18 72 31 3f 54 9f 8c 3f 18 72 b1 3f
       -9.446217e-10 0.6931472 1.0986123 1.3862944
000150 10 02 ce 3f 60 58 e5 3f 95 13 f9 3f 92 15 05 40
       1.609438 1.7917595 1.9459101 2.0794415
000160 54 9f 0c 40 8e 5d 13 40 1e 77 19 40 b6 08 1f 40
       2.1972246 2.3025851 2.3978953 2.4849067
000170 21 28 24 40 51 e6 28 40 b2 50 2d 40 18 72 31 40
       2.5649493 2.6390574 2.7080503 2.7725887
000180 da 96 da b4 18 72 31 3f 45 9f 8c 3f 11 72 b1 3f
       -4.0715423e-07 0.6931472 1.0986105 1.3862935
000190 12 02 ce 3f 64 58 e5 3f 87 13 f9 3f 92 15 05 40
       1.6094382 1.79176 1.9459084 2.0794415
0001a0 54 9f 0c 40 8e 5d 13 40 08 77 19 40 b6 08 1f 40
       2.1972246 2.3025851 2.39789 2.4849067
0001b0 64 27 24 40 56 e6 28 40 ac 50 2d 40 21 72 31 40
       2.5649042 2.6390586 2.7080488 2.7725909
0001c0 c8 4f 9b b3 18 72 31 3f 4e 9f 8c 3f 15 72 b1 3f
       -7.232262e-08 0.6931472 1.0986116 1.386294
0001d0 12 02 ce 3f 60 58 e5 3f 91 13 f9 3f 92 15 05 40
       1.6094382 1.7917595 1.9459096 2.0794415
0001e0 54 9f 0c 40 8e 5d 13 40 10 77 19 40 b6 08 1f 40
       2.1972246 2.3025851 2.397892 2.4849067
0001f0 de 27 24 40 51 e6 28 40 b1 50 2d 40 17 72 31 40
       2.5649333 2.6390574 2.70805 2.7725885
000200 d5 7e ad 31 18 72 31 3f 54 9f 8c 3f 18 72 b1 3f
       5.049382e-09 0.6931472 1.0986123 1.3862944
000210 10 02 ce 3f 60 58 e5 3f 95 13 f9 3f 92 15 05 40
       1.609438 1.7917595 1.9459101 2.0794415
000220 54 9f 0c 40 8e 5d 13 40 1e 77 19 40 b6 08 1f 40
       2.1972246 2.3025851 2.3978953 2.4849067
000230 21 28 24 40 51 e6 28 40 b2 50 2d 40 18 72 31 40
       2.5649493 2.6390574 2.7080503 2.7725887
000240 e9 25 3c 33 18 72 31 3f 54 9f 8c 3f 18 72 b1 3f
       4.380664e-08 0.6931472 1.0986123 1.3862944
000250 10 02 ce 3f 60 58 e5 3f 95 13 f9 3f 92 15 05 40
       1.609438 1.7917595 1.9459101 2.0794415
000260 54 9f 0c 40 8e 5d 13 40 1c 77 19 40 b6 08 1f 40
       2.1972246 2.3025851 2.3978949 2.4849067
000270 21 28 24 40 51 e6 28 40 b2 50 2d 40 18 72 31 40
       2.5649493 2.6390574 2.7080503 2.7725887
000280 14 be 79 30 18 72 31 3f 54 9f 8c 3f 18 72 b1 3f
       9.085579e-10 0.6931472 1.0986123 1.3862944
000290 10 02 ce 3f 60 58 e5 3f 95 13 f9 3f 92 15 05 40
       1.609438 1.7917595 1.9459101 2.0794415
0002a0 54 9f 0c 40 8e 5d 13 40 1e 77 19 40 b6 08 1f 40
       2.1972246 2.3025851 2.3978953 2.4849067
0002b0 21 28 24 40 51 e6 28 40 b2 50 2d 40 18 72 31 40
       2.5649493 2.6390574 2.7080503 2.7725887
0002c0 36 0b 73 35 18 72 31 3f 71 9f 8c 3f 26 72 b1 3f
       9.054087e-07 0.6931472 1.0986158 1.386296
0002d0 07 02 ce 3f 58 58 e5 3f a8 13 f9 3f 92 15 05 40
       1.6094369 1.7917585 1.9459124 2.0794415
0002e0 54 9f 0c 40 90 5d 13 40 3a 77 19 40 b6 08 1f 40
       2.1972246 2.3025856 2.397902 2.4849067
0002f0 de 28 24 40 4c e6 28 40 b7 50 2d 40 0f 72 31 40
       2.5649943 2.6390562 2.7080514 2.7725866
000300 90 de 8c 2d 18 72 31 3f 54 9f 8c 3f 18 72 b1 3f
       1.6014995e-11 0.6931472 1.0986123 1.3862944
000310 10 02 ce 3f 60 58 e5 3f 95 13 f9 3f 92 15 05 40
       1.609438 1.7917595 1.9459101 2.0794415
000320 54 9f 0c 40 8e 5d 13 40 1e 77 19 40 b6 08 1f 40
       2.1972246 2.3025851 2.3978953 2.4849067
000330 21 28 24 40 51 e6 28 40 b2 50 2d 40 18 72 31 40
       2.5649493 2.6390574 2.7080503 2.7725887
000340 bb 75 10 2f 18 72 31 3f 54 9f 8c 3f 18 72 b1 3f
       1.313855e-10 0.6931472 1.0986123 1.3862944
000350 10 02 ce 3f 60 58 e5 3f 95 13 f9 3f 92 15 05 40
       1.609438 1.7917595 1.9459101 2.0794415
000360 54 9f 0c 40 8e 5d 13 40 1e 77 19 40 b6 08 1f 40
       2.1972246 2.3025851 2.3978953 2.4849067
000370 21 28 24 40 51 e6 28 40 b2 50 2d 40 18 72 31 40
       2.5649493 2.6390574 2.7080503 2.7725887
000380 09 6b 17 b2 18 72 31 3f 54 9f 8c 3f 18 72 b1 3f
       -8.813694e-09 0.6931472 1.0986123 1.3862944
000390 10 02 ce 3f 60 58 e5 3f 95 13 f9 3f 92 15 05 40
       1.609438 1.7917595 1.9459101 2.0794415
0003a0 54 9f 0c 40 8e 5d 13 40 1e 77 19 40 b6 08 1f 40
       2.1972246 2.3025851 2.3978953 2.4849067
0003b0 21 28 24 40 51 e6 28 40 b2 50 2d 40 18 72 31 40
       2.5649493 2.6390574 2.7080503 2.7725887
0003c0 ea fe 05 32 18 72 31 3f 54 9f 8c 3f 18 72 b1 3f
       7.79958e-09 0.6931472 1.0986123 1.3862944
0003d0 10 02 ce 3f 60 58 e5 3f 95 13 f9 3f 92 15 05 40
       1.609438 1.7917595 1.9459101 2.0794415
0003e0 54 9f 0c 40 8e 5d 13 40 1e 77 19 40 b6 08 1f 40
       2.1972246 2.3025851 2.3978953 2.4849067
0003f0 20 28 24 40 51 e6 28 40 b2 50 2d 40 18 72 31 40
       2.564949 2.6390574 2.7080503 2.7725887
