checkpoints/q-mamba/20240816_041649/checkpoint-2.pt (torch, 115222 bytes, 42 tensors)

q_head.action_bin_embeddings f4 [2, 256, 9]
00000000: 9321 4e3b 145a 17bc 1568 7abb 81f2 bcbc
00000010: e4b4 c43b 7c93 c93c 860b 673b e2a1 6e3b
00000020: 72fc 91bc 3f3f 9939 e43a b53c 094d 0ebd
00000030: 9c0c acbb 8137 c73c 6418 703c 0e3f 143a
00000040: 5938 953c 5db2 4c3c 44b4 a4bc 2613 653b
00000050: e4f8 04bd 6462 dc3c efbb 053d cbb7 a93b
00000060: 0542 57bc 17a3 2d3b 5b48 23bc 2fbb 3d3c
00000070: 6fbf 533b 67cd a23c 8e82 20bc 4530 4a3c
00000080: ee3c 003b 62a1 babb 8023 733c 27e1 e43b
00000090: 8d1b 22bb 51fd 15bc c2e4 3b3c bbb9 9c39
000000a0: c6d5 67bc eadc adbb 547a d73b bc51 0dbd
000000b0: 4c0d 4d3c 3619 1a3c 0b40 173c 575f 95bc
000000c0: b429 a6bc a538 843a 7e86 53bd 112f b3bc
000000d0: 667d 813c e78a 093c 601a a8bc 1a4b 673c
000000e0: ac8f 303c 2811 35bd f261 463a 75b4 dc3c
000000f0: 8d72 babb 564e 9b3c 5aba 62bc 12bb 09bd
00000100: 8ef0 0bbd 02f8 65bb 04aa 9a39 f2e7 cabc
00000110: 0c6c afbc cf38 4a3c 6db8 153d a09a 693d
00000120: 1ec8 1a3c 1688 203b 5670 bdbc 0d25 433c
00000130: 21b1 733b ebe8 bdbc 2146 6c3c 6a2a f8bc
00000140: 3e40 0ebc 1674 4abc fe73 463c 127c 813c
00000150: 78b3 063d 63fd 10bc 1ec7 a8bc 83f8 89bb
00000160: f305 bc3c a863 e93b 3581 a23b 6ef9 6ebc
00000170: c8b2 45bd 6837 a33b fc98 bd3a 2a8c 2ebc
00000180: d5f1 493c b260 15bd aed4 41bc 6288 59bd
00000190: 9ec6 833c 90fd aa3c 158e ae3b bf52 8e3c
000001a0: 85b7 b53c e685 b5ba e2ed 1e3a 0c67 043c
000001b0: 3a51 f6bc 74f9 1c3c f364 21bd e55c f63b
000001c0: e5b2 94bc f711 e53c dd6e 983b 0a22 18bc
000001d0: 5cec fcbb e479 7bbc f3b5 773c 23bc 83bc
000001e0: d372 a5bb 8a30 643b 4fdd bdbc 5eea 083d
000001f0: 85c8 c83a 181e 01bc 05d7 c4bc f39e 8f3c
00000200: 5748 ccbc 77c5 a9bb b1d5 093b 5e48 0d3c
00000210: 1f14 873c 310d a8bc 1d3d 0fbc 1451 d53b
00000220: 9045 5a3c f6ca 123c cdde 4ebc 1934 4f3c
00000230: af35 d63b 93cb 78bc 3f43 a43c 2f4e 8ebc
00000240: b66b 383b 546e 903c b906 383d 1a6b a73b
00000250: e47a 1b3d 84ea 87bc 0deb 8e3b ecc2 86bc
00000260: 5d6a 2fbc 43b1 cd3c f083 553c c63d 223c
00000270: 7e72 893c 1468 22bb 54e0 803c 8c3d 893c
00000280: 6c6d f33c 9a53 5cbc d414 a1bc 6859 debc
00000290: de12 4dbc 409f e93c cdff a6bc 20c0 a1bc
000002a0: 179c bdbc efd7 6bbc 6aca a13c a40c 633c
000002b0: 6522 26bd ff50 a23c 98fe 33bc 90ff 7c3c
000002c0: ab2c 94ba cb65 023b c7b8 1c3d 4573 38bc
000002d0: a834 a03c 7ad0 993c 0910 24bd 8f43 e1ba
000002e0: 4b4b 17bb fbbe 193b 321b 083a 4b62 bbbc
000002f0: 9ff7 be3b 34a5 14bd 0f54 cbbc 6513 c9bc
00000300: ecb9 8d3c 1857 223b eb89 263c b09b 85bc
00000310: 4971 8fbc e2ca afbc a000 acbc c361 093c
00000320: b211 eebb 27f3 85bc 9ec2 9dbb e25c 7dbb
00000330: e6a6 183d a9d6 3ebc 35e5 563c 01ad 0fbd
00000340: 83be e5bc 1680 183c 476d eabc 80ba 5bbc
00000350: 8ad4 633c 3ba6 2a3b 8450 103d de62 f2bb
00000360: ba55 ff3a 91e3 8f3c 5bfb 2dbd eaa4 a1bc
00000370: d9e6 8d3c 947f 39b9 13b1 84bc 0416 303c
00000380: 160d df3c f2c9 c1bc fd3e f7bc c0e1 fcbb
00000390: 81e9 973b ede8 15ba 0e59 90bc 22b2 38bd
000003a0: 9c75 3d3d 3660 78bc 641f ebbc f810 02bd
000003b0: 4864 27bd 1a51 083c 3ca3 ebbb a4d4 903c
000003c0: 4fea 81bb 87cd 74bb 64b2 3abc 653c 92bc
000003d0: 03c6 88bb 3ce3 d9bb c035 8abc abf9 023c
000003e0: ecb9 bbbc 2acf 3cbc 1fb9 093c 053a 6c3c
000003f0: 5810 28bc a724 aabc 57b8 9d3a 666e 853b
0.0031453117 -0.009237785 -0.003820901 -0.023064854 0.006003009 0.024606459 0.0035254671 0.0036412408
-0.01782057 0.00029229556 0.022122808 -0.034741435 -0.0052505266 0.024318459 0.014654253 0.0005655148
0.018215345 0.012493697 -0.020105489 0.003495404 -0.032463923 0.026902385 0.03264993 0.0051793805
-0.013138299 0.0026494914 -0.009965981 0.011580273 0.0032310148 0.019873334 -0.009796752 0.01234061
0.0019567567 -0.005695508 0.014840007 0.006984848 -0.002473566 -0.009154634 0.011468114 0.0002989302
-0.014150089 -0.005305876 0.006575862 -0.034501776 0.012515377 0.009405425 0.009231578 -0.018233938
-0.020283557 0.0010087682 -0.051641934 -0.021873029 0.015806865 0.008394933 -0.02052039 0.014117027
0.010776442 -0.044205815 0.00075676956 0.026941517 -0.005689925 0.018958252 -0.013838375 -0.03362567
-0.034164958 -0.003509045 0.0002949984 -0.024768803 -0.021413825 0.012342646 0.036552835 0.057032228
0.009447126 0.0024495176 -0.023124855 0.011910689 0.0037184434 -0.023182353 0.014421017 -0.030293662
-0.008682309 -0.012356779 0.012112616 0.015806232 0.032886 -0.008849475 -0.020602759 -0.004210533
0.022952056 0.0071224757 0.0049592503 -0.014585836 -0.048266202 0.00498097 0.0014465149 -0.010653535
0.012325724 -0.03646917 -0.011830492 -0.05310858 0.016085919 0.020872861 0.005326996 0.01737344
0.022182235 -0.0013849109 0.0006062669 0.008081209 -0.030068029 0.009580959 -0.039402913 0.007518398
-0.01815171 0.027962668 0.004651888 -0.009285459 -0.007718606 -0.015348885 0.015119064 -0.016080922
-0.0050490885 0.003481897 -0.023176817 0.033426635 0.0015318549 -0.00788071 -0.02402831 0.017531848
-0.024936838 -0.0051810103 0.002103191 0.008623211 0.016489087 -0.020514103 -0.008742598 0.0065099094
0.013322249 0.0089595225 -0.012626362 0.012646698 0.0065371613 -0.015185255 0.020051597 -0.017371265
0.0028140373 0.017630734 0.044928286 0.005109203 0.037958995 -0.016591318 0.0043615163 -0.016450368
-0.010706511 0.025108939 0.013031945 0.009902423 0.016778227 -0.0024781274 0.015731968 0.01675298
0.029715262 -0.013447667 -0.019663252 -0.027142242 -0.012516705 0.02851832 -0.020385647 -0.019744933
-0.023145719 -0.014394744 0.019749839 0.013857994 -0.040560145 0.019814013 -0.010985993 0.01544179
-0.0011304816 0.00198971 0.038262155 -0.011257951 0.019556358 0.018776167 -0.040054355 -0.0017186272
-0.002308565 0.002345978 0.00051920407 -0.022874018 0.0058278586 -0.036290362 -0.024820356 -0.02454538
0.017300569 0.002477115 0.010164718 -0.01630959 -0.017510073 -0.021459047 -0.020996392 0.008385125
-0.007265293 -0.016351296 -0.00481446 -0.0038660099 0.03726854 -0.011647859 0.013116171 -0.0350771
-0.028044945 0.009307882 -0.02861656 -0.013411164 0.013905654 0.0026039022 0.035233036 -0.00739704
0.0019480505 0.017564567 -0.04247604 -0.019731957 0.01732199 -0.00017690501 -0.016197717 0.010747436
0.02722792 -0.023655865 -0.030181402 -0.007717341 0.00463599 -0.00057186076 -0.01762059 -0.045091756
0.04625474 -0.015159657 -0.028701492 -0.031754464 -0.04086712 0.008320117 -0.00719109 0.01767952
-0.0039646993 -0.003735395 -0.011395071 -0.017851064 -0.0041739955 -0.006649403 -0.016871333 0.007994096
-0.022915803 -0.011524001 0.008405953 0.01441813 -0.010257803 -0.02076943 0.0012033087 0.0040719984

q_head.mamba.A_log f4 [18, 16]
00000000: 7d00 0b33 1872 313f 549f 8c3f 1872 b13f
00000010: 1002 ce3f 6058 e53f 9513 f93f 9215 0540
00000020: 549f 0c40 8e5d 1340 1e77 1940 b608 1f40
00000030: 2928 2440 51e6 2840 b250 2d40 1872 3140
00000040: 93da cc2e 1872 313f 549f 8c3f 1872 b13f
00000050: 1002 ce3f 6058 e53f 9513 f93f 9215 0540
00000060: 549f 0c40 8e5d 1340 1e77 1940 b608 1f40
00000070: 2128 2440 51e6 2840 b250 2d40 1872 3140
00000080: 2de9 5731 1872 313f 549f 8c3f 1872 b13f
00000090: 1002 ce3f 6058 e53f 9513 f93f 9215 0540
000000a0: 549f 0c40 8e5d 1340 1e77 1940 b608 1f40
000000b0: 2128 2440 51e6 2840 b250 2d40 1872 3140
000000c0: a3f2 23b4 1872 313f 549f 8c3f 1872 b13f
000000d0: 1002 ce3f 6058 e53f 9513 f93f 9215 0540
000000e0: 549f 0c40 8e5d 1340 1e77 1940 b608 1f40
000000f0: ff27 2440 51e6 2840 b250 2d40 1872 3140
00000100: 6d11 c830 1872 313f 549f 8c3f 1872 b13f
00000110: 1002 ce3f 6058 e53f 9513 f93f 9215 0540
00000120: 549f 0c40 8e5d 1340 1e77 1940 b608 1f40
00000130: 2128 2440 51e6 2840 b250 2d40 1872 3140
00000140: 63c5 78b0 1872 313f 549f 8c3f 1872 b13f
00000150: 1002 ce3f 6058 e53f 9513 f93f 9215 0540
00000160: 549f 0c40 8e5d 1340 1e77 1940 b608 1f40
00000170: 2128 2440 51e6 2840 b250 2d40 1872 3140
00000180: eb39 bfb4 1872 313f 479f 8c3f 1272 b13f
00000190: 1102 ce3f 6358 e53f 8913 f93f 9215 0540
000001a0: 549f 0c40 8e5d 1340 0b77 1940 b608 1f40
000001b0: 7c27 2440 55e6 2840 ad50 2d40 2072 3140
000001c0: 0403 a4b3 1872 313f 4e9f 8c3f 1572 b13f
000001d0: 1202 ce3f 6058 e53f 9113 f93f 9215 0540
000001e0: 549f 0c40 8e5d 1340 1177 1940 b608 1f40
000001f0: e227 2440 51e6 2840 b150 2d40 1772 3140
00000200: a446 bb31 1872 313f 549f 8c3f 1872 b13f
00000210: 1002 ce3f 6058 e53f 9513 f93f 9215 0540
00000220: 549f 0c40 8e5d 1340 1e77 1940 b608 1f40
00000230: 2128 2440 51e6 2840 b250 2d40 1872 3140
00000240: 966b 4433 1872 313f 549f 8c3f 1872 b13f
00000250: 1002 ce3f 6058 e53f 9513 f93f 9215 0540
00000260: 549f 0c40 8e5d 1340 1d77 1940 b608 1f40
00000270: 2628 2440 51e6 2840 b250 2d40 1872 3140
00000280: 10c5 5230 1872 313f 549f 8c3f 1872 b13f
00000290: 1002 ce3f 6058 e53f 9513 f93f 9215 0540
000002a0: 549f 0c40 8e5d 1340 1e77 1940 b608 1f40
000002b0: 2128 2440 51e6 2840 b250 2d40 1872 3140
000002c0: 2922 5935 1872 313f 6e9f 8c3f 2572 b13f
000002d0: 0802 ce3f 5958 e53f a613 f93f 9215 0540
000002e0: 549f 0c40 905d 1340 3777 1940 b608 1f40
000002f0: cc28 2440 4ce6 2840 b750 2d40 1072 3140
00000300: 0e3f 812d 1872 313f 549f 8c3f 1872 b13f
00000310: 1002 ce3f 6058 e53f 9513 f93f 9215 0540
00000320: 549f 0c40 8e5d 1340 1e77 1940 b608 1f40
00000330: 2128 2440 51e6 2840 b250 2d40 1872 3140
00000340: 8d8d 452f 1872 313f 549f 8c3f 1872 b13f
00000350: 1002 ce3f 6058 e53f 9513 f93f 9215 0540
00000360: 549f 0c40 8e5d 1340 1e77 1940 b608 1f40
00000370: 2128 2440 51e6 2840 b250 2d40 1872 3140
00000380: e7f3 05b2 1872 313f 549f 8c3f 1872 b13f
00000390: 1002 ce3f 6058 e53f 9513 f93f 9215 0540
000003a0: 549f 0c40 8e5d 1340 1e77 1940 b608 1f40
000003b0: 2128 2440 51e6 2840 b250 2d40 1872 3140
000003c0: a5c6 a1b1 1872 313f 549f 8c3f 1872 b13f
000003d0: 1002 ce3f 6058 e53f 9513 f93f 9215 0540
000003e0: 549f 0c40 8e5d 1340 1e77 1940 b608 1f40
000003f0: 1f28 2440 51e6 2840 b250 2d40 1872 3140
3.2363904e-08 0.6931472 1.0986123 1.3862944 1.609438 1.7917595 1.9459101 2.0794415
2.1972246 2.3025851 2.3978953 2.4849067 2.5649512 2.6390574 2.7080503 2.7725887
9.3156725e-11 0.6931472 1.0986123 1.3862944 1.609438 1.7917595 1.9459101 2.0794415
2.1972246 2.3025851 2.3978953 2.4849067 2.5649493 2.6390574 2.7080503 2.7725887
3.1419163e-09 0.6931472 1.0986123 1.3862944 1.609438 1.7917595 1.9459101 2.0794415
2.1972246 2.3025851 2.3978953 2.4849067 2.5649493 2.6390574 2.7080503 2.7725887
-1.5268829e-07 0.6931472 1.0986123 1.3862944 1.609438 1.7917595 1.9459101 2.0794415
2.1972246 2.3025851 2.3978953 2.4849067 2.5649412 2.6390574 2.7080503 2.7725887
1.4556868e-09 0.6931472 1.0986123 1.3862944 1.609438 1.7917595 1.9459101 2.0794415
2.1972246 2.3025851 2.3978953 2.4849067 2.5649493 2.6390574 2.7080503 2.7725887
-9.050238e-10 0.6931472 1.0986123 1.3862944 1.609438 1.7917595 1.9459101 2.0794415
2.1972246 2.3025851 2.3978953 2.4849067 2.5649493 2.6390574 2.7080503 2.7725887
-3.5618663e-07 0.6931472 1.0986108 1.3862936 1.6094381 1.7917598 1.9459087 2.0794415
2.1972246 2.3025851 2.3978908 2.4849067 2.56491 2.6390584 2.708049 2.7725906
-7.637394e-08 0.6931472 1.0986116 1.386294 1.6094382 1.7917595 1.9459096 2.0794415
2.1972246 2.3025851 2.3978922 2.4849067 2.5649343 2.6390574 2.70805 2.7725885
5.450447e-09 0.6931472 1.0986123 1.3862944 1.609438 1.7917595 1.9459101 2.0794415
2.1972246 2.3025851 2.3978953 2.4849067 2.5649493 2.6390574 2.7080503 2.7725887
4.5732655e-08 0.6931472 1.0986123 1.3862944 1.609438 1.7917595 1.9459101 2.0794415
2.1972246 2.3025851 2.397895 2.4849067 2.5649505 2.6390574 2.7080503 2.7725887
7.66776e-10 0.6931472 1.0986123 1.3862944 1.609438 1.7917595 1.9459101 2.0794415
2.1972246 2.3025851 2.3978953 2.4849067 2.5649493 2.6390574 2.7080503 2.7725887
8.088851e-07 0.6931472 1.0986154 1.3862959 1.609437 1.7917587 1.9459121 2.0794415
2.1972246 2.3025856 2.3979013 2.4849067 2.56499 2.6390562 2.7080514 2.7725868
1.4693604e-11 0.6931472 1.0986123 1.3862944 1.609438 1.7917595 1.9459101 2.0794415
2.1972246 2.3025851 2.3978953 2.4849067 2.5649493 2.6390574 2.7080503 2.7725887
1.7967335e-10 0.6931472 1.0986123 1.3862944 1.609438 1.7917595 1.9459101 2.0794415
2.1972246 2.3025851 2.3978953 2.4849067 2.5649493 2.6390574 2.7080503 2.7725887
-7.797076e-09 0.6931472 1.0986123 1.3862944 1.609438 1.7917595 1.9459101 2.0794415
2.1972246 2.3025851 2.3978953 2.4849067 2.5649493 2.6390574 2.7080503 2.7725887
-4.7083e-09 0.6931472 1.0986123 1.3862944 1.609438 1.7917595 1.9459101 2.0794415
2.1972246 2.3025851 2.3978953 2.4849067 2.5649488 2.6390574 2.7080503 2.7725887

q_head.mamba.D f4 [18]
00000000: d236 803f c4a5 7f3f 3d3d 7f3f ff5f 803f
00000010: 2163 803f 7b80 7f3f 6e61 803f 07b3 7f3f
00000020: 9740 803f eb3f 7f3f ae3c 803f b755 803f
00000030: a26d 7f3f 6159 7f3f 2c5a 803f 0963 803f
00000040: 2b5a 803f 2776 7f3f
1.001673 0.99862313 0.9970282 1.0029296 1.0030252 0.9980542 1.0029733 0.9988255
1.0019711 0.99706906 1.0018518 1.0026158 0.9977666 0.99745756 1.0027518 1.0030223
1.0027517 0.9978966

q_head.mamba.in_proj.weight f4 [36, 9]
00000000: 3204 9fbd 3d7c a13d 05b9 e6bd 018b 483d
00000010: 4767 99bd 8b7c 8abe 97cd f73b 76ab 28bd
00000020: 89aa a73e 7a2b dcbc f1bb 1b3e 3bc1 363e
00000030: 4bd5 93be 7d92 e83d 39e6 383e 5131 313e
00000040: 99ec aa3b 3c44 a7be f21d 193e 1aa4 7abc
00000050: 7b59 8b3d 2555 fbbd 5405 0dbe e32e 3bbe
00000060: 16d8 8f3e 36b4 db3d 4ee1 4d3e 6939 31be
00000070: 7343 01bd ef46 833d 9295 0bbe a0dd 233e
00000080: 0054 0bbe 460b a03e dc08 92be b18a 153e
00000090: 8e9e 3ebd 2798 adbc a6c9 97bd 6961 8e3e
000000a0: e316 293d d519 a6be d7ae a03e 92f7 af3d
000000b0: f8af 50be ab21 e63d 14c3 65be 2448 a93d
000000c0: 8885 553e 339c 9f3e 47fc 81be 928f d13d
000000d0: de7b 47bd 07ce 73be 7453 3fbe 9c2e 41be
000000e0: 126f fdbc 03a4 81be 228c 2dbd a353 3c3e
000000f0: cfd0 0cbd 76a9 54be d11e 6c3c 6d40 6abe
00000100: 97ca 5f3e 1daa 153e ad4c 073e 2aa9 833e
00000110: 1a6a 8f3e d62e 41bd e866 b03a 3641 41be
00000120: 82fd c23d 1082 423e e1a4 2fbe e186 193e
00000130: aa76 1a3e 91d6 8abe 1ffa f23d 9848 50be
00000140: c036 2e3e 4f3c 973e a0b5 47be ab54 4abe
00000150: 34b6 92be 01aa 913e 86a9 743e 5f3e 703e
00000160: 5469 1b3d 0b37 3a3e d7fa 473e 4a01 20be
00000170: 1104 18be 8a1e 3f3e 5ac2 38be b908 61be
00000180: 03c0 adbc 4caf 9f3e bdfb 19bd 71a9 9dbd
00000190: 00a9 903e f1dd 8c3d e2a8 5dbd 861a 4ebe
000001a0: 249b 3fbe 9672 9cbe 0f6b 3d3e b242 5b3e
000001b0: 1b85 88be bf72 3fbd 3c19 82be a00e 963e
000001c0: 8b24 a73e d59e 853e eeef 95be 13aa 15bd
000001d0: d17b ddbd ed12 153e 403c 123e 5a3d 82be
000001e0: 1c79 13be 0aab 703e db53 f9bb cb66 3bbd
000001f0: 71e2 923d 94bc 03bc 7101 a4be 0b2a 96be
00000200: 7214 19be a609 7abd 5652 5bbe 3807 febd
00000210: 9428 9b3e a187 8f3d b854 823d 6229 833e
00000220: 6ead 60be 6964 373e 3978 a33e e6ee 8fbe
00000230: b996 41be 7902 12bc 1302 973e 39e6 67bd
00000240: 7643 1f3e d067 9dbe 3347 763e 8379 a3be
00000250: 96b7 cfbc c5dc 63bd 2182 0f3e fb2d 4fbe
00000260: 75bf e7bd 8db9 363e 57ca a2be 37bf 8e3e
00000270: f1cd 5c3e 5b48 4fbe 320b 90bd 2f10 913c
00000280: 9c78 64be dd96 0f3c 4102 373e e92d 6f3d
00000290: ff20 adbd 4886 e03c a6e8 b13d a079 8cbd
000002a0: 9ed6 4fbe 82de 463e 394b 923c f131 d43d
000002b0: f35a 563e 9dec 9f3e 6295 8c3c 50c9 e93c
000002c0: cb96 673e b551 95be 918d 76be 3571 55be
000002d0: 795b 6ebe a0cc 51bd 78b8 13be bb32 5bbe
000002e0: df10 993e 3b88 d83d c699 873e 1ecd 273c
000002f0: 8bfb 883e 7e51 a83c acc9 443e 3d68 253e
00000300: dfd0 72bc 5d59 9c3e a22b 0dbe 17bc fabd
00000310: 792a f93c d3d9 903e c972 de3d b507 223e
00000320: bb5c dcbd 85d3 57bd 0afc dcbd dbdd 43be
00000330: e36f 9fbd 5014 803e 1fe1 a8be 4320 2ebe
00000340: c0b5 a7be 1381 c83d 0f9e 853e b670 9cbe
00000350: 5ee7 fdbd bce2 7fbe 0c15 aaba 4fd1 303d
00000360: 6613 24be 4534 a83e 3549 abbe f857 803e
00000370: 9fec 88be 148c 86bd e3c9 ab3d 987a 10be
00000380: 16af 93be 9d98 4b3e d057 5e3e d956 dd3d
00000390: 3af5 78be 41b4 75bd 56d5 b03c f7b2 1d3e
000003a0: c047 a43e 0f6e e33d 6aa9 01be e71a 853e
000003b0: 3611 e4bd 627a 39be f440 063e b8ca df3d
000003c0: a6de 313e 3379 9e3e b8cc 92be 3110 153e
000003d0: 6e51 20be 2d97 49be 573e 85bc 286e a33e
000003e0: 6f23 92be 60c3 7abe 3cbc 7abe ff64 003d
000003f0: 1a47 2dbe 543a 9e3e 057d 0b3e 0f2c a9bd
-0.07764472 0.07885025 -0.112657584 0.04896069 -0.07490402 -0.27048144 0.00756235 -0.041179143
0.32747295 -0.0268762 0.15208413 0.17847149 -0.28873667 0.113560654 0.18056573 0.17303969
0.005216193 -0.32669246 0.1495283 -0.015297914 0.068041764 -0.122720994 -0.13771564 -0.18279605
0.28094548 0.10727732 0.20105478 -0.17307056 -0.031558465 0.06410014 -0.13631275 0.16002512
-0.13606262 0.312586 -0.28522384 0.14603688 -0.04653793 -0.021190716 -0.07411508 0.27808693
0.041281592 -0.32441583 0.31383392 0.08592142 -0.20379627 0.112368904 -0.22437698 0.08265713
0.2085172 0.31173858 -0.25387785 0.10232462 -0.048702113 -0.23809062 -0.18684179 -0.18865436
-0.030936752 -0.25320444 -0.04236997 0.1839128 -0.034378823 -0.20767769 0.014411644 -0.22876139
0.21854626 0.14615674 0.13212843 0.25715 0.28010637 -0.047163807 0.0013458403 -0.18872532
0.09521009 0.18994927 -0.1715274 0.14992858 0.15084329 -0.27116826 0.11864113 -0.20340192
0.17013073 0.295382 -0.19502878 -0.19758861 -0.28654635 0.28450015 0.23892793 0.23461293
0.037942246 0.1818506 0.19529282 -0.15625492 -0.14845301 0.18663993 -0.18042889 -0.21975984
-0.021209722 0.31188428 -0.037593592 -0.07698334 0.28253937 0.068782695 -0.054116137 -0.20127305
-0.18711525 -0.30556172 0.18497871 0.21412161 -0.2666405 -0.04674029 -0.25409877 0.29308033
0.32645068 0.26097742 -0.29284614 -0.03653915 -0.10814632 0.14558001 0.14280796 -0.25437433
-0.14401668 0.23502746 -0.0076088733 -0.045752328 0.071720965 -0.008040566 -0.3203235 -0.2932895
-0.14949206 -0.061044358 -0.21418127 -0.124037206 0.30304396 0.07008291 0.06363815 0.2561751
-0.21941158 0.17909397 0.3192766 -0.28111953 -0.18905152 -0.008911722 0.2949377 -0.05661604
0.15553078 -0.30743265 0.24050598 -0.31928644 -0.025356095 -0.055630464 0.14014484 -0.20232384
-0.113158144 0.1784422 -0.31794998 0.2788026 0.21562935 -0.20242445 -0.07033385 0.017707912
-0.22311634 0.008763996 0.17871954 0.058393393 -0.08453559 0.02740778 0.08686952 -0.06859136
-0.20296714 0.19420817 0.017858135 0.10361088 0.20933132 0.3123521 0.017161075 0.028538376
0.22616117 -0.291639 -0.24077441 -0.20843966 -0.23277082 -0.051220536 -0.14425838 -0.21406071
0.29895684 0.10572859 0.26484507 0.010241775 0.26754412 0.020546671 0.19217557 0.16153045
-0.014820307 0.3053693 -0.13786176 -0.122429065 0.03041576 0.28291187 0.10861737 0.15823252
-0.107598744 -0.052691955 -0.1079026 -0.191276 -0.077850126 0.25015497 -0.32984254 -0.17004494
-0.32755852 0.09790244 0.26097152 -0.30554742 -0.123976454 -0.24988836 -0.0012976243 0.043168362
-0.16023025 0.32852378 -0.3345429 0.25067115 -0.26743028 -0.065696865 0.08388116 -0.14109266
-0.28844517 0.19882436 0.21713185 0.108075805 -0.24312297 -0.059986357 0.021586102 0.15400301
0.3208599 0.111049764 -0.12662283 0.25997087 -0.11136095 -0.18113092 0.13110715 0.109273374
0.1737009 0.30951843 -0.28671813 0.14556958 -0.15656063 -0.19686575 -0.016265078 0.3191998
-0.2854266 -0.24488592 -0.24485868 0.031346317 -0.16921654 0.30903876 0.1362191 -0.08260357

q_head.mamba.conv1d.weight f4 [18, 1, 4]
00000000: 4637 d0be dc75 f93e d318 aebe d255 5cbd
00000010: 90be debe a000 07be cf31 cebe fcca e03e
00000020: f049 d0be 1466 d93e f161 903e ecd5 f5be
00000030: 065f cabe 1a9d f1be c252 9cbd cf9f bebe
00000040: a429 913e 6865 eebe 31b4 fcbe bff1 bebe
00000050: d802 793e 00b5 113b e825 a8be f4a6 dabe
00000060: 9460 9f3e b672 d03e 4b2f a03d d419 30be
00000070: 7e15 c73e 9cba 523e d68b f9be b7de 323e
00000080: 807d efbc 30ab 43be 5474 de3d 16a6 a0be
00000090: e287 953e 28ab 34be 5122 943e 6889 70be
000000a0: 32f7 af3e 12ff c03e 9d18 2f3e 74d5 733e
000000b0: a43a a33e 1878 d3bd cb39 943d b583 c13e
000000c0: 9c1d 053e 068d d63e 718f e4be 3229 823e
000000d0: 00c6 8c3b 787e 9ebe 0626 ec3e 749f fbbe
000000e0: 7020 cebe 88a2 803d a8fa d4be f230 e0bd
000000f0: b2c2 c1be e23c e23e e921 5bbe b3ec b53e
00000100: 0065 a73b 0007 2dbe b96b 76be dc96 213e
00000110: 981a b4bd 1067 893d 3516 f73e ec8f f43e
-0.4066717 0.48722732 -0.34003314 -0.053792782 -0.43504763 -0.13183832 -0.40272376 0.43904865
-0.4068141 0.42460692 0.28199723 -0.48014772 -0.39525622 -0.4719017 -0.07632972 -0.372313
0.28352082 -0.46561742 -0.49356225 -0.37293813 0.24317491 0.0022233129 -0.3284142 -0.427055
0.3112837 0.40712517 0.078215204 -0.17197353 0.38883585 0.20578998 -0.487395 0.17467771
-0.029234648 -0.19108272 0.108620316 -0.31376714 0.29205233 -0.17643416 0.2893243 -0.23489916
0.34368283 0.37694603 0.17099233 0.23811895 0.31880677 -0.103256404 0.07237586 0.37795797
0.12999576 0.41904467 -0.44640687 0.25422055 0.0042960644 -0.30955863 0.4612276 -0.4914509
-0.40259123 0.062810004 -0.41597486 -0.109468356 -0.37843853 0.44187075 -0.21399654 0.3553215
0.0051084757 -0.16897202 -0.2406453 0.15780205 -0.08794135 0.06709111 0.4825913 0.47766054

q_head.mamba.conv1d.bias f4 [18]
00000000: 863d bb3e 7c21 723d c257 9f3e 4e19 e83e
00000010: bb64 4c3e 1b02 bfbe e7d5 d23e 2f1e b9be
00000020: fff8 b83d 941f eb3e 7a4b f0be 9764 843d
00000030: 90be 353d 9765 f93e 801c 36bb 735d 36be
00000040: fbd7 ed3e a149 8f3e
0.36570376 0.059113964 0.3112164 0.45331806 0.199603 -0.37306294 0.4117882 -0.3615584
0.09031867 0.4592253 -0.46932584 0.064644985 0.044371188 0.4871032 -0.0027787983 -0.17809086
0.46453843 0.27985862

q_head.mamba.x_proj.weight f4 [33, 18]
00000000: df63 0abe 823d 73bd 60ad d83d f871 29be
00000010: 75dd e0bd 4a5e c2bc 83e5 243d 3887 0fbe
00000020: ae34 2e3e 4e86 fe3c 73de 6a3e 9acd dcbc
00000030: 5a7f 19be 6d91 6f3d 4a4f e73d fc7a 543e
00000040: c4dc 523e f639 1c3e 8d8d 563c 42d5 523c
00000050: 2ad1 86bd 5726 16be 4537 143e 0e03 1e3c
00000060: 6ed5 003d e7ea 66bd 0234 8bbc 3d9e 3d3e
00000070: f984 f7bd 98b5 f8bd be76 43be aeeb 4dbe
00000080: 5f76 36bd a47b aabc 86f5 6dbd 32f9 0cbe
00000090: ab14 c23d a6d6 2c3c 8cc8 42be 417c 2b3e
000000a0: 1e90 2fbe 6e9b dabc a901 71bd 0f08 c03d
000000b0: a8ab abbc 78fd 20be 70c2 d5bd 2d00 d7bd
000000c0: 525a 52be 4331 413e 09f8 073d 72f5 d2bd
000000d0: 3aaa 383e f982 ba3d f57b 78bd 58b9 703b
000000e0: 9929 8e3d 7e67 d43c 7e63 413e eb41 fcbd
000000f0: 71fd 663e bcaa ca3d 6fa5 1bbe 0028 d13d
00000100: fa89 4bbe ba82 403e 325d 0bbe 0a6d 73ba
00000110: fb93 debd f3a4 653b cfea 5bbe d181 143e
00000120: 2601 4c3a 455b 45be ec12 a4bd 10a4 993d
00000130: c3dd 52be 229e 3c3e ffe8 c1bb eb7f 6fbe
00000140: 9a2e 8fbd 2b0a 98bd 9e88 0a3e a537 f4bd
00000150: 04fa 3dbe 85c1 643e af6b 1b3e 4038 b5bd
00000160: 9618 143e b240 79bd 18e3 8abc 0e09 c33d
00000170: 14d3 5dbc 5b81 b83c 4efe 41be 3538 fa3c
00000180: c6ee 97bd bdb4 943d b342 72bb 169c adbd
00000190: 4018 ffbd 2f92 01bc 78d8 08be 8554 6ebd
000001a0: 9899 44be 7853 10bd 75cd bbbd e30e 46bd
000001b0: d7b0 bfbc 62ff 8e3d bb0a 3cbe 7141 67be
000001c0: a949 13be 4a39 96bd 4228 efbd f0e0 8e3d
000001d0: 7ea6 ddbb 972b 463e 5e29 fa3d ee92 33be
000001e0: d012 a43d 8fcb 573c 7aef e53d 365a 26be
000001f0: 59ad 6c3e 3442 593e 9c04 193e a1ea 94bd
00000200: 9b37 3bbe 578f 60be 6946 893d 16c5 093b
00000210: 3347 0ebe e017 2e3e c239 5e3d 4aa4 a6bd
00000220: dd9e aebb 9221 0f3e 8f36 37be 3997 ee3d
00000230: 9c83 a03d 74b8 84bd 025d d43c 5dee 543e
00000240: 4922 4abe dece 0ebd 8514 b13d 13f4 05be
00000250: 5e29 453e d1ac 7abd 28a8 f33d 9544 c5bd
00000260: efa2 e23d 0dd0 4f3e 456e 40bd 5562 033e
00000270: 8ced bc3d 15ad eabd e9bc 583e 3bd9 c93d
00000280: a7fe e5bd 9a29 47be fdac cebc 6380 62bd
00000290: d9e7 34be 29ad 8c3c ccd2 09be e333 2cbe
000002a0: 026a 103e 360c 8f3c df2a 573e 470d b73d
000002b0: 7528 3bbe ede8 3fbe 9cba a7bd 141e 1fbe
000002c0: 2af3 a43b 038b f53d aa7e 533e 7d16 8c3c
000002d0: c06c 693d dd21 5936 cbd2 1f3c 8b2d c53d
000002e0: b828 3c3e 39ac 5cbd b28f 33be 710a 00be
000002f0: 5d21 de3c db1f 4dbe b3d5 453d 0e28 bc3d
00000300: 344a 14be 9230 4e3e 2c9a 63be 3943 c9bd
00000310: 840b 44be f23d 9c3d ae16 d93d 63ea 0abd
00000320: 3dad a43d 6826 ea3d 3572 5c3e 3cb7 35be
00000330: ac24 4d3e de44 44be ba46 2bbe 252e f1bd
00000340: bcb1 833d 2b51 16be 9dca fdbd 173a 433e
00000350: f652 33be d161 5dbe 0b17 fc3d 83b3 ea3d
00000360: a1f7 e1bb 1b1b 19be 5e9d 02bd 1c6b 2abe
00000370: f4a7 ba3b 4613 0e3e 33cf e13a 2197 65be
00000380: 9413 eebd 18f5 0b3e 42f1 2ebe 8126 d73d
00000390: 3bd6 40be 8f9b 983c 04e4 debd ec8c 0dbe
000003a0: f20e 6c3e e558 493c ca3e 6cbe fd20 2d3e
000003b0: 6563 46be 4809 68be e9f6 acbd 2864 6b3e
000003c0: 6cdf d1bc d0bc 283e f9ca eb3c 44aa 32be
000003d0: e00c 563e a604 363d 4e88 cfbc a880 04bd
000003e0: 75ff 003e 3061 46be 2cc6 d5bd a1cf 65bd
000003f0: 072c 173e 4ece 153d 9cb8 2f3e 30f2 ba3c
-0.1351466 -0.05938483 0.10579944 -0.16547382 -0.109797396 -0.023726601 0.040257942 -0.14016426
0.17012283 0.0310699 0.2293642 -0.026953507 -0.14989987 0.0584883 0.1129442 0.2075004
0.20592028 0.15256485 0.013095272 0.012868227 -0.06582864 -0.14663063 0.14474209 0.009644283
0.031453542 -0.056376364 -0.016992573 0.18517394 -0.120859094 -0.12144011 -0.19088265 -0.20109436
-0.04454648 -0.02081091 -0.058095478 -0.13766935 0.09476598 0.010549223 -0.19021815 0.16746618
-0.1714482 -0.026685443 -0.058839474 0.09376537 -0.020955876 -0.1572169 -0.10437477 -0.104980804
-0.20542267 0.18866448 0.03319553 -0.10300721 0.18033686 0.09107012 -0.06066509 0.0036731567
0.06941528 0.025928255 0.1888561 -0.1231726 0.22557618 0.09895846 -0.15199827 0.102127075
-0.19876853 0.18799868 -0.1360977 -0.00092859624 -0.10868069 0.0035040944 -0.21476291 0.14502646
0.00077821536 -0.19273098 -0.080114216 0.075019956 -0.20592408 0.18419698 -0.005917668 -0.2338864
-0.069913104 -0.074238144 0.13528678 -0.11924676 -0.18552405 0.22339447 0.15177797 -0.088486195
0.14462504 -0.060852714 -0.01695399 0.095232114 -0.0135390945 0.022522619 -0.18944666 0.03054438
-0.07418589 0.072610356 -0.0036966025 -0.08477037 -0.12455797 -0.007908388 -0.13363826 -0.058186073
-0.19199216 -0.035235852 -0.09170047 -0.04835404 -0.023399753 0.06982304 -0.18363468 -0.22583558
-0.14383568 -0.07335146 -0.116776004 0.06976497 -0.006764232 0.19352566 0.122149214 -0.17536518
0.08011401 0.013171091 0.11227317 -0.1624535 0.23113002 0.2121666 0.14943165 -0.072713144
-0.1828293 -0.2192968 0.06702883 0.0021022013 -0.13894348 0.17001295 0.0542543 -0.081368044
-0.0053289966 0.1397765 -0.17891906 0.11649937 0.078376025 -0.06480494 0.025923256 0.20794053
-0.19739641 -0.034865253 0.08646492 -0.13081388 0.19254062 -0.061199967 0.11897308 -0.096322216
0.11066233 0.20294209 -0.04698016 0.1283048 0.09224996 -0.11458794 0.21165814 0.098558865
-0.11230212 -0.19449463 -0.025228972 -0.05529822 -0.17666568 0.017172413 -0.13459319 -0.16816668
0.14102939 0.017461877 0.21012448 0.08938079 -0.18277152 -0.18741198 -0.0818989 -0.15538818
0.00503387 0.11989405 0.20653787 0.017100567 0.056988478 3.235523e-06 0.009754847 0.09627827
0.18374908 -0.05387518 -0.17535284 -0.12503983 0.027115518 -0.20031683 0.048299503 0.09187327
-0.14481431 0.20135716 -0.2222678 -0.09827275 -0.19145018 0.07629003 0.10600029 -0.033914935
0.08040855 0.11433107 0.21527942 -0.1774568 0.2003352 -0.19166896 -0.16726199 -0.117763795
0.064303845 -0.146794 -0.12392161 0.19065128 -0.17512116 -0.21619345 0.123090826 0.114600204
-0.0068959747 -0.14951746 -0.03188836 -0.16642421 0.005696291 0.1387454 0.0017227888 -0.22420932
-0.11624828 0.13667715 -0.1708422 0.10505391 -0.18831722 0.018628864 -0.10883334 -0.13823289
0.23052576 0.0122892605 -0.23070827 0.16907115 -0.19373854 -0.2265979 -0.08445532 0.22987425
-0.025619231 0.16478276 0.028783308 -0.17447764 0.20903349 0.044438027 -0.02533355 -0.03234926
0.12597449 -0.19373012 -0.10438189 -0.056106213 0.14762889 0.0365737 0.17160267 0.022820562

q_head.mamba.dt_proj.weight f4 [18, 1]
00000000: 5651 e43e 3001 ecbe 1727 29bf 7df8 583f
00000010: a71e f3be 2f95 db3e e142 a8be 9ce2 243f
00000020: a958 ed3e da2f a23a 50ea e23e 4e1c f93e
00000030: f660 153f f540 43bf 5d9a eabe cdc4 773f
00000040: b4b1 1bbe bbf9 61bf
0.44593304 -0.46094656 -0.6607527 0.84754163 -0.47484323 0.42887256 -0.32863525 0.6440828
0.46356705 0.001237388 0.4431939 0.48654407 0.58351076 -0.7627099 -0.45820895 0.9678467
-0.15204507 -0.88271683

q_head.mamba.dt_proj.bias f4 [18]
00000000: 03e3 6fc0 e41d d0c0 a83f 90c0 c650 81c0
00000010: 231f b7c0 af72 aec0 3183 79c0 7509 39c0
00000020: 1ee8 6bc0 9faf 75c0 63b9 c7c0 e570 13c0
00000030: b61d d3c0 0383 cec0 8194 6ec0 fa49 2dc0
00000040: 7a2c 91c0 e253 9ac0
-3.7482307 -6.5036488 -4.5077705 -4.04111 -5.722551 -5.4514995 -3.8986323 -2.8912022
-3.6860423 -3.838844 -6.24138 -2.3037655 -6.597377 -6.4534926 -3.727814 -2.7076402
-4.5366793 -4.8227396

q_head.mamba.out_proj.weight f4 [9, 18]
00000000: d2a7 50be bf14 aa3d a673 6ebe 3bc9 163d
00000010: 4d44 393d 829b 6a3e 2baf 0ebe 8abc 22be
00000020: d17b f2bd 9295 ecbd 3ceb adbd 3033 123e
00000030: 28d1 6ebe 0401 c7bd 6c76 523e b755 06be
00000040: 7c83 a3bd 1612 58bd 0e95 11be 4e96 8f3d
00000050: 2222 283e 8553 f13b 21fb 443e 0273 c73d
00000060: 1c61 20be 3d60 12bd 9a61 5f3e b9b6 a6bc
00000070: 04c3 9f3d 129c 0ebe 6245 48be 7373 543e
00000080: 5bc5 4ebe 02a9 d43d 478d 4c3c a441 333e
00000090: 8959 1abe caa9 56be 5524 34be 83da 5b3e
000000a0: 536d f13d 2013 9a3d 8b1a 31be 041f a6bd
000000b0: 373f c03c d8f0 273d 212e af3c cd8c 853b
000000c0: 2bc3 d03d 872a 4fbe c514 ec3d ce20 3ebe
000000d0: 2d28 e33d 458a b9bd 7952 12be 840e 333e
000000e0: 63fe 033e 81f4 5d3e ae97 3abe 13c8 6dbe
000000f0: 407c 9a3d c6d6 edbd 7178 ebbc e33f 48be
00000100: 74cf ad3c c351 59bd 2019 093e 9c96 5e3e
00000110: d254 05bc 64ad 33be 33d1 00bd df80 c8bd
00000120: 5ecb 19be f61a e4bc 5553 23be dfa6 39be
00000130: 92ea 613d 54ad acbd 8a23 8cbc c9ff 4b3e
00000140: f12f 9c3d 33a7 38be de12 06be ed25 df3d
00000150: 1dda c8bd dcec f53d c760 bf3d 04fd 223c
00000160: fdbc dcbd 447f ad3d 9ab4 7ebc 251d a6bd
00000170: 2918 6c3e be86 383e 423c 18be 1c28 04be
00000180: b8ae 5e3e 9d3e 20be f561 cb3d 6e42 933d
00000190: 1de1 5cbe 2a1b 4e3e a0cb 1cbd 0943 b3bd
000001a0: 78aa 673e 6128 9abb 93f3 25be f11a 613e
000001b0: 309f fb3c 5820 84bd 1b3a 4e3a 0e30 febd
000001c0: 47d5 af3d c63a bc3d 662c d63d 2a32 013e
000001d0: fe73 293c f6b6 353d cb04 623d 00ed 28be
000001e0: 9527 0e3e 13f4 60be 2cc4 7e3c 8bf0 e8bd
000001f0: 2cba 663e bac9 f9bd 1233 2fbd 1790 fe3d
00000200: 24fe 1abe 0bc3 423d 315d 563e 6ec5 4f3e
00000210: 228d f33d ebd0 0fbe b060 553e addc 39be
00000220: e224 06bd 6ed0 493e 61f7 323e 1958 0e3e
00000230: 6a38 62be 8055 2d3e b995 033d 56cf 55be
00000240: 56f8 7c3d 6fc9 323e bf16 46be 5c8d 5e3e
00000250: 6f0b 6fbe eb32 cc3d 07fb 53bc 02f1 6b3e
00000260: 3867 43be bffa 6d3e 57aa 8e3d 67b3 0abd
00000270: c8a6 6bbd f160 3b3e bb48 003e 46af 0cbc
00000280: de12 263e a2f7 633d
-0.20376518 0.08304738 -0.23286304 0.036813002 0.045231152 0.22910884 -0.13934009 -0.15892234
-0.11840022 -0.11551966 -0.08492133 0.14277339 -0.23321974 -0.097169906 0.20552987 -0.13118635
-0.07984063 -0.052751623 -0.14217016 0.0701109 0.1641927 0.0073646926 0.19236423 0.09738733
-0.15662044 -0.03573631 0.21814576 -0.0203508 0.07800868 -0.13926724 -0.19557717 0.20747165
-0.20192473 0.10383798 0.012484855 0.17505509 -0.15073217 -0.20963207 -0.17591985 0.21470074
0.1178843 0.07523179 -0.17295282 -0.081113845 0.023467643 0.04100117 0.0213843 0.0040756227
0.10193475 -0.20231067 0.11527399 -0.18567201 0.11091647 -0.09059576 -0.14289273 0.17486006
0.1289001 0.21675302 -0.18221924 -0.23220854 0.0754323 -0.116132304 -0.028743954 -0.19555621
0.021217085 -0.05305649 0.1338849 0.2173714 -0.0081378985 -0.17546612 -0.031449508 -0.09790205
-0.15018985 -0.027844887 -0.15949757 -0.18130063 0.055155344 -0.08431497 -0.01710679 0.19921793
0.076263316 -0.18032531 -0.13093135 0.10895906 -0.09807227 0.12008068 0.09344631 0.009948019
-0.10778234 0.084715396 -0.015545988 -0.08111028 0.23056091 0.1802015 -0.14866737 -0.12905926
0.21746337 -0.15648885 0.09930793 0.07190405 -0.21570249 0.2012755 -0.03828013 -0.0875302
0.22623622 -0.0047045206 -0.16206197 0.21982934 0.030715555 -0.064514816 0.0007866935 -0.124115095
0.08585601 0.09190898 0.10457687 0.12616792 0.010342596 0.04436394 0.055180352 -0.16496658
0.13882287 -0.21968107 0.015549701 -0.11374005 0.22531956 -0.121966794 -0.042773314 0.12429827
-0.1513601 0.04754929 0.20933987 0.20290157 0.11892153 -0.1404454 0.20837665 -0.18150587
-0.032750018 0.19708416 0.1747718 0.13900794 -0.22091833 0.16927147 0.03212521 -0.20879874
0.06176027 0.17459653 -0.19344614 0.21733612 -0.23344205 0.09970649 -0.012938268 0.23041156
-0.19082344 0.23240183 0.069660835 -0.033862498 -0.057532102 0.18298699 0.12527744 -0.00858671
0.16218135 0.055656083

q_head.final_norm.gamma f4 [9]
00000000: 0000 803f 0000 803f 0000 803f 0000 803f
00000010: 0000 803f 0000 803f 0000 803f 0000 803f
00000020: 0000 803f
1.0 1.0 1.0 1.0 1.0 1.0 1.0 1.0
1.0

ema_model.q_head.action_bin_embeddings f4 [2, 256, 9]
00000000: a596 8c3b dfd9 03bc 1073 39bb df1f b3bc
00000010: 5149 9f3b e75f d33c 6a3e 183b 6704 983b
00000020: ed1b 88bc ffdb bb3a c9fd be3c 1dfb 09bd
00000030: a1b6 84bb 4fac bd3c 3fe2 813c 2512 27ba
00000040: 9262 9d3c 407a 603c 865b 9bbc 2595 993b
00000050: 17a7 00bd e137 e63c 59f6 003d 0210 d13b
00000060: 16f7 6abc 5ef5 6e3b 7880 0fbc dd71 503c
00000070: 35af 903b 4669 ab3c 39db 0cbc b121 373c
00000080: 70c9 4e3b 1b1f e2bb c8d9 813c f939 063c
00000090: c31c afba 5a7a 02bc 7236 4d3c f870 c43a
000000a0: cdf4 7abc 8c80 86bb 9417 b03b f040 09bd
000000b0: 7dd3 603c c9ca 2c3c d7c5 2a3c 5dbb 8cbc
000000c0: 3454 9cbc 13d6 23b9 779b 4ebd 9d09 bdbc
000000d0: 9da7 893c cd52 1d3c 7fc1 9ebc ead0 7a3c
000000e0: 57d9 413c 6726 30bd 280f d6b9 7f8a e63c
000000f0: d0dc e1bb 5f78 a33c 73f2 4ebc a90e 05bd
00000100: 180f 07bd 53d5 20bb d502 c43a 3673 d4bc
00000110: fd95 a5bc ab83 363c 7fcd 193d 9b8c 6e3d
00000120: cc79 2d3c 509f 6e3b e5cb b4bc 11d0 563c
00000130: 1457 273b e212 b4bc 0391 583c 4c00 f0bc
00000140: b3f0 f4bb 76c2 37bc cdf9 593c 6820 8a3c
00000150: 399e 0b3d e713 24bc 0ff1 9ebc b962 b1bb
00000160: 1d30 c43c be79 083c f9fe c73b fd91 5bbc
00000170: e559 41bd 5e7f ca3b 6615 9539 27ed 1abc
00000180: a52e 363c 3f48 11bd ef08 2ebc 3de5 54bd
00000190: 6488 8d3c 4a60 b33c eae5 d53b 69db 843c
000001a0: 2a8c bf3c 4692 29bb b497 d23a a22e 183c
000001b0: 65f8 ecbc 407f 303c b012 1dbd 76d9 0e3c
000001c0: 293e 9ebc 00e8 ee3c 4709 623b f0cd 07bc
000001d0: 975c d5bb 9051 68bc b282 853c 1c4c 76bc
000001e0: 5350 7cbb b416 183b df0c b4bc e6f8 033d
000001f0: 49a5 263b c9a6 dabb 4d73 bbbc 3758 993c
00000200: f49e c3bc 1491 82bb e141 763a 84e7 203c
00000210: 7884 7a3c 45e9 9fbc f508 f7bb 6bb4 fa3b
00000220: 5dcb 6d3c cf13 243c ca33 3bbc 951d 3c3c
00000230: e08d fd3b 5740 86bc 666d ac3c 3a6a 84bc
00000240: 4c99 813b 3c31 9a3c 0a59 3c3d 2ac1 ce3b
00000250: 3fb5 163d f128 7cbc 9301 4f3b 9531 7dbc
00000260: 75a2 1bbc 1f0a d73c bd09 693c 0c87 333c
00000270: 0048 933c 52c2 6ebb 60b6 8a3c fdc5 7e3c
00000280: 8c97 fb3c b08b 48bc 03bc 97bc 7c96 d4bc
00000290: 1bca 3bbc c574 f33c 128b b0bc 11ea 97bc
000002a0: a876 c7bc a983 5bbc 5fae ab3c 5fbe 753c
000002b0: ef40 21bd 67f5 aa3c 9053 20bc 0ae9 693c
000002c0: 0a43 9338 1745 4e3a e1cd 203d 5aab 24bc
000002d0: 7b8d a93c 6193 a33c d4bd 1fbd e4d6 07ba
000002e0: 57a5 63bb 546f 683b 8c36 33ba 3238 b3bc
000002f0: 6887 e63b ccf8 0fbd 2791 c1bc 236f c0bc
00000300: 6d8f 973c 50fa ab3a 0136 3a3c 3f76 8fbc
00000310: 2247 87bc f0e6 a5bc c0a7 a2bc 95e7 1c3c
00000320: 797e cbbb 463b 78bc cbef c3bb a2ac 2ebb
00000330: 9eb9 133d 9f82 2ebc 1aad 6a3c 461f 0bbd
00000340: 50f8 dbbc 51cc 293c 6297 e0bc 4bd6 6ebc
00000350: f280 773c 27e8 b73a ee66 143d 1bd2 cabb
00000360: ee15 4b3b 5aa9 993c 7eaa 29bd 7ace 97bc
00000370: fd5b 843c cf32 863a 358e 8ebc 6282 403c
00000380: 86ee e83c 2c71 b8bc 157c edbc a152 dabb
00000390: 813f bf3b a1a7 e3ba fd82 86bc 689f 3dbd
000003a0: c08a 413d 4e98 64bc 82c6 e1bc 9c59 fabc
000003b0: df1e 23bd a9fb 1b3c 90e3 08bc b5aa 9a3c
000003c0: 3e3b a9bb 989e 32bb 78ea 26bc ede7 88bc
000003d0: 925a 43bb 6199 b8bb 2e5d 80bc 7c31 e03b
000003e0: 6ee4 b1bc 878a 50bc 68fd 193c 2c02 803c
000003f0: a05e 15bc be61 a0bc 5700 143b 74c4 ac3b
0.004290419 -0.00804755 -0.0028297342 -0.021865783 0.004861035 0.025802566 0.002323056 0.0046391967
-0.016614879 0.0014332532 0.023314374 -0.033686746 -0.0040500914 0.023153452 0.015854953 -0.0006373248
0.019212041 0.013701022 -0.01896454 0.004686969 -0.03140935 0.028102817 0.031484935 0.006380082
-0.014341136 0.0036462168 -0.008758657 0.01272246 0.0044154176 0.020924222 -0.008597189 0.011177466
0.0031553172 -0.0069006807 0.015850917 0.008192533 -0.0013360012 -0.007963741 0.012525188 0.0014987281
-0.015317154 -0.0041046795 0.0053739045 -0.033509195 0.013722298 0.010546395 0.010423145 -0.017179186
-0.01908312 -0.0001562464 -0.05044123 -0.023075873 0.016803557 0.009602261 -0.019379376 0.015308598
0.011831603 -0.043005373 -0.00040828553 0.028142212 -0.006892778 0.019954858 -0.012631047 -0.032484684
-0.03297338 -0.0024541214 0.0014954457 -0.025933843 -0.020213122 0.0111397905 0.037549492 0.05823956
0.010588121 0.0036410876 -0.02206988 0.01311113 0.002553408 -0.02198166 0.013218167 -0.029297017
-0.0074749826 -0.011215797 0.013304186 0.016861156 0.03408644 -0.010014511 -0.019402055 -0.00541338
0.023948723 0.008329807 0.006103393 -0.013401506 -0.04720487 0.006179734 0.00028435438 -0.009455956
0.011119519 -0.03546929 -0.010622247 -0.05197643 0.01727695 0.0218965 0.006527652 0.016217904
0.023382265 -0.002587454 0.001606694 0.009288462 -0.028927037 0.010772526 -0.0383479 0.008718839
-0.01931675 0.02916336 0.0034490393 -0.008288845 -0.0065112817 -0.014179602 0.016297672 -0.015032794
-0.0038500025 0.0023206891 -0.021978794 0.03221979 0.0025428107 -0.0066727144 -0.022882128 0.018718822
-0.023879506 -0.00398458 0.0009393972 0.009820823 0.015290372 -0.019520411 -0.0075389096 0.007650902
0.014513818 0.010014488 -0.011425922 0.011481662 0.00773786 -0.016388102 0.021048259 -0.016163934
0.003955042 0.018822305 0.04598335 0.006309648 0.036793943 -0.015390621 0.0031586632 -0.015453716
-0.009499182 0.026249943 0.014223513 0.010957491 0.017978668 -0.0036431742 0.016932666 0.015550134
0.030711912 -0.012240335 -0.018522268 -0.025950663 -0.01146176 0.029718766 -0.021550689 -0.018544229
-0.024348572 -0.013398089 0.02095717 0.014999001 -0.039368566 0.02086897 -0.009785548 0.014276752
7.021993e-05 0.00078685716 0.03925884 -0.010050619 0.020697346 0.019967737 -0.038999394 -0.00051818625
-0.0034736001 0.0035466747 -0.0006836436 -0.021877382 0.0070351847 -0.03514938 -0.023628784 -0.023490494
0.018501008 0.0013120864 0.011365415 -0.017512439 -0.016513411 -0.020251721 -0.01985538 0.009576698
-0.006210145 -0.015150851 -0.0059795133 -0.002665319 0.03606569 -0.01065126 0.014323497 -0.03396537
-0.026851803 0.010363654 -0.027415935 -0.014577459 0.015106427 0.0014030979 0.036230974 -0.0061895973
0.0030988413 0.01875751 -0.04142236 -0.018531073 0.016157145 0.0010238531 -0.017401794 0.011749836
0.02843405 -0.022514902 -0.028989831 -0.006662682 0.0058364277 -0.0017368683 -0.016419882 -0.0462946
0.047251463 -0.013952328 -0.027560476 -0.030560307 -0.039824363 0.00952045 -0.008355036 0.018880228
-0.005164533 -0.0027255174 -0.010187738 -0.016712153 -0.0029808623 -0.0056335186 -0.015669432 0.0068418365
-0.02171537 -0.01272834 0.009398796 0.015626036 -0.009116799 -0.019577857 0.002258321 0.0052724425

ema_model.q_head.mamba.A_log f4 [18, 16]
00000000: 72a4 fc2d 1872 313f 549f 8c3f 1872 b13f
00000010: 1002 ce3f 6058 e53f 9513 f93f 9215 0540
00000020: 549f 0c40 8e5d 1340 1e77 1940 b608 1f40
00000030: 2028 2440 51e6 2840 b250 2d40 1872 3140
00000040: f33b 272e 1872 313f 549f 8c3f 1872 b13f
00000050: 1002 ce3f 6058 e53f 9513 f93f 9215 0540
00000060: 549f 0c40 8e5d 1340 1e77 1940 b608 1f40
00000070: 2128 2440 51e6 2840 b250 2d40 1872 3140
00000080: 3b3b ec30 1872 313f 549f 8c3f 1872 b13f
00000090: 1002 ce3f 6058 e53f 9513 f93f 9215 0540
000000a0: 549f 0c40 8e5d 1340 1e77 1940 b608 1f40
000000b0: 2128 2440 51e6 2840 b250 2d40 1872 3140
000000c0: 6cb1 e8b3 1872 313f 549f 8c3f 1872 b13f
000000d0: 1002 ce3f 6058 e53f 9513 f93f 9215 0540
000000e0: 549f 0c40 8e5d 1340 1e77 1940 b608 1f40
000000f0: 0728 2440 51e6 2840 b250 2d40 1872 3140
00000100: b527 3430 1872 313f 549f 8c3f 1872 b13f
00000110: 1002 ce3f 6058 e53f 9513 f93f 9215 0540
00000120: 549f 0c40 8e5d 1340 1e77 1940 b608 1f40
00000130: 2128 2440 51e6 2840 b250 2d40 1872 3140
00000140: 78ab 58b0 1872 313f 549f 8c3f 1872 b13f
00000150: 1002 ce3f 6058 e53f 9513 f93f 9215 0540
00000160: 549f 0c40 8e5d 1340 1e77 1940 b608 1f40
00000170: 2128 2440 51e6 2840 b250 2d40 1872 3140
00000180: 2f28 24b4 1872 313f 4e9f 8c3f 1672 b13f
00000190: 1002 ce3f 6058 e53f 8f13 f93f 9215 0540
000001a0: 549f 0c40 8e5d 1340 1677 1940 b608 1f40
000001b0: d927 2440 51e6 2840 b150 2d40 1c72 3140
000001c0: 504f 5bb3 1872 313f 529f 8c3f 1772 b13f
000001d0: 1002 ce3f 6058 e53f 9413 f93f 9215 0540
000001e0: 549f 0c40 8e5d 1340 1b77 1940 b608 1f40
000001f0: 0928 2440 51e6 2840 b250 2d40 1772 3140
00000200: 59e1 b731 1872 313f 549f 8c3f 1872 b13f
00000210: 1002 ce3f 6058 e53f 9513 f93f 9215 0540
00000220: 549f 0c40 8e5d 1340 1e77 1940 b608 1f40
00000230: 2128 2440 51e6 2840 b250 2d40 1872 3140
00000240: ce8a 0633 1872 313f 549f 8c3f 1872 b13f
00000250: 1002 ce3f 6058 e53f 9513 f93f 9215 0540
00000260: 549f 0c40 8e5d 1340 2177 1940 b608 1f40
00000270: 3028 2440 51e6 2840 b250 2d40 1872 3140
00000280: bd24 c52f 1872 313f 549f 8c3f 1872 b13f
00000290: 1002 ce3f 6058 e53f 9513 f93f 9215 0540
000002a0: 549f 0c40 8e5d 1340 1e77 1940 b608 1f40
000002b0: 2128 2440 51e6 2840 b250 2d40 1872 3140
000002c0: de5c de34 1872 313f 609f 8c3f 1e72 b13f
000002d0: 0c02 ce3f 5d58 e53f 9e13 f93f 9215 0540
000002e0: 549f 0c40 8e5d 1340 2977 1940 b608 1f40
000002f0: 7128 2440 4fe6 2840 b450 2d40 1472 3140
00000300: 47d6 122d 1872 313f 549f 8c3f 1872 b13f
00000310: 1002 ce3f 6058 e53f 9513 f93f 9215 0540
00000320: 549f 0c40 8e5d 1340 1e77 1940 b608 1f40
00000330: 2128 2440 51e6 2840 b250 2d40 1872 3140
00000340: 5054 8f2f 1872 313f 549f 8c3f 1872 b13f
00000350: 1002 ce3f 6058 e53f 9513 f93f 9215 0540
00000360: 549f 0c40 8e5d 1340 1e77 1940 b608 1f40
00000370: 2128 2440 51e6 2840 b250 2d40 1872 3140
00000380: cae8 8eb1 1872 313f 549f 8c3f 1872 b13f
00000390: 1002 ce3f 6058 e53f 9513 f93f 9215 0540
000003a0: 549f 0c40 8e5d 1340 1e77 1940 b608 1f40
000003b0: 2128 2440 51e6 2840 b250 2d40 1872 3140
000003c0: d9d0 07b3 1872 313f 549f 8c3f 1872 b13f
000003d0: 1002 ce3f 6058 e53f 9513 f93f 9215 0540
000003e0: 549f 0c40 8e5d 1340 1e77 1940 b608 1f40
000003f0: 1b28 2440 51e6 2840 b250 2d40 1872 3140
2.8722111e-11 0.6931472 1.0986123 1.3862944 1.609438 1.7917595 1.9459101 2.0794415
2.1972246 2.3025851 2.3978953 2.4849067 2.564949 2.6390574 2.7080503 2.7725887
3.802465e-11 0.6931472 1.0986123 1.3862944 1.609438 1.7917595 1.9459101 2.0794415
2.1972246 2.3025851 2.3978953 2.4849067 2.5649493 2.6390574 2.7080503 2.7725887
1.7188094e-09 0.6931472 1.0986123 1.3862944 1.609438 1.7917595 1.9459101 2.0794415
2.1972246 2.3025851 2.3978953 2.4849067 2.5649493 2.6390574 2.7080503 2.7725887
-1.0835615e-07 0.6931472 1.0986123 1.3862944 1.609438 1.7917595 1.9459101 2.0794415
2.1972246 2.3025851 2.3978953 2.4849067 2.564943 2.6390574 2.7080503 2.7725887
6.5540046e-10 0.6931472 1.0986123 1.3862944 1.609438 1.7917595 1.9459101 2.0794415
2.1972246 2.3025851 2.3978953 2.4849067 2.5649493 2.6390574 2.7080503 2.7725887
-7.8824014e-10 0.6931472 1.0986123 1.3862944 1.609438 1.7917595 1.9459101 2.0794415
2.1972246 2.3025851 2.3978953 2.4849067 2.5649493 2.6390574 2.7080503 2.7725887
-1.5288309e-07 0.6931472 1.0986116 1.3862941 1.609438 1.7917595 1.9459094 2.0794415
2.1972246 2.3025851 2.3978934 2.4849067 2.564932 2.6390574 2.70805 2.7725897
-5.1062045e-08 0.6931472 1.0986121 1.3862942 1.609438 1.7917595 1.94591 2.0794415
2.1972246 2.3025851 2.3978946 2.4849067 2.5649436 2.6390574 2.7080503 2.7725885
5.35162e-09 0.6931472 1.0986123 1.3862944 1.609438 1.7917595 1.9459101 2.0794415
2.1972246 2.3025851 2.3978953 2.4849067 2.5649493 2.6390574 2.7080503 2.7725887
3.132555e-08 0.6931472 1.0986123 1.3862944 1.609438 1.7917595 1.9459101 2.0794415
2.1972246 2.3025851 2.397896 2.4849067 2.5649529 2.6390574 2.7080503 2.7725887
3.5860195e-10 0.6931472 1.0986123 1.3862944 1.609438 1.7917595 1.9459101 2.0794415
2.1972246 2.3025851 2.3978953 2.4849067 2.5649493 2.6390574 2.7080503 2.7725887
4.1418292e-07 0.6931472 1.0986137 1.3862951 1.6094375 1.7917591 1.9459112 2.0794415
2.1972246 2.3025851 2.397898 2.4849067 2.5649683 2.639057 2.7080507 2.7725878
8.346718e-12 0.6931472 1.0986123 1.3862944 1.609438 1.7917595 1.9459101 2.0794415
2.1972246 2.3025851 2.3978953 2.4849067 2.5649493 2.6390574 2.7080503 2.7725887
2.6071456e-10 0.6931472 1.0986123 1.3862944 1.609438 1.7917595 1.9459101 2.0794415
2.1972246 2.3025851 2.3978953 2.4849067 2.5649493 2.6390574 2.7080503 2.7725887
-4.159209e-09 0.6931472 1.0986123 1.3862944 1.609438 1.7917595 1.9459101 2.0794415
2.1972246 2.3025851 2.3978953 2.4849067 2.5649493 2.6390574 2.7080503 2.7725887
-3.1622083e-08 0.6931472 1.0986123 1.3862944 1.609438 1.7917595 1.9459101 2.0794415
2.1972246 2.3025851 2.3978953 2.4849067 2.5649478 2.6390574 2.7080503 2.7725887

ema_model.q_head.mamba.D f4 [18]
00000000: 2b35 803f c4ae 7f3f a98a 7f3f f838 803f
00000010: 173b 803f de92 7f3f 0d3a 803f b89d 7f3f
00000020: 9228 803f 458c 7f3f e717 803f 2431 803f
00000030: d097 7f3f ea8e 7f3f 3d35 803f 053b 803f
00000040: af38 803f 3994 7f3f
1.0016226 0.99876046 0.99820954 1.0017385 1.0018033 0.99833477 1.0017716 0.99850035
1.0012381 0.9982341 1.0007294 1.0014997 0.9984102 0.99827445 1.0016247 1.0018011
1.0017298 0.99835545
