checkpoints/q-mamba/20240816_041649/checkpoint-1.pt (torch, 115222 bytes, 42 tensors)

q_head.action_bin_embeddings f4 [2, 256, 9]
00000000: 35d1 953b 2ddd fdbb d841 2abb e7aa b0bc
00000010: 9cfa 953b 65d3 d53c 6b88 043b 75db 9f3b
00000020: e1a4 85bc cd32 e03a 4373 c13c 02f5 08bd
00000030: eac4 75bb 7f4b bb3c dc57 843c 86db 75ba
00000040: 325b 9f3c ed69 653c 1b16 99bc 0e6b a33b
00000050: 0a42 ffbc ecac e83c e38b ff3c 79e6 da3b
00000060: abe3 6fbc 88ba 7e3b cc90 0abc b8fc 543c
00000070: d685 9a3b 5974 ad3c 71f1 07bc 5b60 323c
00000080: 8272 623b 4df8 ebbb 00d7 833c a429 0b3c
00000090: d2d1 8aba 191e fbbb 3c52 513c 05c6 eb3a
000000a0: 7fba 7fbc 494d 79bb be3e a63b 7a45 08bd
000000b0: 2ac3 653c a755 313c ccb0 2f3c 1aaf 8abc
000000c0: 29df 99bc 6c1f eab9 a860 4dbd e87f bfbc
000000d0: 3da0 8b3c 7a42 223c 087c 9cbc e0bb 7f3c
000000e0: 6df2 453c e1eb 2ebd 7a22 37ba 1b00 e93c
000000f0: 04b6 ebbb ef70 a53c c602 4abc f0eb 03bd
00000100: 5ad4 05bd 5172 10bb 9a53 eb3a 0ad4 d6bc
00000110: 6020 a3bc 1197 313c cbc9 1a3d 86c8 6f3d
00000120: b404 323c 9325 813b 7abf b2bc 29ba 5b3c
00000130: 6f50 143b 469d b1bc 6aa4 533c b607 eebc
00000140: 5a11 ebbb 9337 33bc c3e4 5e3c c82c 8c3c
00000150: bfd8 0c3d 90d5 28bc 717b 9cbc e93b bbbb
00000160: b728 c63c 6d69 0d3c 2e01 d13b 54a6 56bc
00000170: 6b4e 40bd eb51 d43b e606 d0b6 0603 16bc
00000180: a141 313c 714b 10bd 6518 29bc dcc4 53bd
00000190: 53fe 8f3c 375d b53c 50bd df3b 987d 823c
000001a0: 9602 c23c ba47 3dbb 992c f23a 7b1f 1d3c
000001b0: f1b2 eabc 366a 353c 780c 1cbd 8ec3 133c
000001c0: fe9e a0bc 9c5d f13c e356 4e3b cedc 03bc
000001d0: 3e7d cbbb 2fa6 63bc d8f1 873c e437 72bc
000001e0: 62ad 68bb d70f 053b 0298 b1bc 9dbc 023d
000001f0: 98ba 363b 73c7 d0bb 602a b9bc c9ca 9b3c
00000200: 2c91 c1bc 0d8f 71bb 2d36 2a3a 5ecf 253c
00000210: 809d 753c d1f2 9dbc f132 edbb 1ce5 013c
00000220: 52b6 723c 9f2c 283c b249 36bc ec5b 373c
00000230: 2ab2 033c a3b6 88bc 0066 ae3c 63f2 81bc
00000240: 21af 8a3b b7a6 9c3c 475f 3d3d 5b95 d83b
00000250: d484 153d b83d 77bc 2d4f 3b3b 6740 79bc
00000260: c7b2 16bc 954f d93c b2f4 6d3c 00a0 373c
00000270: 0cbd 953c 82e4 80bb fd2b 8d3c 65d9 793c
00000280: 2490 fd3c 019c 43bc 9276 95bc 0121 d2bc
00000290: 55b1 37bc d1e9 f53c e6eb b2bc 7474 95bc
000002a0: f5ec c9bc 7c92 57bc 3626 ae3c 4949 7a3c
000002b0: 3206 20bd d001 ad3c 7969 1bbc 6027 653c
000002c0: f537 c239 23f7 fe39 30ca 213d adbb 1fbc
000002d0: edd2 ab3c dc08 a63c a1b7 1ebd 88d5 64b9
000002e0: f7ab 76bb 391c 7c3b 0b00 81ba 9d3f b1bc
000002f0: c366 f03b 13d6 0ebd ac1b bfbc c862 bebc
00000300: 7904 9a3c 1aed 853a 3a21 3f3c 8bec 91bc
00000310: 8a4e 85bc 1a6f a3bc 4962 a0bc 8bd2 213c
00000320: 544c c3bb 2d51 73bc 2773 cdbb c7ff 1abb
00000330: 777e 123d 8491 2abc c69c 6f3c 7d04 0abd
00000340: 1e84 d9bc 46e3 2d3c 7922 debc c597 73bc
00000350: 646b 7c3c de87 903a 2c63 153d 72f1 c0bb
00000360: 9f6d 5d3b 3e1e 9c3c 3ca4 28bd 545a 95bc
00000370: 30fb 813c e681 ad3a f203 91bc df6f 443c
00000380: 4664 eb3c be2b b6bc 9b06 ebbc d521 d2bb
00000390: ad13 c93b 55da 04bb 5f0d 84bc 8dda 3ebd
000003a0: 1387 423d a0a8 5fbc ea7e dfbc a6e3 f7bc
000003b0: ee1d 22bd ade5 203c 26a3 0dbc e71f 9d3c
000003c0: 160f b3bb 48ae 22bb cbfa 21bc d0a5 86bc
000003d0: cdab 2fbb 48ed b0bb 66cf 7bbc 55dd d63b
000003e0: 1370 afbc 5178 55bc 70eb 1d3c 1f7a 823c
000003f0: b6d3 10bc 43ec 9dbc e763 243b a498 b63b
0.0045720586 -0.0077473135 -0.0025979187 -0.021565868 0.004576994 0.026101777 0.0020222913 0.0048784562
-0.016313972 0.0017104984 0.023614531 -0.033436783 -0.0037501403 0.022863148 0.016155176 -0.000937872
0.019452665 0.014002305 -0.018687299 0.004987127 -0.03115942 0.028402768 0.031194633 0.0066803065
-0.014641683 0.0038868506 -0.008457374 0.012999706 0.0047156615 0.021173643 -0.00829731 0.010887231
0.0034553115 -0.0072012306 0.01609373 0.008493815 -0.0010591096 -0.0076635 0.012775954 0.0017988092
-0.015608429 -0.003804045 0.0050733974 -0.033269383 0.0140235815 0.010823644 0.010723304 -0.016929198
-0.018783169 -0.0004465537 -0.050141007 -0.02337642 0.017044181 0.009903545 -0.019102111 0.015608758
0.012081725 -0.04270542 -0.00069860334 0.028442433 -0.007193329 0.020195452 -0.012329763 -0.03220743
-0.032673217 -0.0022040794 0.0017953992 -0.026224155 -0.019912899 0.01083924 0.0377901 0.058540843
0.010865379 0.003941247 -0.021819819 0.013411083 0.002263095 -0.02168144 0.012917617 -0.029056411
-0.0071736993 -0.010938543 0.013604346 0.017111197 0.034386393 -0.0103048235 -0.01910183 -0.005713929
0.024189336 0.0086310925 0.0063783145 -0.013101179 -0.046949785 0.006479492 -6.199686e-06 -0.009155994
0.01081887 -0.035228197 -0.0103207575 -0.05170141 0.017577326 0.022139175 0.0068279877 0.015929028
0.023682874 -0.0028881864 0.0018476426 0.009590025 -0.028649779 0.011072686 -0.03809783 0.009018792
-0.019607063 0.029463582 0.0031484894 -0.008048249 -0.0062099984 -0.013894602 0.016594812 -0.014783833
-0.0035503735 0.002030363 -0.021678928 0.031918157 0.0027882215 -0.0063714324 -0.022603214 0.019017594
-0.023628794 -0.0036858947 0.0006493058 0.010120241 0.014991164 -0.019280823 -0.0072387387 0.007928159
0.014813976 0.010264545 -0.011125969 0.0111913495 0.008038083 -0.01668865 0.021288872 -0.01586265
0.004232303 0.019122465 0.04623344 0.0066096014 0.036503628 -0.0150903985 0.0028581128 -0.015213109
-0.009197897 0.026527205 0.014523672 0.011207581 0.018278621 -0.0039334903 0.01723289 0.015249585
0.03095252 -0.01193905 -0.018245015 -0.025650503 -0.011211713 0.030018719 -0.021841 -0.018244006
-0.024649123 -0.013157483 0.021258455 0.015276262 -0.03906841 0.021119028 -0.009485596 0.0139864385
0.00037044255 0.00048630786 0.03949946 -0.009749335 0.0209746 0.020267896 -0.03874934 -0.00021823321
-0.003763912 0.003846897 -0.0009841932 -0.021636778 0.007336469 -0.034872126 -0.023328625 -0.023240462
0.01880096 0.0010217756 0.011665637 -0.017812988 -0.016272802 -0.019950438 -0.019578116 0.0098768575
-0.0059600268 -0.014850897 -0.0062698307 -0.002365099 0.035765138 -0.01041067 0.01462478 -0.033695687
-0.026552256 0.010613268 -0.027116047 -0.014867728 0.015406463 0.001102682 0.03647153 -0.0058881575
0.0033787263 0.01905739 -0.04117225 -0.018231548 0.015866846 0.0013237565 -0.017702077 0.011989563
0.028734338 -0.022237655 -0.028689673 -0.0064127245 0.0061363787 -0.0020271738 -0.016119657 -0.046595145
0.047492098 -0.013651043 -0.027282197 -0.030259918 -0.039579324 0.009820384 -0.008644855 0.019180251
-0.005464445 -0.0024823118 -0.009886454 -0.016436487 -0.0026805282 -0.00539938 -0.015369272 0.0065571466
-0.021415746 -0.013029174 0.009638652 0.015927373 -0.008839538 -0.019277697 0.002508396 0.0055723954

q_head.mamba.A_log f4 [18, 16]
00000000: 1094 5cb1 1872 313f 549f 8c3f 1872 b13f
00000010: 1002 ce3f 6058 e53f 9513 f93f 9215 0540
00000020: 549f 0c40 8e5d 1340 1e77 1940 b608 1f40
00000030: 1f28 2440 51e6 2840 b250 2d40 1872 3140
00000040: a9d0 022e 1872 313f 549f 8c3f 1872 b13f
00000050: 1002 ce3f 6058 e53f 9513 f93f 9215 0540
00000060: 549f 0c40 8e5d 1340 1e77 1940 b608 1f40
00000070: 2128 2440 51e6 2840 b250 2d40 1872 3140
00000080: 4bce a130 1872 313f 549f 8c3f 1872 b13f
00000090: 1002 ce3f 6058 e53f 9513 f93f 9215 0540
000000a0: 549f 0c40 8e5d 1340 1e77 1940 b608 1f40
000000b0: 2128 2440 51e6 2840 b250 2d40 1872 3140
000000c0: 73b4 d1b3 1872 313f 549f 8c3f 1872 b13f
000000d0: 1002 ce3f 6058 e53f 9513 f93f 9215 0540
000000e0: 549f 0c40 8e5d 1340 1e77 1940 b608 1f40
000000f0: 0928 2440 51e6 2840 b250 2d40 1872 3140
00000100: 9335 0730 1872 313f 549f 8c3f 1872 b13f
00000110: 1002 ce3f 6058 e53f 9513 f93f 9215 0540
00000120: 549f 0c40 8e5d 1340 1e77 1940 b608 1f40
00000130: 2128 2440 51e6 2840 b250 2d40 1872 3140
00000140: 631f 42b0 1872 313f 549f 8c3f 1872 b13f
00000150: 1002 ce3f 6058 e53f 9513 f93f 9215 0540
00000160: 549f 0c40 8e5d 1340 1e77 1940 b608 1f40
00000170: 2128 2440 51e6 2840 b250 2d40 1872 3140
00000180: 631f 01b4 1872 313f 4f9f 8c3f 1772 b13f
00000190: 1002 ce3f 6058 e53f 9013 f93f 9215 0540
000001a0: 549f 0c40 8e5d 1340 1877 1940 b608 1f40
000001b0: ea27 2440 51e6 2840 b250 2d40 1b72 3140
000001c0: dc9e 24b3 1872 313f 539f 8c3f 1772 b13f
000001d0: 1002 ce3f 6058 e53f 9513 f93f 9215 0540
000001e0: 549f 0c40 8e5d 1340 1d77 1940 b608 1f40
000001f0: 1128 2440 51e6 2840 b250 2d40 1772 3140
00000200: 576c aa31 1872 313f 549f 8c3f 1872 b13f
00000210: 1002 ce3f 6058 e53f 9513 f93f 9215 0540
00000220: 549f 0c40 8e5d 1340 1e77 1940 b608 1f40
00000230: 2128 2440 51e6 2840 b250 2d40 1872 3140
00000240: 4b54 f332 1872 313f 549f 8c3f 1872 b13f
00000250: 1002 ce3f 6058 e53f 9513 f93f 9215 0540
00000260: 549f 0c40 8e5d 1340 2177 1940 b608 1f40
00000270: 3028 2440 51e6 2840 b250 2d40 1872 3140
00000280: 4a84 962f 1872 313f 549f 8c3f 1872 b13f
00000290: 1002 ce3f 6058 e53f 9513 f93f 9215 0540
000002a0: 549f 0c40 8e5d 1340 1e77 1940 b608 1f40
000002b0: 2128 2440 51e6 2840 b250 2d40 1872 3140
000002c0: 5fcf ad34 1872 313f 5d9f 8c3f 1c72 b13f
000002d0: 0d02 ce3f 5e58 e53f 9c13 f93f 9215 0540
000002e0: 549f 0c40 8e5d 1340 2677 1940 b608 1f40
000002f0: 5d28 2440 50e6 2840 b350 2d40 1572 3140
00000300: a9f4 ef2c 1872 313f 549f 8c3f 1872 b13f
00000310: 1002 ce3f 6058 e53f 9513 f93f 9215 0540
00000320: 549f 0c40 8e5d 1340 1e77 1940 b608 1f40
00000330: 2128 2440 51e6 2840 b250 2d40 1872 3140
00000340: d9b6 8c2f 1872 313f 549f 8c3f 1872 b13f
00000350: 1002 ce3f 6058 e53f 9513 f93f 9215 0540
00000360: 549f 0c40 8e5d 1340 1e77 1940 b608 1f40
00000370: 2128 2440 51e6 2840 b250 2d40 1872 3140
00000380: 96bd 62b1 1872 313f 549f 8c3f 1872 b13f
00000390: 1002 ce3f 6058 e53f 9513 f93f 9215 0540
000003a0: 549f 0c40 8e5d 1340 1e77 1940 b608 1f40
000003b0: 2128 2440 51e6 2840 b250 2d40 1872 3140
000003c0: c7d7 07b3 1872 313f 549f 8c3f 1872 b13f
000003d0: 1002 ce3f 6058 e53f 9513 f93f 9215 0540
000003e0: 549f 0c40 8e5d 1340 1e77 1940 b608 1f40
000003f0: 1c28 2440 51e6 2840 b250 2d40 1872 3140
-3.2098377e-09 0.6931472 1.0986123 1.3862944 1.609438 1.7917595 1.9459101 2.0794415
2.1972246 2.3025851 2.3978953 2.4849067 2.5649488 2.6390574 2.7080503 2.7725887
2.9743905e-11 0.6931472 1.0986123 1.3862944 1.609438 1.7917595 1.9459101 2.0794415
2.1972246 2.3025851 2.3978953 2.4849067 2.5649493 2.6390574 2.7080503 2.7725887
1.1772924e-09 0.6931472 1.0986123 1.3862944 1.609438 1.7917595 1.9459101 2.0794415
2.1972246 2.3025851 2.3978953 2.4849067 2.5649493 2.6390574 2.7080503 2.7725887
-9.7651444e-08 0.6931472 1.0986123 1.3862944 1.609438 1.7917595 1.9459101 2.0794415
2.1972246 2.3025851 2.3978953 2.4849067 2.5649436 2.6390574 2.7080503 2.7725887
4.918885e-10 0.6931472 1.0986123 1.3862944 1.609438 1.7917595 1.9459101 2.0794415
2.1972246 2.3025851 2.3978953 2.4849067 2.5649493 2.6390574 2.7080503 2.7725887
-7.062139e-10 0.6931472 1.0986123 1.3862944 1.609438 1.7917595 1.9459101 2.0794415
2.1972246 2.3025851 2.3978953 2.4849067 2.5649493 2.6390574 2.7080503 2.7725887
-1.202548e-07 0.6931472 1.0986117 1.3862942 1.609438 1.7917595 1.9459095 2.0794415
2.1972246 2.3025851 2.397894 2.4849067 2.5649362 2.6390574 2.7080503 2.7725894
-3.8328707e-08 0.6931472 1.0986122 1.3862942 1.609438 1.7917595 1.9459101 2.0794415
2.1972246 2.3025851 2.397895 2.4849067 2.5649455 2.6390574 2.7080503 2.7725885
4.959968e-09 0.6931472 1.0986123 1.3862944 1.609438 1.7917595 1.9459101 2.0794415
2.1972246 2.3025851 2.3978953 2.4849067 2.5649493 2.6390574 2.7080503 2.7725887
2.8327255e-08 0.6931472 1.0986123 1.3862944 1.609438 1.7917595 1.9459101 2.0794415
2.1972246 2.3025851 2.397896 2.4849067 2.5649529 2.6390574 2.7080503 2.7725887
2.7378838e-10 0.6931472 1.0986123 1.3862944 1.609438 1.7917595 1.9459101 2.0794415
2.1972246 2.3025851 2.3978953 2.4849067 2.5649493 2.6390574 2.7080503 2.7725887
3.2374643e-07 0.6931472 1.0986134 1.3862948 1.6094376 1.7917593 1.9459109 2.0794415
2.1972246 2.3025851 2.3978972 2.4849067 2.5649636 2.6390572 2.7080505 2.772588
6.8199513e-12 0.6931472 1.0986123 1.3862944 1.609438 1.7917595 1.9459101 2.0794415
2.1972246 2.3025851 2.3978953 2.4849067 2.5649493 2.6390574 2.7080503 2.7725887
2.5595773e-10 0.6931472 1.0986123 1.3862944 1.609438 1.7917595 1.9459101 2.0794415
2.1972246 2.3025851 2.3978953 2.4849067 2.5649493 2.6390574 2.7080503 2.7725887
-3.2995096e-09 0.6931472 1.0986123 1.3862944 1.609438 1.7917595 1.9459101 2.0794415
2.1972246 2.3025851 2.3978953 2.4849067 2.5649493 2.6390574 2.7080503 2.7725887
-3.1628385e-08 0.6931472 1.0986123 1.3862944 1.609438 1.7917595 1.9459101 2.0794415
2.1972246 2.3025851 2.3978953 2.4849067 2.564948 2.6390574 2.7080503 2.7725887

q_head.mamba.D f4 [18]
00000000: 812e 803f 54b8 7f3f 299e 7f3f 772f 803f
00000010: 3031 803f e5a1 7f3f 6c30 803f 6aa6 7f3f
00000020: fd23 803f 239f 7f3f 810f 803f bc28 803f
00000030: cca6 7f3f 84a0 7f3f 972c 803f 1c31 803f
00000040: de2f 803f 1ba3 7f3f
1.0014192 0.9989064 0.9985071 1.0014485 1.0015011 0.99856406 1.0014777 0.998633
1.0010983 0.998522 1.0004731 1.0012431 0.99863887 0.998543 1.0013608 1.0014987
1.0014608 0.99858254

q_head.mamba.in_proj.weight f4 [36, 9]
00000000: b914 9fbd 06a4 a13d acb3 e6bd d800 473d
00000010: 16f6 98bd 7474 8abe 0e6a f73b 3d73 28bd
00000020: b1c2 a73e d1ad dfbc 2604 1b3e 4539 363e
00000030: ef78 93be 7f1d e73d 022e 383e 14d1 303e
00000040: 5b2e 943b 8d98 a7be 4cb4 173e 1383 89bc
00000050: 9f65 883d 1a9d f8bd be80 0ebe d7b4 3cbe
00000060: 5e21 8f3e 3da9 d83d 0d5c 4c3e 46d2 2fbe
00000070: 8887 f6bc b13b 863d bd39 0bbe 3c5a 253e
00000080: 96d3 09be febf a03e e548 91be 220f 173e
00000090: 2efd 38bd 1b27 a1bc 9cc0 94bd e0d8 8e3e
000000a0: 1036 2f3d ac52 a5be c863 a13e 3e13 b33d
000000b0: ce1f 4fbe 3ae4 e63d d54f 65be 9718 aa3d
000000c0: 9e09 553e 28d9 9f3e acc3 81be a659 d23d
000000d0: 2cb3 45bd 9256 73be e1f7 3dbe e5b1 3fbe
000000e0: c563 f2bc 9951 82be 178d 27bd 3ecd 3d3e
000000f0: d962 07bd b731 53be d45f 823c 5de2 69be
00000100: 8604 603e 68f0 153e f75b 073e f4bd 833e
00000110: c586 8f3e 8fd9 3fbd 1d86 cd3a 3218 41be
00000120: 5dc8 c33d 1eeb 433e 786b 2ebe 71fe 1a3e
00000130: 3fe8 193e ef22 8abe d321 f43d 62e1 4ebe
00000140: 8da1 2f3e fe9a 963e be32 49be 17bd 4bbe
00000150: bb62 93be df69 913e 8c2d 733e 7afc 6e3e
00000160: 777e 153d f1b2 383e 1328 493e 37ad 1ebe
00000170: ccd1 16be c46d 3e3e 5f68 37be 4cbb 5fbe
00000180: 787a a4bc c654 a03e c16b 14bd 6235 a0bd
00000190: 8df0 8f3e e70c 8a3d 2371 63bd 0f82 4fbe
000001a0: b80a 41be b016 9dbe 77fb 3b3e ebd1 593e
000001b0: f80e 88be 9f85 3bbd b49d 81be db71 963e
000001c0: d6a3 a73e 471b 863e a67b 95be cac7 11bd
000001d0: bb8b dbbd c402 143e e719 113e fccd 82be
000001e0: 137a 14be 9181 6f3e e0b1 0ebc 01a0 3fbd
000001f0: b9a2 903d ee06 16bc 8565 a3be 4867 95be
00000200: 76a2 17be 2b34 74bd 6818 5abe 2200 fbbd
00000210: 9cc6 9b3e 478e 923d 1c6c 853d 79d3 833e
00000220: 2925 5fbe 5ade 383e 0b30 a43e 9d2d 8fbe
00000230: 920f 40be 6a9c f9bb a4c5 973e ddac 61bd
00000240: 704b 1e3e c0f8 9dbe 843c 753e 0327 a3be
00000250: 2820 d9bc d345 68bd b684 0e3e 8447 50be
00000260: c8ee e9bd 5b5f 373e d46e a2be 6f19 8f3e
00000270: afb9 5c3e 1f93 4ebe e69c 8ebd bbf7 953c
00000280: 26c3 63be 6ca7 1a3c 35b8 363e 280c 6e3d
00000290: 9be2 adbd 4809 df3c fd3f b13d 5f0f 8dbd
000002a0: 3d28 50be f296 463e 8bc3 8f3c d5e3 d43d
000002b0: 537b 553e cdf5 9f3e fb08 863c c84d ee3c
000002c0: 5514 673e 6a12 95be 6e59 77be 3ae6 55be
000002d0: d8f2 6cbe c3ac 4bbd a934 12be ac18 5abe
000002e0: 86d1 993e 7897 db3d 4e4e 883e 6142 403c
000002f0: fcbe 893e fe3b 9d3c 1647 433e b3ed 233e
00000300: c513 84bc 4199 9b3e 20ae 0ebe ec7f fdbd
00000310: fe14 ed3c a217 903e 4e4d e13d 9695 233e
00000320: 3850 d9bd f7e7 58bd b3e9 d9bd d84f 42be
00000330: a190 9cbd 45db 803e 7b19 a8be f2a4 2ebe
00000340: 23ec a7be f8b7 c73d e075 853e c2ac 9cbe
00000350: 9ac1 febd 5830 80be 2dd8 dfba 6b0b 2f3d
00000360: 2cc5 22be 63f5 a83e 548c aabe 5b04 813e
00000370: 2d2e 88be 5884 83bd 3c71 ae3d 6efa 0ebe
00000380: c6e9 92be a23c 4b3e d60e 5e3e 162b dd3d
00000390: 1b6a 79be 2a6c 76bd efef ae3c 9880 1d3e
000003a0: b323 a43e 6c20 e33d 8948 00be 3bda 853e
000003b0: ac27 e1bd 7f52 3abe b8be 073e 9bc8 e23d
000003c0: 6f42 333e bf37 9f3e 450c 92be 40ae 133e
000003d0: 81d6 21be 091b 4bbe f76b 8fbc b7ac a23e
000003e0: b0e6 92be 1726 7cbe 1641 7cbe 7995 f43c
000003f0: 1aa7 2ebe 3682 9d3e 5625 0a3e aec8 aabd
-0.077676244 0.07892613 -0.112647384 0.04858479 -0.07468812 -0.27041972 0.0075504845 -0.041125525
0.32765725 -0.027304562 0.15138301 0.17795284 -0.28803203 0.11284923 0.179863 0.17267257
0.0045221276 -0.32733575 0.14814872 -0.016786134 0.06660008 -0.1213934 -0.13916299 -0.1842836
0.27955145 0.10579155 0.1995699 -0.17170057 -0.030093923 0.06554354 -0.13596244 0.16147703
-0.1345962 0.31396478 -0.28375927 0.14751866 -0.045163326 -0.019671967 -0.072633 0.27899837
0.042776167 -0.32289636 0.3152144 0.087439045 -0.20226976 0.112739995 -0.22393735 0.083054714
0.2080445 0.31220365 -0.25344598 0.10271005 -0.048266575 -0.23763493 -0.1855159 -0.18720205
-0.02958859 -0.2545288 -0.040906038 0.18535325 -0.033053253 -0.20624433 0.015914835 -0.22840257
0.21876726 0.14642489 0.13218676 0.2573086 0.28032508 -0.04683834 0.0015680228 -0.18856886
0.09559701 0.19132659 -0.17033184 0.15136124 0.15030001 -0.26979777 0.11920514 -0.20203164
0.1715147 0.29415125 -0.19648263 -0.19896351 -0.28786263 0.28401086 0.23747844 0.233385
0.03649756 0.1803701 0.19644193 -0.15495764 -0.14728469 0.1859656 -0.17910908 -0.21848792
-0.020077929 0.31314677 -0.036235575 -0.07822682 0.28113213 0.06740742 -0.055527817 -0.20264457
-0.18851745 -0.30681372 0.18357645 0.21271484 -0.2657392 -0.045781728 -0.2531563 0.2938374
0.32742184 0.26192686 -0.291959 -0.035590924 -0.10720011 0.1445418 0.14170037 -0.2554778
-0.14499693 0.2338927 -0.008709401 -0.04678345 0.07062287 -0.009156926 -0.3191339 -0.2918036
-0.14808068 -0.059620064 -0.21298373 -0.12255885 0.30424964 0.071560435 0.06514761 0.25747278
-0.21791519 0.1805357 0.32067904 -0.27964488 -0.1875594 -0.007617523 0.29642975 -0.055096496
0.15458465 -0.30853844 0.23948866 -0.318657 -0.026504591 -0.056707215 0.13917813 -0.20339781
-0.11422497 0.17907469 -0.3172518 0.27949092 0.21555208 -0.2017331 -0.0696352 0.018306604
-0.22242412 0.009439331 0.17843707 0.05811706 -0.08490487 0.027226105 0.08654783 -0.068876974
-0.2032785 0.19393519 0.017549297 0.10395018 0.20847826 0.3124222 0.016361704 0.029089823
0.2256635 -0.2911561 -0.24155208 -0.20888606 -0.23139513 -0.049725305 -0.14277901 -0.21298474
0.30042666 0.1072225 0.26622242 0.011734576 0.26903522 0.019193646 0.19070086 0.16008644
-0.016122708 0.3039036 -0.13933611 -0.12377915 0.028940674 0.2814303 0.11001073 0.15975031
-0.10611004 -0.052955594 -0.10640278 -0.1897577 -0.07644773 0.2516729 -0.3283194 -0.17055109
-0.32797346 0.09751886 0.26066494 -0.30600554 -0.1243927 -0.25036883 -0.0017077975 0.0427355
-0.15895528 0.32999715 -0.33310187 0.25198635 -0.2659773 -0.06421727 0.085176915 -0.13962719
-0.2869398 0.19847348 0.21685347 0.107992336 -0.24356882 -0.060161747 0.021354644 0.15381086
0.32058486 0.11090168 -0.1252767 0.2614306 -0.10993895 -0.18195532 0.13256347 0.11073419
0.17505811 0.31097218 -0.28524986 0.1442194 -0.15804483 -0.19834532 -0.017507536 0.31772396
-0.28691626 -0.24623905 -0.24634203 0.02985643 -0.17055932 0.30763406 0.13490805 -0.08339058

q_head.mamba.conv1d.weight f4 [18, 1, 4]
00000000: 4637 d0be dc75 f93e 44e1 adbe 499c 5dbd
00000010: 90be debe a000 07be 1cb7 cdbe 1c1c e13e
00000020: f049 d0be 1466 d93e d99e 903e 4a13 f5be
00000030: 065f cabe 1a9d f1be c07d 9abd 2a60 bfbe
00000040: a429 913e 6865 eebe 0d40 fdbe 842b bebe
00000050: d802 793e 00b5 113b b2f4 a7be 076d dabe
00000060: 9460 9f3e b672 d03e 87be a23d 4cef 2ebe
00000070: 7e15 c73e 9cba 523e 9196 f9be 7eca 333e
00000080: 807d efbc 30ab 43be 1418 de3d 7d60 a1be
00000090: e287 953e 28ab 34be b0b8 933e ec6e 6fbe
000000a0: 32f7 af3e 12ff c03e 06e8 2e3e 1069 723e
000000b0: a43a a33e 1878 d3bd 3372 963d 02d1 c03e
000000c0: 9c1d 053e 068d d63e 42cc e4be fbd5 813e
000000d0: 00c6 8c3b 787e 9ebe 9274 ec3e 082e fbbe
000000e0: 7020 cebe 88a2 803d 595e d4be ad39 ddbd
000000f0: b2c2 c1be e23c e23e 60e1 5bbe c536 b63e
00000100: 0065 a73b 0007 2dbe f936 75be 38e0 223e
00000110: 981a b4bd 1067 893d c968 f73e 9734 f43e
-0.4066717 0.48722732 -0.33960927 -0.054104123 -0.43504763 -0.13183832 -0.40178764 0.43966758
-0.4068141 0.42460692 0.2824619 -0.4786628 -0.39525622 -0.4719017 -0.07543516 -0.37378055
0.28352082 -0.46561742 -0.4946293 -0.37142575 0.24317491 0.0022233129 -0.32803875 -0.42661306
0.3112837 0.40712517 0.079464965 -0.17083472 0.38883585 0.20578998 -0.48747686 0.17557713
-0.029234648 -0.19108272 0.10844436 -0.31518927 0.29205233 -0.17643416 0.28851843 -0.23382157
0.34368283 0.37694603 0.17080697 0.2367289 0.31880677 -0.103256404 0.073460005 0.3765946
0.12999576 0.41904467 -0.44687086 0.25358567 0.0042960644 -0.30955863 0.46182686 -0.49058557
-0.40259123 0.062810004 -0.41478232 -0.108020164 -0.37843853 0.44187075 -0.21472692 0.3558866
0.0051084757 -0.16897202 -0.23946752 0.15905845 -0.08794135 0.06709111 0.48322132 0.47696373

q_head.mamba.conv1d.bias f4 [18]
00000000: 7919 bb3e 283c 6f3d 601a a03e f956 e73e
00000010: 80d4 4a3e e63e bfbe 4011 d23e 4203 b9be
00000020: e01f b63d 3edf eb3e b997 efbe 7d87 813d
00000030: 06a3 393d 69f4 f93e f33e 8cbb 9ecf 34be
00000040: 452f ed3e 9ca2 8f3e
0.36542872 0.05840698 0.31270123 0.45183542 0.19807625 -0.37352675 0.41028786 -0.36135298
0.088927984 0.46068758 -0.46795443 0.063246705 0.045321487 0.48819283 -0.004279965 -0.17657325
0.46325126 0.2805375

q_head.mamba.x_proj.weight f4 [33, 18]
00000000: 3474 0bbe cc53 72bd 57dc d63d 5993 2abe
00000010: 88ca e2bd 6a68 bbbc 705b 203d 3794 0ebe
00000020: daf4 2d3e 049c f53c 9ce5 6b3e 1979 e2bc
00000030: 00ca 19be b6f3 6a3d 0921 e73d 173e 553e
00000040: 8ebd 513e 6c54 1b3e 7f9e 683c 9199 4d3c
00000050: 00c7 84bd a2fb 14be 2a48 153e 1f08 0e3c
00000060: 188a 053d 6222 6bbd 7d45 88bc d2c6 3e3e
00000070: 62bc f9bd f6fb f6bd f207 43be 91bc 4cbe
00000080: 5dd1 35bd f1d6 b1bc 8f48 69bd 93f6 0bbe
00000090: 16ad c23d 5186 2b3c 0a94 42be a8da 2b3e
000000a0: 4d5b 2fbe 8a2e dcbc 3a83 6fbd 4a93 bf3d
000000b0: d795 abbc d6a1 20be 344c d6bd 76bc d6bd
000000c0: 144e 52be 7998 413e e602 083d f62f d3bd
000000d0: 6d00 393e 1f00 bb3d 2773 7cbd 2882 783b
000000e0: 4278 8c3d 4210 cc3c 8a79 403e e69d fabd
000000f0: afef 653e d972 cc3d 47e5 1bbe dd19 cf3d
00000100: 7193 4abe 67d8 3f3e 269f 0bbe 99df 00bb
00000110: 07c7 debd c8a3 8a3b f3f6 5cbe 72af 133e
00000120: dda6 3bb9 1439 45be 79be a5bd 0094 973d
00000130: 51c5 53be e26c 3d3e 364f e3bb a49e 6ebe
00000140: 8fa8 8fbd 0413 9abd 757c 0b3e d586 f5bd
00000150: 5d3c 3ebe 00b4 633e a152 1b3e 31c1 b3bd
00000160: c10e 133e 937d 7cbd a9cd 8abc a9fb c23d
00000170: a4c1 5dbc 4ba3 b83c b507 42be 1bf1 f93c
00000180: 97de 97bd 55b3 943d 1688 73bb 6394 adbd
00000190: 6419 ffbd bad4 01bc d0d5 08be 5337 6ebd
000001a0: b698 44be cd3c 10bd 84ce bbbd f8db 45bd
000001b0: 4d52 c6bc 3514 8f3d 62b4 3cbe e224 68be
000001c0: a308 14be fef2 94bd 76f6 f0bd 794e 903d
000001d0: 21ce e2bb 594d 453e 36c1 fb3d fa0e 34be
000001e0: 14c4 a33d 3c36 493c 98cf e53d e6c7 25be
000001f0: 02c7 6b3e 20a1 583e f2fd 193e 5338 95bd
00000200: b063 3abe 2f88 5fbe a610 8b3d cc2b ad3a
00000210: 523d 0dbe 3438 2d3e 8c2c 5f3d 4d9d a4bd
00000220: c4de ccbb 8cc8 0f3e 6bf6 36be bab0 f03d
00000230: f1b2 a03d 0f29 86bd 489d dc3c ccbd 553e
00000240: 4d3d 49be 65bc 0ebd e08a b23d fb01 05be
00000250: 56fc 453e 4e7e 7dbd a493 f53d 19d6 c6bd
00000260: 590e e33d 9abc 503e 32e4 43bd 55f0 033e
00000270: c744 bd3d 29c0 e8bd 31d1 583e 5e88 c83d
00000280: c712 e4bd c07b 46be d599 c9bc ccf6 62bd
00000290: c86d 34be d65a 923c 574c 09be f1a8 2cbe
000002a0: db22 113e 51e5 8a3c 423c 573e 556e b83d
000002b0: 03c1 3bbe 5b95 3fbe d47e a7bd 6e60 1ebe
000002c0: 7f08 a63b e4d2 f43d ad31 543e 64f4 8f3c
000002d0: bd5e 653d 2849 3f39 6dd5 113c a40c c33d
000002e0: 3c39 3b3e 8648 59bd c7a2 34be b73f febd
000002f0: a310 dc3c cf2c 4ebe 07c7 493d 31c3 ba3d
00000300: a194 14be f11a 4d3e 2cb5 63be 45bb c7bd
00000310: 6c1c 45be eb87 9a3d bd0b d93d 0950 0bbd
00000320: c5b0 a43d 552d ea3d d358 5c3e 09bd 35be
00000330: 3727 4d3e 613f 44be 7750 2bbe 581f f1bd
00000340: 5ac4 833d de54 16be b2b8 fdbd 8446 433e
00000350: bf53 33be e94e 5dbe 87f3 fb3d 38e2 ea3d
00000360: ae28 f2bb 8f06 19be dc15 04bd 55ff 2abe
00000370: c9a4 ad3b 916c 0e3e d35e 963a 5030 65be
00000380: 4c2c eebd b265 0b3e dc78 2ebe aeab d63d
00000390: 96eb 40be 12bc 933c 45f0 debd c048 0dbe
000003a0: 9f7d 6b3e 7368 433c ae09 6bbe f3bb 2c3e
000003b0: c943 45be 75cd 66be c8a5 aabd cc47 6a3e
000003c0: fcee c7bc 1b96 273e dfc7 ef3c ea6f 31be
000003d0: b6db 543e 59fc 393d 5b0d cbbc d107 ffbc
000003e0: 2f3d 013e 936c 47be 514d d3bd 8d57 61bd
000003f0: d907 183e 58d4 153d d769 303e 8a40 c23c
-0.13618547 -0.059161946 0.10491245 -0.16657771 -0.11073786 -0.022876937 0.0391497 -0.13923727
0.16987935 0.02998162 0.23036808 -0.027645634 -0.15018463 0.057361327 0.11285598 0.20824467
0.20482466 0.15168923 0.014197945 0.01254882 -0.06483269 -0.14549115 0.1457831 0.008668928
0.0326024 -0.057405837 -0.016634697 0.18630531 -0.12194134 -0.120597765 -0.19046 -0.19993807
-0.044389118 -0.021708937 -0.056953963 -0.1366828 0.0950567 0.010469035 -0.19001785 0.1678263
-0.17124672 -0.02687766 -0.058474757 0.09354265 -0.020945473 -0.15686736 -0.10463753 -0.10485165
-0.20537597 0.1890582 0.03320589 -0.10311882 0.18066569 0.091308825 -0.061633255 0.0037919376
0.06858875 0.024910096 0.18796363 -0.12237148 0.22454713 0.09982843 -0.15224181 0.10112355
-0.19782807 0.18734895 -0.13634929 -0.0019664525 -0.10877805 0.00423095 -0.21578579 0.14422396
-0.00017895871 -0.19260055 -0.080929704 0.07401276 -0.20680739 0.18498567 -0.006936933 -0.23302704
-0.07014572 -0.07523158 0.13621695 -0.11988608 -0.18577714 0.22236633 0.15168239 -0.08777083
0.14361097 -0.061643194 -0.01694377 0.095206566 -0.013534937 0.022538802 -0.18948252 0.030510476
-0.074155025 0.07260767 -0.003715997 -0.08475568 -0.12456015 -0.007924253 -0.13362813 -0.05815823
-0.1919888 -0.035214234 -0.09170249 -0.04830548 -0.024209166 0.06986276 -0.18428186 -0.2267032
-0.1445642 -0.072729096 -0.11765759 0.070462175 -0.006921545 0.19267787 0.122927114 -0.17583838
0.07996383 0.012280997 0.11221236 -0.16189536 0.23025134 0.21155214 0.15038279 -0.072861336
-0.1820209 -0.21829294 0.06790285 0.0013211905 -0.13792923 0.16915971 0.054485843 -0.08037815
-0.0062521417 0.14041346 -0.17867438 0.11752458 0.0784663 -0.065508 0.026930466 0.20873183
-0.1965229 -0.034847636 0.087178946 -0.12989037 0.1933454 -0.06188803 0.11991051 -0.09708805
0.11086721 0.20384446 -0.047825046 0.12884648 0.09241634 -0.11364777 0.2117355 0.09791635
-0.11136394 -0.19383144 -0.024609486 -0.055411145 -0.17620003 0.01786558 -0.13408028 -0.16861321
0.14173453 0.01695505 0.2101908 0.09005419 -0.18335347 -0.18709318 -0.081784874 -0.15466473
0.005066931 0.11954287 0.20722075 0.01757259 0.055998553 0.00018242432 0.008900982 0.095238954
0.18283552 -0.05304768 -0.1764022 -0.124144964 0.026863402 -0.2013428 0.049262073 0.09119261
-0.14509822 0.20029809 -0.2223708 -0.09752516 -0.19249123 0.075454555 0.10597942 -0.034011874
0.080415286 0.11434428 0.21518259 -0.17747892 0.2003449 -0.19164802 -0.16729914 -0.117735565
0.064339355 -0.14680812 -0.123887435 0.19069868 -0.17512415 -0.21612133 0.123023085 0.11468929
-0.0073901033 -0.14943908 -0.03224741 -0.16698964 0.005299185 0.13908602 0.0011472352 -0.22381711
-0.11629543 0.13613012 -0.17038292 0.10481964 -0.18839869 0.018034015 -0.108856715 -0.13797283
0.2299714 0.011926758 -0.22952911 0.16868572 -0.19264139 -0.22539313 -0.083324015 0.22878951
-0.024405949 0.16365854 0.02927011 -0.17327848 0.20786938 0.045406673 -0.024786642 -0.031131657
0.12620996 -0.19475012 -0.10317481 -0.055015136 0.14846744 0.03657946 0.17227875 0.023712415

q_head.mamba.dt_proj.weight f4 [18, 1]
00000000: 8051 e43e 3001 ecbe 2629 29bf 1600 593f
00000010: ac1d f3be 2195 db3e ec40 a8be 4be3 243f
00000020: 8e58 ed3e 75ff a23a 65ea e23e 371b f93e
00000030: f660 153f f540 43bf a19a eabe 02c7 773f
00000040: d0b0 1bbe c3f9 61bf
0.4459343 -0.46094656 -0.6607841 0.84765756 -0.47483575 0.42887214 -0.3286203 0.6440932
0.46356624 0.0012435751 0.44319454 0.48653576 0.58351076 -0.7627099 -0.45821097 0.96788037
-0.15204167 -0.8827173

q_head.mamba.dt_proj.bias f4 [18]
00000000: cee3 6fc0 e01d d0c0 3b39 90c0 a95b 81c0
00000010: cc22 b7c0 9772 aec0 638e 79c0 530c 39c0
00000020: 4ce9 6bc0 e39f 75c0 aeb9 c7c0 807d 13c0
00000030: aa1d d3c0 e280 cec0 7e97 6ec0 435c 2dc0
00000040: 202f 91c0 7c53 9ac0
-3.748279 -6.503647 -4.506986 -4.042439 -5.7229977 -5.451488 -3.8993156 -2.8913772
-3.6861143 -3.8378837 -6.241416 -2.304535 -6.597371 -6.453233 -3.7279963 -2.7087562
-4.5370026 -4.822691

q_head.mamba.out_proj.weight f4 [9, 18]
00000000: ccd0 51be 7dd1 a73d e875 6fbe 8477 123d
00000010: 9854 3d3d 7076 693e e7a6 0dbe 42a2 21be
00000020: 9ed7 f3bd b253 eabd 9cd0 abbd b739 113e
00000030: 51d4 6dbe 202c c9bd 2932 513e e837 05be
00000040: b773 a5bd 4638 5cbd 4f29 10be bff5 913d
00000050: a67d 293e 581c 0f3c 719a 433e ed2c ca3d
00000060: 62c4 21be 38ef 17bd 7ada 5e3e 45a5 b1bc
00000070: 24fa 9c3d b13e 0dbe 0998 49be 5fd7 553e
00000080: 7f6d 4dbe d2d1 d13d a92e 623c d6a3 343e
00000090: 5aea 1bbe 28ec 57be e7b3 35be 9648 5a3e
000000a0: 0191 f43d 6216 973d a58a 2fbe 0804 a3bd
000000b0: e19e c83c 0614 2e3d 12bc bb3c 0c0c 293b
000000c0: aad0 d33d 9ab9 50be b23a e93d 6f8f 3cbe
000000d0: de06 e03d 37ad bcbd 46cc 12be 5ea6 323e
000000e0: 15af 033e a890 5d3e 9c45 3abe f140 6ebe
000000f0: ad2f 9b3d fe0a edbd 7f5f f0bc e3d6 47be
00000100: 45bd b03c bed1 5abd a96c 093e 6639 5e3e
00000110: 4a82 11bc 363b 33be 00f7 01bd bb33 c9bd
00000120: 6c52 18be 2d0c d9bc 1ee2 21be 2a31 38be
00000130: ae1e 5c3d 67de a9bd c49d 97bc cf8c 4a3e
00000140: 8358 9b3d f11d 3abe c586 07be 63fa e13d
00000150: 6fbc cbbd e8d9 f83d e432 c23d 068e 0b3c
00000160: 8cde d9bd 136a b03d c594 8abc 4cc7 a8bd
00000170: 8ebb 6a3e a925 373e c8e0 16be 3f8b 05be
00000180: 550b 603e 08db 1ebe 2933 ca3d 7206 963d
00000190: ba81 5bbe 21d5 4c3e c287 17bd 3101 b6bd
000001a0: 1f4e 663e b484 5bbb 5f4a 27be 31bd 5f3e
000001b0: 55ec 033d 597b 81bd e338 163b e71c fbbd
000001c0: a7bf ac3d 122f bf3d d31a d33d fd56 ff3d
000001d0: d802 1e3c 42ad 2f3d 9cdb 5b3d 2b6f 27be
000001e0: 26a5 0c3e 6a6c 5fbe bc84 8a3c 35ff ebbd
000001f0: 0145 683e ebb5 f6bd 94c1 2abd fa92 ff3d
00000200: e5db 19be 6a5b 473d 4137 553e 73e2 503e
00000210: db26 f13d b6f4 10be cb35 543e 1fe4 3abe
00000220: f7b5 0abd e5f0 4a3e 64f0 313e 1b7e 0f3e
00000230: 1195 61be 9e32 2c3e 7a2c 083d 38aa 54be
00000240: 5dbb 763d e56f 313e fea5 47be d2fc 5c3e
00000250: 3d7a 6dbe 7e3b c93d ac19 3bbc ef7c 6d3e
00000260: 7b75 42be b184 6f3e 6dcb 913d b1d1 10bd
00000270: 887d 65bd c0d2 393e cdad fd3d e96b e7bb
00000280: 7882 243e bab4 5d3d
-0.20489806 0.081942536 -0.23384821 0.03575851 0.046223253 0.22799087 -0.138332 -0.15784553
-0.1190636 -0.11441745 -0.083893985 0.14182173 -0.23225524 -0.09822869 0.20429291 -0.13009608
-0.080787115 -0.053764604 -0.14078258 0.071269505 0.16551837 0.008734785 0.19101883 0.0987185
-0.1579757 -0.03709337 0.2176303 -0.021685252 0.07664898 -0.13793446 -0.19686903 0.20882939
-0.200613 0.10245098 0.01380507 0.17640623 -0.15226117 -0.2108618 -0.17744409 0.21316752
0.1194172 0.07377316 -0.17142732 -0.07959753 0.024489822 0.042499565 0.022916827 0.0025794534
0.10342534 -0.20383301 0.11388148 -0.1841409 0.1093881 -0.092127256 -0.14335737 0.17446277
0.12859757 0.21637213 -0.18190616 -0.2326696 0.07577453 -0.11574362 -0.029342411 -0.19515567
0.021574626 -0.053422682 0.13420357 0.21701583 -0.008881161 -0.17503056 -0.0317297 -0.0982432
-0.14875191 -0.026495064 -0.15808913 -0.17987505 0.053740196 -0.08294373 -0.018507846 0.19780277
0.07585242 -0.18175484 -0.13235004 0.110340856 -0.0994805 0.12150937 0.09482363 0.008517748
-0.106381506 0.08613982 -0.016916642 -0.08241138 0.22923109 0.1788546 -0.14734185 -0.130414
0.21879323 -0.15513241 0.09873039 0.07325448 -0.21436206 0.20003177 -0.036994703 -0.08886946
0.22490738 -0.0033495845 -0.16336964 0.21849515 0.032207806 -0.06322355 0.002292209 -0.12261372
0.08434992 0.0933515 0.10307851 0.124677636 0.009644233 0.04288984 0.053676233 -0.16351001
0.13734874 -0.218187 0.016908996 -0.11523286 0.22682573 -0.12046417 -0.041688517 0.124792054
-0.1502529 0.048671164 0.20821859 0.20398884 0.11774989 -0.1415585 0.20723645 -0.18251084
-0.03386494 0.19818456 0.17376858 0.14012949 -0.2202952 0.16816184 0.03324554 -0.20768058
0.060237277 0.1732784 -0.19496915 0.21580818 -0.23191161 0.098258 -0.011419695 0.2319219
-0.18990128 0.23390462 0.071188785 -0.035356227 -0.05602792 0.18146801 0.123866655 -0.0070624244
0.16065395 0.054127432

q_head.final_norm.gamma f4 [9]
00000000: 0000 803f 0000 803f 0000 803f 0000 803f
00000010: 0000 803f 0000 803f 0000 803f 0000 803f
00000020: 0000 803f
1.0 1.0 1.0 1.0 1.0 1.0 1.0 1.0
1.0

ema_model.q_head.action_bin_embeddings f4 [2, 256, 9]
00000000: ccff ba3b 7e69 d6bb c558 e3ba 88d2 a6bc
00000010: 8679 613b 5fa2 df3c 2cc0 563a 9a85 c23b
00000020: 9da3 77bc d45c 3a3b 6751 cb3c a533 05bd
00000030: 2bf7 26bb aad1 b13c 392e 8e3c d94f 0cbb
00000040: ed0b a83c 6413 793c b3cd 8fbc 9ee3 ca3b
00000050: c6bf f7bc a286 f23c 1712 f63c f91f 013c
00000060: f4cc 81bc 6820 a23b adce edbb ea85 673c
00000070: dff1 c13b bdf8 b43c 3d7a e8bb 066e 1f3c
00000080: cc8e 983b 68b2 09bc e7ae 8c3c 44ce 1e3c
00000090: b421 ad38 90ac d3bb e551 603c e49c 443b
000000a0: b360 89bc 8194 2abb 29bd 7d3b fbf4 03bd
000000b0: 6668 793c 8ee6 433c 156d 433c 2b2c 83bc
000000c0: 7005 90bc 6525 d2ba 7975 48bd 085b c9bc
000000d0: fa50 943c f2eb 353c 7f33 93bc 15bc 893c
000000e0: 90fb 543c 04ff 29bd 1f31 f3ba 76d6 f23c
000000f0: 4891 09bc 6b21 ae3c 4d59 36bc 668f febc
00000100: 48e5 00bd caaa a8ba 9177 443b f64d e0bc
00000110: 054a 99bc d0e0 1d3c 1422 1f3d e3b2 743d
00000120: ba95 443c 229e a83b a23b abbc 9a6d 6f3c
00000130: f601 913a ebc6 a7bc 27ee 3f3c 2457 e5bc
00000140: 6dbe c3bb a5a6 20bc 0da1 723c 65b0 933c
00000150: 9dc5 113d 63c9 3bbc 14a5 92bc 70a8 e2bb
00000160: 66d9 ce3c e812 213c 7946 f53b 8de8 42bc
00000170: ba57 3cbd 11b2 fb3b f7e6 98ba 5658 02bc
00000180: 5f89 1d3c 3ffb 0bbd f16a 15bc fd3a 4fbd
00000190: 43dd 993c 424a bc3c 1a98 033c 3351 723c
000001a0: 7bd8 cb3c 6617 86bb 8f44 3e3b 4dce 303c
000001b0: 726a e1bc 7e26 493c 734a 18bd 0077 273c
000001c0: f318 aabc f733 fb3c affb fe3a b8f7 e4bb
000001d0: 512a a4bb 2815 51bc fccf 913c 7330 63bc
000001e0: a4df 19bb ef01 653a a8c1 a7bc 199e fb3c
000001f0: 143f 7c3b 8a74 a9bb dce1 afbc eba8 a53c
00000200: 180d babc 49c1 22bb 6b08 05ba 127c 393c
00000210: 3ce7 613c 5642 95bc 07e0 c5bb 1776 143c
00000220: 4e39 833c 2534 373c 3d96 22bc 1568 243c
00000230: e45e 173c c491 92bc ab16 b73c 4c3b 70bc
00000240: 37d1 af3b dc84 a63c 5e21 413d 45fc ff3b
00000250: dac7 103d 0091 63bc 33ec d83a 23df 67bc
00000260: 4e09 03bc 1798 e23c 7ed8 803c 4ea8 463c
00000270: c796 9f3c 51cc a6bb 5a02 973c 1f23 663c
00000280: 6420 033d 84f2 2fbc 182e 8cbc dd42 c8bc
00000290: e3a9 28bc 8bc3 ff3c d365 bcbc 179e 8bbc
000002a0: 16c8 d3bc 4f31 46bc f2fa b73c 276d 863c
000002b0: 2017 1bbd 7a85 b43c 07b6 07bc 9133 523c
000002c0: c1f3 cd3a abe8 3bba 8722 263d 3512 0cbc
000002d0: 6a1b b53c 00e7 af3c b7f5 1abd e500 813a
000002e0: b63d a1bb 8c67 a53b 0f59 0fbb 0a8f a8bc
000002f0: d9dc 0b3c d631 0abd 883d b5bc 48df b6bc
00000300: 31de a33c f48a 0db9 f2cd 523c abc7 9bbc
00000310: ef3b 79bc 609a 99bc bc19 97bc d38e 353c
00000320: 173a a5bb bc9d 5fbc 275b f3bb fe99 98ba
00000330: e590 0d3d ae30 19bc 1da3 813c 3367 05bd
00000340: eaa8 cfbc 62e6 3c3c 1549 d4bc 1c45 83bc
00000350: 530b 883c 8519 d3b8 43bb 193d 739c 99bb
00000360: 89eb 933b c1fa a53c 30e2 24bd 7582 8bbc
00000370: 9d02 713c 166a 253b 76dd 9abc 88ca 553c
00000380: e035 f53c 51e3 acbc 7728 e1bc c917 b4bb
00000390: 8e7a f03b cba8 50bb 006e 74bc 1dc8 43bd
000003a0: 7adf 463d 27ff 4bbc bd32 d6bc 8106 eebc
000003b0: 7b6c 1ebd 1799 343c 4390 20bc 47f4 a63c
000003c0: 9a73 dabb 1287 b9ba 5851 0ebc 0cca 7abc
000003d0: cc79 c1ba d078 94bb 361c 68bc 148d b13b
000003e0: 419f a5bc 0530 69bc 8145 2f3c 914e 8c3c
000003f0: 5585 fcbb 1f0e 94bc 9883 603b 86ff dd3b
0.005706763 -0.0065433374 -0.0017345181 -0.020364061 0.003440471 0.027299104 0.0008192088 0.0059363367
-0.015114692 0.0028436678 0.02481909 -0.032519955 -0.0025476913 0.02170642 0.017356025 -0.0021409898
0.0205135 0.015202377 -0.01755414 0.006191685 -0.030242812 0.029605214 0.030037923 0.007881158
-0.0158448 0.004947711 -0.0072573037 0.014131049 0.005918726 0.022091264 -0.00709465 0.0097308215
0.0046556946 -0.008404352 0.017173244 0.009692732 8.2555605e-05 -0.00645978 0.0136914 0.003000074
-0.016769743 -0.0026028457 0.0038717485 -0.032216053 0.015222644 0.011956824 0.011927863 -0.016012272
-0.017580718 -0.0016032873 -0.048940156 -0.02457954 0.018105019 0.011103617 -0.017968891 0.016813317
0.01299943 -0.041502967 -0.0018554068 0.029643279 -0.008396454 0.02125617 -0.011129689 -0.031074237
-0.03146866 -0.0012868282 0.0029978494 -0.027380925 -0.018712053 0.009636119 0.03885086 0.059740912
0.011998588 0.005145804 -0.020902459 0.014613533 0.0011063206 -0.020480594 0.011714495 -0.027995653
-0.0059736283 -0.009805356 0.014808905 0.018028447 0.03558885 -0.011461589 -0.017900981 -0.006917052
0.025250148 0.009831168 0.0074852076 -0.011896265 -0.0459821 0.0076811393 -0.0011665513 -0.007955631
0.009615271 -0.034175154 -0.009119735 -0.050593365 0.018782264 0.022984628 0.008031869 0.014789867
0.0248835 -0.004092145 0.0029032563 0.010791373 -0.027516577 0.012277244 -0.037180375 0.010221243
-0.02076385 0.030664427 0.001945367 -0.006987538 -0.0050099273 -0.012761392 0.01779937 -0.013866532
-0.0023479247 0.0008735945 -0.020478085 0.030715035 0.0038489746 -0.0051713632 -0.021470003 0.020222148
-0.022711322 -0.0024834445 -0.0005074802 0.011321085 0.013788041 -0.018220108 -0.006038669 0.009061358
0.016018536 0.011181866 -0.009923515 0.010034581 0.009238932 -0.017891772 0.022349676 -0.014662575
0.0053655165 0.020327024 0.047150962 0.0078120553 0.035346843 -0.013889551 0.0016549885 -0.014152321
-0.007997824 0.027660413 0.015728232 0.012125088 0.019481076 -0.0050902744 0.018433738 0.014046459
0.032013312 -0.010738973 -0.017111823 -0.024445945 -0.01029441 0.031221172 -0.022997772 -0.017043157
-0.025852244 -0.012096717 0.022458527 0.01640947 -0.03786385 0.022036303 -0.008283145 0.012829677
0.0015712903 -0.0007168154 0.04056027 -0.008549263 0.022107799 0.021472454 -0.03783199 0.0009842186
-0.0049206866 0.005047744 -0.0021873151 -0.020576019 0.008536541 -0.033738934 -0.022124067 -0.022323266
0.02000341 -0.00013498572 0.012866484 -0.019016108 -0.015212043 -0.01875037 -0.018444888 0.011081415
-0.0050423252 -0.013648447 -0.0074266377 -0.0011642573 0.03456201 -0.009349985 0.015824849 -0.03256912
-0.0253491 0.011529537 -0.025913754 -0.016024165 0.016606962 -0.000100660174 0.037532102 -0.0046878397
0.004514162 0.02026117 -0.04025477 -0.01702998 0.014710096 0.0025240234 -0.018904429 0.0130487755
0.029932916 -0.021104487 -0.027485115 -0.0054959995 0.0073388284 -0.003183889 -0.014918804 -0.047798265
0.048552968 -0.01245097 -0.02614724 -0.029055836 -0.038677674 0.011022828 -0.00980002 0.020380152
-0.006666613 -0.0014154634 -0.008686386 -0.015306961 -0.001476103 -0.0045310035 -0.014166882 0.005418429
-0.02021754 -0.01423264 0.010697723 0.017127307 -0.007706324 -0.01807314 0.0034258123 0.0067748455

ema_model.q_head.mamba.A_log f4 [18, 16]
00000000: aed7 b9b1 1872 313f 549f 8c3f 1872 b13f
00000010: 1002 ce3f 6058 e53f 9513 f93f 9215 0540
00000020: 549f 0c40 8e5d 1340 1e77 1940 b608 1f40
00000030: 1f28 2440 51e6 2840 b250 2d40 1872 3140
00000040: efa4 0e2c 1872 313f 549f 8c3f 1872 b13f
00000050: 1002 ce3f 6058 e53f 9513 f93f 9215 0540
00000060: 549f 0c40 8e5d 1340 1e77 1940 b608 1f40
00000070: 2128 2440 51e6 2840 b250 2d40 1872 3140
00000080: e63a 2c2e 1872 313f 549f 8c3f 1872 b13f
00000090: 1002 ce3f 6058 e53f 9513 f93f 9215 0540
000000a0: 549f 0c40 8e5d 1340 1e77 1940 b608 1f40
000000b0: 2128 2440 51e6 2840 b250 2d40 1872 3140
000000c0: 9261 b5b2 1872 313f 549f 8c3f 1872 b13f
000000d0: 1002 ce3f 6058 e53f 9513 f93f 9215 0540
000000e0: 549f 0c40 8e5d 1340 1e77 1940 b608 1f40
000000f0: 1c28 2440 51e6 2840 b250 2d40 1872 3140
00000100: 04ab 002e 1872 313f 549f 8c3f 1872 b13f
00000110: 1002 ce3f 6058 e53f 9513 f93f 9215 0540
00000120: 549f 0c40 8e5d 1340 1e77 1940 b608 1f40
00000130: 2128 2440 51e6 2840 b250 2d40 1872 3140
00000140: fca3 6caf 1872 313f 549f 8c3f 1872 b13f
00000150: 1002 ce3f 6058 e53f 9513 f93f 9215 0540
00000160: 549f 0c40 8e5d 1340 1e77 1940 b608 1f40
00000170: 2128 2440 51e6 2840 b250 2d40 1872 3140
00000180: cc4e a5b2 1872 313f 539f 8c3f 1872 b13f
00000190: 1002 ce3f 6058 e53f 9413 f93f 9215 0540
000001a0: 549f 0c40 8e5d 1340 1d77 1940 b608 1f40
000001b0: 1928 2440 51e6 2840 b250 2d40 1872 3140
000001c0: f4fe 9a32 1872 313f 559f 8c3f 1972 b13f
000001d0: 1002 ce3f 6058 e53f 9613 f93f 9215 0540
000001e0: 549f 0c40 8e5d 1340 2077 1940 b608 1f40
000001f0: 2c28 2440 51e6 2840 b250 2d40 1772 3140
00000200: 48b2 c030 1872 313f 549f 8c3f 1872 b13f
00000210: 1002 ce3f 6058 e53f 9513 f93f 9215 0540
00000220: 549f 0c40 8e5d 1340 1e77 1940 b608 1f40
00000230: 2128 2440 51e6 2840 b250 2d40 1872 3140
00000240: 3068 be31 1872 313f 549f 8c3f 1872 b13f
00000250: 1002 ce3f 6058 e53f 9513 f93f 9215 0540
00000260: 549f 0c40 8e5d 1340 1f77 1940 b608 1f40
00000270: 2528 2440 51e6 2840 b250 2d40 1872 3140
00000280: 87c7 f42d 1872 313f 549f 8c3f 1872 b13f
00000290: 1002 ce3f 6058 e53f 9513 f93f 9215 0540
000002a0: 549f 0c40 8e5d 1340 1e77 1940 b608 1f40
000002b0: 2128 2440 51e6 2840 b250 2d40 1872 3140
000002c0: 77b7 0c33 1872 313f 559f 8c3f 1872 b13f
000002d0: 1002 ce3f 6058 e53f 9613 f93f 9215 0540
000002e0: 549f 0c40 8e5d 1340 1e77 1940 b608 1f40
000002f0: 2528 2440 51e6 2840 b250 2d40 1872 3140
00000300: 8ba8 a92b 1872 313f 549f 8c3f 1872 b13f
00000310: 1002 ce3f 6058 e53f 9513 f93f 9215 0540
00000320: 549f 0c40 8e5d 1340 1e77 1940 b608 1f40
00000330: 2128 2440 51e6 2840 b250 2d40 1872 3140
00000340: b6a4 072f 1872 313f 549f 8c3f 1872 b13f
00000350: 1002 ce3f 6058 e53f 9513 f93f 9215 0540
00000360: 549f 0c40 8e5d 1340 1e77 1940 b608 1f40
00000370: 2128 2440 51e6 2840 b250 2d40 1872 3140
00000380: f65d 02b0 1872 313f 549f 8c3f 1872 b13f
00000390: 1002 ce3f 6058 e53f 9513 f93f 9215 0540
000003a0: 549f 0c40 8e5d 1340 1e77 1940 b608 1f40
000003b0: 2128 2440 51e6 2840 b250 2d40 1872 3140
000003c0: 4bd5 26b2 1872 313f 549f 8c3f 1872 b13f
000003d0: 1002 ce3f 6058 e53f 9513 f93f 9215 0540
000003e0: 549f 0c40 8e5d 1340 1e77 1940 b608 1f40
000003f0: 2128 2440 51e6 2840 b250 2d40 1872 3140
-5.4087286e-09 0.6931472 1.0986123 1.3862944 1.609438 1.7917595 1.9459101 2.0794415
2.1972246 2.3025851 2.3978953 2.4849067 2.5649488 2.6390574 2.7080503 2.7725887
2.027097e-12 0.6931472 1.0986123 1.3862944 1.609438 1.7917595 1.9459101 2.0794415
2.1972246 2.3025851 2.3978953 2.4849067 2.5649493 2.6390574 2.7080503 2.7725887
3.9160584e-11 0.6931472 1.0986123 1.3862944 1.609438 1.7917595 1.9459101 2.0794415
2.1972246 2.3025851 2.3978953 2.4849067 2.5649493 2.6390574 2.7080503 2.7725887
-2.1115543e-08 0.6931472 1.0986123 1.3862944 1.609438 1.7917595 1.9459101 2.0794415
2.1972246 2.3025851 2.3978953 2.4849067 2.564948 2.6390574 2.7080503 2.7725887
2.9255723e-11 0.6931472 1.0986123 1.3862944 1.609438 1.7917595 1.9459101 2.0794415
2.1972246 2.3025851 2.3978953 2.4849067 2.5649493 2.6390574 2.7080503 2.7725887
-2.1522334e-10 0.6931472 1.0986123 1.3862944 1.609438 1.7917595 1.9459101 2.0794415
2.1972246 2.3025851 2.3978953 2.4849067 2.5649493 2.6390574 2.7080503 2.7725887
-1.924436e-08 0.6931472 1.0986122 1.3862944 1.609438 1.7917595 1.94591 2.0794415
2.1972246 2.3025851 2.397895 2.4849067 2.5649474 2.6390574 2.7080503 2.7725887
1.8043899e-08 0.6931472 1.0986124 1.3862945 1.609438 1.7917595 1.9459102 2.0794415
2.1972246 2.3025851 2.3978958 2.4849067 2.564952 2.6390574 2.7080503 2.7725885
1.4020509e-09 0.6931472 1.0986123 1.3862944 1.609438 1.7917595 1.9459101 2.0794415
2.1972246 2.3025851 2.3978953 2.4849067 2.5649493 2.6390574 2.7080503 2.7725887
5.5415725e-09 0.6931472 1.0986123 1.3862944 1.609438 1.7917595 1.9459101 2.0794415
2.1972246 2.3025851 2.3978956 2.4849067 2.5649502 2.6390574 2.7080503 2.7725887
2.7828196e-11 0.6931472 1.0986123 1.3862944 1.609438 1.7917595 1.9459101 2.0794415
2.1972246 2.3025851 2.3978953 2.4849067 2.5649493 2.6390574 2.7080503 2.7725887
3.276315e-08 0.6931472 1.0986124 1.3862944 1.609438 1.7917595 1.9459102 2.0794415
2.1972246 2.3025851 2.3978953 2.4849067 2.5649502 2.6390574 2.7080503 2.7725887
1.2054952e-12 0.6931472 1.0986123 1.3862944 1.609438 1.7917595 1.9459101 2.0794415
2.1972246 2.3025851 2.3978953 2.4849067 2.5649493 2.6390574 2.7080503 2.7725887
1.2336696e-10 0.6931472 1.0986123 1.3862944 1.609438 1.7917595 1.9459101 2.0794415
2.1972246 2.3025851 2.3978953 2.4849067 2.5649493 2.6390574 2.7080503 2.7725887
-4.742725e-10 0.6931472 1.0986123 1.3862944 1.609438 1.7917595 1.9459101 2.0794415
2.1972246 2.3025851 2.3978953 2.4849067 2.5649493 2.6390574 2.7080503 2.7725887
-9.710969e-09 0.6931472 1.0986123 1.3862944 1.609438 1.7917595 1.9459101 2.0794415
2.1972246 2.3025851 2.3978953 2.4849067 2.5649493 2.6390574 2.7080503 2.7725887

ema_model.q_head.mamba.D f4 [18]
00000000: c909 803f bbec 7f3f 5cec 7f3f d209 803f
00000010: d209 803f 97ec 7f3f c509 803f 5eec 7f3f
00000020: 8409 803f 5dec 7f3f 28ed 7f3f 1308 803f
00000030: 94ec 7f3f 59ec 7f3f 9109 803f cd09 803f
00000040: ce09 803f 76ec 7f3f
1.0002986 0.999706 0.9997003 1.0002997 1.0002997 0.9997038 1.0002981 0.9997004
1.0002904 0.99970037 0.99971247 1.0002464 0.99970365 0.9997001 1.000292 1.0002991
1.0002992 0.99970186
