checkpoints/q-mamba/20240816_041649/checkpoint-4.pt (torch, 115222 bytes, 42 tensors)

q_head.action_bin_embeddings f4 [2, 256, 9]
00000000: fa99 e738 4874 47bc 1fce d9bb 9e83 d5bc
00000010: feee 123c a5bd b03c ae2e d63b c286 b33a
00000020: 3efc aabc 9b47 33bb 9a37 9d3c 5e2c 1abd
00000030: 6918 07bc f9b1 df3c 6670 3e3c 431a 6a3b
00000040: 4e8f 823c 9cb3 1a3c 3482 bdbc 14e4 133a
00000050: 0fd8 10bd 5dd9 c33c 24f9 113d becf 0c3b
00000060: 76ff 25bc 38bc c239 0c47 55bc 0265 0c3c
00000070: 2dd3 a639 0a15 8b3c 0782 51bc d110 7b3c
00000080: e4b5 8bba d3a4 2fbb 6167 4d3c 48b7 803b
00000090: 2a64 b4bb 730f 46bc cb37 0c3c fddd 30bb
000000a0: 77b9 36bc c7ab 08bc 3605 1d3c cea0 16bd
000000b0: 6d0b 1b3c aefa d03b c572 ce3b 201e adbc
000000c0: cab2 bebc 1ff8 823b 80f0 5fbd b88d 9abc
000000d0: c8a8 5d3c 2418 af3b 56e8 c0bc 5444 373c
000000e0: e90f 013c bd55 41bd 816d 753b 70e0 c33c
000000f0: 8cd9 2fbb e2a6 883c ad5c 8abc 1922 16bd
00000100: 4af2 17bd 74f9 d1bb 83f4 30bb 496d b2bc
00000110: 2a40 c8bc ca7b 7b3c 5e64 0c3d db1a 5d3d
00000120: 5b58 d23b 1e96 fcb9 b92f d5bc ce12 123c
00000130: c6c2 db3b ebbc d6bc 77c4 8e3c 3969 05bd
00000140: 263f 40bc ff0f 7cbc 346d 163c 7f79 533c
00000150: cadd f43c 5210 c0bb 309b c1bc 73cb 9dba
00000160: 885d a93c bb65 853b 56e3 013b a933 8fbc
00000170: 079b 51bd 8f95 023b 2dff 903b 8603 60bc
00000180: 6a6c 7b3c 52c0 1ebd 79ea 73bc 48eb 65bd
00000190: 9286 573c ec6a 933c 2dc4 183b 2ac1 a63c
000001a0: 71e0 9c3c df8a d43a 8ce5 dcba 22d3 a43b
000001b0: 988f 07bd 8ae5 d93b bb44 2dbd 7338 943b
000001c0: a570 78bc f93d cc3c 6ff4 fa3b 5871 3dbc
000001d0: 1075 30bc 29ec 96bc ff3b 483c 4466 9bbc
000001e0: bfbb 03bc a882 d33b da9f d6bc 5443 153d
000001f0: 00e8 4dba f52b 33bc 0daf ddbc 164a 6f3c
00000200: be0b e4bc 35e6 05bc 3bc4 a63b 0b58 b73b
00000210: dfad 9f3c c6ac babc 5535 41bc b232 643b
00000220: d53e 2a3c 7d98 c63b 11f1 7fbc 9f14 803c
00000230: 23cb 653b c788 47bc df9a 913c a74d a7bc
00000240: e340 60b9 d8d5 703c e826 2c3d d68c 0a3b
00000250: 36b8 273d 93be a0bc d770 f13b e36a 99bc
00000260: 5e69 61bc 52e3 b43c 257d 253c 0b7d e53b
00000270: a9d2 613c 8ab3 053a 9118 503c fcde a13c
00000280: 4dc5 e03c 5029 87bc dde2 b9bc dd5c f6bc
00000290: c491 7cbc 0a16 d13c 2085 8ebc 3e94 babc
000002a0: 9ffa a4bc 0794 88bc e5ca 883c b070 313c
000002b0: 1c24 32bd b491 8a3c f910 65bc 5ffa 963c
000002c0: 765b 88bb c8b8 a33b 7e64 133d 5272 6abc
000002d0: b066 873c 1dcd 813c beef 2fbd 6375 9abb
000002e0: 8325 323a bf84 33ba fa11 673b 4e0a cebc
000002f0: a5f3 353b 300c 21bd 6b57 e3bc 98d2 e0bc
00000300: 9e61 6a3c b815 b33b cac3 e93b 96f4 59bc
00000310: 8519 a2bc 53ca c8bc a1ce c4bc f2b5 b23b
00000320: 9488 26bc 517c 9ebc 7e60 efba 7bfe e1bb
00000330: a0f7 243d 1b25 64bc 3ee6 243c 44e6 1bbd
00000340: fd70 fdbc 9339 d23b 6076 01bd f136 2bbc
00000350: 8362 323c e114 b83b 9a00 073d d648 2bbc
00000360: 261e 8eba 35cc 6f3c 58d8 39bd d327 babc
00000370: e25e a63c 0916 52bb 0b2b 58bc b158 0b3c
00000380: 0017 c63c e197 dabc 2aa1 07bd f8ed 2dbc
00000390: 6f14 d73a 9559 1e3b 182d a9bc 7561 2cbd
000003a0: e020 343d 8a2f 95bc 0c0a 02bd d2d8 0dbd
000003b0: 7d1d 33bd f3be ae3b 3c3c 8bbb 7965 703c
000003c0: ee6d 76ba 4836 c3bb 4ed0 6cbc 17e5 aabc
000003d0: a2be e8bb 3d47 1bbc 35b9 a2bc ee55 333c
000003e0: 457d d4bc fe93 0bbc 397f c83b 9742 3a3c
000003f0: 5aac 59bc 1228 c2bc 7f3f deba ca26 8d3a
0.00011043619 -0.01217372 -0.006646886 -0.026063737 0.008968113 0.021574805 0.0065363264 0.0013696777
-0.020872232 -0.0027355913 0.019191552 -0.037639968 -0.008245566 0.027306544 0.011623478 0.003572122
0.015937474 0.009442236 -0.023133375 0.0005641591 -0.0353623 0.023907358 0.03563799 0.0021486129
-0.010131707 0.00037142797 -0.013017427 0.008569004 0.00031819326 0.016977806 -0.012787349 0.015323834
-0.0010659066 -0.0026801124 0.0125368545 0.003928099 -0.0055051045 -0.012088644 0.008558224 -0.0026987784
-0.011152617 -0.008341736 0.009583762 -0.03677445 0.009463173 0.0063775396 0.0063003027 -0.021132529
-0.023278613 0.0039968635 -0.054672718 -0.018866405 0.01352901 0.005343454 -0.023548286 0.011185724
0.007877328 -0.047200907 0.0037449303 0.023910731 -0.002683255 0.016681138 -0.016889894 -0.03665361
-0.0370963 -0.006407911 -0.002700121 -0.021780627 -0.024444658 0.015349338 0.034275405 0.05398069
0.006419224 -0.00048177032 -0.026023732 0.008915616 0.0067065684 -0.02621313 0.017427666 -0.03257105
-0.011733806 -0.015384673 0.0091813095 0.012907385 0.029890914 -0.0058613205 -0.02363357 -0.0012038782
0.020674482 0.004070965 0.001981934 -0.017480688 -0.051173236 0.001992557 0.0044249506 -0.013672715
0.015345672 -0.03875763 -0.014887446 -0.056132585 0.013154643 0.01799532 0.002331029 0.02035578
0.01914999 0.0016215703 -0.0016853078 0.005030052 -0.033095926 0.0066496776 -0.042301875 0.004523331
-0.015163575 0.024931895 0.0076585333 -0.011562668 -0.010770097 -0.018423157 0.012221335 -0.018969662
-0.008040368 0.0064547844 -0.02619927 0.036441162 -0.00078547 -0.010935773 -0.02706101 0.014605066
-0.02783763 -0.008172561 0.0050893105 0.0055952123 0.019492088 -0.022787463 -0.0117925005 0.0034820256
0.010390957 0.0060606585 -0.01562144 0.015634833 0.0035063706 -0.012178606 0.017774044 -0.02042277
-0.00021386477 0.014699422 0.04202929 0.0021141074 0.04094716 -0.019622123 0.007368188 -0.018727725
-0.013758032 0.022081051 0.010100638 0.0070034317 0.013783135 0.0005100301 0.01270117 0.019759648
0.02743783 -0.016499192 -0.022691185 -0.030073578 -0.015415613 0.025523204 -0.017397463 -0.022775766
-0.020139037 -0.016672147 0.01669831 0.010830089 -0.043491468 0.01691518 -0.013981097 0.018429933
-0.0041612936 0.004996393 0.03598451 -0.014309483 0.016528457 0.015844876 -0.042953245 -0.0047137006
0.0006795751 -0.0006848089 0.0035258518 -0.025151398 0.0027763632 -0.039318264 -0.027751645 -0.027444169
0.0143055 0.0054652356 0.0071339356 -0.013302943 -0.01978756 -0.024510538 -0.02402431 0.0054538185
-0.010164399 -0.019346388 -0.001826301 -0.0068967915 0.040275216 -0.013924862 0.01006466 -0.038061395
-0.030937666 0.006415555 -0.03160703 -0.010450111 0.010887745 0.0056177233 0.032959558 -0.010454377
-0.0010842725 0.014636089 -0.045372337 -0.022724068 0.020308916 -0.003205659 -0.013193856 0.008505032
0.02418089 -0.02668375 -0.033112682 -0.010615818 0.0016409288 0.0024162282 -0.020651385 -0.04208513
0.043976665 -0.018211145 -0.031747863 -0.034630604 -0.043729294 0.0053328215 -0.004249124 0.0146726305
-0.0009400536 -0.0059573986 -0.014453961 -0.020861192 -0.0071028033 -0.009477434 -0.019863704 0.01094578
-0.02593864 -0.008519171 0.0061186817 0.011368415 -0.013285721 -0.023700748 -0.0016956179 0.0010769006

q_head.mamba.A_log f4 [18, 16]
00000000: 8de4 5b34 1872 313f 549f 8c3f 1872 b13f
00000010: 1002 ce3f 6058 e53f 9513 f93f 9215 0540
00000020: 549f 0c40 8e5d 1340 1e77 1940 b608 1f40
00000030: 5228 2440 51e6 2840 b250 2d40 1872 3140
00000040: a47e a82f 1872 313f 549f 8c3f 1872 b13f
00000050: 1002 ce3f 6058 e53f 9513 f93f 9215 0540
00000060: 549f 0c40 8e5d 1340 1e77 1940 b608 1f40
00000070: 2128 2440 51e6 2840 b250 2d40 1872 3140
00000080: e768 dd31 1872 313f 549f 8c3f 1872 b13f
00000090: 1002 ce3f 6058 e53f 9513 f93f 9215 0540
000000a0: 549f 0c40 8e5d 1340 1e77 1940 b608 1f40
000000b0: 2128 2440 51e6 2840 b250 2d40 1872 3140
000000c0: 9bbe 7fb4 1872 313f 549f 8c3f 1872 b13f
000000d0: 1002 ce3f 6058 e53f 9513 f93f 9215 0540
000000e0: 549f 0c40 8e5d 1340 1e77 1940 b608 1f40
000000f0: f027 2440 51e6 2840 b250 2d40 1872 3140
00000100: f90c 7831 1872 313f 549f 8c3f 1872 b13f
00000110: 1002 ce3f 6058 e53f 9513 f93f 9215 0540
00000120: 549f 0c40 8e5d 1340 1e77 1940 b608 1f40
00000130: 2128 2440 51e6 2840 b250 2d40 1872 3140
00000140: 8d84 c1af 1872 313f 549f 8c3f 1872 b13f
00000150: 1002 ce3f 6058 e53f 9513 f93f 9215 0540
00000160: 549f 0c40 8e5d 1340 1e77 1940 b608 1f40
00000170: 2128 2440 51e6 2840 b250 2d40 1872 3140
00000180: a398 9bb5 1872 313f 2b9f 8c3f 0472 b13f
00000190: 1a02 ce3f 6d58 e53f 7013 f93f 9215 0540
000001a0: 549f 0c40 885d 1340 dd76 1940 b308 1f40
000001b0: 1b26 2440 5fe6 2840 a050 2d40 3072 3140
000001c0: d770 5c34 1872 313f 549f 8c3f 1872 b13f
000001d0: 1202 ce3f 6058 e53f 9613 f93f 9215 0540
000001e0: 549f 0c40 8e5d 1340 1077 1940 b608 1f40
000001f0: 0e28 2440 51e6 2840 b150 2d40 1772 3140
00000200: 3e3b 1fb2 1872 313f 549f 8c3f 1872 b13f
00000210: 1002 ce3f 6058 e53f 9513 f93f 9215 0540
00000220: 549f 0c40 8e5d 1340 1e77 1940 b608 1f40
00000230: 1b28 2440 51e6 2840 b250 2d40 1872 3140
00000240: 921d 2034 1872 313f 529f 8c3f 1872 b13f
00000250: 1002 ce3f 6058 e53f 9513 f93f 9215 0540
00000260: 549f 0c40 8e5d 1340 0b77 1940 b608 1f40
00000270: f927 2440 51e6 2840 b250 2d40 1872 3140
00000280: 03ea 4731 1872 313f 549f 8c3f 1872 b13f
00000290: 1002 ce3f 6058 e53f 9513 f93f 9215 0540
000002a0: 549f 0c40 8e5d 1340 1e77 1940 b608 1f40
000002b0: 2128 2440 51e6 2840 b250 2d40 1872 3140
000002c0: 6160 0936 1672 313f 8d9f 8c3f 3872 b13f
000002d0: fe01 ce3f 5158 e53f b913 f93f 9215 0540
000002e0: 549f 0c40 945d 1340 5477 1940 b608 1f40
000002f0: 9b29 2440 4ae6 2840 bb50 2d40 0672 3140
00000300: b4a3 032e 1872 313f 549f 8c3f 1872 b13f
00000310: 1002 ce3f 6058 e53f 9513 f93f 9215 0540
00000320: 549f 0c40 8e5d 1340 1e77 1940 b608 1f40
00000330: 2128 2440 51e6 2840 b250 2d40 1872 3140
00000340: f262 63af 1872 313f 549f 8c3f 1872 b13f
00000350: 1002 ce3f 6058 e53f 9513 f93f 9215 0540
00000360: 549f 0c40 8e5d 1340 1e77 1940 b608 1f40
00000370: 2128 2440 51e6 2840 b250 2d40 1872 3140
00000380: 5eab b2b2 1872 313f 549f 8c3f 1872 b13f
00000390: 1002 ce3f 6058 e53f 9513 f93f 9215 0540
000003a0: 549f 0c40 8e5d 1340 1e77 1940 b608 1f40
000003b0: 1e28 2440 51e6 2840 b250 2d40 1872 3140
000003c0: 0d1e 4234 1872 313f 549f 8c3f 1872 b13f
000003d0: 1002 ce3f 6058 e53f 9513 f93f 9215 0540
000003e0: 549f 0c40 8e5d 1340 1c77 1940 b608 1f40
000003f0: 2528 2440 51e6 2840 b250 2d40 1872 3140
2.047911e-07 0.6931472 1.0986123 1.3862944 1.609438 1.7917595 1.9459101 2.0794415
2.1972246 2.3025851 2.3978953 2.4849067 2.564961 2.6390574 2.7080503 2.7725887
3.0649006e-10 0.6931472 1.0986123 1.3862944 1.609438 1.7917595 1.9459101 2.0794415
2.1972246 2.3025851 2.3978953 2.4849067 2.5649493 2.6390574 2.7080503 2.7725887
6.4438725e-09 0.6931472 1.0986123 1.3862944 1.609438 1.7917595 1.9459101 2.0794415
2.1972246 2.3025851 2.3978953 2.4849067 2.5649493 2.6390574 2.7080503 2.7725887
-2.3818068e-07 0.6931472 1.0986123 1.3862944 1.609438 1.7917595 1.9459101 2.0794415
2.1972246 2.3025851 2.3978953 2.4849067 2.5649376 2.6390574 2.7080503 2.7725887
3.6096124e-09 0.6931472 1.0986123 1.3862944 1.609438 1.7917595 1.9459101 2.0794415
2.1972246 2.3025851 2.3978953 2.4849067 2.5649493 2.6390574 2.7080503 2.7725887
-3.5200678e-10 0.6931472 1.0986123 1.3862944 1.609438 1.7917595 1.9459101 2.0794415
2.1972246 2.3025851 2.3978953 2.4849067 2.5649493 2.6390574 2.7080503 2.7725887
-1.1592823e-06 0.6931472 1.0986074 1.386292 1.6094391 1.791761 1.9459057 2.0794415
2.1972246 2.3025837 2.3978798 2.484906 2.5648258 2.6390607 2.708046 2.7725945
2.0530148e-07 0.6931472 1.0986123 1.3862944 1.6094382 1.7917595 1.9459102 2.0794415
2.1972246 2.3025851 2.397892 2.4849067 2.5649447 2.6390574 2.70805 2.7725885
-9.268488e-09 0.6931472 1.0986123 1.3862944 1.609438 1.7917595 1.9459101 2.0794415
2.1972246 2.3025851 2.3978953 2.4849067 2.5649478 2.6390574 2.7080503 2.7725887
1.4911919e-07 0.6931472 1.0986121 1.3862944 1.609438 1.7917595 1.9459101 2.0794415
2.1972246 2.3025851 2.3978908 2.4849067 2.5649397 2.6390574 2.7080503 2.7725887
2.9091332e-09 0.6931472 1.0986123 1.3862944 1.609438 1.7917595 1.9459101 2.0794415
2.1972246 2.3025851 2.3978953 2.4849067 2.5649493 2.6390574 2.7080503 2.7725887
2.047069e-06 0.69314706 1.0986191 1.3862982 1.6094358 1.7917577 1.9459144 2.0794415
2.1972246 2.3025866 2.3979082 2.4849067 2.5650394 2.6390557 2.7080524 2.7725844
2.993135e-11 0.6931472 1.0986123 1.3862944 1.609438 1.7917595 1.9459101 2.0794415
2.1972246 2.3025851 2.3978953 2.4849067 2.5649493 2.6390574 2.7080503 2.7725887
-2.0680682e-10 0.6931472 1.0986123 1.3862944 1.609438 1.7917595 1.9459101 2.0794415
2.1972246 2.3025851 2.3978953 2.4849067 2.5649493 2.6390574 2.7080503 2.7725887
-2.0799856e-08 0.6931472 1.0986123 1.3862944 1.609438 1.7917595 1.9459101 2.0794415
2.1972246 2.3025851 2.3978953 2.4849067 2.5649486 2.6390574 2.7080503 2.7725887
1.807859e-07 0.6931472 1.0986123 1.3862944 1.609438 1.7917595 1.9459101 2.0794415
2.1972246 2.3025851 2.3978949 2.4849067 2.5649502 2.6390574 2.7080503 2.7725887

q_head.mamba.D f4 [18]
00000000: eec5 7f3f 7d0c 803f 987c 7e3f 4cc9 803f
00000010: 7ecb 803f b00d 803f 87ca 803f bc34 803f
00000020: f88f 803f 118a 7e3f 23a4 803f 12ba 803f
00000030: c1c1 7f3f 989a 7f3f 3abd 803f 83cb 803f
00000040: ef91 803f cafa 7f3f
0.9991139 1.0003811 0.99408865 1.0061431 1.0062101 1.0004177 1.0061806 1.0016093
1.0043936 0.9942942 1.005009 1.0056784 0.9990502 0.99845266 1.0057747 1.0062107
1.0044535 0.9999205

q_head.mamba.in_proj.weight f4 [36, 9]
00000000: 7e39 9abd 9da9 a63d ead1 e1bd 5264 513d
00000010: ea74 94bd 4f34 89be fbd6 213c c66f 1ebd
00000020: d8f7 a83e 7ba3 e9bc c9a5 193e e3ed 343e
00000030: a17a 93be 6b9e e43d 60d1 363e 158a 2f3e
00000040: 6cd5 4f3b 244a a8be afe1 1b3e 8658 4abc
00000050: ce35 913d 2c7b 00be 1e03 0abe b329 38be
00000060: 8f3e 913e a2ba e13d c8ec 503e 0e48 34be
00000070: 0f5c 0ebd cebe 793d 4271 0bbe a09d 203e
00000080: 7a9a 0ebe 157f 9e3e f7ab 93be 3140 123e
00000090: 528a 4abd 977b c7bc 7315 9ebd 78bd 8d3e
000000a0: 712e 1c3d 2eb8 a7be 022f 9f3e 7e7f a93d
000000b0: 71f2 53be 4ed4 ea3d 844b 63be 051b ae3d
000000c0: 2043 533e a9d4 a03e dbc0 80be 7247 d63d
000000d0: 65a6 3dbd 675b 71be 3f3d 42be 5669 44be
000000e0: 6ced 0abd 0946 80be 0e6c 3abd 331c 393e
000000f0: 5f91 18bd 38de 57be 0191 373c 71f9 6cbe
00000100: 9af2 5c3e dada 123e db52 093e 8740 823e
00000110: 53fe 8d3e 2132 4cbd 9f4e bbba 0817 44be
00000120: 238a c13d e1cb 3f3e 15d5 31be 51c0 163e
00000130: 9f58 1b3e 0630 8cbe d3ba f03d 4bfa 52be
00000140: 286e 2b3e bc84 983e d8d3 44be d894 47be
00000150: 575e 91be ddfc 913e cc85 773e bfcd 723e
00000160: b6e1 263d ea1c 3d3e 002c 453e c123 23be
00000170: d0f1 1abe 653e 403e cfe2 3bbe 2824 64be
00000180: 171c c4bc a923 9e3e bdda 26bd 3d16 98bd
00000190: df39 923e c4d4 923d f65b 51bd 86fe 4abe
000001a0: 907a 3cbe a708 9bbe 088c 403e b769 5e3e
000001b0: 14b3 87be 0d40 39bd 8149 81be 8f96 963e
000001c0: e1f4 a73e 1165 863e b71d 95be 3576 0fbd
000001d0: 1e68 dabd daed 133e b52a 113e 4dc9 82be
000001e0: 625b 14be be7d 6f3e 66a7 0dbc f4fe 3fbd
000001f0: 2ec3 903d e539 15bc 7157 a5be bebb 97be
00000200: 8a0d 1cbe 7120 83bd 149e 5dbe 7824 02be
00000210: 1acd 993e 9444 893d 1a0d 783d 0ab0 813e
00000220: 92df 63be ec49 343e 41fb a13e 228a 91be
00000230: 87c8 44be bc55 41bc 3669 953e 67c5 74bd
00000240: ba44 1f3e 239a 9dbe 48b8 753e e94a a3be
00000250: 7147 cfbc 59bb 65bd 94bc 0f3e 9cb7 4fbe
00000260: 5f60 e8bd d3e0 383e e8b6 a1be d2d3 8f3e
00000270: 323a 5c3e 321b 4dbe 97c1 8bbd 9447 a23c
00000280: 0d52 62be 3baf 313c db68 343e 53cb 643d
00000290: ac36 b2bd 7abe d43c eeb1 ac3d 49a7 91bd
000002a0: 5673 52be ae45 443e 8171 7b3c 1af9 d53d
000002b0: e9e2 563e c0b7 9f3e a84c 7b3c 8baf fa3c
000002c0: e534 673e b112 95be 08fc 75be d1f1 56be
000002d0: a238 71be 56e4 5dbd 58ba 16be fe22 5dbe
000002e0: 6c8e 973e 5c7b d23d 792a 863e 41de ee3b
000002f0: 0277 873e 5845 c13c b912 483e f19f 283e
00000300: 3e12 4cbc e0fb 9d3e 3ae2 09be c573 f4bd
00000310: 12bb 093d e57e 923e 8670 d83d 0ecd 1e3e
00000320: 44b5 e2bd a79e 54bd 716f e3bd be19 47be
00000330: 4b8c a5bd dfec 7c3e 2981 aabe 9799 30be
00000340: 8ff2 a8be 3a88 c33d 597e 843e beac 9dbe
00000350: 2069 01be 072c 81be b4b6 72bb 10f4 263d
00000360: b923 27be 3392 a63e 88e5 acbe 77cf 7d3e
00000370: 3c89 8abe 221a 8dbd 88c3 a53d b5c0 13be
00000380: b354 95be 8669 4e3e 3a3c 613e d4ec e23d
00000390: 090d 78be 9842 6abd 75d7 c73c 8583 203e
000003a0: 3eba a53e 4f1c e93d cf78 04be f4a4 833e
000003b0: a1f1 e9bd ade2 37be ca4e 033e 14f3 d93d
000003c0: b313 2f3e 2505 9d3e 8748 94be bff3 173e
000003d0: d35b 1dbe 4e7d 46be b503 68bc 3eec a43e
000003e0: fea5 90be e6f8 77be e3c8 77be 2c7f 0c3d
000003f0: 3c49 2abe c0d9 9f3e 0d7e 0e3e 100a a6bd
-0.07530497 0.0813782 -0.11026366 0.051121064 -0.07248862 -0.2679772 0.0098779155 -0.038680814
0.3300159 -0.028520336 0.15004648 0.17668872 -0.28804496 0.11163028 0.17853308 0.17142518
0.0031712903 -0.32869065 0.1522281 -0.012350207 0.070903406 -0.12546986 -0.13477752 -0.17984657
0.2836804 0.110219255 0.20402825 -0.17605612 -0.034755763 0.06097298 -0.13617423 0.15685129
-0.13926116 0.3095633 -0.28842136 0.142823 -0.04944832 -0.024350924 -0.07718935 0.27683616
0.038130227 -0.32757705 0.31090552 0.0827627 -0.20697953 0.11466275 -0.22196776 0.08501247
0.20631075 0.31412247 -0.25147137 0.10462846 -0.046301264 -0.23570023 -0.18968676 -0.19180807
-0.03391783 -0.25053433 -0.045513205 0.18077163 -0.03724801 -0.21080863 0.011204005 -0.2314203
0.2157692 0.14341298 0.13410513 0.25439855 0.27733096 -0.049852494 -0.0014290399 -0.1914941
0.094501756 0.18730117 -0.1736644 0.147218 0.15170525 -0.2738039 0.11754384 -0.20603292
0.1674124 0.29788768 -0.19221437 -0.19490373 -0.28392288 0.28513232 0.24172133 0.23711298
0.0407426 0.18468061 0.19255066 -0.15931608 -0.15131307 0.18773802 -0.1834824 -0.22279418
-0.023939176 0.30886582 -0.04073595 -0.074261166 0.28559777 0.07169488 -0.05111309 -0.19823655
-0.18406129 -0.3028004 0.18803418 0.21720015 -0.26503813 -0.0452271 -0.25251392 0.29411742
0.32804015 0.26248983 -0.29124233 -0.03502484 -0.1066439 0.14446202 0.14176448 -0.25544205
-0.14487985 0.2338781 -0.008645868 -0.046874 0.070684776 -0.009108041 -0.32293275 -0.29635423
-0.1523954 -0.06402672 -0.21642333 -0.12709224 0.30039293 0.06702533 0.06055937 0.2532962
-0.22253254 0.17606324 0.31637004 -0.284257 -0.1921712 -0.011800226 0.29181832 -0.05975857
0.15553561 -0.3078166 0.23996079 -0.3189309 -0.02530262 -0.05608687 0.1403678 -0.20284885
-0.11346506 0.18054514 -0.3158486 0.28091294 0.21506575 -0.20029905 -0.06824034 0.019809522
-0.22101612 0.010845001 0.17618124 0.055857968 -0.08701834 0.025969733 0.08432375 -0.07111985
-0.2055181 0.19167206 0.015346886 0.10447903 0.20984997 0.31194878 0.0153381005 0.030601284
0.22578771 -0.29115823 -0.24021924 -0.20990683 -0.2355676 -0.054172836 -0.14719522 -0.2159538
0.29600847 0.10277435 0.2620428 0.0072896783 0.26457983 0.023592636 0.19538392 0.16467263
-0.012455521 0.30856228 -0.13465205 -0.11936144 0.03362567 0.28612438 0.10568337 0.1550791
-0.1106973 -0.051909115 -0.1110524 -0.19443414 -0.080833994 0.24699734 -0.33301666 -0.1724609
-0.32997558 0.095474675 0.25877646 -0.30795854 -0.12637758 -0.25228903 -0.003703517 0.0407601
-0.16322221 0.32533416 -0.33768868 0.24786173 -0.27057827 -0.0688975 0.08093935 -0.1442898
-0.29166183 0.20157441 0.21995631 0.11080328 -0.24223723 -0.057192415 0.02439473 0.1567517
0.32368654 0.113823526 -0.1293671 0.25711787 -0.1142304 -0.17957564 0.12823024 0.106420666
0.17097358 0.30667987 -0.28961584 0.14839076 -0.1536706 -0.19383737 -0.01416104 0.32211488
-0.28251642 -0.24216041 -0.24197726 0.034300968 -0.16629499 0.31220818 0.13915272 -0.08107388

q_head.mamba.conv1d.weight f4 [18, 1, 4]
00000000: 4637 d0be dc75 f93e fa07 afbe 918d 66bd
00000010: 90be debe a000 07be 4d4f cfbe c1c8 e13e
00000020: f049 d0be 1466 d93e d0dc 8f3e 2b5c f7be
00000030: 065f cabe 1a9d f1be 3035 9fbd 5605 bdbe
00000040: a429 913e 6865 eebe 3dad fbbe c190 c0be
00000050: d802 793e 00b5 113b 94a3 a8be 1174 d9be
00000060: 9460 9f3e b672 d03e ee24 9b3d f28d 32be
00000070: 7e15 c73e 9cba 523e 2c26 f9be 1510 313e
00000080: 807d efbc 30ab 43be cdab e23d 2c3f 9fbe
00000090: e287 953e 28ab 34be 4834 953e f15c 72be
000000a0: 32f7 af3e 12ff c03e 560c 2f3e 36f5 763e
000000b0: a43a a33e 1878 d3bd 3ccc 903d 5f15 c33e
000000c0: 9c1d 053e 068d d63e 014a e4be 1a71 813e
000000d0: 00c6 8c3b 787e 9ebe d248 eb3e 1b03 fbbe
000000e0: 7020 cebe 88a2 803d 6a47 d6be 235e e6bd
000000f0: b2c2 c1be e23c e23e 3bcd 58be 726d b53e
00000100: 0065 a73b 0007 2dbe 061d 79be 3468 203e
00000110: 981a b4bd 1067 893d a0fe f53e e489 f33e
-0.4066717 0.48722732 -0.34185773 -0.056287352 -0.43504763 -0.13183832 -0.4049019 0.44098476
-0.4068141 0.42460692 0.28098154 -0.48312506 -0.39525622 -0.4719017 -0.077738166 -0.36918133
0.28352082 -0.46561742 -0.49155608 -0.37610438 0.24317491 0.0022233129 -0.329373 -0.42471364
0.3112837 0.40712517 0.07575403 -0.1743696 0.38883585 0.20578998 -0.48661935 0.17291291
-0.029234648 -0.19108272 0.11067925 -0.31102884 0.29205233 -0.17643416 0.2914145 -0.23668267
0.34368283 0.37694603 0.1709455 0.24116978 0.31880677 -0.103256404 0.070702046 0.38102242
0.12999576 0.41904467 -0.4458771 0.25281602 0.0042960644 -0.30955863 0.45953995 -0.49025807
-0.40259123 0.062810004 -0.4185136 -0.11248424 -0.37843853 0.44187075 -0.21172039 0.35435063
0.0051084757 -0.16897202 -0.24327478 0.1566475 -0.08794135 0.06709111 0.48045826 0.4756614

q_head.mamba.conv1d.bias f4 [18]
00000000: 68ef b93e 9afb 693d f9d2 9d3e abbe e93e
00000010: dca6 4f3e 4b3c c0be 947a d43e 438c babe
00000020: e2a6 be3d c0b3 e93e a9e9 f1be b9b1 8a3d
00000030: 7dc6 3b3d a5ed f93e 92d6 9d39 a698 39be
00000040: 61af ee3e d55a 903e
0.36315465 0.05712471 0.30825022 0.4565328 0.20278496 -0.37546 0.4149977 -0.36435136
0.09309174 0.4564495 -0.4724858 0.06772179 0.04584359 0.4881412 0.0003010524 -0.18124637
0.46618178 0.281943

q_head.mamba.x_proj.weight f4 [33, 18]
00000000: 70a6 07be e1f6 75bd 75a3 dd3d a99d 26be
00000010: c1a4 dbbd 14c8 d5bc 863d 303d fb18 12be
00000020: 264b 2f3e ef75 0a3d 692d 683e 7381 cbbc
00000030: 877c 18be 96fb 7a3d d53d e83d 0434 523e
00000040: a9b0 553e 82ac 1e3e d65d 273c 597f 623c
00000050: 7d69 8cbd 3225 19be 6556 113e 4339 4a3c
00000060: 77a6 e93c 6a82 5bbd 8b4e 98bc f6a2 3a3e
00000070: 05ac f1bd 87e0 fdbd b302 45be 48ee 50be
00000080: cfdb 39bd 0e1c 95bc aff5 79bd 58bc 0fbe
00000090: f353 c03d aaa4 323c f172 43be fa59 2a3e
000000a0: a00a 30be d259 d5bc 2272 75bd c562 c13d
000000b0: 90d6 abbc 1818 22be fa36 d4bd cfcb d7bd
000000c0: 708d 52be 04f8 3f3e 19c6 073d d588 d2bd
000000d0: 91bd 373e 0fc1 b83d 2b5f 6dbd 030e 5f3b
000000e0: de40 933d 6a2e eb3c 0c12 443e 36a2 00be
000000f0: 11d9 693e 6166 c53d c261 1abe accc d63d
00000100: 8347 4ebe 7ac5 423e 0a54 0abe 1859 f53a
00000110: 566c ddbd 2d2e 973a 810f 59be 8eff 163e
00000120: 1567 633b 7fb2 45be 7709 9fbd de4c 9f3d
00000130: 0636 50be a824 3a3e 7400 4ebb ee1a 72be
00000140: 6ac4 8cbd aa6e 92bd 07d1 073e e3c7 efbd
00000150: d4ef 3cbe 869b 673e fbf9 1b3e d9f3 b9bd
00000160: 7def 163e 5a66 6fbd 90dd 8dbc 7e53 c33d
00000170: c4cc 61bc dacf b43c da12 42be 9738 fd3c
00000180: 54fd 98bd 4b39 953d 47da 6dbb a378 aebd
00000190: 6f77 febd 3049 02bc eaf1 08be cb67 70bd
000001a0: 26a4 44be 421d 10bd 7e91 bcbd ccc7 47bd
000001b0: 4aa6 abbc 4bfe 8e3d dfde 39be caa6 64be
000001c0: 6ce8 10be 917a 9abd 6ce9 e9bd 6247 8a3d
000001d0: fe22 c2bb 22bb 483e a541 f53d a1c1 31be
000001e0: 1356 a53d c7f3 803c 16a5 e63d d660 28be
000001f0: b54d 6f3e db59 5b3e 0344 163e 480c 94bd
00000200: cdba 3dbe 3863 63be daf9 833d abce 933b
00000210: 7c1d 11be 11b2 303e 1060 593d d23e acbd
00000220: 28a5 2fbb 4be8 0c3e 9439 38be 15e4 e83d
00000230: ce70 9f3d c002 80bd 3aaf bd3c ac76 523e
00000240: e3c5 4cbe bc14 10bd 5e64 ac3d d5ab 08be
00000250: 5a9e 423e 9b78 71bd 3830 ee3d 9957 c0bd
00000260: 0073 e03d 4822 4d3e 270c 36bd 3a5a 013e
00000270: a981 bb3d 9e26 f0bd 3d46 583e ba56 ce3d
00000280: 8279 ebbd 3967 49be 1b24 dfbc 14bd 60bd
00000290: 3996 36be 95d2 753c c4a4 0bbe 1090 2abe
000002a0: 7b2d 0e3e 5766 9d3c 0ec7 563e f3b7 b23d
000002b0: 8b2e 39be 842f 41be 88ba a8bd 2f62 21be
000002c0: 90a6 9e3b 554b f83d 7f4b 513e 740b 7d3c
000002d0: 49a0 743d 6513 07ba be18 493c 59ea ca3d
000002e0: b8dc 3e3e 94d1 66bd efae 30be 7ab3 02be
000002f0: 8e64 e83c 8f47 4abe 45c8 3a3d 72c2 c03d
00000300: de27 13be 1114 513e ea00 63be e91e cebd
00000310: 932b 41be d04e a13d 3dc6 da3d b012 09bd
00000320: 79a7 a53d cbc5 eb3d 1378 5d3e c51c 36be
00000330: 9dfc 4d3e 5df8 44be a0f7 2abe 8ec4 efbd
00000340: 99fd 813d 03d7 15be 4b05 febd c5f2 433e
00000350: e446 33be 2727 5ebe b33e fe3d 24d7 ea3d
00000360: bef6 a4bb 196f 19be f002 f9bc cb57 28be
00000370: 903d f03b 6998 0c3e 15c1 763b ac3a 67be
00000380: 325d edbd 65fa 0d3e 19c4 30be e86b d93d
00000390: c46a 40be 2d9b a93c 878d debd cfca 0ebe
000003a0: cf1d 6e3e 39c8 613c f649 6fbe 8129 2e3e
000003b0: dd53 49be ff1b 6bbe e0f3 b2bd 8a4e 6e3e
000003c0: 1c80 eabc 09b7 2b3e 23d3 db3c d5ba 35be
000003d0: b213 593e 64e3 2a3d 4c67 debc ecd5 10bd
000003e0: 47a7 ff3d 6887 43be e1ed dbbd b96f 71bd
000003f0: 7b9b 143e b3d7 143d 607a 2d3e 2aba a53c
-0.13247085 -0.060049895 0.108221926 -0.1627108 -0.10724784 -0.026096381 0.043027423 -0.14267342
0.1711851 0.033803876 0.22673573 -0.024842 -0.14891253 0.061275087 0.113399185 0.20527655
0.20868172 0.15495494 0.010215243 0.013824307 -0.06856058 -0.14955595 0.14193113 0.012342754
0.02852176 -0.05359117 -0.01859214 0.18226227 -0.11800388 -0.12396341 -0.19239311 -0.20403397
-0.04537564 -0.018201854 -0.061025318 -0.14036691 0.09391012 0.010903517 -0.19086815 0.16635886
-0.17191553 -0.026043806 -0.0599233 0.09442667 -0.020976335 -0.15829504 -0.103620484 -0.1053692
-0.20561767 0.18746954 0.033147905 -0.10280005 0.17943408 0.09021198 -0.057952087 0.0034035451
0.07190107 0.028708655 0.1914751 -0.12561879 0.2283671 0.09638668 -0.15076354 0.10488257
-0.20144467 0.19020644 -0.13508621 0.0018718569 -0.10811679 0.0011534147 -0.2119732 0.14745924
0.0034698893 -0.19306372 -0.07765477 0.07778333 -0.20333108 0.18178046 -0.0031433376 -0.23643085
-0.068734005 -0.07150014 0.13263331 -0.11708047 -0.18450862 0.22617921 0.15232079 -0.090797134
0.14739795 -0.05844722 -0.017317563 0.09537409 -0.01378173 0.022071768 -0.18952504 0.030910773
-0.074701935 0.072863184 -0.0036293434 -0.085191034 -0.12425124 -0.00795202 -0.13373533 -0.058692735
-0.19203243 -0.035184152 -0.09207438 -0.048774526 -0.020953316 0.06982096 -0.18151425 -0.2232925
-0.14151162 -0.07542909 -0.11421475 0.067518964 -0.0059245816 0.19602636 0.11975411 -0.1735902
0.08073058 0.015741242 0.112619564 -0.1644319 0.23369487 0.21420996 0.14674382 -0.07228905
-0.1852829 -0.22205818 0.0644414 0.0045107207 -0.14171404 0.17255427 0.053070128 -0.084104195
-0.0026801322 0.13760488 -0.17990714 0.11371628 0.07785188 -0.062505245 0.023154844 0.20553082
-0.19997363 -0.035176024 0.08417581 -0.13346799 0.19005719 -0.05895291 0.11630291 -0.09391708
0.109594345 0.20032609 -0.044445183 0.12632075 0.0915559 -0.11726116 0.21120544 0.100751355
-0.11497785 -0.19668283 -0.027238896 -0.05486782 -0.17830743 0.01500382 -0.13637072 -0.16656518
0.13884537 0.019213839 0.20974371 0.08726492 -0.18084161 -0.18865782 -0.08238703 -0.1576011
0.004841633 0.121237434 0.20438956 0.015444625 0.059723172 -0.00051527313 0.012273965 0.099079795
0.18638885 -0.056352213 -0.17254232 -0.12763777 0.02836826 -0.1975386 0.04560115 0.094120875
-0.14370677 0.20417811 -0.22168317 -0.100644894 -0.18864278 0.078763604 0.10682342 -0.033465087
0.080885835 0.115123354 0.21627836 -0.17784412 0.20115896 -0.19235368 -0.16696024 -0.11707412
0.06347198 -0.14632802 -0.12403353 0.19135578 -0.17507511 -0.21694623 0.12414303 0.11466816
-0.005034297 -0.14983787 -0.030396909 -0.1643974 0.0073315576 0.13730015 0.0037651707 -0.22580975
-0.11590041 0.13865049 -0.17262305 0.106162846 -0.18790728 0.020703876 -0.10866838 -0.13944553
0.23253559 0.013780647 -0.23368058 0.1700802 -0.19660898 -0.22959898 -0.08737922 0.23272148
-0.02862554 0.16769041 0.026834076 -0.17747052 0.2119892 0.041720763 -0.027148865 -0.03536026
0.124830775 -0.19094622 -0.10738731 -0.058944438 0.14512436 0.03633852 0.16941214 0.020230372

q_head.mamba.dt_proj.weight f4 [18, 1]
00000000: 8152 e43e 2301 ecbe 3223 29bf 40e0 583f
00000010: d920 f3be 9894 db3e 984a a8be e9d0 243f
00000020: ff58 ed3e f00f 9e3a fbe9 e23e df24 f93e
00000030: f660 153f c340 43bf 4999 eabe 57c0 773f
00000040: d8b0 1bbe c7f9 61bf
0.44594195 -0.46094617 -0.6606933 0.8471718 -0.47485998 0.42886806 -0.3286941 0.6438127
0.4635696 0.0012059193 0.44319138 0.48660943 0.58351076 -0.76270694 -0.45820072 0.9677786
-0.1520418 -0.88271755

q_head.mamba.dt_proj.bias f4 [18]
00000000: 79f6 6fc0 ce1d d0c0 b14c 90c0 df37 81c0
00000010: d615 b7c0 5971 aec0 2362 79c0 7ee0 38c0
00000020: d7e4 6bc0 f8cd 75c0 dbb7 c7c0 bc4b 13c0
00000030: 9d1d d3c0 8880 cec0 c48b 6ec0 cf20 2dc0
00000040: a428 91c0 a551 9ac0
-3.7494185 -6.5036383 -4.5093617 -4.03807 -5.7214155 -5.4513364 -3.8966148 -2.888702
-3.6858423 -3.8406963 -6.2411933 -2.3014975 -6.597365 -6.45319 -3.7272806 -2.7051275
-4.536211 -4.8224664

q_head.mamba.out_proj.weight f4 [9, 18]
00000000: 317f 4dbe 5495 af3d 9d5d 6bbe ad53 233d
00000010: 3cce 2c3d 2ab3 6d3e c0ca 11be 5ddc 25be
00000020: 41d2 f4bd e2c8 f2bd 5e2b b4bd 7d34 153e
00000030: 20e2 71be 14ce c0bd ef84 553e 447a 09be
00000040: 6a51 9dbd 1f9e 4bbd 25db 12be 9d0c 8d3d
00000050: ae03 273e 32fa cc3b 630c 463e 3e3f c53d
00000060: b95c 1fbe cae7 0dbd 7289 5e3e 5195 9cbc
00000070: 5df9 a13d b4bb 0fbe 8124 47be 1f45 533e
00000080: bb44 50be fdfe d63d 2c9c 3c3c 0221 323e
00000090: 490d 17be bc06 54be 40de 30be 202a 5f3e
000000a0: 81cd ea3d 8c86 a03d 9a67 34be cdb0 acbd
000000b0: adeb a83c 3420 1b3d 3ab6 943c bb18 ec3b
000000c0: b74b ca3d f5e6 4bbe c258 f23d 3670 41be
000000d0: 33c3 e93d 3ff3 b2bd 3c5c 0fbe 5c82 353e
000000e0: 72dd 063e 32e4 603e 3180 3dbe 65dd 6abe
000000f0: 8ea7 943d 4aaf f3bd 8087 f6bc d61d 4bbe
00000100: c966 963c 41f7 4dbd a346 063e 907b 613e
00000110: 6d33 adbb dba0 36be ec8a eabc 4cb2 c2bd
00000120: c00f 1dbe a328 fabc 328e 26be d3e9 3cbe
00000130: 8cee 6e3d bb11 b3bd de6a 64bc 423e 4f3e
00000140: 6270 a13d e073 35be 50d1 02be 8cdf d83d
00000150: ce6c c2bd 6f79 ef3d 042b b93d 4a30 573c
00000160: 7337 e3bd eefe a63d 44e3 4abc 3765 a0bd
00000170: 524a 6f3e 6dc1 3b3e dc73 1bbe 9df9 00be
00000180: 0179 5b3e 5c76 23be b3f5 c83d c8e3 8c3d
00000190: 921a 60be 0c32 513e 447d 29bd cee2 acbd
000001a0: 2cc5 6a3e 64c9 00bc d9be 22be 1b52 643e
000001b0: 2e43 e13c afb9 89bd 065a 1ebb ba65 02be
000001c0: f270 b63d abc3 b53d 07c3 dc3d 017b 043e
000001d0: 63db 4f3c b39f 423d ac3a 6f3d 8f1b 2cbe
000001e0: a067 113e b336 64be f7d2 4c3c 9b57 e2bd
000001f0: fa6d 633e a72f 00be 1384 2abd ccb3 003e
00000200: 4721 1abe 2fd7 463d 1171 553e 6adb 503e
00000210: d5e7 f13d e8c9 10be f5f1 563e e0dd 3abe
00000220: ac03 0abd 2dcf 4a3e a820 323e 9341 0f3e
00000230: 7027 60be 4031 2c3e 66b7 063d 17ec 54be
00000240: 1f15 853d 8b8a 353e b0ce 42be 1edd 613e
00000250: ec5b 72be baa7 d23d 9d67 84bc 71a7 683e
00000260: 3634 46be 13c4 6a3e 950b 883d bac8 fbbc
00000270: 1ba5 78bd 97a4 3e3e ac6d 033e 9da2 41bc
00000280: 3761 293e 7527 713d
-0.20068051 0.08573404 -0.2298493 0.03987472 0.042188868 0.23212877 -0.14237499 -0.16197343
-0.11954165 -0.118547216 -0.08797334 0.14570804 -0.23621416 -0.09414306 0.20851491 -0.13425547
-0.07681544 -0.049711343 -0.1434141 0.068871714 0.16309997 0.0062554115 0.19340663 0.09631203
-0.15562715 -0.03464488 0.21732119 -0.019114168 0.079088904 -0.14036447 -0.19447519 0.20631836
-0.20338719 0.10497854 0.011511844 0.17395404 -0.14751162 -0.20705694 -0.17272282 0.21793413
0.11464978 0.07838163 -0.17617646 -0.084321596 0.020620191 0.03787251 0.018153299 0.0072050965
0.09877723 -0.19912322 0.118333355 -0.18890461 0.114141844 -0.08737802 -0.14000028 0.1772551
0.13170412 0.2196205 -0.18505932 -0.22936018 0.07258521 -0.11898668 -0.030093908 -0.198356
0.018359559 -0.050284628 0.13112883 0.22019792 -0.0052856714 -0.17834799 -0.028630696 -0.09506664
-0.1533804 -0.030536955 -0.1626518 -0.18448572 0.058332965 -0.08743616 -0.013941495 0.20238593
0.078827634 -0.17719984 -0.12775159 0.10589513 -0.09493409 0.116930835 0.09041408 0.013134072
-0.110945605 0.08154093 -0.012383286 -0.07831805 0.23368195 0.18335505 -0.15180916 -0.1259522
0.21432878 -0.1596312 0.098124884 0.06879383 -0.21885136 0.20429248 -0.04137923 -0.08441697
0.22926778 -0.007860515 -0.15893115 0.22296946 0.027497854 -0.067248695 -0.0024162545 -0.12734118
0.08908261 0.08875211 0.10779386 0.12937547 0.012686583 0.047515582 0.058405563 -0.16807388
0.14199686 -0.22286491 0.01250147 -0.11051866 0.22209921 -0.12518178 -0.041629862 0.12568587
-0.15051757 0.04854506 0.20843913 0.203962 0.118117966 -0.14139521 0.20990737 -0.18248701
-0.033694908 0.19805594 0.1739527 0.13989858 -0.21890044 0.16815662 0.032889746 -0.20793186
0.06498169 0.17728631 -0.19024158 0.22057006 -0.23667878 0.102858976 -0.016162688 0.22720124
-0.19355854 0.22926359 0.06642834 -0.030735362 -0.06070433 0.18617474 0.12834805 -0.011818555
0.16540991 0.05887552

q_head.final_norm.gamma f4 [9]
00000000: 0000 803f 0000 803f 0000 803f 0000 803f
00000010: 0000 803f 0000 803f 0000 803f 0000 803f
00000020: 0000 803f
1.0 1.0 1.0 1.0 1.0 1.0 1.0 1.0
1.0

ema_model.q_head.action_bin_embeddings f4 [2, 256, 9]
00000000: d2ac b23a 4e79 34bc 05b1 b2bb 88b8 cbbc
00000010: 2546 fe3b 5dba ba3c 35e7 ae3b a757 113b
00000020: dcfd a0bc 9eae c2ba 6eb2 a63c 0e2e 15bd
00000030: 500d e7bb 97b3 d53c 336d 523c f5a1 1b3b
00000040: 5286 893c 68b1 2e3c 2944 b3bc 079f e13a
00000050: cad9 0bbd 39a2 cd3c f5f9 0c3d dac2 5c3b
00000060: 7f9d 39bc c222 a03a 4a49 41bc bed5 203c
00000070: d095 be3a d00f 953c e2ff 3dbc 782b 673c
00000080: b9c0 1939 dad1 7ebb 32a1 5b3c 5fd7 a83b
00000090: 6272 8bbb e818 33bc 1c40 203c ad34 c5ba
000000a0: a4c1 4abc ce57 e9bb 7969 093c e927 13bd
000000b0: 3107 2f3c caf2 f93b 2d5e f43b 7c21 a3bc
000000c0: e4e9 b4bc 24fd 353b 4cf1 5abd c75c a4bc
000000d0: d396 6b3c d213 d73b 50aa b6bc 1f3a 4a3c
000000e0: bd09 153c 4471 3cbd 277a 253b dfde cd3c
000000f0: 8052 7ebb 129d 8f3c b35d 80bc 0d03 11bd
00000100: d334 13bd 3406 aabb 8059 c5ba bd6b bcbc
00000110: b241 bebc 84dd 673c a0df 0f3d 591a 623d
00000120: 8750 fb3b ef10 313a ee32 cbbc a7a4 253c
00000130: 2ec9 b33b 81be ccbc 60f5 843c f9ed 01bd
00000140: 4141 2cbc f093 67bc fd62 293c 1573 673c
00000150: b9a6 fe3c 120a e8bb be9c b7bc 7d5e 1dbb
00000160: 3254 b03c 9061 ad3b ecce 513b 58de 85bc
00000170: 8f98 4cbd 89a9 503b ee4a 523b 061c 4cbc
00000180: eab5 673c 963e 1bbd 58e1 5fbc b2cb 60bd
00000190: 097d 6a3c 4464 9d3c 7f12 673b 3ec2 9c3c
000001a0: 17e1 a63c 3862 de39 2f36 59ba 36ce cc3b
000001b0: 9370 02bd 01d1 ff3b 4e46 28bd 1d5c bb3b
000001c0: b936 86bc 623c d63c 18b8 d33b c984 2fbc
000001d0: 2f77 1cbc d283 8cbc 3ee5 5a3c 936e 91bc
000001e0: 5b66 e0bb b9c5 ab3b 99aa ccbc c856 103d
000001f0: 7317 b838 4a25 1fbc c86e d3bc 621c 813c
00000200: cb0e dabc b2b3 e4bb 08a0 7d3b 014b df3b
00000210: d9e1 953c 93b9 b3bc 1f39 2dbc 6911 9b3b
00000220: 9834 3d3c a28b ee3b 355f 6cbc 692c 6c3c
00000230: 4adf 9a3b f626 5bbc 8a91 983c b34e 9dbc
00000240: 6fd8 873a d4e5 813c 5625 313d 6fd4 583b
00000250: fdb8 223d 20c0 96bc 5f34 ca3b 7374 92bc
00000260: 6b6b 4dbc 5621 bf3c f572 383c 3bb8 063c
00000270: 9064 753c 601a 3aba 7515 643c de0f 983c
00000280: d3bb e73c a854 7abc caa4 afbc f1e1 ecbc
00000290: 1698 68bc 01df da3c 9583 98bc c695 b0bc
000002a0: bec9 aebc 8f9d 81bc e0c9 923c c3ec 453c
000002b0: a666 2dbd 788e 943c 0a7f 51bc f1fb 8c3c
000002c0: 3fc3 40bb 79f8 783b e4df 163d 5674 56bc
000002d0: bba4 913c fc47 8b3c 56f1 2abd 68a3 66bb
000002e0: bba7 0dba c848 0c3a 4699 183b d613 c7bc
000002f0: 99f5 823b 2aed 1bbd 8cdc d9bc d6d5 d6bc
00000300: 74f3 7d3c 1f1c 8b3b bbde 083c c192 6dbc
00000310: ed22 9bbc 62cb bebc 9390 babc 8aa1 d83b
00000320: c08e 12bc 5eb3 94bc 8da3 47bb c704 babb
00000330: 1110 203d f638 56bc 2ee4 383c 02e3 16bd
00000340: 202d f4bc 2b16 fa3b 5c2a f9bc 32e7 3ebc
00000350: 5a3b 463c 02a7 903b b47b 0a3d b338 17bc
00000360: fcd4 2f39 da5b 813c 43db 34bd cb62 b0bc
00000370: ff61 9c3c db39 02bb 8dc0 6bbc 4400 193c
00000380: 2c10 d03c da59 d0bc bde3 02bd cdf4 19bc
00000390: 72d1 393b dccc 9c3a ac2e 9fbc fd48 31bd
000003a0: 809c 373d 9c30 8bbc e4d4 f9bc 733c 09bd
000003b0: 0b2c 2ebd 6dbe d53b 926c b2bb 5b16 823c
000003c0: a9c0 0cbb 784c a8bb bec0 58bc 7bb4 a0bc
000003d0: 84df c2bb edad 07bc 68f3 98bc 2c93 1f3c
000003e0: 5e86 cabc 4e2d 1fbc a587 e43b 203c 4e3c
000003f0: 3d30 45bc 29ad b8bc 77c9 f9b9 09db 143b
0.0013631827 -0.011015249 -0.0054532313 -0.024868265 0.0077598267 0.022793943 0.0053376206 0.002217749
-0.0196523 -0.0014853065 0.020348754 -0.036420874 -0.0070511475 0.026086612 0.012843418 0.0023747657
0.016787682 0.010662414 -0.021883087 0.0017213532 -0.034143247 0.025101768 0.034418065 0.0033685477
-0.011329054 0.001221739 -0.011797259 0.009816585 0.0014540497 0.018196017 -0.011596652 0.014109485
0.00014663012 -0.0038882405 0.013405131 0.0051526274 -0.004255579 -0.010931231 0.00978091 -0.0015045606
-0.012375269 -0.007121063 0.008386963 -0.035926733 0.010682867 0.0076278197 0.0074575157 -0.019913428
-0.022084184 0.0027769292 -0.053452775 -0.020063771 0.014379221 0.006563642 -0.022298008 0.012342959
0.00909656 -0.046006456 0.002524981 0.025130687 -0.0038806498 0.017530952 -0.01566968 -0.0354033
-0.03593905 -0.0051887278 -0.001505658 -0.023000592 -0.023224685 0.0141519345 0.035125375 0.05520091
0.0076695117 0.00067545375 -0.024804559 0.010110057 0.005486629 -0.024993183 0.016230285 -0.03172109
-0.010513605 -0.014134392 0.010338542 0.014126559 0.031085359 -0.0070812786 -0.022413608 -0.0024012618
0.021524522 0.0052911714 0.0032014204 -0.016341373 -0.04995018 0.0031839332 0.0032088119 -0.012457853
0.014142493 -0.037901483 -0.013664566 -0.05488176 0.014312037 0.01921285 0.0035258827 0.01913559
0.020371003 0.00042416318 -0.0008285967 0.006250168 -0.03184564 0.0078068976 -0.041082673 0.005717768
-0.016383516 0.02615184 0.0064611547 -0.010712811 -0.0095499 -0.0171527 0.01336032 -0.017752921
-0.006848139 0.0052420762 -0.024983691 0.03523901 8.7781715e-05 -0.00971348 -0.02580966 0.015760604
-0.026618382 -0.006979429 0.0038700122 0.006814361 0.01829617 -0.021939075 -0.010572701 0.0047323
0.011548184 0.007279829 -0.014426996 0.014414885 0.004726325 -0.013375988 0.018624086 -0.019202566
0.0010364185 0.01585666 0.043248497 0.0033085605 0.0397272 -0.01840216 0.006170794 -0.017877793
-0.0125378175 0.023331326 0.011257877 0.008222635 0.014977589 -0.0007099267 0.013921131 0.018562254
0.028287804 -0.015278973 -0.021440882 -0.028916331 -0.014196416 0.026717665 -0.01861743 -0.021555793
-0.021336433 -0.0158222 0.017918527 0.012080374 -0.04233422 0.01813434 -0.012786636 0.017209979
-0.002941325 0.0037989898 0.036834612 -0.01308926 0.017778745 0.017002098 -0.041734062 -0.0035192613
-0.0005403717 0.00053514214 0.0023284717 -0.02430145 0.0039965627 -0.038067974 -0.026594423 -0.026225012
0.015499938 0.0042452957 0.008353884 -0.014500321 -0.018937552 -0.02329034 -0.022774016 0.006611054
-0.008945167 -0.018151935 -0.0030462474 -0.005676839 0.039077822 -0.013075104 0.011284871 -0.036837585
-0.029806674 0.007632037 -0.030415706 -0.011651801 0.012099111 0.00441444 0.03380938 -0.009229827
0.00016768643 0.015790869 -0.044154417 -0.021531483 0.019089697 -0.001987091 -0.014389169 0.009338442
0.025398336 -0.02543347 -0.03195547 -0.009396744 0.00283536 0.0011962908 -0.019431435 -0.043282498
0.044826984 -0.016990952 -0.030497022 -0.033504914 -0.04252247 0.0065229447 -0.0054450715 0.0158798
-0.002147714 -0.005136069 -0.013229547 -0.01961731 -0.0059470553 -0.008281213 -0.018670753 0.009739678
-0.024722274 -0.009715391 0.006974178 0.012587577 -0.012035427 -0.022543507 -0.00047643084 0.0022713563

ema_model.q_head.mamba.A_log f4 [18, 16]
00000000: 6e6d 0834 1872 313f 549f 8c3f 1872 b13f
00000010: 1002 ce3f 6058 e53f 9513 f93f 9215 0540
00000020: 549f 0c40 8e5d 1340 1e77 1940 b608 1f40
00000030: 4028 2440 51e6 2840 b250 2d40 1872 3140
00000040: efd0 642f 1872 313f 549f 8c3f 1872 b13f
00000050: 1002 ce3f 6058 e53f 9513 f93f 9215 0540
00000060: 549f 0c40 8e5d 1340 1e77 1940 b608 1f40
00000070: 2128 2440 51e6 2840 b250 2d40 1872 3140
00000080: 7247 b631 1872 313f 549f 8c3f 1872 b13f
00000090: 1002 ce3f 6058 e53f 9513 f93f 9215 0540
000000a0: 549f 0c40 8e5d 1340 1e77 1940 b608 1f40
000000b0: 2128 2440 51e6 2840 b250 2d40 1872 3140
000000c0: 660a 62b4 1872 313f 549f 8c3f 1872 b13f
000000d0: 1002 ce3f 6058 e53f 9513 f93f 9215 0540
000000e0: 549f 0c40 8e5d 1340 1e77 1940 b608 1f40
000000f0: f427 2440 51e6 2840 b250 2d40 1872 3140
00000100: 1430 2f31 1872 313f 549f 8c3f 1872 b13f
00000110: 1002 ce3f 6058 e53f 9513 f93f 9215 0540
00000120: 549f 0c40 8e5d 1340 1e77 1940 b608 1f40
00000130: 2128 2440 51e6 2840 b250 2d40 1872 3140
00000140: 8c5b 84b0 1872 313f 549f 8c3f 1872 b13f
00000150: 1002 ce3f 6058 e53f 9513 f93f 9215 0540
00000160: 549f 0c40 8e5d 1340 1e77 1940 b608 1f40
00000170: 2128 2440 51e6 2840 b250 2d40 1872 3140
00000180: c51d 49b5 1872 313f 399f 8c3f 0c72 b13f
00000190: 1602 ce3f 6958 e53f 7c13 f93f 9215 0540
000001a0: 549f 0c40 8c5d 1340 f576 1940 b608 1f40
000001b0: cc26 2440 5be6 2840 a750 2d40 2872 3140
000001c0: 9f32 ca33 1872 313f 529f 8c3f 1872 b13f
000001d0: 1202 ce3f 6058 e53f 9413 f93f 9215 0540
000001e0: 549f 0c40 8e5d 1340 1177 1940 b608 1f40
000001f0: 0028 2440 51e6 2840 b150 2d40 1772 3140
00000200: 9fa3 5630 1872 313f 549f 8c3f 1872 b13f
00000210: 1002 ce3f 6058 e53f 9513 f93f 9215 0540
00000220: 549f 0c40 8e5d 1340 1e77 1940 b608 1f40
00000230: 1f28 2440 51e6 2840 b250 2d40 1872 3140
00000240: 3f46 c133 1872 313f 549f 8c3f 1872 b13f
00000250: 1002 ce3f 6058 e53f 9513 f93f 9215 0540
00000260: 549f 0c40 8e5d 1340 1577 1940 b608 1f40
00000270: 1028 2440 51e6 2840 b250 2d40 1872 3140
00000280: 42f8 0b31 1872 313f 549f 8c3f 1872 b13f
00000290: 1002 ce3f 6058 e53f 9513 f93f 9215 0540
000002a0: 549f 0c40 8e5d 1340 1e77 1940 b608 1f40
000002b0: 2128 2440 51e6 2840 b250 2d40 1872 3140
000002c0: 4f2c d235 1672 313f 7f9f 8c3f 3072 b13f
000002d0: 0202 ce3f 5458 e53f b113 f93f 9215 0540
000002e0: 549f 0c40 905d 1340 4777 1940 b608 1f40
000002f0: 4429 2440 4be6 2840 b850 2d40 0a72 3140
00000300: 09a3 ca2d 1872 313f 549f 8c3f 1872 b13f
00000310: 1002 ce3f 6058 e53f 9513 f93f 9215 0540
00000320: 549f 0c40 8e5d 1340 1e77 1940 b608 1f40
00000330: 2128 2440 51e6 2840 b250 2d40 1872 3140
00000340: 24e6 afad 1872 313f 549f 8c3f 1872 b13f
00000350: 1002 ce3f 6058 e53f 9513 f93f 9215 0540
00000360: 549f 0c40 8e5d 1340 1e77 1940 b608 1f40
00000370: 2128 2440 51e6 2840 b250 2d40 1872 3140
00000380: 7f18 82b2 1872 313f 549f 8c3f 1872 b13f
00000390: 1002 ce3f 6058 e53f 9513 f93f 9215 0540
000003a0: 549f 0c40 8e5d 1340 1e77 1940 b608 1f40
000003b0: 2128 2440 51e6 2840 b250 2d40 1872 3140
000003c0: a4b7 b833 1872 313f 549f 8c3f 1872 b13f
000003d0: 1002 ce3f 6058 e53f 9513 f93f 9215 0540
000003e0: 549f 0c40 8e5d 1340 1e77 1940 b608 1f40
000003f0: 2428 2440 51e6 2840 b250 2d40 1872 3140
1.2705797e-07 0.6931472 1.0986123 1.3862944 1.609438 1.7917595 1.9459101 2.0794415
2.1972246 2.3025851 2.3978953 2.4849067 2.5649567 2.6390574 2.7080503 2.7725887
2.0810707e-10 0.6931472 1.0986123 1.3862944 1.609438 1.7917595 1.9459101 2.0794415
2.1972246 2.3025851 2.3978953 2.4849067 2.5649493 2.6390574 2.7080503 2.7725887
5.3050195e-09 0.6931472 1.0986123 1.3862944 1.609438 1.7917595 1.9459101 2.0794415
2.1972246 2.3025851 2.3978953 2.4849067 2.5649493 2.6390574 2.7080503 2.7725887
-2.1051673e-07 0.6931472 1.0986123 1.3862944 1.609438 1.7917595 1.9459101 2.0794415
2.1972246 2.3025851 2.3978953 2.4849067 2.5649385 2.6390574 2.7080503 2.7725887
2.549318e-09 0.6931472 1.0986123 1.3862944 1.609438 1.7917595 1.9459101 2.0794415
2.1972246 2.3025851 2.3978953 2.4849067 2.5649493 2.6390574 2.7080503 2.7725887
-9.630283e-10 0.6931472 1.0986123 1.3862944 1.609438 1.7917595 1.9459101 2.0794415
2.1972246 2.3025851 2.3978953 2.4849067 2.5649493 2.6390574 2.7080503 2.7725887
-7.4921655e-07 0.6931472 1.0986091 1.3862929 1.6094387 1.7917606 1.9459071 2.0794415
2.1972246 2.3025846 2.3978856 2.4849067 2.564868 2.6390598 2.7080476 2.7725925
9.415566e-08 0.6931472 1.0986121 1.3862944 1.6094382 1.7917595 1.94591 2.0794415
2.1972246 2.3025851 2.3978922 2.4849067 2.5649414 2.6390574 2.70805 2.7725885
7.8085266e-10 0.6931472 1.0986123 1.3862944 1.609438 1.7917595 1.9459101 2.0794415
2.1972246 2.3025851 2.3978953 2.4849067 2.5649488 2.6390574 2.7080503 2.7725887
9.0000405e-08 0.6931472 1.0986123 1.3862944 1.609438 1.7917595 1.9459101 2.0794415
2.1972246 2.3025851 2.3978932 2.4849067 2.5649452 2.6390574 2.7080503 2.7725887
2.036828e-09 0.6931472 1.0986123 1.3862944 1.609438 1.7917595 1.9459101 2.0794415
2.1972246 2.3025851 2.3978953 2.4849067 2.5649493 2.6390574 2.7080503 2.7725887
1.5659115e-06 0.69314706 1.0986174 1.3862972 1.6094363 1.7917581 1.9459134 2.0794415
2.1972246 2.3025856 2.397905 2.4849067 2.5650187 2.639056 2.7080517 2.7725854
2.3037143e-11 0.6931472 1.0986123 1.3862944 1.609438 1.7917595 1.9459101 2.0794415
2.1972246 2.3025851 2.3978953 2.4849067 2.5649493 2.6390574 2.7080503 2.7725887
-1.99974e-11 0.6931472 1.0986123 1.3862944 1.609438 1.7917595 1.9459101 2.0794415
2.1972246 2.3025851 2.3978953 2.4849067 2.5649493 2.6390574 2.7080503 2.7725887
-1.5145131e-08 0.6931472 1.0986123 1.3862944 1.609438 1.7917595 1.9459101 2.0794415
2.1972246 2.3025851 2.3978953 2.4849067 2.5649493 2.6390574 2.7080503 2.7725887
8.601572e-08 0.6931472 1.0986123 1.3862944 1.609438 1.7917595 1.9459101 2.0794415
2.1972246 2.3025851 2.3978953 2.4849067 2.56495 2.6390574 2.7080503 2.7725887

ema_model.q_head.mamba.D f4 [18]
00000000: a80a 803f 7bde 7f3f a2c9 7e3f d99d 803f
00000010: eaa0 803f 78ce 7f3f 319f 803f e30b 803f
00000020: 556e 803f 93d0 7e3f 1f79 803f 9290 803f
00000030: 1c85 7f3f 1563 7f3f 6a94 803f d5a0 803f
00000040: 2e81 803f 9eb1 7f3f
1.0003252 0.99948853 0.9952642 1.0048171 1.0049107 0.9992442 1.0048581 1.0003628
1.0033671 0.9953701 1.0036963 1.0044119 0.99812484 0.9976056 1.0045292 1.0049082
1.0039423 0.998804
