checkpoints/q-mamba/20240831_051014/checkpoint-1.pt (torch, 103216 bytes, 52 tensors)

q_head.DAC_block.mamba_blocks.0.A_log f4 [28, 32]
00000000: 969a cbbb 3da3 303f 0c36 8a3f 813a b03f
00000010: 59b8 cb3f 1b35 e23f aa82 f93f 4c8c 0340
00000020: d2be 0b40 4f7d 1240 0136 1940 e69d 1e40
00000030: 48a4 2240 b876 2840 865a 2b40 d831 3240
00000040: 90ad 3340 941c 3840 b1c5 3a40 46da 3e40
00000050: d470 4140 2dda 4540 aa00 4740 e7d7 4940
00000060: 3285 4c40 1bc4 4e40 d279 5140 378d 5340
00000070: d07c 5640 f676 5840 79d4 5a40 043a 5c40
00000080: 8788 9bb7 6571 313f cc9b 8c3f 7670 b13f
00000090: 82fe cd3f 8050 e53f cf13 f93f cc11 0540
000000a0: ad9d 0c40 c75b 1340 7d76 1940 d707 1f40
000000b0: 0623 2440 a7e5 2840 4347 2d40 d572 3140
000000c0: e84c 3540 5cf9 3840 0b6b 3c40 35b7 3f40
000000d0: 7ed3 4240 84d3 4540 26a4 4840 e45d 4b40
000000e0: 07fc 4d40 637a 5040 91e8 5240 6539 5540
000000f0: fb7d 5740 57a7 5940 08c2 5b40 34c6 5d40
00000100: 0e03 a4b6 aa71 313f c29e 8c3f 7871 b13f
00000110: 4901 ce3f 1d57 e53f fe12 f93f 0115 0540
00000120: b19e 0c40 da5c 1340 2376 1940 0008 1f40
00000130: b726 2440 f5e5 2840 ca4f 2d40 5970 3140
00000140: e051 3540 92fa 3840 5270 3c40 92b8 3f40
00000150: 33d7 4240 1cd3 4540 d6a9 4840 f962 4b40
00000160: 2900 4e40 0882 5040 02ed 5240 9b40 5540
00000170: 1380 5740 b4aa 5940 11c4 5b40 2acc 5d40
00000180: 8a61 18b7 8c70 313f a29f 8c3f 2570 b13f
00000190: 6701 ce3f 6358 e53f 8b10 f93f c215 0540
000001a0: ba9d 0c40 d05b 1340 af72 1940 5d06 1f40
000001b0: c225 2440 59e5 2840 1454 2d40 8169 3140
000001c0: 2552 3540 64f8 3840 5271 3c40 cdb5 3f40
000001d0: e8d4 4240 d5d0 4540 93a9 4840 f560 4b40
000001e0: 7eff 4d40 9f81 5040 c6eb 5240 a740 5540
000001f0: cc7d 5740 c3a7 5940 87c0 5b40 b1cb 5d40
00000200: f56f c2b5 0672 313f 169f 8c3f 0672 b13f
00000210: ca01 ce3f 1858 e53f 9513 f93f 6315 0540
00000220: 3b9f 0c40 715d 1340 f376 1940 a608 1f40
00000230: e127 2440 47e6 2840 2550 2d40 2572 3140
00000240: 2653 3540 9cfb 3840 6271 3c40 f0b9 3f40
00000250: 1cd9 4240 a1d3 4540 81ab 4840 9364 4b40
00000260: a701 4e40 6584 5040 88ee 5240 3b42 5540
00000270: 9581 5740 c5ac 5940 1dc6 5b40 4ace 5d40
00000280: 4b6b 90b9 b668 313f d772 8c3f c850 b13f
00000290: aed6 cd3f d9f3 e43f 4913 f93f 72e6 0440
000002a0: fe85 0c40 a744 1340 ce73 1940 3afd 1e40
000002b0: d5ee 2340 e3db 2840 dbfe 2c40 6c76 3140
000002c0: e20f 3540 1fe1 3840 1f30 3c40 3497 3f40
000002d0: ca9f 4240 ced0 4540 5368 4840 5a2b 4b40
000002e0: 3dcd 4d40 802c 5040 bbb7 5240 dcf9 5440
000002f0: e85a 5740 317c 5940 2b9f 5b40 ac87 5d40
00000300: 135d 0db8 d770 313f 8f98 8c3f 2c6f b13f
00000310: fefa cd3f 0c4a e53f db13 f93f 6f0e 0540
00000320: 199c 0c40 5a5a 1340 8375 1940 e406 1f40
00000330: 0d1e 2440 f1e4 2840 5f3e 2d40 6073 3140
00000340: b846 3540 abf6 3840 3164 3c40 16b4 3f40
00000350: eecc 4240 6dd3 4540 5b9b 4840 6f56 4b40
00000360: a2f4 4d40 6f6f 5040 64e1 5240 df2f 5540
00000370: 7379 5740 0aa1 5940 1bbd 5b40 dcbb 5d40
00000380: e7c2 97b9 5d67 313f cd6b 8c3f 5a5a b13f
00000390: 17cd cd3f 57f2 e43f c015 f93f f4e3 0440
000003a0: 9587 0c40 7045 1340 446a 1940 8ffc 1e40
000003b0: 12e9 2340 d6db 2840 6be8 2c40 377b 3140
000003c0: f708 3540 bad9 3840 9823 3c40 3d95 3f40
000003d0: 5a92 4240 56d1 4540 1953 4840 9e11 4b40
000003e0: c8b8 4d40 571c 5040 e6a4 5240 49df 5440
000003f0: 6f52 5740 246a 5940 eb91 5b40 8372 5d40
-0.0062134964 0.6899908 1.0797744 1.3767854 1.5915633 1.7672457 1.9493 2.055438
2.1835217 2.2888982 2.3939211 2.4783874 2.541277 2.632246 2.6774 2.7842922
2.8074684 2.8767443 2.9183161 2.9820724 3.0225115 3.0914414 3.1094155 3.1538026
3.1956296 3.2307193 3.2730603 3.305494 3.351368 3.3822608 3.4192183 3.441041
-1.8541015e-05 0.6931365 1.0985045 1.3862445 1.6093295 1.7915192 1.945917 2.0792112
2.1971238 2.3024766 2.397857 2.4848535 2.5646377 2.6390169 2.7074745 2.7726338
2.832819 2.8902197 2.9440334 2.995557 3.0441585 3.091035 3.1350188 3.1776056
3.2185075 3.25747 3.2954447 3.331628 3.3670642 3.4008386 3.4337177 3.4652224
-4.8879365e-06 0.6931406 1.0985949 1.3862753 1.6094142 1.791721 1.9458921 2.079407
2.1971858 2.3025422 2.3978355 2.4848633 2.564863 2.6390355 2.707995 2.7724822
2.8331223 2.8902936 2.9443555 2.9956403 3.0443847 3.09101 3.135366 3.1779158
3.2187598 3.2579365 3.2957158 3.3320682 3.367192 3.401044 3.433842 3.4655862
-9.082616e-06 0.6931236 1.0986216 1.3862349 1.6094178 1.7917598 1.9458174 2.079453
2.1971269 2.3024788 2.3976247 2.4847634 2.5648046 2.6389983 2.7082567 2.7720644
2.8331387 2.8901606 2.9444165 2.9954712 3.0442448 3.090871 3.13535 3.1777928
3.218719 3.2579114 3.2956405 3.332071 3.367053 3.4008644 3.433626 3.4655573
-1.448671e-06 0.6931461 1.0986049 1.3862922 1.6094296 1.7917509 1.9459101 2.0794303
2.1972187 2.3025782 2.397885 2.4849029 2.564934 2.639055 2.7080166 2.7725918
2.8332 2.890357 2.9444203 2.9957237 3.0445013 3.0910418 3.1354678 3.1780136
3.2188509 3.2580807 3.2958088 3.3321674 3.367284 3.40117 3.4339669 3.465716
-0.0002754576 0.693004 1.0972546 1.3852777 1.608114 1.7886916 1.945901 2.0765653
2.1956782 2.3010652 2.3976932 2.4842057 2.5614522 2.6384208 2.7030551 2.772853
2.8290944 2.8887403 2.940437 2.9936037 3.0410028 3.0908694 3.1313674 3.174521
3.2156518 3.252716 3.292464 3.3277502 3.3649235 3.398205 3.4315898 3.4614058
-3.37037e-05 0.69312805 1.0984057 1.3862052 1.6092222 1.7913222 1.9459184 2.079006
2.1970274 2.3023896 2.3977973 2.4847956 2.5643342 2.6389735 2.7069318 2.772667
2.8324413 2.8900554 2.9436152 2.9953666 3.043758 3.0910294 3.1344821 3.1771505
3.2180562 3.2568014 3.2950068 3.3310468 3.3667877 3.400454 3.433417 3.464591
-0.00028946178 0.69298345 1.0970398 1.3855698 1.6078213 1.7886456 1.9459763 2.0764132
2.1957753 2.3011131 2.397111 2.484165 2.5611005 2.6384177 2.7016857 2.7731454
2.8286722 2.888289 2.9396725 2.9934838 3.0401826 3.0909019 3.1300719 3.1729503
3.2144032 3.2517297 3.2913146 3.3261282 3.3644063 3.3971033 3.4307811 3.4601142

q_head.DAC_block.mamba_blocks.0.D f4 [28]
00000000: a7e9 843f 6e83 843f 3206 853f a802 813f
00000010: 5bc2 7c3f e75f 7f3f 5323 853f 5af6 843f
00000020: ed85 813f 6583 843f b3f2 843f d928 853f
00000030: 8043 803f 18fd 833f 1e04 813f a172 833f
00000040: d011 793f 160d 853f 512e 813f a470 7b3f
00000050: 665f 7f3f a567 7a3f 97e3 783f a887 843f
00000060: 21d8 823f 555e 823f d066 843f 3eee 813f
1.0383805 1.0352609 1.0392516 1.0078936 0.9873406 0.9975571 1.0401405 1.038768
1.0118996 1.0352598 1.0386566 1.0403091 1.0020599 1.0311613 1.0079381 1.0269357
0.97292805 1.0394619 1.009226 0.9821875 0.9975494 0.978144 0.97222275 1.0353899
1.0222207 1.0185038 1.0343876 1.0150831

q_head.DAC_block.mamba_blocks.0.in_proj.weight f4 [56, 14]
00000000: fcee b83d d0f8 813e a838 0d3d 20a3 683d
00000010: 61a3 5cbe e91c 313e 5a1a 053e 8f99 e5bd
00000020: 8192 803e 085f 42be 6738 1bba 0c74 e9bd
00000030: 7f67 11be 604a 943d d555 eabd 0560 d5bc
00000040: 9330 5ebe 0cde 38be a779 043e 2a3d ff3d
00000050: c564 2bbe 6ffc 64bb 3156 9dbd 4411 4dbe
00000060: 55f3 c3bd c0b3 21be cc24 4dbe 2e7a 913e
00000070: 34f3 37be 1560 0fbe 808f 523e df2c 8cbe
00000080: 1544 b7bd fb07 7fbe b7cc 263e 6dd6 b03d
00000090: 865c 6cbc fce9 713e 067c 543e a9ad 2ebe
000000a0: 9736 55be 87ef 12be e722 de3b e71c 603c
000000b0: e5aa 833d 543d 45be b9f1 143e 8a3c d83d
000000c0: 061e 28be ecba be3b adf1 fb3b 5694 8e3c
000000d0: d755 18be 2ed2 c73d a219 f0bd 3555 4e3e
000000e0: cbe2 72be 133e 8e3d 5b89 e63d c538 21bc
000000f0: 1604 4bbe 09e0 a3bd 3058 0cbe 3666 87be
00000100: 01b4 87be 5510 9d3d 95d2 aebd 7cc2 1e3d
00000110: 60b2 84bd b2d6 30be 27c8 8c3e be02 613e
00000120: d2d8 b4bd e3c5 28be df2c e03c 9957 943e
00000130: e937 163e ebc4 843e d92f 5d3e 9f27 043e
00000140: 8bc5 11be 75de dcbd 9298 133d 63eb 24be
00000150: d0d4 e83d 8a51 b73d e9a3 60bd 1d65 2cbe
00000160: c40e 74be e07d 5abe a532 23bd ec4b 0cbe
00000170: 77fb febc c168 13bc 14ed 043e 9ef5 82be
00000180: a234 f03c f8e3 403e ff7b b9bd 3e04 983e
00000190: 8895 9abb b7e2 64be 730c 5ebe 1d66 f2bd
000001a0: acc8 0c3e ecf3 f93d 151f 2ebe 50e9 84be
000001b0: 40a8 593e 8af9 883e b64e fb3d 4d62 f0ba
000001c0: 202c 6d3e b94e 4b3e c511 d33d f928 45be
000001d0: 216b cc3d c3fc 793e dd8e 563e 49c5 80bc
000001e0: 1716 bbbd 01a2 5fbe ea8f ad3b 75fc 44bc
000001f0: 9908 b8bd 65c6 28bc f0f1 043e 5c97 3a3d
00000200: 543e b93d 3b9f 08bd d966 323e b18a cf3d
00000210: 9f5b 3b3e 1d42 38bd 42ef f8bb 1b21 e4bd
00000220: f379 34bd 79b1 973e 51a7 e7bd 43d8 3fbe
00000230: 2407 c83d 2de9 63be b5ab 593d 0c19 18be
00000240: 4ab2 21be 7f37 8c3e 8ede 8b3e 1481 55be
00000250: 1bf7 b83c f33e e73d 16d6 90bd 95fd 093e
00000260: 25bf 1f3e b588 d53d e2a9 493e 94b8 c53d
00000270: 6255 9e3c c3ca 263e 4aae 2abe a356 253d
00000280: 2f41 3e3e 7288 f8bc e432 943d b327 2ebe
00000290: 3ac8 52be fbda e3bd 6fc2 74be ea37 8fbd
000002a0: 382b 483e a083 46be ae4f e33d b229 c0bd
000002b0: a030 513e 7255 f0bd 96b4 fcbd 9dad 313e
000002c0: f29b 63be 7d02 733e 462f 483e bd5c 483d
000002d0: 0b15 56be 4b03 8d3d a191 473d d349 833e
000002e0: 03dd 713e 4b69 993d a907 663e d3e6 e53c
000002f0: 7645 6e3e b411 7e3d b164 003e b157 f4bb
00000300: 3bd5 3dbe 0656 51be ca42 8a3e d271 8b3e
00000310: 4e3e 8d3e 9994 3f3e cb4e bcbd 757c 053e
00000320: 9977 59be 1bdf a43d 5e7e 313e 97dd be3d
00000330: d107 56be da1e 2f3e b99f 393e 8ef9 033d
00000340: 566c acbd 759a 1ebc 552c 3ebe 9718 713d
00000350: ed15 4bbe 6682 253d 5b5a 21bd 1a7f 1bbe
00000360: bbea 2cbe 30ec 023e d22b 88bd 3eba 2abe
00000370: 6260 4a3e 5f6a 473e 8c03 4dbe 4184 0b3d
00000380: 2f80 053a a2fc 5cbe 4446 5d3e 6fa1 113e
00000390: 34f4 56be 125a 593e c5a2 49bd 7f19 77be
000003a0: f6da 673e dfd6 5fbe 2b5d 593e 8f58 633e
000003b0: 373a 96be cc4f 52be b550 4b3e 413a 12bd
000003c0: 4538 3c3e ef48 31be ea63 8e3d bae8 81be
000003d0: c793 3d3e 1b36 ca3d 3f18 963d 2de7 aebd
000003e0: d7cf aebd 7f3b 153e 24d3 8bbe c9a0 d13d
000003f0: 7e39 62be 202f 71be 5a0a 543e 9f93 78be
0.09029958 0.2538514 0.03447786 0.056796193 -0.21546699 0.17296185 0.12998334 -0.112109296
0.25111774 -0.18981564 -0.00059211854 -0.11399087 -0.14199637 0.072407484 -0.114421524 -0.026046762
-0.21698217 -0.18053454 0.12937032 0.12462838 -0.1673766 -0.0034940501 -0.07682455 -0.20026118
-0.09567896 -0.15791225 -0.20033568 0.28413528 -0.17963868 -0.14001496 0.20562553 -0.27377984
-0.089485325 -0.24905388 0.1628903 0.086346485 -0.014426356 0.23624414 0.20750436 -0.17058434
-0.20821606 -0.14349185 0.006779063 0.013678766 0.0642908 -0.19261676 0.14545335 0.10558422
-0.16417703 0.0058206227 0.007688722 0.017404716 -0.14876495 0.097568855 -0.11723639 0.20149691
-0.23719327 0.069454335 0.11256667 -0.009840195 -0.19825777 -0.08001716 -0.13705516 -0.26445168
-0.2650452 0.07669131 -0.08536259 0.038759694 -0.06479335 -0.172694 0.27496454 0.21973702
-0.08830418 -0.16481738 0.027365146 0.28973082 0.14669766 0.25931486 0.21600284 0.12905739
-0.14235513 -0.10784618 0.036034174 -0.16105418 0.11368716 0.08951099 -0.054843817 -0.16835447
-0.23833758 -0.2133708 -0.03984322 -0.13700837 -0.031125767 -0.008997143 0.12981063 -0.25578016
0.029321972 0.18836963 -0.090568535 0.29690737 -0.0047175325 -0.2235211 -0.21684437 -0.11835883
0.13748425 0.122047275 -0.17004044 -0.25959253 0.21255589 0.26752883 0.12270872 -0.0018339843
0.23161364 0.19854249 0.10306124 -0.19253911 0.09981371 0.24412827 0.20952936 -0.015719073
-0.09135073 -0.21839143 0.005296697 -0.012023081 -0.08986015 -0.010301207 0.12982917 0.045554504
0.09045091 -0.03335498 0.17422046 0.10133875 0.1829667 -0.044984926 -0.007596881 -0.11139127
-0.044061612 0.29627588 -0.1131121 -0.18734841 0.09766987 -0.22256918 0.05314227 -0.14853305
-0.15790668 0.2738609 0.27318233 -0.2085002 0.022578767 0.112913035 -0.07072084 0.1347564
0.1560026 0.104264654 0.19693711 0.09654346 0.019327823 0.16288285 -0.16668049 0.040365826
0.18579553 -0.0303385 0.07236269 -0.17007332 -0.20584193 -0.111257516 -0.23902296 -0.06993087
0.19547737 -0.19386148 0.11099182 -0.09382953 0.20428705 -0.117350474 -0.123391315 0.17351384
-0.22227457 0.23731418 0.19549283 0.048916567 -0.20906465 0.06885394 0.048722867 0.2564226
0.23619466 0.07490786 0.2246386 0.028064167 0.23268685 0.0620286 0.1253841 -0.0074567427
-0.18538372 -0.20442972 0.2700408 0.27235276 0.27586597 0.1870903 -0.09194716 0.13035758
-0.21237029 0.080503665 0.17333362 0.09319609 -0.20901419 0.17101613 0.18127336 0.032220416
-0.08419101 -0.00968038 -0.18571599 0.05886134 -0.19832583 0.04040756 -0.03939281 -0.15185204
-0.16886418 0.12785411 -0.06648983 -0.16672608 0.1976333 0.19474171 -0.20020884 0.034061674
0.0005092648 -0.21580747 0.21608835 0.14221738 -0.20991594 0.21225765 -0.049227495 -0.2413082
0.2264212 -0.2185931 0.21226947 0.22201751 -0.2934129 -0.20538253 0.19855006 -0.035700087
0.1838084 -0.17312978 0.06952651 -0.2537287 0.18513404 0.09873601 0.07328843 -0.08540187
-0.08535736 0.14573477 -0.27309525 0.102357455 -0.22092244 -0.23553133 0.20707074 -0.24275063

q_head.DAC_block.mamba_blocks.0.conv1d.weight f4 [28, 1, 4]
00000000: 701b 8dbd b81d 94bd 13c4 673d 724e 833e
00000010: 1e1e ff3e 7066 3c3e 3c39 b93e 2c11 31be
00000020: ec54 6dbe b070 e4be 0416 9f3e c7d7 eb3d
00000030: 48d6 663e aca9 133e 947b babe 7d4d aabe
00000040: 56b7 cc3e a436 bdbe 9c3d e03e 544f cfbe
00000050: 0e06 953e 80de 88bb aad5 a13e 46da e1be
00000060: b8e3 d83d 0a75 a0be 7e5a 703e a261 063f
00000070: 382b 8c3d 0420 aa3e 2269 95be fd62 cf3e
00000080: 4c1d 80be 9e8b 853e a9ef 843e eae3 99be
00000090: 8c41 87be 9029 83be 7cd4 623e a54a 79be
000000a0: c00f 3fbc 74fb e13e 873a 06be 3a45 b8bb
000000b0: c636 ff3e d81b a03d eed4 95be 9005 a83e
000000c0: 9854 a13d 004d 99bc b30e b7bb c273 afbe
000000d0: 6cce 3bbe 18bd 053e 31ee 523d e11b 07bf
000000e0: b8af c1be f41c f03e 60f6 b93e 67ac d13e
000000f0: 669d 90be 8428 bc3e 951b e2be a0a6 45be
00000100: 5069 803d 5c12 fb3e a632 923e c2ba 5e3e
00000110: 763f dbbe e03f 6bbd 95f7 b5bd 85d2 933e
00000120: f008 48be 62e9 843e 0143 3a3e 270a 01bf
00000130: d02d 383d 5443 06be de97 773e b40c f5be
00000140: a812 de3e f284 d1be 8232 383d bda1 493e
00000150: f823 5c3e d045 bfbe ccde 54be 7f6d c2be
00000160: ce08 b13e a8d6 843d e7d2 87be c953 8bbe
00000170: 506b c1bd 882e c33e bb3a 103e 5250 8d3e
00000180: e8ea d3be d0fb 633d 7ac0 003f a56c 653e
00000190: 9603 a8be 38e9 e6be a515 d5bd 95ac 48be
000001a0: 104f 233d d8d7 8a3e 7989 99be 999b d1be
000001b0: 1e7b cc3e da1d 8d3e 9982 e3be 9e9f 143e
-0.06889999 -0.07232231 0.056583475 0.25645787 0.49827665 0.18398452 0.3617648 -0.17291707
-0.23176926 -0.44617224 0.31071484 0.11515766 0.2254268 0.14420193 -0.36422408 -0.33262244
0.39983624 -0.3695575 0.43797004 -0.4049021 0.29106182 -0.0041769147 0.31608325 -0.44111842
0.10590309 -0.31339294 0.2347202 0.52492726 0.06844181 0.3322755 -0.29181772 0.4050521
-0.25022352 0.26083082 0.25964096 -0.30056697 -0.26417196 -0.25617647 0.22151369 -0.24344881
-0.01166147 0.44137156 -0.13108264 -0.005623487 0.49846476 0.07817811 -0.29264015 0.32816744
0.07877463 -0.018713474 -0.005586469 -0.34268004 -0.18340462 0.13060415 0.05149669 -0.52776915
-0.37829375 0.4689709 0.36320782 0.40951845 -0.28245085 0.3674966 -0.44161668 -0.19301844
0.06270087 0.49037445 0.28554267 0.2175093 -0.42821854 -0.057433963 -0.08885113 0.2887155
-0.1953466 0.25959307 0.18189622 -0.50406116 0.044965565 -0.13111621 0.24179026 -0.47861254
0.4337361 -0.40921742 0.044970043 0.19690605 0.21498096 -0.3735795 -0.20788115 -0.37974164
0.3457703 0.06486255 -0.26528093 -0.2721236 -0.09444296 0.38121438 0.14084904 0.27600342
-0.41390157 0.05566007 0.50293696 0.22404726 -0.32815236 -0.45099807 -0.10404519 -0.19597085
0.03987032 0.271178 -0.29987696 -0.40939024 0.3993768 0.27561837 -0.44435576 0.14514014

q_head.DAC_block.mamba_blocks.0.conv1d.bias f4 [28]
00000000: 8400 363e ddfd abbd 1c5c 783c fba8 723e
00000010: 328f 6d3e 83a0 c43d 7ec8 edbe 1b23 463e
00000020: ee03 8c3e 4ebe 08bf af72 5bbe 2581 aabe
00000030: 731d a1be 13d3 ccbe f7d5 f03e 2294 5b3e
00000040: 5951 e73c 563c 2abe f9b1 d93e 4cf4 bc3e
00000050: 3fc6 8a3d f13e 2ebe 22a6 bf3e 6ec1 083f
00000060: bfa2 3c3d c14b 473e a23f 00bf b185 edbe
0.17773634 -0.0839803 0.015158679 0.23697273 0.23199156 0.09600928 -0.46442026 0.19349329
0.27346748 -0.5341538 -0.21430467 -0.33301654 -0.3146778 -0.40004787 0.47038242 0.21443227
0.028237032 -0.16624579 0.42518595 0.36905134 0.06776094 -0.17016198 0.37431437 0.5342015
0.046053644 0.19462492 -0.50097096 -0.4639106

q_head.DAC_block.mamba_blocks.0.x_proj.weight f4 [65, 28]
00000000: cae6 153e b1ff 623d de4f db3d 53f5 2c3d
00000010: 8201 403e 40df b33d c1c6 7f3d c30b 243e
00000020: e169 96bd 1d1d 36bc cdea 07be 9063 81bd
00000030: 7730 96bd 0bcb 16bd 0de4 c43d 7462 d1bd
00000040: f6ff 54bd 93c5 803c d116 273d a85a 063e
00000050: c646 483e db4b ad3c bf81 ccbd 60b6 c1bd
00000060: 2b2d 193e 2f0b f53d 2c50 fbbd 2f92 bebc
00000070: ec9f 653d 8cef 203d 521b 4f3c d2c7 04be
00000080: 6781 c0bd bee5 ff3d 65d8 f83c 8253 29be
00000090: 7225 3fbe 7558 76bd 1f34 01be 309e 9f3d
000000a0: 2490 1c3d c0c7 6d3d 29ac 68be d259 57be
000000b0: d91a b7bc 15fa b83d a599 363d 5571 d93d
000000c0: c381 30bd d322 c9bb e590 14bd 4b24 5bbe
000000d0: 225a f53d 6958 6bbe 13a3 f73d 5730 353e
000000e0: 4d4f debb d896 e23d 51e1 40bd 7eaa 3ebe
000000f0: b193 55bd 34a4 e43d 9bc3 373e 9645 1f3e
00000100: b7c4 b43d f718 693d 2516 993c 66f1 253e
00000110: 3fc7 da3d 2d45 913d 5cbf 033d a712 863d
00000120: ee52 b9bc d88d aebd b301 d03d 13fb f63d
00000130: a5ab e33c 7286 243e d00e 7f3d bd41 36be
00000140: c8f4 d23c 088b e23d f089 4a3e 85f2 443e
00000150: 16ba c73d 9ce7 f0bd ed1f c2bd 073a 0bbd
00000160: e9a7 a43b 2ee2 2abe 1815 29be 8768 2c3e
00000170: 2075 c73d 17c2 45be 044b de3d d9f6 f23d
00000180: aaa3 16bd 7e96 c5bd 026a 17be fee2 0c3e
00000190: 0408 68bc 065f 883d 84f0 3f3e ab4d 403e
000001a0: ba51 c23d f84e 2ebe 1e8a 2e3b 4732 ab3d
000001b0: b7da a23d 2415 6bbc 3267 66bd 450a 03be
000001c0: f5ee 533c 50a6 c9bd 1ecd b73d fce6 873d
000001d0: 3f75 5a3e 3552 cb3d 27fe 12be 5318 6b3d
000001e0: f91c d93d b557 8ebd 51d9 df3d 905b 25be
000001f0: 6e4d a0bd d3ab bebd 3d09 e5bc d6df 583d
00000200: d772 c43d 8f02 bfbd 9edf 213e 79d2 b73d
00000210: 1728 9fbd 4d8c 1e3d 5fd3 373e a8c2 293e
00000220: a017 d938 6364 1cbe 0eff 843d add5 8c3d
00000230: d5a8 19be 250c 133e 2688 f4bc 8cf0 b9bd
00000240: 91dc 503c f6ef 4d3e 7c0a ac3d 3bf4 fa3d
00000250: bd4e 123e bd17 493e 5c2e 92bd 243f c93d
00000260: b2b9 edbd 4533 563d 829c 4cbd 996b 60be
00000270: ce25 4abe 478a f9bc 00f0 b7bd 397d 36bc
00000280: 44fa 53be bc2d 1d3e 9232 4fbe feb6 a4bd
00000290: cdc8 003d 2c44 54be 9506 973d a6c0 513c
000002a0: 4149 9e3d 5bee 16be c512 b43a 42c6 1fbe
000002b0: 2377 57be 1965 6c3d d05f f63d abc7 5abe
000002c0: 7ccb 573d 8914 52bb 81fb 99bd e7af 633e
000002d0: f1d1 863d 5356 87bd 33da 883c 68d8 b0bd
000002e0: 7eaa a03c e04a b03c 98c2 5cbe e432 3bbd
000002f0: 4747 b93b c643 ae3c 0700 113e 837d e4bd
00000300: 7d8b 29be 5c6b 48be 1fde f33c 2b03 d03d
00000310: 3804 50bd 812c 38be 1489 31be effc 02bd
00000320: 05df 01be 8921 1cbe 2ea5 a23d 5214 47bd
00000330: d1cc c9bc 59e8 ad3d 7363 e3bd ce31 0e3e
00000340: d869 f9bc dbee 32be ce5f 88bd c549 513e
00000350: 2e94 20bd d09c 31be edb1 6f3c dc39 363e
00000360: 087a 303e 4006 f3bc 5b0f 523e 9f49 01be
00000370: 237f 16be 62ac c0bd da93 093e 16ec 7b3c
00000380: 2d7f af3d 3b58 d03d 0b00 f6bd 3751 c13a
00000390: c729 333e 5ddc 33be 900a 743c 4af2 da3d
000003a0: 49d9 403e 83e7 98bd cb06 93bd 22be fabd
000003b0: 65e4 f23d b96b a83d 1505 123e d94f 343e
000003c0: de20 a5bc 4bff c83d 144d af3c f3f1 5c3e
000003d0: 4bc5 ef3d 2327 acbc 5ef5 b23d 00c1 8b3d
000003e0: f73d 8ebd 8ca5 3d3d 20ef 05be 650e b1bd
000003f0: 677a 17be 7100 163c 8d1e 733d 63fe ce3c
0.1463882 0.055419628 0.10708593 0.042226147 0.18750575 0.08782816 0.062445406 0.16020112
-0.073444135 -0.01111534 -0.13273163 -0.06317818 -0.07333463 -0.03681473 0.0961381 -0.102238566
-0.052001916 0.01571921 0.040793244 0.1312052 0.19558248 0.021154335 -0.099856846 -0.094586134
0.14958636 0.11965024 -0.12271151 -0.023263065 0.056060717 0.03929095 0.012640791 -0.1296685
-0.093996815 0.12494992 0.030376622 -0.16535762 -0.18666628 -0.060142953 -0.12617539 0.07793844
0.0382234 0.058051825 -0.22721924 -0.21030357 -0.02235167 0.09032074 0.04458012 0.106173195
-0.0430925 -0.0061381846 -0.036270995 -0.21400563 0.11980082 -0.22982945 0.12091651 0.17694221
-0.0067843557 0.110639274 -0.04708988 -0.18619725 -0.052142803 0.11164132 0.17945711 0.15553889
0.08826583 0.056908574 0.018687317 0.16205367 0.106825344 0.07093272 0.032164916 0.065465264
-0.022622552 -0.08523148 0.10156574 0.12059607 0.027791807 0.16066912 0.062269986 -0.17798515
0.025751486 0.11061674 0.19779181 0.19233139 0.0975229 -0.11762926 -0.094787456 -0.033990886
0.0050248993 -0.16687843 -0.16511953 0.16836749 0.09739137 -0.1931232 0.10854152 0.11863489
-0.036777176 -0.09647845 -0.14786533 0.13758466 -0.014162067 0.06658749 0.18744093 0.18779628
0.09488244 -0.17022312 0.0026632617 0.08359199 0.07951873 -0.014348302 -0.05625076 -0.12796886
0.01293539 -0.09846175 0.0897467 0.06635854 0.21333788 0.09927789 -0.14354764 0.057396244
0.10601229 -0.069503225 0.10930122 -0.1614821 -0.078272685 -0.093101166 -0.027958507 0.05294784
0.095922165 -0.0932666 0.1580796 0.08975691 -0.077713184 0.03870802 0.17951725 0.16578162
0.00010351767 -0.1527267 0.0649396 0.06876693 -0.1500581 0.14360102 -0.029850077 -0.09079084
0.0127479 0.20111069 0.08400437 0.122536145 0.14287849 0.19637962 -0.071377486 0.09826496
-0.11607684 0.05229499 -0.049953945 -0.21916045 -0.19740984 -0.030461444 -0.08981323 -0.011138254
-0.20700938 0.15349478 -0.20234135 -0.080427155 0.0314415 -0.2072913 0.07374302 0.012802279
0.07728816 -0.14739363 0.0013738504 -0.15602973 -0.21041541 0.0577136 0.120299935 -0.2136523
0.052684292 -0.0032055697 -0.07518674 0.2223507 0.06583012 -0.06608262 0.016705608 -0.08635026
0.019612547 0.021520078 -0.21558607 -0.04570283 0.005654249 0.021272551 0.14160167 -0.11156752
-0.16557117 -0.19572204 0.029769002 0.10156854 -0.050785273 -0.17985727 -0.17337447 -0.031979498
-0.12682731 -0.15247168 0.07941662 -0.048603363 -0.024633797 0.084915824 -0.11102953 0.13886186
-0.030445978 -0.17473929 -0.06658898 0.20438297 -0.039203815 -0.17344975 0.014629823 0.17795509
0.17234051 -0.029666066 0.2051367 -0.1262574 -0.14696936 -0.094078794 0.13435307 0.0153761115
0.08569179 0.101730786 -0.12011727 0.0014748935 0.17496406 -0.1756453 0.014895096 0.10690744
0.18832888 -0.07466032 -0.0717903 -0.12243296 0.11859969 0.082236715 0.14259751 0.17608584
-0.020157274 0.09814318 0.021399058 0.21576671 0.117075525 -0.021014756 0.08738206 0.06823921
-0.069454126 0.046300456 -0.130795 -0.08645324 -0.14792787 0.009155379 0.059355307 0.025267785

q_head.DAC_block.mamba_blocks.0.dt_proj.weight f4 [28, 1]
00000000: ad10 b0be 5e93 89be 16ea e33d 1ac5 463e
00000010: fbac 573f 4a51 3dbf eb59 0dbf 4c16 01be
00000020: 9b84 3c3f f711 5e3f 8db4 20be 6eeb c7be
00000030: 650c 633f 4e6c 98bd e2fd 53bd 397c ee3c
00000040: 16c7 dabe 3ff0 193f 053d 8e3e d382 21bf
00000050: d34d 803f 8abe 3fbf 26a5 1bbd 7579 453f
00000060: c163 09bf f862 bd3b fef0 483f f041 1abf
-0.34387723 -0.26870245 0.11128633 0.19411126 0.8424832 -0.7395216 -0.5521533 -0.12606162
0.7363984 0.8674616 -0.15693875 -0.39046806 0.8869079 -0.074425325 -0.051755793 0.029111968
-0.42730016 0.6013221 0.2778093 -0.63090247 1.002375 -0.74900115 -0.037999295 0.77138454
-0.5366784 0.0057796203 0.78492725 -0.6025686

q_head.DAC_block.mamba_blocks.0.dt_proj.bias f4 [28]
00000000: f559 5cc0 f659 a0c0 168b b8c0 056f a6c0
00000010: 99cb c1c0 6b62 6fc0 a968 d1c0 d347 98c0
00000020: edce 79c0 ca5f 42c0 bd08 9ec0 9858 83c0
00000030: fd08 a7c0 7cb0 53c0 3a74 7ac0 8856 afc0
00000040: f139 9bc0 a985 bdc0 291b 12c0 05ce 95c0
00000050: 32b8 1bc0 e4e8 dcc0 26ca b6c0 97c1 a6c0
00000060: 56e9 0ec0 73e6 cfc0 3a6c c4c0 6726 13c0
-3.4429905 -5.0109816 -5.7669783 -5.201052 -6.056103 -3.740382 -6.544026 -4.7587676
-3.9032547 -3.0370965 -4.9385667 -4.1045647 -5.219847 -3.3076468 -3.913344 -5.479313
-4.850823 -5.922566 -2.2829077 -4.681399 -2.4331174 -6.903429 -5.7121763 -5.2111316
-2.2329917 -6.496881 -6.1382113 -2.299219

q_head.DAC_block.mamba_blocks.0.out_proj.weight f4 [14, 28]
00000000: 619f 1e3d c525 803d 820c ee3d 8112 3b3d
00000010: 1832 ba3d ef58 c5bd f58a 273e fc44 1fbe
00000020: 4bb9 b13d 4a3c 0e3c a451 03be 6f64 08be
00000030: 928c 5cbd 0648 2c3e e1da 2f3e 1a46 073d
00000040: 41f0 44be 2d33 83bd a000 023d a0de e6bd
00000050: e1cc 36be ba37 4b3d c9be 86bd 9581 5a3d
00000060: 7170 913c 5107 0ebe 6a64 50be 486f 30be
00000070: 9499 34be 2eac 05be 6484 523e 0b48 e8bd
00000080: c72d 173e e002 37bd a33b 683d 8d06 f5bc
00000090: ba55 25be 2e60 44be dd84 f5bc 9585 c83d
000000a0: 3ebc cf3d 372c 72bd 2927 2bbe c57f d43d
000000b0: 797e b53d 2a6d 873d 836a 2e3e 06f0 ce3d
000000c0: 1f10 22be 4d2c ca3d 484c 3bbe f135 86bd
000000d0: 1326 f33d ccc0 ffbd 4137 343e 2a67 26bd
000000e0: c27d 1f3e 75b8 c93c 92d7 b2bc 3d46 b63c
000000f0: 62db eebd 1f5d a0bd da5b 243e 7853 4fbd
00000100: 7063 1b3e 1c57 1f3d 70cb 19bc 7ca3 28be
00000110: 29e2 13be 44e0 233e a1bf 263e a0e0 05be
00000120: dc4a 173d 34c3 43be ee64 053e 5dc8 0cbc
00000130: c6c0 123e cb4d 233e cd04 10be 8d26 02bd
00000140: 04d9 0bbe 0e6f 2d3e 3dac 493d 9791 833d
00000150: 9d4b bd3d 3035 423d 37ab 11be 7683 3bbe
00000160: 25b6 56be 7c57 bdbd b649 16bd 2d1c c03d
00000170: c629 8a3d 5081 ba3d e0d6 5cbd 60b0 30be
00000180: 4420 183e 8cae 23bc cd8c 72bd 9665 19be
00000190: 06fc 45bc 595f 863d 151a a4bc b4a5 1ebe
000001a0: 281d ee3d 73ba 21be bd8b 393e 1fb1 53bc
000001b0: ed76 44be f084 4fbd abce 48be cf1c 333e
000001c0: 7035 83bc ce41 9cbc 6db6 1bbe 05f7 b1bb
000001d0: 1441 513d 32d1 30bd 1476 dc3d 1462 9fbd
000001e0: a496 59bd 46c7 483e eaa7 023e 797a c2bd
000001f0: dde9 f23d 9db7 7d3d e77e 8a3d 668b 5c3e
00000200: 73fc 093e d029 d6bc 48d1 903d 31c8 513e
00000210: 6fa3 ce3d 00bf 10be 43c0 b8bd 5803 403e
00000220: 6946 9ebd ba22 373e 1e3f da3d 39ba f23d
00000230: fb76 fb3c 0497 2ebe 42c6 2bbe a024 f9bd
00000240: ab7a 973d c1e5 ebbd 1ea5 5d3e e1e9 54be
00000250: dbaa e43d d068 f93c 8d5a 573e 5a32 0fbe
00000260: aad5 1f39 ffb4 853d c6c8 a7bd 9111 e13b
00000270: 8dbe 033e 1741 45be dfcc 0c3e 3049 c23d
00000280: 1efd 07be 8aac b43d fd78 f9bd 5b27 ce3d
00000290: 8b41 c3bd e853 463e 3708 5cbe c990 0c3e
000002a0: 906f a8bd 2b06 453e 16c8 0a3e a81a b5bd
000002b0: 179a e53d 4036 44be a8d5 c9bd 5450 733d
000002c0: 2ab8 a9bd b53d 50be 152d 0fbe 611c aa3c
000002d0: bbbd 25be 1a33 c13d 10eb 9cbd 5942 1c3e
000002e0: f62e 023e 54cd 113e f4bc ab3d 1e8f 803d
000002f0: 5a6a ea3d 0d74 a93b 5939 c53d 8f59 e13d
00000300: c095 0a3e 03ef 29be 92cc 5bbd 124a e6bd
00000310: f386 333e e55f 823d 5522 8bbd 215c 1fbe
00000320: fe43 a9bc bc0d 14be 262d 013e 3412 31be
00000330: da3b 193e 0057 9a3c b2fb 103e c730 403d
00000340: 24a1 4e3e 3486 93bc a042 f5bd 663a 03be
00000350: 9477 f6bc c28e 6d3d eab9 ce3b 9d9b 4c3b
00000360: 760b 24bc f884 b5bd 5fe6 b5bd 4a31 603c
00000370: f76d 1bbe b97a 53bd 34cb 02be 6ae6 b93c
00000380: 6c0e 1e3e 7e8b 2bbe d736 60bc 1f5c 393d
00000390: 950b d03d 69a8 123e 8fa6 043d e319 9abd
000003a0: cb4c e8bd 6825 fc3d 7440 22be f447 bc3c
000003b0: 940d 05be ead3 1e3e fa6b 8ebd 4e43 043e
000003c0: 64b0 233c 23f3 adbb 2718 363e a09f 823d
000003d0: 8260 13be d4cf f3bc fc04 573d f44a 883d
000003e0: ca82 a53d 14a5 223e 8068 b8bd 4b3c 2d3e
000003f0: 94eb 08be 6745 903c ae80 493e 8dcb acbb
0.038726214 0.06257204 0.116234794 0.045671944 0.09091586 -0.09636103 0.16361602 -0.15553659
0.0867792 0.008681366 -0.12824112 -0.13319562 -0.053844996 0.1682435 0.1717334 0.03302584
-0.19232275 -0.064062454 0.031738877 -0.11272931 -0.17851593 0.049613692 -0.06579358 0.053346235
0.017753812 -0.13869978 -0.20350805 -0.1722995 -0.1763671 -0.13053963 0.20558316 -0.11341866
0.14763556 -0.044680476 0.0566975 -0.02991035 -0.16145983 -0.19177315 -0.02997058 0.09791104
0.10143326 -0.059124198 -0.16714157 0.103759326 0.08862013 0.06612618 0.17032818 0.101043746
-0.15826462 0.09871731 -0.18290818 -0.06553257 0.118724965 -0.12487945 0.17599203 -0.04062573
0.15575317 0.024624089 -0.021831308 0.02225029 -0.11662938 -0.078302614 0.16050664 -0.05061671
0.15174651 0.038901433 -0.009386882 -0.16468614 -0.14441742 0.1600352 0.16284038 -0.13073969
0.036936626 -0.19117433 0.13026783 -0.008592692 0.1433135 0.15947644 -0.14064331 -0.031775046
-0.13657004 0.16936895 0.049236525 0.064242534 0.09242938 0.047414005 -0.1422547 -0.18311867
-0.2096792 -0.09245202 -0.03669139 0.09380374 0.06746249 0.09106696 -0.05391586 -0.17254782
0.14856058 -0.009990346 -0.05921631 -0.14980158 -0.012084013 0.06561155 -0.020031968 -0.15492898
0.11626655 -0.15793781 0.18119712 -0.012920647 -0.19185992 -0.05066389 -0.19610088 0.17491458
-0.016016692 -0.019074347 -0.15206309 -0.0054310584 0.051087454 -0.043168254 0.10764709 -0.07782379
-0.053122178 0.19607267 0.12759367 -0.09496016 0.11861012 0.061942685 0.06762486 0.21537551
0.13475208 -0.026142985 0.07071167 0.20486523 0.10089766 -0.1413536 -0.09021046 0.18751276
-0.077282734 0.17884341 0.1065657 0.118519254 0.030696383 -0.17049795 -0.16774848 -0.12165189
0.07396444 -0.115184315 0.21645018 -0.20792343 0.111654006 0.030445486 0.21030636 -0.13984051
0.00015243018 0.06528663 -0.08192591 0.006868549 0.12865658 -0.19263111 0.13750027 0.09486616
-0.1328015 0.08821972 -0.1218128 0.100661 -0.09533986 0.19367945 -0.21487509 0.13727106
-0.08224404 0.19240634 0.13552889 -0.08842975 0.11211031 -0.1916132 -0.09855205 0.05940278
-0.0828708 -0.2033604 -0.13982041 0.020765485 -0.16185658 0.09433575 -0.07662022 0.15259685
0.12713227 0.14238483 0.08385649 0.062772974 0.11446066 0.005171305 0.09630079 0.1100341
0.13533688 -0.16595082 -0.05366189 -0.112445965 0.17531948 0.06365947 -0.06793658 -0.15562488
-0.020662304 -0.14458364 0.12614879 -0.172921 0.14964238 0.018840313 0.14158514 0.046921518
0.20178658 -0.018008329 -0.11975598 -0.12815246 -0.030086316 0.057997473 0.006308784 0.0031220682
-0.010012498 -0.088632524 -0.088818304 0.013683626 -0.15178667 -0.05163071 -0.12772828 0.022692878
0.15435189 -0.16752431 -0.01368495 0.04525387 0.10158459 0.14322056 0.032385405 -0.07524469
-0.11342772 0.12311822 -0.158449 0.022983529 -0.12993461 0.15510526 -0.06954189 0.129163
0.009990785 -0.005308525 0.17782651 0.06378102 -0.14392284 -0.029762186 0.052494988 0.06654921
0.08081587 0.15883285 -0.09004307 0.16917531 -0.13371116 0.017611219 0.19677994 -0.0052732886

q_head.DAC_block.ff1.weight f4 [32, 14]
00000000: 224b df3d 3b4c 23be 3f47 f1bd 8bcd 2e3e
00000010: d887 143e a064 883d f0c3 fcbd f5e3 1d3e
00000020: 637e 5cbe 8ed5 693b 7e00 95bd f100 f5bd
00000030: e8c6 5f3e ea5a ab3d bf56 11be 8222 fd3d
00000040: 91ed f33c 9362 383e ae4f 34be c0ab 333e
00000050: 30c7 2ebe 28f1 24be 342c babd 8fdd 0fbd
00000060: 6b0b e23d a9ac 113e af37 82be 48fa 5b3d
00000070: efa8 843d cb83 97bc bafc 793e be12 01be
00000080: 0cb6 2a3e 71d5 d2bd c6d5 553d af23 36be
00000090: a9b0 a23d 4900 50be 7a49 2f3c 2b9c f6bd
000000a0: 1b37 5cbe f078 71be e82c 07be b69c 5fbd
000000b0: f147 5cbe 46e2 51be 00c7 88be aa61 033e
000000c0: 25d7 7e3e 8693 28be 7c03 ad3d 7317 9f3d
000000d0: 9072 9dbe 6b70 30be 2cdb 1bbe 59fd b2bd
000000e0: d4c5 00bd 4ac5 e53d e369 f03d e6a5 02be
000000f0: 60fd 693e e6b4 3abc e1e1 743e 3c42 6dbe
00000100: fbb2 da3c 513f 3dbe 466a 1ebe 4b08 113e
00000110: 101f 043e f104 4ebe a147 1abe 5e5a dabc
00000120: c0ef a5bd 2300 e8bd 7033 6d3e 72d1 91be
00000130: 51f5 e43d 3321 2d3e 6dca bb3d 4691 82bd
00000140: de5e 34be 9d2d b13c 2ce2 403e b8fa 153e
00000150: f91b 733e 47c1 75be a640 29be 95ed 7b3e
00000160: 4219 113e ad02 08be ebed 2abb bf80 71bc
00000170: f472 b7bd 950e 3dbe 53a7 55be 34c7 8fbe
00000180: 1a81 2e3e 2f63 48bc a70e 813e 61b2 323e
00000190: 5dfb 12bc 7e64 013e 78ee e9bd 3972 e43d
000001a0: 2670 4ebe 0111 08be 1061 453e e5da 2bbe
000001b0: 5bf5 83be 3a90 8ebe 2621 efbd 6fce 493e
000001c0: 0c84 8cbe 1fdf 813e 6630 883c 4ff9 24be
000001d0: 5d80 bcbd ac30 1e3d a1be 483e 048e 5fbe
000001e0: 7414 e93d e7f3 7c3e edb2 24bd b63d 003e
000001f0: d77e 96be 6770 873d b0b2 cd3d 94f6 4e3e
00000200: 068f 813e 13af 0c3e 19c5 cf3d 66b7 fa3d
00000210: be3a 8a3d 4a09 923e 62b9 313e 9b77 6e3e
00000220: 294a 053e e019 47bd aff7 743e 27bb e5bd
00000230: 67d2 e13b 16bb 0fbe 5bc8 503e 1d9c e9bd
00000240: 666a 383e 6a76 8d3c 6fcc 2ebe 3010 7dbe
00000250: a354 fc3d 881f 3d3e 4553 1d3e 620f 293e
00000260: 1491 8e3d 2c01 e9bd e28b 36be c44a 40be
00000270: 8ca4 40be 6d1a 7fbe 89de 48bc b1d2 57be
00000280: cbeb 2bbe f41c adbd beec 663e 9a42 c53d
00000290: 6b87 4a3e 9ab7 853e 508d 8abc 57d1 9a3d
000002a0: a0eb 073e b98a d1bd 2c8e 2a3e 728c 48be
000002b0: 9150 543e f132 d1bd 00d4 383e c6b3 6abe
000002c0: e47a eabd 8072 15bd a396 4c3d 4433 a0bd
000002d0: 5022 26be 5cc8 cc3d 8d92 a8bd a416 49be
000002e0: 9d00 0bbe f6ae abbd 9b1b 283e eee7 5d3e
000002f0: 7575 4e3e d15b 783e 7956 383e 6c13 9c3c
00000300: 78ba 0e3e 0b88 c03c 8e35 a13d 4bf6 b9bd
00000310: bd2a 863e fb08 32be 647a 8e3e 5767 733d
00000320: 861a bf3d 9129 29bd d004 4abe 21a1 f43d
00000330: 0417 4c3e 9687 553e 28ab c23b 829d ce3d
00000340: ee24 76be 30cd 803e a076 643e 9fd5 03be
00000350: fa39 5dbe 12a7 4dbe ce18 a8bd 2399 4b3e
00000360: 5284 e93d cf5f 953d 24d4 f5bd ad04 eb3d
00000370: bf22 e5bd 2ee4 813e 9fb2 223e 4db4 2abe
00000380: f73f 95be 1902 80bd 951a 183e 090c 3d3e
00000390: 3d58 91be 528e 3dbe 57f6 d5bd 42b7 103e
000003a0: 1ce9 49bd 91aa ab3d c809 9cbe 502e 34be
000003b0: 92e0 193e 40dd 21be b8a5 4abe c0c2 423d
000003c0: ceaf 15be 6ecf 9cbd aa41 89be f5be 84be
000003d0: fec6 833e dd85 893d 29aa 1bbe cb9f 423e
000003e0: 3db7 29bd e584 503e e6da 663e 57a4 383e
000003f0: 61a0 1f3e 984d 5ebe 1e58 5abe bd7a 54be
0.10903002 -0.15947048 -0.11781167 0.17070596 0.14504945 0.06659818 -0.123420596 0.1541899
-0.21532588 0.0035680267 -0.072754845 -0.1196307 0.2185322 0.0836695 -0.14193247 0.123600975
0.029776366 0.18006353 -0.1760852 0.17545986 -0.17068172 -0.16107619 -0.09090462 -0.035123404
0.11037334 0.14226021 -0.25433108 0.053705484 0.06477534 -0.018495461 0.24412814 -0.12604806
0.16671008 -0.10294617 0.052205823 -0.1778705 0.079438515 -0.20312609 0.0106986705 -0.120415054
-0.21505396 -0.2358129 -0.13200724 -0.05459281 -0.21511818 -0.20496473 -0.26714325 0.12830225
0.24886759 -0.16462526 0.0844793 0.077681445 -0.30751467 -0.17230384 -0.15220326 -0.087397285
-0.031438664 0.112192705 0.11738946 -0.12758598 0.22850561 -0.011395669 0.23914291 -0.23169798
0.026696673 -0.18481185 -0.15470228 0.1416332 0.12902474 -0.20119072 -0.15066387 -0.026654419
-0.08102369 -0.11328151 0.23164153 -0.28480107 0.11179603 0.16907196 0.09169469 -0.06375365
-0.17614314 0.021628195 0.18836278 0.14646423 0.2374114 -0.2399951 -0.16528568 0.24602349
0.14169791 -0.1328227 -0.0026081752 -0.014740168 -0.089574724 -0.18462594 -0.2086461 -0.28081667
0.17041436 -0.012230678 0.2520649 0.17450859 -0.0089710625 0.12635991 -0.114224374 0.11154599
-0.20159969 -0.13287736 0.19275308 -0.1678272 -0.2577313 -0.2784441 -0.116762444 0.19707654
-0.27444494 0.2536554 0.01662464 -0.16110729 -0.09204171 0.038620636 0.19603969 -0.21831518
0.11380854 0.24702416 -0.0402097 0.12523541 -0.29393646 0.06613236 0.100438476 0.2021125
0.2530443 0.1373866 0.10145015 0.12242012 0.067494854 0.28522712 0.17355874 0.23287813
0.13016571 -0.04860866 0.23922609 -0.11217337 0.006891537 -0.14036211 0.2038893 -0.11406729
0.18009338 0.017268378 -0.17070173 -0.24713206 0.12320831 0.1846906 0.15363796 0.16509774
0.06961265 -0.11377177 -0.17826799 -0.18778521 -0.1881277 -0.24912424 -0.012260088 -0.21076466
-0.16789167 -0.08452788 0.22551247 0.09631844 0.1977822 0.2611664 -0.016913086 0.0755946
0.13273478 -0.10231537 0.16655797 -0.19584826 0.20733859 -0.102147944 0.18049622 -0.2292014
-0.11449221 -0.03648615 0.049948346 -0.07822278 -0.16224027 0.09999153 -0.08231077 -0.19637543
-0.13574453 -0.083829805 0.1641678 0.21670505 0.20161994 0.24253775 0.18001737 0.01905223
0.1393832 0.02350237 0.07871543 -0.0908018 0.26204482 -0.17386238 0.27827752 0.059424724
0.09331231 -0.041299406 -0.19728398 0.119447954 0.19930655 0.20852503 0.0059408136 0.10088636
-0.24037525 0.25156546 0.22310877 -0.12874459 -0.21604148 -0.20083264 -0.08207856 0.19882636
0.11402191 0.07293665 -0.12003353 0.11475501 -0.11188268 0.253694 0.15888451 -0.16670342
-0.29150364 -0.062504 0.1485389 0.18461622 -0.28387633 -0.18511322 -0.10447376 0.14132407
-0.049294576 0.08382142 -0.30476213 -0.17595792 0.15027073 -0.15807056 -0.19789779 0.04754901
-0.14617845 -0.076567516 -0.2680791 -0.2592694 0.25737756 0.067149855 -0.1520163 0.19006269
-0.041434515 0.20363195 0.2254444 0.1803144 0.15588523 -0.21709287 -0.21322677 -0.20749946

q_head.DAC_block.ff1.bias f4 [32]
00000000: 0688 32be 4510 bdbd dddd d4bd b972 383e
00000010: b4d8 48be f9dd 7bbe b9c0 2b3e f05a 17be
00000020: 3618 ab3d 56b2 55be 9891 4e3e 4ebd ed3d
00000030: d3f3 48be 0d74 063e 1791 1d3e 7c69 2c3e
00000040: fd36 7e3e 98d8 0f3d a140 a53d fcc3 633e
00000050: 0fc1 70be c1d9 85be d48d 8cbe 9b90 923e
00000060: a1de 113e 72c5 46be 1b9c 3e3d 75fc a4bc
00000070: 0a78 5abe e013 4d3e a923 333e d656 67be
-0.17434701 -0.09231619 -0.103938796 0.18012513 -0.19613916 -0.24596395 0.16772737 -0.14780784
0.08354227 -0.20868811 0.20172727 0.11608373 -0.19624262 0.13130207 0.15387379 0.16837114
0.24825664 0.03511867 0.080689676 0.22242731 -0.23511146 -0.26142696 -0.27451956 0.2862595
0.14245082 -0.19411257 0.046535593 -0.020139912 -0.21334854 0.20027113 0.17494072 -0.22591719

q_head.DAC_block.ff2.weight f4 [16, 32]
00000000: fb89 82bd 3ef1 14be 46fc d0bc b3d9 42be
00000010: 222f c8bd dae4 77bc f1d0 923d 1df9 06be
00000020: efcb f13c 3b12 d0bd 5a11 33be 5213 f63d
00000030: eb4d 033e 8d2e 85bd c6fd 12be 79c3 533d
00000040: 4934 813d ce5e a73d f668 babd b09c dbbd
00000050: f040 f33d 8dcf 023d 750c 1c3e 63b8 123e
00000060: 1799 6fbd de94 7f3d a7c5 0ebd d1ef 2e3e
00000070: d635 04be 8a28 2f3d 58ee 923d a214 8e3c
00000080: b787 163c 9f84 233e 78d4 f53d b6aa 403d
00000090: 7de9 de3d c60a adbd 8c61 0f3e 8456 623d
000000a0: 64a0 c53c ab16 503e 04fe 3b3d 5b2f 033b
000000b0: 0e05 97bd 1946 c43d 52c0 9c3d e50f 533d
000000c0: 5d42 35bd 4e49 03bd a5d1 ed3d b110 c7bd
000000d0: a267 cdbd ec04 413e 2bfc a93d 5bc2 073e
000000e0: 096d e73d fdf9 2f3e 38bd 22be d8a2 41bc
000000f0: 070f 7abd 710c b3bc 95de 463d 02a9 923d
00000100: 395c 13be f46e 0dbe 561e 093c c243 883c
00000110: ec91 e83d f11a e63c d721 11be 4ef4 f83d
00000120: 27f3 10be 25a5 ca3c 234d c1bd 0394 1ebe
00000130: 8613 01be 7011 fdbc 00f1 b43d ad53 9c3d
00000140: e478 10be 4247 5bbe 0f85 4ebd 69e1 853b
00000150: c4fb 223e 6a80 513e 7057 2a3e 8f9e dabd
00000160: c374 02be 3daa 0f3e 7ab1 0cbd 3f85 49bd
00000170: 7a96 c93d b8e1 c0bc 0e75 88bd fe0a 16bd
00000180: d77c 383d d70b 243e cdee 2b3e 0558 743d
00000190: f2e3 fbbd 90d5 483e 99d3 fa3d a972 85bd
000001a0: d11e 1fbe b06a c73d 05c7 90bd 03bd c2bc
000001b0: 7b02 993d 9681 3dbd dd88 233d 2fe8 d5bd
000001c0: a23d 8a3d 81ba a23d 620f 043e 7788 efbb
000001d0: beda d83c 63e3 043e e9e5 173e 26c5 28be
000001e0: 8f0e b13c d20d 443e 2f5e 1abd 28b0 b03c
000001f0: 636a d2bd 0f74 fabd a1a3 23bd db26 1dbd
00000200: b120 08be d3b5 4f3e eef6 04be 2134 04be
00000210: e3e0 57bc bf54 14be 1a8b 0c3e 134f f93d
00000220: cd67 dbbd 4731 cdbd b504 de3c bdc4 1abe
00000230: 9d21 afbc 7fd8 013d 754b 40bd b7b1 aabb
00000240: b4b5 003e a360 49bd 4d50 cc3d 09a5 17be
00000250: a6ff 92bd 9fbd f73c a4ac 05be 0d8e 1fbe
00000260: 3180 82bd 682a cdbd bf31 c33d 5462 36bd
00000270: 1ccb e43d 02a6 2e3d 2c63 543c 953d c0bd
00000280: 4c8e 353e 0e3b 1c3e bac1 b43d a1e6 8f3b
00000290: 0f90 093e bb7a f03a 6b1a 2c3d 677a 413c
000002a0: 2785 f5bd 0b6d 543d 3382 aa3d 0b35 12be
000002b0: 477e 4a3d 089b 61bd 6866 a5bc 6d92 f9bd
000002c0: 2ed1 2abe d6cd 853d ed95 cbbd 540d f13d
000002d0: 2930 c93c 251f 13be 6e0e 7ebd 07ad dbbd
000002e0: 4766 1e39 a825 4cbd e219 3fbe 189a 2e3e
000002f0: f0d1 6ebd 96b3 46be ffa1 df3d 9db5 13be
00000300: 5c2d 9ebd f615 e9bd d877 123e 9019 083e
00000310: c681 d7bd b9c1 98bd 7331 6e3d 2316 6b3c
00000320: be2a b6bd 7ad1 1fbc b0b0 21be ee53 54be
00000330: e1d3 12be 8693 033e 0c7f 143e e2aa 3bbd
00000340: 236a 2fbe 2745 223d f50e 76bd e20c 9a3d
00000350: 400b 1d3e 0e4f 263d 66e5 42bd 2aec 11be
00000360: 72ed f83c e342 88bc 9d49 cf3d 7ffc 6ebd
00000370: c835 d73d 72bb b3bc 2024 813d 139c eabd
00000380: 9fec 83bd 3a65 aabc d5de 243e 7c65 14be
00000390: a6ec 123e 078b 4a3e 46d5 53bd 6e31 19bd
000003a0: bd4b f83d b51a 063e b337 3cbe b65e c53c
000003b0: 04d5 423e e944 51bd 0f63 e0bd abde e23d
000003c0: d55a de3d 56d7 57be a267 323d cb01 a5bb
000003d0: 716e 713d e03b 753d 3bd8 cc3d af30 033e
000003e0: 8f12 d9bd aa2d 533d f8c8 683d 7bbd 323e
000003f0: 5db4 2a3e d576 b53d 4741 4e3d 4b1a 233e
-0.06373974 -0.14545152 -0.025510918 -0.19028358 -0.09774615 -0.015130246 0.07168759 -0.13180967
0.029516188 -0.10159727 -0.17487088 0.12015404 0.12822692 -0.065030195 -0.1435462 0.05170009
0.06308801 0.081723794 -0.09102051 -0.10723245 0.1187762 0.031936217 0.15239127 0.1432815
-0.058495607 0.06239783 -0.034856465 0.1708367 -0.12911162 0.04276327 0.07174367 0.017343823
0.00918763 0.1596856 0.12003416 0.047037803 0.10884378 -0.084493205 0.14002055 0.05525829
0.024124332 0.20321147 0.045896545 0.002001724 -0.07374011 0.095836826 0.0765387 0.05152883
-0.044252742 -0.03205233 0.11612252 -0.097199805 -0.10029532 0.18849534 0.0830005 0.13257734
0.11300094 0.17185207 -0.15892494 -0.01181861 -0.061049487 -0.021856518 0.048552115 0.07161142
-0.14390649 -0.13811857 0.008369049 0.016633872 0.113559574 0.028089019 -0.14173065 0.121559724
-0.14155255 0.02473695 -0.09438541 -0.1548615 -0.12605104 -0.030892104 0.088350296 0.076331474
-0.14108616 -0.21413901 -0.050419863 0.004085709 0.15916353 0.20459142 0.16634917 -0.10674774
-0.12739854 0.14029785 -0.034348942 -0.04919934 0.09843154 -0.023545131 -0.066629514 -0.036631577
0.04504093 0.16020142 0.16790314 0.059654254 -0.122993365 0.19612718 0.1224739 -0.0651601
-0.155391 0.09737146 -0.0706921 -0.023771768 0.07471176 -0.04626616 0.039925445 -0.10444676
0.06750037 0.07945729 0.12896493 -0.007309969 0.026471492 0.12977366 0.14833798 -0.16481456
0.021613387 0.19145897 -0.037687477 0.021568373 -0.10274198 -0.12229168 -0.03995097 -0.038367134
-0.13293721 0.20284204 -0.12984821 -0.1291051 -0.013176176 -0.14485453 0.13724938 0.12173285
-0.10713158 -0.100191645 0.027101854 -0.15114112 -0.021378333 0.031700607 -0.04694696 -0.0052091735
0.12569314 -0.049164426 0.09976254 -0.1480905 -0.07177667 0.030241786 -0.13054138 -0.15581532
-0.06372107 -0.10017854 0.09530973 -0.044527367 0.111715525 0.042638786 0.012963098 -0.09386746
0.17730063 0.15256903 0.08826013 0.004391507 0.1343386 0.0018347123 0.04201738 0.011808968
-0.119882874 0.051861804 0.08325615 -0.14278047 0.049436834 -0.05507949 -0.020190433 -0.121861316
-0.16681358 0.06533401 -0.099407054 0.1177012 0.024559097 -0.1436735 -0.06202548 -0.10726362
0.00015106155 -0.0498406 -0.18662217 0.1705097 -0.05830568 -0.19404444 0.1091957 -0.14424749
-0.07723495 -0.11381142 0.1430353 0.13291001 -0.10522799 -0.07458825 0.058152627 0.0143485395
-0.08894871 -0.009754533 -0.15790057 -0.20735142 -0.14338638 0.12849244 0.1450159 -0.045817263
-0.17130332 0.03961673 -0.060072858 0.075219885 0.15336323 0.040602736 -0.047582053 -0.14250246
0.03038666 -0.016633457 0.101214625 -0.058346268 0.10508305 -0.021939967 0.063057184 -0.1145555
-0.06441616 -0.020800222 0.16100629 -0.14491838 0.14348087 0.19779597 -0.051717065 -0.037400655
0.12123821 0.13096125 -0.18380623 0.024093013 0.19026572 -0.05109111 -0.10956394 0.11077627
0.108571686 -0.21078238 0.043555863 -0.005035614 0.058943216 0.059871554 0.1000218 0.1281154
-0.10599243 0.05155722 0.056832284 0.17455094 0.16670366 0.08860556 0.050355222 0.15927999

q_head.DAC_block.ff2.bias f4 [16]
00000000: 280a f4bd 8153 653d 56f0 06be 16ed 8fbd
00000010: daeb d23c b44d 0bbe 27be 4bbe 1006 32bd
00000020: 8564 cbbd 1141 babc f412 a63c 847d 0f3e
00000030: dffc 143e 3fd1 13be 2f31 ed3d 0363 2dbe
-0.11916 0.05598784 -0.13177618 -0.070276424 0.025747228 -0.1360386 -0.19896756 -0.043462813
-0.09931282 -0.022736104 0.02027271 0.14012724 0.14549588 -0.1443529 0.11581647 -0.16932301

ema_model.q_head.DAC_block.mamba_blocks.0.A_log f4 [28, 32]
00000000: 942d a4ba a869 313f 49e0 8b3f 2346 b13f
00000010: 0a58 cd3f 8d49 e43f 9962 f93f 9491 0440
00000020: f673 0c40 b331 1340 fc9b 1940 2811 1f40
00000030: 89b1 2340 cad9 2840 218f 2c40 8de5 3140
00000040: bac6 3440 cedb 3840 4ede 3b40 e39b 3f40
00000050: ad77 4240 ccf4 4540 461e 4840 90eb 4a40
00000060: d78c 4d40 c2ed 4f40 2a7f 5240 95ae 5440
00000070: e64b 5740 1a66 5940 05a3 5b40 be4d 5d40
00000080: 2d3c 2db6 0872 313f c39e 8c3f e871 b13f
00000090: 8e01 ce3f 1a57 e53f be13 f93f f614 0540
000000a0: 279f 0c40 5c5d 1340 3377 1940 a408 1f40
000000b0: 7027 2440 45e6 2840 0d4f 2d40 7e72 3140
000000c0: 6352 3540 99fb 3840 af70 3c40 cbb9 3f40
000000d0: b9d8 4240 b9d3 4540 d3aa 4840 3e64 4b40
000000e0: 4201 4e40 2583 5040 25ee 5240 6d41 5540
000000f0: 5e81 5740 8aac 5940 ffc5 5b40 72cd 5d40
00000100: 722e 8c35 fd71 313f c79f 8c3f 0872 b13f
00000110: 7402 ce3f 4d59 e53f 1a13 f93f 0d16 0540
00000120: 549f 0c40 8a5d 1340 ac76 1940 7d08 1f40
00000130: 7528 2440 4ce6 2840 5b52 2d40 b570 3140
00000140: f353 3540 b5fb 3840 7e72 3c40 e4b9 3f40
00000150: 97d9 4240 4bd3 4540 99ac 4840 a765 4b40
00000160: 7d02 4e40 7d85 5040 6bef 5240 c043 5540
00000170: c281 5740 34ad 5940 2ac6 5b40 4acf 5d40
00000180: 259b ad36 6f71 313f daa1 8c3f bb71 b13f
00000190: 1304 ce3f 645d e53f 0311 f93f 2e18 0540
000001a0: 649f 0c40 9f5d 1340 2774 1940 ac07 1f40
000001b0: cd29 2440 45e6 2840 3559 2d40 d86a 3140
000001c0: b156 3540 16fb 3840 1876 3c40 1eb9 3f40
000001d0: 67da 4240 81d1 4540 6daf 4840 d866 4b40
000001e0: 7a04 4e40 0f89 5040 1af1 5240 6047 5540
000001f0: c281 5740 8dad 5940 97c5 5b40 45d2 5d40
00000200: 1c24 8fb3 1772 313f 519f 8c3f 1772 b13f
00000210: 0d02 ce3f 6c58 e53f 9513 f93f 9215 0540
00000220: 539f 0c40 8d5d 1340 1c77 1940 b608 1f40
00000230: 2528 2440 51e6 2840 ae50 2d40 2572 3140
00000240: 6b53 3540 d7fb 3840 b871 3c40 15ba 3f40
00000250: 77d9 4240 a4d3 4540 f8ab 4840 3565 4b40
00000260: 1202 4e40 c284 5040 feee 5240 da42 5540
00000270: c781 5740 35ad 5940 70c6 5b40 aece 5d40
00000280: 5342 08b8 d171 313f db99 8c3f 8f6c b13f
00000290: 69fd cd3f 8048 e53f 4813 f93f 4e0e 0540
000002a0: f59b 0c40 8f5a 1340 0c79 1940 b707 1f40
000002b0: cc1f 2440 68e5 2840 2a44 2d40 3973 3140
000002c0: 9548 3540 ddf8 3840 c267 3c40 9fb5 3f40
000002d0: bbd1 4240 c2d3 4540 4ca2 4840 995e 4b40
000002e0: 49fb 4d40 b375 5040 a9e7 5240 2a38 5540
000002f0: 057d 5740 3ca7 5940 0ac2 5b40 d2c3 5d40
00000300: 5e0b a6b6 f971 313f 2f9e 8c3f ba71 b13f
00000310: f100 ce3f fd55 e53f c213 f93f 5f14 0540
00000320: ed9e 0c40 2e5d 1340 1877 1940 8908 1f40
00000330: 9d26 2440 31e6 2840 644d 2d40 bb72 3140
00000340: 5851 3540 40fb 3840 7d6f 3c40 66b9 3f40
00000350: b4d7 4240 c0d3 4540 50a9 4840 1463 4b40
00000360: 0400 4e40 4581 5040 feec 5240 d33f 5540
00000370: bf80 5740 a8ab 5940 5ec5 5b40 aacb 5d40
00000380: ea5a 28b8 3171 313f 1a97 8c3f 3e6f b13f
00000390: 19fa cd3f 6c47 e53f e214 f93f 520d 0540
000003a0: 6c9c 0c40 ba5a 1340 8576 1940 1508 1f40
000003b0: 771e 2440 67e5 2840 bd3c 2d40 4876 3140
000003c0: 3b47 3540 f4f7 3840 aa64 3c40 21b6 3f40
000003d0: 32cf 4240 08d4 4540 449d 4840 ff57 4b40
000003e0: b1f6 4d40 2473 5040 bee3 5240 d531 5540
000003f0: e47b 5740 37a4 5940 79c0 5b40 85bf 5d40
-0.001252579 0.69301844 1.0927821 1.3849529 1.6042492 1.7834946 1.9483215 2.0713854
2.1945777 2.2999084 2.4001455 2.4854221 2.557711 2.6382928 2.696236 2.7796357
2.8246293 2.8884158 2.9354434 2.9938896 3.0385544 3.0930662 3.1268477 3.1706276
3.2117212 3.2488866 3.2890115 3.3231556 3.3640075 3.3968568 3.431825 3.45787
-2.5814036e-06 0.6931462 1.098595 1.3862886 1.6094224 1.7917206 1.945915 2.0794044
2.197214 2.3025732 2.3979003 2.4849024 2.564907 2.6390545 2.7079499 2.772613
2.8331535 2.8903563 2.9443777 2.995715 3.0444777 3.0910475 3.1354263 3.1779933
3.2188268 3.2580044 3.2957852 3.3321183 3.367271 3.401156 3.4339597 3.4656644
1.044433e-06 0.6931456 1.098626 1.3862925 1.6094499 1.7917877 1.9458954 2.0794709
2.1972246 2.3025842 2.3978682 2.484893 2.5649693 2.6390562 2.7081516 2.772504
2.8332489 2.890363 2.944488 2.9957209 3.0445306 3.0910213 3.1355345 3.1780794
3.2189019 3.2581475 3.295863 3.3322601 3.3672948 3.4011965 3.43397 3.465777
5.173863e-06 0.6931371 1.0986893 1.3862833 1.6094993 1.7919126 1.9458317 2.0796008
2.1972284 2.3025892 2.3977144 2.4848433 2.5650513 2.6390545 2.7085698 2.7721462
2.8334162 2.890325 2.9447079 2.9956737 3.0445802 3.090912 3.1357071 3.178152
3.2190232 3.2583654 3.2959657 3.3324814 3.3672948 3.4012177 3.433935 3.4659588
-6.665525e-08 0.6931471 1.098612 1.3862942 1.6094376 1.7917609 1.9459101 2.0794415
2.1972244 2.302585 2.3978949 2.4849067 2.5649502 2.6390574 2.7080493 2.7725918
2.8332164 2.890371 2.9444408 2.9957325 3.044523 3.0910425 3.1354961 3.1780522
3.2188764 3.258103 3.295837 3.3322053 3.367296 3.4011967 3.4339867 3.4657397
-3.2486696e-05 0.69314295 1.0984453 1.3861254 1.609296 1.791275 1.9459009 2.078998
2.1970189 2.3024023 2.398013 2.4848459 2.5644407 2.6390018 2.7072854 2.7726576
2.832555 2.8901894 2.9438329 2.9954603 3.044051 3.0910497 3.1349058 3.1776488
3.2184622 3.2571838 3.2953894 3.331553 3.3670056 3.4008322 3.4337182 3.465077
-4.948509e-06 0.69314533 1.0985774 1.3862832 1.6094037 1.7916867 1.9459155 2.0793684
2.1972 2.3025622 2.397894 2.484896 2.5648568 2.6390498 2.7078485 2.7726276
2.8330898 2.890335 2.9443047 2.9956908 3.0444155 3.0910492 3.135334 3.1779222
3.218751 3.25789 3.2957149 3.3320205 3.367233 3.401102 3.4339213 3.4655557
-4.013899e-05 0.6931334 1.0983613 1.3862073 1.6091949 1.7912421 1.9459498 2.078938
2.1970472 2.3024125 2.3978589 2.4848683 2.5643594 2.6390016 2.7068322 2.7728443
2.8324726 2.8901339 2.943644 2.9954913 3.0438962 3.0910664 3.1345987 3.1772459
3.2181818 3.2570276 3.2951503 3.3311665 3.3669367 3.4006479 3.4336226 3.4648144

ema_model.q_head.DAC_block.mamba_blocks.0.D f4 [28]
00000000: 4f2d 823f b38d 813f 723d 823f bade 7e3f
00000010: 7b1e 7d3f 4ea9 7d3f 1649 823f 7b36 823f
00000020: d311 7f3f f70c 823f 1134 823f 464e 823f
00000030: f829 7e3f 682a 813f 101e 7f3f 94b0 803f
00000040: 4560 7c3f e328 823f 48df 7e3f 7f67 7d3f
00000050: 57e8 7d3f b5d1 7c3f fb23 7c3f 8413 823f
00000060: d645 803f 393e 803f 9708 823f 2790 7f3f
1.0170077 1.0121368 1.0175002 0.99558604 0.98874635 0.99086463 1.0178554 1.0172876
0.9963657 1.0160207 1.017214 1.0180137 0.9928279 1.0091066 0.99655247 1.0053887
0.98584396 1.0168728 0.9955945 0.9898605 0.9918265 0.9875749 0.984924 1.0162206
1.0021312 1.0018989 1.0158871 0.99829334
