checkpoints/q-mamba/20240831_052025/checkpoint-6.pt (torch, 103216 bytes, 52 tensors)

q_head.DAC_block.mamba_blocks.0.A_log f4 [28, 32]
000000 4d e0 3d bd 95 10 21 3f 1b 41 84 3f b4 37 a9 3f
       -0.046356488 0.6291593 1.0332369 1.3220124
000010 a4 63 c3 3f c6 bb db 3f 63 ed ec 3f 56 0c fe 3f
       1.5264783 1.7166679 1.8509945 1.9847515
000020 d9 6f 06 40 3f f7 0d 40 7a 01 14 40 9e eb 18 40
       2.1005766 2.2182157 2.3125901 2.389381
000030 9d 2d 1e 40 4c a4 22 40 62 d4 27 40 b9 41 2b 40
       2.471534 2.541278 2.6223378 2.6758864
000040 70 3a 2f 40 3e 6d 32 40 66 20 36 40 7a 52 39 40
       2.7379417 2.7879176 2.8457274 2.895659
000050 8d 42 3c 40 3f 9d 40 40 4a 64 42 40 b5 24 45 40
       2.941562 3.0095975 3.0373712 3.0803654
000060 eb 9a 48 40 73 56 4a 40 2b 40 4c 40 ef f6 4e 40
       3.1344554 3.1615264 3.1914165 3.2338216
000070 35 48 51 40 fe 0e 54 40 83 1f 55 40 a6 74 57 40
       3.2700322 3.313415 3.3300483 3.3664947
000080 2c 08 a3 bd 20 04 1c 3f 6b 56 81 3f 3c 74 a6 3f
       -0.07960543 0.60943794 1.0104498 1.3004222
000090 7b 09 c3 3f 7f f7 d9 3f 68 c6 ee 3f 3b d7 ff 3f
       1.5237268 1.7028655 1.8654299 1.9987558
0000a0 64 75 07 40 f1 69 0d 40 51 91 13 40 fc 8c 19 40
       2.11654 2.2095912 2.3057444 2.39923
0000b0 6b 9b 1e 40 5b 6b 23 40 ad 53 27 40 69 a7 2b 40
       2.478236 2.5534275 2.6144822 2.682093
0000c0 4c bc 2f 40 b8 99 33 40 be b4 36 40 7f 24 3a 40
       2.7458677 2.8062572 2.8547816 2.9084775
0000d0 48 60 3d 40 ca 2b 40 40 14 61 42 40 aa 03 45 40
       2.9590015 3.0026727 3.0371752 3.0783486
0000e0 58 fe 47 40 97 7e 4a 40 16 52 4d 40 b0 28 4f 40
       3.124899 3.1639764 3.2081351 3.2368584
0000f0 64 0a 51 40 02 86 53 40 8c 2b 56 40 b6 a5 57 40
       3.2662592 3.3050542 3.346408 3.3694892
000100 d6 1e f2 bc bb 64 26 3f 14 c3 86 3f ff b0 ab 3f
       -0.02955572 0.6499745 1.0528283 1.341339
000110 cd b3 c6 3f 2e 88 de 3f 6c ae f1 3f 7b 4a 01 40
       1.5523621 1.7385309 1.8881354 2.020171
000120 a3 dc 08 40 d5 5c 0f 40 d1 6d 15 40 8d f5 1a 40
       2.1384666 2.240041 2.3348277 2.4212372
000130 e6 0e 20 40 48 de 24 40 d8 18 29 40 0b 3c 2d 40
       2.5009093 2.576067 2.6421413 2.7067897
000140 a9 24 31 40 cf 0e 35 40 83 2a 38 40 57 82 3b 40
       2.7678626 2.8290288 2.8775947 2.9298303
000150 d6 cc 3e 40 97 80 41 40 63 02 44 40 50 bd 46 40
       2.9812522 3.0234735 3.0626457 3.1053047
000160 30 96 49 40 df 0b 4c 40 5f e3 4e 40 0b 92 50 40
       3.1497917 3.1882246 3.2326276 3.2589138
000170 fb e3 52 40 21 f3 54 40 d6 92 57 40 cb 19 59 40
       3.2951648 3.3273394 3.3683372 3.3921993
000180 94 a6 20 bd 68 06 24 3f 61 de 85 3f ff 18 ab 3f
       -0.03922136 0.64072275 1.045849 1.3367003
000190 91 7b c5 3f 2c dc dd 3f 70 41 ef 3f e9 32 00 40
       1.5428334 1.7332816 1.8691845 2.0031073
0001a0 70 9e 07 40 0e 22 0f 40 0a 2e 15 40 8e 21 1a 40
       2.1190453 2.2364535 2.330935 2.408298
0001b0 75 59 1f 40 56 d7 23 40 90 0b 29 40 38 74 2c 40
       2.489835 2.560018 2.6413307 2.6945934
0001c0 34 6d 30 40 43 a9 33 40 10 5a 37 40 2d 8c 3a 40
       2.7566652 2.807206 2.864872 2.9148057
0001d0 19 7b 3d 40 8d e5 41 40 fc 93 43 40 1d 53 46 40
       2.9606383 3.0296357 3.0559072 3.0988228
0001e0 e5 d8 49 40 5d 84 4b 40 d5 70 4d 40 00 21 50 40
       3.1538632 3.1799538 3.2100117 3.2520142
0001f0 e9 64 52 40 11 36 55 40 d5 56 56 40 f1 97 58 40
       3.287409 3.331425 3.3490498 3.3842738
000200 e0 bb b1 bd 93 5c 19 3f 1c 08 81 3f 6a 60 a7 3f
       -0.086784124 0.5990688 1.00806 1.3076298
000210 95 39 c1 3f 42 6d d9 3f aa 5d ec 3f 65 50 fd 3f
       1.5095698 1.6986468 1.8466084 1.979016
000220 85 36 06 40 4d 3f 0d 40 ce 67 13 40 65 83 18 40
       2.0970776 2.2069886 2.3032107 2.3830197
000230 d5 a7 1d 40 2f 57 22 40 b7 77 27 40 92 e2 2a 40
       2.4633687 2.5365713 2.6166818 2.6700788
000240 4b c5 2e 40 be 62 32 40 b4 d2 35 40 ea 12 39 40
       2.7307918 2.7872767 2.8409853 2.8917794
000250 cb 32 3c 40 ba f7 40 40 fb 11 42 40 6e d6 44 40
       2.9406002 3.01512 3.0323474 3.0755877
000260 40 8b 48 40 e4 04 4a 40 27 34 4c 40 95 b7 4e 40
       3.1334991 3.1565485 3.1906831 3.229955
000270 07 e9 50 40 ec d5 53 40 b1 04 55 40 c1 39 57 40
       3.2642229 3.3099318 3.3284113 3.3629
000280 0e 7b d3 bb fd 09 2e 3f b3 ca 8a 3f 34 c0 af 3f
       -0.0064538782 0.6798399 1.0843109 1.3730531
000290 e6 84 ca 3f aa cb e2 3f cb eb f3 3f 99 81 02 40
       1.5821807 1.7718403 1.9056333 2.03916
0002a0 b1 df 09 40 1f 63 11 40 03 5e 17 40 22 3e 1c 40
       2.154278 2.2716749 2.365113 2.4412923
0002b0 2d 7c 21 40 e1 e9 25 40 df 28 2b 40 ed 75 2e 40
       2.523204 2.5923998 2.6743696 2.7259476
0002c0 f9 79 32 40 c9 9f 35 40 49 42 39 40 8e 79 3c 40
       2.7886946 2.8378775 2.8946707 2.944919
0002d0 3b 59 3f 40 0b c6 43 40 84 58 45 40 6c 1b 48 40
       2.9898212 3.0589626 3.0835276 3.1266737
0002e0 70 b2 4b 40 5f 52 4d 40 eb 37 4f 40 ff c9 51 40
       3.182766 3.2081525 3.237788 3.2779539
0002f0 55 2a 54 40 dd e4 56 40 78 13 58 40 21 3a 5a 40
       3.3150837 3.3577187 3.3761883 3.409798
000300 6c 82 5e bb 52 84 2f 3f 0c 91 8b 3f e5 71 b0 3f
       -0.003395225 0.6856128 1.090364 1.3784758
000310 dc ac cb 3f 60 b9 e3 3f 26 23 f5 3f 27 1b 03 40
       1.5912127 1.7790947 1.9151351 2.0485322
000320 86 76 0a 40 da f8 11 40 d7 f6 17 40 c0 d1 1c 40
       2.163484 2.2808137 2.374441 2.4503021
000330 dc 11 22 40 1f 73 26 40 a5 bd 2b 40 a9 00 2f 40
       2.53234 2.6007764 2.68345 2.7344153
000340 20 09 33 40 56 0f 36 40 ef bb 39 40 73 f0 3c 40
       2.797432 2.844686 2.9020956 2.9521759
000350 1c bc 3f 40 db 4a 44 40 2d c6 45 40 50 8c 48 40
       2.9958563 3.0670688 3.0902207 3.133564
000360 7e 3d 4c 40 10 cb 4d 40 ce 88 4f 40 94 2c 52 40
       3.1912532 3.215519 3.242725 3.2839708
000370 c7 9b 54 40 e6 67 57 40 1d 60 58 40 61 93 5a 40
       3.322008 3.3657165 3.3808663 3.4152453
000380 a8 30 09 bb 75 39 30 3f ac f5 8b 3f b3 d7 b0 3f
       -0.0020933542 0.6883767 1.0934348 1.3815826
000390 62 77 cc 3f ee 55 e4 3f 28 51 f6 3f 45 b4 03 40
       1.5973933 1.7838724 1.9243517 2.0578778
0003a0 a9 18 0b 40 55 74 12 40 09 7a 18 40 f2 7a 1d 40
       2.1733801 2.2883503 2.3824484 2.460629
0003b0 78 b4 22 40 ea 27 27 40 46 4a 2c 40 31 b7 2f 40
       2.542265 2.6118112 2.6920333 2.745556
0003c0 70 b9 33 40 ea da 36 40 e1 81 3a 40 90 b9 3d 40
       2.8081932 2.8571115 2.9141772 2.9644508
0003d0 20 90 40 40 c7 df 44 40 2c 96 46 40 50 5b 49 40
       3.0087967 3.0761583 3.1029158 3.1461983
0003e0 4b e1 4c 40 d4 95 4e 40 72 68 50 40 9c 04 53 40
       3.2012508 3.2278948 3.2563748 3.2971563
0003f0 85 6c 55 40 0f 27 58 40 eb 45 59 40 0e 72 5b 40
       3.3347485 3.377384 3.3948925 3.4288363

q_head.DAC_block.mamba_blocks.0.D f4 [28]
000000 f7 a4 8e 3f e7 90 8c 3f ca 64 8a 3f ac c5 8f 3f
       1.1144093 1.0981721 1.0812008 1.12322
000010 43 48 8f 3f 94 ec 8f 3f fe 7a 8f 3f 3c 07 8e 3f
       1.1193928 1.1244073 1.1209409 1.1095958
000020 84 6c 8e 3f dc c9 8d 3f db 93 90 3f 9a 11 90 3f
       1.1126866 1.1077228 1.1295122 1.1255372
000030 8d a8 8d 3f 42 81 8f 3f ce be 8e 3f 8e c6 88 3f
       1.1067063 1.1211321 1.1151979 1.0685594
000040 e5 b0 8b 3f 9a ac 8f 3f 42 c6 8d 3f 31 09 8f 3f
       1.0913359 1.1224549 1.1076128 1.117468
000050 33 25 90 3f 52 f0 87 3f b2 4d 91 3f c5 2d 8a 3f
       1.1261352 1.0620215 1.1351836 1.0795218
000060 c3 e3 90 3f 19 74 8f 3f 95 f4 8f 3f 64 f9 88 3f
       1.1319507 1.1207305 1.1246516 1.0701108

q_head.DAC_block.mamba_blocks.0.in_proj.weight f4 [56, 14]
000000 4a f7 01 3e 09 cb 50 3e 06 1a 96 bd f4 e9 29 3e
       0.1269199 0.20389952 -0.07329182 0.16593152
000010 5f ec b7 3e fc 03 6a 3e b5 89 6c 3b 54 cf 59 3e
       0.35922524 0.22853082 0.0036092822 0.21270496
000020 f2 45 ba 3c 32 b0 51 be cb 35 e1 3c 0c 9b ec 3d
       0.02273843 -0.2047737 0.02749147 0.1155301
000030 c2 92 18 3e 49 8f af 3c bb b3 6f 3e 02 8c a0 bc
       0.14899734 0.021430628 0.23408405 -0.01959801
000040 c8 bd 50 3d 23 6e 02 3e 42 80 60 3e 26 bf 0d 3d
       0.05096224 0.12737326 0.21923926 0.03460612
000050 00 83 b6 3e d3 54 3d bc 37 a8 ab 3e ae c0 58 3d
       0.3564682 -0.011555868 0.33526775 0.05291813
000060 ad 85 2d be c5 ad 01 be e5 19 0a be 83 76 a9 3e
       -0.16945525 -0.12663944 -0.1348644 0.3309823
000070 5b b3 1f be da a7 a7 3d 30 78 08 3d 95 63 c4 bd
       -0.15595762 0.08186312 0.033317745 -0.09589306
000080 34 ad 98 be ae 3e 4b be 0f ff 6c be d8 5a 3b be
       -0.29819643 -0.19848129 -0.23144172 -0.18296373
000090 a2 07 06 be 5c b9 3d be 1a a2 4d 3e bc 56 d0 3d
       -0.13088849 -0.1852774 0.20081368 0.10172793
0000a0 06 5f c8 3d ea e6 e0 3d 49 88 8b 3e 31 0d 04 be
       0.09783749 0.10981543 0.27252415 -0.12895657
0000b0 79 d2 9c bd a7 77 03 3e 97 74 b1 3e 3d a8 08 bd
       -0.07657332 0.12838612 0.34659263 -0.03336357
0000c0 89 f6 b5 3e 34 81 6a 3e fd 09 e4 bd 34 9a 6a be
       0.35539654 0.2290085 -0.111347176 -0.22910386
0000d0 f8 b1 87 3e 24 cc ee 3d 15 94 01 3d 7e ea 2a 3e
       0.26502967 0.116600305 0.031635363 0.16691014
0000e0 ed 51 91 3d e1 6e e5 bd d1 ca 9d b9 25 d5 a3 3e
       0.07095704 -0.11202789 -0.00030096484 0.31998554
0000f0 08 9f c1 3d e6 1c ba 3d a4 4f ba 3e 62 c0 83 3d
       0.09454161 0.09087543 0.36388886 0.064331785
000100 92 b4 49 3e aa 65 6b bd e2 04 31 bd 30 2c 6a 3e
       0.19697788 -0.05747 -0.043217547 0.22868419
000110 1f 12 6d 3d 93 e1 99 3d 1e 41 92 3d cf 52 d9 bd
       0.05787861 0.07513728 0.07141326 -0.106114976
000120 05 71 8c 3e d0 92 5d bb 0d 94 8b 3e b6 42 1d 3e
       0.27429977 -0.003380943 0.2726139 0.1535748
000130 33 37 bb 3d 87 1e 85 3e f8 ab df 3c e5 90 85 3e
       0.09141388 0.25999853 0.02730368 0.26087108
000140 a1 c9 fa 3d 6e 44 85 3e 09 8e ed b9 eb 1f a4 3d
       0.12245489 0.2602877 -0.00045309987 0.080139
000150 35 50 f3 3c bd 36 83 bc 57 b0 39 3d b7 2b 8e be
       0.029701332 -0.016017312 0.045334186 -0.27767727
000160 d0 d5 f9 bd cd 33 15 be 17 e8 09 be d9 58 66 be
       -0.121989846 -0.14570542 -0.13467441 -0.2249483
000170 50 7c 00 be b0 82 97 bd a6 94 38 3e e8 01 63 be
       -0.12547421 -0.073979735 0.18025455 -0.22168696
000180 90 aa ac 3d 03 a4 9f 3d bb a1 37 3e 17 4c 59 3d
       0.0843097 0.07794955 0.17932789 0.05305108
000190 9d 62 52 3b 3b 7f 8e 3e ae 58 33 3c 93 a9 84 3c
       0.0032102235 0.27831444 0.010946436 0.01619414
0001a0 1b f2 00 be 20 48 6c 3e 73 50 a6 3d b0 d5 e3 3d
       -0.12592356 0.23074389 0.08120813 0.11124742
0001b0 be 93 2b 3e c2 b4 22 3e 6b 53 aa be d5 9a 18 be
       0.16755578 0.15889266 -0.33266768 -0.14902814
0001c0 b4 8b b7 3d 73 21 87 3e 71 45 3b 3e 00 85 90 3e
       0.08962193 0.26392707 0.18288209 0.2822647
0001d0 af 4a ee 3d a7 4c 13 be af 16 86 3e c9 9d c0 3e
       0.116353385 -0.1438471 0.2618918 0.3762038
0001e0 cb b4 a6 3e ad 8f b7 bc 52 a8 28 bc 4d 79 89 3d
       0.3255981 -0.022407377 -0.010294037 0.067125894
0001f0 00 6c 95 3e e7 1b 3e bd 75 13 a2 be 1a 53 43 bb
       0.2918396 -0.04641333 -0.3165547 -0.002980417
000200 68 1c 42 be 60 86 66 bd 05 4a 8a be 74 93 b1 bd
       -0.18956149 -0.056280494 -0.27009597 -0.086707026
000210 77 27 b8 bd 4f 57 2e be 9a f6 0e be 96 79 84 3e
       -0.08991902 -0.17025493 -0.13961259 0.25874013
000220 02 c3 c3 bd fc 19 8d 3e 51 8f 20 3e e7 0f d8 3d
       -0.09558679 0.27558887 0.15679671 0.10549908
000230 05 65 9e 3e 12 29 72 3e 4f 5c 94 3e 55 9c b8 3e
       0.30936447 0.2364848 0.28976676 0.36056772
000240 37 c9 a9 3e 7b 33 b6 3e 1a a4 54 bd 2b e7 28 bb
       0.33161327 0.3558615 -0.051914312 -0.0025772552
000250 6f f7 9a 3e 15 e1 4c bc 50 c5 72 be 3f 87 b8 3e
       0.30266902 -0.012504836 -0.23708081 0.36040685
000260 c4 3e ee bd 70 56 bd 3e 79 f3 60 be 7e d3 9c be
       -0.11633065 0.3698001 -0.21967877 -0.30630106
000270 dd 66 92 3d 18 22 72 be 8a ad 97 bb 59 70 98 be
       0.07148526 -0.23645818 -0.0046288418 -0.29773214
000280 d0 3f aa be a7 9a e3 3c 9e b6 7b be 05 df 23 be
       -0.3325181 0.027783705 -0.24581382 -0.16003044
000290 da 05 5a 3e 31 d0 38 be 6a 59 9f be 56 1f b5 be
       0.21291295 -0.18048169 -0.31122905 -0.3537547
0002a0 82 92 8f 3e df 43 db 3d 19 81 3b 3c 5f 96 4d 3e
       0.28041464 0.10706305 0.0114443535 0.20076893
0002b0 ac 2e cf bc 33 cf 9b 3e 79 f1 3b bd 48 22 48 3e
       -0.02529081 0.30431518 -0.045884583 0.19544327
0002c0 e6 fc ad 3e 32 ba b4 3d d5 c8 13 3e b1 cb a4 bd
       0.3398201 0.088245764 0.1443208 -0.080466636
0002d0 b9 ab a5 bd 7e 5b 86 3e 1b d4 07 3e 09 04 6c be
       -0.08089394 0.26241678 0.13264506 -0.23048414
0002e0 26 4f e1 3d bf f7 58 be 72 92 3c be 5b 0b d6 bd
       0.110014245 -0.21188258 -0.1841524 -0.10451385
0002f0 3c 7d d6 3d 72 44 8e be 2c ec e1 3c 13 3e 68 3e
       0.10473105 -0.27786595 0.027578436 0.2267993
000300 2e d2 59 3e 27 02 bb bd 1b eb 85 bc 24 0a 59 bc
       0.21271583 -0.0913127 -0.016347459 -0.013247047
000310 f2 7a e0 bd 52 90 2d be 46 ec a5 be ca 56 a8 be
       -0.1096095 -0.16949585 -0.32406825 -0.32878715
000320 ed 82 4e be c9 5d e9 bd b8 e2 2c 3d 2c d7 ae 3c
       -0.20167132 -0.11394841 0.042208403 0.021342836
000330 09 a5 1d bd fc fe aa bc 51 13 c9 3d 9b 2e 89 3d
       -0.038487468 -0.02087354 0.098181374 0.066983424
000340 24 aa 30 be 42 73 7b be e0 d3 74 bc 8b f9 84 bd
       -0.17252403 -0.24555686 -0.014943093 -0.06492909
000350 37 46 56 be 96 ff 36 3d 17 8e c4 bd 20 0c a8 be
       -0.20925222 0.04467734 -0.09597414 -0.3282175
000360 20 a9 98 3d 39 de 17 be bb fe 84 be 49 6e 4f 3e
       0.07454133 -0.14830865 -0.25975594 0.20256914
000370 96 c4 fb bd 08 e4 ab be 1a bd a6 be 5c 69 5e bd
       -0.12293355 -0.33572412 -0.32566148 -0.054299697
000380 36 7b 9a be 4f 22 4c be 2f 6e aa be 9a e2 af be
       -0.30172127 -0.19934963 -0.33287188 -0.3435257
000390 8e ce 03 be 64 3d 96 be 1c e7 54 bd fd 0f f4 bd
       -0.12871763 -0.29343712 -0.051978216 -0.11917112
0003a0 5a 39 72 3d d4 d8 60 be 3a af 0e 3d 33 3a d0 bc
       0.059136726 -0.21957713 0.034835078 -0.025418377
0003b0 0d 99 8a 3e df 58 bc 3d 29 73 c1 3d f3 ba 81 3e
       0.27069893 0.09196638 0.09445793 0.25337943
0003c0 f0 b5 c3 bd 81 30 8a 3e a8 94 56 3e 75 2e 4c bd
       -0.09556186 0.2699013 0.20955145 -0.049848992
0003d0 42 0d 7c 3d 96 41 4a 3e 9e 83 2b 3e 57 8f a5 bd
       0.06153608 0.19751582 0.16749427 -0.080839805
0003e0 12 b1 27 3e d9 6a e0 bd 33 e5 bb 3e 59 b8 86 3e
       0.1637614 -0.109578796 0.36698303 0.2631252
0003f0 9a 84 20 bd ac 8f 98 be 95 7d 4f be e9 76 a1 3d
       -0.03918896 -0.29797113 -0.2026275 0.078840084

q_head.DAC_block.mamba_blocks.0.conv1d.weight f4 [28, 1, 4]
000000 c0 20 97 bc 2c 42 80 3e 8c 90 a3 be 63 2f 9a be
       -0.018448234 0.25050485 -0.31946218 -0.30114278
000010 20 2d f1 3e e0 8c 69 be 81 d9 0d 3f a3 d5 17 3f
       0.4710474 -0.22807646 0.5541001 0.5931036
000020 d8 dc e2 3e 50 99 5d 3e 69 74 99 3e bc 18 94 be
       0.44309115 0.21640515 0.29971626 -0.2892512
000030 e6 a2 cb be 6c d5 06 3e f2 81 76 be e3 fb 88 be
       -0.3977272 0.13167351 -0.24073008 -0.26754674
000040 d4 ac c4 be f0 16 5b 3e 85 c7 20 be 58 4d 67 be
       -0.38413107 0.21395469 -0.1570111 -0.22588098
000050 be 9d d7 be 04 51 58 be 2f e6 bd 3e 89 2f fd 3e
       -0.42112535 -0.21124655 0.3708968 0.4945033
000060 58 24 c4 3e 70 af 1a 3e 96 75 1c 3e e6 3e a1 be
       0.38308978 0.15105987 0.1527923 -0.314933
000070 50 ed 67 3d 80 fa 1e bc 58 1c d4 be 5b d2 24 bd
       0.056622803 -0.009703279 -0.41427875 -0.040239673
000080 c0 7c 70 bc 18 97 b5 be 89 12 5b 3e a8 51 8c 3e
       -0.01467818 -0.35466838 0.2139379 0.2740605
000090 38 cc d2 3e 7e 4f 8c 3e 96 58 01 3f 8b 11 f1 bc
       0.41171432 0.27404398 0.50525796 -0.02942731
0000a0 6c 78 c3 be c8 19 b5 be c3 4e 0e be 41 89 0f 3f
       -0.38177812 -0.35371232 -0.13897233 0.5606881
0000b0 e4 2d 79 be 98 4c ab 3d 4e 48 f1 3e 06 97 ef 3e
       -0.24333912 0.083642185 0.47125477 0.4679491
0000c0 bc 05 5b 3e b4 22 11 be 99 16 a6 be 87 b7 e2 be
       0.21388906 -0.14173394 -0.32439116 -0.44280645
0000d0 e0 83 66 be c0 25 e3 bc 5b de 08 bf 2a 89 94 3d
       -0.22511244 -0.027727962 -0.5346429 0.072527245
0000e0 f8 01 76 be 28 46 89 bd cd 29 5d be 71 25 15 3f
       -0.24024189 -0.06702834 -0.21597977 0.58260256
0000f0 e0 74 6e bd cc 2a 76 3e 62 b9 54 3e fd 17 11 3f
       -0.05821693 0.24039763 0.20773843 0.5667723
000100 08 ab e9 3e ea b9 d3 3e f3 0d d5 be d3 b1 26 bd
       0.456383 0.4135278 -0.41612205 -0.04069693
000110 be 54 e9 be 80 71 de 3e 0f f0 89 be b4 0d 89 be
       -0.45572466 0.4344597 -0.26940963 -0.26768267
000120 2c 16 4d 3e c0 45 c4 be a6 d5 d3 be 9c b7 97 be
       0.20027989 -0.38334465 -0.41373938 -0.2963227
000130 1e 2e f0 3e 6a a5 97 be 02 98 0f 3f 06 a6 a7 3c
       0.46910185 -0.29618388 0.5609132 0.020464908
000140 78 9b 27 be 62 24 84 be 32 55 f4 be d2 b6 af be
       -0.163679 -0.25809008 -0.4772125 -0.34319168
000150 30 f3 e8 3e 0c 3b 29 be 02 21 ed be f8 84 df bd
       0.45498037 -0.16526431 -0.46314245 -0.10914034
000160 88 5a 55 be ea 6b ea 3e a9 2b ce bd fc 44 c2 3e
       -0.20835316 0.45785457 -0.10066921 0.37943256
000170 98 93 91 3d 0c c4 a8 3e 1a 6e ab be 57 93 03 bf
       0.071082294 0.32962072 -0.33482438 -0.513967
000180 8c 67 6d 3e 94 61 59 3e fa 6c 9b 3d 2d 3b 3d 3e
       0.23184031 0.2122863 0.07589145 0.18479605
000190 de 5b 8c 3e 44 51 31 be 4d 85 e0 be 9e 58 c4 be
       0.2741384 -0.17316157 -0.438517 -0.3834886
0001a0 c8 0c 06 be 22 f6 c7 be 49 5a dd be 1f 1b 40 be
       -0.13090813 -0.39054972 -0.43232945 -0.18760346
0001b0 b0 1c d1 3d 12 67 bb be 7c 7e b4 be 85 cf 82 be
       0.1021055 -0.36602074 -0.3525275 -0.2554895

q_head.DAC_block.mamba_blocks.0.conv1d.bias f4 [28]
000000 85 75 f3 be b0 79 0a 3f c8 7d 86 3e 19 8f 8d be
       -0.47550598 0.5409193 0.26267838 -0.27648237
000010 c6 9c 07 bf 2c c0 f0 3e 35 62 03 3f e7 8d 3e be
       -0.5297359 0.47021616 0.5132173 -0.18608819
000020 82 31 1a 3f f7 e9 ba be 5a 1e a0 3d 3d db 23 bd
       0.6023179 -0.36506626 0.07818289 -0.040004004
000030 c4 07 c2 be a1 95 c4 3e 8b 35 c7 be 4f 06 2d 3b
       -0.3789655 0.38395408 -0.38908038 0.0026401465
000040 85 77 25 3e da eb b9 be c6 dd 20 3f b5 b0 87 be
       0.16158874 -0.36312753 0.628384 -0.26502004
000050 55 4a b1 be 8f 69 f7 3e d4 d2 bd 3e 17 7b 90 be
       -0.34627023 0.48322722 0.37074912 -0.2821891
000060 7e 00 c5 3e 4b 2d f8 3e 48 e2 21 3f 7e bd d2 3e
       0.38476938 0.48472056 0.632359 0.41160196

q_head.DAC_block.mamba_blocks.0.x_proj.weight f4 [65, 28]
000000 08 11 36 3e c5 3c 0c bb ef 36 75 be 74 e8 7a ba
       0.17779934 -0.0021398526 -0.23946737 -0.00095713814
000010 db af 41 3e ac 19 15 be ff 95 ca 3c fc 64 28 3e
       0.1891474 -0.14560574 0.024729727 0.16444772
000020 b8 90 43 bd c0 e1 33 3e 39 f3 24 bc d5 00 08 3e
       -0.047745436 0.17566586 -0.010067754 0.13281567
000030 25 65 75 3e da 90 98 be b7 38 a1 3e 4b 5c 87 3e
       0.23964365 -0.29798013 0.31488582 0.264376
000040 aa 19 ca bd bc de c0 3d b4 95 3b be c4 b9 b2 3e
       -0.09868176 0.09417483 -0.18318826 0.34907353
000050 53 77 10 3e d6 7c 37 bd 8b d7 ce bd 4f 1f df 3d
       0.14108019 -0.044796787 -0.10099705 0.108946435
000060 89 85 12 be b3 0b 6d be 86 5d 97 3c 2c 62 19 bd
       -0.14308752 -0.23148994 0.018477213 -0.03744714
000070 27 57 8f 3d c8 d8 d2 bc e8 14 23 be d5 a4 7f 3e
       0.06999045 -0.025738135 -0.15925944 0.24965222
000080 28 36 51 3e 22 79 27 be 32 73 d0 bd df 11 b7 ba
       0.20430815 -0.16354802 -0.10178222 -0.0013967118
000090 51 ed 95 be 46 bb 9c 3d e1 8d 49 be ad 11 32 3d
       -0.2928262 0.07652907 -0.19683029 0.04347389
0000a0 1c 2d 4d 3e b4 7d 48 bc d1 69 33 3e aa ac 14 3e
       0.20036739 -0.012237001 0.17520835 0.14518991
0000b0 0d af c4 bc ee 1b 39 3d 73 b1 99 be 52 c5 73 3e
       -0.024009252 0.04519265 -0.30018196 0.2380574
0000c0 95 74 10 3d 3f 2d 98 bd 99 a6 43 be 51 3f a2 bc
       0.03526743 -0.07430505 -0.1910652 -0.019805582
0000d0 0b d6 42 bd e2 26 45 be 58 d2 dc bd eb d4 82 bd
       -0.04756741 -0.19253114 -0.107823074 -0.06388267
0000e0 4d df 6d 3e 67 5c 86 be 21 bf c8 3c 63 9f 58 3c
       0.23229714 -0.26242372 0.0245052 0.0132215945
0000f0 5a 21 9d 3e f1 f9 63 be 0a 71 8e be d9 8b 71 3e
       0.30689508 -0.22263314 -0.27820617 0.23588504
000100 e9 b4 8d bc 62 cd 6a 3e 20 17 80 be d9 04 55 3e
       -0.017298179 0.2292991 -0.25017643 0.2080263
000110 55 65 15 3d 18 0b 8c be 16 5a 91 3e 34 54 56 bd
       0.03647359 -0.27352214 0.28389043 -0.052326396
000120 27 35 02 bd 30 6f b6 3c 1e 3a 3f 3c 94 05 61 bc
       -0.03178897 0.022269815 0.011671571 -0.01373424
000130 12 53 63 3e 84 16 da bd e0 d8 0d 3c 4d b9 67 3e
       0.22199658 -0.10648826 0.008657664 0.2262928
000140 f3 d4 c0 3c 19 7d 04 bd 56 e2 44 be 4c 5c 87 be
       0.023539042 -0.032345865 -0.19226965 -0.26437604
000150 0c ba ac bd aa 86 c2 3d e7 97 c1 3d e2 14 86 bc
       -0.08433923 0.094983414 0.09452801 -0.01636738
000160 37 fd 64 bd 1e ef c8 bc ce 2d 82 3e 2a 56 71 be
       -0.055905547 -0.024528082 0.2542557 -0.23568025
000170 ba c9 91 3e bb 38 3d be c3 a2 dc 3d f8 51 ef bd
       0.28474218 -0.18478672 0.10773232 -0.11685556
000180 83 6f 6e be f6 16 c9 3d d7 e2 00 be ae 3c 46 be
       -0.23284726 0.098188326 -0.12586533 -0.19359085
000190 9c 26 6b 3d d0 3c 36 be 60 cf 2e bd 39 fb 37 bd
       0.057409868 -0.17796636 -0.042678237 -0.04491732
0001a0 86 60 c3 bd b5 41 06 bd 15 86 68 3e d8 39 9f be
       -0.09539895 -0.032777507 0.22707398 -0.3109882
0001b0 43 eb 49 3e 1e 74 9c 3e 32 fa 34 3e 97 1b 64 3c
       0.19718651 0.3055734 0.17673567 0.013922594
0001c0 0f 4d 84 bd fb 96 34 3e c7 71 21 3e ea f2 32 be
       -0.0646001 0.1763572 0.15766059 -0.17475477
0001d0 23 78 7e be e5 a2 0d 3e 25 4e 38 3e 94 ca 2f be
       -0.24850516 0.1383167 0.1799856 -0.17167121
0001e0 05 f0 2d bd f6 f3 15 be 7f 9e 96 bd 82 b1 43 3b
       -0.04246523 -0.14643845 -0.073544495 0.0029860442
0001f0 59 6f 9f 3d 13 13 25 3e d6 51 a5 bd c7 58 31 be
       0.0778491 0.16120557 -0.080722496 -0.17319022
000200 80 ba 6f 3e 23 d8 2e be fb c9 6a 3e 38 9b 21 3d
       0.23410988 -0.17074637 0.22928612 0.03945467
000210 7a b3 1e be f3 57 7f 3e c4 96 c4 3d 8a 83 f6 bd
       -0.15498152 0.24935894 0.09599069 -0.12036808
000220 26 75 34 3e ca e7 68 3e 3f 92 9d 3d e6 2e 88 3d
       0.17622814 0.2274467 0.0769391 0.0664957
000230 28 d3 9e be 18 5c 6e 3d 15 c6 9b 3e c7 29 b6 bc
       -0.31020474 0.058193296 0.30424562 -0.022236718
000240 97 5f 89 be 64 54 97 3d dd ea e0 3d be 74 2d bd
       -0.26830742 0.07389143 0.109822966 -0.042347662
000250 32 67 b4 bc cb 23 4d bd 03 0f 03 3e e3 c5 b6 bb
       -0.022021864 -0.050082963 0.12798695 -0.005577789
000260 4f a5 6c be 83 00 81 3d 43 02 99 be 65 18 4f bd
       -0.23109935 0.06298926 -0.29884538 -0.050560374
000270 29 49 d3 bc 1f 63 d6 3c 3d 8e 2a 3e 34 d0 94 be
       -0.025791721 0.026170311 0.16655822 -0.29065096
000280 ee aa a2 be 11 4c e4 3d 73 c4 87 3e f1 4e 16 be
       -0.31771034 0.11147321 0.26517066 -0.14678551
000290 16 92 1b 3e 9f 41 85 3b 3e f8 79 3e be 7a e2 3d
       0.15192446 0.0040666605 0.24411103 0.110585675
0002a0 a1 6b 51 bd 83 ef de bc b9 ac a0 3e c2 e2 10 be
       -0.051128034 -0.027213817 0.31381777 -0.14149001
0002b0 7e 9a fc bb e4 0a 40 3e ec d7 62 3e 17 e3 01 be
       -0.0077088466 0.18754154 0.2215268 -0.12684284
0002c0 20 0d 96 3e b9 16 59 3d 30 40 88 3d 1c 12 7b bc
       0.2930689 0.053000186 0.06652868 -0.015324142
0002d0 6b ef 11 3d b3 08 18 3e ef 49 9d be ca 89 c5 3d
       0.035628717 0.14847068 -0.3072047 0.09645422
0002e0 c8 71 24 3e dd 69 0e be 0c 0f dd 3c c6 5e 50 be
       0.16059029 -0.13907571 0.026984714 -0.20348653
0002f0 11 94 f9 bd 61 1c 5a 3e a6 f8 12 3d 83 67 98 be
       -0.121864446 0.21299888 0.03588166 -0.29766473
000300 8e a6 0d 3e 72 d3 99 3e c2 e0 7f 3d be 5d 67 3e
       0.13833067 0.30044132 0.062470205 0.22594354
000310 53 38 fe bd 98 83 20 3e 1f f8 87 3e 38 c9 9b be
       -0.12413087 0.15675199 0.2655649 -0.30426955
000320 65 b4 43 be e1 0f 24 3e 2f bb a5 3e d4 3e e7 3c
       -0.19111784 0.16021682 0.32369372 0.028228201
000330 67 98 a6 3e 7b 4b 2a be 2f 3e 83 3e 91 a2 57 be
       0.3253815 -0.16630356 0.2563338 -0.21058108
000340 49 4a 58 bd c5 f1 a1 3e 47 9c 1b be 6d bc 21 bd
       -0.05280522 0.31629768 -0.15196334 -0.039486337
000350 b3 67 48 3e 37 74 4a be 42 8d 4b 3e d8 1c 0d be
       0.19570808 -0.19770895 0.19878104 -0.13780534
000360 1f cc 88 be a1 97 ea 3d 88 aa c7 bc 77 ca a0 be
       -0.26718232 0.11454702 -0.024373308 -0.31404468
000370 e2 cb a3 3e ea 1d 30 3c 15 0a b6 bc 80 4f 88 3e
       0.31991488 0.01074932 -0.022221604 0.26623154
000380 86 a4 7e 3e 0a 58 e7 bd 92 92 23 be 4d 9a 63 3e
       0.24867448 -0.11296089 -0.15973881 0.2222683
000390 3a 2a 8b bb a7 41 48 be 6f 2f a0 be da 37 86 3d
       -0.004246977 -0.19556294 -0.3128619 0.065536216
0003a0 76 f6 78 bd 9f 8a 8f 3d 83 86 5b be 10 c9 90 3e
       -0.06078192 0.07008862 -0.21438031 0.282784
0003b0 8e 5f 88 3e c1 40 4c be 61 0b b0 3d ee 9e b3 bd
       0.26635402 -0.19946577 0.0859592 -0.08770548
0003c0 d9 fb ae bd ff 19 0a 3e 30 20 5b bd 85 11 0c 3e
       -0.0854413 0.13486479 -0.053497493 0.13678558
0003d0 19 95 97 3e e1 dc 89 be 05 52 a3 be 84 4f 24 bc
       0.2960594 -0.2692633 -0.31898513 -0.010028724
0003e0 20 18 a5 be e1 a2 59 be 29 3a 88 be aa 3b 91 be
       -0.32244968 -0.2125354 -0.26606873 -0.28365833
0003f0 44 99 4a bd 60 21 13 be fb 82 7a bd d6 67 a0 3d
       -0.04946257 -0.143682 -0.06116007 0.07832305

q_head.DAC_block.mamba_blocks.0.dt_proj.weight f4 [28, 1]
000000 73 ed fb be 35 30 04 3f 6d 2e e7 3e 90 ca 5f 3f
       -0.49204597 0.5163606 0.45152608 0.8741846
000010 65 6c 35 3f 07 c7 2f 3d 99 66 2b bf b9 b2 7d 3e
       0.7086852 0.042914417 -0.66953427 0.24775209
000020 57 5d 7e be db 4c 61 bd 7a ae 68 bf 62 2e 3b 3f
       -0.24840294 -0.055004936 -0.9089123 0.7311765
000030 74 9b 58 bf a9 3d c1 be ad ae 63 bd 84 a9 bc 3e
       -0.846122 -0.37742355 -0.055586506 0.3684808
000040 21 72 8c be ff c1 c0 3e 95 93 09 3e 20 1e d1 3e
       -0.27430823 0.37648007 0.13435204 0.40843296
000050 97 70 c0 3e 81 f2 3f bf 65 cc c2 3e 83 b8 53 3f
       0.375859 -0.74979407 0.38046566 0.8270342
000060 d0 dd 2a bf ed 5a 0a bf d3 e8 0e bf a0 d9 61 3e
       -0.6674471 -0.5404499 -0.5582401 0.22055674

q_head.DAC_block.mamba_blocks.0.dt_proj.bias f4 [28]
000000 7f 3e 93 c0 3f 0c 29 c0 10 56 83 c0 7c b7 90 c0
       -4.601379 -2.6413724 -4.1042557 -4.522398
000010 11 41 07 c0 f4 e6 c7 c0 38 13 d2 c0 cc 59 b2 c0
       -2.1133463 -6.2469425 -6.564846 -5.5734615
000020 1a 72 20 c0 4e 08 c2 c0 6a 14 99 c0 3a 61 60 c0
       -2.5069642 -6.0635138 -4.783742 -3.5059342
000030 80 a9 98 c0 85 44 81 c0 e6 9a 8e c0 6a 6f a2 c0
       -4.770691 -4.039614 -4.4564085 -5.0761003
000040 7a fc 2a c0 28 6d 15 c0 e7 ca c3 c0 02 b9 56 c0
       -2.67166 -2.3347874 -6.1185184 -3.355042
000050 72 98 a2 c0 86 c7 c2 c0 76 f6 a3 c0 2e 04 9a c0
       -5.081109 -6.086856 -5.1238356 -4.81301
000060 ce 69 af c0 b8 56 07 c0 9e 0e 1e c0 d0 3e 1a c0
       -5.4816656 -2.114668 -2.4696422 -2.4100838

q_head.DAC_block.mamba_blocks.0.out_proj.weight f4 [14, 28]
000000 59 80 f1 bd 40 53 7a 3e a3 df 20 3d 21 a6 76 3e
       -0.117920585 0.2444582 0.039275777 0.2408681
000010 05 a6 9b 3d b5 fb de 3b 6c 82 f7 3d 35 81 67 be
       0.07600025 0.006804908 0.12085423 -0.22607882
000020 78 60 a8 bd db 46 83 be 4e b1 d2 bd b5 72 8b bc
       -0.08221525 -0.25639996 -0.102877244 -0.01702247
000030 af f8 06 3e 74 80 1e be 08 77 f0 3d 1c 3c 4d be
       0.13180803 -0.15478688 0.117414534 -0.20042461
000040 fb 81 5c 3e 7a ce b6 bd 5d c1 33 3e e2 ff 00 bb
       0.21533959 -0.08926101 0.17554231 -0.0019683768
000050 8d 34 e4 3d 0e 06 45 be 26 fa cd bb 98 71 3c be
       0.11142836 -0.19240591 -0.0062859235 -0.18402708
000060 6e f8 a9 bd 5f c5 5e bd 35 22 ac bd e3 ec a5 bd
       -0.08299337 -0.054387446 -0.08404962 -0.08101823
000070 83 4d d3 3c 07 b5 b2 3c e0 93 0b 3e 56 c8 95 3e
       0.025793796 0.021814836 0.13630629 0.29254407
000080 13 42 89 3e f3 cc 73 bd 2a 40 9a 3d ea 44 a7 bd
       0.26808223 -0.059521627 0.075317696 -0.08167441
000090 9a 3d 83 be 31 e6 3e be d3 b5 09 be 25 5e 83 3e
       -0.25632936 -0.18642499 -0.13448267 0.25657764
0000a0 20 4b 85 3d 8e 2d 1d bb be 34 17 3c 84 7b 30 3d
       0.065084696 -0.0023983452 0.009228883 0.043086544
0000b0 1c 30 78 3e ef 8e 5f 3e 23 b5 51 3e 9a 10 4e bd
       0.24237102 0.21831869 0.20479254 -0.0503088
0000c0 6f 8d 40 3e 80 a5 dc bd b1 51 74 be 13 ee 24 be
       0.18803953 -0.10773754 -0.23859288 -0.16106443
0000d0 3c 59 5f bd a5 b3 90 be 6c 1a 0d bd 5f f6 0f bd
       -0.05452846 -0.28262058 -0.034449026 -0.035147067
0000e0 1c c0 06 be 98 2e 11 3e 67 01 fd 3d c3 c0 0e 3e
       -0.13159221 0.1417793 0.12353783 0.1394072
0000f0 d1 08 62 3e 39 bf 82 bd f6 98 62 3d fa b4 cf bd
       0.22073676 -0.06384129 0.055321656 -0.101419404
000100 a2 1c 40 be ce 65 74 be e8 8d ee bd e4 7a 48 3c
       -0.18760923 -0.2386696 -0.1164816 0.012236331
000110 a0 d4 58 39 c0 28 c1 bc b6 c9 d1 3c 9a 3d 09 be
       0.00020678574 -0.023579001 0.025608879 -0.13402405
000120 f1 70 85 3e fd de 41 bc 82 c4 58 3e e9 bb c3 bd
       0.2606273 -0.01183295 0.21168712 -0.095573254
000130 3b 34 de 3d c7 0e 26 be f4 2f 84 be fe cc c3 bd
       0.10849806 -0.16216575 -0.25817835 -0.095605835
000140 37 5a 24 bd 0d 59 5a be 20 c9 74 be 26 4d 89 bd
       -0.040125098 -0.21323033 -0.23904848 -0.06704168
000150 23 4c 99 3d a5 01 24 3e c0 c5 19 bd d9 fc f4 3d
       0.07485225 0.16016252 -0.037542105 0.11962289
000160 d6 ec e8 bb cf 6d 4f be 18 eb 8b 3e bc 6d 8a be
       -0.007108311 -0.20256732 0.273278 -0.27036846
000170 c1 f5 12 3b da 10 6b 3d f5 ca f9 3b 1b 91 18 3e
       0.0022424313 0.057389118 0.0076230713 0.14899103
000180 32 10 47 3d 65 24 48 3d 89 79 21 bd 70 7f cb bc
       0.04859943 0.048862834 -0.039422546 -0.02484104
000190 6b 3a 5f 3e f2 2b d5 3d dd 8e 6a 3d 29 77 99 bd
       0.21799628 0.104087725 0.05726515 -0.07493431
0001a0 97 f8 4e 3e 9a 76 e5 3d 4c bb 8b bd 0f a7 9b bb
       0.20212017 0.11204262 -0.068228334 -0.0047501395
0001b0 93 52 80 be 16 fe 57 be b5 3f 39 be 05 ef 72 be
       -0.25063 -0.2109302 -0.18090709 -0.23723991
0001c0 d3 c2 a4 bd 56 65 ee 3c 26 b9 96 3d eb bc 6a bd
       -0.08044972 0.029101055 0.07359533 -0.057309072
0001d0 f3 29 7f 3e fb 42 84 3d eb 60 83 3e a6 77 48 bd
       0.24918346 0.06458088 0.2565988 -0.04894223
0001e0 a0 d5 7f be a5 55 ba bd ed 2f 3b bd 74 e2 84 3e
       -0.24983835 -0.09098367 -0.045700002 0.2595402
0001f0 c7 8b 45 3d 9d ee cf bd 89 8d 00 3e 89 f0 10 bd
       0.048229005 -0.10152934 0.12553991 -0.035385642
000200 e9 2f 81 3e a7 ae 1b 3e 2a 5f 80 3e 19 9d 69 be
       0.25231865 0.15203343 0.25072604 -0.22813834
000210 e4 ec 96 3e a7 63 2e be bd 29 21 be 48 d8 93 be
       0.29477608 -0.17030202 -0.15738578 -0.28875947
000220 c5 0f 2e 3c 4f e7 61 bd 8e 9e 31 be 6b f9 84 be
       0.010623877 -0.055152234 -0.1734564 -0.2597154
000230 88 e7 4f 3d 1c 81 6f be 12 d4 42 3d 0a 2e f4 bd
       0.050757915 -0.23389095 0.047565527 -0.11922844
000240 41 86 08 3b e1 de fc 3c b7 d6 cc 3c 24 b9 28 3d
       0.0020831975 0.030867996 0.025004728 0.04119219
000250 e0 5c fb 3c 05 55 75 3e a5 6e 44 3e bc 35 00 bd
       0.030683935 0.23958214 0.19182833 -0.031301245
000260 ff 2c 03 be 2d fb 88 3e a3 b0 80 be 17 b7 ae 3d
       -0.12810133 0.26754132 -0.25134763 0.08531015
000270 f2 99 62 3c 08 40 05 bc 72 ae 38 be 6c e6 ad 3c
       0.013830649 -0.008132942 -0.18035296 0.021228038
000280 2c 2d bb 3c a1 24 56 bd 2d 0b 02 39 93 71 5c 3d
       0.022848688 -0.052281026 0.0001240193 0.05381925
000290 da 63 04 bd 37 e1 14 3d b8 b4 5b 3e c0 4e f0 3d
       -0.03232179 0.036347594 0.21455657 0.1173377
0002a0 b1 21 92 3e ac 23 56 be 25 4a 89 be 13 73 2d be
       0.2854133 -0.20912045 -0.2681438 -0.16938429
0002b0 9b ad 16 be 23 ff ef 3d 4b b4 82 be 04 37 b6 3d
       -0.14714663 0.11718585 -0.25528178 0.08897212
0002c0 8a 8c b7 3d db 5d 9b 3d 44 fd 80 3e 9f 2c 04 be
       0.089623526 0.07586261 0.25193226 -0.12907647
0002d0 31 17 58 be b5 67 04 bb f8 ea 72 be 62 2d fe 3d
       -0.21102597 -0.0020203416 -0.23722446 0.12411
0002e0 7a b6 bc bd b7 47 23 be 85 fb 85 be 09 98 4b 3e
       -0.09214492 -0.15945326 -0.26168457 0.19882216
0002f0 8f 0d f2 bd cf 08 03 3e 26 54 de 3d e3 97 f3 bc
       -0.11818992 0.12796329 0.10855894 -0.029735511
000300 20 39 25 3d ff d0 98 3e 0a d8 69 3d 40 a7 64 3e
       0.04033768 0.2984695 0.057090797 0.22329426
000310 7b cc 88 3e 1b 15 31 be c0 24 be bd 66 dc 64 be
       0.26718506 -0.17293207 -0.09284353 -0.223497
000320 d0 e3 91 be 1c 15 01 3e d3 28 7c be 18 8c 13 bc
       -0.2849412 0.12605709 -0.24624948 -0.009005569
000330 ed 4c ec 3d aa cb d4 3d 06 52 9e 3e 44 9d 72 be
       0.1153811 0.10390408 0.30921954 -0.23692805
000340 7a bf 2e be a8 76 64 3d 3e af 5c be cf 98 5b 3e
       -0.1706523 0.055777222 -0.21551225 0.2144501
000350 ca 96 b6 bd cd 0d 82 be b2 6b d1 bd ab cd 8f 3d
       -0.089154795 -0.25401154 -0.102256194 0.0702165
000360 3b 35 40 be 4b 75 dc bc 36 22 42 3e b8 bc 41 3e
       -0.18770306 -0.026911398 0.18958363 0.18919647
000370 b0 c6 34 bd 10 b1 a3 3d 0e 0b 45 3e 08 f6 7d 3e
       -0.044134796 0.07992756 0.19242498 0.24800885
000380 2f 8a 8a 3d 6c 10 dd bc ba 56 05 3d 3b 24 4a be
       0.06764638 -0.02698537 0.032553412 -0.19740383
000390 85 54 17 be 14 32 bb 3d be 58 34 3d a1 36 59 bc
       -0.14778335 0.09140411 0.044029944 -0.013257653
0003a0 02 c8 7f 3e 76 32 0f 3e 2d e2 92 3d c3 9a 9a bd
       0.2497864 0.13984093 0.07172046 -0.0754905
0003b0 b9 d7 40 be 88 0e 98 3d aa 7d 80 bb 23 d1 bb 3d
       -0.18832292 0.074246466 -0.0039212303 0.09170749
0003c0 11 1b 62 be 20 2f 9e be 11 4f 50 be 8f 15 51 bd
       -0.22080638 -0.3089533 -0.20342661 -0.05104595
0003d0 45 10 73 bd 0d 3a 27 3e e8 00 5f 3e 12 f1 5c 3e
       -0.059341688 0.16330738 0.2177769 0.21576336
0003e0 df d3 0e 3c 5c fc 81 3d 21 3a 56 3e cb 93 92 3e
       0.008717506 0.06346962 0.20920612 0.28628382
0003f0 48 3f 02 be 22 69 73 bb 30 ca 15 bd b6 33 88 3e
       -0.12719452 -0.0037141521 -0.036569774 0.26601952

q_head.DAC_block.ff1.weight f4 [32, 14]
000000 38 3c 33 bd f4 f3 57 3e 47 17 56 be 0f 8e 31 bd
       -0.0437586 0.21089154 -0.20907317 -0.04334837
000010 af c4 58 3e b9 69 e0 3d 33 9f 2f be f3 85 0a 3e
       0.21168779 0.10957665 -0.17150573 0.1352766
000020 6f 25 45 3e 5e e3 bd 3d 66 10 0f be a5 ca df 3d
       0.19252561 0.092718825 -0.139711 0.10927323
000030 39 87 2e 3e d8 c6 b8 3d 43 8a 07 bd 69 a3 ee 3c
       0.17043771 0.090223014 -0.03309084 0.029130654
000040 19 36 03 3e 36 44 a2 be f8 46 08 3e 20 33 d0 3d
       0.12813605 -0.31692666 0.13308322 0.10166001
000050 f5 53 ac 3e 72 57 cf bd 8a 29 68 bd 5a 64 9d be
       0.33657804 -0.10124101 -0.05668024 -0.30740625
000060 40 bd e5 3d 93 9d 2b 3e 3b 30 c1 bd eb 32 78 3e
       0.11217737 0.16759329 -0.09433027 0.24238174
000070 df bd 99 bd da 49 87 be 3d 6c b1 be 0f d6 a1 be
       -0.07506918 -0.26423532 -0.34652892 -0.31608626
000080 d7 16 a2 bd 82 a3 61 3e 11 9c 54 3d 17 c6 27 bd
       -0.079145126 0.2203503 0.05190665 -0.040960398
000090 a5 a4 2b 3e d3 ee 34 be 19 2f b1 be ca 50 f6 3c
       0.16762026 -0.17669229 -0.34606245 0.03006782
0000a0 03 73 af 3e 8d 60 dc bd b1 4e 1f be b1 fe 11 3e
       0.34267434 -0.10760603 -0.15557362 0.14257313
0000b0 9f 2d d6 3d a7 a5 27 3e 50 20 06 3d d5 16 62 3c
       0.1045792 0.16371785 0.03274566 0.013799389
0000c0 6e 5c 2d be fa 2a ae 3d cc fe cb bd 40 54 28 3e
       -0.1692979 0.08504291 -0.09960708 0.16438389
0000d0 57 86 bd bd 76 44 d0 bd c9 68 2b be d5 03 ea 3d
       -0.09254139 -0.10169308 -0.16739191 0.11426512
0000e0 6d 61 84 bd 7f 61 05 3e a7 15 81 3d 6e c4 aa be
       -0.06463895 0.13025473 0.06302958 -0.3335299
0000f0 25 97 e1 bd 01 7f 89 3e bc 42 7f 3e 0f 59 81 3e
       -0.11015157 0.2685471 0.24927801 0.2526326
000100 c0 b5 93 3e 97 16 8b be 7f 49 96 be eb 11 f7 3d
       0.28849602 -0.27165672 -0.29352948 0.120639645
000110 2c 22 4f 3e 64 d5 a0 3e 5e d5 f2 bc de 9a c1 3c
       0.2022788 0.31412804 -0.029642757 0.023633417
000120 58 d2 44 bd 9f 0b 3d 3e 56 ec 8b 3d d9 ac 19 be
       -0.048052162 0.18461464 0.06832187 -0.15007342
000130 b4 3a 34 bd 1e 33 90 be 20 4d 4e be 13 b1 17 be
       -0.044001296 -0.28164 -0.20146608 -0.14813642
000140 41 fa 18 3e 79 ab 06 3e b6 53 80 be a3 55 10 be
       0.14939214 0.13151349 -0.25063866 -0.14095168
000150 bb bb 8b be 8c 18 9f 3d f5 8c 00 3e 17 0e 36 be
       -0.27291664 0.07768354 0.12553771 -0.17778812
000160 a3 15 33 be bf 94 0d 3e 76 e1 5b bd 2c ea d7 bd
       -0.17488723 0.13826273 -0.053681813 -0.105427116
000170 2e 34 04 be a0 66 57 be d2 e6 8c be 3a f2 89 3e
       -0.1291053 -0.21035242 -0.27519852 0.26942617
000180 1c 50 9e 3d 0c 96 4d bd 6c 55 11 3e 61 07 bf be
       0.077301234 -0.050191924 0.14192742 -0.37310317
000190 aa f1 6a be 18 fd bc bd 76 29 99 be 92 1c 7f 3e
       -0.2294375 -0.09227961 -0.29914445 0.24913242
0001a0 d5 c2 c5 3e d1 29 8f 3e c4 43 2f 3e a3 0f b3 bd
       0.38625208 0.2796159 0.17115694 -0.08743217
0001b0 73 01 55 bd 96 cc 3e 3e dc 51 a8 3e a2 74 af 3e
       -0.052003335 0.18632731 0.32874954 0.3426867
0001c0 9d d4 08 be d2 56 ac 3e fd 54 b2 3e 69 08 92 3e
       -0.13362356 0.3365999 0.34830466 0.2852204
0001d0 b9 af 72 3e d7 54 24 bd 0e ab a9 be 5f 83 76 3c
       0.23699845 -0.040119972 -0.33138317 0.01504597
0001e0 0c 7e 1a be d6 12 c1 3d 74 66 b1 3e 53 38 f7 bc
       -0.15087146 0.09427421 0.34648478 -0.030178225
0001f0 f8 bd 9e 3d 63 3d 3c be 07 ea 10 be a1 cc c3 3e
       0.077510774 -0.18382792 -0.14151774 0.38242057
000200 9d d5 b0 3d 0d b0 07 3d d2 8a 1b bd 6a 37 99 bd
       0.086344935 0.03312688 -0.037974186 -0.074812725
000210 18 89 94 be 50 6e 19 3e 7d 3c 85 be c0 a1 28 3d
       -0.29010844 0.14983487 -0.2602271 0.04116988
000220 97 e3 79 3e da 0a 34 3c 68 3a 48 bd 44 9f b4 be
       0.24403225 0.010988915 -0.048883826 -0.3527776
000230 ff 4e a4 bd 7a 0e 9b be a7 a7 08 be c2 07 5d be
       -0.0802288 -0.30284482 -0.13345204 -0.2158499
000240 ab 0a c3 be ec 42 0a 3d cf f4 b2 3e f6 20 88 3e
       -0.38094077 0.033755228 0.349524 0.26587647
000250 9a 33 88 3c 0c a2 97 bd 4b 75 0d 3d 4b 70 2f 3e
       0.016626168 -0.07403955 0.034535687 0.1713268
000260 ab 31 48 3e 7c 15 02 3e 16 f4 99 be 96 8e 95 be
       0.19550197 0.12703508 -0.30069035 -0.29210347
000270 26 69 ac be 1b c3 0f 3e e1 90 a4 be 0c d7 8f 3d
       -0.33673972 0.1403927 -0.32141784 0.07023439
000280 ca 92 21 be 24 3a aa bd e8 08 98 3e 2d 30 9b be
       -0.15778652 -0.08311871 0.29694295 -0.30310193
000290 ee 35 c3 bc 56 e2 1c 3e af 90 90 3e f5 af 16 3e
       -0.023829427 0.15320715 0.28235385 0.1471556
0002a0 69 2c 63 be 7e 6a 27 be 3a a9 81 3d d7 04 a6 3d
       -0.2218491 -0.16349217 0.063311055 0.08106392
0002b0 04 03 16 be de 21 cf 3c c5 b6 b8 3e b1 ba e9 bd
       -0.14649588 0.025284704 0.36076942 -0.11412562
0002c0 54 0b b8 3d 5c 12 25 be 6f f8 5b 3d df 90 ba 3e
       0.08986536 -0.16120285 0.05370372 0.36438653
0002d0 cc 47 02 bd a0 d8 97 3e 87 c8 a5 bc 27 f2 64 bd
       -0.031806752 0.2965746 -0.02023722 -0.055894997
0002e0 b6 a7 63 3e ab e2 91 3d ac 75 7c 3d 1a e0 db 3c
       0.22231945 0.071233116 0.06163566 0.026840258
0002f0 80 81 4b 3e 8a e2 8e 3b dd 20 d7 bd db 29 65 bd
       0.19873619 0.0043605017 -0.10504315 -0.05594812
000300 e4 f0 8a 3e 6b 93 15 be 3f bd 87 be 0c 59 22 be
       0.2713691 -0.14607017 -0.2651157 -0.15854281
000310 0e 7d 51 3e 3d 72 85 3e 33 39 a5 bc 42 da 70 3d
       0.20457861 0.2606372 -0.020168876 0.058801897
000320 1b 77 b3 3e 82 2c 72 be eb 72 7b be 93 7b b6 3d
       0.35051808 -0.23649791 -0.24555556 0.08910289
000330 86 72 12 bd d2 79 81 3e 69 dd 08 be ed 81 0c be
       -0.03575375 0.25288254 -0.13365711 -0.13721438
000340 7a 2d 75 be 29 28 14 be 10 26 1a 3d 41 8f 4d bd
       -0.23943129 -0.14468445 0.037633955 -0.050185446
000350 45 cb 9e 3d fe 80 ff bd cd 26 0d 3d c0 60 27 3e
       0.07753614 -0.12475775 0.03446083 0.16345501
000360 41 cb b6 3d ad e7 73 be 50 79 5a be 9a 06 3a 3c
       0.08925486 -0.23818846 -0.2133534 0.011354113
000370 96 79 82 3e ff 08 09 bc e3 bc 60 bd 56 46 9a bc
       0.25483388 -0.008363961 -0.054867636 -0.018832367
000380 ec 79 06 3e ef 44 c6 3d 52 a9 dc bd 0c 9b 4d 3c
       0.13132447 0.09681117 -0.10774483 0.012549173
000390 ae b6 44 3e a9 02 2a 3e e2 34 ab 3d ac 5c 78 bd
       0.19210312 0.16602577 0.08359696 -0.060635254
0003a0 b2 17 86 be ee 5e aa 3e b0 c9 9d bd 5b 5c 9c bd
       -0.26189953 0.3327555 -0.077044845 -0.07634803
0003b0 21 ab 9d be 24 84 14 3d a3 4f 3e be d3 a0 6e 3e
       -0.30794623 0.03625883 -0.18585066 0.23303537
0003c0 65 46 03 3e 36 6d b6 bd 15 4f 6e 3e 44 d2 8b bd
       0.12819822 -0.08907549 0.23272355 -0.06827214
0003d0 46 0d f4 3d 8a 2c 87 be 61 05 12 3e a5 a3 2e 3e
       0.11916594 -0.26401168 0.14259864 0.17054613
0003e0 6b 6c ed bc f1 c2 51 3e c5 cc 3d 3d 6d 9c e4 bd
       -0.028982362 0.2048452 0.04633786 -0.11162648
0003f0 23 27 01 3e cd 29 85 3b 7d 03 37 3e d0 10 ba bd
       0.12612586 0.004063821 0.17872424 -0.09085238

q_head.DAC_block.ff1.bias f4 [32]
000000 9e 1a 87 be a4 c7 3d 3e 98 d2 93 3e 63 cc 05 be
       -0.26387495 0.18533188 0.28871608 -0.13066249
000010 44 e1 95 3e a1 41 39 be b4 a0 ae 3e d4 2f 26 3e
       0.29273427 -0.18091442 0.34106982 0.16229182
000020 56 c0 4b be cb 1f 3d be e8 2a e4 3d b2 e1 65 3e
       -0.19897589 -0.1846916 0.11140996 0.22449377
000030 06 32 c3 3d f6 3b 3c 3e 7a 69 93 be e0 68 33 be
       0.095310256 0.18382248 -0.2879141 -0.17520475
000040 e4 2b 76 be 43 b5 07 3d 98 6a 87 be 72 0a 4e be
       -0.2404018 0.03313185 -0.26448512 -0.20121172
000050 4f 56 9a be 2a cc 65 be a0 03 4e 3e 27 b7 76 be
       -0.30143973 -0.22441164 0.2011857 -0.24093305
000060 e0 ed 9f be 25 47 a8 3d 93 59 7c 3e 95 05 05 be
       -0.31236172 0.08216695 0.24643545 -0.1299041
000070 f9 61 72 be 02 39 a8 3e 16 6d 07 3d 38 8f a5 be
       -0.23670186 0.32855994 0.033063017 -0.3233583

q_head.DAC_block.ff2.weight f4 [16, 32]
000000 26 7f 08 be 45 5b 9c 3c 34 a2 d2 bd 2e f7 6f 3e
       -0.13329753 0.01908649 -0.10284844 0.23434135
000010 65 fb b4 bd 99 ea 6e 3d a4 0e 3a be e9 6c 19 be
       -0.08837012 0.0583292 -0.18169647 -0.14982952
000020 41 e3 75 3e 3c 6a 1f 3e a5 c5 f6 bc d3 e3 57 be
       0.24012472 0.15567869 -0.030123541 -0.21083002
000030 85 52 35 bc b3 15 40 bd d3 a2 7c 3e f5 37 45 3e
       -0.0110670375 -0.046895694 0.24671488 0.19259627
000040 08 fe 2e 3e 2b 05 95 bc 1a 8f 91 3d be f3 6a 3e
       0.17089093 -0.01819094 0.071073726 0.22944543
000050 36 96 a1 3d 05 b6 6e 3e b9 38 6f be 44 e6 d1 bd
       0.078899786 0.23311622 -0.23361482 -0.10248998
000060 37 22 50 3e 94 9a 40 be 89 ad 98 bb ad a5 62 bd
       0.20325552 -0.18808967 -0.004659359 -0.055333782
000070 c6 52 7d bd d3 ac 1e be a4 bd 37 3d 4d 40 dc 3d
       -0.061846517 -0.15495615 0.04485859 0.10754452
000080 96 42 b4 bd 54 36 d5 bd 1c 10 6c be c4 80 4b 3c
       -0.08801763 -0.10410753 -0.2305302 0.012420837
000090 70 c6 a6 bd 52 0f 16 3e ae be de bc 19 d9 9a bd
       -0.08143318 0.14654282 -0.027190533 -0.07560939
0000a0 f8 49 7b 3e 5b 9f 80 3e 64 cc 2f be 53 a7 ff bd
       0.24539936 0.2512158 -0.17167813 -0.124830864
0000b0 46 c1 a6 bb e4 88 cf bd 86 86 40 3e e4 71 63 3e
       -0.005088958 -0.10133532 0.18801317 0.22211415
0000c0 7d 06 70 3e 4a 18 00 3e 96 79 6f 3e b8 5c 07 bc
       0.23439975 0.12509266 0.23386225 -0.008261852
0000d0 68 f4 10 3e 99 6c 93 3d ef af 40 be cc 26 1e 3e
       0.14155734 0.07198448 -0.18817113 0.15444487
0000e0 ab f2 94 3d 23 7a 5e be 37 3b a6 3d e8 8a 47 bd
       0.07272848 -0.21726279 0.08116763 -0.048716456
0000f0 f3 4a 29 3e a1 60 22 be 8b b9 f2 bd 5f 31 4a 3e
       0.16532497 -0.15857174 -0.11851796 0.19745396
000100 03 3a a3 3d 17 5c 8f bc 0c 9d 17 3d 27 6c ef 3d
       0.07970049 -0.017499967 0.037015006 0.1169055
000110 c1 8e 71 be 0f f4 65 3e 60 99 81 3d 45 ee 2d 3d
       -0.23589613 0.22456382 0.06328082 0.04246356
000120 d2 70 3c 3e 49 d7 6a 3e ca f8 c1 3c 98 f0 0e be
       0.18402413 0.22933687 0.023678202 -0.13958967
000130 9a f1 ae 3c ff 06 aa 3c a9 c1 37 3e 0c 75 08 bd
       0.021355439 0.02075529 0.17944969 -0.03331475
000140 e4 05 a9 bc 8d ec 11 bc fa d7 b1 bd cb d2 80 bd
       -0.020632692 -0.008906496 -0.086837724 -0.062902056
000150 77 01 5b 3e 2d ff 4f 3d 5c 62 a8 3c 7c e7 11 bd
       0.21387278 0.050780464 0.020554714 -0.03562115
000160 94 70 b0 bd a1 9f 75 bd 0f eb 58 3d db 5c 31 3e
       -0.086152226 -0.059966687 0.052958544 0.17320578
000170 d1 34 39 3d 24 4d 04 be 57 a4 63 3d 8f 11 70 3d
       0.045216385 -0.12920052 0.05557665 0.058610495
000180 91 7f 87 bd 2c f4 0d be cf bc 17 3d 3a 56 4e 3e
       -0.06616128 -0.13862675 0.037045296 0.2015008
000190 55 a1 2d be 24 16 4d 3e c9 1d d9 bc d9 48 ca bd
       -0.16956075 0.20027977 -0.02650346 -0.09877176
0001a0 b1 61 1d 3b e1 3d 06 3d 70 be 97 bd 49 bc 89 bd
       0.0024014527 0.032773856 -0.0740937 -0.06725366
0001b0 87 59 55 be f3 fa 1f be 52 39 53 bd 5c 48 5c 3e
       -0.20834933 -0.15623073 -0.051568337 0.21511978
0001c0 c9 32 00 bd 0e e0 0f bc d8 d1 b8 3d 8c f4 8a 3e
       -0.031298432 -0.008781446 0.090243995 0.271397
0001d0 22 a2 6c 3c 93 f1 50 3e 06 3c cf bd 35 59 1b bc
       0.014442952 0.20404653 -0.101188704 -0.009481718
0001e0 54 41 24 3d 03 c6 ad bd d2 92 1b be e8 15 5b 3e
       0.040101364 -0.08485033 -0.15192726 0.21395075
0001f0 a2 bc 8d 3e 18 a6 40 be 5d 75 cd 3d ec ce 49 bd
       0.27682978 -0.1881336 0.10032151 -0.0492696
000200 02 da a8 3d 5c b6 b0 3d b3 9d 60 be 0a 4d 05 3e
       0.08244707 0.08628532 -0.21935157 0.1301767
000210 f1 43 5a 3c 3d 4d 88 bd 61 ad d1 3a ac 81 58 be
       0.013321863 -0.06655357 0.0015997106 -0.21143216
000220 88 e7 81 3e 9f ea be 3d 79 d1 1b bd 64 cd f4 bd
       0.25371957 0.09322094 -0.038041566 -0.11953238
000230 d4 e4 70 be 60 9c 9d 3b 56 7f 65 3e fa b8 5b 3e
       -0.23524791 0.004809901 0.22411856 0.21457282
000240 58 73 be bd b8 19 b6 bd f7 8d 04 3e 6a 37 de 3d
       -0.09299344 -0.08891624 0.1294478 0.10850413
000250 17 0f 4d 3e eb 46 1a 3e 8c 0d 17 be 7c bf e8 bc
       0.20025288 0.15066116 -0.14751261 -0.02841162
000260 1c b5 ec 3d 67 64 46 3c f1 ba 84 be e8 98 8d 3d
       0.11557981 0.012108899 -0.25923875 0.0691393
000270 48 16 2a 3d 5b 00 d2 bb f5 21 09 be 59 44 da 3d
       0.041525155 -0.006408734 -0.1339186 0.106575675
000280 f8 bd 2f 3e 5f 83 94 3c 54 60 1b be 9b cd 99 bd
       0.17162311 0.018129049 -0.15173465 -0.07509919
000290 5f b6 01 be fe 64 8f 3d a1 dd 02 be a9 42 67 be
       -0.12667225 0.070016846 -0.12779857 -0.22584023
0002a0 99 8d 0f 3e ee 92 50 3e 93 21 1f be ff f8 a2 3d
       0.14018859 0.20368549 -0.15540151 0.079576485
0002b0 89 67 7e be e5 de 46 3d 7b 48 5e 3e b4 ca a0 bd
       -0.24844183 0.048552413 0.21707337 -0.078511626
0002c0 7c 99 3d 3d 7e 97 36 3d c1 97 3a bd 2d 43 c4 3d
       0.046288952 0.044578068 -0.04555488 0.09583125
0002d0 b1 ee 64 3e 1c b8 64 3d 6f 93 7a be f8 d1 5e 3c
       0.22356679 0.055839643 -0.24470304 0.013599865
0002e0 89 af 28 bd 78 f7 3b be 26 39 9d bd 06 09 4b 3e
       -0.04118303 -0.1835612 -0.07676916 0.19827661
0002f0 68 38 59 3e e7 da a0 bd 80 3d c1 bd 7c 77 4c 3d
       0.21212924 -0.07854252 -0.09435558 0.049918637
000300 fe 73 1b 3d bc 20 38 be 96 26 8d be af 19 c9 ba
       0.037952416 -0.17981237 -0.275685 -0.0015342737
000310 75 25 b5 3c dd 3c 90 3d dc 90 47 be 5b 1b 0d bd
       0.022112587 0.07042859 -0.19488853 -0.034449916
000320 59 1f b1 3c 22 d9 40 3e 9a 5a 79 38 1e 4e 58 3d
       0.021621393 0.1883283 5.9450605e-05 0.052808873
000330 0a 96 45 bd bd 61 c9 bd cc 84 d6 3d 20 e9 e6 3d
       -0.04823879 -0.09833095 0.10474548 0.11274934
000340 ef 06 43 3e 56 02 46 3b 7c 20 b2 bc 3b a5 65 bd
       0.19045614 0.0030213795 -0.021744005 -0.05606578
000350 78 72 37 3e 1f 32 7a 3e 75 d7 53 be cd 56 b7 3d
       0.1791476 0.24433182 -0.20687659 0.08952103
000360 42 4f 86 3e 5c 72 f2 bd f8 b7 27 bd 94 06 20 3e
       0.26232344 -0.118382186 -0.04094693 0.1562751
000370 42 62 c7 bc c8 f3 82 be bd f3 82 bd 7e 07 64 3e
       -0.024338845 -0.25576615 -0.06394146 0.22268483
000380 dc 56 b6 3d b3 92 a5 3d 7b 55 84 be aa dc 85 3d
       0.08903286 0.08084621 -0.25846466 0.06536229
000390 d0 27 c9 bd 7f 0a 76 3e a8 88 2b bd d9 c5 1c bd
       -0.09822047 0.24027441 -0.041878372 -0.03827462
0003a0 01 75 0f 3e 54 eb 89 3a 31 c5 b4 bd 55 e7 7a be
       0.14009477 0.0010522404 -0.08826674 -0.24502309
0003b0 8e ee 80 be f0 64 9e 3d bf b9 b0 3d 52 d8 09 3e
       -0.25182003 0.07734096 0.08629178 0.13461426
0003c0 d9 a5 ea bc f2 62 a7 3d 46 7d 46 3d 7b ce dd 3b
       -0.028643535 0.08173169 0.048459314 0.006768999
0003d0 ce e0 df 3c e0 0f 6e bd 69 42 e7 bd 6b ba 22 bd
       0.027328875 -0.05812061 -0.112919636 -0.039728563
0003e0 9e 1d fc 3d fc a5 1a be 65 25 02 be 41 a8 fe 3d
       0.123103365 -0.1510238 -0.12709577 0.12434436
0003f0 84 b5 bc 3d a3 78 8e 3d 70 ed a2 3d 93 c8 b8 bd
       0.09214309 0.069566034 0.07955444 -0.090226315

q_head.DAC_block.ff2.bias f4 [16]
000000 b3 34 57 bd 3c e5 36 be ec ac a9 bd d4 1d b2 bd
       -0.052540492 -0.17860883 -0.08284935 -0.086970955
000010 a4 04 46 be ff 10 38 bc 56 49 23 bd 76 e5 e8 bd
       -0.19337708 -0.011234521 -0.03986486 -0.11371891
000020 c5 8b 13 be 51 61 40 3d c7 d8 63 be b9 bc de bd
       -0.14408787 0.04696781 -0.22250663 -0.1087584
000030 8d cd c7 bd 96 b1 dc bb 6b d4 65 be b8 1c 4e 3d
       -0.097560026 -0.006735037 -0.22444312 0.050320357
