checkpoints/q-mamba/20240831_052025/checkpoint-8.pt (torch, 103216 bytes, 52 tensors)

q_head.DAC_block.mamba_blocks.0.A_log f4 [28, 32]
00000000: a08f 5dbd 70e3 1d3f 1b75 823f e323 a73f
00000010: d301 c13f bd52 d93f 944e ea3f 395d fb3f
00000020: bb18 0540 be91 0c40 8391 1240 c67d 1740
00000030: 17cb 1c40 8140 2140 ef55 2640 9dd0 2940
00000040: 07ce 2d40 6403 3140 29a6 3440 7fe0 3740
00000050: 39d7 3a40 ddf9 3e40 38e9 4040 b9a6 4340
00000060: d9fa 4640 0add 4840 b2dc 4a40 5e83 4d40
00000070: d9dd 4f40 c57a 5240 b1b3 5340 f206 5640
00000080: 365d adbd 93bb 1a3f 939d 803f b87a a53f
00000090: 305c c23f c30a d93f 5128 ee3f c22d ff3f
000000a0: 3722 0740 dcf5 0c40 441b 1340 e329 1940
000000b0: 3137 1e40 ad0a 2340 65c7 2640 f13b 2b40
000000c0: 6b4b 2f40 d532 3340 e03f 3640 87b0 3940
000000d0: cff1 3c40 bd5b 3f40 a3e1 4140 787e 4440
000000e0: 3135 4740 3cf2 4940 7fd8 4c40 329e 4e40
000000f0: f57f 5040 f8c7 5240 309d 5540 f211 5740
00000100: 7be3 f9bc 95f2 253f a47f 863f 1f5e ab3f
00000110: 1b49 c63f 021d de3f cb2a f13f c205 0140
00000120: 8796 0840 7b14 0f40 3f21 1540 aaa5 1a40
00000130: 7bc2 1f40 208f 2440 49c3 2840 cfe6 2c40
00000140: add0 3040 b1b8 3440 1ece 3740 c927 3b40
00000150: 9e72 3e40 5815 4140 f3a0 4340 2e5a 4640
00000160: 5f28 4940 daa8 4b40 4e85 4e40 952d 5040
00000170: 6b83 5240 0983 5440 1a2d 5740 14b3 5840
00000180: c877 23bd c4bb 233f 27b2 853f d9e0 aa3f
00000190: a83f c53f d098 dd3f ec00 ef3f b710 0040
000001a0: 927c 0740 54f9 0e40 aa03 1540 4efa 1940
000001b0: 0d33 1f40 49b1 2340 4cdb 2840 fa4a 2c40
000001c0: 4243 3040 4481 3340 b32d 3740 d460 3a40
000001d0: 7d51 3d40 22a3 4140 2865 4340 f322 4640
000001e0: e197 4940 8b53 4b40 0846 4d40 fbf0 4f40
000001f0: 2336 5240 27f8 5440 1227 5640 0367 5840
00000200: e0aa b6bd a5c3 183f 00af 803f 28e0 a63f
00000210: 9be5 c03f b2f2 d83f 110f ec3f faf9 fc3f
00000220: 3c0b 0640 befe 0c40 a524 1340 934b 1840
00000230: 396e 1d40 db1e 2240 961f 2740 84a0 2a40
00000240: 507e 2e40 7f21 3240 1e86 3540 b6c5 3840
00000250: 20e8 3b40 755a 4040 a1b6 4140 b774 4440
00000260: 63ec 4740 4399 4940 f2d6 4b40 a249 4e40
00000270: 7978 5040 cf33 5340 108e 5440 abba 5640
00000280: 77fb dbbb dae5 2d3f e1b4 8a3f b6a5 af3f
00000290: 5857 ca3f 57a4 e23f 059f f33f 9859 0240
000002a0: e2b3 0940 0141 1140 4538 1740 410b 1c40
000002b0: ce4d 2140 cbb3 2540 88fd 2a40 9e3b 2e40
000002c0: 7b43 3240 f45b 3540 2efe 3840 7a35 3c40
000002d0: 4a0e 3f40 5c90 4340 db0c 4540 d4cf 4740
000002e0: bf76 4b40 6509 4d40 c3e3 4e40 bd77 5140
000002f0: 8ddf 5340 3a9d 5640 f5b9 5740 14e3 5940
00000300: fce0 71bb c55a 2f3f c777 8b3f 5f53 b03f
00000310: 5376 cb3f 428b e33f bcc2 f43f eee8 0240
00000320: fd3e 0a40 17d0 1140 79c9 1740 a891 1c40
00000330: d2d7 2140 902d 2640 098a 2b40 45b6 2e40
00000340: c0c4 3240 89b4 3540 3063 3940 9097 3c40
00000350: 6556 3f40 1f0c 4440 9462 4540 8329 4840
00000360: 28f7 4b40 556d 4d40 2814 4f40 45bf 5140
00000370: 2f3a 5440 b610 5740 28e6 5740 b61e 5a40
00000380: 0996 0ebb be2d 303f 8aee 8b3f 0ecf b03f
00000390: 9c67 cc3f a848 e43f 7234 f63f 43a5 0340
000003a0: f207 0b40 5a68 1240 a16c 1840 6b67 1d40
000003b0: dba2 2240 7112 2740 ca3a 2c40 23a0 2f40
000003c0: 58a4 3340 0fbe 3640 c465 3a40 519d 3d40
000003d0: 2a6f 4040 a1cc 4440 0e76 4640 743b 4940
000003e0: 92cb 4c40 cf77 4e40 a341 5040 a2e0 5240
000003f0: 014d 5540 600b 5840 cd1c 5940 1c4b 5b40
-0.05409205 0.6167517 1.0191988 1.3057827 1.5078682 1.6978375 1.830523 1.9637824
2.0796344 2.1963954 2.2901313 2.3670516 2.4498956 2.519562 2.598995 2.6533577
2.7157 2.765832 2.8226416 2.8730772 2.9193861 2.9840004 3.0142345 3.057051
3.1090605 3.1384912 3.1697202 3.211143 3.2479155 3.2887433 3.3078425 3.344174
-0.08465044 0.60442466 1.0048088 1.2928076 1.5184383 1.6956409 1.8606054 1.9935839
2.1114633 2.202506 2.2985392 2.3931816 2.4721186 2.5475266 2.60592 2.6755335
2.7389781 2.7999775 2.8476486 2.9013994 2.9522588 2.9899743 3.0293968 3.070219
3.1126215 3.1554098 3.2007139 3.2284055 3.2578099 3.2934551 3.337719 3.3604703
-0.030503979 0.64823276 1.0507703 1.3388098 1.549106 1.7352602 1.8841184 2.0159764
2.1341875 2.235625 2.3301542 2.4163613 2.4962451 2.5712357 2.6369193 2.7015874
2.7627366 2.8237727 2.8719554 2.9243033 2.9757457 3.0169277 3.0566986 3.0992541
3.143089 3.182181 3.2268863 3.252782 3.289271 3.3204978 3.3621278 3.38593
-0.039909154 0.6395838 1.0444993 1.3349868 1.5410051 1.731226 1.8672156 2.0010202
2.1169782 2.2339678 2.3283486 2.4059024 2.487491 2.5576956 2.6383848 2.6920762
2.754105 2.8047647 2.8621643 2.91216 2.9580986 3.0255818 3.053049 3.0958831
3.149895 3.176974 3.2073994 3.2490833 3.2845542 3.327646 3.3461347 3.3812873
-0.089193106 0.5967353 1.0053406 1.3037157 1.507007 1.6949065 1.8442098 1.9763787
2.0944357 2.2030482 2.2991116 2.3796127 2.4598525 2.5331333 2.6113029 2.666047
2.7264595 2.7832944 2.8363109 2.8870673 2.9360428 3.005521 3.0267718 3.0696237
3.123803 3.1499794 3.1849942 3.2232442 3.257353 3.3000371 3.3211708 3.3551433
-0.0067133266 0.6792885 1.083645 1.3722446 1.5807905 1.7706403 1.9032904 2.0367184
2.1516042 2.2695925 2.3628094 2.438187 2.5203738 2.5890987 2.6717243 2.7223887
2.7853687 2.8337374 2.890514 2.940764 2.9852471 3.055686 3.0789096 3.1220598
3.1791227 3.2036984 3.2326515 3.2729332 3.3105195 3.3533463 3.370725 3.4044847
-0.0036907783 0.6849788 1.0895928 1.3775443 1.5895485 1.7776873 1.9121928 2.045467
2.1600945 2.2783258 2.371672 2.4463902 2.5287976 2.596531 2.6803 2.7298748
2.7932587 2.839144 2.896679 2.9467506 2.989648 3.0632398 3.0841417 3.1275337
3.1869602 3.209798 3.2356052 3.2772992 3.3160512 3.360395 3.3734226 3.4081244
-0.0021756908 0.688198 1.0932171 1.3813188 1.5969119 1.7834673 1.9234755 2.0569618
2.17236 2.287619 2.3816302 2.4594371 2.54119 2.6105006 2.6910882 2.744149
2.8069057 2.8553503 2.9124613 2.9627268 3.006785 3.0749896 3.1009555 3.1442537
3.199925 3.2260625 3.2540061 3.2949605 3.332825 3.3756943 3.3923829 3.4264593

q_head.DAC_block.mamba_blocks.0.D f4 [28]
00000000: 9cea 8e3f a0be 8c3f 02cd 8a3f d6cd 8f3f
00000010: 245f 8f3f 7600 903f 7cd7 8f3f d576 8e3f
00000020: 6089 8e3f 7dfe 8d3f 1b9e 903f 7429 903f
00000030: 2ec2 8d3f c4f3 8f3f 3f02 8f3f eaec 883f
00000040: 9b3c 8c3f edbb 8f3f 07e3 8d3f db5c 8f3f
00000050: fd47 903f 3edb 873f 60b1 913f a263 8a3f
00000060: 0b85 913f a3c3 8f3f da0d 903f 0705 893f
1.1165347 1.0995674 1.0843813 1.1234691 1.120091 1.1250141 1.1237636 1.1130015
1.1135674 1.1093289 1.129825 1.126265 1.1074884 1.1246266 1.117256 1.06973
1.0955995 1.1229225 1.1084908 1.1200212 1.1271969 1.0613782 1.1382256 1.0811656
1.1368726 1.1231579 1.1254227 1.0704659

q_head.DAC_block.mamba_blocks.0.in_proj.weight f4 [56, 14]
00000000: 33e6 083e 3357 533e 62df 84bd b533 343e
00000010: 9f2d b33e aa65 6c3e 59e8 3d3c be33 5c3e
00000020: 08b8 9b3c 32b0 51be cb35 e13c ec3b 073e
00000030: d0e5 143e c3b7 033d 28bc 763e 202d 87bc
00000040: 6070 723d 78b4 0c3e c89c 593e f0e7 193d
00000050: 7580 ba3e 8abd 0ebc 0b56 aa3e aec0 583d
00000060: ad85 2dbe b462 d9bd 8ca1 0ebe fcdc af3e
00000070: a3e8 1cbe 39dc c03d 0ee7 083d a0e2 ccbd
00000080: 5c6a 88be 3847 3ebe 8c06 6cbe d85a 2ebe
00000090: c62b ddbd 5cb9 3dbe 1aa2 4d3e cf02 933d
000000a0: 2b92 da3d 5e93 af3d 002e 8d3e c279 03be
000000b0: 4c81 94bd 3804 093e b076 ae3e d4c0 06bd
000000c0: 9ee3 b73e 2ee8 6a3e 183d e9bd 349a 6abe
000000d0: f8b1 873e bbc4 023e be72 eb3c 0c0d 323e
000000e0: 6c33 983d 6bf8 e3bd fcbc 823b cfd3 a63e
000000f0: 2315 b63d 0960 bb3d 955b bc3e 03dc 843d
00000100: b9d3 463e aa65 6bbd e204 31bd b7cc 753e
00000110: 898c 633d 40ef a63d b363 a33d c022 d2bd
00000120: 568e 913e 5d14 113c 38b1 863e 12b0 203e
00000130: b780 ce3d 68bc 863e 9c1c bd3c e590 853e
00000140: a1c9 fa3d a3b1 903e d4b7 acbb 8cb4 c33d
00000150: affd da3c b104 50bc 22bf 253d 190e 92be
00000160: 25d5 d2bd 4d8e 11be e545 0ebe be9f 62be
00000170: 8b73 e8bd b082 97bd a694 383e f059 7abe
00000180: 5f3d b83d 6f28 7f3d 2473 4c3e 5e5f 903d
00000190: 52e5 c93c 00c0 993e 6c49 8b3c 627c 093d
000001a0: 0565 d7bd 62d7 7d3e 8410 b93d b0d5 e33d
000001b0: be93 2b3e ed8e 3c3e 3511 adbe 0d1f 08be
000001c0: 4663 c43d d6d9 873e d41d 433e 178f 953e
000001d0: a174 d63d a40c 12be e9b6 893e ff2a c13e
000001e0: 76f3 a33e ad8f b7bc 52a8 28bc ff1b ba3d
000001f0: 3dbd 913e f969 febc e395 abbe c836 b0bc
00000200: 69ea 55be 27e0 99bd 7fa2 92be 98a1 d7bd
00000210: c627 dfbd b033 41be 62f1 1dbe 9679 843e
00000220: 02c3 c3bd e631 903e 957c 1f3e ded9 de3d
00000230: 28b7 9f3e 65e1 6f3e af71 963e b8da bb3e
00000240: 0795 a23e 97f8 b43e 60f1 45bd 5682 a6bb
00000250: b295 963e 15e1 4cbc 50c5 72be 0595 c23e
00000260: 490c f4bd c451 c33e 39f4 64be 24c8 9cbe
00000270: f350 873d 5b99 79be 00aa b53b 6150 98be
00000280: 0ad3 acbe 6c99 e53c 1fdc 75be 05df 23be
00000290: da05 5a3e 12d6 46be aa10 9dbe 3387 b8be
000002a0: 6533 923e 2b94 dd3d feed 963c b6c0 563e
000002b0: 840b 0ebd f34f 9c3e a93a 21bd a327 493e
000002c0: 5cf9 aa3e 32ba b43d d5c8 133e 2af7 88bd
000002d0: a5d4 adbd 2d58 8a3e 2531 d23d 65de 85be
000002e0: 33af a33d 8d37 76be a95a 5abe 1dd5 0abe
000002f0: 7fe5 993d 231c 9ebe 39e7 e839 133e 683e
00000300: 2ed2 593e 43e4 9abd 5d64 9dbc d0fd 6bbb
00000310: cf48 eabd a5e5 2dbe 960e a9be e770 acbe
00000320: c288 42be b4ac e9bd 33a7 153d d4ea ad3c
00000330: d301 07bd fcfe aabc 5113 c93d f0a8 503d
00000340: 0da3 2cbe c81a 82be 909e cabc 4e99 8cbd
00000350: b183 62be bbb7 fa3c 9d03 a6bd a1d4 a9be
00000360: de55 813d 0768 1bbe daea 80be 496e 4f3e
00000370: 96c4 fbbd eadc b7be 03e7 a2be cfb4 96bd
00000380: bf24 a6be c1cf 60be 1ca2 b6be f44f bcbe
00000390: 64b4 0dbe fe8c a0be cfde 99bd 2a6b 0ebe
000003a0: bf56 3f3d d4d8 60be 3aaf 0e3d 3d67 7bbd
000003b0: 0149 8f3e c0a9 8a3d 0ecd cc3d 798d 823e
000003c0: 1dbc b5bd 1f86 8e3e fa98 4d3e a231 46bd
000003d0: 9c24 8b3d 75aa 4b3e 0bbe 273e 578f a5bd
000003e0: 12b1 273e 4e49 c1bd e361 ba3e 7e6d 8b3e
000003f0: 40f9 40bd b7d8 9abe f3f2 58be 8d32 8b3d
0.13369064 0.20638733 -0.064879194 0.1759785 0.34995744 0.23085657 0.0115910405 0.21504113
0.019008651 -0.2047737 0.02749147 0.13206452 0.14540792 0.03215767 0.24095213 -0.01650101
0.0591892 0.13740718 0.21251214 0.03757471 0.3642613 -0.008712182 0.3326877 0.05291813
-0.16945525 -0.10614529 -0.13928813 0.34348285 -0.15323119 0.09417004 0.033423476 -0.10004163
-0.26643646 -0.18581855 -0.23049372 -0.17026842 -0.10799365 -0.1852774 0.20081368 0.0717827
0.106724106 0.0857303 0.27574158 -0.12839416 -0.07251224 0.13380516 0.34074926 -0.03289874
0.35915846 0.22940132 -0.11388606 -0.22910386 0.26502967 0.12770359 0.028741237 0.1738779
0.07431683 -0.11131366 0.003989814 0.32583472 0.0889075 0.091491766 0.36788622 0.064872764
0.19416703 -0.05747 -0.043217547 0.24003874 0.055553947 0.08151102 0.079780005 -0.10260534
0.28428906 0.008854953 0.26307082 0.15692165 0.10083144 0.26315618 0.023084931 0.26087108
0.12245489 0.28260526 -0.0052709375 0.09555921 0.026732294 -0.012696431 0.04046548 -0.2852638
-0.1029456 -0.1421444 -0.1389385 -0.2213125 -0.11350163 -0.073979735 0.18025455 -0.24448371
0.089960806 0.06229442 0.19965798 0.0704944 0.024645481 0.30029297 0.017002784 0.033565886
-0.10517315 0.24789193 0.09036353 0.11124742 0.16755578 0.18413897 -0.3380219 -0.13293095
0.095892474 0.26533383 0.19054347 0.2921073 0.10471464 -0.14262635 0.26897362 0.37728116
0.32021683 -0.022407377 -0.010294037 0.09087371 0.2846469 -0.031056391 -0.33512792 -0.021510497
-0.20890202 -0.07513457 -0.286396 -0.105288684 -0.10896258 -0.18867373 -0.15424111 0.25874013
-0.09558679 0.2816307 0.15574868 0.108813986 0.31194425 0.23425825 0.2938361 0.36690307
0.31754324 0.3534591 -0.048325896 -0.005081455 0.29411083 -0.012504836 -0.23708081 0.38004318
-0.11916406 0.3814832 -0.22358789 -0.30621445 0.06607237 -0.24374907 0.005543947 -0.29748824
-0.3375476 0.028027259 -0.24009751 -0.16003044 0.21291295 -0.19417599 -0.30676776 -0.3604065
0.28554836 0.108192764 0.01842403 0.20971951 -0.03467895 0.30529746 -0.039362583 0.19644026
0.3339337 0.088245764 0.1443208 -0.06687768 -0.08487824 0.27020398 0.1026328 -0.26146236
0.07992401 -0.24044628 -0.21323647 -0.13557859 0.07514476 -0.30880842 0.00044422763 0.2267993
0.21271583 -0.07563069 -0.019212896 -0.0036009438 -0.114396684 -0.16982134 -0.3301894 -0.33679888
-0.18997481 -0.11409894 0.036536407 0.021230139 -0.032960724 -0.02087354 0.098181374 0.05094236
-0.16859074 -0.25411057 -0.024733812 -0.06865178 -0.22120549 0.030605188 -0.08106158 -0.33170035
0.06315206 -0.15176402 -0.25179178 0.20256914 -0.12293355 -0.35910732 -0.31816873 -0.07358705
-0.3244991 -0.21954252 -0.35670555 -0.3677975 -0.13838345 -0.31357569 -0.075132005 -0.13908067
0.046713587 -0.21957713 0.034835078 -0.061377753 0.27985385 0.067706585 0.100000486 0.2549856
-0.088737704 0.278367 0.20077887 -0.048387177 0.06794092 0.19889243 0.1638109 -0.080839805
0.1637614 -0.0943781 0.36402807 0.27231973 -0.047112703 -0.30243465 -0.21186428 0.06796751

q_head.DAC_block.mamba_blocks.0.conv1d.weight f4 [28, 1, 4]
00000000: c020 97bc 2c42 803e 3089 aabe 8f25 9abe
00000010: 202d f13e e08c 69be def4 113f b908 183f
00000020: d8dc e23e 5099 5d3e c41a 8a3e 7fa3 91be
00000030: e6a2 cbbe 6cd5 063e bd3e 82be 7a12 8abe
00000040: d4ac c4be f016 5b3e 86fd 29be d605 69be
00000050: be9d d7be 0451 58be 166e ca3e 5fbd fe3e
00000060: 5824 c43e 70af 1a3e 6084 053e d9c9 a2be
00000070: 50ed 673d 80fa 1ebc e1f9 dfbe 5c05 33bd
00000080: c07c 70bc 1897 b5be ae2b 6b3e a18f 8b3e
00000090: 38cc d23e 7e4f 8c3e 0269 043f 8e05 0abd
000000a0: 6c78 c3be c819 b5be a553 febd e3e6 0f3f
000000b0: e42d 79be 984c ab3d 94f2 f63e f6a0 ef3e
000000c0: bc05 5b3e b422 11be 5f24 aabe d0f2 e2be
000000d0: e083 66be c025 e3bc 4828 0fbf 3e0d 913d
000000e0: f801 76be 2846 89bd 84f6 4abe 1c9c 163f
000000f0: e074 6ebd cc2a 763e 2834 703e 06c6 103f
00000100: 08ab e93e eab9 d33e 87f5 e0be 4834 40bd
00000110: be54 e9be 8071 de3e c7be 90be 7383 88be
00000120: 2c16 4d3e c045 c4be 1a95 dabe fc14 96be
00000130: 1e2e f03e 6aa5 97be 4a68 143f 8131 883c
00000140: 789b 27be 6224 84be bdd2 f4be 1f3c afbe
00000150: 30f3 e83e 0c3b 29be 63d6 f9be 8703 eebd
00000160: 885a 55be ea6b ea3e 3772 a6bd 7880 c43e
00000170: 9893 913d 0cc4 a83e ddbe b5be 24f8 02bf
00000180: 8c67 6d3e 9461 593e 0725 d13d e86d 483e
00000190: de5b 8c3e 4451 31be 4f7b ebbe 73cb c5be
000001a0: c80c 06be 22f6 c7be 6c75 edbe a150 31be
000001b0: b01c d13d 1267 bbbe a550 bebe 8489 81be
-0.018448234 0.25050485 -0.3330779 -0.3010678 0.4710474 -0.22807646 0.5701426 0.5938831
0.44309115 0.21640515 0.26973546 -0.2844505 -0.3977272 0.13167351 -0.2543849 -0.26967221
-0.38413107 0.21395469 -0.16600618 -0.22756132 -0.42112535 -0.21124655 0.39537114 0.49753854
0.38308978 0.15105987 0.13038778 -0.31794623 0.056622803 -0.009703279 -0.4374533 -0.043706283
-0.01467818 -0.35466838 0.22965881 0.27258018 0.41171432 0.27404398 0.5172273 -0.033696704
-0.38177812 -0.35371232 -0.12418298 0.5621168 -0.24333912 0.083642185 0.48231947 0.4680249
0.21388906 -0.14173394 -0.33230874 -0.44325876 -0.22511244 -0.027727962 -0.5592084 0.07082604
-0.24024189 -0.06702834 -0.19820601 0.58831954 -0.05821693 0.24039763 0.23457396 0.5655216
0.456383 0.4135278 -0.43937322 -0.04692486 -0.45572466 0.4344597 -0.28270552 -0.26662788
0.20027989 -0.38334465 -0.4269188 -0.29312885 0.46910185 -0.29618388 0.5797163 0.016625168
-0.163679 -0.25809008 -0.4781703 -0.34225556 0.45498037 -0.16526431 -0.48796377 -0.116217665
-0.20835316 0.45785457 -0.081272535 0.38379264 0.071082294 0.32962072 -0.3549718 -0.5115988
0.23184031 0.2122863 0.102121405 0.19573176 0.2741384 -0.17316157 -0.45992514 -0.38631782
-0.13090813 -0.39054972 -0.46378648 -0.17315914 0.1021055 -0.36602074 -0.37170902 -0.2530023

q_head.DAC_block.mamba_blocks.0.conv1d.bias f4 [28]
00000000: 91b5 f5be 5e80 0b3f 4713 893e cf51 8ebe
00000010: 701e 08bf cf37 f33e d180 043f 94ae 42be
00000020: eaff 1a3f f50b bcbe 2b0f a73d 71b7 2ebd
00000030: bc36 c4be 52f3 c73e bd16 cabe 7c4e b1bb
00000040: b6a5 2b3e 456b bbbe cfda 213f c19a 89be
00000050: fd0a b2be 2001 fa3e 7434 c03e 457d 93be
00000060: a332 c83e 624c fb3e 7cdc 223f a66d d43e
-0.47990087 0.5449275 0.2677252 -0.2779679 -0.53171444 0.47503516 0.5175906 -0.19011909
0.60546744 -0.36727872 0.0815719 -0.042655412 -0.3832301 0.39052826 -0.39470473 -0.0054109674
0.16762432 -0.36605278 0.632245 -0.2687588 -0.34774008 0.48828983 0.3754002 -0.2880651
0.39101133 0.49081713 0.6361768 0.41489905

q_head.DAC_block.mamba_blocks.0.x_proj.weight f4 [65, 28]
00000000: 495e 423e 3631 89bc b67f 74be 2448 623c
00000010: 3f7e 4e3e 1c52 24be d7ee 7f3c c7f1 3d3e
00000020: cdaf 76bd 9a80 463e c694 73bc e86c 163e
00000030: 117a 803e f670 a3be 5279 a63e 9c6a 893e
00000040: 8b92 03be 4313 da3d 56f4 47be 4e9a bc3e
00000050: bf22 1d3e 8a89 82bd d122 e3bd f203 f23d
00000060: ccbc 22be d153 7dbe 71ab cb3b b144 55bd
00000070: 8c64 993d 7ccd febc 63a0 25be 15ff 823e
00000080: aa86 563e 8e9b 2dbe 2b3e dabd 4cc9 f03b
00000090: 5c86 98be 9493 aa3d 8a33 4cbe 8db6 473d
000000a0: 84e1 513e ca90 a6bc 0f48 383e b9b3 163e
000000b0: bb0b 18bd 988f 4d3d 14ea 9bbe 4047 7b3e
000000c0: 78bf 243d 91bb a7bd acec 48be fee1 81bc
000000d0: 45cf 5fbd e06d 4bbe 3f52 e7bd ac9c 8ebd
000000e0: 3252 723e 39ca 88be 5daa ba3c 0626 9a3c
000000f0: f57f 9f3e b171 69be f28e 90be f2ca 793e
00000100: 4672 b2bc a720 713e 3a13 81be 6bd2 593e
00000110: b8ec 253d 04df 8fbe 607d 933e 6e50 51bd
00000120: d3f3 34bd 44af da3c ce45 013c 6629 e6bb
00000130: 3fd4 673e 265f e8bd b0e0 883b cd2a 6b3e
00000140: c972 8c3c 9d13 1bbd 8888 49be e6fd 89be
00000150: 86a4 b5bd b04f cc3d ead7 c43d 0611 b4bc
00000160: 6908 78bd 4519 9dbc 3249 843e d5a3 79be
00000170: a314 943e bc9a 43be d967 e03d dee5 f8bd
00000180: cf93 72be 7993 d83d 8c25 05be 9b51 47be
00000190: 100e 8f3d 02c5 3abe 9c4b 1fbd 21b8 53bd
000001a0: 0869 ccbd 6504 d3bc a916 6d3e b2ed a0be
000001b0: 4b7f 503e 6846 9f3e caa2 393e 4430 9c3c
000001c0: daff 8ebd 698b 3a3e f17f 233e 17be 39be
000001d0: c510 82be c437 143e 7e51 3d3e 4686 39be
000001e0: dfca 17bd 8b87 1dbe 947f 91bd f6e3 31bb
000001f0: ee71 953d b530 2e3e 9577 afbd b035 33be
00000200: 3b83 7e3e ed49 34be 3390 6f3e 27c8 003d
00000210: 781f 24be 4ee9 833e 1169 cf3d aeee febd
00000220: 2e2b 3c3e 1ab6 6f3e d0b3 a83d a2da 943d
00000230: ea03 a1be 56e7 803d 51a4 9c3e 2f63 e3bc
00000240: 1db4 8bbe a53f a23d b84f e93d 78f4 4dbd
00000250: c61a 90bc 86e3 65bd a523 053e 0b40 27bc
00000260: 55b9 70be 880f 903d 2c1b 9bbe cf99 54bd
00000270: ed5e 60bc f9ba b23c 1065 2e3e af2f 98be
00000280: c9e1 a4be 1e5e f23d fc0a 8a3e 98b8 19be
00000290: bd08 223e 23ec 1b3c b38b 7e3e 2fe3 ec3d
000002a0: 7e20 64bd af3a b6bc 5562 a13e a7ec 16be
000002b0: d46c 4ebc bbba 453e 9625 673e aaa7 0abe
000002c0: 7d72 983e e7c9 3d3d 4aa9 8b3d 53e4 a5bc
000002d0: a19d 003d cf49 203e ce82 9fbe ea35 c43d
000002e0: 2d19 323e e72b 13be 1a4d fd3c 4cbe 57be
000002f0: a18d 01be 58bb 613e 628e 253d 8f23 9abe
00000300: fe83 143e fdcd 9c3e 76a5 893d 93df 6c3e
00000310: 82da 02be d4ae 243e 574e 883e f944 9ebe
00000320: 41bc 47be e8c1 283e 9c6d a73e 34f1 ab3c
00000330: 8187 a83e 1ce9 2fbe 8ed5 833e 17b9 5bbe
00000340: 1c10 66bd 9e68 a53e 611f 1fbe a54f 23bd
00000350: 9132 543e ba45 4ebe 9ac6 4e3e c63d 13be
00000360: 02b4 8abe fa5e f73d 10ed a9bc d425 a2be
00000370: 69a4 a63e 488f 7e3c 50b9 96bc d192 8a3e
00000380: 8563 813e 2ea4 f0bd 1391 24be d906 693e
00000390: 3d98 9e38 e977 4dbe 3c17 a2be 3130 963d
000003a0: 1f0a 85bd 93ad 9b3d 9b25 5dbe 240b 933e
000003b0: 4449 8a3e feb6 53be f9ce b73d f7e9 b1bd
000003c0: 93df c7bd 834f 0e3e b392 69bd a0b0 123e
000003d0: 8cae 993e 7250 8dbe 6e66 a5be 1ce8 e5bb
000003e0: 4b32 a8be d802 5fbe 4b62 8abe 93b8 93be
000003f0: 708c 3cbd f90f 17be 2abd 7bbd efd8 a93d
0.1898128 -0.016747098 -0.23876843 0.013811145 0.20165347 -0.16046947 0.015620909 0.18549262
-0.06022625 0.19384995 -0.014867013 0.14689982 0.2509313 -0.3192212 0.32514435 0.2683915
-0.1284887 0.10648205 -0.195268 0.36836475 0.15345286 -0.0637389 -0.11090625 0.11817159
-0.15892333 -0.24739005 0.006215506 -0.052067462 0.07489881 -0.031103842 -0.16174464 0.25585237
0.20949808 -0.1695387 -0.10656389 0.007348215 -0.29790008 0.083289295 -0.19941536 0.04875808
0.20496184 -0.020332713 0.17996238 0.14716996 -0.037120562 0.05018577 -0.30452025 0.24538898
0.04022166 -0.08190072 -0.19621533 -0.015854832 -0.054641027 -0.19866133 -0.11294984 -0.069634765
0.23664168 -0.26716784 0.022786314 0.01881696 0.3115231 -0.22797276 -0.2823406 0.24393824
-0.021783005 0.23547612 -0.2520998 0.21271674 0.040508956 -0.28099835 0.2880659 -0.051102094
-0.04417784 0.026694901 0.007890178 -0.007023978 0.22639559 -0.11346273 0.0041771755 0.22965546
0.017144578 -0.0378605 -0.19680989 -0.26951522 -0.08869271 0.09976137 0.09611495 -0.021980774
-0.060554896 -0.019177089 0.25837094 -0.24378903 0.28921995 -0.19101995 0.10957307 -0.12153219
-0.23689197 0.10575003 -0.13002604 -0.19464724 0.06985104 -0.18239215 -0.038890466 -0.05168927
-0.099809706 -0.025758931 0.23153175 -0.31431347 0.20361058 0.31108403 0.18128505 0.019065984
-0.069823936 0.18217243 0.15966775 -0.1813892 -0.2540342 0.14474398 0.18488118 -0.18117628
-0.037058707 -0.15383737 -0.07104412 -0.0027143932 0.07297121 0.17010768 -0.0856773 -0.17500949
0.24854748 -0.17606325 0.23394851 0.03144088 -0.1602763 0.25763935 0.10127462 -0.12447868
0.18375847 0.2340931 0.082374215 0.072682634 -0.314483 0.06294124 0.30594113 -0.027757255
-0.27285853 0.079222955 0.11392158 -0.05028197 -0.017590892 -0.056125186 0.13001879 -0.01020814
-0.23508199 0.07034212 -0.30294168 -0.051904496 -0.013694507 0.021817671 0.1703074 -0.2972388
-0.3220351 0.11834358 0.26961505 -0.15011823 0.15823646 0.009516749 0.24857979 0.11566769
-0.05569505 -0.02224478 0.31520334 -0.14738713 -0.012599189 0.19309513 0.22572932 -0.13540521
0.29774848 0.046335127 0.06819399 -0.020250475 0.031400327 0.15653156 -0.31154484 0.09580596
0.17392416 -0.14372216 0.030920554 -0.21068686 -0.12651683 0.22044122 0.04041899 -0.30105254
0.14503476 0.30625907 0.06721012 0.23132162 -0.12778667 0.16082317 0.2662227 -0.30911997
-0.19505407 0.1648022 0.32700813 0.020989038 0.3291588 -0.17178768 0.25748867 -0.21457325
-0.056167707 0.3230638 -0.15539314 -0.039870877 0.20722415 -0.20143786 0.20192948 -0.14379033
-0.2709046 0.12078662 -0.020742923 -0.31669486 0.3254731 0.015537091 -0.01839891 0.27065137
0.2527124 -0.11750065 -0.16070966 0.22756518 7.562384e-05 -0.20065273 -0.3165835 0.073334105
-0.06496071 0.07601466 -0.21596377 0.28719437 0.27009022 -0.20675275 0.08975024 -0.086872034
-0.0975944 0.13897519 -0.05702467 0.1432519 0.3001598 -0.27600437 -0.3230471 -0.007016195
-0.3285087 -0.21778429 -0.27028117 -0.28851756 -0.04603237 -0.14752187 -0.061459698 0.0829333

q_head.DAC_block.mamba_blocks.0.dt_proj.weight f4 [28, 1]
00000000: 2c8f 02bf 0899 023f 9e67 e23e def7 5e3f
00000010: dacc 343f d804 f53c 9905 30bf 14d0 693e
00000020: 850b 7fbe f58a 94bd 571b 6abf 6329 3a3f
00000030: 31a3 5abf 3de8 cebe 6fc0 91bd 2f2a b73e
00000040: 75c9 9bbe 5532 bf3e 45f5 fc3d 200e ca3e
00000050: 1274 bc3e 66e6 41bf a301 bb3e 5cc1 513f
00000060: bbf2 31bf 917b 0ebf 01e3 10bf c06f 603e
-0.5099971 0.5101476 0.4421968 0.87096965 0.7062508 0.029909536 -0.6875854 0.22833282
-0.24906738 -0.072530665 -0.9144797 0.727194 -0.8540526 -0.4041156 -0.07116782 0.3577437
-0.30427137 0.37343088 0.12351469 0.39463902 0.36807305 -0.75742185 0.36524686 0.8193567
-0.69511 -0.556573 -0.5659638 0.21917629

q_head.DAC_block.mamba_blocks.0.dt_proj.bias f4 [28]
00000000: 9af4 92c0 3be0 28c0 172a 83c0 d1ac 90c0
00000010: 152e 07c0 1bbf c7c0 a2c0 d1c0 e10e b2c0
00000020: 9967 20c0 2acf c1c0 e500 99c0 4844 60c0
00000030: 9889 98c0 3fce 80c0 a163 8ec0 0848 a2c0
00000040: e8ef 29c0 9058 15c0 04ab c3c0 d458 56c0
00000050: 8b7c a2c0 acb1 c2c0 dab4 a3c0 c2e9 99c0
00000060: 0fd4 aec0 7fd1 06c0 d6de 1dc0 a736 1ac0
-4.5923586 -2.638686 -4.098888 -4.5210958 -2.1121876 -6.2420783 -6.5547647 -5.5643163
-2.506323 -6.0565386 -4.781359 -3.5041676 -4.766796 -4.0251765 -4.4496617 -5.071293
-2.6552677 -2.3335304 -6.114626 -3.3491716 -5.077703 -6.0841885 -5.1158266 -4.809785
-5.463386 -2.1065366 -2.4667258 -2.4095857

q_head.DAC_block.mamba_blocks.0.out_proj.weight f4 [14, 28]
00000000: ed44 f7bd 7000 7c3e 9071 293d 7107 773e
00000010: f4d1 9c3d bb35 ca3b 5a37 fc3d a220 6abe
00000020: 719b aabd 3310 84be 7abe d3bd 2e28 84bc
00000030: 0370 083e ce14 23be 5ae0 f53d 4a5b 4ebe
00000040: ebbb 643e 9acb b3bd ddb3 343e e36c 9fbb
00000050: 7c9a e63d a80c 45be e571 14bc 78d5 3dbe
00000060: 4e6b b2bd 27e8 75bd 1812 b1bd 0abd a8bd
00000070: 07ad be3c 39ed be3c 888e 0d3e 1ef8 953e
00000080: 4189 893e 0030 76bd f17c 9e3d a5f2 abbd
00000090: 22c8 83be 564b 40be 8b40 0abe d5ca 833e
000000a0: 91f9 873d 1ca1 d0bb 9ab6 3d3c cd5a 2c3d
000000b0: e275 7f3e 42ed 603e 628f 523e 73a1 58bd
000000c0: aca7 413e fdc3 dcbd f0e3 76be f030 26be
000000d0: 5c70 6ebd 314d 93be e614 16bd 4339 15bd
000000e0: 447e 09be 4f20 143e c3b0 023e cacf 103e
000000f0: 2952 643e 1263 86bd fa5e 6e3d 40df d4bd
00000100: 339e 45be 5a10 76be 6379 f6bd b557 713c
00000110: caea 4e3b b943 d7bc e390 e83c 080a 0cbe
00000120: 6fc0 863e b770 15bc 0b65 5a3e 47b6 c8bd
00000130: 4d58 e33d c8d4 27be c60d 86be 536b c8bd
00000140: 5d14 33bd 5774 60be 1098 79be 395c 91bd
00000150: d557 933d 6afa 263e c2aa 08bd e2f2 f83d
00000160: fc69 a2bb 512e 51be b974 8d3e 8ece 8bbe
00000170: 734f 39bb 8714 643d f0dc 813b 100f 1b3e
00000180: 8a0b 533d bd0d 3b3d eb89 15bd 971a e1bc
00000190: df1f 633e 8ab2 da3d d10b 713d 9fed 9ebd
000001a0: 6a85 513e 7811 e23d 128c 93bd db84 e6bb
000001b0: fd58 82be 1678 5ebe 9af6 3dbe 31db 76be
000001c0: fee2 a9bd dfd3 f93c 9f44 9a3d 0cd7 69bd
000001d0: 3e93 7f3e 3b40 833d 3065 843e f9d3 51bd
000001e0: d644 80be 7a15 bdbd a81e 3cbd 013d 853e
000001f0: 0a59 4a3d ad63 d8bd 56f5 023e b98b 14bd
00000200: 131f 853e 51f5 1c3e d2c3 803e 594c 6cbe
00000210: 006a 973e 4e49 2ebe f3a5 23be 7c6e 94be
00000220: fe2a e23b f6f9 76bd a8b5 33be c685 85be
00000230: e815 5c3d b1e5 70be 167e 3c3d 0100 f4bd
00000240: 7254 ff3a 5be6 ff3c dfb2 ba3c 47c4 333d
00000250: 1151 fa3c f3ef 763e 46f9 433e 7c2c 02bd
00000260: 6e44 04be 839d 8b3e 5c16 82be 6632 b03d
00000270: 80f7 8a3b 0ee2 18bc ef7b 39be cec3 c73c
00000280: f555 b43c 85e7 57bd 0f0b 353b 2035 613d
00000290: b93d e4bc 0655 2c3d 2ba5 5d3e bbb7 f13d
000002a0: ad3e 933e e8e9 57be 468a 8abe fa46 2ebe
000002b0: 16ad 17be 2cab f13d 13b9 83be c942 ba3d
000002c0: 4846 bc3d a4c0 9d3d 9dc1 813e 866a 05be
000002d0: e2b7 59be 47f3 833a 3c0d 75be 8f7c 003e
000002e0: 2acf c6bd 26e1 24be e96e 86be 75c7 4d3e
000002f0: 53ce f4bd 7a9d 033e cb91 e33d 9097 e8bc
00000300: 1716 323d 2b4b 9b3e 07c7 743d 80b1 663e
00000310: 65b4 8a3e 1277 33be af75 c4bd 55c7 65be
00000320: 6977 92be 1837 023e 0474 7fbe ae42 b8bb
00000330: f5fe f03d 0640 d93d 090e 9f3e 7227 74be
00000340: 960c 31be 1f51 7a3d 5e40 60be c252 5d3e
00000350: dc62 c8bd 4c24 83be 3e69 d4bd ac54 973d
00000360: 7a1b 42be 5ed6 d8bc e2f3 453e a3cd 433e
00000370: 6c7d 1fbd 74b1 b13d ed8d 483e bf20 803e
00000380: 04b3 943d 0fd6 e1bc b134 073d 09e1 47be
00000390: 148d 15be 14da b93d 0cb1 283d 59b6 0fbc
000003a0: 57ea 7a3e ec06 123e 55b2 893d 303e 98bd
000003b0: b5b4 40be e4e5 ab3d fa19 07bc 408b ba3d
000003c0: f49e 73be 8769 9ebe bfeb 50be 2f2c 3abd
000003d0: 8fa4 71bd 9d7c 243e 79e3 613e 48bb 5d3e
000003e0: 9c6a 843c cc61 903d 06a6 563e dd9d 913e
000003f0: a588 07be 1702 5fbb 6f23 1abd 23d0 863e
-0.120736934 0.24609542 0.041368067 0.24123932 0.07657233 0.006170956 0.12315245 -0.22864011
-0.08330429 -0.2579361 -0.10339065 -0.01613244 0.13323979 -0.15925905 0.12005682 -0.20152012
0.2233731 -0.08779068 0.17646737 -0.004865275 0.11259934 -0.19243109 -0.009060358 -0.18538463
-0.08711873 -0.06003585 -0.08646029 -0.08239181 0.023275865 0.023306476 0.13823903 0.2929086
0.2686253 -0.06010437 0.077386744 -0.0839589 -0.25738627 -0.18778738 -0.13501184 0.25740686
0.06639398 -0.006366862 0.01157918 0.042078782 0.24947312 0.21965507 0.20562509 -0.052888345
0.18911618 -0.10779569 -0.24110389 -0.16229606 -0.058212623 -0.2876983 -0.036641024 -0.036431562
-0.13427073 0.1446545 0.12762742 0.14141765 0.22296967 -0.06561865 0.058196045 -0.10394144
-0.1929863 -0.24029675 -0.120348714 0.014730384 0.003157305 -0.02627741 0.0283894 -0.13675702
0.2631869 -0.009121112 0.21327607 -0.09800392 0.111008264 -0.16389763 -0.26182383 -0.097860955
-0.04372059 -0.2191938 -0.24374413 -0.07097668 0.07194487 0.16306463 -0.033365972 0.12155701
-0.004956482 -0.20427825 0.27628115 -0.27306026 -0.0028276115 0.05568364 0.0039631054 0.15142465
0.051524676 0.0456674 -0.036508482 -0.0274785 0.22180127 0.10678585 0.05884916 -0.077601664
0.2046105 0.11038488 -0.07204451 -0.0070348806 -0.25458518 -0.21725497 -0.18551102 -0.24107052
-0.082952484 0.030496536 0.0753262 -0.05708985 0.24958512 0.06408735 0.2585845 -0.051227544
-0.25052518 -0.09232612 -0.045927674 0.26023105 0.04940132 -0.10565887 0.127889 -0.036266062
0.2600027 0.15327956 0.251494 -0.23076 0.2957306 -0.17020151 -0.15981273 -0.28990543
0.0069020977 -0.060296975 -0.17549765 -0.26078624 0.05373183 -0.2352512 0.046018682 -0.11914063
0.0019480123 0.031237772 0.02279037 0.043888357 0.030556234 0.24114971 0.19138059 -0.031780705
-0.12916729 0.2726861 -0.25407684 0.08603363 0.00424093 -0.009331239 -0.18113683 0.02438536
0.022013644 -0.05271103 0.0027625 0.054982305 -0.027861463 0.042073272 0.21645038 0.11802622
0.28758755 -0.21085322 -0.2705862 -0.17019263 -0.14812121 0.118002266 -0.25727138 0.090947695
0.091930926 0.07702759 0.25343028 -0.13028917 -0.21261552 0.0010067009 -0.2393083 0.12547515
-0.09707482 -0.16101512 -0.26256493 0.20095618 -0.11953416 0.12853041 0.11111792 -0.028392583
0.043478098 0.30330786 0.05976012 0.22528648 0.27090755 -0.1752589 -0.09592759 -0.2243932
-0.28606728 0.12716329 -0.249466 -0.005623183 0.11767379 0.106079146 0.31065395 -0.23843172
-0.17289957 0.06111252 -0.21899554 0.21613601 -0.09784481 -0.2561363 -0.10371636 0.07389197
-0.18955794 -0.026469406 0.19331315 0.19121413 -0.03893797 0.086764246 0.1958539 0.25024983
0.07260707 -0.027567891 0.033009235 -0.19519438 -0.14604598 0.09074798 0.04118447 -0.008771502
0.24503456 0.14260453 0.06723467 -0.07433736 -0.18818934 0.083934575 -0.008245939 0.09108591
-0.23791105 -0.30939886 -0.2040243 -0.045452293 -0.058994826 0.16063161 0.2205943 0.21653473
0.016164117 0.07049903 0.2096177 0.28440753 -0.1323572 -0.0034028345 -0.03763145 0.2633067

q_head.DAC_block.ff1.weight f4 [32, 14]
00000000: 16dc 4dbd 9caa 513e f83d 5cbe e2fc 39bd
00000010: 3d22 4e3e 288e ef3d ea81 2abe b870 153e
00000020: a319 503e 0074 b73d 7ee3 13be 5169 fd3d
00000030: 449b 2e3e a61b d03d 12d6 19bd 05d2 cc3c
00000040: 3943 fd3d 5532 a5be fcea 043e ad3e d93d
00000050: 206b ae3e a9d9 c8bd 547e 5abd 16c4 9fbe
00000060: aa0d dd3d 3271 2e3e 3eb3 b7bd b6b3 7b3e
00000070: 2e65 a1bd fefb 88be 1649 b3be 4694 a3be
00000080: b3ba a9bd 18ff 653e 80a1 603d 23d3 18bd
00000090: e7d2 2f3e 5cd9 37be 89b3 b2be 76f2 0b3d
000000a0: 1685 b03e f3e2 d3bd 2b65 1fbe ee0f 123e
000000b0: 1366 d63d 73da 2a3e e2da f43c 631c 733c
000000c0: ae35 2ebe 1b47 b43d 8446 c5bd 3abf 2a3e
000000d0: 0c4e bbbd 7152 c5bd a28d 2fbe 7d2c f13d
000000e0: 3857 85bd 6ad1 043e 61a5 7f3d 5181 acbe
000000f0: fb85 ddbd 4a4c 893e e63d 803e 9346 803e
00000100: 587e 923e 176a 8cbe e003 97be 39ac ee3d
00000110: 1c32 533e 3788 9f3e 07ad fabc 2c83 bb3c
00000120: f9b3 47bd 7eb5 3f3e d984 833d 9da9 17be
00000130: 58dc 34bd 6003 8ebe 7eab 49be 16cc 15be
00000140: 5a6a 193e 61f8 0d3e 4151 82be 125b 0bbe
00000150: cddb 8dbe 498b 973d 41eb f83d 1eea 38be
00000160: cc17 38be 60a5 123e fe3b 4fbd a206 cebd
00000170: 6e53 fdbd 1c0c 5abe fc76 8ebe 44f2 8c3e
00000180: bd05 a13d c008 37bd a3f6 0c3e a800 c1be
00000190: b13a 6fbe f113 c4bd b98a 9bbe 6e16 823e
000001a0: 357a c73e 4a81 913e e279 343e f943 b9bd
000001b0: 70c2 62bd bf40 443e 8a59 a93e 151b b23e
000001c0: 6641 08be f3a5 ac3e a6ad b23e 8ca9 933e
000001d0: bc1c 713e 5990 23bd e53f aabe 4d86 883c
000001e0: 4a8c 18be 92e6 c53d 2d15 b23e 4e94 dcbc
000001f0: c1a1 973d b82e 3abe 8961 10be ee19 c43e
00000200: 8c2f b23d 5991 153d be45 23bd ae93 98bd
00000210: 0e29 95be 3179 1b3e 9613 84be 463e 333d
00000220: ff5d 7b3e 41ea 743c dc5a 58bd d660 b3be
00000230: ac62 adbd 9e17 9dbe 7721 0dbe 23c3 61be
00000240: 0f1e c5be 6b4b 1e3d bbd1 b43e 5726 8a3e
00000250: 561b ac3c 404c 9fbd 0f85 fc3c 07b9 333e
00000260: ba5f 4b3e f6a1 063e 493d 99be 96f7 94be
00000270: abd4 abbe 4e85 0d3e 1845 a2be eadf 8a3d
00000280: 94d3 21be 44b3 b3bd 7380 953e 64eb 9bbe
00000290: c161 c3bc 6550 153e 7d59 923e 7f4e 113e
000002a0: 0eca 67be af9f 2bbe 5f12 713d 5f22 9d3d
000002b0: 2984 1abe 22d2 f73c 70a0 ba3e 04e4 e0bd
000002c0: 5cb4 c13d 79d3 28be 7d70 4c3d bffe bc3e
000002d0: 4e7f ecbc 2051 9a3e d85b a8bc a6af 65bd
000002e0: 0a6d 633e 3f5a 913d a471 7b3d 5808 df3c
000002f0: 8ba0 4b3e 673c 963b 6553 d6bd 49b0 65bd
00000300: 62e1 8a3e 2642 15be d0b8 87be b901 22be
00000310: 074c 513e bc6b 853e b748 a5bc 74c6 7c3d
00000320: 850b b23e ef0d 71be ba23 7cbe e262 bc3d
00000330: 5858 05bd 8691 823e c6ef 07be ad4e 07be
00000340: d8f8 78be 9fab 10be 7ba6 293d e1c4 3fbd
00000350: d256 a63d 1afc f7bd 24e4 1b3d 5217 233e
00000360: 2793 b03d 5382 77be 8a76 5ebe 400b 6c3c
00000370: f40d 843e df44 48bc 3377 6abd 34e4 babc
00000380: c4d5 0a3e d929 ce3d d10b d4bd 3299 873c
00000390: a20d 493e 151b 253e 141d a43d 1daf 84bd
000003a0: 9671 88be c017 ac3e 8b9c 96bd b4c9 a5bd
000003b0: cb00 9fbe ae62 013d d933 3dbe cff6 6e3e
000003c0: b89f 033e 3ad8 b4bd b8b6 6e3e d1ac 8cbd
000003d0: 6dad f33d c05a 87be bc2d 113e f2ed 2e3e
000003e0: aad8 ebbc 1b0b 513e 5e83 3d3d dd19 e6bd
000003f0: fb3c 063e 5239 0d3c e4e6 3b3e 4529 b5bd
-0.05025872 0.20475239 -0.21508014 -0.045407183 0.20130248 0.11697036 -0.16651121 0.1459378
0.2032228 0.08957672 -0.1444225 0.12373603 0.17051417 0.101615235 -0.03755767 0.025002489
0.12366337 -0.32264963 0.12980264 0.106076576 0.34066105 -0.098071404 -0.053343132 -0.3120429
0.10793622 0.17035368 -0.089697346 0.24580273 -0.078806266 -0.26754755 -0.35016698 -0.3194906
-0.08287563 0.22460592 0.05484152 -0.03731073 0.17170297 -0.1795401 -0.349026 0.034166776
0.34476537 -0.103460215 -0.15565936 0.14263889 0.10468688 0.16684894 0.029889528 0.014838311
-0.17012665 0.08802625 -0.096325904 0.1667451 -0.09145746 -0.09634865 -0.17143872 0.117760636
-0.06510776 0.1297051 0.062413577 -0.3369241 -0.1081657 0.26816016 0.25047225 0.25053844
0.28612018 -0.2742469 -0.29495144 0.116539426 0.20624584 0.3115861 -0.030600084 0.022889696
-0.04875562 0.18721578 0.06421823 -0.14810796 -0.04415545 -0.2773695 -0.19694325 -0.14628634
0.14981976 0.1386428 -0.25452617 -0.1360896 -0.27706757 0.073996134 0.12154246 -0.18058059
-0.17977828 0.14320898 -0.050594322 -0.10059859 -0.123694286 -0.21293682 -0.27825153 0.27528584
0.078624226 -0.04468608 0.1376596 -0.37695813 -0.23362233 -0.09574116 -0.30379274 0.25407737
0.38960424 0.28418952 0.1762462 -0.09046168 -0.05536121 0.19165324 0.33076125 0.34786287
-0.13306198 0.3372036 0.34898108 0.28840292 0.23546118 -0.039932583 -0.33251873 0.016665602
-0.14897266 0.096631184 0.3478178 -0.026926186 0.07403899 -0.18181884 -0.14099707 0.38301033
0.08700475 0.036515567 -0.039861433 -0.07450043 -0.29132885 0.1518295 -0.25796193 0.04376056
0.24547575 0.014948429 -0.052821025 -0.35034817 -0.08466086 -0.3068208 -0.13782297 -0.22047095
-0.38499495 0.038646143 0.35316262 0.26982376 0.021009129 -0.077782154 0.030825166 0.17551051
0.19860736 0.1314772 -0.2992957 -0.29095143 -0.3356069 0.13820383 -0.3169334 0.067809895
-0.15803367 -0.087744266 0.2919956 -0.30453026 -0.023850324 0.1458145 0.285839 0.141901
-0.22635671 -0.16760133 0.05885541 0.076725714 -0.15089478 0.030251566 0.3645053 -0.109809905
0.09458229 -0.1648692 0.049911965 0.36913106 -0.028869297 0.30140018 -0.020551607 -0.056075715
0.22209564 0.07097291 0.061387673 0.027225658 0.19885461 0.0045848372 -0.10465125 -0.05607632
0.27125078 -0.14576015 -0.26508188 -0.1582097 0.20439158 0.26058757 -0.020176275 0.061712697
0.34774414 -0.23540471 -0.24623004 0.09198548 -0.032554954 0.2550165 -0.1327506 -0.13213606
-0.24313676 -0.14127968 0.041418534 -0.046818618 0.081220284 -0.121086314 0.03805937 0.15926865
0.08621817 -0.24170808 -0.21724907 0.014406979 0.25791895 -0.012223451 -0.057242583 -0.022813894
0.13558108 0.100665756 -0.10353816 0.016552541 0.19634107 0.16123612 0.08013359 -0.06478713
-0.2664916 0.3361187 -0.07354077 -0.080951124 -0.31055292 0.03158825 -0.1847681 0.23336338
0.12853897 -0.088303044 0.23311889 -0.068688996 0.11898313 -0.26436424 0.14177603 0.17082956
-0.028789837 0.20414393 0.04626786 -0.11235402 0.131092 0.008619623 0.18349797 -0.08845762

q_head.DAC_block.ff1.bias f4 [32]
00000000: f9ce 87be e15e 3f3e 1f0e 943e e383 08be
00000010: 6ecc 963e 1e43 3dbe b4bc ae3e 73a8 263e
00000020: 5bfa 4cbe d9ed 3ebe 11af e53d d2b1 683e
00000030: 3cee c43d 1d3c 3c3e e956 94be 56fb 33be
00000040: 27d4 76be a0b3 073d 2363 87be de6b 4ebe
00000050: 3268 9bbe 63ad 67be 588a 4e3e f792 78be
00000060: 7302 a0be 552f aa3d ffd3 7c3e 3740 07be
00000070: 3477 73be 7d80 a93e 8755 073d af40 a6be
-0.26525095 0.18688537 0.28917024 -0.13331561 0.29452842 -0.18482634 0.34128344 0.16275196
-0.20017378 -0.18645419 0.11215032 0.22724083 0.09615752 0.18382306 -0.28972557 -0.17576346
-0.24104367 0.033130288 -0.26442823 -0.20158336 -0.30352932 -0.22624736 0.20169961 -0.24274813
-0.3125187 0.08309809 0.24690245 -0.1320809 -0.23775941 0.3310584 0.03304055 -0.32471225

q_head.DAC_block.ff2.weight f4 [16, 32]
00000000: 07d5 fdbd 9a4f a83c fce7 d0bd 0b84 6e3e
00000010: 0e5d b3bd ee0a 6b3d 647e 39be b26e 18be
00000020: 14f9 743e 6a7c 1e3e 3a03 eebc 7c08 57be
00000030: 7153 1ebc 0021 40bd 49e2 7b3e cb43 443e
00000040: 432c 2e3e e257 95bc 5c0e 903d 9fe4 693e
00000050: 6f2a a03d c4ca 6d3e 5c50 6ebe 3ee3 d3bd
00000060: 4962 4f3e 4c6a 3fbe 7167 73bb cf50 67bd
00000070: 8f5d 80bd a428 1ebe d76f 373d e8b3 da3d
00000080: b47e c5bd 02f8 d8bd 7c14 6dbe d296 673c
00000090: 6aa3 a8bd 912c 173e a9ad e4bc 2409 9dbd
000000a0: aa54 7c3e 9b28 813e 4c00 31be f2cb 00be
000000b0: d7a3 d8bb 0883 cfbd d169 413e d790 643e
000000c0: 8f05 713e 6023 003e b565 703e 14b9 e8bb
000000d0: 5fce 113e f881 953d 81b3 41be e85a 1f3e
000000e0: aeae 963d 60cb 5fbe 3c14 a43d 0a4e 42bd
000000f0: f74b 2a3e 8612 23be 618d f2bd 2e12 4b3e
00000100: 695e b33d bed1 89bc 7d6a 193d 9fbc f03d
00000110: ff32 6fbe aec6 633e a873 803d e206 3a3d
00000120: 9622 3a3e 607e 683e 0a40 d93c 8317 0cbe
00000130: 1245 d53c ad41 a73c 50d9 353e 0c5b 19bd
00000140: ea5e b3bc c78a 2fbc 7041 b3bd 3cd8 87bd
00000150: 0bf7 583e fe68 433d 70e9 c03c 4c92 17bd
00000160: 36a1 b8bd d0ad 6ebd 4291 693d 9649 2e3e
00000170: 2a3a 343d d939 03be 511d 5c3d fd6a 5f3d
00000180: f7cb a4bd b5e6 11be 08e4 0e3d 165b 513e
00000190: 57a4 2fbe 784d 4f3e c205 eabc dbb0 cebd
000001a0: 682e 933b 4a10 0f3d f56e 9cbd 77c1 8dbd
000001b0: d837 58be 86ee 1fbe a845 4bbd ebff 5e3e
000001c0: d3d7 ecbc faff 0cbc 588e bd3d b83a 8c3e
000001d0: cbe8 853c d329 533e 6479 d3bd 24e1 c7bb
000001e0: e1c8 2c3d 20b0 b2bd d6e3 1dbe 9696 5d3e
000001f0: b8d2 8e3e 299a 42be b22c ce3d 26cc 41bd
00000200: 0c54 a53d 942d af3d 7405 61be c80f 063e
00000210: a664 543c 0568 87bd 95d7 aa3a 67ee 58be
00000220: 921c 823e 5bc7 bf3d 5eb2 1dbd 5e92 f5bd
00000230: d682 71be 12ba 9d3b f2d9 653e 1b28 5c3e
00000240: 0aaa bdbd 8612 b6bd 4ceb 043e 1921 df3d
00000250: cd66 4d3e 2caf 1a3e c472 17be 0b2d e5bc
00000260: f15e ed3d 99fb 3d3c adef 84be a5a4 8e3d
00000270: fbb1 2b3d 054b dbbb 4d1a 09be caf1 da3d
00000280: 4b99 323e 91ea 963c a035 1bbe 0f71 9abd
00000290: d58e 01be c103 8f3d dcc2 02be a410 67be
000002a0: c55f 0f3e 5e64 503e 34e9 1ebe 584d a33d
000002b0: 131a 7ebe 3ddd 463d 2024 5e3e 1e24 a1bd
000002c0: a5fd 3c3d 6791 363d 1527 3bbd cadb c33d
000002d0: 4fcc 643e 9903 643d 9766 7abe 1506 5c3c
000002e0: df3a 29bd 47b8 3bbe c5da 9cbd 68cc 4a3e
000002f0: 230e 593e fea9 a0bd 7543 c1bd 0ce5 4b3d
00000300: 9e89 1b3c 800b 40be 5771 8fbe 61c1 8b3b
00000310: dcbf 933c d142 993d 6836 4cbe 7e34 1fbd
00000320: 9929 d43c 3259 453e 54e5 96bb 11ca 473d
00000330: 5080 5cbd 761f c9bd 52cd de3d 6e3a f23d
00000340: d631 483e df25 653b 6d9b 89bc 819d 50bd
00000350: fb82 3b3e 11c7 7e3e 9636 58be 4289 c63d
00000360: 1b94 883e 7560 fcbd 06d7 3abd 3e12 253e
00000370: f976 a3bc cd15 85be c614 81bd 5f37 683e
00000380: 7fea 883d d907 9f3d 303f 85be 363c 8c3d
00000390: 9e85 ccbd 4210 783e 1588 30bd 61e6 24bd
000003a0: 065d 113e faca 413b 5643 b9bd ebac 7cbe
000003b0: f667 82be 4e6f 9e3d eae3 b33d d4d3 0b3e
000003c0: 91b9 dcbc 9e89 a73d 0ce9 4c3d 269f 113c
000003d0: 42f1 eb3c f977 66bd 14fd eabd bf70 1abd
000003e0: dc32 ff3d 5d1d 1dbe 981e 04be 41c0 013e
000003f0: 1f50 c03d 9926 8c3d 1d39 a33d 309c b5bd
-0.12394147 0.02054577 -0.102004975 0.23292558 -0.08757983 0.05738347 -0.1811462 -0.14885977
0.23923141 0.15477148 -0.029054273 -0.2099933 -0.009663449 -0.04690647 0.2459804 0.19166486
0.17009072 -0.018230382 0.07033989 0.22841118 0.078205936 0.2322188 -0.23272842 -0.103460774
0.20252337 -0.18692893 -0.0037140513 -0.05647355 -0.06267845 -0.1544519 0.044784393 0.10678846
-0.09643307 -0.10594179 -0.23152345 0.014135079 -0.08234294 0.14763094 -0.027914839 -0.07667759
0.24641672 0.25226292 -0.1728527 -0.12577799 -0.006611328 -0.10132414 0.18888022 0.22320877
0.23537277 0.12513494 0.23476298 -0.007102141 0.1423888 0.0730018 -0.18916132 0.15562022
0.07357536 -0.21854925 0.08011672 -0.047437705 0.16630541 -0.15925035 -0.11843372 0.19831154
0.08758242 -0.016823646 0.03745507 0.117547266 -0.23359297 0.22243759 0.0627206 0.04541672
0.18177256 0.22704458 0.026519794 -0.13680844 0.026033912 0.020417059 0.1775868 -0.037440345
-0.021895844 -0.010714239 -0.087527156 -0.0663304 0.2118799 0.04770755 0.023548812 -0.037004754
-0.090151235 -0.05827123 0.057023294 0.17020258 0.044000782 -0.12815036 0.053738896 0.05454539
-0.08046716 -0.14248164 0.034885436 0.20444903 -0.17152534 0.20244396 -0.028567199 -0.10092326
0.004491616 0.034927644 -0.07638351 -0.06921666 -0.21115053 -0.15618333 -0.049626976 0.21777312
-0.028911507 -0.008605951 0.092556655 0.2738855 0.016346356 0.20621423 -0.10325888 -0.006099837
0.04218376 -0.087249994 -0.15418944 0.21639475 0.2789514 -0.1900412 0.10067119 -0.04731383
0.08072671 0.08553615 -0.21974736 0.13091958 0.01296345 -0.06611637 0.0013034219 -0.21184693
0.25412422 0.09364196 -0.038500182 -0.11990808 -0.23585066 0.004813441 0.22446421 0.21499674
-0.09260948 -0.08890252 0.12980384 0.10894985 0.20058747 0.15105885 -0.14789873 -0.02797558
0.11590374 0.01159563 -0.25964108 0.06964997 0.041917782 -0.0066922926 -0.13388939 0.10690649
0.17441289 0.018422397 -0.15157175 -0.075410955 -0.12652142 0.06983138 -0.12769645 -0.22564942
0.14001377 0.20350787 -0.15518647 0.079737365 -0.24814634 0.048550833 0.21693468 -0.07868217
0.04614033 0.04457226 -0.04569157 0.09563406 0.22343563 0.055667493 -0.24453197 0.013429184
-0.04131591 -0.18332015 -0.076589145 0.19804537 0.21196799 -0.078449234 -0.094366945 0.049778983
0.00949326 -0.18754387 -0.2801616 0.004264996 0.018035822 0.07483447 -0.1994263 -0.03886842
0.025898742 0.19272307 -0.0046049748 0.04877669 -0.053833306 -0.09820454 0.108790055 0.11827551
0.19550261 0.00349652 -0.016797746 -0.050931457 0.18311684 0.24880625 -0.21114573 0.096941486
0.26675496 -0.12323085 -0.04561522 0.1612024 -0.019954192 -0.25993195 -0.0630279 0.22677372
0.066853516 0.07765169 -0.2602477 0.06847422 -0.09986423 0.24224952 -0.043098528 -0.04025877
0.14195642 0.0029570446 -0.090460464 -0.24675338 -0.2546994 0.077360734 0.087837055 0.13655025
-0.026943954 0.08180545 0.05002694 0.008888042 0.028801564 -0.05626676 -0.11474052 -0.03770518
0.124608725 -0.15343232 -0.12902296 0.12670995 0.09390282 0.068432994 0.07969878 -0.08867681

q_head.DAC_block.ff2.bias f4 [16]
00000000: 75d5 56bd 2214 37be 9ff9 b1bd b739 b3bd
00000010: a41c 46be baba 37bc 5e7a 28bd 2e73 e9bd
00000020: 37d9 13be 97e9 3e3d c8ef 64be d3bc e0bd
00000030: 0b3b c8bd c9fe e2bb 2f33 66be 2144 4d3d
-0.052449662 -0.17878774 -0.086901896 -0.087512426 -0.19346863 -0.011213953 -0.041132323 -0.11398922
-0.1443833 0.046609487 -0.22357094 -0.10973515 -0.097768866 -0.0069273454 -0.22480462 0.0501138

ema_model.q_head.DAC_block.mamba_blocks.0.A_log f4 [28, 32]
00000000: 4ed8 23bd 0e2b 233f 405a 853f 0c60 aa3f
00000010: 52a1 c43f bcfe dc3f b234 ee3f 7a57 ff3f
00000020: cd14 0740 65a1 0e40 6aac 1440 7f95 1940
00000030: 50d5 1e40 8f4c 2340 f084 2840 f3eb 2b40
00000040: 8ee5 2f40 d316 3340 09cd 3640 60ff 3940
00000050: 1ced 3c40 d858 4140 f911 4340 0ad3 4540
00000060: ee54 4940 8f04 4b40 90ea 4c40 b5a3 4f40
00000070: b9f3 5140 34c3 5440 82cd 5540 8d21 5840
00000080: 4ff3 91bd 7333 1e3f af74 823f 339c a73f
00000090: 2927 c43f 9a23 db3f a7de ef3f 2979 0040
000000a0: 7802 0840 9101 0e40 5d29 1440 bb1f 1a40
000000b0: 312e 1f40 0efd 2340 5def 2740 c63c 2c40
000000c0: f651 3040 322c 3440 e74b 3740 67ba 3a40
000000d0: b6f4 3d40 37cd 4040 effb 4240 29a0 4540
000000e0: 6aa2 4840 fa1a 4b40 e7e8 4d40 4bc4 4f40
000000f0: 68a7 5140 8a28 5440 0cc6 5640 e042 5840
00000100: 057e d2bc c7cd 273f b580 873f 7273 ac3f
00000110: d09c c73f 6f69 df3f 56a5 f23f bdc7 0140
00000120: 0a5a 0940 c8db 0f40 61ee 1540 5a78 1b40
00000130: 9c90 2040 8160 2540 f29d 2940 ddc0 2d40
00000140: a9a9 3140 9292 3540 5cb2 3840 7b09 3c40
00000150: c952 3f40 880c 4240 928d 4440 0049 4740
00000160: dd23 4a40 0997 4c40 196a 4f40 7d1e 5140
00000170: 096e 5340 dc82 5540 b71d 5840 dca6 5940
00000180: 11e2 0dbd 9383 253f 6ea2 863f 17df ab3f
00000190: 5a5e c63f b1b7 de3f c332 f03f 75ac 0040
000001a0: c318 0840 c398 0f40 bfa5 1540 e39d 1a40
000001b0: 94d4 1f40 5654 2440 ed85 2940 fbf1 2c40
000001c0: deea 3040 4129 3440 4eda 3740 bf0c 3b40
000001d0: 69fc 3d40 0763 4240 8215 4440 cdd4 4640
000001e0: 1558 4a40 cd05 4c40 9ef3 4d40 78a3 5040
000001f0: 3fe6 5240 2ab7 5540 a9db 5640 7b1b 5940
00000200: 7524 a1bd e67b 1b3f 1119 823f a872 a83f
00000210: 7050 c23f 2e8e da3f a171 ed3f 9c68 fe3f
00000220: 45c2 0640 87d1 0d40 0ffa 1340 b214 1940
00000230: 5039 1e40 09e8 2240 b80d 2840 4076 2b40
00000240: fa5a 2f40 47f6 3240 ec69 3640 1faa 3940
00000250: 40c9 3c40 ce90 4140 33ac 4240 bf71 4540
00000260: 6c2a 4940 1da2 4a40 acce 4c40 1c55 4f40
00000270: 7886 5140 8f77 5440 4fa5 5540 5bda 5740
00000280: 6f28 b7bb e67c 2e3f 4309 8b3f 01fd af3f
00000290: 2df8 ca3f b924 e33f 6d8f f43f e8d3 0240
000002a0: 8c36 0a40 b1a6 1140 69a5 1740 1f98 1c40
000002b0: 83d2 2140 4848 2640 9973 2b40 64d5 2e40
000002c0: 2ad6 3240 c707 3640 caa7 3940 40e0 3c40
000002d0: 30c5 3f40 6b11 4440 3cc2 4540 6f84 4840
000002e0: 5505 4c40 67b9 4d40 d1a8 4f40 7f37 5240
000002f0: ec93 5440 5b44 5740 bd85 5840 33aa 5a40
00000300: 233e 3ebb b3ca 2f3f 4bb8 8b3f 1d99 b03f
00000310: 9b00 cc3f 29f7 e33f 54ab f53f 0f60 0340
00000320: fbc0 0a40 fd2c 1240 ee2e 1840 1a20 1d40
00000330: c25b 2240 10c8 2640 9cf9 2b40 a056 2f40
00000340: 9a5a 3340 db72 3640 221b 3a40 7d51 3d40
00000350: ed25 4040 cc88 4440 0e2c 4640 fbf0 4840
00000360: 8983 4c40 412c 4e40 d2fa 4f40 6498 5240
00000370: 3201 5540 3ebe 5740 19d4 5840 8303 5b40
00000380: c074 edba da62 303f 880c 8c3f 9ced b03f
00000390: f3aa cc3f a479 e43f abaa f63f 5ce1 0340
000003a0: 224a 0b40 0d94 1240 689c 1840 7eae 1d40
000003b0: a8e4 2240 d460 2740 976e 2c40 67f0 2f40
000003c0: e3ee 3340 9a1f 3740 0dc2 3a40 53fb 3d40
000003d0: edd9 4040 9e03 4540 6ddb 4640 569f 4940
000003e0: ee0a 4d40 cfd6 4e40 4db9 5040 df4e 5340
000003f0: 5eb1 5540 4b5d 5840 6597 5940 e4bf 5b40
-0.040001206 0.6373757 1.0418167 1.3310561 1.5361731 1.7265239 1.8609831 1.9948571
2.1106446 2.2286007 2.3230233 2.3997495 2.4817696 2.5515478 2.6331139 2.6862762
2.748386 2.798268 2.8562644 2.9062119 2.951972 3.0210476 3.047972 3.0910058
3.1458087 3.1721532 3.2018166 3.244367 3.2805007 3.3244143 3.3406682 3.3770478
-0.071264856 0.61797255 1.0191859 1.3094543 1.5324451 1.712024 1.8739823 2.007395
2.1251507 2.2188456 2.3150246 2.4081867 2.4871943 2.5623202 2.6239846 2.6912093
2.7550025 2.8151975 2.8640077 2.917627 2.968061 3.0125253 3.0466268 3.0879004
3.134913 3.1735215 3.2173402 3.2463558 3.2758427 3.3149743 3.3558378 3.3790817
-0.025694856 0.65548366 1.0586153 1.3472731 1.559473 1.7454051 1.8956707 2.027816
2.1461205 2.2477894 2.3426745 2.4292207 2.5088263 2.5840151 2.6502652 2.7148964
2.7759802 2.837071 2.8858862 2.9380786 2.9894278 3.0320148 3.0711408 3.1138306
3.158439 3.1967185 3.2408507 3.2674859 3.303591 3.336112 3.3768137 3.4008093
-0.03463942 0.6465389 1.051832 1.3427457 1.5497544 1.7399808 1.8765491 2.010526
2.1265113 2.2436988 2.3382413 2.4158866 2.4973497 2.5676475 2.6487992 2.7022693
2.7643352 2.815018 2.8726993 2.922653 2.968531 3.0372941 3.0638127 3.1067383
3.161626 3.187854 3.2179942 3.2599773 3.295303 3.3393044 3.357157 3.3923023
-0.07868282 0.6073593 1.01639 1.315999 1.5180798 1.707464 1.8550302 1.9875674
2.1056073 2.2159135 2.3121374 2.3918881 2.472248 2.5454123 2.6258373 2.6790924
2.7399278 2.7962816 2.850215 2.9010084 2.9497833 3.0244632 3.0417602 3.0850675
3.1432142 3.1661446 3.2001143 3.2395697 3.2738323 3.3197973 3.3382146 3.3727024
-0.005589537 0.6815933 1.0862201 1.3749086 1.5856987 1.7745582 1.910627 2.0441837
2.1595793 2.275799 2.3694708 2.4467847 2.5284736 2.5981617 2.6789305 2.7317743
2.7943215 2.8442247 2.900866 2.9511871 2.9964104 3.063563 3.0899801 3.133083
3.1878254 3.214441 3.2446787 3.2846372 3.3215284 3.363547 3.3831627 3.4166381
-0.0029028736 0.6866867 1.0915617 1.3796726 1.5937685 1.7809802 1.919291 2.052738
2.1680286 2.2839959 2.3778644 2.4550843 2.5368505 2.6059608 2.68711 2.7396622
2.8024049 2.8507602 2.907906 2.9580986 3.0023148 3.0708494 3.096439 3.1397083
3.1955283 3.221451 3.2496839 3.2905512 3.328198 3.3709865 3.3879454 3.4220893
-0.0018116459 0.68900836 1.0941324 1.3822513 1.598967 1.7849622 1.9270834 2.0606298
2.1763997 2.2902863 2.3845463 2.4637752 2.545206 2.615285 2.6942499 2.749048
2.8114555 2.8613038 2.918094 2.9684646 3.0133011 3.0783458 3.1071427 3.15035
3.203792 3.2318609 3.2613099 3.301689 3.3389506 3.3806942 3.3998654 3.433587

ema_model.q_head.DAC_block.mamba_blocks.0.D f4 [28]
00000000: 983f 8d3f db0e 8b3f 8496 883f 3548 8e3f
00000010: d8db 8d3f 8f71 8e3f f4e2 8d3f 6d73 8c3f
00000020: d7c4 8c3f 2e93 8c3f 43ed 8e3f d271 8e3f
00000030: ec30 8c3f 3bfd 8d3f a357 8d3f 514e 873f
00000040: 124f 8a3f ed2d 8e3f c490 8c3f d297 8d3f
00000050: 3698 8e3f b2af 863f 3877 8f3f 30bc 883f
00000060: c215 8f3f 11ed 8d3f c56c 8e3f 4170 873f
1.1035032 1.0863909 1.0670934 1.1115786 1.1082716 1.1128405 1.1084886 1.0972725
1.0997571 1.0982416 1.1166157 1.1128485 1.095243 1.1092905 1.104237 1.0570775
1.080538 1.1107765 1.0981679 1.1061957 1.1140201 1.0522368 1.1208258 1.068243
1.1178515 1.1087972 1.1126944 1.0581132
