checkpoints/q-mamba/20240831_052025/checkpoint-2.pt (torch, 103216 bytes, 52 tensors)

q_head.DAC_block.mamba_blocks.0.A_log f4 [28, 32]
0	0xbcaca1b1	-0.021073194
1	0x3f2926fe	0.6607512
2	0x3f8895a5	1.0670668
3	0x3fae1704	1.3600774
4	0x3fc81675	1.5631853
5	0x3fe0d6d7	1.7565564
6	0x3ff19173	1.8872513
7	0x40016625	2.0218594
8	0x4008c635	2.1370976
9	0x40109a26	2.2594085
10	0x4016a882	2.354035
11	0x401b6538	2.428053
12	0x4020a032	2.5097775
13	0x40250aa8	2.5787754
14	0x402a9afb	2.6657093
15	0x402db935	2.7144291
16	0x4031ba19	2.7769835
17	0x4034cf0f	2.8251379
18	0x4038a1d3	2.884877
19	0x403bcb31	2.9342768
20	0x403ea761	2.978966
21	0x4043c126	3.0586638
22	0x4044eaad	3.0768235
23	0x4047b12d	3.120189
24	0x404ba636	3.1820197
25	0x404ce3fc	3.201415
26	0x404e9a82	3.2281804
27	0x40517532	3.272778
28	0x4053bcc3	3.308396
29	0x4056e77a	3.3578782
30	0x40579155	3.3682454
31	0x4059ecd6	3.4050803
32	0xbd663b0e	-0.056208663
33	0x3f21df2a	0.63231146
34	0x3f846a70	1.0344982
35	0x3faa0c78	1.3285055
36	0x3fc5fc9c	1.5467715
37	0x3fdd6a2d	1.7298027
38	0x3ff191fe	1.8872678
39	0x40015d1e	2.0213084
40	0x4008e1db	2.1387851
41	0x400f199d	2.2359383
42	0x401540b3	2.332074
43	0x401b167e	2.4232478
44	0x40202772	2.5024076
45	0x4024ee0e	2.5770297
46	0x4029282d	2.6430771
47	0x402d39e8	2.7066593
48	0x40315bce	2.7712283
49	0x403522b3	2.8302429
50	0x40385661	2.8802722
51	0x403bc3fe	2.9338374
52	0x403ef557	2.9837244
53	0x40426c07	3.0378435
54	0x404412b8	3.0636425
55	0x4046bd00	3.1052856
56	0x404a2b44	3.1588907
57	0x404c425b	3.19155
58	0x404ef399	3.233618
59	0x4050e899	3.2641966
60	0x4052c58b	3.293307
61	0x405596ae	3.3373218
62	0x4057ee8c	3.3739347
63	0x40597004	3.397462
64	0xbc7e1b50	-0.0155094415
65	0x3f2b3084	0.66870904
66	0x3f89538d	1.0728623
67	0x3fae8ae6	1.3636138
68	0x3fc9a46f	1.5753306
69	0x3fe1a3aa	1.7628071
70	0x3ff4ab90	1.9114857
71	0x4002d2e2	2.0441213
72	0x400a61cf	2.1622198
73	0x4011093d	2.2661889
74	0x40171e72	2.3612332
75	0x401c93ad	2.4465134
76	0x4021aa4b	2.5260189
77	0x40267563	2.6009147
78	0x402ae37d	2.6701348
79	0x402edf51	2.7323802
80	0x4032ce35	2.7938359
81	0x4036aa57	2.8541467
82	0x4039dae1	2.9039843
83	0x403d2da6	2.9559112
84	0x4040700f	3.0068395
85	0x40439059	3.0556853
86	0x4045bcbb	3.0896442
87	0x40487c41	3.1325839
88	0x404b9d40	3.1814728
89	0x404dcd58	3.2156582
90	0x405088a7	3.2583406
91	0x4052505e	3.2861552
92	0x4054996f	3.3218648
93	0x4056e810	3.357914
94	0x40594ec5	3.3954327
95	0x405ada21	3.4195635
96	0xbcce2d1a	-0.02516799
97	0x3f283202	0.65701306
98	0x3f8815fa	1.0631707
99	0x3fad9f1b	1.356418
100	0x3fc7c674	1.5607438
101	0x3fe06a85	1.7532507
102	0x3ff17a53	1.8865455
103	0x40015780	2.0209656
104	0x4008be87	2.1366289
105	0x40106ee8	2.2567692
106	0x40167c0c	2.3513212
107	0x401b5547	2.42708
108	0x40208cf9	2.5086043
109	0x4025031e	2.5783153
110	0x402a6e92	2.6629987
111	0x402da990	2.7134743
112	0x4031aa22	2.776009
113	0x4034d5fe	2.825561
114	0x40389825	2.8842862
115	0x403bc59e	2.9339366
116	0x403eac7f	2.9792783
117	0x40438af3	3.0553558
118	0x4044d8e5	3.0757382
119	0x40479bb8	3.1188793
120	0x404b6e93	3.178624
121	0x404cd133	3.2002685
122	0x404ea2c2	3.228684
123	0x405168b1	3.2720149
124	0x4053a6b2	3.3070493
125	0x4056b3f4	3.3547335
126	0x40579aa4	3.3688135
127	0x4059e06e	3.404323
128	0xbd8c3862	-0.06846692
129	0x3f1dec4b	0.6168868
130	0x3f837574	1.0270219
131	0x3faa45b4	1.3302522
132	0x3fc38e94	1.5277886
133	0x3fdc347b	1.7203516
134	0x3fee9841	1.8640214
135	0x3fffa29e	1.9971502
136	0x40075d71	2.1150782
137	0x400ea3f3	2.2287567
138	0x4014cee3	2.3251274
139	0x4019c9ea	2.4029489
140	0x401ef302	2.483582
141	0x40239bdb	2.5563877
142	0x402909e6	2.6412292
143	0x402c3a3f	2.691055
144	0x40302ab7	2.752607
145	0x4033b626	2.8079925
146	0x40373f77	2.8632486
147	0x403a7f36	2.9140143
148	0x403d9892	2.9624372
149	0x40430555	3.0472004
150	0x40439894	3.0561876
151	0x4046670b	3.1000392
152	0x404a8ffb	3.1650379
153	0x404ba516	3.181951
154	0x404db536	3.2141852
155	0x40505a0a	3.2554955
156	0x40528a0b	3.2896755
157	0x4055cfb2	3.3408017
158	0x4056b174	3.3545809
159	0x4058f287	3.3898027
160	0xbb3ab8a4	-0.0028491402
161	0x3f2fd4c8	0.68684053
162	0x3f8bc926	1.0920761
163	0x3fb0c87c	1.3811183
164	0x3fcc370d	1.59543
165	0x3fe43a51	1.7830297
166	0x3ff62731	1.923071
167	0x4003a450	2.0569038
168	0x400b0d63	2.172692
169	0x40126b0e	2.287784
170	0x4018732e	2.38203
171	0x401d7f36	2.4608893
172	0x4022b1fa	2.5421128
173	0x40273213	2.6124313
174	0x402c5054	2.6924028
175	0x402fc718	2.7465267
176	0x4033c4d8	2.8088894
177	0x403701a7	2.8594759
178	0x403aa8d6	2.916555
179	0x403ddf04	2.9667368
180	0x4040c85b	3.0122287
181	0x404507a0	3.0785904
182	0x4046ce0b	3.1063259
183	0x404990fc	3.1494741
184	0x404d0894	3.2036486
185	0x404ec42b	3.2307231
186	0x4050b292	3.260899
187	0x40534a99	3.301428
188	0x40559b40	3.3376007
189	0x405859af	3.3804739
190	0x40599c8c	3.4001799
191	0x405bc0f1	3.4336512
192	0xbaa3f856	-0.0012509923
193	0x3f30ae99	0.69016415
194	0x3f8c3a61	1.0955316
195	0x3fb1248d	1.383928
196	0x3fcd0479	1.601699
197	0x3fe4c88a	1.78737
198	0x3ff7339a	1.9312623
199	0x4004299c	2.0650396
200	0x400b96a4	2.1810694
201	0x4012d636	2.2943244
202	0x4018e449	2.3889334
203	0x401e084b	2.4692562
204	0x40233814	2.5502977
205	0x4027bc96	2.6208854
206	0x402cbed8	2.6991482
207	0x403052a0	2.755043
208	0x40344d9a	2.8172364
209	0x40378b1d	2.8678658
210	0x403b32d6	2.9249778
211	0x403e6960	2.9751816
212	0x40414fe0	3.0205002
213	0x4045643d	3.084243
214	0x4047578f	3.1147192
215	0x404a1b52	3.1579175
216	0x404d7459	3.2102263
217	0x404f4ea0	3.239174
218	0x405136fb	3.2689807
219	0x4053d346	3.30977
220	0x40562752	3.34615
221	0x4058d80d	3.3881867
222	0x405a1e61	3.4081042
223	0x405c4826	3.4419036
224	0xba741800	-0.00093114376
225	0x3f30df23	0.6909048
226	0x3f8c5339	1.0962898
227	0x3fb137f1	1.3845197
228	0x3fcd3f11	1.6034871
229	0x3fe4ebe6	1.788449
230	0x3ff7969d	1.9342839
231	0x40045a69	2.0680182
232	0x400bcbeb	2.1843212
233	0x4012f4db	2.2961948
234	0x401904f1	2.3909266
235	0x401e3b53	2.4723709
236	0x4023695d	2.5533059
237	0x4027f6db	2.6244419
238	0x402cdfdb	2.701163
239	0x40308a95	2.7584584
240	0x40348254	2.8204546
241	0x4037cf38	2.8720226
242	0x403b6f41	2.9286654
243	0x403ea8f8	2.979063
244	0x40419647	3.0247972
245	0x40457ebf	3.085861
246	0x40479652	3.1185498
247	0x404a58d7	3.1616724
248	0x404d94dd	3.212211
249	0x404f8a4d	3.2428162
250	0x40518364	3.2736444
251	0x40541586	3.3138137
252	0x4056689b	3.3501346
253	0x4059056f	3.3909566
254	0x405a6a64	3.4127436
255	0x405c8dea	3.4461617

q_head.DAC_block.mamba_blocks.0.D f4 [28]
0	0x3f8a9e2a	1.0829518
1	0x3f8814e0	1.063137
2	0x3f83cc49	1.0296718
3	0x3f8b8717	1.0900601
4	0x3f8b5016	1.0883815
5	0x3f8bd5a6	1.0924575
6	0x3f8a9d35	1.0829226
7	0x3f8961f2	1.0733016
8	0x3f897d64	1.0741391
9	0x3f8a9925	1.0827986
10	0x3f8bb08f	1.0913256
11	0x3f8b60cb	1.0888914
12	0x3f897f65	1.0742003
13	0x3f8afe5f	1.0858878
14	0x3f8acd91	1.0843984
15	0x3f838586	1.0275123
16	0x3f87a209	1.0596324
17	0x3f8b76cb	1.0895628
18	0x3f8a9bb3	1.0828766
19	0x3f8ae37e	1.0850675
20	0x3f8bb68c	1.0915084
21	0x3f83db04	1.0301213
22	0x3f8b9884	1.0905919
23	0x3f85940d	1.0435807
24	0x3f8b4243	1.0879596
25	0x3f8afd19	1.0858489
26	0x3f8b9c65	1.0907103
27	0x3f83879f	1.0275763

q_head.DAC_block.mamba_blocks.0.in_proj.weight f4 [56, 14]
0	0x3da8a93e	0.082354054
1	0x3e2859b6	0.16440472
2	0xbdf86eee	-0.12130533
3	0x3decbdc0	0.115596294
4	0x3eaa7bd0	0.33297586
5	0x3e41a507	0.18910609
6	0xbd34b1d1	-0.04411489
7	0x3e3167db	0.17324774
8	0xbbd9b009	-0.0066432995
9	0xbe51b032	-0.2047737
10	0x3ce135cb	0.02749147
11	0x3dad68c5	0.08467249
12	0x3e0db10c	0.1383707
13	0x3aef10df	0.0018239281
14	0x3e4217e8	0.18954432
15	0xbd7402dd	-0.059573043
16	0x3b615f9b	0.003438926
17	0x3d9db544	0.07700589
18	0x3e436e5b	0.19085066
19	0xbbae7f1a	-0.0053252103
20	0x3e9e4d28	0.3091824
21	0xbd529edb	-0.051421028
22	0x3e9babb6	0.30404443
23	0x3d58c0ae	0.05291813
24	0xbe2d85ad	-0.16945525
25	0xbe275e40	-0.16344547
26	0xbe158880	-0.14602852
27	0x3e9e2ec7	0.30895063
28	0xbd9d9154	-0.07693735
29	0x3e1b8f75	0.15191443
30	0x3df01096	0.117219135
31	0xbc0361d8	-0.008018933
32	0xbe815d19	-0.2526634
33	0xbe03ae74	-0.12859517
34	0xbe17c5b0	-0.14821506
35	0xbde75739	-0.11295933
36	0xbda1a8ea	-0.07893546
37	0xbe3db95c	-0.1852774
38	0x3e4da21a	0.20081368
39	0x3e19c3f9	0.15016164
40	0x3dde8e3d	0.108669735
41	0x3e1065bf	0.14101313
42	0x3e7206ef	0.23635457
43	0xbe2566ea	-0.1615254
44	0xbdebc583	-0.11512282
45	0x3db2d977	0.087328844
46	0x3ea55dcb	0.3229812
47	0xbd86ee77	-0.06588452
48	0x3ea24455	0.31692758
49	0x3e4940e8	0.19653666
50	0xbe0d11aa	-0.1377627
51	0xbe6a9a34	-0.22910386
52	0x3e87b1f8	0.26502967
53	0x3dbd82d5	0.0925347
54	0x3cb9a218	0.0226603
55	0x3e1aef81	0.15130426
56	0x3cfb1c16	0.03065304
57	0xbe1818bf	-0.1485319
58	0xbd307c45	-0.043087263
59	0x3e8c77f7	0.27435276
60	0x3d8a33b1	0.067481406
61	0x3d5ee5fb	0.054418545
62	0x3ea4766f	0.32121608
63	0x3ce4d417	0.027933164
64	0x3e2b7d71	0.16747071
65	0xbd6b65aa	-0.05747
66	0xbd3104e2	-0.043217547
67	0x3e4f4b33	0.2024353
68	0x3d447019	0.047958467
69	0x3d72ae61	0.059248332
70	0x3ccce9dc	0.025013857
71	0xbe1703c1	-0.14747526
72	0x3e661a55	0.22470982
73	0xbd651a64	-0.05593337
74	0x3e79fca3	0.2441278
75	0x3de5e5ec	0.11225495
76	0x3d2c9555	0.0421346
77	0x3e600592	0.21877125
78	0xbb875c37	-0.004130866
79	0x3e8590e5	0.26087108
80	0x3dfac9a1	0.12245489
81	0x3e65b935	0.22433932
82	0xbc3d82ad	-0.0115668
83	0x3d69aa50	0.05704719
84	0x3db94aa6	0.09047441
85	0x3d1ca1c4	0.03824021
86	0x3de17075	0.110077776
87	0xbe56e97d	-0.20987506
88	0xbdae2270	-0.08502662
89	0xbdbb7766	-0.09153633
90	0xbd904b3a	-0.07045598
91	0xbe2ed0f6	-0.170719
92	0xbdace182	-0.0844145
93	0xbd9782b0	-0.073979735
94	0x3e3894a6	0.18025455
95	0xbe3c2e17	-0.18376957
96	0x3dc2ba66	0.09508209
97	0x3dcff151	0.10153449
98	0x3e0f9e5f	0.14025258
99	0x3c924c56	0.017858665
100	0xbd1e7abf	-0.03869128
101	0x3e6fddae	0.23424408
102	0xbc5860f8	-0.013206713
103	0xbc9b82d6	-0.018983286
104	0xbe2b8f02	-0.16753772
105	0x3e4880c1	0.19580366
106	0x3d6676c1	0.056265596
107	0x3de3d5b0	0.11124742
108	0x3e2b93be	0.16755578
109	0x3e1d316e	0.15350887
110	0xbea524fe	-0.32254785
111	0xbe179be6	-0.14805564
112	0x3d2288c0	0.039681196
113	0x3e60aba9	0.21940483
114	0x3e04c593	0.12965994
115	0x3e67799d	0.22604986
116	0x3db04e6d	0.086087085
117	0xbe40d2f2	-0.18830469
118	0x3e561e34	0.20909959
119	0x3ea9de24	0.33177292
120	0x3e952106	0.29126757
121	0xbcb78fad	-0.022407377
122	0xbc28a852	-0.010294037
123	0x3cd7eb72	0.026357386
124	0x3e90134f	0.2813973
125	0xbd90d4a0	-0.07071805
126	0xbe9a71aa	-0.30164844
127	0x3c2ed29a	0.0106703285
128	0xbe312b86	-0.17301759
129	0xbd1ce2fa	-0.0383024
130	0xbe8594e9	-0.26090172
131	0xbd95a9bf	-0.07307767
132	0xbd95feb8	-0.07323974
133	0xbe20ae86	-0.15691575
134	0xbe068e1c	-0.13140148
135	0x3e847996	0.25874013
136	0xbdc3c302	-0.09558679
137	0x3e849545	0.25895134
138	0x3e18524f	0.14875148
139	0x3dc1ddfe	0.0946617
140	0x3e845cfc	0.2585219
141	0x3e43beda	0.19115773
142	0x3e712767	0.23550187
143	0x3e9b6a80	0.3035469
144	0x3e99a146	0.30005854
145	0x3e9f06f7	0.3106
146	0xbdd8bdb0	-0.10583055
147	0xbd43d6a2	-0.04781211
148	0x3e8914fc	0.26773822
149	0xbc4ce115	-0.012504836
150	0xbe72c550	-0.23708081
151	0x3ea6fad4	0.32613242
152	0xbe01db93	-0.12681417
153	0x3eb2f331	0.34951165
154	0xbe3040d1	-0.17212225
155	0xbe870afd	-0.2637557
156	0x3dfae90b	0.12251481
157	0xbe3b197f	-0.18271445
158	0x3ccd8a5c	0.025090389
159	0xbe82b0d7	-0.25525543
160	0xbe90424b	-0.28175578
161	0x3d8ff1f1	0.070285685
162	0xbe5a85bb	-0.21340077
163	0xbe23df05	-0.16003044
164	0x3e5a05da	0.21291295
165	0xbe1a000b	-0.15039079
166	0xbe9a33d4	-0.30117667
167	0xbeacba47	-0.33735868
168	0x3e71aeca	0.23601833
169	0x3d8aca28	0.067768395
170	0xbd163a42	-0.036676653
171	0x3e199e6a	0.15001836
172	0xbd51d18e	-0.051225238
173	0x3e87bb0d	0.26509896
174	0xbdbfc0bb	-0.09362932
175	0x3e1feebd	0.15618415
176	0x3e9fd8c9	0.3122008
177	0x3db4ba32	0.088245764
178	0x3e13c8d5	0.1443208
179	0xbddc13d0	-0.107459664
180	0xbdbba657	-0.09162586
181	0x3e7c08f5	0.24612792
182	0x3e1a1ab5	0.1504925
183	0xbe5952ff	-0.21223067
184	0x3e0386eb	0.12844436
185	0xbe458661	-0.19289543
186	0xbe2b2089	-0.1671163
187	0xbdb092c4	-0.08621743
188	0x3dfca527	0.12336188
189	0xbe852765	-0.26006618
190	0x3d2c3fab	0.042052906
191	0x3e683e13	0.2267993
192	0x3e59d22e	0.21271583
193	0xbdf5a02a	-0.119934395
194	0xbcdd1f3b	-0.02699243
195	0xbd0147dc	-0.03156267
196	0xbd7816c4	-0.060568586
197	0xbe00a74c	-0.12563819
198	0xbe8b244b	-0.27176127
199	0xbe8c5c9d	-0.27414408
200	0xbe2f1ab8	-0.17100036
201	0xbd8facbe	-0.0701537
202	0x3dc0efd4	0.094207436
203	0x3d8572b0	0.065160155
204	0xbb916713	-0.004437336
205	0xbcaafefc	-0.02087354
206	0x3dc91351	0.098181374
207	0x3dc3ea85	0.095662154
208	0xbe2748fd	-0.16336437
209	0xbe6a4993	-0.22879629
210	0x3d3faf76	0.046798192
211	0xbc1f011e	-0.009704856
212	0xbe12cd85	-0.14336212
213	0x3de75b1a	0.11296673
214	0xbd7311e4	-0.059343234
215	0xbe8bcfef	-0.27307078
216	0x3e0f37dc	0.13986152
217	0xbdbeb6be	-0.09312199
218	0xbe618de6	-0.22026786
219	0x3e4f6e49	0.20256914
220	0xbdfbc496	-0.12293355
221	0xbe95b9c4	-0.2924329
222	0xbea04368	-0.31301427
223	0xbccd0986	-0.025028955
224	0xbe86a24f	-0.26295707
225	0xbe27f32d	-0.16401358
226	0xbe954e19	-0.29161146
227	0xbe99a827	-0.30011103
228	0xbdd3264b	-0.10310038
229	0xbe84256d	-0.25809804
230	0xbc33394c	-0.010938954
231	0xbdac3f4e	-0.08410512
232	0x3dafb6ce	0.08579789
233	0xbe60d8d4	-0.21957713
234	0x3d0eaf3a	0.034835078
235	0xbbdffaec	-0.006835332
236	0x3e858a09	0.26081875
237	0x3dc573d8	0.09641236
238	0x3d50c154	0.050965622
239	0x3e5b9b8c	0.21446055
240	0xbe115949	-0.14194216
241	0x3e625a4c	0.22104758
242	0x3e3ab3c5	0.18232639
243	0xbdb5b369	-0.088721104
244	0x3c7cc46b	0.015427689
245	0x3e227942	0.15866569
246	0x3e0c479a	0.13699189
247	0xbda58f57	-0.080839805
248	0x3e27b112	0.1637614
249	0xbe10baa9	-0.14133705
250	0x3eb62f23	0.35582837
251	0x3e7901cf	0.24317096
252	0xba6fd85d	-0.0009149367
253	0xbe871030	-0.26379538
254	0xbe257022	-0.16156057
255	0x3dfad2e0	0.122472525

q_head.DAC_block.mamba_blocks.0.conv1d.weight f4 [28, 1, 4]
0	0xbc9720c0	-0.018448234
1	0x3e80422c	0.25050485
2	0xbe962536	-0.29325265
3	0xbe8216c6	-0.25408
4	0x3ef12d20	0.4710474
5	0xbe698ce0	-0.22807646
6	0x3f064441	0.524479
7	0x3f0b9457	0.54523224
8	0x3ee2dcd8	0.44309115
9	0x3e5d9950	0.21640515
10	0x3eb1864f	0.34672782
11	0xbe5ee245	-0.21766002
12	0xbecba2e6	-0.3977272
13	0x3e06d56c	0.13167351
14	0xbe5784c3	-0.21046738
15	0xbe616113	-0.22009687
16	0xbec4acd4	-0.38413107
17	0x3e5b16f0	0.21395469
18	0xbe08f005	-0.1337281
19	0xbe398976	-0.18118843
20	0xbed79dbe	-0.42112535
21	0xbe585104	-0.21124655
22	0x3eaa9991	0.33320287
23	0x3ee1e97f	0.44123456
24	0x3ec42458	0.38308978
25	0x3e1aaf70	0.15105987
26	0x3e432222	0.1905599
27	0xbe81a403	-0.25320444
28	0x3d67ed50	0.056622803
29	0xbc1efa80	-0.009703279
30	0xbec173d7	-0.3778369
31	0x3ce24c9d	0.027624423
32	0xbc707cc0	-0.01467818
33	0xbeb59718	-0.35466838
34	0x3e3c7524	0.1840406
35	0x3e6731af	0.22577547
36	0x3ed2cc38	0.41171432
37	0x3e8c4f7e	0.27404398
38	0x3ef7068c	0.48247182
39	0xbd9acddb	-0.07558795
40	0xbec3786c	-0.38177812
41	0xbeb519c8	-0.35371232
42	0xbe29a0b3	-0.16565208
43	0x3f040bc7	0.5158047
44	0xbe792de4	-0.24333912
45	0x3dab4c98	0.083642185
46	0x3ee482cf	0.4463105
47	0x3ed719e9	0.42011955
48	0x3e5b05bc	0.21388906
49	0xbe1122b4	-0.14173394
50	0xbe9b7e1d	-0.30369654
51	0xbecb8b80	-0.39754868
52	0xbe6683e0	-0.22511244
53	0xbce325c0	-0.027727962
54	0xbf000fa3	-0.5002386
55	0x3df583f0	0.11988056
56	0xbe7601f8	-0.24024189
57	0xbd894628	-0.06702834
58	0xbe7d7dc9	-0.24755014
59	0x3f0973f5	0.5369256
60	0xbd6e74e0	-0.05821693
61	0x3e762acc	0.24039763
62	0x3e2b53a3	0.16731124
63	0x3f03c5db	0.5147378
64	0x3ee9ab08	0.456383
65	0x3ed3b9ea	0.4135278
66	0xbec311fa	-0.38099653
67	0x3c8a0b06	0.01685096
68	0xbee954be	-0.45572466
69	0x3ede7180	0.4344597
70	0xbe773fd4	-0.24145442
71	0xbe675613	-0.22591428
72	0x3e4d162c	0.20027989
73	0xbec445c0	-0.38334465
74	0xbec8105e	-0.39074987
75	0xbe85daca	-0.26143485
76	0x3ef02e1e	0.46910185
77	0xbe97a56a	-0.29618388
78	0x3f07e252	0.5307971
79	0xbcda533e	-0.026651021
80	0xbe279b78	-0.163679
81	0xbe842462	-0.25809008
82	0xbeed6f61	-0.46374038
83	0xbe9721ad	-0.2951788
84	0x3ee8f330	0.45498037
85	0xbe293b0c	-0.16526431
86	0xbed81623	-0.4220439
87	0xbd48e27a	-0.04904411
88	0xbe555a88	-0.20835316
89	0x3eea6bea	0.45785457
90	0xbe091d93	-0.13390188
91	0x3ea60a0b	0.32429537
92	0x3d919398	0.071082294
93	0x3ea8c40c	0.32962072
94	0xbe9afcb3	-0.3027092
95	0xbef0c75b	-0.47027096
96	0x3e6d678c	0.23184031
97	0x3e596194	0.2122863
98	0x3d08469d	0.033270467
99	0x3df8a5d7	0.121410064
100	0x3e8c5bde	0.2741384
101	0xbe315144	-0.17316157
102	0xbecef603	-0.40422067
103	0xbea908bd	-0.3301448
104	0xbe060cc8	-0.13090813
105	0xbec7f622	-0.39054972
106	0xbec6f18b	-0.38856158
107	0xbe1a80f7	-0.15088259
108	0x3dd11cb0	0.1021055
109	0xbebb6712	-0.36602074
110	0xbea314f0	-0.31851912
111	0xbe530e8e	-0.20611021

q_head.DAC_block.mamba_blocks.0.conv1d.bias f4 [28]
0	0xbedb4db6	-0.42832726
1	0x3efc54bf	0.49283406
2	0x3e5180ed	0.20459338
3	0xbe757446	-0.23970136
4	0xbefac3ef	-0.4897761
5	0x3ed7a1f7	0.42115757
6	0x3eedab4f	0.4641976
7	0xbe095aee	-0.13413593
8	0x3f0d35ea	0.5516039
9	0xbea3a8c2	-0.3196469
10	0x3d016c7f	0.03159761
11	0x3c1addd9	0.009452307
12	0xbeaa1de1	-0.3322592
13	0x3eaaff13	0.3339773
14	0xbeb198ec	-0.34686983
15	0x3d8421b7	0.06451743
16	0x3de63eee	0.11242472
17	0xbea2a9e8	-0.31770253
18	0x3f15e572	0.5855323
19	0xbe5a05dc	-0.21291298
20	0xbe992bab	-0.2991613
21	0x3edd8862	0.43268114
22	0x3ea4a83d	0.32159606
23	0xbe6d5b71	-0.23179413
24	0x3eaaa8d6	0.33331937
25	0x3edce90b	0.43146548
26	0x3f155c8c	0.5834434
27	0x3eb86242	0.36012465

q_head.DAC_block.mamba_blocks.0.x_proj.weight f4 [65, 28]
0	0x3dc7cacb	0.097554766
1	0x3d9d430d	0.076788045
2	0xbe1a3465	-0.1505905
3	0xbdaca449	-0.084297724
4	0x3ddca759	0.107741065
5	0xbd806a51	-0.06270278
6	0x3de188a2	0.11012389
7	0x3da596ff	0.08085441
8	0x3d03ef15	0.03221043
9	0x3dc535c4	0.096293956
10	0x3d918bf6	0.071067736
11	0x3d68340b	0.056690257
12	0x3e24332c	0.16035146
13	0xbe5d6451	-0.21620299
14	0x3e6ea661	0.23305656
15	0x3e463250	0.1935513
16	0xbc946c2e	-0.01811799
17	0x3c6fe2ff	0.014641522
18	0xbddbdf5e	-0.10735963
19	0x3e8976bf	0.2684841
20	0x3d7ce017	0.061737146
21	0x3d1c2b5f	0.0381273
22	0xbc7476fd	-0.014920947
23	0x3d0090a5	0.031387944
24	0xbd68b522	-0.056813367
25	0xbe1b45ce	-0.15163347
26	0x3dcc0719	0.09962291
27	0x3d2f323e	0.042772524
28	0x3cd41261	0.02588767
29	0x3c95b60a	0.01827528
30	0xbdd66971	-0.1046933
31	0x3e4f2443	0.20228676
32	0x3e23507d	0.15948673
33	0xbdee7bb8	-0.11644691
34	0xbd58a805	-0.05289461
35	0xbd49ff41	-0.049315695
36	0xbe7e078a	-0.24807563
37	0x3d07d0d0	0.033158123
38	0xbe18ed22	-0.14934209
39	0x3a05a49e	0.0005098077
40	0x3e20b07c	0.15692323
41	0x3d077409	0.033069644
42	0x3e045520	0.12923098
43	0x3dce1ae1	0.100637205
44	0x3cb91783	0.02259422
45	0x3a851281	0.0010152609
46	0xbe8483b0	-0.2588172
47	0x3e4609d2	0.19339684
48	0xbc074a6b	-0.008257489
49	0xbce2f4cc	-0.027704619
50	0xbe105c20	-0.14097643
51	0xbd81e7b1	-0.0634302
52	0x3ad416b1	0.0016181079
53	0xbe174f20	-0.14776278
54	0xbd806d77	-0.06270879
55	0xbc98ac77	-0.018636925
56	0x3e417d58	0.18895471
57	0xbe606904	-0.2191506
58	0x3da091ea	0.07840331
59	0xbd08c990	-0.03339535
60	0x3e869146	0.2628271
61	0xbe348466	-0.17628631
62	0xbe6b9499	-0.23005904
63	0x3e414ef7	0.18877779
64	0x3cdabbeb	0.026700934
65	0x3e3f3e12	0.18676022
66	0xbe50465e	-0.20339343
67	0x3e29db47	0.16587554
68	0xbbcbc7c0	-0.0062188804
69	0xbe6a7fb9	-0.22900285
70	0x3e745fb9	0.2386464
71	0xbdc4e5bd	-0.096141316
72	0x3c63e6de	0.0139100235
73	0xbcad4a37	-0.021153552
74	0x3d5625f5	0.052282292
75	0xbd6be415	-0.057590563
76	0x3e378edd	0.17925592
77	0xbd7868fc	-0.060646996
78	0x3d6da9a5	0.058023114
79	0x3e3bcbf8	0.18339527
80	0x3d936062	0.07196118
81	0x3c3ee387	0.011650926
82	0xbe176e34	-0.14788133
83	0xbe612901	-0.21988298
84	0xbd252b45	-0.04032447
85	0x3d517402	0.051136024
86	0x3d22623a	0.039644457
87	0x3cfd9c42	0.030958299
88	0xbc36102f	-0.011112257
89	0xbd928596	-0.07154386
90	0x3e52329b	0.20527117
91	0xbe408505	-0.18800743
92	0x3e75e32e	0.24012443
93	0xbe1117a9	-0.14169182
94	0x3d767fbd	0.060180414
95	0xbd981ccb	-0.07427367
96	0xbe420b9d	-0.18949743
97	0x3d5948c9	0.05304793
98	0xbda3a309	-0.07990081
99	0xbe19416d	-0.14966364
100	0x3c3b07d3	0.01141544
101	0xbe0922a0	-0.13392115
102	0xbdaba06d	-0.08380208
103	0xba0841e4	-0.0005197807
104	0xbd551414	-0.0520211
105	0xbda266f5	-0.07929794
106	0x3e352112	0.17688397
107	0xbe88fd80	-0.26755905
108	0x3e178b96	0.14799342
109	0x3e85a5d3	0.26103076
110	0x3e06d51a	0.1316723
111	0xbcff172c	-0.031138979
112	0xbc8cfeba	-0.017211307
113	0x3e045e5f	0.12926625
114	0x3dcc49c0	0.09975004
115	0xbdfe3113	-0.12411704
116	0xbe4d2616	-0.2003406
117	0x3db43be5	0.088004865
118	0x3e02c33e	0.12769791
119	0xbdf6fd19	-0.12059993
120	0xbdb92114	-0.09039512
121	0xbdcc8ab4	-0.09987393
122	0xbdfe216d	-0.12408719
123	0x3d48026d	0.04883044
124	0x3dff0a06	0.12453084
125	0x3de6a654	0.11262193
126	0xbd00cdca	-0.031446256
127	0xbe018199	-0.12647094
128	0x3e3d0eac	0.18462628
129	0xbdfcabdf	-0.12337469
130	0x3e3d4dc7	0.18486701
131	0x3db2b4a4	0.08725861
132	0xbddda2a9	-0.108220406
133	0x3e4c40df	0.19946621
134	0x3d2e6a3c	0.04258178
135	0xbd96f691	-0.073712476
136	0x3dfd352d	0.12363658
137	0x3e37d927	0.17953931
138	0x3ce9d5e7	0.02854438
139	0x3c948d76	0.01813386
140	0xbe88f4d9	-0.26749304
141	0x3c7f2db6	0.015574863
142	0x3e803578	0.25040793
143	0x3cc2ddd0	0.023787409
144	0xbe663a09	-0.22483076
145	0x3ce6357e	0.028101679
146	0x3d7e5311	0.062090937
147	0x3b81160f	0.003939397
148	0xbd85dd19	-0.06536312
149	0xbc098751	-0.008394078
150	0x3da6f274	0.08151713
151	0x3d12130c	0.035662696
152	0xbe4193ca	-0.18904033
153	0x3c9d4c17	0.019201322
154	0xbe8223e3	-0.25418004
155	0xbbfa7f1d	-0.0076445476
156	0xbd900172	-0.07031526
157	0x3d8d2218	0.068912685
158	0x3e01b928	0.12668288
159	0xbe7d8ccf	-0.24760745
160	0xbe8d25d2	-0.27567917
161	0x3d87c0da	0.066285804
162	0x3e5d61d5	0.21619351
163	0xbdd62354	-0.10455957
164	0x3dd51c21	0.10405756
165	0xbd2085b9	-0.039190028
166	0x3e4d1bf8	0.200302
167	0x3d88c5ba	0.06678338
168	0xbb5d013d	-0.0033722662
169	0xbd98f369	-0.07468302
170	0x3e82cd00	0.25547028
171	0xbdb93443	-0.09043171
172	0x3d274bde	0.040843837
173	0x3e0c2a5e	0.13688037
174	0x3e2ce207	0.16883098
175	0xbd9a59f1	-0.07536686
176	0x3e7a9f7d	0.24474902
177	0x3dcca14d	0.09991703
178	0x3c7f8ee4	0.015598033
179	0x3cfd19ba	0.030896056
180	0x3da95920	0.08268952
181	0x3dcbd5b9	0.09952874
182	0xbe83d0e2	-0.25745302
183	0x3e12f64a	0.14351764
184	0x3de32388	0.110907614
185	0xbdbaf9b6	-0.0912966
186	0xbc919242	-0.017769936
187	0xbe1f00ff	-0.15527724
188	0xbd990d20	-0.074732065
189	0x3e26a769	0.162748
190	0xbc930da1	-0.017950835
191	0xbe804f57	-0.25060531
192	0x3daeb73d	0.08531044
193	0x3e811dab	0.25217947
194	0x3c600b30	0.013674542
195	0x3e3575f9	0.17720784
196	0xbda65003	-0.0812073
197	0x3de97e38	0.114010274
198	0x3e58b2c5	0.21161945
199	0xbe84221b	-0.2580727
200	0xbe16f1ff	-0.14740752
201	0x3dea1a6d	0.114308216
202	0x3e8d316b	0.27576765
203	0x3d98d1ab	0.07461866
204	0x3e904f9e	0.28185743
205	0xbdfee1ad	-0.12445388
206	0x3e56d0f9	0.20978154
207	0xbe2d4e24	-0.1692434
208	0xbc2c9d5c	-0.010535564
209	0x3e8b6ff4	0.2723385
210	0xbddb4e2e	-0.10708271
211	0x3b59c02e	0.003322612
212	0x3e1ad37a	0.15119734
213	0xbe1e7c99	-0.15477218
214	0x3e228d77	0.15874277
215	0xbdc1cdd7	-0.09463089
216	0xbe665939	-0.22494973
217	0x3d8da47c	0.069161385
218	0xbd9690b1	-0.073518164
219	0xbe8b18b1	-0.27167276
220	0x3e8b335b	0.2718762
221	0xbd05b3dc	-0.03264223
222	0xbd87aa76	-0.0662431
223	0x3e639c32	0.22227553
224	0x3e51f3de	0.20503184
225	0xbd8e6a56	-0.06953876
226	0xbdd69cee	-0.10479151
227	0x3e338b2e	0.17533562
228	0xbd47825f	-0.048708316
229	0xbe187d24	-0.14891487
230	0xbe87361d	-0.26408473
231	0x3c97982f	0.018505184
232	0xbc87d849	-0.016582625
233	0x3ce22941	0.027607562
234	0xbe2b072c	-0.16701955
235	0x3e76b512	0.2409251
236	0x3e64bbfc	0.22337335
237	0xbe1e8718	-0.15481222
238	0x3d254053	0.040344547
239	0xbe05ee1e	-0.13079116
240	0xbd25a843	-0.04044367
241	0x3dbae54e	0.09125768
242	0xbc5275d9	-0.01284548
243	0x3dbe6bdc	0.09297916
244	0x3e819b79	0.2531393
245	0xbe64821a	-0.22315255
246	0xbe89bbb0	-0.26901007
247	0xbd592573	-0.05301423
248	0xbe8c15fc	-0.27360523
249	0xbe2c8bac	-0.16850156
250	0xbe62a308	-0.22132504
251	0xbe74cb8f	-0.23905776
252	0xbdbcbdce	-0.0921589
253	0xbdcf4cad	-0.101220466
254	0xbbecbe28	-0.007224817
255	0x3d047bd1	0.032344643

q_head.DAC_block.mamba_blocks.0.dt_proj.weight f4 [28, 1]
0	0xbed25f6e	-0.41088432
1	0x3f15fa7f	0.5858535
2	0x3f09998e	0.5374993
3	0x3f6f9f43	0.9360239
4	0x3f45ff6e	0.7734288
5	0x3dddef94	0.108367115
6	0xbf1440ef	-0.5791158
7	0x3ea5c2c7	0.32375166
8	0xbe304af5	-0.17216094
9	0x3c55c2b2	0.013046907
10	0xbf53713d	-0.8259466
11	0x3f4c400c	0.7978523
12	0xbf44bb7e	-0.7684859
13	0xbe970e39	-0.2950304
14	0x3c937826	0.018001627
15	0x3ee0c22c	0.4389814
16	0xbe47bd27	-0.1950575
17	0x3ee23cad	0.44186917
18	0x3e4ae160	0.19812536
19	0x3ef65ef0	0.48119307
20	0x3ee453aa	0.4459508
21	0xbf2eb99e	-0.6825198
22	0x3eec307b	0.46130738
23	0x3f64b0ab	0.89332074
24	0xbf12d72f	-0.57359594
25	0xbee9a131	-0.45630792
26	0xbef768ca	-0.48322135
27	0x3e962a14	0.29328978

q_head.DAC_block.mamba_blocks.0.dt_proj.bias f4 [28]
0	0xc094ff6d	-4.65618
1	0xc02c212d	-2.689525
2	0xc085589b	-4.167066
3	0xc0920858	-4.5635185
4	0xc00a0dbb	-2.157088
5	0xc0c948fe	-6.29016
6	0xc0d41f0e	-6.628791
7	0xc0b3f7c4	-5.623995
8	0xc0241696	-2.5638785
9	0xc0c35fe0	-6.1054535
10	0xc09b06f1	-4.8445973
11	0xc0635974	-3.5523348
12	0xc09a6abe	-4.82553
13	0xc08312a3	-4.096025
14	0xc090192d	-4.503073
15	0xc0a4145b	-5.127485
16	0xc02e628d	-2.724765
17	0xc0185e20	-2.380745
18	0xc0c50c3e	-6.1577444
19	0xc059c5ab	-3.4026897
20	0xc0a41a22	-5.12819
21	0xc0c44f8a	-6.1347094
22	0xc0a5c22f	-5.179954
23	0xc09b6c14	-4.856943
24	0xc0b1943b	-5.5493445
25	0xc00b2cd2	-2.1746106
26	0xc0218346	-2.5236373
27	0xc01dc7a2	-2.4653096

q_head.DAC_block.mamba_blocks.0.out_proj.weight f4 [14, 28]
0	0xbdb16b73	-0.086630724
1	0x3e558d8d	0.20854779
2	0xbb04a307	-0.0020238773
3	0x3e58526c	0.21125191
4	0x3d35aaee	0.044352464
5	0x3d06bbcc	0.03289394
6	0x3db588bf	0.08863973
7	0xbe490274	-0.19629842
8	0xbd22a119	-0.039704416
9	0xbe6e8d72	-0.23296145
10	0xbd882d5e	-0.06649278
11	0xbd4b601c	-0.049652204
12	0x3dce7037	0.10079997
13	0xbdf83b53	-0.1212069
14	0x3db19175	0.08670322
15	0xbe2bb0cf	-0.16766666
16	0x3e3673be	0.1781759
17	0xbdfca926	-0.1233695
18	0x3e1bc4c9	0.15211786
19	0x3cefbf12	0.029265914
20	0x3da417fe	0.08012389
21	0xbe27a61f	-0.16371964
22	0x3d032b8c	0.03202395
23	0xbe1e2e5a	-0.15447369
24	0xbd41f15a	-0.04734931
25	0xbc119759	-0.008886182
26	0xbd38c1ae	-0.045106582
27	0xbd21ba66	-0.039484404
28	0x3d6827d5	0.05667861
29	0xbc68ef72	-0.014217244
30	0x3dc22a26	0.094806954
31	0x3e869815	0.26287904
32	0x3e71f9c7	0.23630439
33	0xbd092055	-0.0334781
34	0x3d325d75	0.04354616
35	0xbd561e74	-0.052275136
36	0xbe5a6d48	-0.2133075
37	0xbe274b4f	-0.16337322
38	0xbdc83d65	-0.09777335
39	0x3e6537d8	0.22384584
40	0x3d0bd193	0.034135412
41	0x3cfbd32f	0.030740349
42	0xbcacb914	-0.021084346
43	0x3d9bd227	0.07608443
44	0x3e5293ff	0.20564269
45	0x3e3c8ca9	0.18413033
46	0x3e3a01b6	0.18164715
47	0xbc9f33c7	-0.019433869
48	0x3e209723	0.15682654
49	0xbda125d4	-0.07868543
50	0xbe4d56ef	-0.20052694
51	0xbe06d4b3	-0.13167076
52	0xbc9ec381	-0.019380333
53	0xbe72ef0f	-0.23724006
54	0x3b9d73d9	0.00480507
55	0x3be17294	0.006880114
56	0xbdc3112f	-0.09524762
57	0x3dce27b6	0.10066168
58	0x3d9dab84	0.0769873
59	0x3dd75f36	0.10516207
60	0x3e3c5e5f	0.18395375
61	0xbd06cf40	-0.032912493
62	0x3c927abf	0.017880796
63	0xbd87d6af	-0.066327445
64	0xbe0d5000	-0.13800049
65	0xbe575c53	-0.21031313
66	0xbd981852	-0.07426514
67	0xbcd33595	-0.025782386
68	0xbd148e3a	-0.03626845
69	0x3c753a52	0.014967518
70	0xbc315d5d	-0.010825482
71	0xbdc29157	-0.095003776
72	0x3e6016c5	0.21883686
73	0xbd52d614	-0.051473692
74	0x3e3be8b7	0.18350492
75	0xbd72c022	-0.059265263
76	0x3d93d28f	0.07217895
77	0xbe03ed8e	-0.12883589
78	0xbe5ba077	-0.21447931
79	0xbd7a4441	-0.06110025
80	0x3a98f0ce	0.0011668445
81	0xbe24d58c	-0.16097087
82	0xbe45a792	-0.19302204
83	0xbc9fe07f	-0.019516228
84	0x3de13f7b	0.10998436
85	0x3df3de86	0.11907677
86	0xbdac794c	-0.08421573
87	0x3daf4c3d	0.08559463
88	0xbd33b2e3	-0.04387177
89	0xbe2ff0bc	-0.17181677
90	0x3e72d706	0.23714837
91	0xbe721432	-0.23640516
92	0x3d557600	0.052114487
93	0x3dacd357	0.084387474
94	0x3d4d19ee	0.050073557
95	0x3de3a2bd	0.11115024
96	0x3c508077	0.012725941
97	0x3db0bb86	0.08629517
98	0xbd992aae	-0.07478844
99	0x3c649f5e	0.013954012
100	0x3e358029	0.1772467
101	0x3d848bf8	0.064720094
102	0x3cf705ab	0.03015407
103	0xbd22bf08	-0.039732963
104	0x3e2a4a9d	0.16630025
105	0x3e15344b	0.1457073
106	0xbccdb680	-0.025111437
107	0x3cedc646	0.029025208
108	0xbe579b26	-0.21055278
109	0xbe232173	-0.15930729
110	0xbe0a3771	-0.13497712
111	0xbe4219c0	-0.18955135
112	0xbd50bc17	-0.050960626
113	0xbbb2c295	-0.005455325
114	0x3d0a8bab	0.033824604
115	0xbdaf2acb	-0.08553084
116	0x3e6029bc	0.2189092
117	0x3db6d215	0.08926789
118	0x3e67b702	0.22628406
119	0xbcaa47c1	-0.020786168
120	0xbe55a38e	-0.20863172
121	0xbd8d96ea	-0.0691355
122	0xbc2fef36	-0.010738185
123	0x3e69bbb3	0.22825508
124	0x3c9a1e1e	0.01881319
125	0xbd8eb936	-0.0696892
126	0x3dc5a5cf	0.09650766
127	0xbb811d33	-0.0039402484
128	0x3e5dff0c	0.21679324
129	0x3df45ddd	0.119319655
130	0x3e6a5b13	0.22886305
131	0xbe4b516a	-0.19855276
132	0x3e87a742	0.26494795
133	0xbe122eb8	-0.14275634
134	0xbdf7402d	-0.120727874
135	0xbe857c8c	-0.26071584
136	0x3d360ebd	0.04444765
137	0xbc3823fb	-0.011239047
138	0xbe0b3d2a	-0.13597551
139	0xbe609211	-0.2193072
140	0x3caa5368	0.020791724
141	0xbe4ba703	-0.19887929
142	0x3db32676	0.0874757
143	0xbdb99d87	-0.09063249
144	0x3d0638b1	0.03276891
145	0x3bb4c732	0.00551691
146	0x3d634aa8	0.05549112
147	0x3c4c1ad4	0.012457568
148	0xbc2771be	-0.010219989
149	0x3e5ea3fd	0.21742244
150	0x3e207dbe	0.15672967
151	0x39b38caf	0.00034246358
152	0xbdc961a4	-0.098330766
153	0x3e7075b5	0.23482402
154	0xbe6318c2	-0.22177413
155	0x3d5b1e05	0.053495426
156	0x3d4f7bc8	0.050655156
157	0x3ccd22b3	0.02504096
158	0xbe2203fb	-0.15821831
159	0xbc140f67	-0.009036875
160	0x3d595ee2	0.053069003
161	0xbda470ed	-0.080293514
162	0xbd171f87	-0.0368953
163	0x3cd05cd2	0.025434885
164	0xbd887088	-0.06662089
165	0xbbff83ac	-0.007797679
166	0x3e35227d	0.17688937
167	0x3d9ddbf2	0.07707967
168	0x3e839910	0.25702715
169	0xbe32ca3f	-0.17459963
170	0xbe69edcf	-0.22844623
171	0xbe10d659	-0.14144267
172	0xbdef5c6e	-0.116875514
173	0x3dbdce28	0.09267837
174	0xbe677ca0	-0.22606134
175	0x3d7d1e97	0.06179675
176	0x3d435592	0.047689028
177	0x3d61352e	0.054982357
178	0x3e5deff9	0.21673574
179	0xbdc88130	-0.097902656
180	0xbe3a7532	-0.18208769
181	0xbd05f33b	-0.032702666
182	0xbe560a88	-0.20902455
183	0x3dbd0804	0.092300445
184	0xbd6d7cc0	-0.0579803
185	0xbe01e89e	-0.12686393
186	0xbe76523e	-0.2405481
187	0x3e2e532c	0.17023915
188	0xbdb5fb3e	-0.08885811
189	0x3dcd1807	0.100143485
190	0x3d94b1a6	0.07260446
191	0xbd6a48e3	-0.057198416
192	0x3bfbc432	0.0076833004
193	0x3e828b5e	0.25496954
194	0x3c9d6e1b	0.019217541
195	0x3e3ae070	0.18249679
196	0x3e69aa13	0.22818784
197	0xbe065f95	-0.13122399
198	0xbd366e10	-0.044538558
199	0xbe3ffbba	-0.1874837
200	0xbe7d4ed1	-0.24737097
201	0x3dc0c272	0.094120875
202	0xbe52fddc	-0.20604652
203	0xbd3c3d75	-0.045957047
204	0x3d88f789	0.066878386
205	0x3d96584d	0.07341061
206	0x3e884bcf	0.26620337
207	0xbe4af043	-0.19818215
208	0xbe07ac53	-0.1324933
209	0x3c7853ff	0.015156745
210	0xbe361d4e	-0.17784616
211	0x3e34bc0b	0.17649858
212	0xbd3bd97a	-0.0458617
213	0xbe5b2cfb	-0.21403877
214	0xbd93759b	-0.07200166
215	0x3d0325a5	0.032018322
216	0xbe192b21	-0.14957859
217	0xbd798131	-0.060914222
218	0x3e13898c	0.14407939
219	0x3e1c9310	0.15290475
220	0xbdb320cd	-0.08746491
221	0x3ce5768c	0.02801063
222	0x3e1711c4	0.14752871
223	0x3e4ddedd	0.20104547
224	0x3d0146df	0.03156173
225	0x3c1fdc33	0.009757089
226	0x3d97f12a	0.07419045
227	0xbe2a1b3a	-0.16611949
228	0xbdec4715	-0.11536995
229	0x3d81a557	0.06330364
230	0x3da50b4f	0.080587976
231	0xbd4200d3	-0.047364067
232	0x3e5792ae	0.21052048
233	0x3de52f24	0.11190632
234	0x3d139703	0.036032688
235	0xbd2bf27e	-0.041979305
236	0xbe1ecbca	-0.15507427
237	0x3d11510d	0.035477687
238	0x3cfa4711	0.030551465
239	0x3d737c08	0.059444457
240	0xbe36101d	-0.17779584
241	0xbe8c37cc	-0.2738632
242	0xbe34a265	-0.17640074
243	0xbdb1b5c9	-0.08677251
244	0xbcd2791a	-0.025692511
245	0x3e09e515	0.13466294
246	0x3e34f36b	0.17670982
247	0x3e3bcf3a	0.1834077
248	0xbd01237c	-0.03152798
249	0x3c8ab11b	0.016930154
250	0x3e2faecc	0.17156523
251	0x3e7c9a32	0.24668196
252	0xbdbb2aa8	-0.091389954
253	0xbd26384f	-0.040581044
254	0xbda0b505	-0.07847027
255	0x3e703ee4	0.23461491

q_head.DAC_block.ff1.weight f4 [32, 14]
0	0xbd0dea15	-0.034647066
1	0x3e5e76e4	0.2172504
2	0xbe4f6ff8	-0.20257556
3	0xbd26abab	-0.04069106
4	0x3e63e040	0.22253513
5	0x3dd1075e	0.10206483
6	0xbe343ffc	-0.17602533
7	0x3e007742	0.12545493
8	0x3e3a102a	0.18170229
9	0x3dc920d8	0.098207176
10	0xbe0a0f54	-0.1348241
11	0x3dc1e5f4	0.09467688
12	0x3e2fbbe4	0.17161518
13	0x3d9e6ee0	0.077359915
14	0x3c82725a	0.015923668
15	0x3d987009	0.07443244
16	0x3e3390ed	0.17535754
17	0xbe87d8e9	-0.26532677
18	0x3e35caa3	0.17753081
19	0x3d514213	0.051088404
20	0x3e95c2e6	0.29250258
21	0xbe1482bf	-0.14503
22	0xbdd2a044	-0.102844745
23	0xbe8518db	-0.25995526
24	0x3e205a98	0.15659559
25	0x3dff2e6d	0.12460027
26	0xbe0d6ef7	-0.13811861
27	0x3e494d9f	0.19658516
28	0xbd03cc0d	-0.03217702
29	0xbe6788ff	-0.22610854
30	0xbe9caa84	-0.30598843
31	0xbe8a719d	-0.27039805
32	0xbd288320	-0.041140676
33	0x3e32e99f	0.17471932
34	0x3c7e6212	0.0155263115
35	0xbd9fcce5	-0.078027524
36	0x3e021f1b	0.12707178
37	0xbe0b9f36	-0.13634953
38	0xbe9e6a41	-0.3094044
39	0xbbcefcae	-0.006316743
40	0x3e9d5562	0.30729204
41	0xbe16c4e9	-0.14723553
42	0xbe45387f	-0.19259833
43	0x3ddcfddd	0.10790608
44	0x3d8d9870	0.06913841
45	0x3dfda3cc	0.123847574
46	0x392f3db4	0.00016712287
47	0x3d4edd32	0.050503917
48	0xbe09f6f3	-0.1347311
49	0x3df093c8	0.11746937
50	0xbd88525a	-0.06656332
51	0x3e019952	0.12656143
52	0xbe0273d9	-0.12739505
53	0xbd90f8d9	-0.07078714
54	0xbe06b288	-0.13154042
55	0x3e16e7f2	0.14736918
56	0xbcf9408b	-0.030426284
57	0x3e2593a5	0.16169603
58	0x3dc3982b	0.09550508
59	0xbe97d959	-0.2965801
60	0xbda47f00	-0.08032036
61	0x3e6fbbd2	0.23411492
62	0x3e5f7633	0.21822433
63	0x3e646ce2	0.2230716
64	0x3e84004a	0.2578147
65	0xbe730077	-0.23730646
66	0xbe8645ac	-0.2622503
67	0x3dbd5e74	0.09246531
68	0x3e2e743d	0.17036529
69	0x3e913cbb	0.28366646
70	0xbd80f9ff	-0.06297683
71	0xbc0465f5	-0.008080949
72	0xbda3f32b	-0.08005365
73	0x3e182d1c	0.14860958
74	0x3d202038	0.039093226
75	0xbdf0f820	-0.11766076
76	0xbc41e997	-0.011835477
77	0xbe812c16	-0.25228947
78	0xbe3066cf	-0.17226718
79	0xbe3b863b	-0.18312924
80	0x3defb0fe	0.117036805
81	0x3e22d052	0.1589978
82	0xbe5db3d8	-0.21650636
83	0xbde4ac2e	-0.11165653
84	0xbe6acaf1	-0.22928979
85	0x3dedbda8	0.1160844
86	0x3e2a99e6	0.1666027
87	0xbe06a7b9	-0.13149919
88	0xbe0b7f13	-0.13622694
89	0x3dbb1d48	0.09136444
90	0xbdb87231	-0.09006155
91	0xbe127584	-0.14302641
92	0xbe2ec1e1	-0.17066146
93	0xbe2df1ac	-0.16986722
94	0xbe74445a	-0.23854199
95	0x3e6de359	0.23231257
96	0x3d2da3c3	0.042392503
97	0xbdb9bb29	-0.09068901
98	0x3e408d28	0.18803847
99	0xbea9e49b	-0.33182225
100	0xbe3e1a50	-0.18564725
101	0xbd31954b	-0.043355267
102	0xbe841417	-0.25796577
103	0x3e4cee03	0.2001267
104	0x3eb18fd5	0.34680048
105	0x3e75292c	0.23941487
106	0x3e026eeb	0.12737624
107	0xbd342c91	-0.043987814
108	0xbc484b1f	-0.0122249415
109	0x3e163f29	0.14672531
110	0x3e94b7b6	0.2904641
111	0x3e997aa4	0.2997638
112	0xbe2a2b6f	-0.16618131
113	0x3e9d3a5e	0.30708593
114	0x3ea29435	0.31753698
115	0x3e7fc068	0.24975741
116	0x3e55d651	0.20882536
117	0xbbe0df8b	-0.006862586
118	0xbe9ae3c1	-0.30251887
119	0x3d2f6a66	0.04282608
120	0xbdf8e6f8	-0.12153429
121	0x3d7e075f	0.06201875
122	0x3ea28098	0.31738734
123	0xbb6f58b6	-0.0036521382
124	0x3ddb069f	0.10694622
125	0xbe1e9b61	-0.1548896
126	0xbe354bae	-0.17704651
127	0x3eb30df5	0.34971586
128	0x3d57334e	0.052539162
129	0xbba80dc5	-0.0051285946
130	0xbd8d9568	-0.069132626
131	0xbd1f92f2	-0.038958497
132	0xbe84030f	-0.25783584
133	0x3e390583	0.18068509
134	0xbe699f2f	-0.2281463
135	0x3bb7d63d	0.005610256
136	0x3e589d33	0.21153717
137	0x3d25b423	0.040454995
138	0xbc8157b3	-0.015788889
139	0xbea45575	-0.3209645
140	0xbd149791	-0.036277357
141	0xbe86e398	-0.26345515
142	0xbdbbf440	-0.09177446
143	0xbe2d1583	-0.16902737
144	0xbeaf10e3	-0.3419257
145	0xbc4e6e80	-0.012599587
146	0x3e9f9eba	0.31175786
147	0x3e693463	0.2277389
148	0xbcca662e	-0.024706926
149	0xbd0444dd	-0.032292236
150	0x3d94b980	0.07261944
151	0x3e091663	0.13387446
152	0x3e22587b	0.15854065
153	0x3db0fbbc	0.086417645
154	0xbe8c6348	-0.27419496
155	0xbe88ac0e	-0.26693767
156	0xbe9f64d8	-0.31131625
157	0x3e2e4d4e	0.17021677
158	0xbe990d90	-0.2989316
159	0x3d36304c	0.044479653
160	0xbe3bc27f	-0.18335913
161	0xbdd88173	-0.105715655
162	0x3e8c85f3	0.27445945
163	0xbe8ca361	-0.27468398
164	0x3b01f1c7	0.0019827948
165	0x3e07c03e	0.13256928
166	0x3e8255b0	0.25456
167	0x3dff539f	0.12467121
168	0xbe3197b2	-0.17343023
169	0xbdf4e954	-0.11958566
170	0x3de024f1	0.10944546
171	0x3e071eb3	0.13195305
172	0xbdd2d522	-0.10294558
173	0xbccf5fb6	-0.025314193
174	0x3ea30589	0.3184016
175	0xbe209d4d	-0.15685005
176	0x3d34d664	0.04414977
177	0xbdeb8e8c	-0.11501798
178	0x3dc56bee	0.096397266
179	0x3ea50742	0.322321
180	0xbd960073	-0.073243044
181	0x3e80b8a7	0.2514088
182	0xbc914152	-0.017731342
183	0xbd5ee5ab	-0.054418247
184	0x3e658722	0.2241483
185	0x3d99f6cb	0.07517775
186	0x3d813eec	0.063108295
187	0x3cc49b4b	0.02399983
188	0x3e4a5c11	0.19761683
189	0x3b48c2b2	0.0030633626
190	0xbddbdd23	-0.10735538
191	0xbd5e4194	-0.05426176
192	0x3e8b863d	0.27250853
193	0xbe17031a	-0.14747277
194	0xbe884ba6	-0.26620215
195	0xbe243146	-0.16034421
196	0x3e306709	0.17226805
197	0x3e6c53d5	0.23078854
198	0xbd50bf1e	-0.050963514
199	0x3cc02dc9	0.023459332
200	0x3ea51baf	0.32247683
201	0xbe50e293	-0.20398931
202	0xbe5d2821	-0.21597339
203	0x3def6cd0	0.11690676
204	0xbbe379f6	-0.006942029
205	0x3e6167ea	0.22012296
206	0xbe27629a	-0.16346207
207	0xbde34abb	-0.11098238
208	0xbe55af5d	-0.20867677
209	0xbdede916	-0.11616723
210	0xbbbf8525	-0.0058447295
211	0xbdb5fcb1	-0.08886088
212	0x3d1608c9	0.036629472
213	0xbe2eaeb4	-0.17058831
214	0xbb837893	-0.0040121763
215	0x3e561cd0	0.20909429
216	0x3e015741	0.12630941
217	0xbe4d5d87	-0.20055209
218	0xbe30bbe9	-0.17259182
219	0xbcf37833	-0.029720401
220	0x3e5eb9c6	0.21750554
221	0x3ceab5cc	0.02865114
222	0xbc9a5017	-0.018837018
223	0x3cae3396	0.021264832
224	0x3daee130	0.08539045
225	0x3d626e63	0.055281054
226	0xbe1b5264	-0.15168148
227	0xbd155499	-0.03645763
228	0x3e1a81b0	0.15088534
229	0x3e5be016	0.21472201
230	0x3dfcd2d0	0.12344897
231	0xbca6bd5d	-0.020353967
232	0xbe5f78f5	-0.21823485
233	0x3e94044a	0.28909522
234	0xbdf00df3	-0.117214106
235	0xbd16d26f	-0.03682178
236	0xbe89a768	-0.26885533
237	0x3da1e8b3	0.07905712
238	0xbe45015d	-0.19238801
239	0x3e6c90f0	0.23102164
240	0x3e0138f4	0.12619382
241	0xbdc54215	-0.09631745
242	0x3e6c6d3a	0.23088542
243	0xbd8774bb	-0.066140614
244	0x3df6b3a1	0.1204598
245	0xbe86573b	-0.26238427
246	0x3e15b7fb	0.14620964
247	0x3e2be8a3	0.16787963
248	0xbcf8d105	-0.030373106
249	0x3e547e5a	0.20751324
250	0x3d42af9f	0.047530767
251	0xbdde3c6b	-0.108513676
252	0x3da0a80b	0.07844552
253	0xbd1a71ee	-0.037706308
254	0x3e0913be	0.13386437
255	0xbe108648	-0.14113724

q_head.DAC_block.ff1.bias f4 [32]
0	0xbe88b71b	-0.26702198
1	0x3e26e8a4	0.16299683
2	0x3e8c7f80	0.27441025
3	0xbddb0669	-0.10694582
4	0x3e8d8d2e	0.27646774
5	0xbe1d0ea3	-0.15337615
6	0x3ea797e0	0.3273306
7	0x3e1490d3	0.14508371
8	0xbe3e27d4	-0.1856988
9	0xbe2c48bf	-0.16824625
10	0x3dc348ae	0.09535347
11	0x3e519025	0.20465143
12	0x3d984b1d	0.07436202
13	0x3e3c398b	0.18381326
14	0xbe8b506c	-0.27209795
15	0xbe241b34	-0.16026002
16	0xbe64617e	-0.22302815
17	0x3d0801f8	0.033205003
18	0xbe7f648a	-0.24940696
19	0xbe378bdd	-0.17924447
20	0xbe910432	-0.28323513
21	0xbe4b6a14	-0.19864684
22	0x3e3eb889	0.18625082
23	0xbe5bc491	-0.21461703
24	0xbe9786bc	-0.29594982
25	0x3d892d04	0.06698039
26	0x3e683b37	0.22678839
27	0xbddde894	-0.108353764
28	0xbe618cc3	-0.22026353
29	0x3e9b86b0	0.30376196
30	0x3d07fbf1	0.033199254
31	0xbe9c11be	-0.30482286

q_head.DAC_block.ff2.weight f4 [16, 32]
0	0xbe04c99d	-0.12967534
1	0x3d3617f8	0.044456452
2	0xbda9f7b9	-0.082992025
3	0x3e4f8742	0.2026644
4	0xbd8b6831	-0.06806982
5	0x3d0dab90	0.034587443
6	0xbe2c8e74	-0.16851217
7	0xbe023c80	-0.12718391
8	0x3e5f6420	0.21815538
9	0x3e08b104	0.13348776
10	0xbbc1bc40	-0.0059123337
11	0xbe414fc5	-0.18878086
12	0x3c924d41	0.017859103
13	0xbd40b895	-0.04705103
14	0x3e68d3ab	0.22736995
15	0x3e31c260	0.17359304
16	0x3e1cdce9	0.15318646
17	0xbc9bd555	-0.019022623
18	0x3d62a834	0.055336192
19	0x3e54e5e4	0.20790821
20	0x3d76c8d1	0.060250107
21	0x3e58febb	0.21190922
22	0xbe594858	-0.21219003
23	0xbdeda0a9	-0.11602909
24	0x3e3e61cc	0.18591994
25	0xbe26085c	-0.16214126
26	0x3c87d55b	0.016581228
27	0xbda65c23	-0.081230424
28	0xbda84d5e	-0.082178816
29	0xbe10c75e	-0.14138553
30	0x3d30b034	0.04313679
31	0x3db53cf7	0.08849519
32	0xbd9b9787	-0.07597261
33	0xbd95f6ab	-0.07322439
34	0xbe540627	-0.20705472
35	0xbccb4872	-0.024814818
36	0xbd6bbde5	-0.057554144
37	0x3df2de08	0.11858755
38	0xbc3bf7ea	-0.011472682
39	0xbd48f8df	-0.049065467
40	0x3e60e424	0.21962029
41	0x3e668355	0.22511037
42	0xbe12c495	-0.14332803
43	0xbdcabd4e	-0.09899388
44	0x3cebaa5b	0.028767755
45	0xbdcff614	-0.101543576
46	0x3e292a1c	0.1651997
47	0x3e4c088c	0.19925135
48	0x3e5a52c0	0.21320629
49	0x3dfe15a4	0.12406471
50	0x3e5c3703	0.2150536
51	0xbd0ab8e8	-0.033867747
52	0x3df4e470	0.119576335
53	0x3d406008	0.046966583
54	0xbe26ee2a	-0.1630179
55	0x3e0ccb04	0.1374932
56	0x3d55868b	0.052130263
57	0xbe3f6972	-0.18692568
58	0x3dd99c5a	0.10625525
59	0xbda21c80	-0.07915592
60	0x3e10baec	0.14133805
61	0xbe11ca71	-0.14237382
62	0xbdf70b08	-0.12062651
63	0x3e332de0	0.17497969
64	0x3da3199b	0.07963868
65	0xbb5eabab	-0.0033976834
66	0x3d5b714c	0.053574845
67	0x3dc91b23	0.09819629
68	0xbe61d82d	-0.22055121
69	0x3e55d28d	0.208811
70	0x3d9e3500	0.07724953
71	0x3d69bec9	0.057066713
72	0x3e2cacdd	0.16862817
73	0x3e5b4074	0.21411306
74	0x3d1d3cb5	0.038387973
75	0xbdfef70d	-0.12449465
76	0x3d08d571	0.03340668
77	0x3ca80016	0.020507853
78	0x3e27e332	0.16395262
79	0xbd32e58a	-0.043675937
80	0xbd0d6725	-0.034522194
81	0xbc1bb2f9	-0.00950312
82	0xbdcfce05	-0.10146717
83	0xbd9abc63	-0.07555463
84	0x3e4b260a	0.1983873
85	0x3d161763	0.036643397
86	0x3d0fd127	0.035111573
87	0xbd2d6abe	-0.042338125
88	0xbdc8f7ea	-0.09812911
89	0xbd3409bc	-0.043954596
90	0x3d86c5bc	0.065806836
91	0x3e2280fa	0.15869513
92	0x3ceecd4f	0.029150633
93	0xbdef73fe	-0.11692046
94	0x3d5a934a	0.053363122
95	0x3d39f37a	0.045398213
96	0xbd2bbeef	-0.041930135
97	0xbda7a910	-0.08186543
98	0x3da0ab50	0.07845175
99	0x3e14b7df	0.14523266
100	0xbe02e14d	-0.12781258
101	0x3e1d357b	0.15352432
102	0x3be721fd	0.0070536123
103	0xbd624069	-0.055237208
104	0xbd26f8a5	-0.04076447
105	0xbc3846cb	-0.011247347
106	0xbceb3df8	-0.028716072
107	0xbcc15c16	-0.02360348
108	0xbe2047d3	-0.15652399
109	0xbe20c7e4	-0.15701252
110	0xbdbdf54a	-0.09275301
111	0x3e2eb03f	0.1705942
112	0xbd94ec55	-0.07271639
113	0xbc447e02	-0.011992933
114	0x3d583eba	0.052794196
115	0x3e680dd3	0.22661524
116	0xbcd2f02e	-0.025749292
117	0x3e24adfb	0.16081993
118	0xbd706d3b	-0.05869792
119	0xbd48539a	-0.048907854
120	0x39e6bec0	0.00044011138
121	0xbd1a9616	-0.03774079
122	0xbdddf842	-0.10838367
123	0x3e29394e	0.16525766
124	0x3e7060a5	0.23474367
125	0xbe1ce390	-0.15321183
126	0x3dbfdde5	0.09368495
127	0xbdb85215	-0.09000031
128	0x3db3f8ab	0.08787664
129	0x3de4d34f	0.111731164
130	0xbe4c70ca	-0.199649
131	0x3dc898a0	0.09794736
132	0x3d08f302	0.033434875
133	0xbdb8d203	-0.090244316
134	0x3c6cb44b	0.014447282
135	0xbe4150a1	-0.18878414
136	0x3e6d61e9	0.23181881
137	0x3d919895	0.07109181
138	0xbc60e01a	-0.013725305
139	0xbdc7e38d	-0.09760199
140	0xbe52ccfd	-0.2058601
141	0x3b98a282	0.0046580443
142	0x3e51f058	0.2050184
143	0x3e487af7	0.19578157
144	0xbde23162	-0.11044575
145	0xbdb7b8cc	-0.08970794
146	0x3de9724a	0.11398752
147	0x3db23adb	0.08702632
148	0x3e3a3e45	0.18187816
149	0x3e04ad90	0.12956834
150	0xbe0134fd	-0.1261787
151	0xbd2b40c3	-0.04180981
152	0x3dc9cf9e	0.09854053
153	0x3d1cdc74	0.038296178
154	0xbe73d2d1	-0.23810889
155	0x3d306da4	0.04307331
156	0x3caeea93	0.021352088
157	0x3bdeec2f	0.0068030576
158	0xbe0acd83	-0.13554959
159	0x3db3c31d	0.08777449
160	0x3e32b13f	0.17450427
161	0x3d13be8c	0.03607039
162	0xbe0c9ba3	-0.13731246
163	0xbdcc0fbf	-0.09963941
164	0xbde51411	-0.11185468
165	0x3d5705a6	0.05249562
166	0xbdf3283e	-0.1187291
167	0xbe55bcf9	-0.20872869
168	0x3dfd8dbe	0.12380551
169	0x3e3fb876	0.1872271
170	0xbe0c209c	-0.13684314
171	0x3dc4731c	0.09592268
172	0xbe66e78e	-0.22549269
173	0x3d468a1f	0.048471566
174	0x3e5006d3	0.20315103
175	0xbdbc0746	-0.09181075
176	0x3d0aceb2	0.033888526
177	0x3d3489b3	0.044076633
178	0xbd679a47	-0.056543615
179	0x3da4140f	0.080116384
180	0x3e573c38	0.21019065
181	0x3d24eb80	0.040263653
182	0xbe6a41a7	-0.22876607
183	0x3b9ab34a	0.00472108
184	0xbd5abcd7	-0.053402748
185	0xbe2743c2	-0.16334441
186	0xbd7a7dfe	-0.06115531
187	0x3e36d306	0.17853937
188	0x3e4a0884	0.19729811
189	0xbd8de363	-0.06928136
190	0xbdc36221	-0.09540201
191	0x3d144f34	0.036208346
192	0x3d9e7255	0.07736651
193	0xbdeee187	-0.1166411
194	0xbe69cb62	-0.2283149
195	0xbd8024d8	-0.062570274
196	0x3d8e67c3	0.06953385
197	0x3c961cfe	0.018324371
198	0xbe1e6505	-0.15468223
199	0x3c7069d8	0.014673673
200	0xbcdde959	-0.027088808
201	0x3e0e12a6	0.13874301
202	0x3d50645f	0.05087697
203	0x3dd09f30	0.101866126
204	0x3c0ab9f0	0.0084671825
205	0xbdcbb12b	-0.099459015
206	0x3d6cb47d	0.057789315
207	0x3d7d2c3c	0.061809763
208	0x3e11ec20	0.14250231
209	0xbad49e77	-0.0016221543
210	0xbd86a81c	-0.06575033
211	0xbddac0bf	-0.10681295
212	0x3e08627c	0.13318819
213	0x3e48126e	0.1953828
214	0xbe229084	-0.15875441
215	0x3d2749be	0.04084181
216	0x3e5daae1	0.21647216
217	0xbd87093d	-0.06593559
218	0x3c07872d	0.0082719745
219	0x3dd1a6ae	0.1023687
220	0xbd93e0af	-0.07220589
221	0xbe5b416e	-0.21411678
222	0xbd960714	-0.07325569
223	0x3e346553	0.17616777
224	0x3dd2430c	0.102666944
225	0x3de191eb	0.1101416
226	0xbe71b485	-0.23604019
227	0x3ced6b8b	0.028981945
228	0xbd9a656e	-0.075388774
229	0x3e5a84cc	0.2133972
230	0xbcdeb2f8	-0.027184948
231	0xbc4d7bed	-0.012541753
232	0x3dec0667	0.11524659
233	0xbcc5270d	-0.024066472
234	0xbd78627f	-0.06064081
235	0xbe617789	-0.22018255
236	0xbe5fb69e	-0.21847007
237	0x3d9e0661	0.077160604
238	0x3d844cf4	0.0645999
239	0x3de77e28	0.11303359
240	0xbd472fd8	-0.04862961
241	0x3da581d5	0.08081404
242	0x3cfbda9a	0.030743886
243	0xbc91b816	-0.017787974
244	0x3bd3d1bf	0.0064642127
245	0xbda831e9	-0.082126446
246	0xbdb5a12f	-0.08868634
247	0xbd635cc3	-0.055508386
248	0x3dd4456f	0.10364806
249	0xbdf86854	-0.12129274
250	0xbdd2fa57	-0.10301655
251	0x3dc20d11	0.094751485
252	0x3d8dba0a	0.0692025
253	0x3dad65a0	0.08466649
254	0x3d9f0f11	0.077665456
255	0xbde48f22	-0.11160113

q_head.DAC_block.ff2.bias f4 [16]
0	0xbd3ab385	-0.04558136
1	0xbe2edd1d	-0.17076536
2	0xbd8d3181	-0.06894208
3	0xbd90e7b9	-0.070754476
4	0xbe3f4923	-0.18680243
5	0xbbd1897f	-0.0063945646
6	0xbca27eb6	-0.019835811
7	0xbdd9f55b	-0.10642501
8	0xbe0bd648	-0.1365596
9	0x3d6d000f	0.057861384
10	0xbe5457c6	-0.20736608
11	0xbdc09b57	-0.09404629
12	0xbdba648e	-0.091012105
13	0x3966ef8d	0.00022023749
14	0xbe5d23f2	-0.21595743
15	0x3d6dc548	0.05804947
