checkpoints/q-mamba/20240831_052025/checkpoint-5.pt (torch, 103216 bytes, 52 tensors)

q_head.DAC_block.mamba_blocks.0.A_log f4 [28, 32]
000000 46 5b 2d bd 4a 95 22 3f 81 1c 85 3f 5f 39 aa 3f
       -0.042323373 0.6350905 1.0399324 1.3298758
000010 4e 67 c4 3f a2 d8 dc 3f 2d f5 ed 3f 8a 1c ff 3f
       1.5344026 1.7253611 1.8590447 1.9930584
000020 45 f5 06 40 62 91 0e 40 db 9e 14 40 95 7c 19 40
       2.10872 2.2276235 2.3221958 2.398229
000030 77 ba 1e 40 69 2e 23 40 a7 7a 28 40 2d d2 2b 40
       2.480131 2.5497077 2.632486 2.684703
000040 de cb 2f 40 b7 f6 32 40 4d b3 36 40 5a e3 39 40
       2.746818 2.7963083 2.8546937 2.9045014
000050 09 cc 3c 40 a4 5d 41 40 f9 f7 42 40 93 ba 45 40
       2.9499533 3.0213404 3.046385 3.0895126
000060 a0 55 49 40 2f ec 4a 40 46 c6 4c 40 5b 86 4f 40
       3.1458511 3.1706655 3.1996017 3.2425754
000070 66 d6 51 40 32 ba 54 40 04 ab 55 40 0e 02 58 40
       3.2787108 3.3238645 3.338563 3.3751254
000080 72 76 9e bd 85 92 1c 3f 13 a6 81 3f d1 dd a6 3f
       -0.077374354 0.6116107 1.0128807 1.3036443
000090 1e 53 c3 3f 87 5b da 3f a0 09 ef 3f 72 0f 00 40
       1.525974 1.7059182 1.8674812 2.0009427
0000a0 7a 98 07 40 bb 9a 0d 40 ba c2 13 40 7e b6 19 40
       2.1186814 2.212569 2.3087602 2.4017634
0000b0 21 c5 1e 40 a7 93 23 40 36 8e 27 40 cd d3 2b 40
       2.4807818 2.555887 2.6180549 2.6848023
0000c0 23 eb 2f 40 1c c4 33 40 89 e4 36 40 7b 54 3a 40
       2.7487266 2.8088446 2.8576987 2.9114063
0000d0 76 8d 3d 40 f4 81 40 40 07 95 42 40 ce 39 45 40
       2.961759 3.0079317 3.040346 3.081653
0000e0 66 51 48 40 bf b7 4a 40 92 83 4d 40 8c 60 4f 40
       3.1299682 3.167465 3.2111554 3.2402678
0000f0 c2 42 51 40 16 d3 53 40 02 65 56 40 40 e1 57 40
       3.2696996 3.3097587 3.349915 3.3731232
000100 d4 c4 eb bc 2a ba 26 3f aa f4 86 3f 4a ed ab 3f
       -0.028780378 0.65127814 1.0543416 1.343179
000110 c4 f7 c6 3f 34 d1 de 3f 8a f9 f1 3f a1 71 01 40
       1.5544362 1.7407594 1.8904278 2.0225604
000120 c5 03 09 40 57 89 0f 40 13 9c 15 40 f8 21 1b 40
       2.140855 2.2427576 2.337651 2.4239483
000130 e2 39 20 40 61 09 25 40 76 4c 29 40 51 6a 2d 40
       2.503533 2.5786974 2.6452918 2.709614
000140 47 53 31 40 e6 3b 35 40 7e 5b 38 40 cc b2 3b 40
       2.7707078 2.831781 2.8805842 2.932788
000150 7e fb 3e 40 c4 c1 41 40 98 35 44 40 9e f1 46 40
       2.9840999 3.0274515 3.065771 3.1084971
000160 51 d7 49 40 dd 40 4c 40 76 13 4f 40 27 c6 50 40
       3.1537669 3.191459 3.2355628 3.2620943
000170 57 17 53 40 c6 31 55 40 fb c6 57 40 ee 4e 59 40
       3.2982996 3.331163 3.3715198 3.3954425
000180 d9 75 1e bd b4 39 24 3f 1f fc 85 3f ae 3e ab 3f
       -0.038686607 0.6415055 1.0467566 1.3378503
000190 59 9e c5 3f ff 05 de 3f e1 63 ef 3f 1c 45 00 40
       1.5438949 1.734558 1.8702356 2.004218
0001a0 32 b0 07 40 ea 38 0f 40 6f 45 15 40 05 36 1a 40
       2.120129 2.2378488 2.332363 2.409547
0001b0 9c 6d 1f 40 e5 ea 23 40 20 26 29 40 4c 89 2c 40
       2.491065 2.5612118 2.642952 2.69588
0001c0 08 83 30 40 47 bd 33 40 56 70 37 40 34 a2 3a 40
       2.7579975 2.8084276 2.8662314 2.91615
0001d0 ba 8f 3d 40 12 0a 42 40 5d ab 43 40 20 6b 46 40
       2.9618974 3.0318646 3.0573342 3.1002884
0001e0 db fb 49 40 fa 9c 4b 40 f1 85 4d 40 b5 38 50 40
       3.155997 3.181456 3.2113001 3.2534611
0001f0 65 7c 52 40 d3 55 55 40 55 6e 56 40 18 b0 58 40
       3.2888424 3.3333633 3.3504841 3.385748
000200 56 4c af bd d6 a7 19 3f 8e 33 81 3f 3a 9d a7 3f
       -0.08559482 0.6002172 1.0093858 1.3094857
000210 3d 62 c1 3f 8a a7 d9 3f b6 83 ec 3f df 79 fd 3f
       1.5108105 1.7004254 1.8477695 1.9802817
000220 31 4b 06 40 b1 5d 0d 40 3c 87 13 40 a3 9d 18 40
       2.0983393 2.2088435 2.305129 2.3846214
000230 b4 c2 1d 40 7d 71 22 40 48 a0 27 40 ea 00 2b 40
       2.4650087 2.5381768 2.6191578 2.6719308
000240 f1 e5 2e 40 9a 80 32 40 5a f5 35 40 26 36 39 40
       2.7327845 2.7890992 2.8431 2.89393
000250 7a 54 3c 40 a2 3d 41 40 c0 3a 42 40 c2 01 45 40
       2.942656 3.0193868 3.0348358 3.0782323
000260 8a d1 48 40 6b 34 4a 40 6a 5d 4c 40 92 e7 4e 40
       3.1377892 3.1594493 3.1932015 3.232884
000270 81 1a 51 40 39 1c 54 40 48 38 55 40 bc 70 57 40
       3.2672427 3.3142226 3.3315601 3.3662558
000280 00 64 cd bb 8f 23 2e 3f 02 da 8a 3f 69 d2 af 3f
       -0.0062680244 0.6802301 1.0847781 1.3736087
000290 5d a3 ca 3f 68 e6 e2 3f 8e 1b f4 3f 71 9a 02 40
       1.5831105 1.7726564 1.9070909 2.0406764
0002a0 4b fa 09 40 5a 79 11 40 4a 76 17 40 bb 5c 1c 40
       2.1559017 2.2730317 2.3665948 2.4431598
0002b0 66 98 21 40 a7 09 26 40 93 44 2b 40 ef 97 2e 40
       2.5249267 2.5943391 2.6760604 2.7280233
0002c0 83 9a 32 40 6e c5 35 40 c9 68 39 40 47 a0 3c 40
       2.7906806 2.8401752 2.8970206 2.9472826
0002d0 cf 81 3f 40 16 e8 43 40 7e 82 45 40 91 45 48 40
       2.992298 3.0610404 3.0860896 3.129246
0002e0 a1 d7 4b 40 b0 7b 4d 40 16 64 4f 40 71 f6 51 40
       3.185036 3.2106743 3.2404838 3.2806666
0002f0 0a 54 54 40 3d 0f 57 40 9b 42 58 40 9a 68 5a 40
       3.3176293 3.360305 3.3790653 3.4126344
000300 7c 84 52 bb 19 9e 2f 3f a0 a0 8b 3f 48 84 b0 3f
       -0.0032122424 0.6860061 1.0908394 1.3790369
000310 f6 cd cb 3f 4a d5 e3 3f ea 5b f5 3f 9f 38 03 40
       1.5922229 1.7799466 1.9168675 2.0503309
000320 c6 96 0a 40 46 11 12 40 d9 11 18 40 d5 f6 1c 40
       2.1654525 2.2823043 2.3760893 2.4525654
000330 94 33 22 40 d4 9a 26 40 64 dc 2b 40 f7 2a 2f 40
       2.534398 2.6032 2.6853266 2.7369974
000340 a3 30 33 40 61 41 36 40 5b ed 39 40 7b 22 3d 40
       2.7998435 2.8477404 2.905112 2.9552295
000350 4e f3 3f 40 d4 6f 44 40 24 fd 45 40 0b c3 48 40
       2.9992251 3.0693254 3.0935755 3.1369045
000360 e9 66 4c 40 ad ff 4d 40 f7 c6 4f 40 02 68 52 40
       3.1937811 3.2187302 3.2465189 3.2875981
000370 2f d2 54 40 ef 99 57 40 4c a1 58 40 74 d2 5a 40
       3.3253286 3.3687704 3.3848448 3.419095
000380 8c 6e 05 bb a5 41 30 3f a1 fa 8b 3f 91 dd b0 3f
       -0.002036008 0.68850166 1.0935861 1.3817617
000390 35 82 cc 3f fc 5e e4 3f 72 64 f6 3f 54 be 03 40
       1.5977236 1.7841487 1.9249403 2.0584917
0003a0 bd 23 0b 40 79 7c 12 40 15 83 18 40 d1 87 1d 40
       2.1740563 2.2888472 2.3830006 2.4614146
0003b0 1c c0 22 40 e6 35 27 40 a6 54 2c 40 1e c6 2f 40
       2.5429754 2.6126647 2.6926665 2.746467
0003c0 4d c7 33 40 21 ed 36 40 b9 93 3a 40 b5 cb 3d 40
       2.8090394 2.8582232 2.9152663 2.9655583
0003d0 9e a4 40 40 6b ec 44 40 5f aa 46 40 64 6f 49 40
       3.0100474 3.0769298 3.1041486 3.1474237
0003e0 a2 ef 4c 40 fa a8 4e 40 1f 80 50 40 e7 1a 53 40
       3.202126 3.2290635 3.25782 3.298517
0003f0 84 80 55 40 ee 38 58 40 03 5f 59 40 09 8a 5b 40
       3.335969 3.3784747 3.396424 3.4303

q_head.DAC_block.mamba_blocks.0.D f4 [28]
000000 6e 72 8e 3f dc 63 8c 3f f6 06 8a 3f 0e a8 8f 3f
       1.1128671 1.0967975 1.0783374 1.1223161
000010 f2 28 8f 3f 19 cb 8f 3f 91 33 8f 3f e6 be 8d 3f
       1.118437 1.1233855 1.1187612 1.1073883
000020 12 3e 8e 3f 4f a5 8d 3f d5 6c 90 3f 75 e9 8f 3f
       1.1112692 1.1066073 1.1283213 1.124312
000030 64 84 8d 3f ed 3d 8f 3f c2 89 8e 3f 0b 97 88 3f
       1.1056027 1.1190773 1.113579 1.0671095
000040 62 6d 8b 3f 39 8c 8f 3f ec aa 8d 3f 3f cf 8e 3f
       1.0892756 1.1214668 1.1067786 1.1156996
000050 e4 f9 8f 3f 23 e3 87 3f 63 fb 90 3f db fc 89 3f
       1.1248136 1.0616192 1.1326717 1.078029
000060 32 80 90 3f c6 34 8f 3f 47 ce 8f 3f c5 cd 88 3f
       1.1289122 1.118798 1.1234826 1.0687796

q_head.DAC_block.mamba_blocks.0.in_proj.weight f4 [56, 14]
000000 f1 43 fc 3d 94 7b 4e 3e 96 78 9f bd 7a 79 24 3e
       0.12317646 0.20164329 -0.07786672 0.16061965
000010 43 b2 b8 3e 2d b8 67 3e 79 73 62 ba 2b 87 57 3e
       0.36073503 0.22628851 -0.00086384226 0.21047656
000020 42 5c be 3c 32 b0 51 be cb 35 e1 3c 9d 9d e0 3d
       0.023237351 -0.2047737 0.02749147 0.10967562
000030 cd 3d 19 3e 59 6b 95 3c 70 ea 6b 3e b8 20 b4 bc
       0.14964981 0.018239664 0.2303865 -0.021988258
000040 15 ad 3e 3d d9 23 fa 3d a1 3a 61 3e 7a f7 03 3d
       0.046551783 0.12213869 0.21995021 0.032218434
000050 73 4e b4 3e e2 63 63 bc 6a b6 ab 3e ae c0 58 3d
       0.35216102 -0.013878794 0.33537608 0.05291813
000060 ad 85 2d be 70 63 09 be b2 5a 09 be a0 89 a7 3e
       -0.16945525 -0.13416839 -0.13413504 0.32722187
000070 89 6e 1c be 21 4b a7 3d 73 39 1b 3d 01 05 b8 bd
       -0.15276541 0.081686266 0.037896585 -0.089853294
000080 35 22 9d be 42 82 4b be 7f 7a 68 be b6 99 3b be
       -0.3069016 -0.19873908 -0.22702979 -0.18320355
000090 36 3e 0c be 5c b9 3d be 1a a2 4d 3e fc 16 ea 3d
       -0.13695607 -0.1852774 0.20081368 0.11430165
0000a0 69 4d c5 3d ea d4 f0 3d 30 76 8a 3e b9 37 05 be
       0.096339054 0.1175936 0.27043295 -0.13009538
0000b0 fb 25 a2 bd 63 26 00 3e c6 f2 b1 3e 53 4a 0d bd
       -0.079174004 0.12514643 0.34755534 -0.03449471
0000c0 c4 aa b4 3e 2a 61 69 3e 7a 48 e3 bd 34 9a 6a be
       0.35286534 0.22790971 -0.11097808 -0.22910386
0000d0 f8 b1 87 3e 28 ca e6 3d d2 cb 03 3d aa c6 28 3e
       0.26502967 0.11269027 0.0321768 0.16482034
0000e0 04 83 8c 3d f9 33 e8 bd 9a 09 52 bb 47 f8 a1 3e
       0.06860927 -0.11338038 -0.003204918 0.31634733
0000f0 cb 62 c3 3d 1b 5d b7 3d 70 dc b8 3e b9 13 81 3d
       0.09540328 0.08953305 0.3610568 0.0630259
000100 da 1c 4a 3e aa 65 6b bd e2 04 31 bd 13 f6 65 3e
       0.19737568 -0.05747 -0.043217547 0.22457151
000110 ca a0 6e 3d 2e cf 95 3d 44 49 89 3d bd 0a df bd
       0.05825881 0.07314907 0.067034274 -0.1089072
000120 73 c7 89 3e d9 99 1c bc 49 21 8c 3e e4 66 1a 3e
       0.2690998 -0.0095581645 0.27369145 0.15078312
000130 62 d4 b0 3d ac bc 83 3e 45 e9 e2 3c e5 90 85 3e
       0.08634259 0.25729883 0.027699122 0.26087108
000140 a1 c9 fa 3d eb 27 81 3e fa 30 56 39 0e e8 9a 3d
       0.12245489 0.25225767 0.00020426876 0.07563792
000150 c3 97 08 3d de f1 6d bc 50 da 4c 3d 4f 3c 8b be
       0.033347856 -0.014522998 0.050012887 -0.2719445
000160 4f f8 00 be 77 b6 13 be a8 40 05 be cd e0 64 be
       -0.12594722 -0.14425074 -0.13012946 -0.2235138
000170 db 1a 03 be b0 82 97 bd a6 94 38 3e 12 37 5a be
       -0.12803213 -0.073979735 0.18025455 -0.2131007
000180 9e c9 aa 3d 55 50 a9 3d a4 6f 2f 3e 09 cc 3c 3d
       0.08339237 0.08267275 0.17132431 0.04609302
000190 70 23 b2 bb d5 bf 89 3e a5 47 ea 3b 55 5c 16 3c
       -0.0054363534 0.2690417 0.007149654 0.009177287
0001a0 3a 9e 09 be 27 4d 65 3e 0e 40 9f 3d b0 d5 e3 3d
       -0.13439265 0.22392713 0.07775889 0.11124742
0001b0 be 93 2b 3e 2a c3 19 3e 81 f4 a9 be 01 00 1d be
       0.16755578 0.15015855 -0.33194354 -0.15332033
0001c0 19 67 af 3d 5c f5 85 3e 16 5f 36 3e 7d 94 8d 3e
       0.08564586 0.26163757 0.1780971 0.2765235
0001d0 9c 38 f2 3d 77 a2 15 be 7f b7 83 3e 0e 7c bf 3e
       0.11827204 -0.14612757 0.25725934 0.37399334
0001e0 8d 1d a7 3e ad 8f b7 bc 52 a8 28 bc b6 db 6c 3d
       0.32639733 -0.022407377 -0.010294037 0.05782672
0001f0 22 2b 96 3e 04 cb 51 bd cf 0a 9f be 6b f7 41 3b
       0.29329783 -0.051219 -0.31062934 0.0029596935
000200 d4 cd 3b be 31 c0 4c bd 44 86 87 be e3 44 a5 bd
       -0.18340236 -0.049987976 -0.26469624 -0.0806978
000210 2a ab ab bd 44 5f 28 be f9 76 0a be 96 79 84 3e
       -0.08382256 -0.16442591 -0.13521947 0.25874013
000220 02 c3 c3 bd 3a 1a 8c 3e 32 b7 20 3e 42 25 d6 3d
       -0.09558679 0.2736376 0.15694883 0.10456325
000230 30 e5 9c 3e 7b e9 70 3e bf 6d 92 3e b5 36 b6 3e
       0.30643606 0.23526566 0.28599355 0.35588613
000240 53 3a ab 3e 03 97 b5 3e 27 a4 63 bd 76 cf 74 bb
       0.33442935 0.35466775 -0.05557647 -0.0037355102
000250 49 e0 9b 3e 15 e1 4c bc 50 c5 72 be 5a ce b4 3e
       0.30444553 -0.012504836 -0.23708081 0.35313684
000260 d4 94 ed bd 00 82 bb 3e 62 f0 5d be d0 0c 9c be
       -0.11600652 0.3662262 -0.2167373 -0.30478525
000270 f4 17 9a 3d d3 7a 6d be 89 5b d5 bb 8f ac 97 be
       0.075241 -0.23191385 -0.006511156 -0.2962384
000280 0e 5f a8 be 46 c9 ef 3c 94 dd 7c be 05 df 23 be
       -0.3288502 0.02927078 -0.246939 -0.16003044
000290 da 05 5a 3e 1e a3 33 be 6d d2 9f be ea 1c b4 be
       0.21291295 -0.17542693 -0.3121523 -0.3517831
0002a0 5c d6 8d 3e 5b 3c d7 3d 93 96 ea 3b 21 5e 48 3e
       0.27702606 0.10509559 0.007159063 0.19567157
0002b0 a3 3e c2 bc b6 cf 9a 3e 2c 04 4d bd 05 27 46 3e
       -0.023711508 0.30236596 -0.050052807 0.19350822
0002c0 fc 99 ae 3e 32 ba b4 3d d5 c8 13 3e 24 f0 ae bd
       0.34101856 0.088245764 0.1443208 -0.08541897
0002d0 2d 54 a4 bd 3d 2a 85 3e 68 c5 11 3e 94 8d 61 be
       -0.08023868 0.26008788 0.14235461 -0.22026664
0002e0 14 17 f5 3d 12 3c 4f be 4b fe 31 be 9d df c0 bd
       0.119672924 -0.20237759 -0.17382161 -0.09417651
0002f0 f8 18 ea 3d f2 1e 89 be 37 37 14 3d 13 3e 68 3e
       0.11430544 -0.26781422 0.03618547 0.2267993
000300 2e d2 59 3e 31 c0 c5 bd b5 f7 82 bc 86 cd 82 bc
       0.21271583 -0.09655798 -0.015987257 -0.015967142
000310 9f 8c d9 bd 86 b0 2b be a4 c9 a3 be 49 ca a5 be
       -0.106225245 -0.16766557 -0.31989777 -0.32380894
000320 7c 99 50 be e6 a8 e5 bd e4 8d 3d 3d 9a 7f bd 3c
       -0.2037105 -0.112138554 0.046277896 0.023132134
000330 13 71 21 bd fc fe aa bc 51 13 c9 3d ec cf 94 3d
       -0.039414477 -0.02087354 0.098181374 0.072662205
000340 e4 5f 31 be fc d5 78 be 42 d2 16 bc 2b 05 7b bd
       -0.17321736 -0.24300379 -0.009205403 -0.061284225
000350 27 4c 4f be 0d 99 56 3d 28 9a c9 bd c7 31 a6 be
       -0.20243894 0.052392054 -0.09843856 -0.32459852
000360 33 5a a6 3d 71 32 14 be b8 ac 85 be 49 6e 4f 3e
       0.08122673 -0.14472367 -0.26108336 0.20256914
000370 96 c4 fb bd fa 0b a7 be c9 63 a7 be fd 59 45 bd
       -0.12293355 -0.32626325 -0.32693318 -0.048181523
000380 89 5e 96 be ee de 44 be 23 02 a6 be c3 22 ab be
       -0.29369 -0.19225666 -0.32423505 -0.3342496
000390 d7 ca fe bd 51 93 92 be 08 2c 32 bd c9 d4 e5 bd
       -0.124410324 -0.28628018 -0.043499023 -0.11222226
0003a0 02 43 81 3d d4 d8 60 be 3a af 0e 3d c9 a1 38 bc
       0.06311609 -0.21957713 0.034835078 -0.011269041
0003b0 19 fd 89 3e c8 50 c9 3d 62 ef ba 3d d9 cc 80 3e
       0.2695091 0.09829861 0.0912769 0.25156286
0003c0 ea a7 cb bd 14 cf 87 3e 27 10 58 3e 67 98 53 bd
       -0.099441364 0.26525176 0.21099912 -0.051659014
0003d0 11 92 6c 3d 75 73 48 3e 1b 20 2c 3e 57 8f a5 bd
       0.057756487 0.19575293 0.16809122 -0.080839805
0003e0 12 b1 27 3e 30 2c ec bd 1d 27 bc 3e 55 3e 85 3e
       0.1637614 -0.115318656 0.3674859 0.26024118
0003f0 6c 32 11 bd a2 3d 97 be 67 fd 4a be bc 03 ac 3d
       -0.035448477 -0.2953921 -0.19823228 0.0839915

q_head.DAC_block.mamba_blocks.0.conv1d.weight f4 [28, 1, 4]
000000 c0 20 97 bc 2c 42 80 3e c7 3d a1 be c1 1c 99 be
       -0.018448234 0.25050485 -0.31492445 -0.2990475
000010 20 2d f1 3e e0 8c 69 be 22 76 0c 3f 16 4f 17 3f
       0.4710474 -0.22807646 0.54867756 0.5910505
000020 d8 dc e2 3e 50 99 5d 3e 4f 41 a0 3e 74 c7 92 be
       0.44309115 0.21640515 0.31299827 -0.28667796
000030 e6 a2 cb be 6c d5 06 3e d9 6d 71 be 18 a6 87 be
       -0.3977272 0.13167351 -0.2357706 -0.26493907
000040 d4 ac c4 be f0 16 5b 3e d6 8e 1d be a7 26 65 be
       -0.38413107 0.21395469 -0.15386519 -0.22378026
000050 be 9d d7 be 04 51 58 be fd 5c b9 3e 9d 5b fb 3e
       -0.42112535 -0.21124655 0.36203757 0.49093333
000060 58 24 c4 3e 70 af 1a 3e 76 31 25 3e fa 3d 9f be
       0.38308978 0.15105987 0.16132149 -0.31101972
000070 50 ed 67 3d 80 fa 1e bc 07 1f d0 be 96 31 13 bd
       0.056622803 -0.009703279 -0.40648672 -0.03593596
000080 c0 7c 70 bc 18 97 b5 be be 55 55 3e 8d 6f 8b 3e
       -0.01467818 -0.35466838 0.2083349 0.27233544
000090 38 cc d2 3e 7e 4f 8c 3e a4 62 00 3f d0 07 f8 bc
       0.41171432 0.27404398 0.50150514 -0.030277163
0000a0 6c 78 c3 be c8 19 b5 be 42 94 13 be 66 f3 0e 3f
       -0.38177812 -0.35371232 -0.14412025 0.55840147
0000b0 e4 2d 79 be 98 4c ab 3d 9e 6a ef 3e 16 9f ee 3e
       -0.24333912 0.083642185 0.4676103 0.46605748
0000c0 bc 05 5b 3e b4 22 11 be 5d ab a4 be f7 b6 e1 be
       0.21388906 -0.14173394 -0.3216199 -0.44084904
0000d0 e0 83 66 be c0 25 e3 bc 46 09 07 bf ee 1f 9a 3d
       -0.22511244 -0.027727962 -0.52748525 0.07525621
0000e0 f8 01 76 be 28 46 89 bd 95 a1 63 be a2 2c 14 3f
       -0.24024189 -0.06702834 -0.22229607 0.57880604
0000f0 e0 74 6e bd cc 2a 76 3e 15 75 4a 3e 44 8b 10 3f
       -0.05821693 0.24039763 0.19771226 0.564625
000100 08 ab e9 3e ea b9 d3 3e 78 29 d1 be 25 07 15 bd
       0.456383 0.4135278 -0.4085195 -0.036383767
000110 be 54 e9 be 80 71 de 3e e2 88 87 be e0 64 88 be
       -0.45572466 0.4344597 -0.2647162 -0.26639462
000120 2c 16 4d 3e c0 45 c4 be ca a6 d1 be 1d 7c 97 be
       0.20027989 -0.38334465 -0.40947562 -0.29586878
000130 1e 2e f0 3e 6a a5 97 be c0 14 0e 3f a9 3d 9e 3c
       0.46910185 -0.29618388 0.5550041 0.019316511
000140 78 9b 27 be 62 24 84 be 5f 47 f4 be 33 de ae be
       -0.163679 -0.25809008 -0.47710702 -0.341539
000150 30 f3 e8 3e 0c 3b 29 be b7 a6 e8 be 1f 55 d5 bd
       0.45498037 -0.16526431 -0.45439693 -0.10416626
000160 88 5a 55 be ea 6b ea 3e 6f 5e dc bd 48 52 c0 3e
       -0.20835316 0.45785457 -0.10760199 0.37562776
000170 98 93 91 3d 0c c4 a8 3e 89 e1 a7 be 62 4b 03 bf
       0.071082294 0.32962072 -0.32789257 -0.512869
000180 8c 67 6d 3e 94 61 59 3e 68 ff 86 3d 82 b9 36 3e
       0.23184031 0.2122863 0.065916836 0.17844203
000190 de 5b 8c 3e 44 51 31 be 3f bd dc be ac 6d c2 be
       0.2741384 -0.17316157 -0.43113133 -0.37974298
0001a0 c8 0c 06 be 22 f6 c7 be 25 35 d7 be 1f af 42 be
       -0.13090813 -0.39054972 -0.42032734 -0.19012116
0001b0 b0 1c d1 3d 12 67 bb be a1 f3 b0 be 18 1c 82 be
       0.1021055 -0.36602074 -0.34560874 -0.2541206

q_head.DAC_block.mamba_blocks.0.conv1d.bias f4 [28]
000000 5a ce f1 be cb ae 09 3f 35 3e 84 3e ae bc 8c be
       -0.47227746 0.5378234 0.2582871 -0.274877
000010 61 20 07 bf 43 e9 ee 3e e3 80 02 3f af d7 3a be
       -0.5278378 0.4666234 0.50977916 -0.1824634
000020 85 66 19 3f 83 8e b9 be f1 12 9a 3d de e3 18 bd
       0.5992206 -0.3624154 0.07523144 -0.037326686
000030 6e 5e c0 be d2 7f c2 3e 17 84 c5 be 1d ad 01 3c
       -0.37572044 0.37988144 -0.3857734 0.007914809
000040 e8 ae 21 3e c8 a3 b8 be 96 1e 20 3f 03 d8 85 be
       0.15789378 -0.36062455 0.6254667 -0.26141366
000050 94 26 b0 be 4a 90 f5 3e 56 09 bc 3e 81 80 8e be
       -0.34404433 0.47961646 0.36725873 -0.27832416
000060 fe e5 c2 3e 41 f5 f5 3e ac 0d 21 3f 43 2d d1 3e
       0.38066095 0.48038676 0.62911487 0.40854844

q_head.DAC_block.mamba_blocks.0.x_proj.weight f4 [65, 28]
000000 63 07 2d 3e 54 32 ee 3b 30 3e 6f be 45 6f 32 bc
       0.16897349 0.007269183 -0.23363566 -0.010890787
000010 07 88 38 3e 6c db 0a be b3 8e 07 3d cf 40 1c 3e
       0.1802064 -0.13560265 0.033095073 0.15259098
000020 87 93 1e bd 26 2a 29 3e 24 b0 4c bb 62 d2 fc 3d
       -0.03871491 0.16519985 -0.0031232918 0.12344815
000030 a2 bd 6c 3e e4 d2 92 be 9a e4 9c 3e 00 f5 83 3e
       0.23119214 -0.28676522 0.3064316 0.25772858
000040 f9 31 ab bd 2a a9 ae 3d 2b c8 32 be b3 24 ad 3e
       -0.08359141 0.08528359 -0.1745917 0.33817062
000050 48 69 07 3e 44 ef 0a bd f7 1f bd bd 6b be ce 3d
       0.13223755 -0.033919588 -0.092346124 0.10094913
000060 b3 ef 07 be 43 8a 62 be 5e 31 e0 3c 26 33 e3 bc
       -0.13275032 -0.22123055 0.02736729 -0.02773435
000070 c9 c9 88 3d b3 39 b8 bc 13 c6 1f be d0 be 7b 3e
       0.066791125 -0.02248845 -0.15602903 0.24584508
000080 8c d4 4d 3e 21 ae 23 be 2a 4f c9 bd c2 1f c2 bb
       0.20100611 -0.15984394 -0.098295525 -0.005924196
000090 d9 3d 94 be 27 38 95 3d d0 be 46 be d5 a4 24 3d
       -0.28953436 0.07286101 -0.19408727 0.04019626
0000a0 4e 13 4a 3e e8 78 06 bc 50 0b 30 3e e1 2f 12 3e
       0.19733927 -0.008207537 0.17191815 0.14276077
0000b0 16 3a 96 bc 50 e3 2b 3d ad 3c 98 be b7 ca 6f 3e
       -0.018338244 0.04196483 -0.29733792 0.23417173
0000c0 84 67 03 3d 3d e9 8f bd f9 eb 3f be c9 ce b9 bc
       0.032081142 -0.070269085 -0.1874236 -0.02268161
0000d0 64 e0 31 bd ad 69 41 be 23 1c d6 bd 75 52 77 bd
       -0.043426886 -0.18887968 -0.104545854 -0.06038137
0000e0 8e ca 6a 3e 0c cd 84 be 3e 25 e1 3c 9c 95 1d 3c
       0.22928831 -0.25937688 0.027483579 0.009618189
0000f0 6e 89 9b 3e 09 67 60 be 34 c4 8c be b4 24 6d 3e
       0.30378288 -0.21914305 -0.2749344 0.23158532
000100 8f b7 68 bc c9 3f 67 3e 97 98 7d be 7f de 51 3e
       -0.01420392 0.22582926 -0.2476524 0.20495032
000110 35 c3 09 3d c4 15 8a be 58 c4 8f 3e a0 48 5f bd
       0.03363343 -0.2696973 0.28079486 -0.05451262
000120 cb f9 d7 bc c5 8f 9d 3c 82 c6 6a 3c 0c a6 8e bc
       -0.026364228 0.019233594 0.0143295545 -0.017413162
000130 74 41 60 3e b3 3d d2 bd be e6 45 3c 75 fa 64 3e
       0.21899968 -0.102656744 0.012078939 0.22361167
000140 63 ef e0 3c c7 be ec bc 31 ba 41 be 1b ac 85 be
       0.027457898 -0.028899563 -0.18918683 -0.2610787
000150 af 6b a6 bd a9 23 bc 3d ed 62 bb 3d 1b cf 4f bc
       -0.08126008 0.09186489 0.09149728 -0.012683655
000160 03 ee 57 bd 09 28 e6 bc 11 77 80 3e aa d8 6c be
       -0.05271722 -0.028095262 0.2509084 -0.23129526
000170 90 2b 90 3e 0a 97 39 be 9a 5b d7 3d 32 e9 e8 bd
       0.28158236 -0.18124023 0.105155185 -0.113726035
000180 59 75 6b be bf 13 c1 3d 7f 4a fb bd 11 ff 43 be
       -0.22993983 0.094275944 -0.122700684 -0.19140269
000190 b8 9e 54 3d 89 0f 33 be 4b f0 39 bd 02 97 28 bd
       0.05190918 -0.17486395 -0.045395177 -0.041159637
0001a0 49 19 bd bd 3c 4b 16 bd 88 f1 64 3e ba d3 9d be
       -0.092333384 -0.036692843 0.22357762 -0.30825597
0001b0 be d0 45 3e a0 a7 9a 3e 89 bf 31 3e af fc 2c 3c
       0.1931791 0.30206013 0.17358221 0.010558291
0001c0 17 40 7a bd 0f ee 30 3e 71 08 1e 3e 33 b2 2e be
       -0.061096277 0.17278312 0.15432908 -0.17060165
0001d0 c0 c4 7a be bb 7d 09 3e b3 76 34 3e e7 b7 2a be
       -0.24489117 0.13426869 0.17623405 -0.16671716
0001e0 37 ae 3c bd a5 ce 11 be 0e a1 9c bd e2 97 d7 3b
       -0.04606458 -0.14238985 -0.07647906 0.006579385
0001f0 bd 39 a6 3d 4f 86 20 3e 68 02 9e bd 87 b5 2e be
       0.081164815 0.15676235 -0.07715303 -0.17061435
000200 11 53 69 3e 84 3a 2b be 82 94 67 3e 0f 21 33 3d
       0.22785594 -0.1672154 0.22615245 0.0437327
000210 c9 1f 1b be 37 cd 7a 3e d0 94 bc 3d 48 1b f0 bd
       -0.15148844 0.24492346 0.09208071 -0.117239535
000220 1b da 2f 3e 9e cb 64 3e a8 3e 96 3d 80 54 80 3d
       0.17173044 0.22343299 0.073361695 0.06266117
000230 55 4f 9d be ff 06 62 3d 90 42 9a 3e bc 15 99 bc
       -0.30724588 0.055182453 0.30128908 -0.018687122
000240 27 ce 87 be cb 41 90 3d 30 49 da 3d 17 2e 1c bd
       -0.2652447 0.07043799 0.10658491 -0.038129892
000250 ad 58 cd bc 18 42 3f bd 9d 78 00 3e 3a 4f 28 bb
       -0.025066698 -0.04669389 0.1254601 -0.0025681988
000260 9d c8 69 be 8c a2 72 3d 2c 73 97 be d8 39 46 bd
       -0.22830434 0.059237048 -0.29580057 -0.048395008
000270 31 69 fe bc a9 d0 ee 3c c6 e1 27 3e 38 f8 92 be
       -0.031056019 0.029152231 0.1639472 -0.28705
000280 7e 29 a1 be c6 94 dc 3d 4e 08 86 3e 70 9b 13 be
       -0.3147697 0.10770564 0.2617821 -0.14414763
000290 ea 9c 17 3e 8e a3 32 3a c8 dc 76 3e ee d5 db 3d
       0.14805952 0.00068145327 0.24107659 0.10734163
0002a0 04 bb 43 bd eb 74 fa bc f9 0d 9f 3e 9f d1 0c be
       -0.047785774 -0.030573329 0.31065348 -0.13751839
0002b0 09 39 8b bb aa 20 3c 3e 2c 2e 5f 3e a4 18 fa bd
       -0.0042487425 0.18371835 0.21794957 -0.12211731
0002c0 21 4d 94 3e 82 f6 68 3d 33 b6 82 3d c6 5e 43 bc
       0.28965095 0.056875713 0.06382408 -0.011924451
0002d0 db dc 1e 3d 80 ae 13 3e 11 89 9b be c0 1e ca 3d
       0.038784843 0.14422035 -0.3037801 0.09869146
0002e0 70 55 1e 3e 12 f7 0a be 95 e6 c4 3c bd 2f 4c be
       0.1546228 -0.13570812 0.024035731 -0.19940086
0002f0 08 be f2 bd 5a c6 55 3e 6b bb 03 3d a3 e5 96 be
       -0.11852652 0.20876446 0.032161158 -0.29472074
000300 67 3f 09 3e 92 e0 97 3e 4c eb 71 3d 8c a6 63 3e
       0.13403092 0.2966352 0.059062287 0.22231501
000310 b9 89 f8 bd d8 a2 1d 3e 8a 9f 86 3e 2d 12 9a be
       -0.121356435 0.15394151 0.26293594 -0.30091992
000320 2c c1 40 be c8 c0 20 3e ad 31 a4 3e fb 0d 04 3d
       -0.18823689 0.1569854 0.3206915 0.032239895
000330 d6 22 a5 3e 7c fe 26 be 72 16 82 3e 00 c0 54 be
       0.3225314 -0.16308016 0.2540775 -0.20776367
000340 bd 98 4d bd ff 1c a0 3e 0a b2 18 be 5b 18 1a bd
       -0.05019449 0.31272122 -0.14911667 -0.037620883
000350 18 32 43 3e 25 97 47 be 70 0f 49 3e b7 9b 09 be
       0.19062078 -0.19491251 0.19634795 -0.13438307
000360 20 62 87 be 08 41 e3 3d a9 69 e1 bc 7f 8b 9f be
       -0.2644205 0.11096388 -0.027516203 -0.31161115
000370 62 ee a1 3e 47 b4 f7 3b e9 53 cd bc 3a c0 86 3e
       0.31627184 0.0075593325 -0.025064426 0.26318532
000380 fa 9f 7b 3e 6a 32 e1 bd 7c b2 20 be 26 f9 5f 3e
       0.24572745 -0.10995944 -0.15693086 0.21872386
000390 ce 48 ef bb 3b bb 44 be d7 8c 9e be ed 1c 7b 3d
       -0.00730238 -0.19212048 -0.30966827 0.061306883
0003a0 71 8f 6c bd 52 92 88 3d 47 03 59 be 0b 41 8f 3e
       -0.057753984 0.066685334 -0.21192656 0.2797931
0003b0 54 f3 86 3e 88 62 48 be e1 dd a9 3d 98 d3 b7 bd
       0.2635752 -0.19568837 0.08294273 -0.08975905
0003c0 bf 15 a4 bd 41 10 07 3e d6 7c 50 bd 53 5e 08 3e
       -0.0801196 0.13189794 -0.050900303 0.13317232
0003d0 fe 14 96 3e b4 ec 87 be 1b 9c a1 be 31 de 4e bc
       0.2931289 -0.26547778 -0.31564412 -0.012626217
0003e0 e3 1e a3 be ef 2b 56 be a8 ae 86 be d6 93 8f be
       -0.31859502 -0.20915197 -0.26305127 -0.28042477
0003f0 20 a7 55 bd 33 55 10 be c2 32 70 bd bc b5 99 3d
       -0.052161336 -0.14095001 -0.058642156 0.07505366

q_head.DAC_block.mamba_blocks.0.dt_proj.weight f4 [28, 1]
000000 ff d4 f6 be 2d 82 05 3f b1 00 eb 3e b2 bd 60 3f
       -0.48209378 0.5215176 0.45898965 0.8778945
000010 06 51 36 3f d1 8f 4f 3d 47 9d 28 bf 00 fe 83 3e
       0.7121738 0.050674263 -0.65864986 0.25779724
000020 2c 2d 79 be eb 8f 3d bd df cd 66 bf cc 4a 3c 3f
       -0.24333638 -0.04627983 -0.90157884 0.7355163
000030 9c a1 56 bf ae ab ba be 53 eb 3e bd e1 36 c0 3e
       -0.83840346 -0.36459106 -0.04661114 0.3754187
000040 fe 39 85 be ec fb c2 3e da f0 0f 3e a0 0d d5 3e
       -0.26020807 0.38082826 0.14056721 0.41611958
000050 bf 88 c3 3e 41 3d 3e bf 13 91 c7 3e 32 17 55 3f
       0.38190266 -0.74312216 0.3897787 0.8323852
000060 c5 fb 26 bf ad b5 07 bf 84 16 0d bf 50 a1 66 3e
       -0.6522792 -0.5301159 -0.5511248 0.22522473

q_head.DAC_block.mamba_blocks.0.dt_proj.bias f4 [28]
000000 99 67 93 c0 03 34 29 c0 cd 79 83 c0 59 c4 90 c0
       -4.606396 -2.6437995 -4.1086183 -4.523968
000010 55 5b 07 c0 98 00 c8 c0 66 46 d2 c0 a5 80 b2 c0
       -2.1149495 -6.2500725 -6.5710936 -5.5782037
000020 7a a0 20 c0 80 25 c2 c0 e1 34 99 c0 58 82 60 c0
       -2.5097947 -6.0670776 -4.787705 -3.5079556
000030 b7 c9 98 c0 07 79 81 c0 19 bc 8e c0 51 8a a2 c0
       -4.7746234 -4.046024 -4.460461 -5.0793843
000040 94 68 2b c0 8d 8d 15 c0 c9 de c3 c0 d5 f2 56 c0
       -2.678258 -2.3367646 -6.1209455 -3.3585713
000050 44 af a2 c0 a2 de c2 c0 3c 1e a4 c0 9e 17 9a c0
       -5.0838947 -6.089677 -5.1286907 -4.815383
000060 49 b3 af c0 71 b0 07 c0 0a 46 1e c0 c9 65 1a c0
       -5.4906354 -2.1201441 -2.4730248 -2.4124625

q_head.DAC_block.mamba_blocks.0.out_proj.weight f4 [14, 28]
000000 5b c4 ed bd fb c4 78 3e 85 ab 18 3d a2 cf 75 3e
       -0.116097175 0.24293892 0.03727295 0.24004987
000010 cf ab 99 3d 6d 33 fa 3b 1d 05 f4 3d 45 c3 65 be
       0.07503473 0.007635525 0.11915038 -0.2243777
000020 55 47 a4 bd 7f ba 82 be 93 d8 cf bd 49 c1 94 bc
       -0.08021418 -0.2553291 -0.1014873 -0.018158572
000030 48 88 05 3e 61 0a 1c be e0 bc ec 3d c6 10 4c be
       0.13040268 -0.15238334 0.115594625 -0.19928274
000040 ea eb 58 3e 80 c5 b9 bd 22 ea 32 3e 75 78 0f b9
       0.21183744 -0.09070873 0.17472127 -0.00013682416
000050 18 ab e1 3d d7 6f 44 be 49 c6 86 bb a7 3a 3b be
       0.11018962 -0.19183289 -0.004112993 -0.18284093
000060 cc d3 a4 bd b9 78 4f bd fe 9b a7 bd dd 45 a2 bd
       -0.080482095 -0.05065224 -0.0818405 -0.079234816
000070 e2 34 e1 3c ab c5 a6 3c 53 93 09 3e e3 5d 95 3e
       0.027491037 0.020357927 0.13435106 0.29173192
000080 ab c5 88 3e f4 89 70 bd b8 f6 96 3d 99 0a a4 bd
       0.2671331 -0.058725312 0.073712766 -0.08009834
000090 6c 3a 82 be 67 e2 3d be 32 4a 08 be cd cc 82 3e
       -0.25435197 -0.18543397 -0.13309553 0.25546876
0000a0 7d 88 82 3d 56 a2 53 b9 b5 60 f7 3b 7f 11 35 3d
       0.06373689 -0.00020183003 0.00754937 0.04420614
0000b0 9a f8 74 3e de 24 5e 3e ee e8 50 3e bb 22 47 bd
       0.23922959 0.21693751 0.20401356 -0.048617106
0000c0 1a 55 3f 3e bb 6b db bd 7c 37 72 be 20 c5 23 be
       0.18684807 -0.10713907 -0.23653978 -0.15993166
0000d0 02 d4 55 bd 5f ec 8e be 2c 78 04 bd 72 d2 08 bd
       -0.05220414 -0.27914712 -0.032341167 -0.03340382
0000e0 23 7c 04 be 13 ef 0e 3e 75 d6 f6 3d c3 43 0d 3e
       -0.1293798 0.13958387 0.12052623 0.1379538
0000f0 b6 55 60 3e ac 05 80 bd f2 59 59 3d 01 65 cb bd
       0.21907696 -0.06251082 0.053064294 -0.09931374
000100 34 8f 3c be db f4 72 be 79 61 e9 bd a8 b9 29 3c
       -0.18414003 -0.23726217 -0.113955446 0.010359205
000110 bd 47 f9 ba 61 36 ac bc 9d fc be 3c ca 37 07 be
       -0.0019018572 -0.021022024 0.023313815 -0.13204876
000120 38 dc 83 3e d4 59 64 bc 36 7b 57 3e 2e 56 bf bd
       0.2575395 -0.013937432 0.21043095 -0.09342609
000130 1b 5a da 3d b4 d2 24 be e3 bc 82 be bf 3c c0 bd
       0.106617175 -0.16096002 -0.25534734 -0.093865864
000140 74 4d 18 bd 94 c9 55 be 44 6b 71 be ea 8d 83 bd
       -0.03718324 -0.20877677 -0.23576075 -0.06423552
000150 d3 ca 9d 3d be bc 21 3e e8 a9 26 bd 26 e4 f1 3d
       0.07704701 0.15794656 -0.04068938 0.11811094
000160 f8 45 10 bc 5d 12 4e be 65 c0 8a 3e 04 60 89 be
       -0.008805744 -0.20124193 0.2709991 -0.26831067
000170 83 7f bd 3b 70 9c 70 3d 20 d1 27 3c a2 9c 16 3e
       0.005783023 0.05874294 0.01024273 0.14708188
000180 fe 58 3e 3d 5b 37 52 3d c2 92 2a bd 11 7c bb bc
       0.04647159 0.051322322 -0.041643865 -0.022886308
000190 bc 50 5c 3e 79 e3 d0 3d 96 7a 65 3d 33 31 95 bd
       0.21515173 0.10199637 0.05602511 -0.07284775
0001a0 1b 02 4d 3e 08 14 e8 3d f5 d1 85 bd c8 39 44 bb
       0.20020334 0.11331946 -0.06534187 -0.0029941667
0001b0 0c aa 7d be 93 83 53 be dc f0 35 be 67 02 70 be
       -0.24771899 -0.2065566 -0.17767662 -0.23438416
0001c0 0e 69 a1 bd 4f 27 e3 3c db 0e 93 3d 71 a8 6d bd
       -0.07881366 0.027728705 0.07180568 -0.058021966
0001d0 b0 4a 7e 3e 5c c3 85 3d df 9a 82 3e 1d 30 42 bd
       0.24833179 0.065314025 0.25508782 -0.047409166
0001e0 12 02 7e be e5 64 b8 bd f8 33 36 bd 4b 5e 84 3e
       -0.24805477 -0.09003619 -0.044483155 0.2585319
0001f0 24 72 40 3d 77 6b cb bd 71 bf fd 3d 20 c5 0c bd
       0.046983853 -0.09932607 0.1239003 -0.03436768
000200 96 ff 7e 3e ef 57 1a 3e 60 01 80 3e 10 e9 67 be
       0.24902186 0.15072607 0.2500105 -0.226475
000210 f7 5c 96 3e 6f e2 2d be 01 27 1f be 64 4e 93 be
       0.29367802 -0.16980909 -0.15542223 -0.28770745
000220 9f 67 53 3c 57 bf 53 bd 0d 92 2f be e5 25 84 be
       0.012903123 -0.051696148 -0.17145558 -0.2581016
000230 47 b0 48 3d 9b 19 6e be f9 e9 49 3d ab d6 f2 bd
       0.048996236 -0.23251955 0.0492954 -0.11857351
000240 09 d0 3c 3b f5 e5 f6 3c fe b8 d9 3c 5f fa 21 3d
       0.0028810522 0.030138949 0.026577469 0.039545413
000250 8c 40 ee 3c 1b 4d 74 3e 1a 52 43 3e e9 90 f8 bc
       0.029083513 0.23857538 0.19074288 -0.030342536
000260 04 e7 01 be 28 bb 87 3e 82 96 7f be 56 c0 ac 3d
       -0.12685782 0.26509976 -0.24959758 0.08435123
000270 44 d2 8f 3c d2 89 df bb 22 f1 37 be 22 1e 9f 3c
       0.017556317 -0.0068218494 -0.17963079 0.019423548
000280 0b 14 c4 3c 4f dd 57 bd 61 8e fa ba ea 19 58 3d
       0.023935338 -0.05270129 -0.0019115919 0.05275909
000290 06 79 0e bd 05 0a 06 3d fa ae 59 3e 59 2f ed 3d
       -0.034783386 0.0327244 0.21258155 0.115812965
0002a0 6e 56 91 3e 62 9c 54 be 79 35 88 be 06 87 2c be
       0.28386253 -0.2076278 -0.26603296 -0.16848382
0002b0 e6 9d 15 be 9e 57 ee 3d 4c ea 81 be 4d 46 b3 3d
       -0.14611015 0.116378054 -0.25374067 0.08753643
0002c0 2a eb b2 3d e6 8c 99 3d 50 2c 80 3e 7a f4 02 be
       0.0873626 0.07497577 0.25033808 -0.12788573
0002d0 44 b2 56 be e3 8c 80 bb 6a 56 71 be 1a b5 fb 3d
       -0.2096644 -0.003923045 -0.2356812 0.12290402
0002e0 2f 84 b7 bd af da 21 be 6f 98 85 be e5 0a 4a 3e
       -0.08960759 -0.15806077 -0.2609286 0.19730718
0002f0 3f 8a ef bd 86 4d 02 3e 65 2b da 3d 1b e1 fc bc
       -0.1169629 0.12724885 0.10652808 -0.030869057
000300 8d 7f 1c 3d 44 1d 97 3e 39 f6 60 3d 75 b5 62 3e
       0.03820758 0.29514515 0.054922316 0.22139533
000310 5e 8a 87 3e e5 15 2f be 1f d8 b8 bd 25 af 63 be
       0.26472753 -0.17098196 -0.09025597 -0.22234781
000320 a4 38 91 be 51 d0 ff 3d 14 c6 79 be 1d 00 39 bc
       -0.28363526 0.12490905 -0.24391967 -0.011291531
000330 b1 10 e7 3d a1 a7 d1 3d 03 5d 9d 3e 91 0e 71 be
       0.112824805 0.10237051 0.30735025 -0.23540713
000340 fa c8 2c be 77 d9 57 3d 9d 34 5a be fe 14 5a 3e
       -0.16873541 0.052697625 -0.21309133 0.2129707
000350 b3 f4 ad bd 9f 18 81 be 95 f7 ce bd af de 8a 3d
       -0.08493938 -0.25214097 -0.10105816 0.06780755
000360 c4 7a 3e be 4b 05 e3 bc 56 41 3f 3e 09 12 40 3e
       -0.18601519 -0.027712485 0.18677267 0.1875688
000370 71 29 42 bd 26 72 9a 3d 53 32 42 3e fc a9 7b 3e
       -0.047402803 0.07541303 0.1896451 0.24576563
000380 e3 b0 85 3d 71 fe d3 bc 6c a1 08 3d ca 19 4a be
       0.06527879 -0.025878163 0.03335707 -0.197364
000390 b4 17 17 be af 10 ba 3d ff 64 3b 3d d0 ed 7d bc
       -0.14755136 0.090852134 0.045750614 -0.015498593
0003a0 03 ad 7f 3e de bc 0d 3e 7e 26 93 3d e7 c1 99 bd
       0.24968342 0.13841578 0.07185076 -0.07507687
0003b0 8e d9 3f be 2e 47 90 3d 98 a8 ce ba 79 fe ba 3d
       -0.18735334 0.070448264 -0.0015766798 0.09130568
0003c0 04 94 5b be f0 98 9d be 1d 9c 4f be 17 a9 5b bd
       -0.21443182 -0.30780745 -0.20274396 -0.053628054
0003d0 3b fb 6f bd f2 8d 27 3e 71 e1 5c 3e 16 03 5c 3e
       -0.0585892 0.16362742 0.21570374 0.21485552
0003e0 21 fc af 3b 24 46 72 3d b9 9f 54 3e d1 38 92 3e
       0.0053706323 0.059148923 0.20764054 0.28558972
0003f0 99 bb ff bd f9 5a 9b bb ba 71 18 bd 43 38 88 3e
       -0.12486953 -0.0047410694 -0.037217833 0.26605424

q_head.DAC_block.ff1.weight f4 [32, 14]
000000 22 23 16 bd cb 26 5e 3e 92 e4 4f be 72 0d 22 bd
       -0.0366546 0.21694486 -0.20302036 -0.039563604
000010 d9 94 61 3e ca ef d1 3d 3e 0b 35 be 36 c8 01 3e
       0.22029437 0.10250814 -0.1768007 0.1267403
000020 99 42 3c 3e 54 44 c8 3d c0 af 09 be 8d d7 c9 3d
       0.1838478 0.097786576 -0.1344595 0.09855566
000030 52 07 2c 3e bf a0 a5 3d 5c 84 f4 bc 03 9f 03 3d
       0.16799667 0.080873005 -0.02984827 0.032134067
000040 d2 83 06 3e 6f 49 a0 be bc f7 0a 3e 3d 6e c9 3d
       0.13136223 -0.31306025 0.13571066 0.098354794
000050 1f d5 aa 3e 19 92 d4 bd c3 3b 73 bd ff be 9b be
       0.33365723 -0.103794284 -0.059383165 -0.30419156
000060 11 e5 eb 3d c4 26 29 3e 58 7c c7 bd 85 5e 75 3e
       0.115183 0.16518694 -0.097405136 0.23961838
000070 a0 08 94 bd ac 0b 86 be 6a 0f b0 be de 54 a0 be
       -0.072282076 -0.2618078 -0.3438676 -0.3131475
000080 ed 13 9d bd a8 8d 5e 3e 08 6a 4b 3d ed 6f 31 bd
       -0.07669816 0.21733725 0.049661666 -0.04331963
000090 51 f5 28 3e 52 6c 32 be 62 02 b0 be b1 6c e2 3c
       0.16499831 -0.17424133 -0.34376818 0.027639719
0000a0 e1 66 ae 3e 21 cb e1 bd 79 18 20 be 78 05 11 3e
       0.34062865 -0.11025072 -0.15634336 0.14162242
0000b0 b4 1a d4 3d 7c 3c 25 3e e1 22 07 3d f3 ce 6a 3c
       0.10356656 0.16136354 0.032992247 0.014331567
0000c0 1a 23 2c be f9 a7 ad 3d 5a be cc bd 75 a6 26 3e
       -0.16810265 0.08479304 -0.09997244 0.16274436
0000d0 b0 2b c0 bd f9 6e d2 bd 0c 14 29 be 06 28 e9 3d
       -0.09383333 -0.102750726 -0.16511554 0.11384587
0000e0 e0 77 82 bd a2 6e 06 3e 07 5b 83 3d 2a 98 a9 be
       -0.063705206 0.1312814 0.064138465 -0.33123904
0000f0 e4 7a e1 bd 4a 1c 89 3e 71 06 7e 3e 2f 53 81 3e
       -0.11009768 0.26779395 0.24807145 0.25258777
000100 26 ba 93 3e fe 42 8a be b6 a0 95 be 38 4d f8 3d
       0.28852957 -0.27004236 -0.29224175 0.12124103
000110 b9 04 4d 3e 07 df a0 3e 5b 26 f2 bc 5e b2 bf 3c
       0.20021333 0.31420156 -0.029559305 0.023400482
000120 86 e4 45 bd 24 2b 3b 3e af 8b 8e 3d b9 0b 1a be
       -0.04831364 0.18278176 0.06960236 -0.15043534
000130 a5 c4 31 bd 18 d9 90 be 37 c2 4f be 10 cf 18 be
       -0.043400425 -0.2829063 -0.20288931 -0.14922738
000140 e6 43 18 3e 6b 38 04 3e b7 8e 7e be ba f1 11 be
       0.14869651 0.12912147 -0.24859129 -0.14252368
000150 32 16 8a be 35 ba a4 3d b3 a3 03 3e 53 ec 32 be
       -0.2697006 0.08043329 0.12855415 -0.17472963
000160 9b 02 30 be c9 f2 09 3e b1 09 66 bd 9c d7 dd bd
       -0.17188494 0.13471521 -0.056161586 -0.1083214
000170 c8 88 07 be 5e b1 54 be 43 9c 8b be b5 59 88 3e
       -0.13235772 -0.20770785 -0.27267656 0.2663094
000180 fa 2a 9a 3d fa 01 5b bd b6 ab 14 3e c6 8e bd be
       0.075277284 -0.053468682 0.14518628 -0.3702299
000190 9c bc 67 be b0 28 b6 bd 6c a5 97 be 4a 7d 7b 3e
       -0.22630543 -0.08894479 -0.29618394 0.24559513
0001a0 aa 67 c4 3e 04 b3 8d 3e 87 05 2c 3e 15 42 ad bd
       0.3836034 0.2767564 0.16798984 -0.0845987
0001b0 91 ee 49 bd bf bd 3b 3e 6f 1e a7 3e 72 d1 ad 3e
       -0.04929978 0.18334101 0.32640406 0.33948857
0001c0 46 cd 09 be 19 d5 ab 3e 6d c7 b1 3e 13 f4 90 3e
       -0.13457212 0.33561018 0.34722462 0.28311214
0001d0 5b 79 72 3e c0 f8 20 bd f5 18 a9 be 00 b1 79 3c
       0.23679106 -0.039299726 -0.33026853 0.015239954
0001e0 26 58 1a be de 0e be 3d 21 cb b0 3e e5 be f9 bc
       -0.15072688 0.092801794 0.34529975 -0.030486533
0001f0 a6 68 a2 3d e8 1d 3c be 75 f3 11 be 12 3e c3 3e
       0.07930116 -0.18370783 -0.14253028 0.38133293
000200 4f 6d ae 3d c1 58 fc 3c 64 26 1c bd d7 7c 97 bd
       0.08516943 0.03080404 -0.03812255 -0.07396858
000210 1e e4 93 be 04 92 19 3e 67 33 85 be 28 d7 21 3d
       -0.28884977 0.14997107 -0.2601578 0.03951183
000220 cc 84 78 3e 35 02 2c 3c bc ab 3f bd 62 9b b4 be
       0.24269408 0.010498573 -0.046794638 -0.35274798
000230 0b ec 9d bd 14 a3 99 be d2 8d 05 be af 78 59 be
       -0.07711037 -0.3000723 -0.13042381 -0.21237443
000240 c0 ad c1 be 43 38 f9 3c d4 9f b1 3e 54 d0 86 3e
       -0.37827873 0.030422335 0.34692252 0.26330817
000250 cc 08 62 3c df c6 91 bd 03 61 18 3d 80 cf 2c 3e
       0.013796043 -0.0711801 0.037201893 0.1687603
000260 a6 a2 45 3e 7b 50 fe 3d df 38 9a be a7 a3 95 be
       0.19300327 0.12417694 -0.30121514 -0.2922642
000270 2f 7e ac be af 38 11 3e 9b 6a a5 be 8f 8a 91 3d
       -0.3369002 0.1418178 -0.32307896 0.07106506
000280 74 cb 21 be fe e4 a6 bd 94 fa 98 3e 71 d6 9a be
       -0.15800267 -0.081491455 0.29878676 -0.3024173
000290 76 b1 c0 bc f4 a4 1f 3e a2 b5 8f 3e e7 b3 18 3e
       -0.02352212 0.15590268 0.28068262 0.14912377
0002a0 d8 ce 5f be 8a 62 24 be 13 36 88 3d 72 47 ad 3d
       -0.21856248 -0.16053215 0.06650939 0.08460893
0002b0 91 0f 13 be b4 b7 b2 3c f5 48 b7 3e cd 73 ef bd
       -0.14361407 0.021816112 0.3579785 -0.11692009
0002c0 87 d7 b1 3d 8b fe 21 be 34 ab 67 3d 9a 1d b9 3e
       0.08683687 -0.15819757 0.056559756 0.36155397
0002d0 55 1b 0d bd a6 44 96 3e 3c d4 a3 bc dc 66 64 bd
       -0.034449894 0.2934925 -0.019998662 -0.055762157
0002e0 db d2 63 3e ac 85 92 3d 97 0f 7d 3d 2d be d9 3c
       0.22248404 0.07154402 0.061782446 0.02657994
0002f0 31 68 4b 3e 8b a0 8a 3b 31 96 d7 bd 43 94 64 bd
       0.19863965 0.004230564 -0.105266936 -0.055805456
000300 ee fd 8a 3e d5 bc 15 be 27 c7 87 be 76 8a 22 be
       0.27146858 -0.14622815 -0.2651913 -0.15873131
000310 1e ee 50 3e 25 16 85 3e eb 7a ab bc 1a 91 68 3d
       0.20403334 0.25993457 -0.020932635 0.056779005
000320 44 a7 b3 3e 92 d3 71 be ca 7f 7a be bf bb b5 3d
       0.3508855 -0.23615864 -0.2446281 0.088737
000330 82 69 14 bd 5c ca 80 3e 96 e5 09 be 7d a1 0d be
       -0.036233433 0.25154388 -0.13466486 -0.13831134
000340 36 38 73 be 47 b6 14 be e6 c4 0e 3d 5a 8d 57 bd
       -0.23751912 -0.14522658 0.034855746 -0.052625038
000350 bc 59 99 3d e4 d2 02 be 5c 62 03 3d 1f 64 2a 3e
       0.074878186 -0.12775761 0.032076225 0.16639756
000360 50 76 bb 3d 61 8b 71 be 12 e2 57 be 6f e1 10 3c
       0.09153426 -0.23588325 -0.21082333 0.00884281
000370 a1 47 81 3e c3 69 c5 bb b1 fd 57 bd 12 34 85 bc
       0.2524996 -0.0060245707 -0.052732173 -0.01626018
000380 6e 22 03 3e c9 4e c0 3d 44 28 e3 bd 1b 0c 14 3c
       0.12806103 0.09390027 -0.110916644 0.009036089
000390 cb c4 41 3e a0 99 2d 3e 83 c7 b0 3d 78 fa 6c bd
       0.18922727 0.16953135 0.08631804 -0.057856053
0003a0 5a 87 84 be ce dd a8 3e b2 7c a3 bd b4 91 96 bd
       -0.25884515 0.32981724 -0.07982768 -0.073520094
0003b0 cd 5c 9c be 57 27 21 3d f2 0f 3f be 36 68 6e 3e
       -0.3053955 0.039344158 -0.18658426 0.23281941
0003c0 d0 0b 03 3e de fb b7 bd b3 17 6e 3e 1f 4e 8b bd
       0.12797475 -0.08983587 0.23251228 -0.0680201
0003d0 6d 52 f4 3d 50 14 87 be ac 74 12 3e 07 5e 2e 3e
       0.11929784 -0.26382685 0.1430232 0.17028056
0003e0 d1 97 ee bc e9 17 52 3e 70 3b 3e 3d b0 d8 e3 bd
       -0.029125126 0.20516934 0.046443403 -0.11125314
0003f0 89 e8 f9 3d a4 ea 0d 3a a7 17 33 3e aa 10 c1 bd
       0.12202556 0.00054136873 0.17489491 -0.094270065

q_head.DAC_block.ff1.bias f4 [32]
000000 31 27 89 be 00 a9 3c 3e 49 89 93 3e 63 ef 04 be
       -0.26787713 0.18423843 0.28815678 -0.12981944
000010 02 94 95 3e 57 60 38 be 70 56 ae 3e 49 71 25 3e
       0.29214483 -0.180055 0.34050322 0.16156496
000020 9d 4e 4b be 69 83 3c be 3d b4 e2 3d 09 5d 65 3e
       -0.19854207 -0.18409504 0.11069534 0.22398771
000030 41 4c c1 3d e1 3a 3c 3e 93 25 93 be 6e c8 32 be
       0.094383724 0.18381836 -0.28739604 -0.1745927
000040 a6 62 75 be ab b9 07 3d 9f 10 87 be 0b fb 4c be
       -0.23963413 0.03313605 -0.26379868 -0.2001764
000050 e2 03 9a be 37 a0 64 be d7 6c 4d 3e 02 b2 74 be
       -0.30081087 -0.22326742 0.2006105 -0.2389603
000060 04 91 9f be 98 1f a7 3d f8 6d 7b 3e 92 1e 04 be
       -0.31165326 0.08160323 0.24553668 -0.12902287
000070 d6 c8 71 be 64 b5 a7 3e ac 72 07 3d ee 26 a5 be
       -0.23611769 0.32755578 0.033068344 -0.32256263

q_head.DAC_block.ff2.weight f4 [16, 32]
000000 20 d4 08 be 50 5f a2 3c f5 d2 d1 bd f9 38 6f 3e
       -0.1336217 0.01982084 -0.10245315 0.23361577
000010 18 3c b4 bd cc 18 6d 3d b6 c0 39 be 22 ff 18 be
       -0.088005245 0.057884976 -0.1813992 -0.14941075
000020 3c 78 75 3e 0e fb 1e 3e c5 00 f3 bc 8f 7e 57 be
       0.23971647 0.15525457 -0.029663453 -0.21044372
000030 b8 70 2b bc bc 19 40 bd 68 46 7c 3e 6d c6 44 3e
       -0.010463886 -0.046899542 0.24636233 0.19216318
000040 3e 98 2e 3e fb 24 95 bc e5 d5 90 3d 82 7d 6a 3e
       0.17050263 -0.01820611 0.07072047 0.2289944
000050 e9 e3 a0 3d 35 4c 6e 3e fd d1 6e be 64 c8 d2 bd
       0.078559704 0.23271258 -0.23322292 -0.10292128
000060 8d ca 4f 3e 56 15 40 be 82 41 8b bb 96 be 64 bd
       0.2029211 -0.18758139 -0.0042497525 -0.05584582
000070 cb ef 7e bd 01 61 1e be ab 9c 37 3d 6f 8d db 3d
       -0.062240403 -0.15466692 0.044827145 0.10720336
000080 eb 35 a8 bd 1d 9e d1 bd d3 0f 6b be 19 a0 2f 3c
       -0.08213409 -0.10235236 -0.22955255 0.010719323
000090 70 e5 a4 bd 37 ed 14 3e 1a fe d8 bc 12 a9 98 bd
       -0.08051574 0.14543615 -0.026488353 -0.074541226
0000a0 26 3f 7a 3e 17 16 80 3e bb 99 2e be 9e ac fd bd
       0.24438152 0.25016853 -0.17050831 -0.1238644
0000b0 9f 5e 6a bb c7 8e cf bd af a0 3f 3e bc 56 62 3e
       -0.0035761965 -0.101346545 0.1871364 0.22103399
0000c0 7e 0b 6f 3e 0a 0d 00 3e 9c 95 6e 3e ea 2c 1a bc
       0.23344228 0.12504974 0.23299259 -0.009410122
0000d0 d7 18 10 3e 04 56 91 3d ac ab 3f be 1c 07 1d 3e
       0.14071976 0.07096484 -0.18717831 0.15334743
0000e0 15 35 93 3d 74 2b 5d be bb 60 a8 3d 1c cc 4c bd
       0.07187859 -0.21598607 0.08221575 -0.04999934
0000f0 8a 4b 28 3e aa ae 21 be 2a e6 f2 bd 0d 4e 49 3e
       0.16435066 -0.15789285 -0.118603066 0.1965868
000100 29 9a 96 3d c9 b4 9b bc 70 f1 13 3d 9d 4f f0 3d
       0.073536225 -0.019007104 0.036118925 0.11733935
000110 02 77 73 be 5e d3 67 3e 14 ad 7f 3d 83 35 25 3d
       -0.23775867 0.22639224 0.06242092 0.040334236
000120 c8 3c 3e 3e 8a b5 6c 3e 3e a5 b0 3c d1 23 11 be
       0.18577874 0.23116127 0.021563169 -0.14173819
000130 91 d5 92 3c d4 f2 aa 3c b3 85 39 3e e3 46 f5 bc
       0.017924102 0.020867743 0.18117408 -0.029941028
000140 3f 60 9a bc 89 b4 07 bc 17 7d af bd f7 ba 76 bd
       -0.018844722 -0.008282789 -0.08568781 -0.060236897
000150 e2 c8 5c 3e 26 6e 59 3d 9f 9d 96 3c 02 b2 0a bd
       0.21561006 0.05308356 0.018385706 -0.033861168
000160 4c 27 aa bd 05 c5 7b bd 92 34 4d 3d fb b7 33 3e
       -0.083082765 -0.06146719 0.050098963 0.17550652
000170 72 9e 3e 3d 80 18 06 be 22 ce 66 3d 88 7c 7b 3d
       0.046537824 -0.13095284 0.056348927 0.06139806
000180 7c ba 6e bd 59 6f 0a be 41 d2 1f 3d bf 8a 4b 3e
       -0.058283314 -0.13519038 0.039018873 0.19877146
000190 b9 be 2b be e2 fc 4a 3e ab c4 c9 bc da 37 c6 bd
       -0.16771974 0.1982303 -0.024629911 -0.096786216
0001a0 38 3b f3 39 73 1a fc 3c 15 70 93 bd 4f ed 85 bd
       0.00046392693 0.03077433 -0.07199112 -0.06539404
0001b0 68 ba 52 be 43 06 20 be 08 b7 5a bd 16 cd 59 3e
       -0.20578921 -0.15627389 -0.05339721 0.2126964
0001c0 99 24 09 bd 21 8c 12 bc 32 93 b4 3d 9b ca 89 3e
       -0.033482168 -0.008944542 0.08817138 0.26912388
0001d0 6f 56 4f 3c 7e e2 4e 3e d0 4d cb bd 45 20 4b bc
       0.012654885 0.20203587 -0.09926951 -0.01239783
0001e0 89 52 1c 3d f7 44 a9 bd 4c 71 19 be 9a c3 58 3e
       0.03816465 -0.08265107 -0.14984626 0.21168366
0001f0 bd bb 8c 3e 1e ce 3e be 47 ca cc 3d 89 4e 51 bd
       0.27486983 -0.18633315 0.09999519 -0.051100288
000200 82 96 aa 3d df 0f b2 3d b3 3e 60 be b8 9d 04 3e
       0.08329488 0.086944334 -0.21898918 0.1295079
000210 57 d4 5f 3c 98 26 89 bd e6 9b f3 3a 76 19 58 be
       0.013661466 -0.06696814 0.001858589 -0.21103463
000220 8c b5 81 3e 32 1c be 3d bb 05 1a bd 80 0f f4 bd
       0.25333822 0.092827216 -0.03760312 -0.11917019
000230 9f 4c 70 be 4a 7e 9d 3b 49 2a 65 3e 28 51 5b 3e
       -0.23466729 0.0048063146 0.22379412 0.21417677
000240 db 2b bf bd 18 21 b6 bd 2c 3b 04 3e ad 59 dd 3d
       -0.09334537 -0.08893031 0.12913197 0.1080812
000250 b1 bd 4c 3e e8 e3 19 3e da ac 16 be d7 e3 eb bc
       0.19994237 0.15028346 -0.14714375 -0.028795166
000260 09 13 ec 3d 63 4c 4e 3c 52 88 84 be c4 9a 8c 3d
       0.11527068 0.012591454 -0.25885254 0.06865457
000270 49 9a 28 3d 7e c1 c9 bb 63 29 09 be 65 9d d9 3d
       0.041162763 -0.0061570993 -0.13394694 0.10625724
000280 b6 c8 32 3e 2a 16 9a 3c 93 fa 1a be 3d 5e 9b bd
       0.17459378 0.018809397 -0.15134649 -0.07586334
000290 d7 55 01 be a5 74 8e 3d 6d 9c 02 be f5 cb 66 be
       -0.12630402 0.06955842 -0.12754984 -0.22538741
0002a0 a7 1e 0f 3e 47 21 50 3e c1 9c 1e be 1e cb a3 3d
       0.13976537 0.20325194 -0.15489484 0.07997726
0002b0 f8 b0 7d be 1a db 46 3d 69 ee 5d 3e f2 a0 a1 bd
       -0.2477454 0.048548795 0.21672978 -0.07892026
0002c0 0f 23 3c 3d 21 89 36 3d a0 e6 3b bd 89 4f c3 3d
       0.045931872 0.04456437 -0.045874238 0.095366545
0002d0 60 99 64 3e 6c 05 63 3d 92 27 7a be 2b aa 58 3c
       0.22324133 0.055425093 -0.24429157 0.013224165
0002e0 bf 00 2a bd 87 62 3b be 85 59 9c bd 78 77 4a 3e
       -0.041504618 -0.18299304 -0.07634262 0.19772136
0002f0 6c d2 58 3e 28 5d a0 bd ca 4b c1 bd 7a 11 4b 3d
       0.2117402 -0.07830268 -0.09438284 0.049577214
000300 98 db 56 3d e9 a9 32 be f4 87 8b be ff b0 ba bb
       0.052455515 -0.17447628 -0.27252162 -0.005697369
000310 04 51 cd 3c 0a a3 89 3d 2e 52 44 be 29 31 00 bd
       0.025063045 0.0672055 -0.19171974 -0.031296883
000320 43 f7 97 3c 6d 9c 3d 3e 69 f9 5c 3b d5 67 64 3d
       0.01855052 0.18516703 0.0033717996 0.055763084
000330 fc 5f 35 bd 71 90 c9 bd 31 7e d0 3d 17 ee de 3d
       -0.04428099 -0.09842003 0.10180319 0.10885256
000340 75 62 3f 3e 02 a9 2f 3b da 21 ce bc 07 7b 74 bd
       0.18689902 0.0026803617 -0.025162626 -0.05968764
000350 f9 7e 34 3e 53 e9 76 3e f0 b4 50 be 7a 35 ad 3d
       0.17626561 0.24112444 -0.20381522 0.084574655
000360 8c af 84 3e e1 66 eb bd 38 22 1a bd 91 67 1c 3e
       0.25915182 -0.11494232 -0.03763029 0.15273882
000370 48 09 e1 bc b6 66 81 be 89 4d 84 bd b1 00 61 3e
       -0.027470246 -0.25273675 -0.06460101 0.2197292
000380 56 96 c7 3d 59 f4 a9 3d 2c b5 83 be 2c 68 81 3d
       0.09745471 0.08298559 -0.2572416 0.06318697
000390 ea cb c6 bd c3 9b 74 3e f0 19 28 bd 6a 2e 17 bd
       -0.09706862 0.23887543 -0.04104036 -0.0369095
0003a0 01 22 0e 3e 45 28 90 b9 d7 b1 b1 bd 23 a6 79 be
       0.13880159 -0.00027495823 -0.086764984 -0.24379782
0003b0 5f db 7f be f1 5d 9e 3d a1 7d ae 3d a0 7d 08 3e
       -0.24986027 0.07732762 0.085200556 0.13329172
0003c0 80 33 f4 bc 52 48 a7 3d 76 29 42 3d 28 8c ae 3b
       -0.029809713 0.08168091 0.04740282 0.0053267665
0003d0 2a 5c d7 3c ee 52 73 bd 91 ad e4 bd 3a 10 28 bd
       0.026289064 -0.05940526 -0.11165918 -0.0410311
0003e0 70 fa f9 3d ec f5 18 be 30 cb 00 be 54 4c fb 3d
       0.1220597 -0.14937562 -0.1257751 0.12270418
0003f0 db 35 ba 3d 8f 21 90 3d a8 b8 a2 3d 58 00 bb bd
       0.09092303 0.07037651 0.07945377 -0.09130925

q_head.DAC_block.ff2.bias f4 [16]
000000 d1 d1 56 bd ad b4 36 be d1 aa a9 bd 8a fb b0 bd
       -0.05244619 -0.1784236 -0.08284534 -0.08641727
000010 dc f0 45 be 1f 06 37 bc e1 3e 1f bd a4 74 e8 bd
       -0.19330162 -0.011170893 -0.038878325 -0.113503724
000020 77 4d 13 be 51 a0 41 3d 53 07 63 be 0f 3c dd bd
       -0.14385019 0.04727203 -0.22170763 -0.10802471
000030 57 74 c7 bd 83 4b d7 bb 1a 8c 65 be 2e e1 4e 3d
       -0.09738987 -0.006570281 -0.22416726 0.050507717
