checkpoints/q-mamba/20240831_052025/checkpoint-4.pt (torch, 103216 bytes, 52 tensors)

q_head.DAC_block.mamba_blocks.0.A_log f4 [28, 32]
-0.039439667 0.63899755 1.044284 1.3350602 1.5391939 1.7308506 1.8637286 1.9978797
2.11344 2.2333174 2.3279407 2.4033828 2.4851673 2.5546067 2.638637 2.6898367
2.752022 2.80114 2.8598914 2.90963 2.9547806 3.0286295 3.0516255 3.094817
3.1528223 3.1760097 3.2043087 3.2476737 3.2837772 3.3301017 3.3435013 3.3801477
-0.07579386 0.6131405 1.01457 1.3058629 1.5275364 1.7080147 1.8689106 2.0024526
2.1201653 2.2146075 2.3108041 2.4034998 2.4825258 2.557575 2.6204636 2.686646
2.7506652 2.8105989 2.8596635 2.9133744 2.9636133 3.0113862 3.0424643 3.0838428
3.133277 3.169774 3.213157 3.2425246 3.2719657 3.312803 3.3522153 3.3755016
-0.028021295 0.6524496 1.0556729 1.344802 1.5560919 1.7426149 1.8921527 2.0243466
2.1426346 2.2448735 2.3398108 2.425955 2.5054898 2.580635 2.647706 2.7116852
2.7728114 2.833766 2.882747 2.9349263 2.9861395 3.0304916 3.068022 3.1107857
3.1567473 3.1937969 3.2376437 3.2643738 3.3005526 3.3339503 3.3737776 3.3977497
-0.03816701 0.6421945 1.0475394 1.3388456 1.5447392 1.7356013 1.8710431 2.0050662
2.1209564 2.2389362 2.33346 2.4104939 2.4920015 2.562115 2.6441967 2.6968496
2.7590022 2.8093402 2.8672433 2.9171522 2.9628334 3.0335524 3.0583925 3.1013703
3.1575925 3.182571 3.2122505 3.2545319 3.289906 3.3347917 3.3515387 3.3868315
-0.08470146 0.6010787 1.0103636 1.310838 1.5117257 1.7017134 1.848627 1.9812039
2.0992622 2.2101765 2.3064892 2.3857713 2.466183 2.5393248 2.6208882 2.6732392
2.7341833 2.790376 2.844568 2.895416 2.944076 3.0222292 3.0365336 3.080016
3.1406183 3.1613967 3.1948922 3.2348459 3.269247 3.3170018 3.3336358 3.3684556
-0.0061038313 0.6805689 1.0851753 1.37408 1.5838616 1.7733296 1.9081928 2.0418088
2.1571057 2.2741005 2.367737 2.4445336 2.5262089 2.5957425 2.6773663 2.7295234
2.7921326 2.8417616 2.8986685 2.9489288 2.9939792 3.0626228 3.0878544 3.1310122
3.1867304 3.2124314 3.2422676 3.2825115 3.3193777 3.3621478 3.3809698 3.41453
-0.003054092 0.68634415 1.0912435 1.3795104 1.5930636 1.7806602 1.9182519 2.0517602
2.167005 2.283524 2.3774195 2.4543355 2.5360253 2.6050768 2.6868412 2.7389896
2.801726 2.8500228 2.907392 2.9575284 3.0017009 3.0711288 3.0960822 3.1393955
3.1957805 3.2211518 3.2492414 3.2902722 3.3278081 3.3711212 3.3877094 3.421896
-0.0019818817 0.6886192 1.0937262 1.3819263 1.5980269 1.7844018 1.9254647 2.059035
2.1746528 2.2892957 2.3834915 2.462102 2.5436003 2.6134048 2.6932335 2.747253
2.8097749 2.8591554 2.9161866 2.9664922 3.0110786 3.0776079 3.1051795 3.148445
3.2028887 3.2300475 3.2589824 3.29964 3.3369875 3.379405 3.3976579 3.4314919
00000000: 7d8b 21bd 5895 233f 19ab 853f 41e3 aa3f
00000010: 4e04 c53f 838c dd3f a98e ee3f 86ba ff3f
00000020: 9a42 0740 acee 0e40 fbfc 1440 06d1 1940
00000030: fb0c 1f40 ad7e 2340 6edf 2840 4926 2c40
00000040: 2121 3040 e145 3340 7608 3740 6137 3a40
00000050: 201b 3d40 11d5 4140 d54d 4340 7b11 4640
00000060: d7c7 4940 be43 4b40 6513 4d40 e3d9 4f40
00000070: 6829 5240 6320 5540 edfb 5540 5754 5840
00000080: d039 9bbd c7f6 1c3f 6edd 813f 8426 a73f
00000090: 5086 c33f 3aa0 da3f 7638 ef3f 2f28 0040
000000a0: cab0 0740 21bc 0d40 37e4 1340 f1d2 1940
000000b0: b4e1 1e40 4faf 2340 adb5 2740 02f2 2b40
000000c0: e60a 3040 dae0 3340 ba04 3740 ba74 3a40
000000d0: d7ab 3d40 8dba 4040 bcb7 4240 ae5d 4540
000000e0: 9c87 4840 94dd 4a40 5da4 4d40 8685 4f40
000000f0: e367 5140 f704 5440 b28a 5640 3808 5840
00000100: ea8c e5bc f006 273f 4a20 873f 7922 ac3f
00000110: 052e c73f 010e df3f 0f32 f23f e58e 0140
00000120: ed20 0940 02ac 0f40 76bf 1540 d942 1b40
00000130: f259 2040 2029 2540 0474 2940 408c 2d40
00000140: be75 3140 6c5c 3540 ed7e 3840 d5d5 3b40
00000150: e91c 3f40 93f3 4140 795a 4440 1d17 4740
00000160: 2608 4a40 2b67 4c40 8e35 4f40 80eb 5040
00000170: 413c 5340 715f 5540 f9eb 5740 bb74 5940
00000180: 0355 1cbd dc66 243f c515 863f 4b5f ab3f
00000190: 04ba c53f 2f28 de3f 577e ef3f 0153 0040
000001a0: c0bd 0740 bb4a 0f40 6957 1540 8845 1a40
000001b0: f47c 1f40 b1f9 2340 853a 2940 2f99 2c40
000001c0: 7e93 3040 3bcc 3340 ea80 3740 9fb2 3a40
000001d0: 109f 3d40 b925 4240 b4bc 4340 da7c 4640
000001e0: ff15 4a40 3eaf 4b40 8395 4d40 404a 5040
000001f0: d28d 5240 3a6d 5540 9c7f 5640 d9c1 5840
00000200: f677 adbd 4be0 193f 9853 813f 8ac9 a73f
00000210: 3a80 c13f bfd1 d93f cf9f ec3f 1798 fd3f
00000220: 505a 0640 8873 0d40 859d 1340 7ab0 1840
00000230: f1d5 1d40 4c84 2240 a2bc 2740 5a16 2b40
00000240: dcfc 2e40 8595 3240 670d 3640 7f4e 3940
00000250: be6b 3c40 346c 4140 9156 4240 fb1e 4540
00000260: e4ff 4840 5354 4a40 1d79 4c40 b707 4f40
00000270: 583b 5140 c249 5440 4a5a 5540 c794 5740
00000280: a602 c8bb c339 2e3f 06e7 8a3f dae1 af3f
00000290: fabb ca3f 77fc e23f a93f f43f ffac 0240
000002a0: 050e 0a40 dd8a 1140 0189 1740 3d73 1c40
000002b0: 68ad 2140 a520 2640 f859 2b40 83b0 2e40
000002c0: 4db2 3240 6cdf 3540 c983 3940 40bb 3c40
000002d0: 5b9d 3f40 0302 4440 689f 4540 8162 4840
000002e0: 64f3 4b40 7a98 4d40 5081 4f40 ab14 5240
000002f0: af70 5440 6e2d 5740 cf61 5840 a987 5a40
00000300: 2927 48bb 40b4 2f3f dead 8b3f cc93 b03f
00000310: 82e9 cb3f acec e33f 4789 f53f 0a50 0340
00000320: 36b0 0a40 4225 1240 a427 1840 d513 1d40
00000330: 3d4e 2240 94b9 2640 35f5 2b40 9b4b 2f40
00000340: 7b4f 3340 c666 3640 b612 3a40 2548 3d40
00000350: de1b 4040 608d 4440 3626 4640 dbeb 4840
00000360: ab87 4c40 5a27 4e40 92f3 4f40 d293 5240
00000370: cffa 5440 73c0 5740 3bd0 5840 5800 5b40
00000380: 75e2 01bb 5949 303f 38ff 8b3f f6e2 b03f
00000390: 258c cc3f 4767 e43f a175 f63f 3bc7 0340
000003a0: 832d 0b40 d283 1240 208b 1840 1493 1d40
000003b0: 59ca 2240 0642 2740 f05d 2c40 fed2 2f40
000003c0: 5ad3 3340 67fc 3640 cda2 3a40 02db 3d40
000003d0: 83b5 4040 87f7 4440 43bb 4640 1f80 4940
000003e0: 21fc 4c40 19b9 4e40 2b93 5040 4d2d 5340
000003f0: 3491 5540 2c48 5840 3a73 5940 909d 5b40

q_head.DAC_block.mamba_blocks.0.D f4 [28]
1.110434 1.0943652 1.0734279 1.1203837 1.1165311 1.1215543 1.1153035 1.1042397
1.1084957 1.1049075 1.1257542 1.1218528 1.1034942 1.1162306 1.1110619 1.0644344
1.0868239 1.119491 1.1052907 1.1130232 1.122382 1.0603527 1.1286232 1.0754426
1.1246297 1.1158463 1.121284 1.0659747
00000000: b422 8e3f 2914 8c3f 1666 893f bc68 8f3f
00000010: 7eea 8e3f 178f 8f3f 44c2 8e3f ba57 8d3f
00000020: 30e3 8d3f 9c6d 8d3f b718 903f df98 8f3f
00000030: 4c3f 8d3f a5e0 8e3f 4737 8e3f 633f 883f
00000040: 0c1d 8b3f 7b4b 8f3f 2a7a 8d3f 8b77 8e3f
00000050: 37aa 8f3f a3b9 873f ba76 903f 1aa8 893f
00000060: def3 8f3f 0dd4 8e3f 3c86 8f3f dc71 883f

q_head.DAC_block.mamba_blocks.0.in_proj.weight f4 [56, 14]
0.11850773 0.19826801 -0.08348217 0.1543967 0.36076984 0.22295232 -0.0062941457 0.20709126
0.022420572 -0.2047737 0.02749147 0.106370345 0.15036781 0.016369019 0.22611582 -0.025113078
0.04146223 0.11636362 0.21967472 0.029125927 0.34724542 -0.016994521 0.3344222 0.05291813
-0.16945525 -0.13831687 -0.13318384 0.3250664 -0.14475265 0.087040484 0.047388475 -0.079159
-0.30911842 -0.19346468 -0.21776983 -0.17785193 -0.1372434 -0.1852774 0.20081368 0.12116529
0.09448984 0.1218745 0.26755625 -0.13210222 -0.082657605 0.12109271 0.34758854 -0.036477283
0.34949178 0.2259099 -0.11152691 -0.22910386 0.26502967 0.11053654 0.032800812 0.16357765
0.06524828 -0.11579922 -0.007229039 0.31165203 0.09520079 0.08714095 0.3571529 0.060614966
0.19666646 -0.05747 -0.043217547 0.22225706 0.05878334 0.0719767 0.062237673 -0.112387985
0.26339623 -0.016037617 0.27356634 0.1473399 0.08084023 0.2538312 0.02676901 0.26087108
0.12245489 0.24799246 0.0011837757 0.07312679 0.039527886 -0.01019574 0.057383936 -0.26366678
-0.12658232 -0.13997692 -0.12297249 -0.21918435 -0.12755266 -0.073979735 0.18025455 -0.2085122
0.0822452 0.08532695 0.16604778 0.041602664 -0.01141353 0.26266894 0.00508269 0.0047190334
-0.1400974 0.2194635 0.075280584 0.11124742 0.16755578 0.14614977 -0.3311223 -0.15537274
0.08064545 0.25809312 0.17214115 0.26976675 0.118537836 -0.14962491 0.25152627 0.37045655
0.3255719 -0.022407377 -0.010294037 0.052871592 0.29480338 -0.05386404 -0.30860007 0.005183764
-0.18126313 -0.047920227 -0.26241502 -0.07848385 -0.08181961 -0.16223925 -0.1331451 0.25874013
-0.09558679 0.27253348 0.15717494 0.10400356 0.30164406 0.23198116 0.28020552 0.34931225
0.33490816 0.35142353 -0.061184518 -0.0070103365 0.30402714 -0.012504836 -0.23708081 0.3490548
-0.11530695 0.36412984 -0.21224822 -0.30160627 0.08069007 -0.2257551 -0.0066160085 -0.29309815
-0.32356745 0.032453507 -0.24642007 -0.16003044 0.21291295 -0.17277695 -0.31283343 -0.35057974
0.2724939 0.10186455 0.0016178718 0.18942542 -0.023583561 0.2991765 -0.055396814 0.1902706
0.34074542 0.088245764 0.1443208 -0.087846756 -0.07962453 0.25881308 0.14487064 -0.2169824
0.12198142 -0.20043187 -0.16942939 -0.09089159 0.11646014 -0.26459184 0.040089402 0.2267993
0.21271583 -0.09939801 -0.015403239 -0.017543888 -0.10137058 -0.16419238 -0.3141162 -0.31734824
-0.20380777 -0.10870472 0.051887445 0.026613632 -0.03857836 -0.02087354 0.098181374 0.0756755
-0.17393705 -0.24145202 -0.0019817648 -0.05587717 -0.19395646 0.061601672 -0.098387234 -0.31924963
0.089441985 -0.13931216 -0.260094 0.20256914 -0.12293355 -0.32091284 -0.3282457 -0.044720177
-0.2888849 -0.18810403 -0.31883487 -0.3284923 -0.12226217 -0.28215352 -0.038342908 -0.10810104
0.06566499 -0.21957713 0.034835078 -0.004322014 0.26821116 0.10140304 0.087331824 0.24878813
-0.104182 0.25987175 0.21120657 -0.05439838 0.053184573 0.19298524 0.16745949 -0.080839805
0.1637614 -0.11852202 0.3681407 0.25839895 -0.03165271 -0.2925841 -0.19370773 0.089113064
00000000: 2eb4 f23d c506 4b3e b3f8 aabd 2b1a 1e3e
00000010: d3b6 b83e 9d4d 643e 1f3f cebb bb0f 543e
00000020: 59ab b73c 32b0 51be cb35 e13c b2d8 d93d
00000030: 05fa 193e 5218 863c e88a 673e f1b9 cdbc
00000040: 4dd4 293d 0d50 ee3d 69f2 603e 7f99 ee3c
00000050: 27ca b13e 1838 8bbc 6339 ab3e aec0 583d
00000060: ad85 2dbe f0a2 0dbe 5861 08be 1a6f a63e
00000070: 0a3a 14be 4842 b23d 6b1a 423d 1d1e a2bd
00000080: c544 9ebe 9b1b 46be 0eff 5ebe d11e 36be
00000090: 8989 0cbe 5cb9 3dbe 1aa2 4d3e 8225 f83d
000000a0: e483 c13d 5699 f93d 22fd 883e ce45 07be
000000b0: 6448 a9bd 74ff f73d 20f7 b13e 3469 15bd
000000c0: 96f0 b23e ed54 673e 3868 e4bd 349a 6abe
000000d0: f8b1 873e fb60 e23d 255a 063d e680 273e
000000e0: e4a0 853d 2428 edbd 93e1 ecbb db90 9f3e
000000f0: a2f8 c23d f476 b23d bfdc b63e 6647 783d
00000100: ef62 493e aa65 6bbd e204 31bd 5b97 633e
00000110: cdc6 703d 8568 933d eeec 7e3d ac2b e6bd
00000120: dfdb 863e 5261 83bc e310 8c3e 45e0 163e
00000130: 908f a53d 2af6 813e af4a db3c e590 853e
00000140: a1c9 fa3d bcf1 7d3e ec28 9b3a 80c3 953d
00000150: fee7 213d 080c 27bc 6b0b 6b3d 55ff 86be
00000160: cc9e 01be 1c56 0fbe 00d9 fbbd dd71 60be
00000170: 2a9d 02be b082 97bd a694 383e 3984 55be
00000180: 2c70 a83d e5bf ae3d 6e08 2a3e 8e67 2a3d
00000190: d1ff 3abc 8b7c 863e b28c a63b 1fa2 9a3b
000001a0: b175 0fbe 0abb 603e b52c 9a3d b0d5 e33d
000001b0: be93 2b3e 49a8 153e dd88 a9be 081a 1fbe
000001c0: 7129 a53d c824 843e c545 303e de1e 8a3e
000001d0: f7c3 f23d 4637 19be 0dc8 803e 7bac bd3e
000001e0: 5cb1 a63e ad8f b7bc 52a8 28bc e28f 583d
000001f0: 78f0 963e 8aa0 5cbd d400 9ebe 90dc a93b
00000200: 0b9d 39be 0048 44bd 435b 86be 24bc a0bd
00000210: 0a91 a7bd 0c22 26be 3057 08be 9679 843e
00000220: 02c3 c3bd 8289 8b3e 78f2 203e d2ff d43d
00000230: 1771 9a3e 788c 6d3e 1977 8f3e 0ed9 b23e
00000240: 1579 ab3e c9ed b33e 9e9c 7abd f7b6 e5bb
00000250: 72a9 9b3e 15e1 4cbc 50c5 72be 50b7 b23e
00000260: 0d26 ecbd 3a6f ba3e 9957 59be 236c 9abe
00000270: d640 a53d 582c 67be 1acb d8bb f610 96be
00000280: a2aa a5be f8ed 043d 8b55 7cbe 05df 23be
00000290: da05 5a3e 71ec 30be b42b a0be 307f b3be
000002a0: 5284 8b3e 5c9e d03d c50e d43a bdf8 413e
000002b0: 5032 c1bc aa2d 993e c5e7 62bd 4cd6 423e
000002c0: 2f76 ae3e 32ba b43d d5c8 133e 00e9 b3bd
000002d0: 3012 a3bd 2683 843e f858 143e a230 5ebe
000002e0: 65d1 f93d 033e 4dbe e67e 2dbe 5f25 babd
000002f0: a782 ee3d 9578 87be c934 243d 133e 683e
00000300: 2ed2 593e 2f91 cbbd de5d 7cbc 33b8 8fbc
00000310: 619b cfbd 0c22 28be d7d3 a0be 787b a2be
00000320: fcb2 50be 95a0 debd ee87 543d d504 da3c
00000330: 5804 1ebd fcfe aabc 5113 c93d c2fb 9a3d
00000340: 8e1c 32be 333f 77be 7fe0 01bb 76df 64bd
00000350: 869c 46be 0952 7c3d 3f7f c9bd b074 a3be
00000360: 5c2d b73d d9a7 0ebe 0a2b 85be 496e 4f3e
00000370: 96c4 fbbd b04e a4be d20f a8be 812c 37bd
00000380: b9e8 93be 589e 40be 533e a3be 2530 a8be
00000390: 9764 fabd 6d76 90be 740d 1dbd 1464 ddbd
000003a0: 5e7b 863d d4d8 60be 3aaf 0e3d ae9f 8dbb
000003b0: f952 893e 66ac cf3d 07db b23d 51c2 7e3e
000003c0: 5f5d d5bd e90d 853e 8946 583e d6d0 5ebd
000003d0: 11d8 593d ec9d 453e 807a 2b3e 578f a5bd
000003e0: 12b1 273e acbb f2bd f07c bc3e de4c 843e
000003f0: 46a6 01bd 95cd 95be 525b 46be e980 b63d

q_head.DAC_block.mamba_blocks.0.conv1d.weight f4 [28, 1, 4]
-0.018448234 0.25050485 -0.31239688 -0.29502863 0.4710474 -0.22807646 0.545699 0.58731186
0.44309115 0.21640515 0.32019323 -0.27982265 -0.3977272 0.13167351 -0.23302536 -0.26085523
-0.38413107 0.21395469 -0.15203586 -0.22023866 -0.42112535 -0.21124655 0.35752147 0.48606935
0.38308978 0.15105987 0.16592394 -0.30487278 0.056622803 -0.009703279 -0.40247288 -0.029211884
-0.01467818 -0.35466838 0.20532897 0.2685417 0.41171432 0.27404398 0.49953073 -0.03341144
-0.38177812 -0.35371232 -0.14695077 0.5546355 -0.24333912 0.083642185 0.46540335 0.4621324
0.21388906 -0.14173394 -0.32014543 -0.43707913 -0.22511244 -0.027727962 -0.5240627 0.078994386
-0.24024189 -0.06702834 -0.22575092 0.5739931 -0.05821693 0.24039763 0.19219424 0.5604279
0.456383 0.4135278 -0.40466392 -0.030653177 -0.45572466 0.4344597 -0.262036 -0.26348114
0.20027989 -0.38334465 -0.40726712 -0.29399052 0.46910185 -0.29618388 0.5519604 0.015892722
-0.163679 -0.25809008 -0.47687235 -0.33755192 0.45498037 -0.16526431 -0.44974807 -0.097690254
-0.20835316 0.45785457 -0.111370794 0.37008524 0.071082294 0.32962072 -0.3241237 -0.50998086
0.23184031 0.2122863 0.06073747 0.17060998 0.2741384 -0.17316157 -0.42733383 -0.37423384
-0.13090813 -0.39054972 -0.41426688 -0.18997544 0.1021055 -0.36602074 -0.34193292 -0.25075218
00000000: c020 97bc 2c42 803e 7cf2 9fbe fe0d 97be
00000010: 202d f13e e08c 69be eeb2 0b3f 125a 163f
00000020: d8dc e23e 5099 5d3e 5ef0 a33e ea44 8fbe
00000030: e6a2 cbbe 6cd5 063e 339e 6ebe d18e 85be
00000040: d4ac c4be f016 5b3e 4aaf 1bbe 3e86 61be
00000050: be9d d7be 0451 58be 0e0d b73e 15de f83e
00000060: 5824 c43e 70af 1a3e f7e7 293e 4918 9cbe
00000070: 50ed 673d 80fa 1ebc ed10 cebe c34d efbc
00000080: c07c 70bc 1897 b5be c241 523e 4c7e 893e
00000090: 38cc d23e 7e4f 8c3e 7ec2 ff3e 6fda 08bd
000000a0: 6c78 c3be c819 b5be 437a 16be 98fc 0d3f
000000b0: e42d 79be 984c ab3d 5949 ee3e 9e9c ec3e
000000c0: bc05 5b3e b422 11be 1aea a3be d6c8 dfbe
000000d0: e083 66be c025 e3bc f928 06bf cfc7 a13d
000000e0: f801 76be 2846 89bd 402b 67be 36f1 123f
000000f0: e074 6ebd cc2a 763e 91ce 443e 3478 0f3f
00000100: 08ab e93e eab9 d33e 1c30 cfbe 5f1c fbbc
00000110: be54 e9be 8071 de3e 9529 86be 00e7 86be
00000120: 2c16 4d3e c045 c4be 5185 d0be ed85 96be
00000130: 1e2e f03e 6aa5 97be 474d 0d3f 7431 823c
00000140: 789b 27be 6224 84be 9d28 f4be 9bd3 acbe
00000150: 30f3 e83e 0c3b 29be 6145 e6be d411 c8bd
00000160: 885a 55be ea6b ea3e 5f16 e4bd d07b bd3e
00000170: 9893 913d 0cc4 a83e 8bf3 a5be 1b8e 02bf
00000180: 8c67 6d3e 9461 593e dac7 783d 62b4 2e3e
00000190: de5b 8c3e 4451 31be 80cb dabe 949b bfbe
000001a0: c80c 06be 22f6 c7be ca1a d4be ec88 42be
000001b0: b01c d13d 1267 bbbe d511 afbe 9762 80be

q_head.DAC_block.mamba_blocks.0.conv1d.bias f4 [28]
-0.46748427 0.5333364 0.25187114 -0.27211884 -0.5246823 0.46171683 0.5048155 -0.17710888
0.5944057 -0.35811087 0.070798464 -0.032765787 -0.3709543 0.37466708 -0.38156444 0.015056208
0.15310404 -0.35671473 0.62135804 -0.25599936 -0.33979782 0.47468007 0.36227974 -0.2729608
0.37518144 0.4745091 0.6244625 0.4038888
00000000: 195a efbe bc88 083f 41f5 803e 2953 8bbe
00000010: 9451 06bf 2666 ec3e 973b 013f 085c 35be
00000020: f92a 183f 4f5a b7be c9fe 903d 6b35 06bd
00000030: b9ed bdbe 5dd4 bf3e 6a5c c3be 50ae 763c
00000040: 4ec7 1c3e 50a3 b6be 5211 1f3f 5912 83be
00000050: fbf9 adbe 4409 f33e bb7c b93e 85c1 8bbe
00000060: c817 c03e dbf2 f23e c6dc 1f3f 83ca ce3e

q_head.DAC_block.mamba_blocks.0.x_proj.weight f4 [65, 28]
0.15811579 0.018024312 -0.22239743 -0.022591148 0.16911484 -0.12415852 0.04457801 0.14013603
-0.027843893 0.15380722 0.007035699 0.11297217 0.22061434 -0.2749384 0.2953119 0.24939792
-0.07078512 0.07445743 -0.16454984 0.32649094 0.12142436 -0.022057373 -0.08072154 0.09086905
-0.120403245 -0.2100494 0.038308956 -0.01671864 0.0627173 -0.018514749 -0.15073912 0.24119289
0.1967935 -0.15537526 -0.09356674 -0.010930127 -0.28539193 0.068619974 -0.19004127 0.03626734
0.19341882 -0.003684301 0.16755651 0.1394454 -0.013226983 0.03787572 -0.29377097 0.22975063
0.028039908 -0.06564226 -0.18255264 -0.02645828 -0.038376965 -0.18463372 -0.10037222 -0.05616886
0.22534572 -0.25553697 0.032614376 0.0051033525 0.29970178 -0.21481505 -0.27034953 0.2267292
-0.010195031 0.22172624 -0.24374895 0.20115845 0.02984267 -0.26531222 0.27656636 -0.057681598
-0.021410802 0.015275814 0.017770648 -0.02169476 0.2150908 -0.0981666 0.016804691 0.2199646
0.032362025 -0.02478899 -0.1851438 -0.25700128 -0.077192985 0.08791249 0.08619897 -0.008032141
-0.048503213 -0.032550827 0.24617231 -0.22631498 0.27745616 -0.17702259 0.101124175 -0.109840594
-0.22602841 0.08976645 -0.118337646 -0.18818782 0.046873037 -0.17078762 -0.04893487 -0.036763266
-0.08830364 -0.0413133 0.21870156 -0.3045066 0.18812437 0.29783967 0.1694143 0.006369514
-0.05658465 0.16839007 0.14862838 -0.16548444 -0.24022868 0.12935217 0.17105089 -0.16122831
-0.050636306 -0.13769199 -0.08090321 0.010907329 0.08550855 0.15176421 -0.07234615 -0.16703595
0.22225863 -0.16269577 0.22219019 0.048613954 -0.14701235 0.23982184 0.08675968 -0.11307505
0.1661877 0.21874525 0.068751074 0.058019567 -0.3033408 0.05137959 0.29612124 -0.014209327
-0.26119736 0.066139 0.102007374 -0.033349372 -0.029033415 -0.042665727 0.12154536 0.0011512614
-0.2245491 0.05491643 -0.2916015 -0.045279235 -0.035856675 0.033065695 0.16055386 -0.28284
-0.31090772 0.10326728 0.25706288 -0.1405393 0.14318636 -0.0033727568 0.23706675 0.10331295
-0.04321974 -0.034995396 0.30489448 -0.13234174 0.00047326725 0.17876862 0.21271023 -0.11657522
0.28502867 0.061632536 0.059384853 -0.0075517683 0.043180116 0.13916512 -0.2989016 0.102233514
0.14900053 -0.13113092 0.0200379 -0.19446142 -0.11399226 0.20361231 0.02678784 -0.29051408
0.12842903 0.291902 0.05439654 0.21763119 -0.117527485 0.15022811 0.25793028 -0.29652634
-0.18426357 0.15278456 0.31621778 0.03693584 0.31864655 -0.15911739 0.250294 -0.20412657
-0.046516676 0.30846995 -0.14500087 -0.034648243 0.1858888 -0.19107623 0.19303082 -0.13024604
-0.2606321 0.106598236 -0.03212585 -0.3080935 0.31149116 0.0035861582 -0.028994365 0.25924054
0.2417566 -0.10610302 -0.15173167 0.21417658 -0.011423056 -0.1877636 -0.30502436 0.056464832
-0.053730823 0.062591866 -0.20797758 0.27603725 0.25975764 -0.19129549 0.07867807 -0.092834204
-0.07527173 0.12792501 -0.047459457 0.12890019 0.2892031 -0.26096362 -0.310864 -0.016271792
-0.31364483 -0.20504326 -0.25897834 -0.2763441 -0.05594732 -0.13728558 -0.053680588 0.07070398
00000000: 1be9 213e b9a7 933c 27bc 63be 1211 b9bc
00000010: 712c 2d3e d246 febd 6e97 363d d27f 0f3e
00000020: e018 e4bc a47f 1d3e b98b e63b f45d e73d
00000030: bae8 613e bac4 8cbe 1f33 973e 2b62 7f3e
00000040: caf7 90bd 237d 983d c17f 28be d229 a73e
00000050: 56ad f83d aab1 b4bc 5651 a5bd 8d19 ba3d
00000060: fa95 f6bd 3117 57be dae9 1c3d 88f5 88bc
00000070: ee71 803d 3eac 97bc 5b5b 1abe 45fb 763e
00000080: 3c84 493e b11a 1fbe eb9f bfbd 4714 33bc
00000090: e41e 92be a188 8c3d 2e9a 42be 108d 143d
000000a0: 950f 463e 5074 71bb ef93 2b3e c6ca 0e3e
000000b0: fdb5 58bc 9223 1b3d 2669 96be c043 6b3e
000000c0: f3b3 e53c 736f 86bd 14ef 3abe 09bf d8bc
000000d0: 2a31 1dbd 9f10 3dbe f38f cdbd 5211 66bd
000000e0: 07c1 663e bed5 82be a796 053d 063a a73b
000000f0: 8372 993e 7af8 5bbe 416b 8abe b32b 683e
00000100: 0f09 27bc 340c 633e 5399 79be 7bfc 4d3e
00000110: 9d78 f43c 01d7 87be 1b9a 8d3e 8a43 6cbd
00000120: b565 afbc 6847 7a3c c093 913c 36b9 b1bc
00000130: c340 5c3e 920b c9bd fea9 893c 663e 613e
00000140: 0b8e 043d 4812 cbbc 5696 3dbe ac95 83be
00000150: 5b17 9ebd 770b b43d 1689 b03d 3e99 03bc
00000160: 4eab 46bd 0454 05bd 9814 7c3e 1dbf 67be
00000170: bc0e 8e3e 6945 35be 311a cf3d 1bf4 e0bd
00000180: fe73 67be 79d7 b73d 025b f2bd 4fb4 40be
00000190: f1fd 3f3d f3e2 2ebe ee6f 48bd 1495 16bd
000001a0: 8ad8 b4bd 2338 29bd 4df3 5f3e 4ae8 9bbe
000001b0: ada3 403e 717e 983e f17a 2d3e 5bb7 d03b
000001c0: 4ec5 67bd 726e 2c3e 0a32 183e c174 29be
000001d0: 82fe 75be e574 043e f727 2f3e 0919 25be
000001e0: 0468 4fbd 21ff 0cbe 95b0 a5bd a7b4 323c
000001f0: 1b1f af3d 1468 1b3e 382a 94bd 790b 2bbe
00000200: c497 633e b899 26be d385 633e 6d1f 473d
00000210: 688a 16be db93 753e 0faf b13d e493 e7bd
00000220: 1c2d 2a3e c1fe 5f3e 5dcd 8c3d eda5 6d3d
00000230: 7c4f 9bbe 6873 523d 349d 973e 3dce 68bc
00000240: a9bb 85be e273 873d 3ee9 d03d 5a99 08bd
00000250: 7cd7 edbc 42c2 2ebd c6ec f83d ece5 963a
00000260: 33f0 65be 0df0 603d cb4c 95be b876 39bd
00000270: 73de 12bd e56f 073d 3b68 243e 68d0 90be
00000280: 4c2f 9fbe cc7d d33d bf9d 833e 89e9 0fbe
00000290: 729f 123e 7809 5dbb a0c1 723e bd95 d33d
000002a0: 2f07 31bd 5557 0fbd 211b 9c3e 9884 07be
000002b0: db20 f839 1f0f 373e b6d0 593e fdbe eebd
000002c0: 47ef 913e 6672 7c3d 883d 733d d374 f7bb
000002d0: a2dd 303d 4d81 0e3e a109 99be ce5f d13d
000002e0: 9893 183e 2f47 06be 8626 a43c e520 47be
000002f0: c674 e9bd bf7f 503e 2c72 db3c 43be 94be
00000300: e682 033e 2e74 953e e8ce 5e3d b6da 5e3e
00000310: 40b2 f0bd 66d5 193e 700f 843e 4dd2 97be
00000320: 97af 3cbe 8e73 1c3e 4ce7 a13e 094a 173d
00000330: a425 a33e abef 22be 8926 803e 8e06 51be
00000340: 4588 3ebd c6ef 9d3e 1c7b 14be 51eb 0dbd
00000350: a259 3e3e 7da9 43be dfa9 453e 385f 05be
00000360: 9271 85be 2d50 da3d 6596 03bd 6ebe 9dbe
00000370: c57b 9f3e c005 6b3b 9785 edbc 2dbb 843e
00000380: 0b8f 773e 8a4c d9bd 8c5f 1bbe 1b51 5b3e
00000390: c527 3bbc 1a45 40be 272c 9cbe ab47 673d
000003a0: da14 5cbd 2a30 803d 13f8 54be c154 8d3e
000003b0: f4fe 843e f7e2 43be f821 a13d dc1f bebd
000003c0: 1128 9abd c6fe 023e d964 42bd 69fe 033e
000003d0: 6e12 943e 069d 85be 9129 9fbe 6c4c 85bc
000003e0: 0e96 a0be dcf6 51be cf98 84be f97c 8dbe
000003f0: 0429 65bd 9794 0cbe 2de0 5bbd 40cd 903d

q_head.DAC_block.mamba_blocks.0.dt_proj.weight f4 [28, 1]
-0.47094333 0.5290319 0.46998248 0.88345784 0.71828145 0.058167055 -0.64539605 0.26815924
-0.23457778 -0.037635997 -0.8908854 0.7422745 -0.8286236 -0.35264915 -0.03657472 0.38338956
-0.24869542 0.38733003 0.14772408 0.42531592 0.38983512 -0.7364506 0.40065643 0.83946955
-0.6372192 -0.51822877 -0.5420215 0.23279507
00000000: 7c1f f1be a26e 073f 8ba1 f03e 4b2a 623f
00000010: 4be1 373f 9440 6e3d ad38 25bf 2b4c 893e
00000020: 2835 70be 3428 1abd 1111 64bf b405 3e3f
00000030: ad20 54bf 6e8e b4be 60cf 15bd a34b c43e
00000040: 03aa 7ebe 1f50 c63e fb44 173e 02c3 d93e
00000050: 7898 c73e 0788 3cbf d722 cd3e 7ae7 563f
00000060: cc20 23bf a4aa 04bf ecc1 0abf d561 6e3e

q_head.DAC_block.mamba_blocks.0.dt_proj.bias f4 [28]
-4.6125 -2.6477435 -4.1153855 -4.5266275 -2.1180232 -6.253577 -6.5791526 -5.5835886
-2.515077 -6.0710497 -4.7940874 -3.5114672 -4.7801332 -4.052507 -4.4654145 -5.0837054
-2.684173 -2.340145 -6.1241407 -3.363261 -5.087953 -6.093105 -5.1347885 -4.818875
-5.499812 -2.1271262 -2.4780953 -2.416893
00000000: 9a99 93c0 a174 29c0 3db1 83c0 22da 90c0
00000010: b18d 07c0 4e1d c8c0 6b88 d2c0 c2ac b2c0
00000020: 06f7 20c0 0a46 c2c0 2a69 99c0 e1bb 60c0
00000030: daf6 98c0 23ae 81c0 ade4 8ec0 b7ad a2c0
00000040: 7ec9 2bc0 f0c4 15c0 f6f8 c3c0 ab3f 57c0
00000050: 83d0 a2c0 b7fa c2c0 3050 a4c0 3934 9ac0
00000060: 76fe afc0 d622 08c0 1d99 1ec0 60ae 1ac0

q_head.DAC_block.mamba_blocks.0.out_proj.weight f4 [14, 28]
-0.113499045 0.24043451 0.03379692 0.23840557 0.07318259 0.009058261 0.116469555 -0.22195321
-0.07671605 -0.2537231 -0.09887837 -0.020255461 0.12814437 -0.14938873 0.11303098 -0.19731478
0.20828514 -0.093041144 0.17331323 0.0024099338 0.10803727 -0.19059585 -0.0007430261 -0.18084873
-0.07708473 -0.04591579 -0.07862494 -0.07620097 0.030017158 0.01784136 0.13084133 0.290045
0.2652385 -0.057289377 0.07109201 -0.07775201 -0.2507766 -0.18387869 -0.13041261 0.25334534
0.06147645 0.002670673 0.0050734347 0.04622993 0.2358554 0.21459922 0.20261955 -0.046154946
0.18469752 -0.105809644 -0.23322898 -0.15794982 -0.048926894 -0.27451456 -0.029096823 -0.030300973
-0.12598099 0.13608979 0.115914896 0.13555342 0.21632491 -0.06032697 0.04955674 -0.096057035
-0.17901997 -0.23498571 -0.11015295 0.007323355 -0.005122688 -0.01715222 0.019810187 -0.12893778
0.25306246 -0.017290724 0.20837478 -0.09005854 0.10363357 -0.15891692 -0.25100318 -0.09109119
-0.032821815 -0.20254345 -0.2309868 -0.05989018 0.08033534 0.15446705 -0.04542946 0.115640454
-0.0115942685 -0.19908553 0.26754835 -0.26520604 0.010945174 0.060881205 0.014153973 0.1440334
0.043275993 0.054952987 -0.044959944 -0.019811327 0.21110094 0.09870033 0.054028664 -0.06965611
0.19721556 0.11547463 -0.061022915 -0.00024583284 -0.2435232 -0.20055555 -0.1730124 -0.22999501
-0.076426685 0.025370505 0.06853699 -0.05955403 0.24659778 0.066629864 0.25262955 -0.045172993
-0.2447377 -0.08858002 -0.042034414 0.25656918 0.044896 -0.09655003 0.121534534 -0.032521345
0.24568182 0.1485363 0.24873112 -0.22411811 0.29167837 -0.16865055 -0.15227166 -0.2858648
0.016050637 -0.047208473 -0.16842067 -0.25520828 0.046574835 -0.23023379 0.052486695 -0.11711089
0.004527726 0.028871994 0.029047195 0.037288133 0.02599741 0.23711878 0.18842532 -0.028454823
-0.12481845 0.26226798 -0.24722616 0.082618855 0.020970242 -0.0047095846 -0.17837457 0.017038485
0.025896864 -0.053764656 -0.00506028 0.0509465 -0.03797615 0.028328206 0.209714 0.113102615
0.2815316 -0.20514296 -0.26253238 -0.16681139 -0.14421529 0.114977956 -0.25129336 0.08537101
0.083673105 0.07356911 0.24761534 -0.12578256 -0.20748113 -0.00655637 -0.2333781 0.12084739
-0.08655554 -0.15576127 -0.2596301 0.19503845 -0.11488247 0.12585962 0.103346504 -0.03276582
0.035158888 0.2906362 0.05165874 0.21822351 0.2612544 -0.16784276 -0.08592832 -0.22015816
-0.2812348 0.12299222 -0.24033162 -0.014523458 0.10854979 0.10009065 0.30402946 -0.23270729
-0.16573195 0.048833806 -0.20971408 0.21048065 -0.08055349 -0.24918444 -0.099058196 0.06446583
-0.18318105 -0.02935407 0.1825112 0.18490924 -0.051793784 0.0697125 0.1856646 0.24207063
0.062444154 -0.023955997 0.03589163 -0.1963637 -0.14642784 0.08984084 0.04848288 -0.018159723
0.24786344 0.13663647 0.07044072 -0.07362868 -0.18556614 0.06694925 0.0011616597 0.09025706
-0.21000288 -0.30602798 -0.2014619 -0.05647392 -0.056823984 0.16335718 0.2124771 0.21313012
0.001600283 0.05476214 0.2055407 0.2838155 -0.122142516 -0.0065907696 -0.039679408 0.26507175
00000000: 3072 e8bd 7734 763e a46e 0a3d 9720 743e
00000010: c1e0 953d 1a69 143c 9787 ee3d b447 63be
00000020: 4e1d 9dbd ffe7 81be be80 cabd c8ee a5bc
00000030: 4738 033e 5cf9 18be c97c e73d e30c 4abe
00000040: b348 553e 5b8c bebd 0679 313e fbef 1d3b
00000050: a542 dd3d 8f2b 43be a3c7 42ba 6930 39be
00000060: 99de 9dbd 3212 3cbd 1d06 a1bd 410f 9cbd
00000070: 8be6 f53c 0b28 923c 45fb 053e c780 943e
00000080: 57cd 873e 44a8 6abd b098 913d 723c 9fbd
00000090: ca65 80be b24a 3cbe e28a 05be 7bb6 813e
000000a0: bbce 7b3d 7506 2f3b 0e3f a63b 985b 3d3d
000000b0: 1484 713e e6bf 5b3e 807b 4f3e f80c 3dbd
000000c0: 5921 3d3e bab2 d8bd 94d3 6ebe 99bd 21be
000000d0: 9167 48bd 2c8d 8cbe 765c eebc bf39 f8bc
000000e0: 2901 01be 1f5b 0b3e ca64 ed3d 84ce 0a3e
000000f0: 4784 5d3e 6a19 77bd 02fc 4a3d 8db9 c4bd
00000100: 0351 37be 18a0 70be df97 e1bd c1f8 ef3b
00000110: 39dc a7bb d082 8cbc f948 a23c 4408 04be
00000120: 6791 813e 47a5 8dbc 3360 553e 9d70 b8bd
00000130: d63d d43d 1ebb 22be 7d83 80be 058e babd
00000140: 2b70 06bd 8d67 4fbe ce87 6cbe 684f 75bd
00000150: db86 a43d 9c2c 1e3e 3e14 3abd e7d4 ec3d
00000160: e3f5 3dbc 14dd 4bbe 19fc 883e 16c9 87be
00000170: 6353 333c 925e 793d 11e6 673c 7e7d 133e
00000180: 2b42 313d 6216 613d eb27 38bd 5d4b a2bc
00000190: d82a 583e 6623 ca3d 294d 5d3d dda7 8ebd
000001a0: e0f2 493e f67d ec3d 2af3 79bd 20e3 80b9
000001b0: 255e 79be 6f5e 4dbe 2a2a 31be d083 6bbe
000001c0: 9885 9cbd ced5 cf3c 1f5d 8c3d edee 73bd
000001d0: 2184 7c3e 3d75 883d a958 813e 5107 39bd
000001e0: 859c 7abe 7169 b5bd 472c 2cbd 095d 833e
000001f0: dee4 373d 06bc c5bd 19e7 f83d 1a35 05bd
00000200: 0494 7b3e e619 183e 5fb3 7e3e 387f 65be
00000210: de56 953e bbb2 2cbe 1aed 1bbe df5c 92be
00000220: a07c 833c ac5d 41bd 7876 2cbe a9aa 82be
00000230: 41c5 3e3d 68c2 6bbe 4afc 563d d6d7 efbd
00000240: 525d 943b f684 ec3c 62f4 ed3c 71bb 183d
00000250: 85f8 d43c 44cf 723e 91f2 403e 171a e9bc
00000260: d1a0 ffbd fd47 863e db28 7dbe 1334 a93d
00000270: c9c9 ab3c dc52 9abb d3a7 36be 4b94 8b3c
00000280: a925 d43c 5438 5cbd b5d0 a5bb 47ad 503d
00000290: e18c 1bbd 8e10 e83c 44bf 563e 58a2 e73d
000002a0: e924 903e ff10 52be a56a 86be 9bd0 2abe
000002b0: 2cad 13be 9079 eb3d 86a9 80be ffd6 ae3d
000002c0: ce5c ab3d 67ab 963d e08e 7d3e 25cd 00be
000002d0: ef75 54be d1d6 d6bb abfa 6ebe d67e f73d
000002e0: 0844 b1bd e27f 1fbe 3dee 84be 29b8 473e
000002f0: 8047 ebbd 58e1 003e 55a7 d33d 7435 06bd
00000300: c402 103d 45ce 943e 1d98 533d fc75 5f3e
00000310: 23c3 853e f9de 2bbe 30fb afbd 2471 61be
00000320: 02fe 8fbe 58e3 fb3d 7e19 76be ccf3 6dbc
00000330: 5a4f de3d 54fc cc3d c0a9 9b3e d24a 6ebe
00000340: a3b5 29be f505 483d 4abf 56be 3d88 573e
00000350: 3af9 a4bd 352a 7fbe 06df cabd a906 843d
00000360: d093 3bbe f277 f0bc 37e4 3a3e d958 3d3e
00000370: b825 54bd 6dc5 8e3d dc1e 3e3e 5de1 773e
00000380: 71c5 7f3d 5e3f c4bc 1a03 133d 9113 49be
00000390: 2ef1 15be 79fe b73d fc95 463d b3c3 94bc
000003a0: eacf 7d3e 6eea 0b3e 3943 903d a2ca 96bd
000003b0: 0d05 3ebe b01c 893d d542 983a b2d8 b83d
000003c0: ff0a 57be b3af 9cbe 074c 4ebe 3251 67bd
000003d0: 44c0 68bd 1b47 273e 9993 593e c83e 5a3e
000003e0: 96c0 d13a 444e 603d 4379 523e 4450 913e
000003f0: db25 fabd 62f7 d7bb e086 22bd 7cb7 873e

q_head.DAC_block.ff1.weight f4 [32, 14]
-0.021697247 0.22920471 -0.19032009 -0.02737589 0.23423475 0.08832948 -0.18820126 0.11326145
0.1696607 0.110678785 -0.122938074 0.08345183 0.15904798 0.06582248 -0.025230693 0.036353894
0.13585627 -0.3078671 0.13962087 0.093625076 0.32957456 -0.10759808 -0.06340441 -0.2996974
0.11936181 0.161488 -0.10156533 0.23551406 -0.067827746 -0.25789693 -0.33960062 -0.30821854
-0.0728952 0.21254842 0.04598604 -0.046977475 0.16093235 -0.17014544 -0.34001988 0.024029072
0.3370659 -0.11429431 -0.15719828 0.14071839 0.1026643 0.15962353 0.03280261 0.014941472
-0.1670542 0.08500323 -0.09993655 0.16131881 -0.094973624 -0.10292106 -0.16345432 0.11399208
-0.06273733 0.13223091 0.065115675 -0.32953694 -0.109705456 0.26700053 0.24702473 0.25218695
0.28824344 -0.26865703 -0.2911227 0.12113809 0.19869992 0.31383112 -0.028691987 0.024025256
-0.04760001 0.18261921 0.07109359 -0.15158325 -0.04375926 -0.28432512 -0.20458914 -0.14918822
0.14898264 0.12714264 -0.24808456 -0.14418636 -0.26461446 0.08485967 0.13341169 -0.16921993
-0.16745873 0.12914719 -0.060276844 -0.112568766 -0.13714844 -0.20315512 -0.26849312 0.26206654
0.0714067 -0.05818849 0.15041475 -0.36557353 -0.22124192 -0.08317881 -0.29163688 0.23995377
0.3792201 0.27237976 0.16313559 -0.07978511 -0.044832602 0.17901316 0.32216755 0.33466974
-0.13576864 0.33448523 0.3460418 0.2812508 0.23613022 -0.038220562 -0.3290935 0.015892414
-0.1501311 0.09129885 0.34405622 -0.03007157 0.08083881 -0.18303695 -0.14368168 0.38022792
0.08402199 0.028941339 -0.038691748 -0.07297232 -0.28765813 0.15054306 -0.2596805 0.037980437
0.24143176 0.010781824 -0.04515753 -0.35219103 -0.072464705 -0.29594004 -0.1259373 -0.20714314
-0.3743348 0.025471052 0.3430115 0.25951052 0.009611378 -0.06681993 0.04119928 0.16504358
0.18914229 0.11999329 -0.30272323 -0.29343456 -0.33822417 0.14133888 -0.3251356 0.07294774
-0.15712519 -0.079534486 0.30112362 -0.30300504 -0.024322422 0.15837489 0.2806695 0.15137358
-0.21341528 -0.15588973 0.07150016 0.0902848 -0.13916232 0.016402194 0.3535502 -0.12122846
0.082170375 -0.15334992 0.06107807 0.35730985 -0.03880959 0.28879723 -0.019577218 -0.055522382
0.22278105 0.072181374 0.06202268 0.026124174 0.19845863 0.0040187095 -0.105632536 -0.055527292
0.27165464 -0.14646506 -0.2653599 -0.15903111 0.2036162 0.25945857 -0.021399166 0.055577382
0.35101977 -0.23594962 -0.24401326 0.08863079 -0.03650898 0.25061485 -0.1353489 -0.13875706
-0.2363557 -0.14542347 0.03045087 -0.05650052 0.070677154 -0.13262524 0.02834849 0.17104833
0.09519823 -0.23228762 -0.20687652 0.004739492 0.2487583 -0.002480344 -0.04915805 -0.012296371
0.12321826 0.08955849 -0.11562294 0.0036425123 0.18504298 0.17471245 0.09043 -0.053821247
-0.25440967 0.32529727 -0.08402198 -0.06955256 -0.30135426 0.043767493 -0.18761928 0.23250876
0.12765467 -0.09103409 0.23223141 -0.06766976 0.11949296 -0.26358262 0.14358576 0.16987371
-0.02933664 0.20557009 0.046620823 -0.1107681 0.1149714 -0.0056744604 0.16806217 -0.10184234
00000000: 6dbe b1bc a4b4 6a3e 45e3 42be 6743 e0bc
00000010: 3cdb 6f3e 16e6 b43d d5b7 40be 9ef5 e73d
00000020: 89bb 2d3e 8fab e23d f5c6 fbbd cbe8 aa3d
00000030: 79dd 223e f0cd 863d 99b0 cebc d2e7 143d
00000040: e81d 0b3e c2a0 9dbe c6f8 0e3e 81be bf3d
00000050: ffbd a83e 625c dcbd 2cda 81bd f071 99be
00000060: f773 f43d 1c5d 253e 7c01 d0bd 992a 713e
00000070: 46e9 8abd 110b 84be 22e0 adbe d2ce 9dbe
00000080: 144a 95bd 4ba6 593e dc5b 3c3d 746b 40bd
00000090: 73cb 243e 9b3a 2ebe 1617 aebe 9ed8 c43c
000000a0: e793 ac3e 2313 eabd 96f8 20be 7b18 103e
000000b0: a941 d23d 5a74 233e 085c 063d 13cd 743c
000000c0: 4210 2bbe 2c16 ae3d 89ab ccbd c230 253e
000000d0: 8881 c2bd 47c8 d2bd 9260 27be ae74 e93d
000000e0: 6e7c 80bd 8a67 073e 5e5b 853d 11b9 a8be
000000f0: 41ad e0bd 4bb4 883e 0df4 7c3e a61e 813e
00000100: a594 933e 6a8d 89be 090e 95be 3f17 f83d
00000110: fe77 4b3e 79ae a03e 750b ebbc 9dd0 c43c
00000120: 3af8 42bd 8800 3b3e 8499 913d a438 1bbe
00000130: e93c 33bd 1093 91be d17f 51be ccc4 18be
00000140: e88e 183e ae31 023e e109 7ebe 97a5 13be
00000150: 8c7b 87be e8ca ad3d 139d 083e fd47 2dbe
00000160: 4d7a 2bbe 293f 043e dae4 76bd 748a e6bd
00000170: a470 0cbe e507 50be ee77 89be 962d 863e
00000180: ad3d 923d 0e57 6ebd 5306 1a3e 742c bbbe
00000190: 3e8d 62be a759 aabd 6e51 95be 71b6 753e
000001a0: 2329 c23e 5c75 8b3e 040d 273e 6066 a3bd
000001b0: 64a2 37bd 3a4f 373e 25f3 a43e d559 ab3e
000001c0: ef06 0bbe a641 ab3e 642c b13e 1b00 903e
000001d0: 1fcc 713e 2a8d 1cbd f17e a8be cf30 823c
000001e0: f8bb 19be e4fa ba3d 2328 b03e a758 f6bc
000001f0: d18e a53d 0a6e 3bbe 4a21 13be 3cad c23e
00000200: b913 ac3d 6316 ed3c 3d7b 1ebd 8372 95bd
00000210: ed47 93be f627 1a3e d8f4 84be 6091 1b3d
00000220: e339 773e 3fa6 303c 1af7 38bd 6252 b4be
00000230: 6068 94bd 7485 97be b5f5 00be 551d 54be
00000240: d0a8 bfbe aba8 d03c 349f af3e 90de 843e
00000250: 0b79 1d3c e3d8 88bd 94c0 283d 2f01 293e
00000260: 84ae 413e 0bbf f53d 8afe 9abe 0e3d 96be
00000270: b82b adbe 24bb 103e 2c78 a6be a065 953d
00000280: 6de5 20be fae2 a2bd e02c 9a3e 7a23 9bbe
00000290: d13f c7bc 072d 223e eab3 8f3e ad01 1b3e
000002a0: 8989 5abe 8fa1 1fbe ad6e 923d 3de7 b83d
000002b0: 9180 0ebe e55d 863c 8804 b53e a046 f8bd
000002c0: f148 a83d c307 1dbe 002d 7a3d 51f1 b63e
000002d0: cef6 1ebd 3bdd 933e 6760 a0bc 706b 63bd
000002e0: b720 643e d4d3 933d 7e0b 7e3d 5d02 d63c
000002f0: bd38 4b3e 61af 833b df55 d8bd 9670 63bd
00000300: 5116 8b3e f0fa 15be 41dd 87be 0dd9 22be
00000310: c480 503e c1d7 843e 4e4d afbc 1ca5 633d
00000320: ddb8 b33e c79c 71be 9dde 79be 0f84 b53d
00000330: 718a 15bd 9750 803e e798 0abe 5516 0ebe
00000340: 3b07 72be e4e9 14be 1a74 f93c 176d 67bd
00000350: 2fbf 903d e9ce 07be 183b e83c 4b27 2f3e
00000360: 4af7 c23d cedc 6dbe 70d7 53be be4d 9b3b
00000370: 7fba 7e3e 448d 22bb f459 49bd b876 49bc
00000380: db59 fc3d 716a b73d b8cb ecbd 37b7 6e3b
00000390: e87b 3d3e d2e7 323e 5d33 b93d ab73 5cbd
000003a0: fc41 82be 5d8d a63e b713 acbd 9371 8ebd
000003b0: 1b4b 9abe 8b45 333d 451f 40be c716 6e3e
000003c0: e8b7 023e 1570 babd 12ce 6d3e 7196 8abd
000003d0: bab8 f43d 4df4 86be 2508 133e 60f3 2d3e
000003e0: 6553 f0bc f780 523e 7af5 3e3d 63da e2bd
000003f0: 2076 eb3d d3f0 b9bb 7d18 2c3e b792 d0bd

q_head.DAC_block.ff1.bias f4 [32]
-0.274337 0.18254286 0.287166 -0.12862067 0.29135725 -0.179112 0.3395124 0.16027276
-0.1979097 -0.18328294 0.109518126 0.22342376 0.09277325 0.1838101 -0.2867168 -0.17352137
-0.23838016 0.033142723 -0.2624883 -0.19831145 -0.29997993 -0.22144543 0.19961028 -0.23591043
-0.31036255 0.080715165 0.2439148 -0.12777184 -0.23514648 0.32611787 0.03307345 -0.3213403
00000000: e675 8cbe 84ec 3a3e 6c07 933e 23b5 03be
00000010: c72c 953e 2369 37be 92d4 ad3e 8b1e 243e
00000020: d7a8 4abe 86ae 3bbe 0a4b e03d 33c9 643e
00000030: e7ff bd3d b738 3c3e 8bcc 92be 96af 31be
00000040: ee19 74be aac0 073d de64 86be 2812 4bbe
00000050: f896 99be 97c2 62be a366 4c3e 8192 71be
00000060: d7e7 9ebe fe4d a53d cdc4 793e 9fd6 02be
00000070: 3dca 70be ecf8 a63e 0778 073d b786 a4be

q_head.DAC_block.ff2.weight f4 [16, 32]
-0.13355446 0.021507863 -0.10149191 0.23186086 -0.087087534 0.05675602 -0.1807226 -0.14835374
0.23869635 0.15420152 -0.02850526 -0.20945975 -0.008963174 -0.046909757 0.2454821 0.19112599
0.16957894 -0.01824624 0.069899395 0.22788616 0.077717826 0.2317042 -0.23223703 -0.10389662
0.20209777 -0.18630804 -0.003226971 -0.05713338 -0.063207455 -0.15398836 0.0447457 0.10634399
-0.08089183 -0.09903002 -0.22764099 0.0073631075 -0.07867855 0.14319925 -0.025124865 -0.072438955
0.24235947 0.24808286 -0.16821699 -0.1219005 -0.00062822783 -0.10136833 0.18537149 0.2189317
0.23157613 0.1249646 0.23134004 -0.011636099 0.13903393 0.06894739 -0.18521011 0.15135595
0.07019878 -0.2134899 0.08427 -0.05253662 0.16242659 -0.15652362 -0.11877312 0.19484983
0.06274696 -0.025953457 0.031920888 0.12236535 -0.24243535 0.23142762 0.058334637 0.035306733
0.1905194 0.23605816 0.016374767 -0.1466756 0.0110943 0.021098392 0.18577363 -0.023151342
-0.01360037 -0.007393488 -0.08123447 -0.054356504 0.22010683 0.058294926 0.013420118 -0.027190695
-0.07740613 -0.06637253 0.044402063 0.18113896 0.050998084 -0.13567656 0.05782224 0.0666895
-0.054973423 -0.12917966 0.042577766 0.1938155 -0.16430788 0.19439167 -0.021302164 -0.09316305
-0.0030864943 0.027107453 -0.06817044 -0.061904676 -0.20116892 -0.15635191 -0.056798182 0.20834681
-0.037411436 -0.009244739 0.08454404 0.26504004 0.009338936 0.19835436 -0.09575045 -0.017310275
0.034618896 -0.07866343 -0.14606614 0.20752981 0.27129808 -0.18301047 0.09939234 -0.054489598
0.084260054 0.08963807 -0.21743514 0.12664066 0.015159292 -0.068816766 0.0029229783 -0.20929025
0.25166944 0.09110751 -0.035686873 -0.11755116 -0.23215146 0.004790132 0.2223663 0.2124984
-0.09482978 -0.08899362 0.12782592 0.10626295 0.19858266 0.1486319 -0.14552355 -0.030329335
0.11393133 0.0146983275 -0.25717184 0.06652787 0.039595418 -0.0050884853 -0.13407357 0.104852475
0.17491959 0.019830398 -0.15074402 -0.07706591 -0.12572198 0.06882524 -0.12716827 -0.22468494
0.13910098 0.20257089 -0.15411115 0.080615945 -0.2466876 0.0485433 0.21618323 -0.079540424
0.045383554 0.044543084 -0.046355776 0.09466158 0.22272295 0.054779265 -0.24365023 0.012685792
-0.04200081 -0.18211412 -0.07568671 0.19685361 0.21113059 -0.077920206 -0.094425924 0.04904155
0.058957465 -0.16683456 -0.2678658 -0.011879644 0.029516086 0.062289033 -0.18715113 -0.026601935
0.013954747 0.18043166 0.008285709 0.06027682 -0.038446575 -0.09855158 0.097349346 0.10315582
0.18169524 0.0021692135 -0.030037042 -0.06499102 0.17191003 0.23633705 -0.19923645 0.077762336
0.25443795 -0.10984767 -0.03271925 0.14745058 -0.03212581 -0.24819776 -0.06559476 0.21527527
0.09931675 0.08626221 -0.25531578 0.059728958 -0.0952135 0.23660071 -0.03972224 -0.03475088
0.13673924 -0.0023963081 -0.08440044 -0.24180081 -0.2467956 0.077307 0.0834325 0.1312192
-0.031646337 0.08160033 0.04577913 0.0030775908 0.02460486 -0.061448857 -0.10965305 -0.0429471
0.12039713 -0.14678454 -0.12369434 0.12009568 0.08898315 0.07169848 0.07929266 -0.09305137
00000000: 80c2 08be 4231 b03c feda cfbd ef6c 6d3e
00000010: f35a b2bd 0079 683d 580f 39be 0bea 17be
00000020: d16c 743e 01e7 1d3e dd83 e9bc 9e7c 56be
00000030: 47da 12bc 7224 40bd a95f 7b3e 88b6 433e
00000040: 1aa6 2d3e 2479 95bc 6a27 8f3d fd5a 693e
00000050: 862a 9f3d de43 6d3e 8bcf 6dbe c0c7 d4bd
00000060: b8f2 4e3e 89c7 3ebe 977b 53bb b104 6abd
00000070: e972 81bd 20af 1dbe 4447 373d e1ca d93d
00000080: 9eaa a5bd 40d0 cabd b81a 69be 3946 f13b
00000090: 3822 a1bd d3a2 123e a9d2 cdbc e05a 94bd
000000a0: 152d 783e 6f09 7e3e 1341 2cbe f8a6 f9bd
000000b0: a8af 24ba 339a cfbd 06d2 3d3e a22f 603e
000000c0: 4b22 6d3e 71ed ff3d 67e4 6c3e 56a5 3ebc
000000d0: e95e 0e3e 4a34 8d3d b8a7 3dbe 0efd 1a3e
000000e0: 61c4 8f3d 199d 5abe c095 ac3d a430 57bd
000000f0: 2853 263e ba47 20be 523f f3bd b786 473e
00000100: 7a81 803d 589c d4bc 7abf 023d af9a fa3d
00000110: f940 78be 5dfb 6c3e 4df0 6e3d cb9d 103d
00000120: 8517 433e 3bb9 713e 6024 863c 2132 16be
00000130: dec4 353c 89d6 ac3c 713b 3e3e e2a7 bdbc
00000140: 16d4 5ebc 1345 f2bb 425e a6bd eda4 5ebd
00000150: af63 613e a9c6 6e3d 0ee0 5b3c 05bf debc
00000160: 1b87 9ebd 52ee 87bd f0de 353d 7e7c 393e
00000170: 5ee3 503d ccee 0abe 03d7 6c3d 8194 883d
00000180: d02b 61bd ac47 04be 0666 2e3d 9277 463e
00000190: 5340 28be 9c0e 473e e081 aebc 45cc bebd
000001a0: c846 4abb 7310 de3c f29c 8bbd c28f 7dbd
000001b0: 3aff 4dbe b71a 20be 36a5 68bd de58 553e
000001c0: bc3c 19bd 3f77 17bc 6d25 ad3d 54b3 873e
000001d0: 5602 193c 681d 4b3e d018 c4bd 47ce 8dbc
000001e0: 8bcc 0d3d 4b1a a1bd 5d92 15be b282 543e
000001f0: 95e7 8a3e 1967 3bbe 368e cb3d 7c30 5fbd
00000200: 8990 ac3d 2a94 b73d 51a7 5ebe 17ae 013e
00000210: ae5e 783c ceef 8cbd 708f 3f3b 2f50 56be
00000220: d1da 803e 9396 ba3d 662c 12bd aabe f0bd
00000230: 1db9 6dbe 8af6 9c3b feb3 633e 2e99 593e
00000240: 1e36 c2bd 4942 b6bd cce4 023e 64a0 d93d
00000250: 4159 4b3e f632 183e 2004 15be 3a75 f8bc
00000260: d454 e93d 41d1 703c 07ac 83be c43f 883d
00000270: ce2e 223d 4fbd a6bb 954a 09be e5bc d63d
00000280: 1f1e 333e 5c73 a23c a45c 1abe bbd4 9dbd
00000290: 43bd 00be 3ff4 8c3d 6638 02be cf13 66be
000002a0: 7d70 0e3e be6e 4f3e 50cf 1dbe f919 a53d
000002b0: ad9b 7cbe 57d5 463d 235f 5d3e 17e6 a2bd
000002c0: 1be4 393d cf72 363d 8edf 3dbd eedd c13d
000002d0: 7c11 643e 3960 603d 727f 79be 11d8 4f3c
000002e0: 0b09 2cbd 207c 3abe a201 9bbd fe93 493e
000002f0: 9e32 583e a194 9fbd 6162 c1bd cbdf 483d
00000300: 627d 713d aed6 2abe b525 89be d7a2 42bc
00000310: b8cb f13c c922 7f3d 8ca4 3fbe 4dec d9bc
00000320: 73a2 643c 14c3 383e c8c0 073c d4e4 763d
00000330: 287a 1dbd 69d5 c9bd 185f c73d 5c43 d33d
00000340: 510e 3a3e 5d29 0e3b 3e10 f6bc 031a 85bd
00000350: 2f09 303e 5702 723e a404 4cbe dc41 9f3d
00000360: b145 823e d1f7 e0bd 9f04 06bd 49fd 163e
00000370: 5a96 03bd 8e27 7ebe 8c56 86bd 1f71 5c3e
00000380: 9566 cb3d 3eaa b03d c0b8 82be 5aa6 743d
00000390: 4cff c2bd 7547 723e cab3 22bd f056 0ebd
000003a0: 5f05 0c3e 610b 1dbb 23da acbd a29a 77be
000003b0: fcb7 7cbe 2253 9e3d a9de aa3d 535e 063e
000003c0: 979f 01bd 131e a73d e682 3b3d 68b1 493b
000003d0: 2290 c93c ccb1 7bbd c791 e0bd 4ce9 2fbd
000003e0: c592 f63d b04e 16be 7553 fdbd b9f4 f53d
000003f0: cc3c b63d a7d6 923d 3164 a23d b791 bebd

q_head.DAC_block.ff2.bias f4 [16]
-0.05223838 -0.17801628 -0.083595194 -0.085321985 -0.19298446 -0.011059233 -0.037313264 -0.11311576
-0.14345707 0.047799684 -0.22047013 -0.10688958 -0.09710099 -0.00627951 -0.22372624 0.05084962
00000000: e9f7 55bd e649 36be f533 abbd 4bbd aebd
00000010: b89d 45be c931 35bc cbd5 18bd 3ca9 e7bd
00000020: 69e6 12be 9ac9 433d ecc2 61be ede8 dabd
00000030: e2dc c6bd 59c4 cdbb 7e18 65be b147 503d

ema_model.q_head.DAC_block.mamba_blocks.0.A_log f4 [28, 32]
-0.02361502 0.6595937 1.0653827 1.3562518 1.5641793 1.7546004 1.8905839 2.0248764
2.1406333 2.2591805 2.3539665 2.4308329 2.5123107 2.5822737 2.665023 2.7175188
2.7795777 2.829379 2.8880563 2.9378378 2.98325 3.0548909 3.0799277 3.1230848
3.179514 3.2040553 3.232894 3.2760553 3.3117623 3.3574293 3.3723707 3.4086168
-0.051004738 0.6386709 1.0405542 1.3321667 1.553667 1.7348859 1.8946753 2.028406
2.1460667 2.2418804 2.3381622 2.4302094 2.5092552 2.5841582 2.6480765 2.7137754
2.7777243 2.8372846 2.8870273 2.9404507 2.990579 3.038852 3.0703866 3.1120055
3.1614618 3.1977649 3.2404218 3.2704647 3.3001316 3.3411205 3.3798792 3.403604
-0.016989965 0.66803604 1.0718572 1.3609266 1.5760802 1.7613883 1.913552 2.045996
2.1643672 2.2661412 2.3613405 2.448371 2.527757 2.6031094 2.6696799 2.7344491
2.7955058 2.8565507 2.90601 2.9580638 3.0092921 3.052675 3.0918279 3.134613
3.1794357 3.2174003 3.260905 3.2884188 3.324091 3.357563 3.3975725 3.421871
-0.02433255 0.65972733 1.0654457 1.3565656 1.5656568 1.7553939 1.8935243 2.0276597
2.1437516 2.2605133 2.3552306 2.4334939 2.514774 2.5853355 2.6662455 2.7201195
2.78217 2.8331637 2.8909504 2.940924 2.986888 3.055466 3.082291 3.125262
3.1800294 3.2063456 3.2365773 3.2786105 3.3137507 3.3579688 3.3761072 3.411098
-0.0598767 0.6265669 1.0358118 1.335893 1.5378587 1.7283027 1.8745612 2.0074697
2.1254637 2.237066 2.3333473 2.412748 2.4931767 2.5662277 2.647982 2.7004964
2.7617025 2.8176558 2.8723202 2.9231203 2.9717507 3.0484645 3.0645895 3.1081815
3.1680927 3.189725 3.2230299 3.2632504 3.2975478 3.3451276 3.3625035 3.3971732
-0.0036200974 0.6855965 1.0905951 1.3791932 1.5938207 1.7808452 1.9223068 2.055958
2.1720507 2.2854362 2.3796897 2.4597948 2.5409055 2.6118536 2.689675 2.7456832
2.8076978 2.8595233 2.9157927 2.9662755 3.0124006 3.0745487 3.1056435 3.1486402
3.199947 3.229661 3.2615526 3.3009672 3.337152 3.3776479 3.4003134 3.4334252
-0.0017393886 0.68922246 1.0944077 1.382559 1.5998561 1.7855122 1.9292847 2.0628803
2.179022 2.2916858 2.3861647 2.4667437 2.5478017 2.6186254 2.6960278 2.7525432
2.8145583 2.8658245 2.9223177 2.9727526 3.018448 3.0802197 3.111967 3.1550496
3.2061179 3.2362084 3.2672365 3.3070843 3.343614 3.3841078 3.4058545 3.4393537
-0.0011696395 0.69044703 1.095725 1.3837898 1.6025625 1.7874637 1.9333411 2.0669441
2.1833334 2.2947352 2.389377 2.4710279 2.5519764 2.623298 2.6993682 2.7571225
2.8189855 2.8710375 2.927196 2.9777787 3.023799 3.0834472 3.1169975 3.160034
3.2097173 3.2410932 3.2728674 3.3122904 3.348736 3.3884263 3.411539 3.4447262
00000000: 4974 c1bc 22db 283f 765e 883f a999 ad3f
00000010: 0737 c83f bf96 e03f a7fe f13f 9397 0140
00000020: 2300 0940 6a96 1040 63a7 1640 c492 1b40
00000030: b3c9 2040 f943 2540 bd8f 2a40 d4eb 2d40
00000040: 9ae4 3140 8c14 3540 ead5 3840 8905 3c40
00000050: 91ed 3e40 5583 4340 891d 4540 9fe0 4740
00000060: 287d 4b40 3e0f 4d40 bce7 4e40 e4aa 5140
00000070: eaf3 5340 1fe0 5640 ecd4 5740 c726 5a40
00000080: 58ea 50bd f07f 233f e130 853f 7084 aa3f
00000090: 8fde c63f be10 de3f b884 f23f 67d1 0140
000000a0: 2859 0940 f87a 0f40 73a4 1540 8d88 1b40
000000b0: a397 2040 d962 2540 167a 2940 7fae 2d40
000000c0: 3cc6 3140 1296 3540 0ec5 3840 5830 3c40
000000d0: a565 3f40 8d7c 4240 3781 4440 192b 4740
000000e0: 6455 4a40 2ea8 4c40 1263 4f40 4b4f 5140
000000f0: 5b35 5340 ebd4 5540 f14f 5840 a6d4 5940
00000100: 8a2e 8bbc 6904 2b3f 9e32 893f d832 ae3f
00000110: ffbc c93f 2c75 e13f 46ef f43f 99f1 0240
00000120: fe84 0a40 7508 1140 3420 1740 1cb2 1c40
00000130: c5c6 2140 5899 2640 09dc 2a40 3701 2f40
00000140: 91e9 3240 bad1 3640 11fc 3940 eb50 3d40
00000150: 3e98 4040 075f 4340 82e0 4540 809d 4840
00000160: e07b 4b40 e3e9 4d40 abb2 5040 7475 5240
00000170: e8bd 5440 50e2 5640 d471 5940 efff 5a40
00000180: 0e55 c7bc e4e3 283f 8660 883f f1a3 ad3f
00000190: 7167 c83f bfb0 e03f 015f f23f 2dc5 0140
000001a0: 3a33 0940 40ac 1040 19bc 1640 5dbe 1b40
000001b0: 0ff2 2040 2376 2540 c4a3 2a40 7016 2e40
000001c0: 130f 3240 8e52 3540 5505 3940 1938 3c40
000001d0: 2c29 3f40 c18c 4340 4144 4540 4b04 4840
000001e0: 9a85 4b40 c434 4d40 1524 4f40 c1d4 5140
000001f0: 7e14 5440 f6e8 5640 2412 5840 6e4f 5a40
00000200: 4541 75bd b066 203f 7b95 843f 8bfe aa3f
00000210: 8ed8 c43f 0639 dd3f 9ff1 ef3f 627a 0040
00000220: 9907 0840 172c 0f40 9055 1540 776a 1a40
00000230: 3590 1f40 133d 2440 8978 2940 efd4 2c40
00000240: bcbf 3040 7954 3440 18d4 3740 6714 3b40
00000250: 2a31 3e40 0b1a 4340 3c22 4440 72ec 4640
00000260: 08c2 4a40 7424 4c40 1f46 4e40 18d9 5040
00000270: 060b 5340 9216 5640 4233 5740 496b 5940
00000280: 283f 6dbb 4183 2f3f 9f98 8b3f 6789 b03f
00000290: 5102 cc3f bcf2 e33f 260e f63f d194 0340
000002a0: e102 0b40 9644 1240 d64c 1840 476d 1d40
000002b0: 329e 2240 9c28 2740 a323 2c40 46b9 2f40
000002c0: 52b1 3340 6e02 3740 599c 3a40 75d7 3d40
000002d0: 2ccb 4040 68c5 4440 ddc2 4640 5283 4940
000002e0: efcb 4c40 c4b2 4e40 47bd 5040 0c43 5340
000002f0: e693 5540 622b 5840 bc9e 5940 3dbd 5b40
00000300: 32fc e3ba e270 303f 8d15 8c3f b1f7 b03f
00000310: 16c8 cc3f aa8b e43f cdf2 f63f 3b06 0440
00000320: 1975 0b40 fbaa 1240 ecb6 1840 21df 1d40
00000330: 2f0f 2340 8f97 2740 b88b 2c40 ab29 3040
00000340: b921 3440 ab69 3740 4107 3b40 9441 3e40
00000350: 412e 4140 5222 4540 782a 4740 55ec 4940
00000360: 0931 4d40 0a1e 4f40 671a 5140 45a7 5340
00000370: c6fd 5540 3995 5840 85f9 5940 5f1e 5c40
00000380: 974e 99ba 23c1 303f b840 8c3f 0620 b13f
00000390: c520 cd3f 9ccb e43f b977 f73f d048 0440
000003a0: bcbb 0b40 f1dc 1240 8eeb 1840 5225 1e40
000003b0: 9553 2340 1de4 2740 73c2 2c40 b274 3040
000003c0: 426a 3440 14bf 3740 2e57 3b40 ed93 3e40
000003d0: ec85 4140 3357 4540 e37c 4740 ff3d 4a40
000003e0: 026c 4d40 126e 4f40 a976 5140 91fc 5340
000003f0: b151 5640 fadb 5840 a856 5a40 6576 5c40

ema_model.q_head.DAC_block.mamba_blocks.0.D f4 [28]
1.079117 1.0603365 1.0359838 1.0861716 1.0837952 1.0874211 1.0807047 1.0694494
1.0714977 1.0769895 1.0886196 1.0850804 1.0700791 1.0824068 1.0797954 1.0319092
1.0554746 1.0852246 1.0772249 1.0808835 1.0874077 1.0311024 1.0889734 1.0432853
1.0858449 1.0821826 1.0864744 1.0322142
00000000: 8120 8a3f 1bb9 873f 1e9b 843f ac07 8b3f
00000010: cdb9 8a3f 9d30 8b3f 8854 8a3f b8e3 883f
00000020: d626 893f cbda 893f e357 8b3f eae3 8a3f
00000030: 5af8 883f 4e8c 8a3f bc36 8a3f 9a15 843f
00000040: cb19 873f a4e8 8a3f 81e2 893f 645a 8a3f
00000050: 2d30 8b3f 2afb 833f 7b63 8b3f 5f8a 853f
00000060: f7fc 8a3f f684 8a3f 9811 8b3f 981f 843f
