checkpoints/q-mamba/20240817_103731/checkpoint-5.pt (torch, 115222 bytes, 42 tensors)

q_head.action_bin_embeddings f4 [2, 256, 9]
000000 83 c8 45 3e 8a 8b da bd 66 5d 52 3e 01 20 10 be
       0.1931477 -0.10671146 0.20543441 -0.14074709
000010 96 04 c2 bd 42 ea 2b 3e ef 29 2b 3e 9b 06 41 3e
       -0.09473531 0.16788581 0.16715215 0.18850176
000020 29 15 1c be c8 e1 29 3e 49 03 10 be 26 b9 52 3e
       -0.15242447 0.16590035 -0.14063753 0.20578441
000030 28 82 13 be 39 c3 fb bd ac 18 44 3e 0e 66 59 3e
       -0.1440512 -0.12293095 0.19150037 0.21230337
000040 ef f6 5a 3e b6 31 20 be 8c 52 23 3e 51 88 07 be
       0.2138326 -0.15643963 0.15949458 -0.13235594
000050 0e 89 2f 3e c2 21 42 be 56 64 f3 bd f9 44 2b 3e
       0.17142126 -0.1895819 -0.11884372 0.1672553
000060 d7 1f 54 3e 5d f2 1a 3e 18 73 20 be 81 5c 12 3e
       0.20715271 0.15131517 -0.15668905 0.142931
000070 31 98 ea bd a7 ca 6c 3e 45 13 2b be 3b 8d ec bd
       -0.114548095 0.2312418 -0.1670657 -0.11550375
000080 7b f1 2f 3e 99 15 48 3e f7 c7 57 3e 89 c0 fd bd
       0.17181961 0.19539489 0.21072374 -0.12390239
000090 dc bd 04 3e 47 08 0e be 82 17 67 3e dd 7d 22 be
       0.1296305 -0.13870345 0.22567561 -0.15868326
0000a0 f8 88 03 be 5f dc 34 3e 71 97 3e 3e 70 f8 43 3e
       -0.12845218 0.1766219 0.18612458 0.1913774
0000b0 63 e9 c2 bd d2 50 3c 3e 6c 3f 11 be 11 ac 44 3e
       -0.09517171 0.18390206 -0.1418435 0.19206263
0000c0 43 2b 1c be 3a c2 e0 bd bb 50 17 3e 89 38 29 3e
       -0.15250878 -0.10974546 0.1477689 0.16525473
0000d0 47 c0 5f 3e 5c fd 11 be ff b5 37 3e 41 a8 29 be
       0.21850692 -0.14256805 0.1794052 -0.1656809
0000e0 65 94 47 3e 5f c4 21 be 2e c9 1a be 15 de 3f 3e
       0.19490202 -0.15797566 -0.15115806 0.18737061
0000f0 62 7d 63 3e 46 d5 2b 3e ba 1e 13 be d3 ab 2a 3e
       0.22215798 0.16780576 -0.1436719 0.16667108
000100 7b 08 05 be 71 fc 51 3e 92 a8 27 be 19 0b b9 bd
       -0.12991516 0.20506455 -0.16372898 -0.0903532
000110 e6 d0 5d 3e 35 a6 00 3e 85 38 56 3e bb 3e 16 be
       0.2166172 0.12563403 0.20919998 -0.14672367
000120 a9 1a 05 3e df ad fc bd cd 10 42 3e 32 9d 17 be
       0.12998451 -0.12337851 0.18951721 -0.14806059
000130 a1 ee e7 bd 28 03 33 3e 78 46 22 3e 38 20 20 3e
       -0.11324812 0.17481673 0.15847194 0.1563729
000140 c4 d5 c1 bd b8 bf 57 3e 31 df e2 3c 76 ae 46 3e
       -0.09464601 0.21069229 0.027694317 0.19402489
000150 26 de 8c bd 11 05 bf 3d 7f e7 59 3e f4 b0 42 3e
       -0.06878309 0.09327138 0.21279715 0.19012815
000160 c3 df 7e 3e c5 48 f9 ba 28 b0 f6 3d 0a f4 12 bd
       0.24890046 -0.0019018879 0.12045318 -0.035877265
000170 14 72 f8 3d 7f d9 a6 bc af 6b 4b bd b3 5c 16 3e
       0.12131134 -0.020367382 -0.049663242 0.146838
000180 31 c6 1c 3e 77 eb 3a 3e 98 40 97 bd 00 89 3c 3e
       0.15309979 0.18253885 -0.07385367 0.18411636
000190 4c 80 28 be 1c a1 51 3e 82 ff 15 be 43 4a fe bd
       -0.16455191 0.20471615 -0.1464825 -0.12416508
0001a0 9d 17 45 3e 6f 18 1a 3e c2 fb 3b 3e 79 a2 d9 bd
       0.19247289 0.15048383 0.18357757 -0.10626692
0001b0 21 27 53 3e bf 8e 23 be 98 dd 3a 3e f6 31 38 be
       0.20620395 -0.15972422 0.18248594 -0.17987809
0001c0 bc 1e 18 be 47 b2 54 3e 66 be 37 3e 42 00 41 3e
       -0.14855474 0.20771132 0.17943725 0.18847755
0001d0 81 d2 2c be 2d 27 3b 3e 8c 65 ed bd 95 45 3c 3e
       -0.16877176 0.18276663 -0.11591634 0.18385918
0001e0 64 7f 28 be db d6 e9 bd df e5 47 3e 3b 29 45 3e
       -0.16454846 -0.114179336 0.19521283 0.1925401
0001f0 6c 9d 2f 3e aa 59 d0 bd a5 e7 1c 3e 92 e9 0c be
       0.17149895 -0.10173352 0.1532274 -0.13760975
000200 63 39 4f 3e 2f 0b 1d be 37 10 d8 bd 95 f9 1a 3e
       0.20236735 -0.15336297 -0.10549968 0.1513427
000210 be c1 43 3e d9 2e 4b 3e 9a 64 c2 bd e3 06 2f 3e
       0.19116876 0.1984209 -0.094918445 0.17092471
000220 38 3d 10 be 1d ec 41 3e 72 cc 21 be f0 bb 02 be
       -0.14085853 0.18937726 -0.15800646 -0.12767005
000230 9b b7 53 3e 5a 55 19 3e 33 72 30 3e ea 0f ca bd
       0.20675509 0.14973965 0.17231064 -0.098663166
000240 2f ed 19 3e ad c3 e9 bd ea e6 23 3e b6 30 1e be
       0.15031885 -0.11414275 0.16006055 -0.15448269
000250 63 8e ec bd c3 88 33 3e 66 3f 2f 3e 69 76 56 3e
       -0.115505956 0.17532639 0.17114028 0.20943607
000260 fa 27 0f be 90 f6 38 3e b1 65 1c be eb 77 3d 3e
       -0.13980094 0.18062806 -0.15273167 0.18502776
000270 e1 8b 11 be f6 5f 10 be ad ca 36 3e 98 1f 32 3e
       -0.14213516 -0.14099106 0.17850752 0.17394865
000280 8e 55 30 3e 32 35 1e be d2 15 31 3e 06 e3 e5 bd
       0.17220137 -0.1544998 0.1729348 -0.11224942
000290 df 8f 32 3e a2 2d 20 be 6e 15 c8 bd c3 f4 32 3e
       0.17437695 -0.15642408 -0.097697124 0.17476182
0002a0 de 7e 2e 3e 94 a5 53 3e b9 e7 ec bd 16 b9 35 3e
       0.17040583 0.20668632 -0.11567635 0.17746386
0002b0 51 f5 09 be 04 e4 50 3e 6b eb 24 be ed e7 21 be
       -0.13472487 0.20399481 -0.1610543 -0.15811129
0002c0 23 d4 25 3e 1d 06 4a 3e d1 77 52 3e 41 19 27 be
       0.16194205 0.19728895 0.20553519 -0.16318227
0002d0 04 6f 2f 3e 33 e3 2c be 9e 65 33 3e 97 17 20 be
       0.17132193 -0.16883545 0.17519233 -0.15633999
0002e0 34 59 d3 bd d9 cc 2e 3e c4 34 34 3e 49 3e 54 3e
       -0.103197485 0.1707033 0.17598253 0.20726885
0002f0 eb 7c 13 be 64 02 26 3e b8 28 09 be 4d 4a 6a 3e
       -0.14403121 0.1621185 -0.13394439 0.22879906
000300 a4 16 04 be ce 6e 0c be de c4 2c 3e 18 ff 2d 3e
       -0.12899262 -0.13714144 0.16871974 0.16991842
000310 18 2e 5b 3e 28 08 24 be cc 27 18 3e fe 2e 0f be
       0.21404302 -0.16018736 0.14858931 -0.1398277
000320 0a 88 52 3e 52 d4 00 be 1c 0e d3 bd f6 7e 40 3e
       0.20559707 -0.12580994 -0.103054255 0.18798432
000330 d5 c4 27 3e a3 ce 50 3e da 62 1a be 12 02 30 3e
       0.16383679 0.20391326 -0.15076771 0.1718829
000340 0c 18 2a be da 2c 34 3e f0 3d 04 be 02 b3 d7 bd
       -0.16610736 0.17595235 -0.12914252 -0.1053219
000350 e7 21 14 3e 51 c0 10 3e e8 e1 4c 3e de da 00 be
       0.14466058 0.14135863 0.20008051 -0.12583491
000360 e3 81 5d 3e fa f5 2a be 8e 40 44 3e 66 92 38 be
       0.21631579 -0.16695395 0.1916525 -0.18024597
000370 cf d7 1d be 48 ee 2d 3e 43 1c 29 3e 7a 41 25 3e
       -0.15414356 0.16985428 0.16514687 0.16138259
000380 f0 93 eb bd bd 9d 34 3e e9 04 e7 bd a8 17 57 3e
       -0.11502826 0.17638297 -0.112802334 0.21005118
000390 c1 2e 17 be c0 7c 16 be 1c d6 36 3e f6 e8 3e 3e
       -0.14763929 -0.14696026 0.17855114 0.18643555
0003a0 29 fe 4c 3e d2 fa 09 be b7 3e 27 3e dd 38 e3 bd
       0.2001883 -0.13474587 0.16332518 -0.1109483
0003b0 89 34 66 3e 86 f5 10 be 51 96 f5 bd f8 ec 32 3e
       0.22480978 -0.1415616 -0.11991561 0.17473209
0003c0 d1 88 47 3e 20 d8 3d 3e 59 73 09 be 6a 7f 3d 3e
       0.19485785 0.18539476 -0.13422908 0.18505636
0003d0 30 8d 06 be 1a 5b 5e 3e 81 65 27 be cf 30 fa bd
       -0.13139796 0.2171444 -0.16347314 -0.12216341
0003e0 91 eb 2b 3e 76 80 44 3e 54 12 36 3e 4d e1 08 be
       0.1678908 0.19189629 0.17780429 -0.13367195
0003f0 84 54 2d 3e 8f 4f 2e be cf 84 34 3e 9a 06 3d be
       0.16926771 -0.17022537 0.17628787 -0.1845955

q_head.mamba.A_log f4 [18, 16]
000000 04 bc 85 be 8e 4d d9 3e 58 2a 54 3f 42 b9 8c 3f
       -0.26120007 0.42441982 0.8287711 1.0994036
000010 53 7d a9 3f e3 5f bf 3f 0f fe d3 3f 39 60 e4 3f
       1.3241371 1.4951137 1.6561908 1.7841865
000020 7c 8a f2 3f a6 9c 00 40 0b a3 06 40 ff 93 0c 40
       1.8948512 2.009561 2.1037014 2.196533
000030 b9 e6 11 40 1d 8d 15 40 29 05 1b 40 44 66 1e 40
       2.2797072 2.3367379 2.42219 2.4749918
000040 d3 21 4b be 13 fe f6 3e d0 56 62 3f 77 09 93 3f
       -0.19837122 0.48240718 0.88413715 1.1487263
000050 71 98 af 3f 7e ea c4 3f 4a 6a d9 3f d2 58 e9 3f
       1.3718396 1.5384061 1.6985562 1.8230231
000060 10 26 f7 3f 9b ee 02 40 56 d6 08 40 d4 ae 0e 40
       1.9308491 2.0458133 2.138082 2.2294207
000070 77 e1 13 40 0d 45 17 40 df cd 1c 40 21 f8 1f 40
       2.3106363 2.3635895 2.4500654 2.4995196
000080 29 d4 24 be e1 09 06 3f c6 bd 6d 3f 62 f6 98 3f
       -0.16096558 0.52358824 0.92867696 1.195019
000090 79 95 b5 3f 8b 3a cb 3f 7f a1 df 3f 6b b2 ef 3f
       1.418624 1.5877241 1.747116 1.8726324
0000a0 f5 ad fd 3f 3c 1b 06 40 2b 09 0c 40 b0 de 11 40
       1.9818712 2.0954123 2.1880596 2.2792168
0000b0 3b 16 17 40 53 90 1a 40 0f f0 1f 40 22 43 23 40
       2.3607318 2.4150589 2.499027 2.5509725
0000c0 b1 68 5f be 53 02 ef 3e a8 fe 5d 3f 3b 3e 94 3f
       -0.2181728 0.4668146 0.867167 1.1581491
0000d0 ed b0 b0 3f 7f 83 c8 3f 05 c2 db 3f 06 20 ed 3f
       1.3803993 1.566513 1.7168585 1.8525398
0000e0 84 37 fd 3f 00 d9 04 40 f6 15 0b 40 05 5d 10 40
       1.9782567 2.0757446 2.1732154 2.2556775
0000f0 6b 7a 15 40 ae 3f 1b 40 94 f8 1e 40 8c 94 23 40
       2.3355968 2.4257617 2.483922 2.5559416
000100 db 63 79 be aa 22 e2 3e 3a e7 58 3f 67 dd 8e 3f
       -0.24354498 0.44167072 0.84727824 1.1161317
000110 8a 80 ab 3f 12 2c c1 3f 5d b2 d5 3f e2 d4 e5 3f
       1.3398602 1.5091574 1.6695057 1.7955592
000120 d6 d8 f3 3f 7b 3b 01 40 ba 2c 07 40 db 23 0d 40
       1.9050548 2.0192554 2.112105 2.2053134
000130 c7 71 12 40 37 e3 15 40 34 66 1b 40 a6 ab 1e 40
       2.2881944 2.341993 2.428113 2.4792266
000140 9b c5 36 3e 0f 98 5e 3f f7 bb a1 3f 40 ea c8 3f
       0.17848818 0.86950773 1.2635487 1.5696487
000150 84 57 e5 3f 7d 09 fe 3f be 74 08 40 a2 45 11 40
       1.7917333 1.9846646 2.1321254 2.269875
000160 de 40 19 40 cb 46 1f 40 aa 69 25 40 02 50 2a 40
       2.3945842 2.4886959 2.5845742 2.6611333
000170 ac 1c 2f 40 8a 0f 35 40 8f 56 38 40 a7 10 3d 40
       2.736125 2.8290734 2.880283 2.9541414
000180 22 c5 78 be c3 54 e3 3e c2 ad 58 3f 32 72 91 3f
       -0.2429395 0.44400606 0.84640133 1.1362975
000190 42 21 ae 3f 98 ee c5 3f 62 a7 d9 3f c0 31 eb 3f
       1.36039 1.5463438 1.7004206 1.8374557
0001a0 1f 57 fb 3f 53 1a 04 40 41 63 0a 40 e5 ea 0f 40
       1.9635962 2.0641067 2.162308 2.2487118
0001b0 7a 28 15 40 f7 05 1b 40 97 e5 1e 40 0c 92 23 40
       2.3305955 2.422239 2.482763 2.555789
0001c0 3e 45 de bd bb ea 11 3f 33 3c 78 3f 99 79 9e 3f
       -0.10853051 0.56998795 0.96966857 1.2380859
0001d0 53 f0 ba 3f 46 aa d0 3f 61 c3 e4 3f 37 f7 f4 3f
       1.4604591 1.6301963 1.7872125 1.9137944
0001e0 6d a0 01 40 a3 b3 08 40 7c a8 0e 40 7a 50 14 40
       2.0254166 2.1359642 2.2290335 2.317412
0001f0 64 67 19 40 9c 7e 1d 40 49 7c 22 40 85 04 26 40
       2.3969355 2.4608526 2.5388358 2.5940259
000200 9b 69 cc bd 0d cb 13 3f 2e 1c 7a 3f c6 8f 9e 3f
       -0.0998108 0.57731706 0.9769925 1.2387626
000210 d3 0d bb 3f fe 56 d0 3f a9 96 e4 3f ec 75 f4 3f
       1.4613594 1.6276548 1.7858478 1.9098487
000220 f3 25 01 40 e0 69 08 40 76 49 0e 40 b4 f7 13 40
       2.0179412 2.131462 2.2232337 2.3119936
000230 65 07 19 40 3f 8f 1c 40 2c e6 21 40 30 1c 25 40
       2.3910763 2.446243 2.5296736 2.5798454
000240 51 71 97 be 80 54 ca 3e 47 f9 4d 3f 74 1c 8a 3f
       -0.2957864 0.39517593 0.8045849 1.0789933
000250 80 25 a7 3f 20 6a bd 3f f6 4c d2 3f bc ef e2 3f
       1.3058319 1.4798012 1.6429737 1.7729411
000260 c8 78 f1 3f b6 21 00 40 bc 41 06 40 0b 64 0c 40
       1.8864985 2.0020576 2.097762 2.1936061
000270 00 e3 11 40 24 a9 15 40 54 2b 1b 40 0c b6 1e 40
       2.27948 2.3384485 2.4245195 2.4798613
000280 a8 93 aa be ee f6 b8 3e 19 ae 46 3f c6 3d 86 3f
       -0.33315778 0.36125892 0.776094 1.0487602
000290 65 57 a3 3f 14 a0 b9 3f 24 7e ce 3f 09 18 df 3f
       1.2761046 1.4501977 1.6132245 1.742921
0002a0 ea c5 ed 3f 5f 7b fc 3f bc 55 04 40 cb a0 0a 40
       1.8576024 1.972515 2.0677328 2.166064
0002b0 d5 38 10 40 57 e2 13 40 08 70 19 40 d4 f0 1c 40
       2.2534688 2.3106897 2.3974628 2.452199
0002c0 2e ed 2a be bf 85 03 3f 52 5c 6a 3f 70 3d 97 3f
       -0.1669204 0.51375955 0.9154712 1.1815624
0002d0 29 c0 b3 3f d7 31 c9 3f b7 8f dd 3f c7 88 ed 3f
       1.4043018 1.5718335 1.7309483 1.8557366
0002e0 79 69 fb 3f 46 fd 04 40 aa e4 0a 40 02 af 10 40
       1.9641563 2.0779586 2.1702065 2.2606816
0002f0 12 d7 15 40 2a 58 19 40 4c c0 1e 40 4b fa 21 40
       2.3412519 2.396006 2.4804869 2.5309017
000300 31 34 c0 bc c0 40 29 3f 83 13 88 3f fd e3 a9 3f
       -0.023462387 0.66114426 1.0630955 1.3272702
000310 b1 77 c6 3f b6 c8 db 3f 7f fb ef 3f e7 d2 ff 3f
       1.5505277 1.7170627 1.8748626 1.9986237
000320 f8 d0 06 40 3e 1d 0e 40 5d 01 14 40 69 93 19 40
       2.1065044 2.2205348 2.3125832 2.3996222
000330 c4 92 1e 40 19 14 22 40 d5 64 27 40 8c a0 2a 40
       2.4777079 2.5324767 2.6155293 2.666049
000340 50 77 87 bd 89 df 1c 3f 3d ac 81 3f 5f 17 a3 3f
       -0.06614554 0.6127859 1.0130688 1.2741507
000350 3a 9f bf 3f 7b f4 d4 3f a3 27 e9 3f 3c 14 f9 3f
       1.4970467 1.663711 1.8215221 1.94593
000360 ea 7a 03 40 b5 ba 0a 40 e3 9f 10 40 e6 42 16 40
       2.054377 2.1676457 2.2597587 2.3478332
000370 1a 4d 1b 40 4f e6 1e 40 c0 28 24 40 42 72 27 40
       2.426581 2.482807 2.5649872 2.6163487
000380 b9 84 47 bd b9 e7 21 3f 3a 56 84 3f 09 a1 a5 3f
       -0.04871056 0.63244206 1.0338814 1.2939769
000390 0d 37 c2 3f d5 7e d7 3f c9 c0 eb 3f 2d a5 fb 3f
       1.517305 1.6835581 1.8418208 1.9659783
0003a0 e9 b8 04 40 31 08 0c 40 a8 ee 11 40 30 91 17 40
       2.073786 2.188 2.2801914 2.3682365
0003b0 0c 9c 1c 40 c3 18 20 40 45 6b 25 40 5a b0 28 40
       2.4470243 2.5015113 2.5846722 2.6357636
0003c0 b6 d5 00 be ed 8b 0e 3f 6d f8 75 3f f8 b9 9c 3f
       -0.12581524 0.5568226 0.9608219 1.2244253
0003d0 c2 54 b9 3f a1 db ce 3f 92 3f e3 3f 93 42 f3 3f
       1.4478991 1.6160775 1.7753775 1.9004692
0003e0 41 97 00 40 9b de 07 40 54 c8 0d 40 e0 95 13 40
       2.0092318 2.1229618 2.215352 2.3060226
0003f0 9c c4 18 40 c6 3c 1c 40 eb 97 21 40 90 e8 24 40
       2.387 2.4412093 2.5248973 2.5766945

q_head.mamba.D f4 [18]
000000 90 b9 a3 3f 22 2f a1 3f b5 b5 9d 3f 03 a9 a1 3f
       1.2791004 1.2592509 1.2321078 1.2629703
000010 1b 5d a3 3f d1 d2 9e 3f 78 d6 a4 3f 2f 14 9a 3f
       1.2762789 1.2408086 1.2877951 1.203741
000020 db ca a2 3f d7 fb a1 3f b7 e4 a4 3f ff 1d 9f 3f
       1.2718157 1.265498 1.2882298 1.2431029
000030 0b 92 a0 3f c0 c6 9d 3f 02 7f 9f 3f 75 57 9c 3f
       1.2544569 1.2326279 1.2460635 1.221419
000040 ee 94 a2 3f bf 66 a5 3f
       1.27017 1.2921981

q_head.mamba.in_proj.weight f4 [36, 9]
000000 40 a5 25 bf d7 53 ee be e5 31 81 bd 3a c7 c1 bd
       -0.64705276 -0.4654834 -0.06308345 -0.094618276
000010 26 1e 18 bf f5 d8 b6 be 02 3f 5f bd 31 75 a2 be
       -0.59421 -0.357124 -0.05450345 -0.31730035
000020 0c e3 c7 be a3 ab 17 bf 17 35 0d bf 12 f2 a3 be
       -0.3904041 -0.5924627 -0.55159134 -0.32020622
000030 22 48 81 bd ae c6 f6 bd cb 51 39 bd 42 b8 2d be
       -0.06312586 -0.12049614 -0.04524402 -0.1696482
000040 f7 e5 93 be 84 c9 ad be 27 36 e6 3e b0 de a8 3d
       -0.28886387 -0.33942807 0.4496319 0.08245599
000050 be 07 4f 3e 6e 75 5e 3d 24 2b a6 3e 39 6b dc bc
       0.20217797 0.05431121 0.3245479 -0.026906596
000060 1f 75 bb 3d 5a cb 96 3d b6 3e b0 3e 16 54 79 bd
       0.091531985 0.07363005 0.34422845 -0.060871206
000070 12 70 86 bd 38 e1 93 3d 20 6f a3 3d 0b 81 1e be
       -0.065643445 0.072206914 0.0798018 -0.15478913
000080 39 1d 8c 3e 37 ee b3 3e 58 d4 6a 3e bb 5b 6a bd
       0.27366045 0.3514268 0.22932565 -0.057216387
000090 a8 87 ba 3e 65 8e 19 3f a6 d3 99 3e 7f 87 1d 3f
       0.36431623 0.599829 0.30044287 0.61534876
0000a0 50 0c 0b 3f 4e c1 10 3f 57 c7 40 3d 23 ee f7 3e
       0.5431566 0.5654496 0.047065105 0.4842387
0000b0 01 1b bb 3e c3 b3 e4 be 5f df 89 be ee c0 06 bf
       0.3654404 -0.44668397 -0.2692823 -0.5263814
0000c0 c1 1c b9 bb 59 36 ea be 20 de eb bd d9 99 3a bd
       -0.0056491797 -0.4574459 -0.11516976 -0.045556877
0000d0 00 23 ec be c6 e6 b7 be 6b ad ef 3d cb d7 98 be
       -0.46120453 -0.35918254 0.11702999 -0.29852137
0000e0 f6 d7 56 3d 93 68 de be fd cf 35 3e c4 d7 ae be
       0.05245205 -0.4343916 0.17755122 -0.3414899
0000f0 0d 2c 09 be 3d 82 c6 be e1 8b ae be b1 18 3e 3e
       -0.1339571 -0.3877124 -0.34091094 0.18564107
000100 eb 7b a1 be fa 92 c9 3d 97 d1 db bd ea a0 36 3e
       -0.31539854 0.09842487 -0.107333355 0.17834821
000110 be 4a a0 be 9e ba b2 be b9 ad 21 3c dc 98 1e be
       -0.31307024 -0.34908003 0.009868079 -0.15487999
000120 2f 5c d7 3e c1 80 8f 3e bc 34 53 3e d3 b9 f3 3e
       0.42062518 0.2802792 0.20625585 0.4760271
000130 5e f8 f2 3e 4d 5f 29 3d a8 fe 7f 3e a4 4f a2 3e
       0.47455114 0.04135065 0.24999487 0.31701386
000140 1a 26 d4 3e 3b 83 79 bb 2e a5 de bd e9 75 ee be
       0.4143532 -0.0038072604 -0.10871349 -0.46574333
000150 b2 55 2c be 0b 0f d0 bd 70 c8 f3 be 95 bc e9 be
       -0.16829565 -0.10159119 -0.4761386 -0.4565169
000160 1b fe 67 be 72 ee 8b be 7f 5b 29 bf 7b de 1e be
       -0.22655527 -0.27330357 -0.66155237 -0.15514557
000170 94 63 c6 bd 10 d6 0a bf 63 c6 06 bf c6 ca 05 bf
       -0.09686962 -0.54232883 -0.52646464 -0.5226253
000180 52 5c 76 be 9d 3b 0e bf 35 e5 9b be d0 65 56 3d
       -0.24058655 -0.5555971 -0.3044831 0.05234319
000190 4e d0 28 3e 16 c0 85 be 82 2f 27 3e c7 56 75 3c
       0.16485712 -0.26123112 0.16326717 0.014974303
0001a0 ab ba ea 3d c5 66 a4 be 44 76 68 be 47 86 33 3e
       0.11461385 -0.32109657 -0.22701365 0.17531691
0001b0 ca 9a 9f 3e 20 42 95 be d2 89 61 3e dd 78 a5 3e
       0.31172782 -0.29152012 0.2202523 0.32318774
0001c0 e1 8f 00 be af 20 5c 3e 89 5a ce 3e 21 0a 60 bd
       -0.12554885 0.21496843 0.40303448 -0.05469716
0001d0 03 ce eb 3d dc 30 91 be 3f f2 fc be 81 7f 22 bf
       0.11513903 -0.2835759 -0.4940357 -0.63475806
0001e0 e0 77 cc be 96 fc ea 3c a5 28 43 be 95 ef e1 3c
       -0.39935207 0.028684895 -0.19058473 0.027580062
0001f0 2b 6a 20 bb 4e ce 99 be 1c 96 88 bd 72 03 e1 bd
       -0.0024477344 -0.3004021 -0.06669256 -0.10986985
000200 df 7d ef bb 27 a3 7d be ec fa e5 be 2c 97 0e be
       -0.007308706 -0.24769269 -0.44918 -0.13924855
000210 0b cb f8 be ab 0e 0c bf a3 60 d0 be c6 66 94 3e
       -0.4859241 -0.5470988 -0.40698728 0.2898466
000220 da a3 d1 bd da 39 34 3d d7 40 02 3e 06 9c 64 be
       -0.1023633 0.044000484 0.12720047 -0.22325143
000230 a6 22 85 3b fa 36 09 3f e2 b1 0e 3f 7d 00 31 3e
       0.0040629683 0.5359951 0.5574018 0.17285343
000240 72 5d 11 be 20 58 09 bf ed 1f 9f be c5 d8 03 bf
       -0.14195803 -0.53650093 -0.31079045 -0.5150264
000250 6a b4 d9 be 76 46 97 bc 4b c2 e4 be 62 49 ee be
       -0.42520458 -0.018466216 -0.44679484 -0.46540362
000260 8d 11 8a be df 66 0e 3f ef 23 02 3e b9 11 e9 3e
       -0.26966515 0.5562572 0.1270902 0.45521334
000270 d5 16 03 3f cd 35 e0 3e 29 06 31 3f ba 39 01 3f
       0.51206714 0.43791047 0.69150025 0.5047871
000280 d8 92 05 3f bf 63 dc 3e de f8 9d 3e af e2 b4 3d
       0.5217719 0.4304485 0.30853933 0.08832299
000290 7b f0 d4 3e 43 52 e9 3d 9e 4a 95 3e 63 99 00 3f
       0.41589722 0.11392643 0.2915849 0.5023405
0002a0 41 bd 19 3f 75 62 12 3f be 03 87 bd fe ff 57 be
       0.60054404 0.57181484 -0.06592511 -0.21093747
0002b0 03 70 1d 3e d0 ef 9f be bf 8e a7 bd 5c 4d 7c 3d
       0.1537476 -0.3123765 -0.081815235 0.061597213
0002c0 12 08 e0 be 5a c8 12 bf 9d 86 1a bf ac 26 85 be
       -0.43756157 -0.5733696 -0.60361654 -0.26006067
0002d0 67 da 13 bf 4c 82 b9 be af c0 e3 be 19 6c fc 3d
       -0.5775513 -0.3623222 -0.44482943 0.123253055
0002e0 2a 43 02 3e 16 06 94 be a1 d4 09 bf 46 70 5f be
       0.12720934 -0.28910893 -0.5384007 -0.21820173
0002f0 6d 51 be bd b0 f2 f9 be a4 e5 2e be 40 45 24 be
       -0.092928745 -0.48817968 -0.17079788 -0.16042042
000300 b4 0f 05 3e 58 22 ba 3c cb d8 0c bf 17 f8 02 3c
       0.12994272 0.022721455 -0.550183 0.00799372
000310 7b a4 67 be dc 1a be be e8 9e b5 3e 30 f0 a2 3d
       -0.22621338 -0.37129867 0.35472798 0.079559684
000320 5a ca fe 3d f9 53 14 3e 6b 6f bc 3c 2d 70 0d 3f
       0.12440939 0.14485158 0.023002347 0.5524929
000330 8c e5 16 3e ce 33 ce 3e 1f 35 5d 3e b9 06 0a 3f
       0.14736003 0.402739 0.21602295 0.5391651
000340 5a eb ab 3e 43 f0 3f 3d 2b 2d fd 3e 44 9f 8d 3e
       0.33577996 0.04685999 0.49448523 0.27660573
000350 45 87 56 3e 43 82 8b 3e de 14 84 3e 19 24 da 3e
       0.20950039 0.2724782 0.2579717 0.42605665
000360 9e 76 7f be ec 39 fc 3d e7 c8 69 bd 0b b8 9c be
       -0.24947593 0.12315735 -0.05707636 -0.30609164
000370 9f 63 08 be 37 22 06 bf 24 9e 00 bf 39 dc b4 be
       -0.13319252 -0.5239596 -0.50241303 -0.35324267
000380 f8 e0 20 bd a1 56 e9 3d 4c 39 60 3d 69 65 c7 3e
       -0.039277047 0.11393476 0.054742143 0.38944557
000390 56 cf ff 3e 9c cf a3 3d dd 74 1a 3d 36 21 e8 3e
       0.49962872 0.07998583 0.037709106 0.45337838
0003a0 59 de 6d 3e 8d 92 3e 3e 64 f5 8f 3e d5 8f 45 3e
       0.2322935 0.18610592 0.28116906 0.19293149
0003b0 94 d6 0d bd fd 19 df 3d 16 62 5a bc 03 5d 02 3f
       -0.034628466 0.10893629 -0.01332905 0.50923175
0003c0 bb 7f 51 3d 00 fe 1a 3f c1 e2 8b bd 6b d4 27 bf
       0.051147204 0.60543823 -0.06830359 -0.655585
0003d0 c6 aa 8f be 9b 3e dd be a6 18 93 3d 3a 66 2c 3d
       -0.28059977 -0.43211827 0.07182436 0.04208968
0003e0 9a 1f f6 be 8d 71 cf be 3f b2 10 bf 2d 3f 5f be
       -0.48070985 -0.4051632 -0.5652198 -0.21801443
0003f0 5e 33 23 bf bb 5d 22 be 20 39 12 bf a9 9d 7f 3c
       -0.63750255 -0.15856068 -0.57118416 0.015601554

q_head.mamba.conv1d.weight f4 [18, 1, 4]
000000 80 80 89 bc b4 9c f3 3e 78 aa 0d bf 3b af 22 bf
       -0.016784906 0.47580492 -0.5533824 -0.6354863
000010 d0 13 2e bd a0 ff b9 bd d2 42 91 3e 31 36 0a 3f
       -0.042499363 -0.0908196 0.28371292 0.5398894
000020 1e 34 c7 be e4 d3 ed 3e 05 6a 17 bc 38 96 04 bf
       -0.3890695 0.46450722 -0.009241586 -0.51791716
000030 44 eb c2 be 40 43 ef bc 5f 5d 0b 3e 19 21 9e be
       -0.38070118 -0.029206872 0.13609837 -0.30884627
000040 e8 77 66 be 24 c1 80 3e 72 a6 af 3e d4 d4 cd 3e
       -0.22506678 0.25147355 0.34306675 0.40201437
000050 00 0e f2 3a 9c c8 52 be 66 de 52 3e 58 cd cf 3e
       0.0018467307 -0.20584339 0.20592651 0.40586352
000060 3c f6 4c 3e 42 74 93 3e e6 22 29 3f ed 52 4c 3e
       0.20015806 0.28799635 0.66068876 0.19953509
000070 38 24 cc be d4 db 15 3e 6a a1 8c be 6f 2c be 3e
       -0.39871383 0.14634639 -0.274669 0.37143275
000080 c4 ec 03 be 00 3c 7f 3a 89 50 02 3f ba 40 1d 3e
       -0.12883288 0.0009736419 0.50904137 0.15356722
000090 b8 a2 8c bd 04 40 89 3e 7e d4 ab 3e fb 0c fe 3e
       -0.06866974 0.26806653 0.33560556 0.49619278
0000a0 f8 48 f6 3e e8 79 d1 3d 58 cb 47 bf 5c 56 4c bf
       0.48102546 0.1022833 -0.7804465 -0.79819274
0000b0 be 32 a0 3e b0 20 1f 3d 02 7b 9c be 80 3e 9f 3e
       0.31288713 0.038849533 -0.30562598 0.3110237
0000c0 c4 02 75 3e 58 fc 3c 3e ca 51 49 3e 7d a6 af be
       0.23926836 0.18455637 0.19660106 -0.34306708
0000d0 ae ea a4 3e 14 a5 71 3e 49 44 be be 80 58 3e bf
       0.32210296 0.23598129 -0.37161472 -0.7435379
0000e0 28 f5 b2 be 68 f3 d8 3e b6 54 d5 bd e9 80 f9 be
       -0.34952664 0.42373204 -0.10416548 -0.48731163
0000f0 a4 64 f1 3e 2c b3 94 be 3e 0b 85 3c 5b 21 e4 be
       0.47147095 -0.29042947 0.016240712 -0.44556698
000100 50 3c 67 3e 28 a8 f1 3e da ca 37 3f 29 15 24 3f
       0.22581601 0.47198606 0.717939 0.6409479
000110 b8 40 b3 3e 10 7b f7 3e 15 9a 93 3e 1e 3b b6 3e
       0.35010314 0.48336077 0.28828493 0.35591978

q_head.mamba.conv1d.bias f4 [18]
000000 d2 2c 03 3f be 75 48 bf 1c 8f fb be bb 38 d7 be
       0.51240265 -0.7830466 -0.4913262 -0.4203547
000010 14 98 2e 3f d8 72 b5 be 1e 28 f7 be 05 5f b1 be
       0.682008 -0.3543918 -0.48272794 -0.34642807
000020 0a 42 d7 3e 40 ac 3b bf f0 81 49 3f f6 49 0e bf
       0.4204257 -0.7330971 0.78713894 -0.55581605
000030 b9 a7 46 bf 76 5c 23 3f e1 bc ec 3e a9 74 0b bf
       -0.77599674 0.6381296 0.46237853 -0.54474884
000040 03 88 fe be fd 98 fa 3e
       -0.49713144 0.48944846

q_head.mamba.x_proj.weight f4 [33, 18]
000000 8a b1 ff 3e be f7 c4 be 1d e7 0c be 4f cb 00 bf
       0.4994014 -0.38470262 -0.13760038 -0.50310224
000010 26 eb 3e 3e ca 98 e6 be fe 2b 90 be 63 36 90 be
       0.1864439 -0.45038444 -0.28158563 -0.28166494
000020 36 eb 3d 3e ca d6 14 bf 21 8c c4 3e 85 77 56 be
       0.18546757 -0.5814024 0.3838816 -0.2094403
000030 d5 8a a9 be 9c 61 7f 3e 9c f5 57 3e fe 44 dd be
       -0.33113733 0.24939579 0.21089786 -0.432167
000040 72 b5 cd be dd 87 15 3f a5 f8 82 be 76 e7 17 3f
       -0.40177494 0.58410436 -0.25580326 0.59337556
000050 6c 47 ac 3e 49 d1 27 3e 03 c6 6c be d8 86 04 3f
       0.3364824 0.1638843 -0.2312241 0.51768255
000060 04 3f 99 3e 1f 30 b4 3e de d0 2d be 72 95 02 3f
       0.2993089 0.35192963 -0.16974208 0.51009285
000070 7b 78 6b be 3a a6 db 3e 09 dc ee 3e 2e ac 17 bf
       -0.22995178 0.42900258 0.46652249 -0.592471
000080 c7 1c 03 bf a1 9f bd 3e f5 fc 03 3f 8f 75 f4 be
       -0.51215786 0.3703585 0.51557857 -0.4774594
000090 6c c0 b1 be b3 97 5e 3e 51 6c d5 3e 43 32 aa 3e
       -0.3471712 0.21737556 0.416842 0.33241472
0000a0 a2 9f ef be 32 e3 e7 3e 09 22 00 3f ee c3 b1 3e
       -0.46801478 0.45290524 0.50051934 0.34719795
0000b0 30 90 0d bf 96 46 da 3e 44 11 a1 be 7e e2 12 3e
       -0.5529814 0.42631978 -0.31458485 0.14344212
0000c0 b3 8f 0d 3f 8a f1 0f be 50 c5 a8 be 69 ee 41 3e
       0.5529739 -0.14056984 -0.32963037 0.18938603
0000d0 39 16 c4 3e b6 e5 ad be 43 2c f3 3e 49 0c 92 be
       0.38298205 -0.33964318 0.47494707 -0.28524998
0000e0 c3 74 57 be 8a 64 ac be 90 37 91 3e c8 7f 33 be
       -0.21040635 -0.33670455 0.28362703 -0.17529213
0000f0 1f 52 f7 be 18 ba 98 be 11 67 72 3e 70 69 ca be
       -0.4830484 -0.29829478 0.23672129 -0.39533567
000100 d0 e2 e0 3e db 5f e2 be b9 30 98 be f8 43 4b 3e
       0.43923044 -0.44213757 -0.29724672 0.19850147
000110 e1 cd 48 3e 05 c6 3d be cb 7c 5e be 80 fc e1 3e
       0.19609787 -0.1853257 -0.21727292 0.44137955
000120 a7 51 14 bf 3e e5 b1 3e 8b fe 32 3e 82 fa 82 3e
       -0.5793709 0.3474521 0.17479913 0.25581747
000130 5f b7 dd be b3 9a 22 3e 95 68 85 3e bf f9 fc 3e
       -0.43303964 0.15879326 0.26056352 0.4940929
000140 f4 d2 71 be 55 53 88 3e d2 1d cc be 8d 1c 3c 3e
       -0.23615628 0.26626077 -0.398665 0.18370266
000150 b9 52 c8 3e db fd 64 be ab 42 a2 be f7 13 31 3e
       0.39125612 -0.22362463 -0.3169149 0.17292772
000160 cd 8f ac 3e aa fb ac be b6 d8 fb be 4e bf 04 3e
       0.3370346 -0.33785754 -0.49188775 0.12963602
000170 9b c6 6f 3e b1 66 f5 3e 6b 80 15 bf e6 40 04 3f
       0.23415606 0.4792991 -0.58399075 0.5166153
000180 06 de 97 3e 78 ca e1 3d ff c8 dd be ad f6 fe 3e
       0.29661578 0.11024946 -0.4331741 0.49797574
000190 3e b9 b7 be 9e 2e 0a 3f 77 7a 53 3e 76 9f 31 be
       -0.35883516 0.5397738 0.20652185 -0.17345986
0001a0 0c 1b ff be d1 3e b1 3e 10 71 8e 3e c5 00 c8 be
       -0.49825323 0.34618238 0.27820635 -0.39063087
0001b0 19 47 ad 3e fd 46 b4 be 3c c2 cf be 6f 9c 72 be
       0.33843306 -0.3521041 -0.40577877 -0.23692487
0001c0 5b 98 e3 3e 0a 3f de be 82 06 99 be 82 ba 0b bf
       0.44452175 -0.4340747 -0.29887778 -0.54581463
0001d0 6e b4 b1 3e c9 d8 84 be 03 0b dd 3e e0 f1 f8 be
       0.3470797 -0.25946644 0.43172464 -0.48622036
0001e0 1b 27 ad be 68 be 15 3f 20 47 81 3e c6 68 06 bf
       -0.33818898 0.5849366 0.25249577 -0.5250362
0001f0 bd 03 e3 be ec c7 17 3f 48 d2 15 bf 2c da 3f 3e
       -0.4433879 0.5928943 -0.5852399 0.1873557
000200 c9 78 6d 3e d8 18 c7 3e 2f 57 06 bf f4 87 00 3f
       0.23190607 0.38886142 -0.5247678 0.5020745
000210 b3 e1 03 3e 3f 01 58 3e da 5a 78 be d8 7d d4 3e
       0.12879066 0.21094225 -0.24253407 0.4150226
000220 40 05 13 bf f7 76 1b 3e 1c ba 1b 3e a2 04 51 be
       -0.57429886 0.151821 0.15207714 -0.20411924
000230 42 ac 38 be 3e 28 8d 3e f0 1a 1c 3e 3c 8b 87 be
       -0.18034461 0.27569765 0.15244651 -0.26473415
000240 8c 4c 81 be 61 23 09 3f 2e 79 27 3e 44 44 88 3e
       -0.25253713 0.5356961 0.1635482 0.26614583
000250 dd bf c6 be 24 52 10 3f 23 7c 72 3e de 6c b5 3e
       -0.38818255 0.56375337 0.23680167 0.35434622
000260 1a 04 d6 be 5f 19 6f 3e 87 d3 19 bf 00 30 0b 3f
       -0.41800004 0.23349522 -0.6008839 0.5437012
000270 a7 b9 20 3e 18 03 1f be 38 a8 c4 be f2 87 88 3e
       0.15695821 -0.15528524 -0.3840959 0.26666218
000280 34 54 82 3e e4 32 03 bf 94 77 e9 3e d8 cf 6b be
       0.25454867 -0.5124953 0.45599043 -0.23028505
000290 a5 47 02 bf 38 a1 a6 be 0d da b1 3e b4 ba 6f be
       -0.5089057 -0.32544875 0.34736672 -0.23411065
0002a0 85 86 0a bf a4 30 ad be 83 80 0f 3f 23 4d fd be
       -0.5411151 -0.33826172 0.5605547 -0.49472913
0002b0 57 34 0a 3f ad a3 f4 be f4 2c cd be 04 23 91 3e
       0.53986114 -0.47781125 -0.4007336 0.28347027
0002c0 3a 25 26 3e 67 69 13 bf 61 eb bd be e6 bb 8a 3e
       0.16225138 -0.57582706 -0.37093642 0.2709648
0002d0 ed 85 fa be 14 90 dd 3e f7 e2 8b 3e 1e 3e fd 3e
       -0.48930302 0.43273985 0.27321598 0.49461454
0002e0 8b 9f 97 be 8b 93 d1 3e 50 42 0b 3f 08 f9 a4 3e
       -0.2961391 0.4093288 0.5439806 0.32221246
0002f0 cc a7 df be c3 e2 f7 3e 43 5f 04 bf 97 dc 33 3e
       -0.43682706 0.48415193 -0.5170786 0.17564617
000300 68 06 06 3f 71 04 e2 be f9 36 78 be 23 c4 9d 3e
       0.52353525 -0.44144014 -0.2423972 0.30813703
000310 9d ac 3d 3e 8d 9a 31 be 7d 6b 49 3e ad f5 6f be
       0.18522878 -0.17344113 0.1966991 -0.23433562
000320 b0 54 26 be c8 58 07 bf 31 f9 ec 3e b9 5e 2a be
       -0.16243243 -0.52869844 0.46283868 -0.16637696
000330 d0 da 71 be 88 8e 11 bf f9 10 5e 3e 36 9c 01 bf
       -0.23618627 -0.5685811 0.21686162 -0.50628984
000340 e0 75 72 3e 37 e5 0c bf 68 8f dd be f0 49 d3 3e
       0.23677778 -0.55037254 -0.43273473 0.41267347
000350 e7 5f 89 3e 96 ce b6 be f2 27 16 bf 14 48 22 3e
       0.2683098 -0.35704488 -0.586547 0.15847808
000360 50 15 a9 be 3c 3f b7 3e 95 2b cb 3e 61 11 d6 3e
       -0.33024073 0.35790431 0.39681688 0.41810134
000370 f3 09 65 be 92 d5 17 3e e4 21 20 3e b0 53 66 3e
       -0.22367077 0.14827564 0.15637928 0.22492862
000380 72 ea 3c be b3 40 81 3e c9 14 dc be 65 03 e0 3e
       -0.18448809 0.25244674 -0.42984608 0.4375259
000390 29 44 0a 3f 42 37 04 bf 97 ca 02 bf 1e 27 de 3d
       0.54010254 -0.51646817 -0.5109038 0.10847305
0003a0 d9 4d b6 3e 5f 82 5a be 1e 2e ca be c3 ad 6b 3e
       0.35606268 -0.21338795 -0.3948831 0.23015504
0003b0 d5 2f 06 3f 56 7a f7 3e fc 56 ad be 14 af 34 3e
       0.52416736 0.48335522 -0.33855426 0.17644912
0003c0 5e 05 d0 3e 10 06 da 3e d5 39 d7 be dd 5d 23 3e
       0.40629095 0.4258275 -0.4203631 0.15953775
0003d0 f9 f9 ac be 17 df ec 3d 08 08 ec 3d d8 c6 82 be
       -0.33784464 0.115659885 0.11524969 -0.2554233
0003e0 31 20 01 bf d5 36 05 3f 1e 3c ca 3e c2 09 d7 be
       -0.50439745 0.5203679 0.3949899 -0.41999632
0003f0 de 8e c9 be 4e c9 5f 3e ee 79 58 3e 4d 50 4a 3e
       -0.39366812 0.21854135 0.21140262 0.19757195

q_head.mamba.dt_proj.weight f4 [18, 1]
000000 fc 93 a8 3f bc e3 80 3f 3a e6 33 be 7e 76 72 3e
       1.3170161 1.0069499 -0.17568293 0.23678014
000010 02 c3 b9 3e 8c e4 35 3f 49 e3 81 3f 2a 33 9e 3f
       0.36281592 0.7105186 1.0147487 1.2359364
000020 45 bc e5 3e e2 3e 94 3f 44 80 3e 3f d9 be 1e 3f
       0.448702 1.158169 0.7441447 0.6200996
000030 50 26 56 3e 33 4d c8 3e 54 4c 38 bd 22 01 04 bf
       0.20913053 0.39121398 -0.044994667 -0.5156423
000040 05 24 9f 3f dc 2f 3b bd
       1.2432867 -0.04569994

q_head.mamba.dt_proj.bias f4 [18]
000000 e4 35 a3 c0 a9 26 ab c0 c5 1e 86 c0 42 10 1f c0
       -5.1003284 -5.3484693 -4.191256 -2.4853673
000010 5b 68 6a c0 8f a2 fe bf 12 62 6a c0 fb 78 b6 c0
       -3.6626194 -1.9893359 -3.6622357 -5.702268
000020 fa 02 b2 c0 3c 19 71 c0 fb 34 39 c0 06 e7 9b c0
       -5.5628633 -3.7671652 -2.8938587 -4.871951
000030 db 39 cb c0 d3 08 d2 c0 7f 25 d0 c0 f9 79 8b c0
       -6.3508124 -6.563577 -6.504577 -4.3586392
000040 c8 cd a8 c0 ce 7c 12 c0
       -5.27512 -2.2888675

q_head.mamba.out_proj.weight f4 [9, 18]
000000 0d cf 54 be 83 04 da be 7f e5 e0 be 60 92 83 be
       -0.20782109 -0.42581567 -0.43925092 -0.25697613
000010 f3 e4 00 bf c9 4b e5 3e 49 9e da be 32 9b 15 3e
       -0.5034935 0.44784382 -0.42698887 0.14609984
000020 7f 70 fa be b1 b0 cb be d9 d0 ee 3e 20 93 37 3e
       -0.48913953 -0.39783242 0.46643713 0.17927217
000030 f1 7c 1b 3d 64 8e 50 be e2 e6 a0 be ba 33 e8 3e
       0.03796095 -0.20366818 -0.3142615 0.45351964
000040 07 53 a2 be fb c1 1c 3e 28 2f af 3e 24 ea 48 3e
       -0.3170397 0.15308373 0.34215665 0.19620568
000050 f1 ea c4 3e d8 00 85 3e 00 ff 8f 3e e5 20 e8 bd
       0.38460496 0.25977206 0.28124237 -0.11334399
000060 62 f2 02 3f 01 ae 32 3c 60 6f c2 3e dd a6 ae 3e
       0.51151097 0.010905744 0.37975597 0.34111682
000070 ba 7e a1 be fb 83 be be dc 90 31 be 34 fc 92 3e
       -0.31541997 -0.37210068 -0.17340416 0.2870804
000080 ac 17 5e 3e 0f b3 6a be 64 83 9a 3e 08 59 ff be
       0.21688718 -0.22919868 0.30178368 -0.49872613
000090 ed 7c d4 be 1e c4 a8 bd ab f5 8b be 44 4b f0 be
       -0.4150156 -0.082405314 -0.27335867 -0.46932423
0000a0 18 c4 4d be a3 6d c7 3e 0f 8d 3e be a1 a8 cd 3e
       -0.20094335 0.38950834 -0.18608497 0.40167716
0000b0 2b e1 12 be 64 b8 d9 be 4b be 02 3f 44 1b 95 3e
       -0.14343707 -0.4252349 0.51071614 0.29122365
0000c0 fa ab e7 3e 57 e0 dc be c8 88 bf be 6a 2e c6 3e
       0.45248395 -0.43139908 -0.37409043 0.38707286
0000d0 c4 32 a3 be 24 b7 d0 3e 26 ff 09 3f bd bd 49 3e
       -0.3187467 0.40764725 0.5390495 0.19701286
0000e0 86 be 09 3e 03 b4 50 3e f4 48 ee 3e 92 25 81 be
       0.13451585 0.20381169 0.46540034 -0.25223976
0000f0 b0 e7 67 3e fe c4 8c be 38 f4 23 3e f1 4e d5 3e
       0.22646976 -0.27494043 0.16011131 0.4166179
000100 ef ef c5 be 4b 0f a4 be a0 25 d7 bd 13 07 4e 3e
       -0.38659617 -0.32042918 -0.10505223 0.20119886
000110 6b ff 5e 3e ac 90 b7 be 76 cf b9 3e 50 6d db be
       0.21777122 -0.35852563 0.36291093 -0.42856836
000120 7f 82 88 3e 05 d8 f5 3e 7e bf c7 3e 61 73 cc 3e
       0.2666206 0.48016372 0.39013284 0.39931777
000130 8f 0f 05 3e 24 5c c9 bd eb 2b e6 3e 7e 1c 1c be
       0.12994216 -0.098320276 0.44955382 -0.15245244
000140 69 58 a8 3e dd 09 95 3e e1 65 45 be 83 fb c2 be
       0.32879952 0.29109088 -0.19277145 -0.38082513
000150 1c 19 a4 be d4 63 62 3e f3 c9 35 3e e7 10 7d be
       -0.32050407 0.22108394 0.17752819 -0.24713479
000160 fb 38 a1 3e 31 ae c3 be b7 20 a5 be 93 ef e8 be
       0.31488785 -0.38218835 -0.32251522 -0.4549528
000170 bc 17 9b be 72 33 fc be a5 81 07 be 34 0a eb 3e
       -0.30291545 -0.49258 -0.13233049 0.45906222
000180 9e 5e 2b be 06 64 af 3e b3 55 71 be d5 ac 85 be
       -0.16735312 0.34256 -0.23567848 -0.26108423
000190 60 56 15 3f b7 57 ca 3e e9 b5 b0 3d b4 9f c7 bd
       0.5833492 0.39520046 0.086284466 -0.09747258
0001a0 d3 09 c9 be 31 ba 0b 3e 0e bf f8 be cc e5 fd 3e
       -0.39265308 0.13645245 -0.48583263 0.49589384
0001b0 24 5d ba bd 34 68 d6 be 51 de d7 be 61 3a d6 be
       -0.090997964 -0.41876376 -0.421618 -0.41841415
0001c0 36 47 3d be e2 61 a4 3d 57 8d 0e bf 44 60 a5 3e
       -0.18484196 0.08026482 -0.5568442 0.32300007
0001d0 af f2 98 bd 31 2c fb be f4 49 f1 3e 49 e4 c9 3e
       -0.07468163 -0.49057153 0.47126734 0.3943198
0001e0 af a1 e8 3e 6c 87 a6 be 23 ed ce be b2 2f 80 3e
       0.45435855 -0.32525194 -0.40415296 0.2503639
0001f0 3f f5 cb bd 3f ba 5b 3e 8d 6c 77 be eb ae ba be
       -0.09958886 0.21457766 -0.24162503 -0.36461577
000200 41 09 45 be 88 e4 92 be 64 dc fb be 97 5e e1 3e
       -0.19241811 -0.2868998 -0.49191582 0.4401748
000210 8e 5e 81 be 30 73 e6 3e 4d d5 dd be 7f 94 9a be
       -0.25267452 0.45009756 -0.43326798 -0.3019142
000220 7d 24 04 3f f9 3c 16 3e 1b d5 b2 3e 2d 7d 12 be
       0.51618177 0.14671697 0.34928212 -0.14305563
000230 5f 17 96 be 11 07 e8 3e 02 c2 9b be 35 fe 9c 3e
       -0.29314706 0.4531789 -0.30421454 0.30662695
000240 a1 89 d5 3e 28 b0 b6 3e 4e 09 91 3d cf 8c fe 3d
       0.41706565 0.35681272 0.07081853 0.12429201
000250 85 4e 80 3e 8b d0 a3 be 6d 4e 00 3f c3 59 2c be
       0.25059906 -0.31995043 0.5011967 -0.16831116
000260 a6 e6 6d 3e a0 b2 07 3f b7 48 14 be 5a c4 c6 bb
       0.23232517 0.53006935 -0.14480864 -0.0060658874
000270 1b 04 23 be 66 0c 12 3e 39 06 8b 3e fc 00 a7 be
       -0.15919535 0.14262542 0.27153185 -0.3261794
000280 3e 3a 48 3e 68 9d f4 be
       0.19553468 -0.4777634

q_head.final_norm.gamma f4 [9]
000000 00 00 80 3f 00 00 80 3f 00 00 80 3f 00 00 80 3f
       1.0 1.0 1.0 1.0
000010 00 00 80 3f 00 00 80 3f 00 00 80 3f 00 00 80 3f
       1.0 1.0 1.0 1.0
000020 00 00 80 3f
       1.0

ema_model.q_head.action_bin_embeddings f4 [2, 256, 9]
000000 22 b6 45 3e 8e 75 da bd d3 48 52 3e ab 11 10 be
       0.1930776 -0.10666953 0.20535593 -0.1406924
000010 f1 f6 c1 bd 21 d6 2b 3e d4 19 2b 3e de f2 40 3e
       -0.094709285 0.16780902 0.16709071 0.18842646
000020 40 0a 1c be 45 c2 29 3e 0d 12 10 be 92 9b 52 3e
       -0.15238285 0.16578014 -0.14069386 0.20567158
000030 66 91 13 be 83 e9 fb bd 86 f9 43 3e 47 49 59 3e
       -0.14410934 -0.12300398 0.19138154 0.2121936
000040 8b d7 5a 3e 4d 40 20 be c4 42 23 3e 5b 7c 07 be
       0.21371286 -0.15649529 0.15943438 -0.13231032
000050 5d 76 2f 3e 60 12 42 be 7f 54 f3 bd 21 33 2b 3e
       0.17134996 -0.18952322 -0.11881351 0.16718723
000060 fb 11 54 3e 10 e1 1a 3e 4c 67 20 be 26 51 12 3e
       0.20709984 0.15124917 -0.15664405 0.14288768
000070 06 84 ea bd 28 bc 6c 3e a8 05 2b be 8e 80 ec bd
       -0.11450963 0.23118651 -0.16701376 -0.11547957
000080 58 e4 2f 3e 8b 0b 48 3e 27 bb 57 3e 83 ad fd bd
       0.1717695 0.19535653 0.21067487 -0.1238661
000090 a6 ad 04 3e f9 00 0e be d9 04 67 3e 60 73 22 be
       0.12956867 -0.13867559 0.22560443 -0.15864325
0000a0 3f 85 03 be 5e ca 34 3e e7 88 3e 3e df e6 43 3e
       -0.12843798 0.17655322 0.18606912 0.19131039
0000b0 49 db c2 bd 52 41 3c 3e b4 39 11 be 0c 9a 44 3e
       -0.095144816 0.18384293 -0.14182168 0.19199389
0000c0 62 22 1c be 17 be e0 bd 74 3f 17 3e 81 2a 29 3e
       -0.15247491 -0.10973757 0.14770299 0.1652012
0000d0 59 af 5f 3e cb f7 11 be ae ad 37 3e ae a2 29 be
       0.21844234 -0.14254682 0.17937347 -0.16565964
0000e0 bf 8a 47 3e ff bc 21 be 68 c5 1a be d1 d4 3f 3e
       0.19486521 -0.15794753 -0.15114367 0.18733527
0000f0 02 76 63 3e 2d cc 2b 3e 3c 19 13 be 27 9f 2a 3e
       0.22212985 0.16777106 -0.14365095 0.16662274
000100 15 04 05 be 79 ed 51 3e 66 a1 27 be 6e 08 b9 bd
       -0.12989838 0.20500745 -0.16370162 -0.09034811
000110 c2 c2 5d 3e 9c 9a 00 3e 90 2a 56 3e ad 3a 16 be
       0.21656325 0.12558979 0.20914674 -0.1467082
000120 ab f0 04 3e 2c 67 fc bd f5 e1 41 3e a4 71 17 be
       0.12982433 -0.12324366 0.18933852 -0.14789444
000130 e0 b7 e7 bd d7 d4 32 3e a5 23 22 3e b3 f3 1f 3e
       -0.11314368 0.17464004 0.1583391 0.15620308
000140 7c 8d c1 bd 47 2b 57 3e 3a c1 e6 3c 04 0f 46 3e
       -0.09450814 0.21012603 0.02816831 0.19341666
000150 80 b6 8b bd c5 cf bf 3d ea 48 59 3e d8 32 42 3e
       -0.068219185 0.09365801 0.21219221 0.18964708
000160 b7 45 7e 3e 19 4d ba ba e6 30 f2 3d a6 9a 0b bd
       0.24831282 -0.0014213651 0.11825733 -0.03408303
000170 63 d4 f3 3d 87 71 96 bc 59 37 45 bd 6e 0b 14 3e
       0.11905744 -0.01836468 -0.048148487 0.14457485
000180 56 b9 1a 3e 3e a1 38 3e 9a 83 93 bd 70 7d 3c 3e
       0.15109763 0.18030259 -0.072028354 0.18407226
000190 36 77 28 be 0b 94 51 3e 3d f4 15 be 66 3c fe bd
       -0.16451725 0.2046663 -0.14643951 -0.12413864
0001a0 db 0a 45 3e 88 0e 1a 3e 66 ef 3b 3e 04 90 d9 bd
       0.19242422 0.15044606 0.18353042 -0.10623172
0001b0 c1 1f 53 3e cb 8b 23 be d1 d4 3a 3e b7 2d 38 be
       0.20617582 -0.15971296 0.18245246 -0.17986189
0001c0 73 1d 18 be 19 aa 54 3e 74 b7 37 3e 1c f8 40 3e
       -0.14854984 0.20768012 0.17941076 0.18844646
0001d0 cd cf 2c be 74 15 3b 3e a2 4b ed bd 3f 30 3c 3e
       -0.16876145 0.18269902 -0.115866914 0.1837778
0001e0 ec 6d 28 be 9e c6 e9 bd aa d1 47 3e a2 19 45 3e
       -0.16448182 -0.11414836 0.19513574 0.1924806
0001f0 c7 89 2f 3e c0 40 d0 bd 86 d0 1c 3e 1d d6 0c be
       0.17142402 -0.101686 0.1531392 -0.13753553
000200 eb 1d 4f 3e 3d f2 1c be f2 f4 d7 bd 4b df 1a 3e
       0.20226257 -0.15326782 -0.105447665 0.15124242
000210 d3 ad 43 3e 60 15 4b 3e 8b 3e c2 bd 7a f2 2e 3e
       0.19109277 0.19832373 -0.094845854 0.17084685
000220 e8 3a 10 be 1b d6 41 3e 99 c7 21 be ce bd 02 be
       -0.14084971 0.18929331 -0.15798797 -0.12767717
000230 ec a1 53 3e 19 43 19 3e cb 5c 30 3e 6b 0b ca bd
       0.20667237 0.14967002 0.17222898 -0.09865459
000240 c8 dc 19 3e 3c b1 e9 bd 42 d5 23 3e 32 24 1e be
       0.15025628 -0.11410758 0.1599932 -0.15443495
000250 f9 81 ec bd 1c 77 33 3e 9d 31 2f 3e 65 65 56 3e
       -0.11548228 0.17525905 0.1710877 0.20937116
000260 8a 1e 0f be d4 ac 38 3e 3e 86 1c be 24 36 3d 3e
       -0.13976493 0.18034679 -0.15285584 0.18477684
000270 ca ac 11 be 93 8a 10 be 85 83 36 3e 50 de 31 3e
       -0.1422607 -0.14115362 0.17823608 0.17369962
000280 ea 0d 30 3e 4d 56 1e be 7d 02 31 3e 9d cf e5 bd
       0.17192808 -0.15462609 0.17286105 -0.1122124
000290 a8 7a 32 3e 76 20 20 be c6 09 c8 bd dc df 32 3e
       0.17429602 -0.15637383 -0.09767489 0.17468208
0002a0 b4 6d 2e 3e 4e 91 53 3e 18 d5 ec bd 30 af 35 3e
       0.17034036 0.20660898 -0.11564082 0.1774261
0002b0 a5 f4 09 be 74 d9 50 3e 59 e9 24 be 40 e9 21 be
       -0.1347223 0.20395452 -0.1610464 -0.15811634
0002c0 ab c9 25 3e d9 fc 49 3e 7a 6d 52 3e b2 18 27 be
       0.16190211 0.1972536 0.20549574 -0.16318014
0002d0 2e 5d 2f 3e 2a dc 2c be 26 51 33 3e 29 0d 20 be
       0.17125389 -0.16880861 0.17511424 -0.1563002
0002e0 bb 53 d3 bd 1c b9 2e 3e 83 24 34 3e e9 2a 54 3e
       -0.10318705 0.17062801 0.17592053 0.20719494
0002f0 15 76 13 be ae f6 25 3e 5d 20 09 be c6 3b 6a 3e
       -0.14400513 0.16207382 -0.13391252 0.22874364
000300 15 0b 04 be e5 69 0c be 71 b7 2c 3e 8d f4 2d 3e
       -0.12894852 -0.1371227 0.16866852 0.1698782
000310 f2 20 5b 3e 19 00 24 be 03 11 18 3e 5f 2f 0f be
       0.21399286 -0.16015662 0.1485024 -0.13982914
000320 9f 6f 52 3e 3c d2 00 be 61 17 d3 bd df 66 40 3e
       0.20550393 -0.12580198 -0.103071935 0.18789242
000330 2d b0 27 3e ca b6 50 3e 12 63 1a be b7 e9 2f 3e
       0.163758 0.20382228 -0.15076855 0.17178999
000340 ef 04 2a be ba 11 34 3e d6 25 04 be 74 97 d7 bd
       -0.16603445 0.17584887 -0.12905058 -0.10526934
000350 2d 07 14 3e f3 ab 10 3e 00 c8 4c 3e 69 c7 00 be
       0.14455862 0.14128093 0.19998169 -0.12576069
000360 ab 77 5d 3e 36 eb 2a be aa 33 44 3e 5b 84 38 be
       0.21627681 -0.16691288 0.19160333 -0.1801924
000370 4f d0 1d be 61 e2 2d 3e 58 13 29 3e e5 35 25 3e
       -0.15411495 0.16980888 0.16511285 0.1613384
000380 10 7f eb bd ef 8f 34 3e 0c f8 e6 bd 8f 07 57 3e
       -0.114988446 0.17633031 -0.1127778 0.20998977
000390 c4 25 17 be ae 79 16 be c6 c6 36 3e 5c dc 3e 3e
       -0.147605 -0.14694855 0.17849264 0.18638748
0003a0 24 ef 4c 3e aa f4 09 be 98 2d 27 3e 5f 30 e3 bd
       0.200131 -0.13472238 0.16325986 -0.110932104
0003b0 1e 21 66 3e 9e ee 10 be 71 95 f5 bd 4d da 32 3e
       0.2247357 -0.14153525 -0.11991394 0.17466088
0003c0 4d 79 47 3e b6 c5 3d 3e 5d 6f 09 be 40 75 3d 3e
       0.19479866 0.18532452 -0.13421388 0.18501759
0003d0 cc 89 06 be 55 50 5e 3e 31 60 27 be 6e 2e fa bd
       -0.13138503 0.21710332 -0.16345288 -0.12215887
0003e0 d6 e0 2b 3e 6a 77 44 3e d5 07 36 3e fd dd 08 be
       0.16784987 0.19186178 0.17776425 -0.13365932
0003f0 42 41 2d 3e b6 57 2e be d7 70 34 3e 25 0e 3d be
       0.16919425 -0.17025647 0.1762117 -0.18462427

ema_model.q_head.mamba.A_log f4 [18, 16]
000000 94 9d 85 be 60 71 d9 3e 4d 3d 54 3f 66 c4 8c 3f
       -0.26096785 0.4246931 0.8290604 1.0997436
000010 06 88 a9 3f 80 6b bf 3f 15 09 d4 3f 88 6b e4 3f
       1.3244636 1.4954681 1.6565272 1.7845316
000020 07 96 f2 3f d2 a1 00 40 0a a8 06 40 e3 98 0c 40
       1.8952035 2.0098767 2.1040063 2.1968315
000030 85 eb 11 40 41 92 15 40 96 09 1b 40 fe 6a 1e 40
       2.28 2.3370516 2.42246 2.4752803
000040 31 13 4b be 53 07 f7 3e 02 5c 62 3f cc 0c 93 3f
       -0.1983154 0.48247775 0.8842164 1.148828
000050 c6 9b af 3f 69 ee c4 3f 21 6e d9 3f fd 5c e9 3f
       1.3719413 1.5385257 1.6986734 1.8231503
000060 8e 2a f7 3f a9 f0 02 40 69 d8 08 40 ec b0 0e 40
       1.9309862 2.0459387 2.1382086 2.2295485
000070 9b e3 13 40 82 47 17 40 00 d0 1c 40 8e fa 1f 40
       2.310767 2.3637395 2.4501953 2.4996676
000080 aa cf 24 be 27 0b 06 3f 21 bf 6d 3f 29 f7 98 3f
       -0.16094843 0.5236077 0.92869765 1.1950427
000090 43 96 b5 3f 6b 3b cb 3f 5d a2 df 3f 57 b3 ef 3f
       1.4186481 1.5877508 1.7471424 1.8726605
0000a0 ed ae fd 3f b9 1b 06 40 aa 09 0c 40 30 df 11 40
       1.9819008 2.095442 2.1880898 2.2792473
0000b0 bd 16 17 40 e0 90 1a 40 91 f0 1f 40 b1 43 23 40
       2.3607628 2.4150925 2.499058 2.5510066
0000c0 59 53 5f be be 0e ef 3e 52 05 5e 3f 12 42 94 3f
       -0.21809138 0.46690935 0.8672687 1.1582663
0000d0 b0 b4 b0 3f 9a 87 c8 3f fd c5 db 3f 21 24 ed 3f
       1.3805141 1.5666382 1.7169796 1.8526651
0000e0 c0 3b fd 3f f3 da 04 40 df 17 0b 40 eb 5e 10 40
       1.9783859 2.0758636 2.173332 2.2557933
0000f0 4f 7c 15 40 b4 41 1b 40 5c fa 1e 40 7a 96 23 40
       2.3357122 2.4258852 2.4840307 2.5560594
000100 75 4d 79 be 45 30 e2 3e bd ee 58 3f e9 e1 8e 3f
       -0.24345954 0.44177452 0.84739286 1.1162692
000110 0c 85 ab 3f 25 31 c1 3f 5a b7 d5 3f 2d da e5 3f
       1.3399978 1.5093123 1.669658 1.7957207
000120 6e de f3 3f 18 3e 01 40 57 2f 07 40 83 26 0d 40
       1.9052255 2.019415 2.1122644 2.2054756
000130 7b 74 12 40 31 e6 15 40 df 68 1b 40 99 ae 1e 40
       2.2883594 2.3421748 2.4282758 2.4794066
000140 3c d7 36 3e 00 9c 5e 3f 75 bd a1 3f 8e eb c8 3f
       0.17855543 0.8695679 1.2635943 1.5696886
000150 58 58 e5 3f 11 0a fe 3f f0 74 08 40 d4 45 11 40
       1.7917585 1.9846822 2.1321373 2.269887
000160 10 41 19 40 99 46 1f 40 78 69 25 40 d0 4f 2a 40
       2.394596 2.488684 2.5845623 2.6611214
000170 7a 1c 2f 40 58 0f 35 40 5d 56 38 40 75 10 3d 40
       2.736113 2.8290615 2.8802712 2.9541295
000180 65 98 78 be b2 6d e3 3e 77 ba 58 3f 40 79 91 3f
       -0.24276884 0.44419628 0.8465952 1.1365128
000190 cf 27 ae 3f 66 f5 c5 3f a4 ad d9 3f e6 37 eb 3f
       1.3605899 1.5465515 1.7006116 1.8376434
0001a0 1f 5d fb 3f fd 1c 04 40 bf 65 0a 40 45 ed 0f 40
       1.9637793 2.0642693 2.16246 2.2488568
0001b0 bc 2a 15 40 38 08 1b 40 8a e7 1e 40 08 94 23 40
       2.3307333 2.4223766 2.482882 2.55591
0001c0 f2 38 de bd ba ec 11 3f 75 3e 78 3f 27 7b 9e 3f
       -0.10850705 0.5700184 0.969703 1.2381333
0001d0 e1 f1 ba 3f 33 ac d0 3f 3a c5 e4 3f 4a f9 f4 3f
       1.4605066 1.6302551 1.7872689 1.9138577
0001e0 95 a1 01 40 a8 b4 08 40 86 a9 0e 40 85 51 14 40
       2.0254872 2.1360264 2.229097 2.3174756
0001f0 76 68 19 40 e9 7f 1d 40 5a 7d 22 40 cc 05 26 40
       2.3970008 2.460932 2.5389009 2.5941038
000200 ef 61 cc bd 40 cc 13 3f 80 1d 7a 3f a2 90 9e 3f
       -0.09979617 0.57733536 0.97701263 1.2387888
000210 b2 0e bb 3f 06 58 d0 3f aa 97 e4 3f 0c 77 f4 3f
       1.461386 1.6276863 1.7858784 1.909883
000220 91 26 01 40 71 6a 08 40 0b 4a 0e 40 4a f8 13 40
       2.017979 2.1314967 2.2232692 2.3120294
000230 01 08 19 40 ff 8f 1c 40 ce e6 21 40 f4 1c 25 40
       2.3911135 2.4462888 2.5297122 2.5798922
000240 fa 50 97 be 15 77 ca 3e 5d 0a 4e 3f 93 25 8a 3f
       -0.29553968 0.39543977 0.80484563 1.0792717
000250 c7 2d a7 3f 6e 72 bd 3f 6d 54 d2 3f df f6 e2 3f
       1.3060845 1.4800546 1.6432015 1.7731589
000260 97 7f f1 3f a8 24 00 40 70 44 06 40 8d 66 0c 40
       1.8867062 2.0022373 2.097927 2.1937592
000270 58 e5 11 40 73 ab 15 40 4b 2d 1b 40 02 b8 1e 40
       2.279623 2.3385894 2.4246395 2.479981
000280 56 63 aa be bb 2b b9 3e a4 c8 46 3f 87 4c 86 3f
       -0.33278912 0.36166176 0.77649903 1.0492104
000290 dc 64 a3 3f fb ad b9 3f b2 8a ce 3f 50 24 df 3f
       1.2765155 1.450622 1.6136076 1.7432957
0002a0 cf d1 ed 3f 92 85 fc 3f 62 5a 04 40 22 a5 0a 40
       1.8579654 1.9728262 2.0680165 2.166329
0002b0 e5 3c 10 40 73 e6 13 40 74 73 19 40 4b f4 1c 40
       2.2537167 2.3109405 2.3976717 2.4524105
0002c0 59 e5 2a be 25 88 03 3f fd 5e 6a 3f 20 3f 97 3f
       -0.16689052 0.51379615 0.9155119 1.1816139
0002d0 dd c1 b3 3f dd 33 c9 3f b1 91 dd 3f f3 8a ed 3f
       1.4043537 1.5718952 1.7310086 1.8558029
0002e0 d9 6b fb 3f 60 fe 04 40 ca e5 0a 40 25 b0 10 40
       1.9642287 2.0780258 2.1702752 2.260751
0002f0 3d d8 15 40 83 59 19 40 7a c1 1e 40 a6 fb 21 40
       2.3413231 2.3960884 2.4805589 2.5309844
000300 d3 2e c0 bc f9 40 29 3f b5 13 88 3f 2f e4 a9 3f
       -0.023459828 0.66114765 1.0631014 1.3272761
000310 e3 77 c6 3f 00 c9 db 3f c5 fb ef 3f 3a d3 ff 3f
       1.5505337 1.7170715 1.8748709 1.9986336
000320 2a d1 06 40 70 1d 0e 40 8f 01 14 40 9b 93 19 40
       2.1065164 2.2205467 2.3125951 2.3996341
000330 f6 92 1e 40 4b 14 22 40 07 65 27 40 be a0 2a 40
       2.4777198 2.5324886 2.6155412 2.666061
000340 33 73 87 bd 31 e0 1c 3f a0 ac 81 3f dd 17 a3 3f
       -0.066137694 0.6127959 1.0130806 1.2741657
000350 ba 9f bf 3f 0b f5 d4 3f 31 28 e9 3f d5 14 f9 3f
       1.497062 1.6637281 1.821539 1.9459482
000360 45 7b 03 40 0a bb 0a 40 3b a0 10 40 3e 43 16 40
       2.0543988 2.167666 2.2597797 2.3478541
000370 74 4d 1b 40 b9 e6 1e 40 1d 29 24 40 ae 72 27 40
       2.4266024 2.4828322 2.5650094 2.6163745
000380 b3 7f 47 bd 27 e8 21 3f 6c 56 84 3f 5a a1 a5 3f
       -0.048705768 0.6324486 1.0338874 1.2939866
000390 5f 37 c2 3f 36 7f d7 3f 28 c1 eb 3f 94 a5 fb 3f
       1.5173148 1.6835697 1.8418322 1.9659905
0003a0 1b b9 04 40 63 08 0c 40 da ee 11 40 62 91 17 40
       2.073798 2.188012 2.2802033 2.3682485
0003b0 3e 9c 1c 40 f7 18 20 40 77 6b 25 40 8f b0 28 40
       2.4470363 2.5015237 2.5846841 2.6357763
0003c0 94 d2 00 be d3 8c 0e 3f 5f f9 75 3f 82 ba 9c 3f
       -0.12580329 0.5568363 0.96083635 1.2244418
0003d0 4e 55 b9 3f 36 dc ce 3f 26 40 e3 3f 2f 43 f3 3f
       1.4479158 1.6160953 1.7753952 1.9004878
0003e0 99 97 00 40 f1 de 07 40 ac c8 0d 40 38 96 13 40
       2.0092528 2.1229823 2.215373 2.3060436
0003f0 f5 c4 18 40 26 3d 1c 40 44 98 21 40 f2 e8 24 40
       2.3870213 2.4412322 2.5249186 2.5767179

ema_model.q_head.mamba.D f4 [18]
000000 cb 99 a3 3f 64 20 a1 3f c8 ac 9d 3f 5c 9d a1 3f
       1.2781309 1.258801 1.2318354 1.2626147
000010 1d 3e a3 3f cf be 9e 3f 1c c8 a4 3f c8 07 9a 3f
       1.275333 1.240198 1.2873569 1.2033625
000020 76 b7 a2 3f 57 eb a1 3f a4 bd a4 3f 26 10 9f 3f
       1.2712238 1.2649945 1.2870374 1.2426803
000030 89 7f a0 3f ef a8 9d 3f 37 5d 9f 3f b1 48 9c 3f
       1.2538921 1.231718 1.2450322 1.2209684
000040 a1 8c a2 3f 58 50 a5 3f
       1.2699167 1.2915144
