checkpoints/q-mamba/20240817_103731/checkpoint-6.pt (torch, 115222 bytes, 42 tensors)

q_head.action_bin_embeddings f4 [2, 256, 9]
0.19315045 -0.10671351 0.20543738 -0.14074977 -0.09473685 0.16788879 0.16715418 0.18850458
-0.15242659 0.16590296 -0.14063716 0.20578636 -0.1440508 -0.12293014 0.19150275 0.21230528
0.21383499 -0.15643921 0.15949716 -0.13235788 0.17142406 -0.18958442 -0.1188452 0.1672581
0.20715465 0.15131785 -0.15669103 0.1429324 -0.11454915 0.23124334 -0.16706708 -0.11550454
0.17182116 0.1953959 0.21072519 -0.12390347 0.12963317 -0.13870543 0.22567856 -0.15868592
-0.12845366 0.17662486 0.18612656 0.19138017 -0.09517379 0.18390404 -0.14184496 0.19206479
-0.15251072 -0.10974658 0.14777106 0.16525619 0.21850899 -0.1425696 0.17940584 -0.16568135
0.1949027 -0.15797628 -0.1511584 0.18737131 0.22215843 0.16780642 -0.14367239 0.16667242
-0.12991616 0.20506601 -0.1637303 -0.09035397 0.21661866 0.12563503 0.20920138 -0.1467247
0.13000058 -0.12339051 0.18953466 -0.14807637 -0.11325719 0.17483427 0.15848391 0.15638955
-0.094658405 0.21078978 0.027620742 0.19413078 -0.06887925 0.093215495 0.21290357 0.19020139
0.24900153 -0.0019779566 0.12158396 -0.036757767 0.12249154 -0.021436753 -0.050370865 0.14802758
0.15401843 0.18369064 -0.07475682 0.18411817 -0.16455324 0.20471811 -0.14648427 -0.124166094
0.19247487 0.15048516 0.18357944 -0.106268324 0.2062042 -0.15972438 0.1824862 -0.17987832
-0.14855486 0.2077116 0.17943741 0.18847781 -0.16877194 0.18276939 -0.1159184 0.18386216
-0.16455118 -0.11418089 0.19521587 0.19254212 0.17150183 -0.10173566 0.15323195 -0.13761313
0.20237227 -0.15336743 -0.10550223 0.15134768 0.19117214 0.1984256 -0.09492195 0.17092949
-0.14086036 0.18938157 -0.15800893 -0.12767112 0.2067598 0.1497431 0.17231521 -0.0986649
0.15032354 -0.114146255 0.16006565 -0.15448727 -0.1155086 0.1753315 0.17114376 0.20944092
-0.13980454 0.18065631 -0.1527227 0.1850472 -0.14212525 -0.14097789 0.17853196 0.1739698
0.1722264 -0.15449049 0.17293909 -0.112252645 0.17438166 -0.1564283 -0.09769957 0.17476654
0.17040905 0.2066908 -0.11567969 0.1774645 -0.13472533 0.20399551 -0.16105492 -0.15811163
0.16194275 0.1972894 0.20553586 -0.16318277 0.17132361 -0.1688367 0.17519414 -0.15634163
-0.103198454 0.17070514 0.17598379 0.20727059 -0.1440325 0.16211961 -0.13394521 0.2288003
-0.12899373 -0.13714205 0.16872099 0.16991924 0.2140442 -0.16018821 0.14859265 -0.13982943
0.20560028 -0.12581219 -0.10305529 0.18798773 0.16383922 0.20391656 -0.15076946 0.17189035
-0.1661125 0.1759603 -0.12914933 -0.10532566 0.14466862 0.14136414 0.20008811 -0.12584026
0.2163168 -0.16695471 0.19165362 -0.18024696 -0.15414411 0.1698554 0.16514763 0.16138364
-0.11502906 0.17638424 -0.1128033 0.21005258 -0.14764054 -0.14696096 0.17855254 0.1864365
0.2001896 -0.13474685 0.16332766 -0.11094969 0.22481224 -0.14156349 -0.11991654 0.17473468
0.19485965 0.18539728 -0.13423052 0.18505763 -0.13139892 0.2171458 -0.1634744 -0.12216414
0.1678922 0.19189724 0.1778056 -0.13367294 0.16926861 -0.1702257 0.1762886 -0.18459594
00000000: 3bc9 453e 9d8c dabd 2d5e 523e b520 10be
00000010: 6505 c2bd 0aeb 2b3e 772a 2b3e 5807 413e
00000020: b715 1cbe 77e2 293e 3003 10be a9b9 523e
00000030: 0e82 13be ccc2 fbbd 4c19 443e 8e66 593e
00000040: 8ff7 5a3e 9a31 20be 3953 233e d388 07be
00000050: ca89 2f3e 6b22 42be 1d65 f3bd b545 2b3e
00000060: 5920 543e 11f3 1a3e 9d73 20be df5c 123e
00000070: bf98 eabd 0ecb 6c3e a213 2bbe a58d ecbd
00000080: e3f1 2f3e dd15 483e 58c8 573e 1ac1 fdbd
00000090: 8fbe 043e cc08 0ebe 4818 673e 907e 22be
000000a0: 5b89 03be 26dd 343e f697 3e3e 2af9 433e
000000b0: 7aea c2bd 5751 3c3e ce3f 11be a2ac 443e
000000c0: c52b 1cbe d1c2 e0bd 4c51 173e eb38 293e
000000d0: d2c0 5f3e c4fd 11be 2ab6 373e 5fa8 29be
000000e0: 9394 473e 89c4 21be 45c9 1abe 44de 3f3e
000000f0: 807d 633e 72d5 2b3e db1e 13be 2dac 2a3e
00000100: be08 05be d3fc 513e eaa8 27be 810b b9bd
00000110: 48d1 5d3e 78a6 003e e338 563e 003f 16be
00000120: df1e 053e 2ab4 fcbd 6015 423e 55a1 17be
00000130: 63f3 e7bd c107 333e 9b49 223e 9524 203e
00000140: 44dc c1bd 47d9 573e e544 e23c 38ca 463e
00000150: 9010 8dbd c4e7 be3d 6503 5a3e 27c4 423e
00000160: 42fa 7e3e 9ba0 01bb 0301 f93d 508f 16bd
00000170: d8dc fa3d 219c afbc ae51 4ebd 8b94 173e
00000180: 02b7 1d3e 6619 3c3e 1b1a 99bd 7989 3c3e
00000190: a580 28be a0a1 513e f9ff 15be cb4a febd
000001a0: 2218 453e c818 1a3e 40fc 3b3e 35a3 d9bd
000001b0: 3227 533e ca8e 23be aadd 3a3e 0632 38be
000001c0: c41e 18be 5ab2 543e 71be 373e 5400 413e
000001d0: 8dd2 2cbe e627 3b3e a066 edbd 5d46 3c3e
000001e0: 1b80 28be acd7 e9bd abe6 473e c329 453e
000001f0: 2d9e 2f3e c95a d0bd d6e8 1c3e 75ea 0cbe
00000200: ad3a 4f3e 5a0c 1dbe 8e11 d8bd e3fa 1a3e
00000210: a1c2 433e 1530 4b3e 7066 c2bd 2408 2f3e
00000220: b33d 10be 3eed 413e 18cd 21be 38bc 02be
00000230: d7b8 533e 4156 193e 6673 303e d310 cabd
00000240: 6aee 193e 83c5 e9bd 40e8 233e e931 1ebe
00000250: c68f ecbd 1a8a 333e 4f40 2f3e ae77 563e
00000260: ec28 0fbe f8fd 383e 5763 1cbe 037d 3d3e
00000270: 4889 11be 825c 10be 15d1 363e 2425 323e
00000280: 1e5c 303e c132 1ebe f216 313e b7e4 e5bd
00000290: 1b91 323e be2e 20be b616 c8bd 00f6 323e
000002a0: b67f 2e3e c1a6 533e 79e9 ecbd 41b9 353e
000002b0: 70f5 09be 33e4 503e 95eb 24be 04e8 21be
000002c0: 52d4 253e 3c06 4a3e fe77 523e 6219 27be
000002d0: 756f 2f3e 87e3 2cbe 1866 333e 0518 20be
000002e0: b659 d3bd 54cd 2e3e 1835 343e be3e 543e
000002f0: 417d 13be af02 263e ef28 09be a04a 6a3e
00000300: ef16 04be f76e 0cbe 32c5 2c3e 4fff 2d3e
00000310: 672e 5b3e 6108 24be ac28 183e 722f 0fbe
00000320: e188 523e e9d4 00be a70e d3bd db7f 403e
00000330: 78c5 273e 81cf 503e 4f63 1abe 0604 303e
00000340: 6519 2abe f02e 343e b93f 04be fbb4 d7bd
00000350: 0324 143e c3c1 103e e6e3 4c3e 45dc 00be
00000360: 2782 5d3e 2df6 2abe d940 443e a992 38be
00000370: f4d7 1dbe 93ee 2d3e 761c 293e c141 253e
00000380: 5b94 ebbd 129e 343e 6b05 e7bd 0618 573e
00000390: 152f 17be ef7c 16be 7ad6 363e 36e9 3e3e
000003a0: 81fe 4c3e 14fb 09be 5e3f 273e 9739 e3bd
000003b0: 2e35 663e 05f6 10be ce96 f5bd a6ed 323e
000003c0: 4a89 473e c9d8 3d3e ba73 09be bf7f 3d3e
000003d0: 708d 06be 785b 5e3e d565 27be 3131 fabd
000003e0: efeb 2b3e b680 443e ac12 363e 8fe1 08be
000003f0: c054 2d3e a54f 2ebe 0085 343e b806 3dbe

q_head.mamba.A_log f4 [18, 16]
-0.26120058 0.42441833 0.8287704 1.0994029 1.3241366 1.4951128 1.6561902 1.7841856
1.8948501 2.009561 2.1037014 2.196533 2.2797072 2.3367379 2.42219 2.4749918
-0.19837122 0.48240718 0.88413715 1.1487263 1.3718396 1.5384061 1.6985562 1.8230231
1.9308491 2.0458133 2.138082 2.2294207 2.3106363 2.3635895 2.4500654 2.4995196
-0.16096558 0.52358824 0.92867696 1.195019 1.418624 1.5877241 1.747116 1.8726324
1.9818712 2.0954123 2.1880596 2.2792168 2.3607318 2.4150589 2.499027 2.5509725
-0.2181728 0.4668146 0.867167 1.1581491 1.3803993 1.566513 1.7168585 1.8525398
1.9782567 2.0757446 2.1732154 2.2556775 2.3355968 2.4257617 2.483922 2.5559416
-0.24354498 0.44167072 0.84727824 1.1161317 1.3398602 1.5091574 1.6695057 1.7955592
1.9050548 2.0192554 2.112105 2.2053134 2.2881944 2.341993 2.428113 2.4792266
0.17848803 0.86950773 1.2635487 1.5696487 1.7917333 1.9846646 2.1321254 2.269875
2.3945842 2.4886959 2.5845742 2.6611333 2.736125 2.8290734 2.880283 2.9541414
-0.24293967 0.44400594 0.84640133 1.1362975 1.36039 1.5463438 1.7004206 1.8374557
1.9635962 2.0641067 2.162308 2.2487118 2.3305955 2.422239 2.482763 2.555789
-0.10853051 0.56998795 0.96966857 1.2380859 1.4604591 1.6301963 1.7872125 1.9137944
2.0254166 2.1359642 2.2290335 2.317412 2.3969355 2.4608526 2.5388358 2.5940259
-0.0998108 0.57731706 0.9769925 1.2387626 1.4613594 1.6276548 1.7858478 1.9098487
2.0179412 2.131462 2.2232337 2.3119936 2.3910763 2.446243 2.5296736 2.5798454
-0.29578733 0.39517432 0.8045845 1.0789931 1.3058319 1.4798012 1.6429737 1.7729411
1.8864985 2.0020576 2.097762 2.1936061 2.27948 2.3384485 2.4245195 2.4798613
-0.33316538 0.36124742 0.7760845 1.0487492 1.2760967 1.450188 1.6132181 1.7429146
1.8575964 1.9725127 2.0677326 2.166064 2.2534688 2.3106897 2.3974628 2.452199
-0.1669204 0.51375955 0.9154712 1.1815624 1.4043018 1.5718335 1.7309483 1.8557366
1.9641563 2.0779586 2.1702065 2.2606816 2.3412519 2.396006 2.4804869 2.5309017
-0.023462387 0.66114426 1.0630955 1.3272702 1.5505277 1.7170627 1.8748626 1.9986237
2.1065044 2.2205348 2.3125832 2.3996222 2.4777079 2.5324767 2.6155293 2.666049
-0.06614554 0.6127859 1.0130688 1.2741507 1.4970467 1.663711 1.8215221 1.94593
2.054377 2.1676457 2.2597587 2.3478332 2.426581 2.482807 2.5649872 2.6163487
-0.04871056 0.63244206 1.0338814 1.2939769 1.517305 1.6835581 1.8418208 1.9659783
2.073786 2.188 2.2801914 2.3682365 2.4470243 2.5015113 2.5846722 2.6357636
-0.12581524 0.5568226 0.9608219 1.2244253 1.4478991 1.6160775 1.7753775 1.9004692
2.0092318 2.1229618 2.215352 2.3060226 2.387 2.4412093 2.5248973 2.5766945
00000000: 15bc 85be 5c4d d93e 4c2a 543f 3cb9 8c3f
00000010: 4f7d a93f db5f bf3f 0afe d33f 3260 e43f
00000020: 738a f23f a69c 0040 0ba3 0640 ff93 0c40
00000030: b9e6 1140 1d8d 1540 2905 1b40 4466 1e40
00000040: d321 4bbe 13fe f63e d056 623f 7709 933f
00000050: 7198 af3f 7eea c43f 4a6a d93f d258 e93f
00000060: 1026 f73f 9bee 0240 56d6 0840 d4ae 0e40
00000070: 77e1 1340 0d45 1740 dfcd 1c40 21f8 1f40
00000080: 29d4 24be e109 063f c6bd 6d3f 62f6 983f
00000090: 7995 b53f 8b3a cb3f 7fa1 df3f 6bb2 ef3f
000000a0: f5ad fd3f 3c1b 0640 2b09 0c40 b0de 1140
000000b0: 3b16 1740 5390 1a40 0ff0 1f40 2243 2340
000000c0: b168 5fbe 5302 ef3e a8fe 5d3f 3b3e 943f
000000d0: edb0 b03f 7f83 c83f 05c2 db3f 0620 ed3f
000000e0: 8437 fd3f 00d9 0440 f615 0b40 055d 1040
000000f0: 6b7a 1540 ae3f 1b40 94f8 1e40 8c94 2340
00000100: db63 79be aa22 e23e 3ae7 583f 67dd 8e3f
00000110: 8a80 ab3f 122c c13f 5db2 d53f e2d4 e53f
00000120: d6d8 f33f 7b3b 0140 ba2c 0740 db23 0d40
00000130: c771 1240 37e3 1540 3466 1b40 a6ab 1e40
00000140: 91c5 363e 0f98 5e3f f7bb a13f 40ea c83f
00000150: 8457 e53f 7d09 fe3f be74 0840 a245 1140
00000160: de40 1940 cb46 1f40 aa69 2540 0250 2a40
00000170: ac1c 2f40 8a0f 3540 8f56 3840 a710 3d40
00000180: 2dc5 78be bf54 e33e c2ad 583f 3272 913f
00000190: 4221 ae3f 98ee c53f 62a7 d93f c031 eb3f
000001a0: 1f57 fb3f 531a 0440 4163 0a40 e5ea 0f40
000001b0: 7a28 1540 f705 1b40 97e5 1e40 0c92 2340
000001c0: 3e45 debd bbea 113f 333c 783f 9979 9e3f
000001d0: 53f0 ba3f 46aa d03f 61c3 e43f 37f7 f43f
000001e0: 6da0 0140 a3b3 0840 7ca8 0e40 7a50 1440
000001f0: 6467 1940 9c7e 1d40 497c 2240 8504 2640
00000200: 9b69 ccbd 0dcb 133f 2e1c 7a3f c68f 9e3f
00000210: d30d bb3f fe56 d03f a996 e43f ec75 f43f
00000220: f325 0140 e069 0840 7649 0e40 b4f7 1340
00000230: 6507 1940 3f8f 1c40 2ce6 2140 301c 2540
00000240: 7071 97be 4a54 ca3e 40f9 4d3f 721c 8a3f
00000250: 8025 a73f 206a bd3f f64c d23f bcef e23f
00000260: c878 f13f b621 0040 bc41 0640 0b64 0c40
00000270: 00e3 1140 24a9 1540 542b 1b40 0cb6 1e40
00000280: a794 aabe 6cf5 b83e 79ad 463f 6a3d 863f
00000290: 2357 a33f c39f b93f ee7d ce3f d317 df3f
000002a0: b8c5 ed3f 4c7b fc3f bb55 0440 cba0 0a40
000002b0: d538 1040 57e2 1340 0870 1940 d4f0 1c40
000002c0: 2eed 2abe bf85 033f 525c 6a3f 703d 973f
000002d0: 29c0 b33f d731 c93f b78f dd3f c788 ed3f
000002e0: 7969 fb3f 46fd 0440 aae4 0a40 02af 1040
000002f0: 12d7 1540 2a58 1940 4cc0 1e40 4bfa 2140
00000300: 3134 c0bc c040 293f 8313 883f fde3 a93f
00000310: b177 c63f b6c8 db3f 7ffb ef3f e7d2 ff3f
00000320: f8d0 0640 3e1d 0e40 5d01 1440 6993 1940
00000330: c492 1e40 1914 2240 d564 2740 8ca0 2a40
00000340: 5077 87bd 89df 1c3f 3dac 813f 5f17 a33f
00000350: 3a9f bf3f 7bf4 d43f a327 e93f 3c14 f93f
00000360: ea7a 0340 b5ba 0a40 e39f 1040 e642 1640
00000370: 1a4d 1b40 4fe6 1e40 c028 2440 4272 2740
00000380: b984 47bd b9e7 213f 3a56 843f 09a1 a53f
00000390: 0d37 c23f d57e d73f c9c0 eb3f 2da5 fb3f
000003a0: e9b8 0440 3108 0c40 a8ee 1140 3091 1740
000003b0: 0c9c 1c40 c318 2040 456b 2540 5ab0 2840
000003c0: b6d5 00be ed8b 0e3f 6df8 753f f8b9 9c3f
000003d0: c254 b93f a1db ce3f 923f e33f 9342 f33f
000003e0: 4197 0040 9bde 0740 54c8 0d40 e095 1340
000003f0: 9cc4 1840 c63c 1c40 eb97 2140 90e8 2440

q_head.mamba.D f4 [18]
1.2792528 1.2592692 1.2321118 1.2629796 1.276373 1.2408571 1.2878155 1.2037532
1.2718537 1.2655243 1.2884196 1.2431264 1.2545131 1.2327222 1.246223 1.2214535
1.2701693 1.2922385
00000000: 8ebe a33f bc2f a13f d7b5 9d3f 51a9 a13f
00000010: 3160 a33f 68d4 9e3f 23d7 a43f 9614 9a3f
00000020: 1acc a23f b3fc a13f efea a43f c41e 9f3f
00000030: e393 a03f d7c9 9d3f 3c84 9f3f 9758 9c3f
00000040: e894 a23f 1268 a53f

q_head.mamba.in_proj.weight f4 [36, 9]
-0.6471963 -0.4668019 -0.06330103 -0.09594539 -0.5962408 -0.35855865 -0.054640032 -0.31909654
-0.39172864 -0.5924638 -0.55166495 -0.3202112 -0.06320621 -0.120761506 -0.045327198 -0.16965185
-0.28898248 -0.33946168 0.44964173 0.082554944 0.20219444 0.05441251 0.32488716 -0.026791116
0.091543645 0.073795386 0.34428042 -0.06085695 -0.06548363 0.07222606 0.07996542 -0.15425412
0.27383888 0.3514377 0.22958426 -0.05713893 0.3643701 0.6003984 0.30052382 0.61592734
0.5443721 0.5660678 0.047116783 0.4850669 0.36599597 -0.4467 -0.2696835 -0.5264037
-0.0060648844 -0.458457 -0.115590885 -0.045574173 -0.46178418 -0.3594941 0.11702628 -0.2986353
0.052444763 -0.4345102 0.17722137 -0.34160426 -0.13395971 -0.38787612 -0.34100094 0.1856263
-0.31554037 0.098404996 -0.10747863 0.17780702 -0.3132373 -0.3490922 0.009623196 -0.15489864
0.42064553 0.28052896 0.20629247 0.47627923 0.47501922 0.041605283 0.25001368 0.3173507
0.41471133 -0.0038172984 -0.1088669 -0.4657555 -0.16845268 -0.10205851 -0.47629985 -0.45652348
-0.22678696 -0.27339894 -0.6617935 -0.1569775 -0.097230874 -0.54416186 -0.52879566 -0.5246443
-0.24081378 -0.5580219 -0.30655843 0.052337278 0.1647726 -0.26123667 0.16318046 0.0146588655
0.11451966 -0.32109994 -0.2271517 0.17528707 0.3117316 -0.29144487 0.22025923 0.3232647
-0.12526236 0.21505116 0.4030379 -0.054573666 0.11515703 -0.28366038 -0.494839 -0.63488144
-0.400167 0.027103594 -0.19147553 0.027499137 -0.0036135318 -0.3011291 -0.06673452 -0.1103513
-0.007368958 -0.24818335 -0.4503637 -0.13977678 -0.4859626 -0.54781854 -0.40732864 0.28985652
-0.10219916 0.04401831 0.12736885 -0.22271092 0.004242773 0.5360023 0.55765665 0.17292401
-0.1419612 -0.5365995 -0.31079486 -0.51512605 -0.42550567 -0.018572757 -0.44679683 -0.46555257
-0.26975253 0.5563253 0.12777588 0.45531875 0.5127605 0.43927693 0.6922465 0.5048505
0.52275807 0.43113905 0.3087387 0.08909427 0.41616458 0.11469542 0.29335788 0.50337607
0.60073084 0.57316214 -0.06555992 -0.21095489 0.15365297 -0.31239867 -0.08191045 0.06123473
-0.4376787 -0.5733818 -0.60378474 -0.26008412 -0.5775515 -0.36235252 -0.44483122 0.12322192
0.12709144 -0.28914085 -0.5384009 -0.21825077 -0.092937045 -0.488201 -0.1709421 -0.16045122
0.12979577 0.02219241 -0.5503535 0.007971509 -0.22646748 -0.3713262 0.35481092 0.079988055
0.124523446 0.14528467 0.024192339 0.5530361 0.14743999 0.4034816 0.21624911 0.5392684
0.33679286 0.04700674 0.49551418 0.2785624 0.210648 0.27257746 0.25944364 0.42669886
-0.2495478 0.12292222 -0.057173286 -0.3063256 -0.1339793 -0.52429473 -0.50247777 -0.35370937
-0.039393913 0.11394732 0.054832097 0.3894603 0.49972174 0.08029441 0.037817236 0.4533878
0.2324468 0.18616422 0.28117988 0.1929905 -0.034610335 0.10899526 -0.0131001165 0.50930434
0.05115994 0.6055456 -0.068282105 -0.6556606 -0.28104442 -0.43222347 0.07137348 0.040822394
-0.48125994 -0.40523657 -0.5659754 -0.21814731 -0.6378524 -0.15989782 -0.5716536 0.014261041
00000000: a8ae 25bf a900 efbe f8a3 81bd 047f c4bd
00000010: 3da3 18bf 0095 b7be 3ace 5fbd 9f60 a3be
00000020: a890 c8be b5ab 17bf ea39 0dbf b9f2 a3be
00000030: 4272 81bd cf51 f7bd 03a9 39bd 37b9 2dbe
00000040: 83f5 93be eccd adbe 7137 e63e 9112 a93d
00000050: 0f0c 4f3e a7df 5e3d 9c57 a63e 0b79 dbbc
00000060: 3c7b bb3d 0922 973d 8645 b03e 2345 79bd
00000070: 481c 86bd 42eb 933d e9c4 a33d cbf4 1dbe
00000080: 9c34 8c3e a4ef b33e 2318 6b3e 830a 6abd
00000090: b88e ba3e b6b3 193f 42de 993e 6aad 1d3f
000000a0: f85b 0b3f d2e9 103f 87fd 403d b05a f83e
000000b0: d363 bb3e ddb5 e4be f513 8abe 65c2 06bf
000000c0: f0bb c6bb e0ba eabe eaba ecbd fcab 3abd
000000d0: fa6e ecbe 9c0f b8be 79ab ef3d bae6 98be
000000e0: 52d0 563d 1f78 debe 8579 353e c1e6 aebe
000000f0: bc2c 09be b397 c6be ad97 aebe d214 3e3e
00000100: 828e a1be 8f88 c93d c21d dcbd 0b13 363e
00000110: a460 a0be 36bc b2be 9caa 1d3c c09d 1ebe
00000120: da5e d73e 7ea1 8f3e 553e 533e dfda f33e
00000130: b835 f33e 4d6a 2a3d cb01 803e ca7b a23e
00000140: 0b55 d43e a42b 7abb 9cf5 debd 8177 eebe
00000150: dc7e 2cbe 0d04 d1bd 93dd f3be 72bd e9be
00000160: d73a 68be f2fa 8bbe 4c6b 29bf b6be 20be
00000170: fb20 c7bd 314e 0bbf 275f 07bf 174f 06bf
00000180: e397 76be 86da 0ebf 3af5 9cbe 9d5f 563d
00000190: 26ba 283e d0c0 85be c718 273e bd2b 703c
000001a0: 4989 ea3d 3667 a4be 759a 68be 747e 333e
000001b0: 499b 9f3e 4338 95be a38b 613e f382 a53e
000001c0: c744 00be 5f36 5c3e fc5a ce3e a388 5fbd
000001d0: 73d7 eb3d ef3b 91be 8a5b fdbe 9787 22bf
000001e0: b0e2 ccbe 5b08 de3c 2912 44be df45 e13c
000001f0: 01d1 6cbb 982d 9abe 1cac 88bd ddff e1bd
00000200: 4d77 f1bb c723 7ebe 1296 e6be a521 0fbe
00000210: 17d0 f8be d63d 0cbf 618d d0be 1368 943e
00000220: cb4d d1bd 8b4c 343d fb6c 023e 550e 64be
00000230: f606 8b3b 7237 093f 96c2 0e3f fe12 313e
00000240: 475e 11be 965e 09bf 8120 9fbe 4ddf 03bf
00000250: e1db d9be e525 98bc 8ec2 e4be e85c eebe
00000260: 011d 8abe 566b 0e3f aed7 023e 8a1f e93e
00000270: 4644 033f e8e8 e03e 1137 313f e23d 013f
00000280: 79d3 053f 42be dc3e 0013 9e3e 0e77 b63d
00000290: 8613 d53e 6fe5 ea3d 0133 963e 41dd 003f
000002a0: 7fc9 193f c1ba 123f 4844 86bd 8f04 58be
000002b0: 3457 1d3e b8f2 9fbe aac0 a7bd 45d1 7a3d
000002c0: 6c17 e0be 26c9 12bf a391 1abf bf29 85be
000002d0: 6ada 13bf 4586 b9be ebc0 e3be c65b fc3d
000002e0: 4224 023e 450a 94be a4d4 09bf 217d 5fbe
000002f0: c755 bebd 7bf5 f9be 720b 2fbe 534d 24be
00000300: 2fe9 043e dbcc b53c f8e3 0cbf ef9a 023c
00000310: 17e7 67be 781e bebe c7a9 b53e c7d0 a33d
00000320: 2606 ff3d 81c5 143e 032f c63c c693 0d3f
00000330: 82fa 163e 2495 ce3e 6870 5d3e 7e0d 0a3f
00000340: 1d70 ac3e 248a 403d 09b4 fd3e bb9f 8e3e
00000350: 1cb4 573e 468f 8b3e ccd5 843e 4678 da3e
00000360: 7589 7fbe a5be fb3d 892e 6abd b6d6 9cbe
00000370: df31 09be 2e38 06bf 62a2 00bf 6519 b5be
00000380: 835b 21bd 365d e93d 9f97 603d 5767 c73e
00000390: 87db ff3e 6571 a43d 3fe6 1a3d 7222 e83e
000003a0: 8906 6e3e d5a1 3e3e cff6 8f3e 4d9f 453e
000003b0: 91c3 0dbd e838 df3d dfa1 56bc c561 023f
000003c0: 168d 513d 0905 1b3f 7dd7 8bbd 60d9 27bf
000003d0: 0ee5 8fbe 654c ddbe 422c 923d 6235 273d
000003e0: b467 f6be 2b7b cfbe c4e3 10bf 0262 5fbe
000003f0: 4b4a 23bf 41bc 23be e457 12bf 24a7 693c

q_head.mamba.conv1d.weight f4 [18, 1, 4]
-0.016784906 0.47580492 -0.55439377 -0.6384822 -0.042499363 -0.0908196 0.28375053 0.54011494
-0.3890695 0.46450722 -0.009305497 -0.51822627 -0.38070118 -0.029206872 0.1360624 -0.30892178
-0.22506678 0.25147355 0.34391832 0.40473402 0.0018467307 -0.20584339 0.206093 0.4076902
0.20015806 0.28799635 0.6607455 0.20008339 -0.39871383 0.14634639 -0.27456096 0.37151584
-0.12883288 0.0009736419 0.509541 0.15541406 -0.06866974 0.26806653 0.335673 0.496648
0.48102546 0.1022833 -0.7819352 -0.80155087 0.31288713 0.038849533 -0.30565172 0.31095138
0.23926836 0.18455637 0.19657946 -0.3430302 0.32210296 0.23598129 -0.37206435 -0.7447895
-0.34952664 0.42373204 -0.10455525 -0.48927227 0.47147095 -0.29042947 0.01617409 -0.4456532
0.22581601 0.47198606 0.71796376 0.6414091 0.35010314 0.48336077 0.28942862 0.3591077
00000000: 8080 89bc b49c f33e c0ec 0dbf 9273 23bf
00000010: d013 2ebd a0ff b9bd c047 913e f944 0a3f
00000020: 1e34 c7be e4d3 ed3e 1576 18bc 7aaa 04bf
00000030: 44eb c2be 4043 efbc f153 0b3e ff2a 9ebe
00000040: e877 66be 24c1 803e 1016 b03e 4c39 cf3e
00000050: 000e f23a 9cc8 52be 0b0a 533e c5bc d03e
00000060: 3cf6 4c3e 4274 933e 9e26 293f a9e2 4c3e
00000070: 3824 ccbe d4db 153e 4193 8cbe 5337 be3e
00000080: c4ec 03be 003c 7f3a 4771 023f dd24 1f3e
00000090: b8a2 8cbd 0440 893e 55dd ab3e a648 fe3e
000000a0: f848 f63e e879 d13d e82c 48bf 7032 4dbf
000000b0: be32 a03e b020 1f3d 627e 9cbe 0535 9f3e
000000c0: c402 753e 58fc 3c3e 204c 493e a8a1 afbe
000000d0: aeea a43e 14a5 713e 387f bebe 86aa 3ebf
000000e0: 28f5 b2be 68f3 d83e 1021 d6bd e581 fabe
000000f0: a464 f13e 2cb3 94be 867f 843c a82c e4be
00000100: 503c 673e 28a8 f13e 79cc 373f 6333 243f
00000110: b840 b33e 107b f73e fd2f 943e f7dc b73e

q_head.mamba.conv1d.bias f4 [18]
0.51631206 -0.78369826 -0.49229234 -0.42236602 0.6852175 -0.35693577 -0.4843304 -0.34821752
0.4231473 -0.73428404 0.791364 -0.55711967 -0.7770715 0.64113456 0.46514055 -0.5462265
-0.49780315 0.4932122
00000000: 072d 043f 73a0 48bf be0d fcbe 5c40 d8be
00000010: 6a6a 2f3f 49c0 b6be 27fa f7be 9149 b2be
00000020: c3a6 d83e 0afa 3bbf d596 4a3f 659f 0ebf
00000030: 28ee 46bf 6521 243f e726 ee3e 80d5 0bbf
00000040: 0ee0 febe 4f86 fc3e

q_head.mamba.x_proj.weight f4 [33, 18]
0.50269204 -0.38662252 -0.13928857 -0.5045058 0.1898916 -0.4520203 -0.28322363 -0.28292257
0.1878469 -0.58329564 0.3879655 -0.21102566 -0.33294576 0.2526028 0.21363755 -0.43379787
-0.4036847 0.5870535 -0.25609142 0.5934812 0.3365719 0.16395389 -0.2315396 0.5177652
0.29939196 0.3519884 -0.16988611 0.5101959 -0.2304125 0.42908347 0.46662125 -0.59270966
-0.51236236 0.37044185 0.5156834 -0.47767848 -0.34744805 0.21748103 0.41692787 0.33247977
-0.46831685 0.4529867 0.50059634 0.34725404 -0.5531159 0.42642143 -0.31502715 0.14352159
0.5530661 -0.14079998 -0.32982975 0.18946764 0.3830853 -0.33985335 0.47519732 -0.28534326
-0.2104851 -0.33676302 0.28390056 -0.175367 -0.4831196 -0.29834518 0.23684622 -0.3954268
0.43963137 -0.44220746 -0.29733163 0.19870847 0.1962782 -0.18539907 -0.21736754 0.44156897
-0.5796896 0.34757364 0.17490149 0.25589377 -0.43338898 0.15889059 0.26065657 0.49415845
-0.23631765 0.26637962 -0.39917397 0.1837957 0.3913669 -0.22388957 -0.31714585 0.1730229
0.33715546 -0.3381011 -0.49213314 0.12972936 0.23423326 0.47935638 -0.5842563 0.5166849
0.29668552 0.110300526 -0.43329534 0.49806494 -0.359228 0.53984004 0.2066069 -0.17366157
-0.49842867 0.34625244 0.2782971 -0.39081645 0.33869696 -0.35220298 -0.4058605 -0.23698829
0.44480988 -0.43415245 -0.2989531 -0.5458655 0.3472111 -0.25956285 0.4321464 -0.48629478
-0.3382789 0.58514994 0.25268483 -0.5251096 -0.4434861 0.5930909 -0.58550227 0.18745668
0.23198985 0.3889237 -0.52505463 0.50215036 0.12886819 0.21099658 -0.24266718 0.41511947
-0.57472104 0.15189728 0.15216932 -0.20433635 -0.1805352 0.27577382 0.15254705 -0.2649349
-0.2528259 0.53580284 0.16364002 0.2662143 -0.38849738 0.56383663 0.23688658 0.3544048
-0.4181448 0.23360331 -0.60134256 0.5437806 0.15705909 -0.15552214 -0.3843029 0.2667455
0.2546568 -0.5127111 0.4562815 -0.23039657 -0.50899416 -0.3255176 0.3476837 -0.2341986
-0.5411966 -0.33832067 0.560697 -0.49483615 0.5403234 -0.4778938 -0.40083346 0.2837077
0.16246085 -0.57590914 -0.3710455 0.2711852 -0.48954132 0.43282858 0.27328947 0.4946702
-0.29639843 0.40939862 0.5440459 0.3222597 -0.43694484 0.48423856 -0.517459 0.1757143
0.52361363 -0.4416337 -0.24256818 0.30820507 0.18531865 -0.1736215 0.19697645 -0.23444138
-0.16252021 -0.5287613 0.46313974 -0.16646041 -0.23626733 -0.56863445 0.21700062 -0.5063893
0.23721917 -0.55044854 -0.43282932 0.41289848 0.2685076 -0.35712463 -0.5866483 0.15868784
-0.33050057 0.35800147 0.3968976 0.41816235 -0.22395413 0.14835373 0.15645503 0.22498181
-0.18461832 0.25254157 -0.43026033 0.4375993 0.54018897 -0.5166761 -0.5110864 0.108549625
0.3561592 -0.21358484 -0.39513612 0.23025139 0.52424324 0.4834145 -0.33882967 0.17652498
0.40636298 0.42587787 -0.42048907 0.15963183 -0.3382486 0.11573316 0.11533792 -0.25562853
-0.5045751 0.5204379 0.39508379 -0.4201872 -0.39394718 0.21864833 0.21149121 0.1976394
00000000: 6db0 003f 63f3 c5be aaa1 0ebe 4b27 01bf
00000010: f272 423e 346f e7be b002 91be 3adb 90be
00000020: f05a 403e dd52 15bf 6aa3 c63e 1c17 58be
00000030: de77 aabe 2755 813e cdc3 5a3e c11a debe
00000040: c3af cebe 2349 163f 6a1e 83be 62ee 173f
00000050: 2753 ac3e 87e3 273e b818 6dbe 438c 043f
00000060: e749 993e d337 b43e a0f6 2dbe 339c 023f
00000070: 41f1 6bbe d4b0 db3e fbe8 ee3e d2bb 17bf
00000080: 2e2a 03bf 8eaa bd3e d403 043f 4692 f4be
00000090: b6e4 b1be 59b3 5e3e 9277 d53e ca3a aa3e
000000a0: 3ac7 efbe dfed e73e 1527 003f 48cb b13e
000000b0: 0199 0dbf e953 da3e 3d4b a1be 53f7 123e
000000c0: bd95 0d3f df2d 10be 72df a8be ce03 423e
000000d0: c223 c43e 4201 aebe 104d f33e 8318 92be
000000e0: 6889 57be 346c acbe 6a5b 913e 6893 33be
000000f0: 745b f7be b3c0 98be d187 723e 6275 cabe
00000100: 5d17 e13e 0469 e2be da3b 98be 3c7a 4b3e
00000110: 27fd 483e 41d9 3dbe 9995 5ebe 5415 e23e
00000120: 8a66 14bf 2cf5 b13e 6019 333e 8204 833e
00000130: 29e5 ddbe 37b4 223e c774 853e 5602 fd3e
00000140: 41fd 71be e962 883e 8860 ccbe f134 3c3e
00000150: 3e61 c83e 4f43 65be f160 a2be ea2c 313e
00000160: a49f ac3e 961b adbe e0f8 fbbe c6d7 043e
00000170: d8da 6f3e 336e f53e d291 15bf 7645 043f
00000180: 2ae7 973e 3ee5 e13d e3d8 ddbe 5e02 ff3e
00000190: bbec b7be f532 0a3f c290 533e 57d4 31be
000001a0: 0b32 ffbe 0048 b13e f57c 8e3e 1819 c8be
000001b0: b069 ad3e f353 b4be f3cc cfbe 0fad 72be
000001c0: 1fbe e33e 3b49 debe 6110 99be d7bd 0bbf
000001d0: a7c5 b13e 6ce5 84be 4b42 dd3e a1fb f8be
000001e0: e432 adbe 63cc 153f e85f 813e 956d 06bf
000001f0: 9c10 e3be ced4 173f 7ae3 15bf a5f4 3f3e
00000200: bf8e 6d3e 0221 c73e fb69 06bf ed8c 003f
00000210: 06f6 033e 7d0f 583e bf7d 78be 8a8a d43e
00000220: eb20 13bf f68a 1b3e 46d2 1b3e 8c3d 51be
00000230: 38de 38be 3a32 8d3e 4b35 1c3e 8ca5 87be
00000240: 6572 81be 602a 093f 4091 273e 3e4d 883e
00000250: 21e9 c6be 9957 103f 6592 723e 8c74 b53e
00000260: 1317 d6be b535 6f3e 96f1 19bf 3535 0b3f
00000270: 19d4 203e 3241 1fbe 5ac3 c4be de92 883e
00000280: 6062 823e 0941 03bf bb9d e93e 14ed 6bbe
00000290: 714d 02bf 3eaa a6be 9903 b23e c2d1 6fbe
000002a0: dc8b 0abf 5e38 adbe d789 0f3f 2a5b fdbe
000002b0: a252 0a3f 7fae f4be 0b3a cdbe 2342 913e
000002c0: 235c 263e c86e 13bf adf9 bdbe c9d8 8a3e
000002d0: 29a5 fabe b59b dd3e 99ec 8b3e 6a45 fd3e
000002e0: 89c1 97be b29c d13e 9846 0b3f 39ff a43e
000002f0: 3cb7 dfbe 1eee f73e 3178 04bf 73ee 333e
00000300: 8b0b 063f d01d e2be cb63 78be 0ecd 9d3e
00000310: 2cc4 3d3e d6c9 31be 32b4 493e 6711 70be
00000320: b36b 26be e75c 07bf a720 ed3e 9974 2abe
00000330: 10f0 71be 0792 11bf 6935 5e3e bba2 01bf
00000340: 95e9 723e 32ea 0cbf ce9b ddbe 6e67 d33e
00000350: d479 893e 0ad9 b6be 952e 16bf 117f 223e
00000360: 5f37 a9be f84b b73e 2a36 cb3e 6019 d63e
00000370: 3b54 65be 0aea 173e bf35 203e a261 663e
00000380: 960c 3dbe 214d 813e 154b dcbe 040d e03e
00000390: d349 0a3f e344 04bf 8fd6 02bf 444f de3d
000003a0: 805a b63e fcb5 5abe 484f cabe 05c7 6b3e
000003b0: ce34 063f 1b82 f73e 157b adbe f7c2 343e
000003c0: cf0e d03e aa0c da3e 584a d7be 8776 233e
000003d0: ec2e adbe 8205 ed3d 4a36 ec3d bee1 82be
000003e0: d52b 01bf 6b3b 053f 6c48 ca3e c722 d7be
000003f0: 72b3 c9be 59e5 5f3e 2791 583e fc61 4a3e

q_head.mamba.dt_proj.weight f4 [18, 1]
1.3196862 1.0072994 -0.17565681 0.23719041 0.36412147 0.71311903 1.0159385 1.2361786
0.4488374 1.1599315 0.7482245 0.620339 0.20917383 0.3913146 -0.04493435 -0.51560885
1.243468 -0.04467427
00000000: 7aeb a83f 30ef 803f 61df 33be 0be2 723e
00000010: 216e ba3e f88e 363f 460a 823f 1a3b 9e3f
00000020: 04ce e53e a378 943f a48b 3f3f 89ce 1e3f
00000030: aa31 563e 635a c83e 150d 38bd f1fe 03bf
00000040: f629 9f3f 5efc 36bd

q_head.mamba.dt_proj.bias f4 [18]
-5.0988083 -5.348356 -4.191253 -2.4852154 -3.6620347 -1.9877926 -3.6616995 -5.7021794
-5.5628233 -3.7663407 -2.8911803 -4.871869 -6.3507967 -6.5635467 -6.5045576 -4.358628
-5.275089 -2.2884495
00000000: 7029 a3c0 bb25 abc0 bf1e 86c0 c50d 1fc0
00000010: c75e 6ac0 fd6f febf 4959 6ac0 4178 b6c0
00000020: a602 b2c0 ba0b 71c0 1909 39c0 5ae6 9bc0
00000030: ba39 cbc0 9308 d2c0 5625 d0c0 e179 8bc0
00000040: 87cd a8c0 f575 12c0

q_head.mamba.out_proj.weight f4 [9, 18]
-0.20896299 -0.42589945 -0.43925896 -0.25706917 -0.5038971 0.44903114 -0.42730984 0.146172
-0.48919863 -0.39830035 0.46810254 0.17934944 0.03801916 -0.20377998 -0.3143757 0.45354784
-0.31708187 0.15332472 0.34284705 0.19625364 0.38460904 0.25981924 0.28145364 -0.11397037
0.5116805 0.010870237 0.37978524 0.34137988 -0.3165228 -0.37213835 -0.17343064 0.28713277
0.2169408 -0.22921208 0.30182064 -0.49886745 -0.4160779 -0.082481936 -0.27336562 -0.46940762
-0.2013132 0.39060852 -0.18637916 0.4017414 -0.14349201 -0.42565888 0.5122603 0.29129285
0.4525368 -0.4315004 -0.37419584 0.38709903 -0.3187806 0.40786287 0.539631 0.19705154
0.13451956 0.20385128 0.46557465 -0.2527697 0.22661296 -0.27496725 0.16013646 0.41683334
-0.38752624 -0.3204598 -0.1050749 0.20124304 0.21781628 -0.35853642 0.3629385 -0.42868283
0.2671542 0.4801994 0.39013568 0.39935344 0.13010369 -0.09879705 0.44968405 -0.15247785
0.3288208 0.29129443 -0.19365114 -0.3808526 -0.32052228 0.2211227 0.1775665 -0.24714419
0.31492135 -0.38229987 -0.32354647 -0.4550241 -0.30292198 -0.49266008 -0.13268709 0.4601311
-0.16763712 0.34262162 -0.23573147 -0.26149207 0.58484614 0.39526734 0.08633665 -0.09757215
-0.3927554 0.13647822 -0.48586327 0.49610022 -0.09203684 -0.41883576 -0.42162466 -0.4184958
-0.18520494 0.081358336 -0.5571283 0.3230631 -0.07473633 -0.49098444 0.47277138 0.3943876
0.45441082 -0.32535157 -0.4042571 0.25038952 -0.099620074 0.21478648 -0.24275328 -0.36469698
-0.19242667 -0.28698993 -0.49231157 0.4413329 -0.25298998 0.4501665 -0.43332627 -0.30237016
0.51781696 0.14679298 0.3493391 -0.14316563 -0.2932602 0.45320708 -0.30425197 0.30686074
0.41759896 0.35684586 0.07082233 0.12432859 0.25075927 -0.32044828 0.50132275 -0.16833694
0.2323479 0.53026325 -0.14565842 -0.006096177 -0.15921597 0.14266607 0.27157253 -0.32618922
0.19555941 -0.4778663
00000000: 65fa 55be 7e0f dabe 8de6 e0be 929e 83be
00000010: 66ff 00bf 69e7 e53e 5bc8 dabe 1dae 153e
00000020: 3e78 fabe 06ee cbbe 23ab ef3e 61a7 373e
00000030: fbb9 1b3d b3ab 50be daf5 a0be 6c37 e83e
00000040: 8e58 a2be 2801 1d3e a689 af3e b7f6 483e
00000050: 7aeb c43e 0707 853e b11a 903e 4c69 e9bd
00000060: 7efd 023f 1419 323c 3673 c23e 58c9 ae3e
00000070: 470f a2be eb88 bebe cd97 31be 1103 933e
00000080: bb25 5e3e 92b6 6abe 3c88 9a3e 8e6b ffbe
00000090: 2a08 d5be 4aec a8bd 94f6 8bbe 3256 f0be
000000a0: 0c25 4ebe d7fd c73e 2eda 3ebe 0cb1 cd3e
000000b0: 92ef 12be f6ef d9be 7e23 033f 5624 953e
000000c0: e7b2 e73e 9fed dcbe 9996 bfbe d831 c63e
000000d0: 3637 a3be 67d3 d03e 4225 0a3f e1c7 493e
000000e0: 7fbf 093e 64be 503e cd5f ee3e 086b 81be
000000f0: 3a0d 683e 82c8 8cbe d0fa 233e 2e6b d53e
00000100: d769 c6be 4f13 a4be 8231 d7bd a812 4e3e
00000110: 3b0b 5f3e 1692 b7be 13d3 b93e 517c dbbe
00000120: 6fc8 883e b2dc f53e ddbf c73e 0e78 cc3e
00000130: e739 053e 1c56 cabd fd3c e63e 2723 1cbe
00000140: 335b a83e 8b24 953e 7c4c 46be 1dff c2be
00000150: 7f1b a4be fd6d 623e fed3 353e 5e13 7dbe
00000160: 5f3d a13e cfbc c3be e2a7 a5be ebf8 e8be
00000170: 9718 9bbe f13d fcbe 20df 07be 4e96 eb3e
00000180: 11a9 2bbe 1a6c af3e 9763 71be 4ae2 85be
00000190: 7ab8 153f 7b60 ca3e 45d1 b03d e8d3 c7bd
000001a0: 3c17 c9be f2c0 0b3e 12c3 f8be d900 fe3e
000001b0: d07d bcbd a471 d6be 30df d7be 1545 d6be
000001c0: 5da6 3dbe 339f a63d f69f 0ebf 8768 a53e
000001d0: 5c0f 99bd 5062 fbbe 170f f23e 2ced c93e
000001e0: 89a8 e83e 7b94 a6be c9fa cebe 0e33 803e
000001f0: 9c05 ccbd fdf0 5b3e 5194 78be 90b9 babe
00000200: 7f0b 45be 58f0 92be 4310 fcbe 63f6 e13e
00000210: e787 81be 397c e63e f1dc ddbe 43d0 9abe
00000220: a78f 043f e650 163e 93dc b23e 039a 12be
00000230: 3326 96be c20a e83e eac6 9bbe da1c 9d3e
00000240: 88cf d53e 80b4 b63e 4c0b 913d fd9f fe3d
00000250: 8563 803e cc11 a4be b056 003f 8560 2cbe
00000260: 9cec 6d3e 55bf 073f 7b27 15be 70c2 c7bb
00000270: 8309 23be 0e17 123e 8e0b 8b3e 4602 a7be
00000280: ba40 483e e4aa f4be

q_head.final_norm.gamma f4 [9]
1.0 1.0 1.0 1.0 1.0 1.0 1.0 1.0
1.0
00000000: 0000 803f 0000 803f 0000 803f 0000 803f
00000010: 0000 803f 0000 803f 0000 803f 0000 803f
00000020: 0000 803f

ema_model.q_head.action_bin_embeddings f4 [2, 256, 9]
0.19314027 -0.10670734 0.20542604 -0.1407417 -0.09473294 0.16787767 0.16714537 0.18849371
-0.15242042 0.16588624 -0.14064477 0.20577078 -0.14405867 -0.1229401 0.19148627 0.21229008
0.21381837 -0.15644675 0.15948837 -0.13235125 0.17141372 -0.18957585 -0.11884073 0.1672482
0.207147 0.15130828 -0.15668446 0.14292619 -0.1145437 0.2312355 -0.16705972 -0.115501076
0.171814 0.19539048 0.21071824 -0.123898305 0.12962414 -0.13870111 0.22566819 -0.15867981
-0.12845136 0.17661484 0.18611857 0.19137041 -0.095169626 0.18389554 -0.14184159 0.192055
-0.15250564 -0.10974518 0.14776163 0.16524857 0.21849975 -0.1425663 0.17940138 -0.1656783
0.19489758 -0.15797234 -0.15115635 0.18736637 0.22215454 0.16780156 -0.14366938 0.16666557
-0.12991363 0.20505795 -0.16372624 -0.090353034 0.216611 0.1256288 0.20919384 -0.14672236
0.12997471 -0.12336916 0.18950596 -0.1480498 -0.113240704 0.17480585 0.15846282 0.15636225
-0.094636545 0.21068741 0.027704334 0.1940204 -0.068777464 0.09328251 0.21279351 0.190117
0.24889526 -0.001892808 0.120965764 -0.03627941 0.12185606 -0.020878488 -0.049979262 0.1473863
0.15348825 0.18306306 -0.07426791 0.18411176 -0.16454822 0.20471087 -0.14647801 -0.12416225
0.1924678 0.15047972 0.1835726 -0.10626322 0.20620038 -0.15972272 0.1824816 -0.1798761
-0.14855412 0.20770732 0.17943381 0.18847354 -0.16877039 0.18275957 -0.11591122 0.18385044
-0.16454153 -0.11417631 0.19520472 0.19253358 0.171491 -0.101728715 0.15321887 -0.13760225
0.20235687 -0.15335347 -0.105494566 0.15133289 0.19116102 0.1984113 -0.09491126 0.1709175
-0.14085864 0.18936902 -0.1580058 -0.12767187 0.20674722 0.14973265 0.17230281 -0.09866335
0.15031388 -0.11414058 0.1600552 -0.1544796 -0.11550469 0.17532106 0.17113577 0.2094309
-0.13979872 0.18060367 -0.1527446 0.18500349 -0.142148 -0.14100716 0.17848279 0.17392519
0.17217663 -0.15451291 0.17292805 -0.11224679 0.17436953 -0.1564204 -0.09769591 0.17475456
0.1703994 0.20667921 -0.11567401 0.17745928 -0.13472459 0.20398991 -0.16105361 -0.15811238
0.16193719 0.19728452 0.20553038 -0.16318202 0.17131405 -0.16883273 0.17518318 -0.15633582
-0.10319677 0.17069454 0.17597511 0.2072602 -0.14402863 0.1621133 -0.13394067 0.22879253
-0.1289875 -0.1371393 0.16871375 0.1699136 0.21403715 -0.16018382 0.14858 -0.13982873
0.20558685 -0.12581046 -0.10305747 0.18797438 0.16382796 0.20390336 -0.15076876 0.1718759
-0.1661013 0.17594428 -0.12913513 -0.10531756 0.1446528 0.14135222 0.20007282 -0.12582883
0.21631129 -0.16694897 0.19164674 -0.1802395 -0.1541401 0.169849 0.16514283 0.16137742
-0.1150235 0.17637682 -0.11279974 0.21004395 -0.1476356 -0.1469591 0.17854431 0.1864298
0.20018156 -0.13474339 0.16331822 -0.11094715 0.22480163 -0.1415594 -0.11991604 0.17472441
0.19485122 0.18538715 -0.13422808 0.18505205 -0.13139689 0.21713987 -0.16347127 -0.12216327
0.1678863 0.19189234 0.17779985 -0.13367093 0.1692585 -0.1702298 0.1762782 -0.18459965
00000000: 90c6 453e 6189 dabd 345b 523e 981e 10be
00000010: 5803 c2bd 20e8 2b3e 2828 2b3e 7f04 413e
00000020: 1914 1cbe 15de 293e 2f05 10be 93b5 523e
00000030: 1e84 13be 05c8 fbbd fa14 443e 9262 593e
00000040: 34f3 5a3e 9433 20be eb50 233e 1687 07be
00000050: 1487 2f3e 2c20 42be c562 f3bd 1d43 2b3e
00000060: 581e 543e 8ff0 1a3e e471 20be 3e5b 123e
00000070: e395 eabd 00c9 6c3e b411 2bbe d48b ecbd
00000080: 02f0 2f3e 7114 483e 86c6 573e 65be fdbd
00000090: 31bc 043e aa07 0ebe 9015 673e f67c 22be
000000a0: c188 03be 85da 343e de95 3e3e 9bf6 433e
000000b0: 4be8 c2bd 1d4f 3c3e ec3e 11be 11aa 443e
000000c0: 702a 1cbe 15c2 e0bd d34e 173e ec36 293e
000000d0: 66be 5f3e e6fc 11be ffb4 373e 93a7 29be
000000e0: 3b93 473e 80c3 21be bbc8 1abe f8dc 3f3e
000000f0: 7b7c 633e 2cd4 2b3e 111e 13be 61aa 2a3e
00000100: 1408 05be b6fa 513e daa7 27be 030b b9bd
00000110: 46cf 5d3e d6a4 003e e936 563e 633e 16be
00000120: 1718 053e f8a8 fcbd da0d 423e 5e9a 17be
00000130: beea e7bd 4e00 333e 1444 223e 6d1d 203e
00000140: ced0 c1bd 71be 573e 33f4 e23c 49ad 463e
00000150: 33db 8cbd e70a bf3d 8be6 593e 08ae 423e
00000160: 66de 7e3e 1918 f8ba e6bc f73d b899 14bd
00000170: ac8f f93d 5d09 abbc 0eb7 4cbd 6fec 163e
00000180: 062c 1d3e e274 3b3e c619 98bd cb87 3c3e
00000190: 547f 28be ba9f 513e 55fe 15be c748 febd
000001a0: 4716 453e 5b17 1a3e 75fa 3b3e 88a0 d9bd
000001b0: 3126 533e 5a8e 23be 75dc 3a3e 7131 38be
000001c0: 921e 18be 3ab1 543e 7fbd 373e 35ff 403e
000001d0: 25d2 2cbe 5325 3b3e dd62 edbd 4a43 3c3e
000001e0: 937d 28be 45d5 e9bd bfe3 473e 8627 453e
000001f0: 569b 2f3e 2557 d0bd 68e5 1c3e 9be7 0cbe
00000200: a436 4f3e b108 1dbe 890d d8bd 02f7 1a3e
00000210: b7bf 433e 552c 4b3e d660 c2bd ff04 2f3e
00000220: 3f3d 10be f4e9 413e 46cc 21be 6abc 02be
00000230: 8bb5 533e 8453 193e 2670 303e 0310 cabd
00000240: e2eb 193e 89c2 e9bd 83e5 233e e62f 1ebe
00000250: b98d ecbd 5d87 333e 373e 2f3e 0e75 563e
00000260: 6527 0fbe 2bf0 383e 1569 1cbe 8e71 3d3e
00000270: 3f8f 11be 2e64 10be 31c4 363e 7219 323e
00000280: 124f 303e a238 1ebe 0d14 313e a5e1 e5bd
00000290: ed8d 323e ab2c 20be cb14 c8bd dcf2 323e
000002a0: 2e7d 2e3e b7a3 533e 7fe6 ecbd e3b7 353e
000002b0: 3ef5 09be bbe2 503e 3deb 24be 36e8 21be
000002c0: ddd2 253e f404 4a3e 8e76 523e 3019 27be
000002d0: f36c 2f3e 7de2 2cbe 3863 333e 7f16 20be
000002e0: d458 d3bd 8dca 2e3e d232 343e 053c 543e
000002f0: 3e7c 13be 0701 263e be27 09be 9748 6a3e
00000300: 4d15 04be 3f6e 0cbe 4cc3 2c3e d5fd 2d3e
00000310: 8e2c 5b3e 3a07 24be 5b25 183e 432f 0fbe
00000320: 5c85 523e 75d4 00be cb0f d3bd 5b7c 403e
00000330: 84c2 273e 0bcc 503e 2063 1abe 3c00 303e
00000340: 7616 2abe bd2a 343e 003c 04be bcb0 d7bd
00000350: dd1f 143e a3be 103e e4df 4c3e 46d9 00be
00000360: b580 5d3e acf4 2abe 0b3f 443e b490 38be
00000370: e7d6 1dbe e5ec 2d3e 341b 293e 1f40 253e
00000380: 7191 ebbd 209c 343e 8d03 e7bd c315 573e
00000390: c92d 17be 727c 16be 52d4 363e 74e7 3e3e
000003a0: 65fc 4c3e 2cfa 09be e43c 273e 4238 e3bd
000003b0: 6632 663e f3f4 10be 8a96 f5bd f5ea 323e
000003c0: 1487 473e 21d6 3d3e 1673 09be 497e 3d3e
000003d0: e88c 06be ea59 5e3e 0365 27be bd30 fabd
000003e0: 63ea 2b3e 6d7f 443e 2a11 363e 08e1 08be
000003f0: 1a52 2d3e b850 2ebe 4682 343e b107 3dbe

ema_model.q_head.mamba.A_log f4 [18, 16]
-0.26116934 0.42445537 0.82880926 1.0994488 1.3241806 1.4951607 1.6562356 1.7842321
1.8948978 2.009604 2.1037428 2.1965733 2.2797468 2.3367805 2.4222257 2.4750304
-0.19836372 0.48241672 0.88414794 1.1487408 1.3718541 1.5384225 1.6985723 1.8230402
1.9308672 2.0458307 2.1380997 2.2294385 2.3106546 2.3636112 2.4500837 2.499541
-0.16096331 0.5235912 0.92867994 1.195025 1.41863 1.58773 1.7471219 1.8726383
1.9818772 2.0954242 2.1880715 2.2792287 2.3607438 2.4150708 2.499039 2.5509844
-0.2181619 0.4668273 0.8671807 1.1581652 1.3804152 1.5665299 1.7168751 1.8525567
1.978274 2.0757608 2.1732311 2.255693 2.3356123 2.4257786 2.483936 2.5559576
-0.2435335 0.44168466 0.84729356 1.1161499 1.3398784 1.5091784 1.6695263 1.7955812
1.9050782 2.0192785 2.112128 2.205337 2.2882183 2.3420193 2.4281366 2.4792526
0.17849709 0.86951596 1.2635547 1.5696547 1.7917392 1.9846705 2.1321373 2.269887
2.394596 2.488684 2.5845623 2.6611214 2.736113 2.8290615 2.8802712 2.9541295
-0.24291678 0.44403145 0.8464273 1.1363263 1.3604171 1.5463718 1.7004466 1.8374813
1.9636213 2.0641303 2.16233 2.2487326 2.330615 2.4222586 2.4827793 2.5558054
-0.108527355 0.5699921 0.96967345 1.2380918 1.4604651 1.6302042 1.7872199 1.9138032
2.0254285 2.135976 2.2290454 2.3174238 2.3969474 2.4608645 2.5388477 2.5940378
-0.09980884 0.57732004 0.97699547 1.2387686 1.4613653 1.6276608 1.7858537 1.9098547
2.0179532 2.131474 2.2232456 2.3120055 2.3910882 2.446255 2.5296855 2.5798573
-0.29575402 0.39521018 0.80461955 1.0790309 1.3058661 1.4798354 1.6430042 1.7729702
1.8865265 2.0020835 2.097786 2.1936283 2.2795005 2.3384688 2.4245358 2.4798775
-0.33311337 0.36130553 0.7761419 1.048813 1.2761544 1.4502481 1.6132712 1.7429668
1.8576471 1.9725549 2.0677705 2.1660993 2.2535024 2.3107235 2.3974924 2.4522288
-0.16691637 0.5137648 0.9154771 1.1815687 1.4043082 1.571842 1.7309566 1.855746
1.9641666 2.0779705 2.1702185 2.2606936 2.3412638 2.396018 2.4804988 2.5309136
-0.023462037 0.66114724 1.0631014 1.3272761 1.5505337 1.7170687 1.8748685 1.9986297
2.1065164 2.2205467 2.3125951 2.3996341 2.4777198 2.5324886 2.6155412 2.666061
-0.06614448 0.61278886 1.0130748 1.2741567 1.4970527 1.6637169 1.8215281 1.945936
2.054389 2.1676576 2.2597706 2.347845 2.4265928 2.4828188 2.564999 2.6163607
-0.04870991 0.63244504 1.0338874 1.2939829 1.517311 1.6835641 1.8418268 1.9659842
2.073798 2.188012 2.2802033 2.3682485 2.4470363 2.5015233 2.5846841 2.6357756
-0.12581353 0.5568256 0.9608249 1.2244313 1.4479051 1.6160835 1.7753835 1.9004751
2.0092437 2.1229737 2.215364 2.3060346 2.387012 2.4412212 2.5249093 2.5767064
00000000: fdb7 85be 3752 d93e d82c 543f bdba 8c3f
00000010: c07e a93f 6d61 bf3f 87ff d33f b861 e43f
00000020: 038c f23f 5a9d 0040 b9a3 0640 a894 0c40
00000030: 5fe7 1140 d08d 1540 bf05 1b40 e666 1e40
00000040: dc1f 4bbe 53ff f63e 8557 623f f009 933f
00000050: ea98 af3f 07eb c43f d16a d93f 6259 e93f
00000060: a826 f73f e4ee 0240 a0d6 0840 1faf 0e40
00000070: c4e1 1340 6845 1740 2cce 1c40 7bf8 1f40
00000080: 91d3 24be 130a 063f f8bd 6d3f 94f6 983f
00000090: ab95 b53f bd3a cb3f b1a1 df3f 9db2 ef3f
000000a0: 27ae fd3f 6e1b 0640 5d09 0c40 e2de 1140
000000b0: 6d16 1740 8590 1a40 41f0 1f40 5443 2340
000000c0: d565 5fbe fd03 ef3e 8eff 5d3f c23e 943f
000000d0: 72b1 b03f 0d84 c83f 90c2 db3f 9420 ed3f
000000e0: 1538 fd3f 44d9 0440 3816 0b40 465d 1040
000000f0: ac7a 1540 f53f 1b40 cff8 1e40 cf94 2340
00000100: d960 79be 7e24 e23e 3be8 583f 00de 8e3f
00000110: 2381 ab3f c22c c13f 0ab3 d53f 9bd5 e53f
00000120: 9ad9 f33f dc3b 0140 1b2d 0740 3e24 0d40
00000130: 2b72 1240 a5e3 1540 9766 1b40 13ac 1e40
00000140: f1c7 363e 9998 5e3f 29bc a13f 72ea c83f
00000150: b657 e53f af09 fe3f f074 0840 d445 1140
00000160: 1041 1940 9946 1f40 7869 2540 d04f 2a40
00000170: 7a1c 2f40 580f 3540 5d56 3840 7510 3d40
00000180: 2dbf 78be 1758 e33e 76af 583f 2473 913f
00000190: 2622 ae3f 83ef c53f 3ca8 d93f 9632 eb3f
000001a0: f157 fb3f b61a 0440 9d63 0a40 3ceb 0f40
000001b0: cc28 1540 4906 1b40 dbe5 1e40 5192 2340
000001c0: 9743 debd 01eb 113f 853c 783f cb79 9e3f
000001d0: 85f0 ba3f 88aa d03f 9fc3 e43f 81f7 f43f
000001e0: 9fa0 0140 d5b3 0840 aea8 0e40 ac50 1440
000001f0: 9667 1940 ce7e 1d40 7b7c 2240 b704 2640
00000200: 9468 ccbd 3fcb 133f 601c 7a3f f88f 9e3f
00000210: 050e bb3f 3057 d03f db96 e43f 1e76 f43f
00000220: 2526 0140 126a 0840 a849 0e40 e6f7 1340
00000230: 9707 1940 718f 1c40 5ee6 2140 621c 2540
00000240: 126d 97be fd58 ca3e 8cfb 4d3f af1d 8a3f
00000250: 9f26 a73f 3f6b bd3f f64d d23f b0f0 e23f
00000260: b379 f13f 2322 0040 2042 0640 6864 0c40
00000270: 56e3 1140 79a9 1540 982b 1b40 50b6 1e40
00000280: d68d aabe 0afd b83e 3cb1 463f 813f 863f
00000290: 0759 a33f bba1 b93f ac7f ce3f 8919 df3f
000002a0: 61c7 ed3f ae7c fc3f 5a56 0440 5fa1 0a40
000002b0: 6239 1040 e5e2 1340 8470 1940 51f1 1c40
000002c0: 20ec 2abe 1786 033f b55c 6a3f a53d 973f
000002d0: 5fc0 b33f 1e32 c93f fc8f dd3f 1689 ed3f
000002e0: d069 fb3f 78fd 0440 dce4 0a40 34af 1040
000002f0: 44d7 1540 5c58 1940 7ec0 1e40 7dfa 2140
00000300: 7533 c0bc f240 293f b513 883f 2fe4 a93f
00000310: e377 c63f e8c8 db3f b1fb ef3f 19d3 ff3f
00000320: 2ad1 0640 701d 0e40 8f01 1440 9b93 1940
00000330: f692 1e40 4b14 2240 0765 2740 bea0 2a40
00000340: c276 87bd bbdf 1c3f 6fac 813f 9117 a33f
00000350: 6c9f bf3f adf4 d43f d527 e93f 6e14 f93f
00000360: 1c7b 0340 e7ba 0a40 15a0 1040 1843 1640
00000370: 4c4d 1b40 81e6 1e40 f228 2440 7472 2740
00000380: 0b84 47bd ebe7 213f 6c56 843f 3ba1 a53f
00000390: 3f37 c23f 077f d73f fbc0 eb3f 5fa5 fb3f
000003a0: 1bb9 0440 6308 0c40 daee 1140 6291 1740
000003b0: 3e9c 1c40 f518 2040 776b 2540 8cb0 2840
000003c0: 43d5 00be 1f8c 0e3f 9ff8 753f 2aba 9c3f
000003d0: f454 b93f d3db ce3f c43f e33f c542 f33f
000003e0: 7397 0040 cdde 0740 86c8 0d40 1296 1340
000003f0: cec4 1840 f83c 1c40 1d98 2140 c2e8 2440

ema_model.q_head.mamba.D f4 [18]
1.2790812 1.2592041 1.232074 1.2629293 1.2762202 1.2407618 1.2877512 1.203699
1.2717639 1.2654496 1.2882073 1.2430631 1.2544221 1.2325745 1.2460409 1.2213836
1.2701352 1.2921357
00000000: efb8 a33f 9a2d a13f 9ab4 9d3f aba7 a13f
00000010: 2f5b a33f 48d1 9e3f 08d5 a43f cf12 9a3f
00000020: 29c9 a23f 41fa a13f fae3 a43f b11c 9f3f
00000030: e790 a03f 00c5 9d3f 457e 9f3f 4c56 9c3f
00000040: ca93 a23f b464 a53f

ema_model.q_head.mamba.in_proj.weight f4 [36, 9]
-0.6469964 -0.46595144 -0.06303718 -0.09506429 -0.59534156 -0.3576235 -0.054449737 -0.3180628
-0.39082727 -0.5924261 -0.5515348 -0.32016623 -0.063059576 -0.12055089 -0.04518459 -0.16961531
-0.28881633 -0.33937058 0.44959176 0.082424864 0.20213464 0.05425855 0.32463995 -0.026970234
0.09149559 0.07358241 0.3441826 -0.060899697 -0.06563882 0.072172485 0.07978249 -0.1545957
0.2736328 0.35139698 0.22932611 -0.057259247 0.3642529 0.5998983 0.30037376 0.61539865
0.5437486 0.5655199 0.04700565 0.48444006 0.36549523 -0.44663247 -0.2693184 -0.5263167
-0.005664684 -0.4579103 -0.11519607 -0.045509752 -0.4613171 -0.35918245 0.11706766 -0.29845828
0.05249765 -0.43431357 0.17747448 -0.34142676 -0.13392052 -0.38766792 -0.34085315 0.18565811
-0.3154276 0.09844538 -0.107337944 0.17814621 -0.31306785 -0.3490613 0.009846425 -0.15484652
0.42056093 0.28021732 0.20618027 0.47595382 0.47468948 0.041298606 0.24993299 0.31699547
0.41436806 -0.0037668813 -0.108661994 -0.46569592 -0.16822822 -0.101742156 -0.4760811 -0.45647755
-0.22652946 -0.27323177 -0.66152865 -0.15590611 -0.09687875 -0.5430644 -0.52779794 -0.52345794
-0.24056257 -0.55673563 -0.30532607 0.052355267 0.16485909 -0.26121354 0.16329037 0.014892297
0.114639975 -0.32108274 -0.22699441 0.17535216 0.31171265 -0.29151902 0.22023432 0.32317364
-0.12547798 0.21494125 0.40301892 -0.054717876 0.11511398 -0.28351584 -0.49424207 -0.6346972
-0.39953777 0.027851582 -0.19079746 0.02763617 -0.0028434123 -0.3005622 -0.06663873 -0.10995218
-0.0072495644 -0.24774992 -0.44975942 -0.1393151 -0.48587304 -0.5472813 -0.40699458 0.28980407
-0.10237866 0.043954253 0.12716417 -0.22305492 0.004020788 0.5359539 0.5573926 0.17280254
-0.1419483 -0.53644896 -0.31077486 -0.51495564 -0.4252705 -0.018420251 -0.4467878 -0.46537113
-0.26961148 0.556193 0.12720752 0.4551469 0.51216394 0.43859866 0.69162506 0.5047258
0.5220527 0.43055776 0.30851856 0.08865092 0.41589892 0.1142239 0.29256943 0.5026711
0.60052097 0.5723573 -0.06584139 -0.21090205 0.15375195 -0.31233847 -0.08179626 0.061488077
-0.43750572 -0.5733335 -0.60358095 -0.26002848 -0.5775324 -0.36229518 -0.44480968 0.12329099
0.12721044 -0.28906137 -0.5383829 -0.21815632 -0.09289444 -0.48814496 -0.17079805 -0.16038501
0.12995914 0.022526778 -0.550139 0.008025316 -0.22620888 -0.37126032 0.35468838 0.079671234
0.12437461 0.14493614 0.02359587 0.5525702 0.1473226 0.40293437 0.21602294 0.53912723
0.3361919 0.046828352 0.4948703 0.27770206 0.20992023 0.27244288 0.25861287 0.42625844
-0.249436 0.12310732 -0.05704087 -0.3061216 -0.13354146 -0.52393997 -0.50237226 -0.35329267
-0.039249107 0.11389691 0.054717295 0.38940182 0.49958146 0.080060706 0.037645545 0.4533408
0.2322399 0.18605873 0.28113723 0.19291674 -0.0346606 0.10890545 -0.013285037 0.5091673
0.051118392 0.60538316 -0.06833622 -0.65554285 -0.28073564 -0.43208173 0.071710475 0.0414403
-0.48080257 -0.40512347 -0.56544137 -0.21798027 -0.6375418 -0.15920976 -0.5712737 0.014984841
00000000: 8ea1 25bf 3091 eebe a319 81bd 11b1 c2bd
00000010: 4e68 18bf 6d1a b7be b006 5fbd 21d9 a2be
00000020: 831a c8be 3da9 17bf 6231 0dbf d4ec a3be
00000030: 6125 81bd 63e3 f6bd 7a13 39bd a3af 2dbe
00000040: bcdf 93be fbc1 adbe e430 e63e 5ece a83d
00000050: 62fc 4e3e 373e 5e3d 3537 a63e aef0 dcbc
00000060: 0a62 bb3d 60b2 963d b438 b03e f671 79bd
00000070: a56d 86bd 2bcf 933d 0165 a33d 564e 1ebe
00000080: 9919 8c3e 4eea b33e 77d4 6a3e ac88 6abd
00000090: 5b7f ba3e ef92 193f 97ca 993e c48a 1d3f
000000a0: 1c33 0b3f eac5 103f ff88 403d 8708 f83e
000000b0: 3122 bb3e 03ad e4be 1ae4 89be b1bc 06bf
000000c0: d09e b9bb 3873 eabe ebeb ebbd 6f68 3abd
000000d0: c131 ecbe c3e6 b7be 2bc1 ef3d 86cf 98be
000000e0: c707 573d 595e debe dfbb 353e 7dcf aebe
000000f0: 7622 09be 697c c6be 4e84 aebe 291d 3e3e
00000100: ba7f a1be bb9d c93d ffd3 dbbd f66b 363e
00000110: 6e4a a0be 2ab8 b2be e652 213c 1690 1ebe
00000120: c353 d73e a578 8f3e ec20 533e 38b0 f33e
00000130: 800a f33e ba28 293d 6fee 7f3e 3b4d a23e
00000140: 0d28 d43e c8dd 76bb 2e8a debd b26f eebe
00000150: 0544 2cbe 315e d0bd e7c0 f3be 6db7 e9be
00000160: 57f7 67be 09e5 8bbe f159 29bf daa5 1fbe
00000170: 5e68 c6bd 4506 0bbf c41d 07bf 5701 06bf
00000180: 0956 76be 3a86 0ebf b353 9cbe 7a72 563d
00000190: d2d0 283e c8bd 85be 9735 273e d2fe 733c
000001a0: 5dc8 ea3d f564 a4be 3971 68be 848f 333e
000001b0: cd98 9f3e fb41 95be 1b85 613e 0477 a53e
000001c0: 4d7d 00be 8f19 5c3e 7f58 ce3e da1f 60bd
000001d0: e1c0 eb3d fd28 91be 4c0d fdbe 847b 22bf
000001e0: 3790 ccbe 0029 e43c 6960 43be 4065 e23c
000001f0: 8b58 3abb 4ae3 99be e379 88bd 9c2e e1bd
00000200: c18d edbb 28b2 7dbe de46 e6be 9ea8 0ebe
00000210: 5ac4 f8be a11a 0cbf 9861 d0be 3361 943e
00000220: e7ab d1bd 6009 343d 5337 023e 8268 64be
00000230: d0c0 833b 4634 093f 48b1 0e3f 26f3 303e
00000240: e55a 11be b854 09bf e21d 9fbe 22d4 03bf
00000250: 0ebd d9be 11e6 96bc 5fc1 e4be 2045 eebe
00000260: 840a 8abe aa62 0e3f b042 023e 0409 e93e
00000270: 2d1d 033f 0190 e03e 570e 313f b635 013f
00000280: 3fa5 053f 1172 dc3e 25f6 9d3e 9d8e b53d
00000290: b4f0 d43e 38ee e93d a9cb 953e 0eaf 003f
000002a0: bebb 193f 0286 123f dad7 86bd b5f6 57be
000002b0: 2771 1d3e d4ea 9fbe cc84 a7bd ecda 7b3d
000002c0: c000 e0be fcc5 12bf 4884 1abf 7422 85be
000002d0: 2ad9 13bf c17e b9be 18be e3be fd7f fc3d
000002e0: 7443 023e daff 93be 76d3 09bf 5f64 5fbe
000002f0: 713f bebd 23ee f9be afe5 2ebe f83b 24be
00000300: 0214 053e 148a b83c e9d5 0cbf 9d7c 033c
00000310: 4da3 67be d515 bebe b799 b53e ac2a a33d
00000320: 1eb8 fe3d 246a 143e 204c c13c 3e75 0d3f
00000330: bcdb 163e 6a4d ce3e 1e35 5d3e 3e04 0a3f
00000340: 5821 ac3e 16cf 3f3d a45f fd3e f72e 8e3e
00000350: 54f5 563e a27d 8b3e e868 843e 8c3e da3e
00000360: 276c 7fbe b11f fc3d b0a3 69bd f8bb 9cbe
00000370: 18bf 08be ee20 06bf 789b 00bf c7e2 b4be
00000380: acc3 20bd c842 e93d 3e1f 603d ad5f c73e
00000390: 24c9 ff3e def6 a33d 3732 1a3d 491c e83e
000003a0: 4cd0 6d3e 2e86 3e3e 38f1 8f3e f78b 453e
000003b0: 46f8 0dbd d209 df3d 7ca9 59bc ca58 023f
000003c0: 8561 513d 64fa 1a3f dcf3 8bbd a8d1 27bf
000003d0: 95bc 8fbe d139 ddbe f1dc 923d 4ebd 293d
000003e0: c12b f6be 586c cfbe c4c0 10bf 3836 5fbe
000003f0: f035 23bf e207 23be fe3e 12bf fb82 753c
