checkpoints/q-mamba/20240817_103731/checkpoint-4.pt (torch, 115222 bytes, 42 tensors)

q_head.action_bin_embeddings f4 [2, 256, 9]
000000 1d c1 45 3e 8d 80 da bd 5e 55 52 3e c6 18 10 be
       0.19311948 -0.1066905 0.20540377 -0.1407195
000010 47 fc c1 bd 30 e2 2b 3e 6a 24 2b 3e eb fe 40 3e
       -0.09471946 0.16785502 0.1671311 0.18847243
000020 7f 0f 1c be e2 c8 29 3e 68 0b 10 be e0 a7 52 3e
       -0.15240286 0.16580537 -0.14066851 0.20571852
000030 49 8b 13 be 18 db fb bd e0 02 44 3e 61 53 59 3e
       -0.14408602 -0.12297648 0.19141722 0.21223213
000040 d4 e0 5a 3e 40 3a 20 be 88 4b 23 3e 14 83 07 be
       0.21374828 -0.1564722 0.15946782 -0.13233596
000050 68 81 2f 3e d8 1a 42 be 65 5c f3 bd 49 3d 2b 3e
       0.17139208 -0.18955553 -0.11882857 0.16722597
000060 98 1a 54 3e 13 eb 1a 3e aa 6d 20 be 71 58 12 3e
       0.2071327 0.15128736 -0.15666834 0.1429155
000070 1b 92 ea bd 39 c6 6c 3e 41 0f 2b be a4 88 ec bd
       -0.11453649 0.23122491 -0.16705038 -0.115495
000080 05 ed 2f 3e 8f 12 48 3e be c3 57 3e 3d ba fd bd
       0.1718026 0.1953833 0.21070763 -0.12389038
000090 a4 b6 04 3e e1 02 0e be aa 0f 67 3e c8 76 22 be
       0.12960297 -0.13868286 0.22564569 -0.15865624
0000a0 e4 84 03 be 7e d4 34 3e 0b 92 3e 3e f3 f0 43 3e
       -0.12843663 0.17659184 0.18610398 0.19134884
0000b0 3e de c2 bd 42 4b 3c 3e 47 3b 11 be 00 a6 44 3e
       -0.095150456 0.18388084 -0.14182769 0.19203949
0000c0 ca 25 1c be ed bb e0 bd a3 4a 17 3e 61 34 29 3e
       -0.1524879 -0.10973344 0.14774565 0.16523887
0000d0 82 ba 5f 3e 17 f9 11 be e9 b3 37 3e b7 a6 29 be
       0.21848491 -0.14255176 0.17939724 -0.16567503
0000e0 20 92 47 3e 53 c2 21 be 05 c8 1a be cf db 3f 3e
       0.19489336 -0.15796785 -0.15115364 0.18736194
0000f0 d7 7b 63 3e 1d d3 2b 3e 21 1d 13 be d1 a7 2a 3e
       0.2221521 0.16779752 -0.1436658 0.1666558
000100 8b 05 05 be 1e f8 51 3e b3 a4 27 be ac 06 b9 bd
       -0.12990396 0.20504805 -0.16371422 -0.09034476
000110 8a cc 5d 3e 38 a3 00 3e 5f 34 56 3e b3 3b 16 be
       0.21660057 0.12562263 0.20918415 -0.14671211
000120 09 f7 04 3e a8 78 fc bd 36 ea 41 3e 64 7a 17 be
       0.12984861 -0.12327701 0.18937 -0.14792782
000130 25 c6 e7 bd 58 dc 32 3e b6 2b 22 3e 49 fb 1f 3e
       -0.1131709 0.17466867 0.15836987 0.15623201
000140 bd 9e c1 bd c2 15 57 3e 70 f6 e6 3c 0f f8 45 3e
       -0.09454105 0.21004394 0.028193682 0.19332908
000150 29 90 8b bd 83 d0 bf 3d 20 30 59 3e ee 2d 42 3e
       -0.06814606 0.09365942 0.21209764 0.18962833
000160 56 30 7e 3e f6 bf b5 ba 73 49 ee 3d b4 bc 05 bd
       0.24823126 -0.0013866413 0.11635103 -0.032650664
000170 f6 19 f0 3d 70 6d 89 bc 3e 0d 40 bd 3b 22 12 3e
       0.11723702 -0.016775817 -0.04688763 0.1427087
000180 8f 02 19 3e 64 bb 36 3e b5 84 90 bd e0 83 3c 3e
       0.14942382 0.17844921 -0.07056562 0.18409681
000190 7d 7c 28 be 8b 9b 51 3e 7d fa 15 be 77 44 fe bd
       -0.16453739 0.20469491 -0.14646335 -0.124154024
0001a0 04 12 45 3e 9e 14 1a 3e 73 f6 3b 3e 8f 9a d9 bd
       0.19245154 0.15046927 0.18355732 -0.10625183
0001b0 25 26 53 3e 08 8e 23 be 88 dc 3a 3e 00 31 38 be
       0.2062002 -0.1597215 0.18248188 -0.17987442
0001c0 32 1e 18 be 35 b1 54 3e af bd 37 3e 3f ff 40 3e
       -0.14855269 0.20770724 0.17943452 0.18847369
0001d0 c2 d1 2c be c1 1f 3b 3e 79 5a ed bd 87 3d 3c 3e
       -0.16876891 0.18273832 -0.11589522 0.18382846
0001e0 1e 78 28 be 75 ce e9 bd c7 dd 47 3e b1 23 45 3e
       -0.16452071 -0.11416332 0.19518195 0.19251896
0001f0 ba 95 2f 3e 39 4e d0 bd 21 dc 1c 3e fe e0 0c be
       0.1714696 -0.1017117 0.15318348 -0.13757703
000200 e3 2c 4f 3e e5 ff 1c be 29 03 d8 bd 05 ed 1a 3e
       0.20231967 -0.15331991 -0.10547478 0.15129478
000210 27 b9 43 3e e9 22 4b 3e cf 52 c2 bd bd fa 2e 3e
       0.19113599 0.19837536 -0.09488451 0.17087837
000220 c9 38 10 be a5 e0 41 3e 5a c6 21 be 88 b9 02 be
       -0.14084162 0.18933351 -0.15798321 -0.12766087
000230 61 ab 53 3e 4b 4c 19 3e 5b 66 30 3e f2 06 ca bd
       0.20670845 0.1497051 0.17226546 -0.09864606
000240 5c e1 19 3e fd b1 e9 bd 14 da 23 3e 1d 25 1e be
       0.15027374 -0.11410902 0.16001159 -0.15443845
000250 f6 80 ec bd db 7b 33 3e 8f 36 2f 3e 25 6a 56 3e
       -0.11548035 0.17527716 0.17110656 0.20938928
000260 dd 1e 0f be 5c 8c 38 3e a1 8c 1c be f1 2b 3d 3e
       -0.13976617 0.18022293 -0.1528802 0.18473794
000270 07 b7 11 be e2 95 10 be c6 6d 36 3e 94 cc 31 3e
       -0.14229976 -0.14119676 0.17815313 0.17363197
000280 f8 f6 2f 3e c0 5d 1e be b6 0a 31 3e aa d2 e5 bd
       0.17184055 -0.1546545 0.17289242 -0.112218216
000290 e0 83 32 3e e6 22 20 be 19 09 c8 bd b0 e8 32 3e
       0.17433119 -0.15638313 -0.0976736 0.17471576
0002a0 98 76 2e 3e 18 9a 53 3e d2 d6 ec bd ff b6 35 3e
       0.17037427 0.20664251 -0.11564411 0.17745589
0002b0 c6 f3 09 be be e1 50 3e 5f e9 24 be c2 e6 21 be
       -0.13471898 0.20398614 -0.16104649 -0.15810683
0002c0 dc d1 25 3e 92 04 4a 3e a5 75 52 3e a7 17 27 be
       0.16193336 0.19728306 0.2055269 -0.16317616
0002d0 1d 6a 2f 3e a3 df 2c be 57 60 33 3e e8 12 20 be
       0.17130323 -0.16882186 0.1751722 -0.15632212
0002e0 d8 53 d3 bd 85 c7 2e 3e 19 31 34 3e 34 39 54 3e
       -0.10318726 0.17068298 0.17596854 0.20724946
0002f0 3f 79 13 be ff fe 25 3e 36 26 09 be 9c 46 6a 3e
       -0.1440172 0.16210555 -0.13393483 0.22878498
000300 4f 13 04 be e5 6c 0c be 27 c1 2c 3e 92 fc 2d 3e
       -0.1289799 -0.13713415 0.16870557 0.16990879
000310 92 2a 5b 3e 8a 05 24 be de 1d 18 3e 03 2b 0f be
       0.21402958 -0.16017738 0.14855143 -0.13981251
000320 84 7e 52 3e d7 ce 00 be 86 09 d3 bd e0 74 40 3e
       0.20556074 -0.12578903 -0.10304551 0.18794584
000330 6e bd 27 3e de c4 50 3e c5 5e 1a be cf f0 2f 3e
       0.16380855 0.20387599 -0.15075214 0.17181705
000340 73 0b 2a be 39 1a 34 3e 53 2d 04 be ef 9f d7 bd
       -0.1660593 0.17588128 -0.12907915 -0.10528552
000350 1f 0f 14 3e 6d b3 10 3e 0d d0 4c 3e d1 cd 00 be
       0.14458893 0.14130946 0.2000124 -0.12578513
000360 c2 7e 5d 3e a8 f3 2a be 2b 3d 44 3e 58 8f 38 be
       0.21630386 -0.1669451 0.19163959 -0.18023431
000370 0c d6 1d be df ea 2d 3e ee 19 29 3e 38 3e 25 3e
       -0.15413684 0.16984127 0.16513798 0.16137016
000380 1d 8f eb bd ef 99 34 3e 43 ff e6 bd 89 13 57 3e
       -0.11501906 0.17636846 -0.11279156 0.21003546
000390 0b 2b 17 be 9f 7a 16 be f6 d1 36 3e 22 e6 3e 3e
       -0.14762513 -0.14695214 0.17853531 0.18642476
0003a0 38 fa 4c 3e e7 f7 09 be c5 37 27 3e 4e 31 e3 bd
       0.20017326 -0.13473473 0.16329868 -0.110933885
0003b0 84 2d 66 3e 75 f0 10 be 2a 91 f5 bd b0 e5 32 3e
       0.224783 -0.14154227 -0.119905785 0.17470431
0003c0 ab 83 47 3e 26 d1 3d 3e 71 6f 09 be a3 7b 3d 3e
       0.19483821 0.18536815 -0.13421418 0.18504195
0003d0 65 8a 06 be 00 57 5e 3e cc 61 27 be 8b 2c fa bd
       -0.13138731 0.21712875 -0.163459 -0.12215527
0003e0 72 e7 2b 3e a6 7d 44 3e 6b 0e 36 3e 63 de 08 be
       0.16787508 0.19188556 0.17778938 -0.13366084
0003f0 95 50 2d 3e 16 4f 2e be 64 81 34 3e ce 05 3d be
       0.16925271 -0.17022356 0.17627484 -0.18459246

q_head.mamba.A_log f4 [18, 16]
000000 f7 b7 85 be e2 53 d9 3e c9 2d 54 3f f4 bb 8c 3f
       -0.26116917 0.4244681 0.8288236 1.0994859
000010 c6 7f a9 3f 07 63 bf 3f cc 00 d4 3f 50 63 e4 3f
       1.3242118 1.4952096 1.6562743 1.7842808
000020 d1 8d f2 3f d0 9d 00 40 1f a4 06 40 02 95 0c 40
       1.8949529 2.009632 2.1037672 2.1965947
000030 b2 e7 11 40 65 8e 15 40 f9 05 1b 40 4b 67 1e 40
       2.2797666 2.336816 2.4222395 2.4750545
000040 a1 21 4b be 39 fe f6 3e e1 56 62 3f 84 09 93 3f
       -0.19837047 0.48240831 0.88413817 1.1487279
000050 7e 98 af 3f 94 ea c4 3f 5f 6a d9 3f f0 58 e9 3f
       1.3718412 1.5384088 1.6985587 1.8230267
000060 34 26 f7 3f a3 ee 02 40 5e d6 08 40 dd ae 0e 40
       1.9308534 2.0458152 2.138084 2.2294228
000070 82 e1 13 40 1e 45 17 40 ea cd 1c 40 31 f8 1f 40
       2.310639 2.3635936 2.450068 2.4995234
000080 29 d4 24 be e1 09 06 3f c6 bd 6d 3f 62 f6 98 3f
       -0.16096558 0.52358824 0.92867696 1.195019
000090 79 95 b5 3f 8b 3a cb 3f 7f a1 df 3f 6b b2 ef 3f
       1.418624 1.5877241 1.747116 1.8726324
0000a0 f5 ad fd 3f 3c 1b 06 40 2b 09 0c 40 b0 de 11 40
       1.9818712 2.0954123 2.1880596 2.2792168
0000b0 3b 16 17 40 53 90 1a 40 0f f0 1f 40 22 43 23 40
       2.3607318 2.4150589 2.499027 2.5509725
0000c0 58 68 5f be 93 02 ef 3e c9 fe 5d 3f 52 3e 94 3f
       -0.21817148 0.4668165 0.86716896 1.1581519
0000d0 02 b1 b0 3f a0 83 c8 3f 20 c2 db 3f 28 20 ed 3f
       1.3804018 1.5665169 1.7168617 1.8525438
0000e0 a9 37 fd 3f 08 d9 04 40 fc 15 0b 40 0b 5d 10 40
       1.9782611 2.0757465 2.1732168 2.255679
0000f0 71 7a 15 40 b9 3f 1b 40 98 f8 1e 40 94 94 23 40
       2.3355982 2.4257643 2.483923 2.5559435
000100 6a 63 79 be 02 23 e2 3e 6c e7 58 3f 8f dd 8e 3f
       -0.2435433 0.44167334 0.8472812 1.1161364
000110 b2 80 ab 3f 4f 2c c1 3f 97 b2 d5 3f 2c d5 e5 3f
       1.339865 1.5091647 1.6695126 1.795568
000120 30 d9 f3 3f 96 3b 01 40 d5 2c 07 40 fa 23 0d 40
       1.9050655 2.0192618 2.1121113 2.2053208
000130 e8 71 12 40 6b e3 15 40 56 66 1b 40 d7 ab 1e 40
       2.2882023 2.3420055 2.428121 2.4792383
000140 b1 c8 36 3e 8c 98 5e 3f 0d bc a1 3f 52 ea c8 3f
       0.17849995 0.8695152 1.2635514 1.5696509
000150 86 57 e5 3f 7d 09 fe 3f be 74 08 40 a2 45 11 40
       1.7917335 1.9846646 2.1321254 2.269875
000160 de 40 19 40 cb 46 1f 40 aa 69 25 40 02 50 2a 40
       2.3945842 2.4886959 2.5845742 2.6611333
000170 ac 1c 2f 40 8a 0f 35 40 8f 56 38 40 a7 10 3d 40
       2.736125 2.8290734 2.880283 2.9541414
000180 af c1 78 be 1c 57 e3 3e df ae 58 3f ef 72 91 3f
       -0.24292634 0.44402397 0.8464183 1.13632
000190 cf 21 ae 3f 41 ef c5 3f dc a7 d9 3f 3b 32 eb 3f
       1.3604068 1.546364 1.7004352 1.8374704
0001a0 93 57 fb 3f 6f 1a 04 40 56 63 0a 40 f5 ea 0f 40
       1.96361 2.0641134 2.162313 2.2487156
0001b0 88 28 15 40 06 06 1b 40 9d e5 1e 40 12 92 23 40
       2.3305988 2.4222426 2.4827645 2.5557904
0001c0 1a 45 de bd bb ea 11 3f 33 3c 78 3f 99 79 9e 3f
       -0.10853024 0.56998795 0.96966857 1.2380859
0001d0 53 f0 ba 3f 46 aa d0 3f 61 c3 e4 3f 39 f7 f4 3f
       1.4604591 1.6301963 1.7872125 1.9137946
0001e0 6d a0 01 40 a3 b3 08 40 7c a8 0e 40 7a 50 14 40
       2.0254166 2.1359642 2.2290335 2.317412
0001f0 64 67 19 40 9c 7e 1d 40 49 7c 22 40 85 04 26 40
       2.3969355 2.4608526 2.5388358 2.5940259
000200 9b 69 cc bd 0d cb 13 3f 2e 1c 7a 3f c6 8f 9e 3f
       -0.0998108 0.57731706 0.9769925 1.2387626
000210 d3 0d bb 3f fe 56 d0 3f a9 96 e4 3f ec 75 f4 3f
       1.4613594 1.6276548 1.7858478 1.9098487
000220 f3 25 01 40 e0 69 08 40 76 49 0e 40 b4 f7 13 40
       2.0179412 2.131462 2.2232337 2.3119936
000230 65 07 19 40 3f 8f 1c 40 2c e6 21 40 30 1c 25 40
       2.3910763 2.446243 2.5296736 2.5798454
000240 33 6c 97 be 45 5b ca 3e 67 fc 4d 3f 88 1e 8a 3f
       -0.29574737 0.39522758 0.8046326 1.0790567
000250 12 27 a7 3f dc 6b bd 3f 35 4e d2 3f ef f0 e2 3f
       1.3058798 1.4798541 1.6430117 1.7729777
000260 e1 79 f1 3f f3 21 00 40 e7 41 06 40 2b 64 0c 40
       1.886532 2.002072 2.0977724 2.1936138
000270 19 e3 11 40 40 a9 15 40 62 2b 1b 40 1b b6 1e 40
       2.279486 2.3384552 2.4245229 2.4798648
000280 1c 81 aa be a7 10 b9 3e 35 bb 46 3f 11 47 86 3f
       -0.33301628 0.36145517 0.77629405 1.0490438
000290 1f 5f a3 3f f1 a8 b9 3f 2a 85 ce 3f 37 1f df 3f
       1.2763404 1.4504682 1.6134388 1.7431401
0002a0 dc cc ed 3f fb 7f fc 3f 99 57 04 40 55 a2 0a 40
       1.8578143 1.9726557 2.0678465 2.166158
0002b0 2a 3a 10 40 e9 e3 13 40 e9 70 19 40 d4 f1 1c 40
       2.25355 2.3107855 2.3975165 2.45226
0002c0 2e ed 2a be bf 85 03 3f 52 5c 6a 3f 70 3d 97 3f
       -0.1669204 0.51375955 0.9154712 1.1815624
0002d0 29 c0 b3 3f d7 31 c9 3f b7 8f dd 3f c7 88 ed 3f
       1.4043018 1.5718335 1.7309483 1.8557366
0002e0 79 69 fb 3f 46 fd 04 40 aa e4 0a 40 02 af 10 40
       1.9641563 2.0779586 2.1702065 2.2606816
0002f0 12 d7 15 40 2a 58 19 40 4c c0 1e 40 4b fa 21 40
       2.3412519 2.396006 2.4804869 2.5309017
000300 31 34 c0 bc c0 40 29 3f 83 13 88 3f fd e3 a9 3f
       -0.023462387 0.66114426 1.0630955 1.3272702
000310 b1 77 c6 3f b6 c8 db 3f 7f fb ef 3f e7 d2 ff 3f
       1.5505277 1.7170627 1.8748626 1.9986237
000320 f8 d0 06 40 3e 1d 0e 40 5d 01 14 40 69 93 19 40
       2.1065044 2.2205348 2.3125832 2.3996222
000330 c4 92 1e 40 19 14 22 40 d5 64 27 40 8c a0 2a 40
       2.4777079 2.5324767 2.6155293 2.666049
000340 50 77 87 bd 89 df 1c 3f 3d ac 81 3f 5f 17 a3 3f
       -0.06614554 0.6127859 1.0130688 1.2741507
000350 3a 9f bf 3f 7b f4 d4 3f a3 27 e9 3f 3c 14 f9 3f
       1.4970467 1.663711 1.8215221 1.94593
000360 ea 7a 03 40 b5 ba 0a 40 e3 9f 10 40 e6 42 16 40
       2.054377 2.1676457 2.2597587 2.3478332
000370 1a 4d 1b 40 4f e6 1e 40 c0 28 24 40 42 72 27 40
       2.426581 2.482807 2.5649872 2.6163487
000380 b9 84 47 bd b9 e7 21 3f 3a 56 84 3f 09 a1 a5 3f
       -0.04871056 0.63244206 1.0338814 1.2939769
000390 0d 37 c2 3f d5 7e d7 3f c9 c0 eb 3f 2d a5 fb 3f
       1.517305 1.6835581 1.8418208 1.9659783
0003a0 e9 b8 04 40 31 08 0c 40 a8 ee 11 40 30 91 17 40
       2.073786 2.188 2.2801914 2.3682365
0003b0 0c 9c 1c 40 c3 18 20 40 45 6b 25 40 5a b0 28 40
       2.4470243 2.5015113 2.5846722 2.6357636
0003c0 b6 d5 00 be ed 8b 0e 3f 6d f8 75 3f f8 b9 9c 3f
       -0.12581524 0.5568226 0.9608219 1.2244253
0003d0 c2 54 b9 3f a1 db ce 3f 92 3f e3 3f 93 42 f3 3f
       1.4478991 1.6160775 1.7753775 1.9004692
0003e0 41 97 00 40 9b de 07 40 54 c8 0d 40 e0 95 13 40
       2.0092318 2.1229618 2.215352 2.3060226
0003f0 9c c4 18 40 c6 3c 1c 40 eb 97 21 40 90 e8 24 40
       2.387 2.4412093 2.5248973 2.5766945

q_head.mamba.D f4 [18]
000000 02 91 a3 3f 94 25 a1 3f f7 b1 9d 3f 92 a3 a1 3f
       1.2778628 1.2589593 1.2319936 1.2628043
000010 e5 37 a3 3f 5b c0 9e 3f 07 ce a4 3f 0b 0e 9a 3f
       1.2751433 1.2402452 1.2875375 1.2035536
000020 bf bc a2 3f 0c f0 a1 3f 9f af a4 3f c7 14 9f 3f
       1.2713851 1.2651381 1.2866095 1.2428216
000030 d7 81 a0 3f e8 a4 9d 3f 65 51 9f 3f a0 4c 9c 3f
       1.2539624 1.231595 1.2446715 1.2210884
000040 d5 90 a2 3f f0 52 a5 3f
       1.2700449 1.2915936

q_head.mamba.in_proj.weight f4 [36, 9]
000000 a4 39 25 bf c7 08 eb be f7 dc 78 bd 5d 9a b3 bd
       -0.6454108 -0.45905134 -0.060757603 -0.08769677
000010 48 e3 16 bf 17 19 b3 be cb 03 59 bd f4 cb 9e be
       -0.58940554 -0.3498008 -0.052982133 -0.3101498
000020 32 b2 c3 be 2c a7 17 bf 97 08 0d bf 79 e4 a3 be
       -0.3822189 -0.5923946 -0.5509123 -0.32010248
000030 1e 55 7f bd 1a b4 f3 bd 76 05 36 bd 8c a7 2d be
       -0.062337033 -0.11899586 -0.0444388 -0.16958445
000040 c6 62 93 be 22 56 ad be 65 20 e6 3e bb 11 a7 3d
       -0.28786296 -0.33854777 0.4494659 0.08157679
000050 c6 c9 4e 3e 64 1b 5a 3d c0 3c a5 3e 9f 32 e6 bc
       0.20194158 0.053248778 0.3227291 -0.02810031
000060 4a 24 bb 3d 30 e4 93 3d 63 91 af 3e 98 1c 7a bd
       0.09137781 0.07221258 0.3429061 -0.061062425
000070 41 27 89 bd 62 55 93 3d d2 11 a0 3d 32 0f 21 be
       -0.0669694 0.0719402 0.07815899 -0.15728453
000080 21 34 8b 3e 19 d7 b3 3e 54 bc 68 3e bc cb 71 bd
       0.2718821 0.35125044 0.22728091 -0.059032187
000090 e1 2a ba 3e 50 80 18 3f a3 49 99 3e fd 5a 1c 3f
       0.3636084 0.5957079 0.29938993 0.6107634
0000a0 73 09 0a 3f 2b 86 0f 3f 58 1c 3e 3d 38 58 f5 3e
       0.5392067 0.560641 0.04641375 0.47918868
0000b0 d5 3e b8 3e 91 90 e4 be b7 44 88 be b7 a5 06 bf
       0.35985437 -0.44641545 -0.26614925 -0.5259661
0000c0 e9 b8 fe ba f6 59 e8 be 83 5d e4 bd 8a 99 39 bd
       -0.001943377 -0.45381135 -0.111506484 -0.045312442
0000d0 4d 1e ea be a3 ed b5 be c4 ce ef 3d 42 4a 98 be
       -0.45726243 -0.35532865 0.11709359 -0.29744154
0000e0 16 48 57 3d a2 c5 dd be 9e a4 37 3e bf 3c ae be
       0.05255898 -0.43314844 0.1793389 -0.3403072
0000f0 b6 1d 09 be f4 c9 c5 be 2d b1 ad be 92 4d 3e 3e
       -0.1339024 -0.3863064 -0.33924237 0.18584278
000100 4d f6 a0 be e3 1d ca 3d 15 17 d9 bd 5d 2d 39 3e
       -0.31437913 0.09868982 -0.10600106 0.18083711
000110 38 85 9f be 23 a2 b2 be c0 01 3f 3c 77 79 1d be
       -0.31156325 -0.34889325 0.011658132 -0.15378366
000120 93 31 d7 3e 70 32 8e 3e b6 a6 52 3e ac 5d f2 3e
       0.4203001 0.27772856 0.20571408 0.4733709
000130 2b c8 f1 3e 9e 6b 1e 3d 42 b1 7f 3e e6 c3 a0 3e
       0.4722303 0.03867685 0.24969962 0.3139946
000140 d9 1b d2 3e 15 98 70 bb a3 ef db bd 26 5b ee be
       0.4103687 -0.0036711742 -0.107390665 -0.46553916
000150 b2 c6 2a be 40 67 cb bd 4c fd f2 be 82 ac e9 be
       -0.16677359 -0.09931803 -0.47458875 -0.45639426
000160 8e 1e 66 be 4a f6 8a be 27 bf 28 bf 3a 12 17 be
       -0.22472593 -0.2714103 -0.65916675 -0.14753047
000170 52 b9 bf bd f8 c3 08 bf d7 7c 05 bf 6c 98 03 bf
       -0.09361519 -0.53424025 -0.52143615 -0.5140445
000180 8a 15 74 be cf 25 0c bf c7 16 97 be 59 b9 56 3d
       -0.23836342 -0.5474519 -0.29509565 0.052422855
000190 ec 8d 29 3e 2b b2 85 be f3 26 28 3e 09 d6 88 3c
       0.16558045 -0.26112494 0.16421108 0.016703622
0001a0 0a c8 ec 3d 33 5d a4 be 93 3f 67 be f2 a1 34 3e
       0.11561592 -0.32102355 -0.22582845 0.17639902
0001b0 20 90 9f 3e 45 8f 95 be 8b 6c 61 3e 24 19 a5 3e
       0.31164646 -0.29210868 0.22014062 0.32245743
0001c0 87 30 02 be 41 4e 5b 3e a3 50 ce 3e 46 1c 64 bd
       -0.12713824 0.2141657 0.40295896 -0.055691026
0001d0 77 54 ea 3d 20 a8 90 be a6 70 fa be dd 1d 22 bf
       0.11441892 -0.2825327 -0.4891407 -0.6332682
0001e0 c5 ad c9 be c5 8a 07 3d 65 36 3d be 0c d6 e9 3c
       -0.39390388 0.033091325 -0.18477781 0.028544448
0001f0 95 eb 63 3b 4c c5 96 be a1 7d 87 bd 88 44 da bd
       0.003477787 -0.294474 -0.06615759 -0.106576025
000200 c5 24 d6 bb 08 c3 79 be f7 00 e4 be 85 7c 0a be
       -0.006535145 -0.24390805 -0.44531986 -0.13524063
000210 5f 8a f8 be 58 f6 0a bf 99 4e ce be 02 50 94 3e
       -0.4854307 -0.5428214 -0.4029434 0.2896729
000220 af 4d d4 bd 30 33 33 3d ae af 00 3e a1 27 67 be
       -0.103663795 0.043749988 0.12567016 -0.22573711
000230 30 2b 1f 3b 98 2c 09 3f 89 33 0e 3f 73 52 2f 3e
       0.0024287216 0.5358367 0.55547386 0.17121296
000240 03 52 11 be 95 16 09 bf 1d 16 9f be 28 8b 03 bf
       -0.14191441 -0.5355008 -0.3107156 -0.5138421
000250 4c d7 d8 be bd b8 8d bc 41 bd e4 be 2f 99 ed be
       -0.42351758 -0.017300004 -0.4467564 -0.46405932
000260 f7 2f 89 be bf 2c 0e 3f 5f b7 fa 3d 94 66 e8 3e
       -0.26794407 0.5553703 0.122420065 0.4539076
000270 bc c5 01 3f 9a 14 de 3e fb a2 2f 3f 2b 04 01 3f
       0.50692344 0.43375093 0.68608063 0.50396985
000280 db 22 04 3f 7e 30 d9 3e c9 f1 9c 3e 70 46 ad 3d
       0.51615685 0.4241981 0.30653217 0.084607005
000290 89 a4 d3 3e c8 bc e0 3d 7a f8 92 3e be 4c fe 3e
       0.41336468 0.10973507 0.28705198 0.49667925
0002a0 39 41 19 3f 10 e9 10 3f 4c 26 8e bd 1e bc 57 be
       0.59865147 0.56605625 -0.06940898 -0.21067855
0002b0 1c 2f 1e 3e 2d c1 9f be 70 d4 a5 bd 62 14 82 3d
       0.15447658 -0.3120207 -0.0809716 0.06351544
0002c0 46 74 df be b4 b8 12 bf 53 2b 1a bf 76 bb 84 be
       -0.43643397 -0.57313085 -0.6022236 -0.2592427
0002d0 c3 d7 13 bf 0c 5d b9 be c4 b8 e3 be 26 1d fd 3d
       -0.577511 -0.36203802 -0.44476902 0.12359075
0002e0 af 19 03 3e f2 d4 93 be 35 d2 09 bf c2 f2 5e be
       0.12802766 -0.28873402 -0.53836375 -0.21772292
0002f0 52 8d bd bd 1b c9 f9 be c0 ca 2d be 97 d3 23 be
       -0.0925547 -0.48786244 -0.16971874 -0.15998684
000300 a6 55 06 3e dc 96 ce 3c 88 74 0c bf 9d cc 07 3c
       0.1311861 0.02521842 -0.5486531 0.00828853
000310 1a ba 65 be 33 96 bd be f4 18 b5 3e d3 0c 9d 3d
       -0.22434273 -0.37028655 0.353706 0.07668462
000320 18 08 fc 3d 29 e3 10 3e 13 85 9c 3c b1 5f 0c 3f
       0.12306231 0.14149155 0.019106423 0.54833513
000330 51 eb 15 3e 6f ef cb 3e c2 05 5a 3e f1 b5 09 3f
       0.14640547 0.3983111 0.21291259 0.53793246
000340 80 6e a9 3e 24 21 39 3d f6 58 fa 3e 98 35 8b 3e
       0.33092117 0.04519762 0.48895997 0.27189326
000350 9c 5f 50 3e 65 eb 8a 3e 4a 04 81 3e 90 dd d7 3e
       0.20348972 0.27132717 0.25198585 0.42161226
000360 f6 8c 7e be f7 c6 ff 3d a5 f6 64 bd a9 ad 9b be
       -0.2485846 0.124891214 -0.05589928 -0.3040593
000370 2d 28 05 be 2f 5d 05 bf 8b 67 00 bf ee 24 b3 be
       -0.13003607 -0.5209531 -0.50157994 -0.34989113
000380 72 b4 17 bd fb fa e8 3d b1 b0 5c 3d 45 45 c7 3e
       -0.03703732 0.11375996 0.053879444 0.38920036
000390 d9 40 ff 3e e7 45 a0 3d 29 60 15 3d 25 0c e8 3e
       0.49854162 0.07825833 0.03646866 0.45321766
0003a0 20 66 6c 3e 10 0d 3d 3e 39 dc 8f 3e 1c 06 45 3e
       0.23085833 0.18462014 0.28097704 0.19240612
0003b0 b4 ed 0e bd 59 cd dd 3d 6a 43 71 bc 04 25 02 3f
       -0.03489466 0.108301826 -0.014725545 0.5083773
0003c0 00 c4 50 3d cf b9 1a 3f 9b 80 8d bd a1 95 27 bf
       0.05096817 0.6043977 -0.06909295 -0.6546269
0003d0 0a 53 8e be d7 98 dc be 5c 41 99 3d 75 88 3c 3d
       -0.2779773 -0.43085358 0.074831694 0.046028573
0003e0 57 33 f4 be 05 fc ce be ac a7 0f bf 30 ac 5c be
       -0.4769542 -0.4042665 -0.5611522 -0.2155006
0003f0 bd 75 22 bf 43 e0 1c be ea 52 11 bf 40 d1 b0 3c
       -0.63460904 -0.15319924 -0.5676714 0.021584153

q_head.mamba.conv1d.weight f4 [18, 1, 4]
000000 80 80 89 bc b4 9c f3 3e f6 49 0c bf 3b bd 20 bf
       -0.016784906 0.47580492 -0.54800355 -0.6278874
000010 d0 13 2e bd a0 ff b9 bd c8 ff 90 3e ea b7 09 3f
       -0.042499363 -0.0908196 0.28320146 0.53796256
000020 1e 34 c7 be e4 d3 ed 3e cf 2e 0a bc 80 ef 03 bf
       -0.3890695 0.46450722 -0.008434012 -0.51537323
000030 44 eb c2 be 40 43 ef bc 57 f1 0b 3e 67 63 9d be
       -0.38070118 -0.029206872 0.13666283 -0.307399
000040 e8 77 66 be 24 c1 80 3e 8f 1d ad 3e 1b ca c9 3e
       -0.22506678 0.25147355 0.33811614 0.39412007
000050 00 0e f2 3a 9c c8 52 be 69 f8 50 3e 08 43 cc 3e
       0.0018467307 -0.20584339 0.20407261 0.3989489
000060 3c f6 4c 3e 42 74 93 3e 9b f6 28 3f 7b 96 47 3e
       0.20015806 0.28799635 0.6600129 0.19490997
000070 38 24 cc be d4 db 15 3e 92 53 8d be d1 35 bd 3e
       -0.39871383 0.14634639 -0.27602822 0.3695512
000080 c4 ec 03 be 00 3c 7f 3a 9e 5d 01 3f f2 2d 16 3e
       -0.12883288 0.0009736419 0.50533473 0.14665964
000090 b8 a2 8c bd 04 40 89 3e 7d 64 ab 3e 5b 46 fc 3e
       -0.06866974 0.26806653 0.33475104 0.49272427
0000a0 f8 48 f6 3e e8 79 d1 3d 07 39 46 bf 16 4e 4a bf
       0.48102546 0.1022833 -0.77430767 -0.790254
0000b0 be 32 a0 3e b0 20 1f 3d 43 49 9c be ef ea 9f 3e
       0.31288713 0.038849533 -0.30524644 0.31233928
0000c0 c4 02 75 3e 58 fc 3c 3e 22 a3 49 3e d4 74 af be
       0.23926836 0.18455637 0.19691136 -0.3426882
0000d0 ae ea a4 3e 14 a5 71 3e b4 6d bc be 7c 83 3c bf
       0.32210296 0.23598129 -0.36802447 -0.7363813
0000e0 28 f5 b2 be 68 f3 d8 3e 6e d9 ce bd 2b ed f5 be
       -0.34952664 0.42373204 -0.10100065 -0.48032507
0000f0 a4 64 f1 3e 2c b3 94 be 16 5a 8c 3c f1 34 e3 be
       0.47147095 -0.29042947 0.0171328 -0.4437633
000100 50 3c 67 3e 28 a8 f1 3e 2f ba 37 3f 7c 3a 23 3f
       0.22581601 0.47198606 0.7176847 0.63761115
000110 b8 40 b3 3e 10 7b f7 3e c3 c5 90 3e a8 bb b1 3e
       0.35010314 0.48336077 0.2827588 0.34713483

q_head.mamba.conv1d.bias f4 [18]
000000 92 f1 00 3f 48 84 47 bf 8c d9 f8 be 28 6c d3 be
       0.5036861 -0.7793622 -0.48603475 -0.41293454
000010 20 60 2c 3f 77 70 b1 be c4 0e f4 be c7 d3 ad be
       0.67334175 -0.34656116 -0.47667515 -0.33950636
000020 c1 0b d3 3e 2e 4d 3a bf e7 3b 47 3f 37 b5 0c bf
       0.41219905 -0.72774017 0.7782578 -0.5496401
000030 a7 50 45 bf 44 2d 21 3f 24 a1 e8 3e b4 ea 09 bf
       -0.7707619 0.62959695 0.4543544 -0.53873754
000040 0c 63 fc be 7f ee f5 3e
       -0.49294317 0.4803352

q_head.mamba.x_proj.weight f4 [33, 18]
000000 01 43 fb 3e 2d 3f c1 be 50 e1 05 be e4 4e fe be
       0.49074557 -0.37743512 -0.13074231 -0.49669564
000010 2a d7 35 3e f7 20 e3 be ac 89 8c be 30 09 8d be
       0.1775786 -0.44361088 -0.27448785 -0.27546072
000020 c8 66 35 3e 0b fb 12 bf bb d1 bf 3e 3b b1 4f be
       0.17714989 -0.5741431 0.374647 -0.20282452
000030 41 e5 a5 be 07 bb 75 3e 64 a2 4f 3e 40 b0 d9 be
       -0.3240147 0.23997127 0.20276791 -0.4251728
000040 1f 02 ca be 41 4c 13 3f d2 ba 81 be 7d a0 17 3f
       -0.39454743 0.5753823 -0.25337845 0.5922926
000050 b3 cf ab 3e 29 16 27 3e 94 12 6a be 38 4e 04 3f
       0.335569 0.16317047 -0.2285865 0.5168185
000060 d5 cb 98 3e 96 db b3 3e 7f 61 2c be bc 4f 02 3f
       0.29843011 0.35128468 -0.16834067 0.50902915
000070 09 e7 67 be 4d 3b db 3e c7 58 ee 3e dd 13 17 bf
       -0.22646727 0.4281868 0.46552107 -0.59014684
000080 92 a2 02 bf ff 2b bd 3e c9 b6 03 3f fc 6d f3 be
       -0.5102931 0.3694763 0.51450783 -0.4754485
000090 51 8e b0 be 80 86 5d 3e 6f f9 d4 3e 98 d8 a9 3e
       -0.3448358 0.21633339 0.41596553 0.3317306
0000a0 8f 52 ee be 75 76 e7 3e b8 d5 ff 3e 1c 73 b1 3e
       -0.46547362 0.45207563 0.49967742 0.34658134
0000b0 ff 37 0d bf 7f c0 d9 3e ee 57 9f be e9 14 12 3e
       -0.5516357 0.42529675 -0.31121773 0.14265789
0000c0 ca 50 0d 3f 8d a9 0d be 30 da a7 be b1 10 41 3e
       0.552014 -0.1383421 -0.3278365 0.18854024
0000d0 41 8f c3 3e 64 e8 ac be fb 11 f2 3e fe 8f 91 be
       0.38195232 -0.3377105 0.47279343 -0.2843017
0000e0 c6 a3 56 be 40 13 ac be 02 04 90 3e 13 ba 32 be
       -0.20960912 -0.33608437 0.28128058 -0.17453794
0000f0 b2 ed f6 be ff 70 98 be 1f 24 71 3e 52 ef c9 be
       -0.48228222 -0.2977371 0.23548935 -0.394404
000100 d1 47 df 3e 77 02 e2 be 01 be 97 be cd 2c 49 3e
       0.4360948 -0.44142506 -0.2963715 0.19645996
000110 e6 1e 47 3e aa fc 3c be d5 86 5d be 1a 14 e1 3e
       0.1944538 -0.18455759 -0.21633466 0.4396065
000120 b2 a7 13 bf b8 49 b1 3e 0a f8 31 3e ad 93 82 3e
       -0.5767776 0.34626555 0.17379776 0.25503293
000130 c3 46 dc be f0 a1 21 3e 29 ea 84 3e 5b 9d fc 3e
       -0.43022737 0.1578443 0.259599 0.49338803
000140 04 41 70 be 91 ba 87 3e b9 3b ca be a8 30 3b 3e
       -0.23462301 0.26509526 -0.3949869 0.1828028
000150 f3 c2 c7 3e 50 75 62 be 8c 3b a1 be c9 16 30 3e
       0.39015922 -0.22115064 -0.31490743 0.17196192
000160 0d f6 ab 3e 00 e0 ab be 21 c6 fa be 21 cd 03 3e
       0.3358616 -0.33569336 -0.48979285 0.12871219
000170 58 fb 6e 3e 9c 17 f5 3e f4 ea 14 bf e9 10 04 3f
       0.23338068 0.47869575 -0.5817101 0.515883
000180 69 7c 97 3e d8 ae e0 3d bb 2b dd be d4 7f fe 3e
       0.29587105 0.10970849 -0.43197426 0.497069
000190 0c 29 b6 be 20 01 0a 3f 18 9b 52 3e 57 9a 2f be
       -0.3557819 0.53907967 0.20566976 -0.1714872
0001a0 c1 49 fe be 23 dd b0 3e 69 f9 8d 3e 06 1f c7 be
       -0.49665645 0.34543714 0.27729347 -0.38890857
0001b0 84 25 ac 3e 14 c6 b3 be f7 55 cf be 46 f3 71 be
       0.33622372 -0.3511206 -0.40495273 -0.23627958
0001c0 87 5d e2 3e 8c d8 dd be 47 9e 98 be d0 94 0b bf
       0.4421198 -0.43329275 -0.29808256 -0.54523945
0001d0 b7 0c b1 3e 2d 5a 84 be 1c 68 db 3e 80 90 f8 be
       0.34580013 -0.2585005 0.42852867 -0.48547745
0001e0 2a b0 ac be 2f 36 15 3f da 69 80 3e c0 34 06 bf
       -0.33728153 0.582858 0.25080758 -0.5242424
0001f0 51 84 e2 be 8f 50 17 3f dd 40 15 bf 88 d6 3e 3e
       -0.44241574 0.591073 -0.583021 0.18636525
000200 c7 9e 6c 3e d5 c3 c6 3e 25 b9 05 bf 6c 54 00 3f
       0.23107444 0.38821283 -0.52235633 0.5012882
000210 bb 0f 03 3e 3d 69 57 3e 12 09 77 be 77 fe d3 3e
       0.1279897 0.21036239 -0.24124554 0.4140508
000220 eb 32 12 bf ce b2 1a 3e 86 ca 1a 3e 1b e1 4e be
       -0.57108945 0.15107271 0.15116319 -0.20203058
000230 99 ef 36 be 6a bf 8c 3e 3d 1a 1b 3e 11 9b 86 be
       -0.17864837 0.27489787 0.15146728 -0.2629018
000240 94 14 80 be f8 dc 08 3f cc 8b 26 3e 82 e7 87 3e
       -0.250157 0.5346217 0.16264266 0.26543814
000250 46 6d c5 be 0d 1a 10 3f 7a 97 71 3e ef 19 b5 3e
       -0.38559932 0.5628975 0.2359294 0.35371348
000260 1c 4d d5 be 51 04 6e 3e 2a f4 18 bf ad fa 0a 3f
       -0.41660392 0.23243834 -0.59747565 0.5428875
000270 0e b5 1f 3e 25 b6 1c be 99 b8 c3 be c3 15 88 3e
       0.1559641 -0.15303858 -0.38226774 0.26579103
000280 e7 c8 81 3e 9f b1 02 bf cb 3e e8 3e b7 b4 6a be
       0.2534859 -0.5105228 0.45360407 -0.229205
000290 34 0c 02 bf 1e 44 a6 be b4 86 b0 3e 23 d9 6e be
       -0.5079987 -0.32473844 0.3447777 -0.23325019
0002a0 38 4d 0a bf 9a dd ac be 85 24 0f 3f 30 c2 fc be
       -0.54024076 -0.3376282 0.559151 -0.49366903
0002b0 83 54 09 3f 5d 38 f4 be 42 aa cc be 4f fc 8f 3e
       0.5364458 -0.47699252 -0.39973646 0.28122184
0002c0 49 45 24 3e 29 30 13 bf 76 5f bd be 5e b8 89 3e
       0.16042055 -0.5749536 -0.36986893 0.26898474
0002d0 9e 7c f9 be 35 1b dd 3e f7 80 8b 3e df f1 fc 3e
       -0.48727888 0.4318482 0.2724683 0.49403283
0002e0 ad 7e 96 be d3 36 d1 3e 59 13 0b 3f 0d b5 a4 3e
       -0.2939352 0.4086214 0.543264 0.3216938
0002f0 87 0f df be 16 70 f7 3e 94 9d 03 bf 39 2c 33 3e
       -0.43566534 0.48327702 -0.5141232 0.17497338
000300 90 d0 05 3f aa 0c e1 be 8e a3 76 be 00 66 9d 3e
       0.52271366 -0.43954974 -0.24085829 0.30741882
000310 6b c5 3c 3e f3 e6 2f be 73 13 47 3e 82 e7 6e be
       0.18434684 -0.17177944 0.19441013 -0.233305
000320 8a 71 25 be 7e 2c 07 bf 78 b3 eb 3e be 87 29 be
       -0.16156593 -0.52802265 0.4603536 -0.16555688
000330 33 00 71 be 0d 67 11 bf 36 b2 5c 3e 00 5a 01 bf
       -0.23535232 -0.5679787 0.21552357 -0.50527954
000340 4c 17 6f 3e 29 b2 0c bf c0 12 dd be 13 30 d2 3e
       0.23348731 -0.5495935 -0.43178368 0.41052303
000350 ef 79 88 3e 6a 61 b6 be 46 e5 15 bf 88 57 20 3e
       0.26655528 -0.35621196 -0.5855297 0.1565839
000360 5e fa a7 be 14 c1 b6 3e a0 c1 ca 3e c8 be d5 3e
       -0.32808203 0.35694182 0.3960085 0.41747117
000370 0a a3 62 be d5 0c 17 3e 09 56 1f 3e 58 c0 65 3e
       -0.22132507 0.14750989 0.15560164 0.22436655
000380 39 a2 3b be d8 c4 80 3e 71 7b da be f1 a3 df 3e
       -0.18323602 0.2515018 -0.42672303 0.43679765
000390 f5 09 0a 3f fb b2 03 bf a3 5e 02 bf 97 8f dc 3d
       0.53921443 -0.5144498 -0.50925654 0.10769575
0003a0 1b d1 b5 3e 08 b0 58 be 67 17 c9 be 0a b6 6a 3e
       0.35511097 -0.211609 -0.39275667 0.22921005
0003b0 ed fb 05 3f 60 29 f7 3e f0 27 ac be 77 ea 33 3e
       0.52337533 0.48273754 -0.3362422 0.1756991
0003c0 60 a1 cf 3e 1b be d9 3e 39 98 d6 be b2 6a 22 3e
       0.40552807 0.4252785 -0.41913012 0.15861014
0003d0 28 65 ab be 49 68 eb 3d e2 3e ea 3d 5c c2 81 be
       -0.33475614 0.114945 0.11437775 -0.25343597
0003e0 41 b6 00 bf f5 04 05 3f c6 c1 c9 3e 46 24 d6 be
       -0.502781 0.5196069 0.3940565 -0.4182455
0003f0 f6 61 c8 be ea b9 5e 3e cd 95 57 3e fe 9d 49 3e
       -0.39137238 0.21750608 0.21053238 0.19689175

q_head.mamba.dt_proj.weight f4 [18, 1]
000000 4f a0 a7 3f 67 72 80 3f 83 50 34 be ac 94 6e 3e
       1.3095797 1.0034913 -0.17608838 0.23298901
000010 4c 38 b6 3e be dd 33 3f de 18 81 3f be e0 9d 3f
       0.35589826 0.70260227 1.0085714 1.2334211
000020 1e 12 e5 3e 59 37 93 3f 77 3d 3c 3f cf 33 1e 3f
       0.44740385 1.1501266 0.7353129 0.61797804
000030 c6 c3 55 3e c2 bd c7 3e d6 ac 3a bd 30 17 04 bf
       0.20875463 0.3901196 -0.045574985 -0.5159788
000040 a0 ba 9e 3f 99 57 57 bd
       1.2400703 -0.052573774

q_head.mamba.dt_proj.bias f4 [18]
000000 d0 65 a3 c0 27 34 ab c0 df 1f 86 c0 70 30 1f c0
       -5.1061783 -5.3501163 -4.1913905 -2.4873314
000010 a1 b2 6a c0 df 79 ff bf de a1 6a c0 9b 82 b6 c0
       -3.6671526 -1.9959067 -3.6661296 -5.703443
000020 72 07 b2 c0 63 73 71 c0 2d b2 39 c0 03 ef 9b c0
       -5.563409 -3.7726676 -2.9015 -4.872926
000030 05 3b cb c0 80 0c d2 c0 55 27 d0 c0 f6 7a 8b c0
       -6.3509545 -6.564026 -6.5048013 -4.35876
000040 74 da a8 c0 fa be 12 c0
       -5.2766666 -2.2929063

q_head.mamba.out_proj.weight f4 [9, 18]
000000 9c 79 4f be e3 75 d9 be 1a d0 e0 be 58 ed 82 be
       -0.20261234 -0.42472753 -0.4390877 -0.25571704
000010 eb ee ff be 3f 30 e2 3e b9 35 d9 be 76 a7 14 3e
       -0.49986967 0.44177434 -0.424238 0.14517006
000020 8c 1d fa be f5 a5 c9 be 58 5e eb 3e e9 bc 36 3e
       -0.48850667 -0.39384428 0.45970416 0.17845501
000030 14 6d 19 3d 09 52 4f be 27 5a a0 be 13 10 e8 3e
       0.03745754 -0.20246138 -0.3131878 0.45324764
000040 52 bf a1 be 29 f8 19 3e 88 13 ad 3e 3a 48 48 3e
       -0.31591278 0.15036072 0.33803964 0.19558802
000050 ed de c4 3e 54 ac 84 3e 6a e2 8e 3e e5 99 df bd
       0.3845133 0.25912726 0.27907115 -0.10918025
000060 2c 86 02 3f 25 d5 39 3c b5 43 c2 3e fc 52 ad 3e
       0.5098598 0.0113423215 0.3794228 0.33852375
000070 54 7e 9e be 29 4c be be 59 52 31 be 1a af 92 3e
       -0.30955756 -0.3716748 -0.1731657 0.28649217
000080 f0 90 5d 3e a7 8f 6a be ca 21 9a 3e 52 7a fe be
       0.2163732 -0.22906362 0.30103904 -0.49702698
000090 c7 02 d2 be 43 d4 a6 bd 8a e3 8b be 52 bb ef be
       -0.41017744 -0.081459545 -0.27322036 -0.46822602
0000a0 d0 68 4a be 6c 82 c4 3e 27 05 3c be 70 3e cd 3e
       -0.19766545 0.38380754 -0.1836134 0.400867
0000b0 98 4d 12 be bd e1 d7 be 23 24 01 3f 4d bc 94 3e
       -0.14287412 -0.42164412 0.50445765 0.29049912
0000c0 9e 6f e7 3e a8 53 dc be a1 09 bf be f8 0d c6 3e
       0.45202345 -0.43032575 -0.37312034 0.38682532
0000d0 07 b8 a2 be d0 7b cf 3e 7a 1f 09 3f ec 45 49 3e
       -0.31781027 0.4052415 0.53563654 0.1965558
0000e0 36 ad 09 3e 2e 36 50 3e 6f 6b ed 3e d6 b3 7e be
       0.13444981 0.20333168 0.46371028 -0.2487329
0000f0 8d 95 66 3e fa 99 8c be 64 b0 23 3e 16 48 d4 3e
       0.22517987 -0.27461225 0.15985256 0.41461247
000100 83 6e c3 be 1e e4 a3 be dd bd d6 bd 72 8e 4d 3e
       -0.3817025 -0.32009977 -0.10485432 0.2007387
000110 8c 92 5e 3e 76 82 b7 be db 8b b9 3e 81 c5 da be
       0.2173559 -0.3584172 0.36239514 -0.4272881
000120 51 a5 86 3e ab 95 f5 3e 96 b5 c7 3e 71 2e cc 3e
       0.26298 0.4796575 0.39005727 0.39879182
000130 32 33 03 3e 08 dc c1 bd e0 79 e5 3e 0f c1 1b be
       0.12812498 -0.09465796 0.44819546 -0.15210365
000140 38 36 a8 3e f1 e9 93 3e 26 d6 3f be 88 cf c2 be
       0.32853866 0.2888942 -0.18734035 -0.3804896
000150 54 02 a4 be aa ea 61 3e 2f 63 35 3e a0 f6 7c be
       -0.32033026 0.22062173 0.17713617 -0.24703455
000160 35 e3 a0 3e 0d f3 c2 be 92 bb a2 be 82 7b e8 be
       0.31423345 -0.38076058 -0.3178373 -0.4540673
000170 f3 06 9b be be ab fb be 71 4a 04 be b3 2e e8 3e
       -0.3027874 -0.49154466 -0.12919022 0.4534813
000180 d5 f4 28 be 84 ff ae 3e c3 c9 70 be 71 ec 83 be
       -0.16499646 0.34179318 -0.23514466 -0.25766328
000190 1f ca 13 3f ae fd c9 3e 9c cc af 3d 42 86 c5 bd
       0.5773029 0.39451355 0.08583948 -0.09644748
0001a0 be 8f c8 be ce 7b 0b 3e 38 4f f8 be dc bc fc 3e
       -0.39172167 0.13621446 -0.4849794 0.49362838
0001b0 7e a5 b0 bd 2e f0 d5 be e0 cc d7 be ae ac d5 be
       -0.08625315 -0.41784805 -0.42148495 -0.41733307
0001c0 0f f6 39 be bb a6 98 3d a2 ee 0d bf c2 f6 a4 3e
       -0.1816027 0.07453676 -0.5544225 0.3221951
0001d0 2b d2 97 bd 9a 60 f9 be 1d 27 ee 3e 45 87 c9 3e
       -0.07413133 -0.48706514 0.46514216 0.39361015
0001e0 0a 66 e8 3e d7 fb a5 be cd 6e ce be e0 0f 80 3e
       0.4539035 -0.324187 -0.4031891 0.25012112
0001f0 6b 24 ca bd 1c 58 59 3e 9f 49 72 be d4 29 ba be
       -0.098702274 0.21225017 -0.23660897 -0.36360037
000200 d7 e1 44 be 48 4b 92 be c0 19 fa be 04 62 de 3e
       -0.19226776 -0.2857306 -0.4884777 0.43434155
000210 25 08 80 be 34 02 e6 3e 4e 86 dd be 50 a4 98 be
       -0.25006214 0.44923556 -0.4326653 -0.2981286
000220 4f 7d 02 3f cd 71 15 3e bf 94 b2 3e 6c 52 11 be
       0.50972456 0.14594193 0.3487911 -0.14191598
000230 a3 90 95 be 48 e4 e7 3e 2b 3d 9b be 31 ae 9b 3e
       -0.29211912 0.45291352 -0.30320105 0.30406335
000240 3b de d3 3e a2 78 b6 3e 39 e9 90 3d 27 9f fd 3d
       0.41380486 0.3563891 0.07075734 0.123838715
000250 e4 f6 7e 3e be 0c a2 be 94 fe ff 3e 4e 08 2c be
       0.24898869 -0.31650347 0.49998915 -0.16800043
000260 09 a8 6d 3e 79 36 07 3f 7c 69 0f be 37 bf bc bb
       0.23208632 0.52817494 -0.14005083 -0.0057600993
000270 74 d4 22 be 1b 9b 11 3e 6b d3 8a 3e f4 f3 a6 be
       -0.15901357 0.14219324 0.27114424 -0.32607996
000280 35 bc 47 3e 09 00 f4 be
       0.19505389 -0.47656277

q_head.final_norm.gamma f4 [9]
000000 00 00 80 3f 00 00 80 3f 00 00 80 3f 00 00 80 3f
       1.0 1.0 1.0 1.0
000010 00 00 80 3f 00 00 80 3f 00 00 80 3f 00 00 80 3f
       1.0 1.0 1.0 1.0
000020 00 00 80 3f
       1.0

ema_model.q_head.action_bin_embeddings f4 [2, 256, 9]
000000 84 4d 45 3e 78 fc d9 bd 34 d3 51 3e cf c2 0f be
       0.19267851 -0.10643858 0.20490724 -0.14039157
000010 ad ae c1 bd 69 63 2b 3e 44 bc 2a 3e ef 81 40 3e
       -0.09457145 0.1673714 0.1667338 0.18799566
000020 8f ce 1b be ef 03 29 3e 46 70 10 be be e6 51 3e
       -0.15215515 0.16505407 -0.14105329 0.20498177
000030 e5 f2 13 be 32 da fc bd 6b 3c 43 3e 27 99 58 3e
       -0.14448126 -0.12346305 0.19066016 0.21152173
000040 fa 18 5a 3e 50 9d 20 be 39 ea 22 3e f9 38 07 be
       0.2129859 -0.1568501 0.15909661 -0.13205327
000050 1b 0c 2f 3e 2a bc 41 be 3d fd f2 bd 60 ce 2a 3e
       0.17094462 -0.18919435 -0.118647076 0.16680288
000060 82 c2 53 3e 24 7f 1a 3e 89 25 20 be 7e 0f 12 3e
       0.20679668 0.15087563 -0.15639319 0.14263722
000070 3a 0d ea bd dc 66 6c 3e 52 b5 2a be 5f 37 ec bd
       -0.11428304 0.23086113 -0.1667073 -0.11533999
000080 eb 97 2f 3e 58 d0 47 3e 50 70 57 3e 70 3e fd bd
       0.17147796 0.1951307 0.21038938 -0.12365425
000090 a8 52 04 3e 05 dc 0d be 4b 9b 66 3e 18 3d 22 be
       0.12922156 -0.13853462 0.22520177 -0.15843618
0000a0 fe 74 03 be 0d 65 34 3e 4a 35 3e 3e a7 83 43 3e
       -0.12837598 0.17616673 0.18575016 0.1909319
0000b0 80 95 c2 bd aa e7 3b 3e ac 1c 11 be 22 31 44 3e
       -0.09501171 0.18350092 -0.14171094 0.19159368
0000c0 7a f3 1b be 66 af e0 bd 74 db 16 3e bf d7 28 3e
       -0.15229598 -0.109709546 0.14732152 0.1648855
0000d0 f2 4c 5f 3e fc db 11 be e8 7b 37 3e 94 81 29 be
       0.21806696 -0.14244074 0.1791836 -0.16553336
0000e0 c1 50 47 3e 24 91 21 be 41 af 1a be 43 9d 3f 3e
       0.19464399 -0.15778023 -0.15105917 0.18712334
0000f0 38 49 63 3e 75 95 2b 3e cd f8 12 be e1 54 2a 3e
       0.221959 0.16756232 -0.14352722 0.16633941
000100 4b ed 04 be e4 94 51 3e 69 7a 27 be ba ff b8 bd
       -0.12981145 0.20466954 -0.1635529 -0.09033151
000110 a1 6f 5d 3e 41 55 00 3e 20 d8 55 3e 53 26 16 be
       0.21624614 0.12532522 0.20883226 -0.14663057
000120 bd 25 04 3e d7 04 fb bd 84 fd 40 3e 3a 9b 16 be
       0.12905021 -0.122567825 0.18846709 -0.14707652
000130 24 a4 e6 bd 2f f4 31 3e d2 75 21 3e 01 1b 1f 3e
       -0.11261776 0.17378305 0.15767601 0.15537645
000140 39 24 c0 bd 43 b7 54 3e f6 e1 f7 3c bb 6c 43 3e
       -0.09381909 0.20773034 0.030259114 0.19084446
000150 8c cb 86 bd 48 62 c3 3d fe ad 56 3e 19 03 40 3e
       -0.06581792 0.0954023 0.2096481 0.18751182
000160 66 b8 7b 3e 81 9f 32 3a ae 33 e5 3d 7b 81 ed bc
       0.24582061 0.0006813929 0.11191498 -0.028992405
000170 19 34 e6 3d 0e 6c 4f bc 63 52 34 bd c8 3e 0d 3e
       0.112404056 -0.01266004 -0.044023883 0.1379348
000180 3b a3 14 3e d9 e5 31 3e ab e5 88 bd 90 3c 3c 3e
       0.14515392 0.17372836 -0.06684431 0.18382478
000190 d5 43 28 be 29 4a 51 3e ff b4 15 be e6 ed fd bd
       -0.16432126 0.20438446 -0.14619826 -0.12398891
0001a0 20 c3 44 3e d4 d5 19 3e a8 a9 3b 3e d7 27 d9 bd
       0.1921506 0.15022975 0.18326437 -0.10603302
0001b0 e1 f1 52 3e 0a 7a 23 be 0e 9e 3a 3e 18 14 38 be
       0.20600082 -0.15964523 0.18224356 -0.17976415
0001c0 48 16 18 be 39 77 54 3e fe 8b 37 3e 68 c5 40 3e
       -0.1485225 0.20748605 0.17924497 0.18825305
0001d0 c7 bf 2c be 17 b1 3a 3e 64 b9 ec bd c4 b5 3b 3e
       -0.16870032 0.18231617 -0.11558798 0.18331057
0001e0 ee 0a 28 be ca 6d e9 bd 8b 5e 47 3e 70 bf 44 3e
       -0.1641042 -0.11397894 0.19469659 0.19213653
0001f0 93 19 2f 3e a9 b5 cf bd 32 51 1c 3e d4 68 0c be
       0.170996 -0.10142071 0.15265349 -0.13711864
000200 60 84 4e 3e cd 66 1c be ce 5d d7 bd 74 4d 1a 3e
       0.20167685 -0.1527359 -0.10515939 0.15068609
000210 77 3d 43 3e 96 87 4a 3e a5 6a c1 bd a4 83 2e 3e
       0.19066416 0.19778284 -0.09444169 0.17042404
000220 4f 35 10 be 53 5c 41 3e e5 b4 21 be 88 cf 02 be
       -0.14082836 0.18882875 -0.15791662 -0.1277448
000230 4d 2b 53 3e c1 dc 18 3e 2f e7 2f 3e 5d 01 ca bd
       0.20621987 0.14927961 0.17178033 -0.09863541
000240 80 89 19 3e e7 5b e9 bd a5 7b 23 3e 98 e9 1d be
       0.14993858 -0.11394482 0.15965135 -0.1542114
000250 90 4b ec bd ca 1d 33 3e 78 e9 2e 3e f5 0e 56 3e
       -0.1153785 0.17491832 0.17081249 0.20904143
000260 01 f3 0e be 4e 21 37 3e 08 43 1d be ad c7 3b 3e
       -0.13959886 0.17883798 -0.15357602 0.18337889
000270 74 6a 12 be c1 7c 11 be 1c ff 34 3e 26 76 30 3e
       -0.14298421 -0.14207746 0.17675442 0.1723257
000280 64 87 2e 3e 11 16 1f be a1 9a 30 3e 9d 71 e5 bd
       0.17043835 -0.15535761 0.17246486 -0.11203311
000290 7f 08 32 3e fb df 1f be 40 d6 c7 bd bd 6f 32 3e
       0.17386054 -0.15612786 -0.09757662 0.17425437
0002a0 89 0e 2e 3e 13 24 53 3e 2e 7d ec bd 25 73 35 3e
       0.16997732 0.2061923 -0.11547314 0.17719705
0002b0 54 f3 09 be 8a 99 50 3e e1 df 24 be 02 f4 21 be
       -0.13471729 0.2037107 -0.16101028 -0.15815738
0002c0 62 8a 25 3e f1 c3 49 3e d1 2e 52 3e 16 18 27 be
       0.1616607 0.19703652 0.20525672 -0.16317782
0002d0 05 f3 2e 3e 7a b5 2c be c7 d6 32 3e bd d2 1f be
       0.17084892 -0.16866103 0.17464744 -0.15607734
0002e0 b2 3a d3 bd 88 43 2e 3e 70 c2 33 3e 4d b7 53 3e
       -0.103139296 0.17017949 0.17554641 0.20675392
0002f0 f7 50 13 be 63 b1 25 3e 27 ef 08 be f4 e4 69 3e
       -0.14386354 0.16180949 -0.1337248 0.22841245
000300 c5 c6 03 be c0 4d 0c be b8 67 2c 3e 3f b5 2d 3e
       -0.12868793 -0.13701534 0.1683644 0.16963671
000310 ac d2 5a 3e f7 d0 23 be 48 8d 17 3e 8d 3a 0f be
       0.21369427 -0.15997683 0.14799988 -0.13987179
000320 ce e1 51 3e d1 d0 00 be ba 5f d3 bd 9c db 3f 3e
       0.20496294 -0.12579657 -0.10320993 0.18736118
000330 42 36 27 3e 75 2c 50 3e 0d 6e 1a be 0b 6d 2f 3e
       0.16329291 0.20329459 -0.15081044 0.1713144
000340 df a1 29 be e4 85 33 3e 2b aa 03 be 8b 0a d7 bd
       -0.16565655 0.17531544 -0.12857883 -0.10500058
000350 33 7e 13 3e c4 40 10 3e 7b 42 4c 3e e9 62 00 be
       0.1440361 0.14087206 0.19947235 -0.12537731
000360 92 3b 5d 3e 1b aa 2a be cb e6 43 3e 4f 2f 38 be
       0.21604756 -0.16666453 0.1913101 -0.17986797
000370 42 a3 1d be f6 9b 2d 3e 26 de 28 3e 39 f1 24 3e
       -0.15394309 0.16954026 0.16490993 0.16107644
000380 38 01 eb bd f7 3d 34 3e a8 af e6 bd 58 a7 56 3e
       -0.11474842 0.17601763 -0.112639725 0.20962274
000390 d4 f2 16 be e8 69 16 be 8a 6b 36 3e 42 90 3e 3e
       -0.14741069 -0.14688838 0.1781446 0.18609717
0003a0 92 95 4c 3e 67 d2 09 be 39 cb 26 3e a0 08 e3 bd
       0.19978932 -0.13459168 0.16288461 -0.110856295
0003b0 4f b0 65 3e 1f cc 10 be c0 9a f5 bd b8 6e 32 3e
       0.22430538 -0.14140366 -0.11992407 0.17425048
0003c0 1d 1e 47 3e 33 5b 3d 3e 85 5d 09 be c6 3a 3d 3e
       0.19445081 0.18491821 -0.13414581 0.18479452
0003d0 43 79 06 be 92 12 5e 3e e6 44 27 be 29 27 fa bd
       -0.13132195 0.21686772 -0.16334876 -0.122145005
0003e0 58 a3 2b 3e 4b 42 44 3e 61 cb 35 3e 25 ce 08 be
       0.1676153 0.19165914 0.17753364 -0.13359888
0003f0 d6 c9 2c 3e 39 8e 2e be 88 f4 33 3e 82 41 3d be
       0.1687387 -0.17046441 0.1757375 -0.1848202

ema_model.q_head.mamba.A_log f4 [18, 16]
000000 e0 db 84 be f5 53 da 3e 6a b5 54 3f 82 0a 8d 3f
       -0.25949 0.4264218 0.83089316 1.1018832
000010 7d cb a9 3f 63 b4 bf 3f 7c 4e d4 3f 8c b2 e4 3f
       1.3265225 1.4976925 1.6586452 1.7866988
000020 5a de f2 3f 82 c2 00 40 a3 c7 06 40 e0 b7 0c 40
       1.8974106 2.0118718 2.1059349 2.1987228
000030 fa 09 12 40 ad b2 15 40 c1 25 1b 40 f4 88 1e 40
       2.281859 2.3390305 2.4241793 2.477109
000040 bd b4 4a be 07 43 f7 3e 93 7d 62 3f 5c 22 93 3f
       -0.19795509 0.48293325 0.8847286 1.1494861
000050 55 b1 af 3f bd 07 c5 3f d9 86 d9 3f e2 77 e9 3f
       1.3725992 1.5392987 1.6994277 1.823971
000060 7e 47 f7 3f e7 fd 02 40 c2 e5 08 40 70 be 0e 40
       1.9318693 2.046747 2.1390233 2.2303734
000070 73 f1 13 40 52 57 17 40 bd dd 1c 40 32 0a 20 40
       2.311612 2.3647046 2.4510338 2.5006223
000080 9e b2 24 be 57 13 06 3f e3 c7 6d 3f 10 fc 98 3f
       -0.16083762 0.5237326 0.9288313 1.1951923
000090 3d 9b b5 3f 01 41 cb 3f e1 a7 df 3f 3d b9 ef 3f
       1.4188 1.5879213 1.7473108 1.8728405
0000a0 38 b5 fd 3f b5 1e 06 40 b6 0c 0c 40 41 e2 11 40
       1.9820929 2.0956242 2.1882758 2.2794344
0000b0 df 19 17 40 66 94 1a 40 b5 f3 1f 40 45 47 23 40
       2.360954 2.4153075 2.4992497 2.551225
0000c0 92 c9 5e be d4 5e ef 3e 46 30 5e 3f df 5a 94 3f
       -0.2175658 0.46752036 0.8679241 1.1590232
0000d0 f6 cc b0 3f 15 a2 c8 3f 91 df db 3f 98 3e ed 3f
       1.3812549 1.5674464 1.7177602 1.8534727
0000e0 fd 56 fd 3f 7a e7 04 40 28 24 0b 40 1e 6b 10 40
       1.9792172 2.0766282 2.1740818 2.256538
0000f0 79 88 15 40 b4 4e 1b 40 d8 05 1f 40 e4 a2 23 40
       2.3364546 2.4266787 2.4847317 2.556817
000100 d0 bc 78 be 18 88 e2 3e 2c 1f 59 3f 04 ff 8e 3f
       -0.24290776 0.44244456 0.8481319 1.1171575
000110 1d a2 ab 3f c8 51 c1 3f 86 d7 d5 3f 4d fc e5 3f
       1.3408848 1.5103083 1.6706398 1.7967621
000120 65 02 f4 3f ec 4e 01 40 2f 40 07 40 94 37 0d 40
       1.9063231 2.020442 2.1132925 2.2065172
000130 e4 85 12 40 4f f9 15 40 0a 7a 1b 40 94 c1 1e 40
       2.289422 2.3433416 2.4293237 2.480565
000140 63 46 37 3e 1a b5 5e 3f fe c6 a1 3f ec f3 c8 3f
       0.17897944 0.8699509 1.2638853 1.5699439
000150 91 5d e5 3f d8 0d fe 3f e3 75 08 40 38 46 11 40
       1.7919179 1.9847975 2.1321952 2.2699108
000160 10 41 19 40 7a 46 1f 40 1e 69 25 40 54 4f 2a 40
       2.394596 2.4886765 2.5845408 2.6610918
000170 e0 1b 2f 40 a8 0e 35 40 9f 55 38 40 af 0f 3d 40
       2.7360764 2.8290195 2.880226 2.9540823
000180 a2 79 77 be 37 0d e4 3e ed 0b 59 3f 72 a6 91 3f
       -0.24167493 0.44541332 0.8478382 1.137892
000190 e4 51 ae 3f f6 20 c6 3f d6 d5 d9 3f 5b 5f eb 3f
       1.3618741 1.5478809 1.7018383 1.8388475
0001a0 ae 83 fb 3f 19 2e 04 40 cb 75 0a 40 87 fc 0f 40
       1.964956 2.0653136 2.1634395 2.249788
0001b0 46 39 15 40 bc 16 1b 40 15 f4 1e 40 c8 a0 23 40
       2.3316207 2.4232626 2.4836476 2.5566883
0001c0 98 e9 dd bd 8f f9 11 3f 05 4d 78 3f 1f 85 9e 3f
       -0.1083557 0.5702142 0.9699252 1.2384375
0001d0 de fb ba 3f 99 b8 d0 3f 1e d1 e4 3f a8 06 f5 3f
       1.4608114 1.6306335 1.7876318 1.9142656
0001e0 fe a8 01 40 3c bb 08 40 36 b0 0e 40 3b 58 14 40
       2.0259395 2.1364279 2.229505 2.3178852
0001f0 52 6f 19 40 4c 88 1d 40 32 84 22 40 03 0e 26 40
       2.3974195 2.461444 2.5393186 2.5946052
000200 6a 30 cc bd ea d3 13 3f 00 26 7a 3f 15 96 9e 3f
       -0.09970172 0.5774523 0.97714233 1.2389551
000210 3b 14 bb 3f ab 5e d0 3f 27 9e e4 3f 40 7e f4 3f
       1.4615549 1.627889 1.7860764 1.9101028
000220 90 2a 01 40 1f 6e 08 40 df 4d 0e 40 25 fc 13 40
       2.0182228 2.1317213 2.2235029 2.3122647
000230 f9 0b 19 40 bf 94 1c 40 e1 ea 21 40 c4 21 25 40
       2.3913558 2.4465787 2.5299609 2.580186
000240 c7 83 96 be aa 51 cb 3e b7 76 4e 3f 47 5f 8a 3f
       -0.29397413 0.39710742 0.80649894 1.0810326
000250 4b 62 a7 3f 0a a7 bd 3f 00 84 d2 3f 4e 24 e3 3f
       1.3076872 1.4816601 1.6446533 1.7745454
000260 08 ab f1 3f 9a 37 00 40 d1 55 06 40 b8 76 0c 40
       1.888032 2.0033937 2.0989878 2.194746
000270 61 f4 11 40 4a ba 15 40 e8 39 1b 40 9e c4 1e 40
       2.2805407 2.3394952 2.4254093 2.4807506
000280 48 39 a9 be 09 6d ba 3e 71 6a 47 3f e1 a4 86 3f
       -0.33051515 0.36411312 0.7789679 1.0519067
000290 39 b6 a3 3f 4a 01 ba 3f d7 d6 ce 3f 8f 6e df 3f
       1.2789985 1.4531643 1.6159314 1.7455615
0002a0 d7 19 ee 3f 59 c4 fc 3f 4d 77 04 40 44 c0 0a 40
       1.8601636 1.974742 2.0697815 2.167985
0002b0 5f 56 10 40 25 00 14 40 18 89 19 40 28 0a 1d 40
       2.2552717 2.3125088 2.3989925 2.453745
0002c0 b4 b2 2a be 9f 97 03 3f 39 70 6a 3f fd 49 97 3f
       -0.16669732 0.5140323 0.9157749 1.1819454
0002d0 d7 cc b3 3f e2 40 c9 3f 6f 9e dd 3f fb 98 ed 3f
       1.4046887 1.5722926 1.7313975 1.8562311
0002e0 2a 7b fb 3f 6d 05 05 40 fb ec 0a 40 69 b7 10 40
       1.9646962 2.0784562 2.1707141 2.2611945
0002f0 b9 df 15 40 3c 62 19 40 fe c8 1e 40 66 04 22 40
       2.34178 2.3966208 2.4810176 2.5315185
000300 21 0c c0 bc 7e 42 29 3f 80 14 88 3f 9a e5 a9 3f
       -0.023443284 0.66117084 1.0631256 1.3273194
000310 51 79 c6 3f c9 ca db 3f 7e fd ef 3f 2f d5 ff 3f
       1.5505773 1.717126 1.8749235 1.9986933
000320 41 d2 06 40 6a 1e 0e 40 97 02 14 40 a3 94 19 40
       2.1065829 2.2206063 2.312658 2.399697
000330 07 94 1e 40 a2 15 22 40 27 66 27 40 1a a2 2a 40
       2.4777849 2.5325704 2.61561 2.666144
000340 a1 58 87 bd 62 e4 1c 3f e8 ae 81 3f df 1a a3 3f
       -0.066087015 0.61285985 1.0131502 1.2742575
000350 c8 a2 bf 3f ac f8 d4 3f bc 2b e9 3f be 18 f9 3f
       1.4971552 1.6638389 1.8216472 1.9460676
000360 60 7d 03 40 04 bd 0a 40 47 a2 10 40 4a 45 16 40
       2.0545273 2.1677866 2.2599046 2.347979
000370 8c 4f 1b 40 2d e9 1e 40 42 2b 24 40 2d 75 27 40
       2.4267302 2.482982 2.5651402 2.6165268
000380 43 5f 47 bd b5 ea 21 3f dc 57 84 3f 44 a3 a5 3f
       -0.048674833 0.6324876 1.0339313 1.294045
000390 4d 39 c2 3f 73 81 d7 3f 56 c3 eb 3f f4 a7 fb 3f
       1.5173737 1.683638 1.8418987 1.966063
0003a0 69 ba 04 40 9b 09 0c 40 1c f0 11 40 a4 92 17 40
       2.0738776 2.1880863 2.28028 2.3683252
0003b0 86 9d 1c 40 6d 1a 20 40 c9 6c 25 40 08 b2 28 40
       2.4471145 2.501613 2.5847647 2.6358662
0003c0 58 be 00 be 93 92 0e 3f 77 ff 75 3f ed bd 9c 3f
       -0.1257261 0.55692405 0.96092933 1.2245461
0003d0 c5 58 b9 3f 04 e0 ce 3f ec 43 e3 3f 2a 47 f3 3f
       1.4480215 1.6162114 1.7755103 1.9006093
0003e0 a7 99 00 40 f2 e0 07 40 b6 ca 0d 40 41 98 13 40
       2.0093782 2.1231046 2.2154975 2.3061678
0003f0 06 c7 18 40 5c 3f 1c 40 57 9a 21 40 33 eb 24 40
       2.3871474 2.4413671 2.5250452 2.5768554

ema_model.q_head.mamba.D f4 [18]
000000 c9 10 a3 3f 8b cd a0 3f 1f 77 9d 3f 11 59 a1 3f
       1.2739497 1.2562727 1.2301978 1.2605306
000010 be a9 a2 3f bc 58 9e 3f b5 77 a4 3f 22 c0 99 3f
       1.2708051 1.237083 1.2849032 1.2011759
000020 4b 4f a2 3f b2 90 a1 3f 88 15 a4 3f 9f c4 9e 3f
       1.2680448 1.2622283 1.2819071 1.2403754
000030 9d 24 a0 3f 96 1a 9d 3f 7b cd 9e 3f bf fb 9b 3f
       1.2511173 1.2273738 1.2406458 1.2186202
000040 63 59 a2 3f 46 d8 a4 3f
       1.2683529 1.2878501
