checkpoints/q-mamba/20240817_103731/checkpoint-7.pt (torch, 115222 bytes, 42 tensors)

q_head.action_bin_embeddings f4 [2, 256, 9]
0.19315197 -0.106714696 0.20543906 -0.14075127 -0.09473773 0.16789047 0.1671553 0.18850619
-0.15242773 0.16590412 -0.14063701 0.20578718 -0.14405066 -0.12292976 0.1915038 0.21230608
0.21383603 -0.15643905 0.1594986 -0.13235891 0.17142566 -0.18958586 -0.11884602 0.16725971
0.20715567 0.15131934 -0.15669212 0.14293313 -0.114549704 0.23124412 -0.16706778 -0.11550495
0.17182194 0.1953964 0.21072592 -0.12390404 0.12963466 -0.13870652 0.2256802 -0.15868738
-0.12845448 0.1766265 0.18612765 0.19138172 -0.095174976 0.18390511 -0.14184573 0.19206597
-0.15251178 -0.109747194 0.14777224 0.16525696 0.2185101 -0.14257042 0.1794061 -0.16568153
0.194903 -0.15797654 -0.1511585 0.18737161 0.2221586 0.16780671 -0.14367257 0.1666731
-0.12991665 0.20506676 -0.16373096 -0.09035436 0.21661942 0.12563552 0.20920211 -0.1467252
0.13001111 -0.1233984 0.18954612 -0.14808674 -0.11326313 0.17484581 0.15849173 0.15640047
-0.09466655 0.21086355 0.027565256 0.19421118 -0.06895215 0.09317356 0.21298437 0.19025657
0.24907802 -0.0020353182 0.12266368 -0.03759217 0.12364691 -0.022493169 -0.05102182 0.14918908
0.15485984 0.18480197 -0.07561548 0.18411912 -0.16455393 0.20471916 -0.14648521 -0.12416664
0.19247593 0.15048584 0.18358046 -0.10626908 0.20620425 -0.15972438 0.18248627 -0.17987837
-0.14855486 0.20771167 0.17943741 0.18847787 -0.16877195 0.18277091 -0.11591958 0.18386385
-0.1645527 -0.11418177 0.19521756 0.19254325 0.17150344 -0.10173688 0.15323465 -0.1376151
0.2023752 -0.1533701 -0.105503745 0.15135065 0.1911741 0.19842838 -0.09492404 0.17093153
-0.14086163 0.18938366 -0.1580106 -0.12767197 0.20676196 0.14974456 0.17231728 -0.09866617
0.15032631 -0.11414835 0.16006868 -0.15449 -0.11551017 0.17533456 0.1711458 0.20944378
-0.13980667 0.18067002 -0.15271842 0.18505667 -0.14212054 -0.1409715 0.17854388 0.17398006
0.17223856 -0.1544861 0.1729416 -0.11225456 0.17438443 -0.15643081 -0.097701 0.17476931
0.17041092 0.20669346 -0.11568168 0.17746477 -0.13472551 0.20399581 -0.16105519 -0.15811172
0.16194306 0.19728959 0.20553616 -0.16318294 0.17132448 -0.16883734 0.1751951 -0.15634249
-0.10319897 0.17070612 0.17598443 0.2072715 -0.14403313 0.16212016 -0.1339456 0.22880091
-0.12899427 -0.13714232 0.1687216 0.16991962 0.21404476 -0.16018862 0.14859429 -0.13983041
0.20560195 -0.12581357 -0.10305599 0.18798944 0.16384035 0.20391817 -0.15077052 0.17189474
-0.1661157 0.17596504 -0.12915361 -0.105328076 0.14467342 0.14136733 0.20009264 -0.1258436
0.2163173 -0.16695505 0.19165416 -0.18024746 -0.15414435 0.16985595 0.16514798 0.16138414
-0.11502947 0.17638488 -0.11280382 0.21005331 -0.14764118 -0.14696129 0.17855327 0.18643694
0.20019028 -0.13474733 0.16332877 -0.11095053 0.22481345 -0.14156458 -0.11991718 0.1747359
0.19486047 0.18539843 -0.13423134 0.18505827 -0.13139935 0.21714653 -0.16347504 -0.1221645
0.16789293 0.19189768 0.17780626 -0.1336734 0.1692688 -0.1702258 0.17628881 -0.18459612
00000000: a1c9 453e 3c8d dabd 9e5e 523e 1a21 10be
00000010: db05 c2bd 7beb 2b3e c22a 2b3e c407 413e
00000020: 0416 1cbe c5e2 293e 2603 10be e0b9 523e
00000030: 0482 13be 99c2 fbbd 9219 443e c466 593e
00000040: d5f7 5a3e 8f31 20be 9a53 233e 1889 07be
00000050: 358a 2f3e cc22 42be 8b65 f3bd 2146 2b3e
00000060: 9e20 543e 75f3 1a3e e673 20be 105d 123e
00000070: 0999 eabd 42cb 6c3e d113 2bbe dc8d ecbd
00000080: 17f2 2f3e fe15 483e 89c8 573e 67c1 fdbd
00000090: f3be 043e 1509 0ebe b618 673e f27e 22be
000000a0: 9289 03be 94dd 343e 3f98 3e3e 92f9 433e
000000b0: 19eb c2bd 9f51 3c3e 0240 11be f1ac 443e
000000c0: 0c2c 1cbe 23c3 e0bd 9b51 173e 1f39 293e
000000d0: 1dc1 5f3e fbfd 11be 3cb6 373e 6ba8 29be
000000e0: a794 473e 9ac4 21be 4bc9 1abe 58de 3f3e
000000f0: 8b7d 633e 86d5 2b3e e71e 13be 5aac 2a3e
00000100: df08 05be 05fd 513e 17a9 27be b50b b9bd
00000110: 7bd1 5d3e 99a6 003e 1439 563e 213f 16be
00000120: a221 053e 4db8 fcbd 6118 423e 0da4 17be
00000130: 80f6 e7bd c80a 333e a84b 223e 7227 203e
00000140: 89e0 c1bd 9dec 573e 88d0 e13c 4cdf 463e
00000150: c936 8dbd c8d1 be3d 9318 5a3e 9ed2 423e
00000160: 4f0e 7f3e f962 05bb 1837 fb3d 3ffa 19bd
00000170: 973a fd3d 9843 b8bc 42fc 50bd 06c5 183e
00000180: 9493 1e3e ba3c 3d3e 4adc 9abd b989 3c3e
00000190: d380 28be e6a1 513e 3800 16be 144b febd
000001a0: 6918 453e f618 1a3e 84fc 3b3e 9aa3 d9bd
000001b0: 3527 533e ca8e 23be aedd 3a3e 0932 38be
000001c0: c41e 18be 5eb2 543e 71be 373e 5800 413e
000001d0: 8ed2 2cbe 4c28 3b3e 3f67 edbd ce46 3c3e
000001e0: 8180 28be 22d8 e9bd 1de7 473e 0f2a 453e
000001f0: 999e 2f3e 6d5b d0bd 8be9 1c3e f9ea 0cbe
00000200: 723b 4f3e 0d0d 1dbe 5912 d8bd aafb 1a3e
00000210: 25c3 433e cf30 4b3e 8967 c2bd ad08 2f3e
00000220: 083e 10be caed 413e 88cd 21be 71bc 02be
00000230: 68b9 533e a356 193e f173 303e 7d11 cabd
00000240: 24ef 193e 9cc6 e9bd 0be9 233e a032 1ebe
00000250: 9990 ecbd e78a 333e d840 2f3e 6e78 563e
00000260: 7b29 0fbe 9001 393e 3862 1cbe 7f7f 3d3e
00000270: 0c88 11be d55a 10be 35d4 363e d427 323e
00000280: 4e5f 303e 9b31 1ebe 9a17 313e b8e5 e5bd
00000290: d591 323e 662f 20be 7617 c8bd baf6 323e
000002a0: 3380 2e3e 73a7 533e 84ea ecbd 53b9 353e
000002b0: 7cf5 09be 47e4 503e a7eb 24be 0ae8 21be
000002c0: 67d4 253e 4806 4a3e 1278 523e 6e19 27be
000002d0: af6f 2f3e b2e3 2cbe 5866 333e 3f18 20be
000002e0: fb59 d3bd 96cd 2e3e 4335 343e fb3e 543e
000002f0: 6c7d 13be d402 263e 0929 09be c94a 6a3e
00000300: 1317 04be 096f 0cbe 5bc5 2c3e 69ff 2d3e
00000310: 8d2e 5b3e 7c08 24be 1a29 183e b42f 0fbe
00000320: 5189 523e 46d5 00be 050f d3bd 4e80 403e
00000330: c4c5 273e edcf 503e 9663 1abe 2d05 303e
00000340: 3c1a 2abe 2e30 343e d840 04be 3fb6 d7bd
00000350: 4525 143e 99c2 103e 16e5 4c3e 25dd 00be
00000360: 4882 5d3e 44f6 2abe fd40 443e ca92 38be
00000370: 04d8 1dbe b8ee 2d3e 8d1c 293e e241 253e
00000380: 9294 ebbd 3d9e 343e b005 e7bd 3718 573e
00000390: 402f 17be 057d 16be abd6 363e 53e9 3e3e
000003a0: aefe 4c3e 34fb 09be a83f 273e 083a e3bd
000003b0: 7f35 663e 4ef6 10be 2397 f5bd f8ed 323e
000003c0: 8189 473e 16d9 3d3e f173 09be ea7f 3d3e
000003d0: 8d8d 06be a95b 5e3e 0066 27be 6231 fabd
000003e0: 20ec 2b3e d380 443e d812 363e aee1 08be
000003f0: cd54 2d3e ac4f 2ebe 0e85 343e c406 3dbe

q_head.mamba.A_log f4 [18, 16]
-0.26120058 0.4244183 0.8287704 1.0994029 1.3241366 1.4951128 1.6561902 1.7841856
1.8948501 2.009561 2.1037014 2.196533 2.2797072 2.3367379 2.42219 2.4749918
-0.19837122 0.48240718 0.88413715 1.1487263 1.3718396 1.5384061 1.6985562 1.8230231
1.9308491 2.0458133 2.138082 2.2294207 2.3106363 2.3635895 2.4500654 2.4995196
-0.16096558 0.52358824 0.92867696 1.195019 1.418624 1.5877241 1.747116 1.8726324
1.9818712 2.0954123 2.1880596 2.2792168 2.3607318 2.4150589 2.499027 2.5509725
-0.2181728 0.4668146 0.867167 1.1581491 1.3803993 1.566513 1.7168585 1.8525398
1.9782567 2.0757446 2.1732154 2.2556775 2.3355968 2.4257617 2.483922 2.5559416
-0.24354498 0.44167072 0.84727824 1.1161317 1.3398602 1.5091574 1.6695057 1.7955592
1.9050548 2.0192554 2.112105 2.2053134 2.2881944 2.341993 2.428113 2.4792266
0.17848803 0.86950773 1.2635487 1.5696487 1.7917333 1.9846646 2.1321254 2.269875
2.3945842 2.4886959 2.5845742 2.6611333 2.736125 2.8290734 2.880283 2.9541414
-0.24293967 0.44400594 0.84640133 1.1362975 1.36039 1.5463438 1.7004206 1.8374557
1.9635962 2.0641067 2.162308 2.2487118 2.3305955 2.422239 2.482763 2.555789
-0.10853051 0.56998795 0.96966857 1.2380859 1.4604591 1.6301963 1.7872125 1.9137944
2.0254166 2.1359642 2.2290335 2.317412 2.3969355 2.4608526 2.5388358 2.5940259
-0.0998108 0.57731706 0.9769925 1.2387626 1.4613594 1.6276548 1.7858478 1.9098487
2.0179412 2.131462 2.2232337 2.3119936 2.3910763 2.446243 2.5296736 2.5798454
-0.29578733 0.3951743 0.8045845 1.0789931 1.3058319 1.4798012 1.6429737 1.7729411
1.8864985 2.0020576 2.097762 2.1936061 2.27948 2.3384485 2.4245195 2.4798613
-0.33316702 0.36124414 0.776083 1.048748 1.2760962 1.4501871 1.6132178 1.7429142
1.857596 1.9725127 2.0677326 2.166064 2.2534688 2.3106897 2.3974628 2.452199
-0.1669204 0.51375955 0.9154712 1.1815624 1.4043018 1.5718335 1.7309483 1.8557366
1.9641563 2.0779586 2.1702065 2.2606816 2.3412519 2.396006 2.4804869 2.5309017
-0.023462387 0.66114426 1.0630955 1.3272702 1.5505277 1.7170627 1.8748626 1.9986237
2.1065044 2.2205348 2.3125832 2.3996222 2.4777079 2.5324767 2.6155293 2.666049
-0.06614554 0.6127859 1.0130688 1.2741507 1.4970467 1.663711 1.8215221 1.94593
2.054377 2.1676457 2.2597587 2.3478332 2.426581 2.482807 2.5649872 2.6163487
-0.04871056 0.63244206 1.0338814 1.2939769 1.517305 1.6835581 1.8418208 1.9659783
2.073786 2.188 2.2801914 2.3682365 2.4470243 2.5015113 2.5846722 2.6357636
-0.12581524 0.5568226 0.9608219 1.2244253 1.4478991 1.6160775 1.7753775 1.9004692
2.0092318 2.1229618 2.215352 2.3060226 2.387 2.4412093 2.5248973 2.5766945
00000000: 15bc 85be 5b4d d93e 4c2a 543f 3cb9 8c3f
00000010: 4f7d a93f db5f bf3f 0afe d33f 3260 e43f
00000020: 738a f23f a69c 0040 0ba3 0640 ff93 0c40
00000030: b9e6 1140 1d8d 1540 2905 1b40 4466 1e40
00000040: d321 4bbe 13fe f63e d056 623f 7709 933f
00000050: 7198 af3f 7eea c43f 4a6a d93f d258 e93f
00000060: 1026 f73f 9bee 0240 56d6 0840 d4ae 0e40
00000070: 77e1 1340 0d45 1740 dfcd 1c40 21f8 1f40
00000080: 29d4 24be e109 063f c6bd 6d3f 62f6 983f
00000090: 7995 b53f 8b3a cb3f 7fa1 df3f 6bb2 ef3f
000000a0: f5ad fd3f 3c1b 0640 2b09 0c40 b0de 1140
000000b0: 3b16 1740 5390 1a40 0ff0 1f40 2243 2340
000000c0: b168 5fbe 5302 ef3e a8fe 5d3f 3b3e 943f
000000d0: edb0 b03f 7f83 c83f 05c2 db3f 0620 ed3f
000000e0: 8437 fd3f 00d9 0440 f615 0b40 055d 1040
000000f0: 6b7a 1540 ae3f 1b40 94f8 1e40 8c94 2340
00000100: db63 79be aa22 e23e 3ae7 583f 67dd 8e3f
00000110: 8a80 ab3f 122c c13f 5db2 d53f e2d4 e53f
00000120: d6d8 f33f 7b3b 0140 ba2c 0740 db23 0d40
00000130: c771 1240 37e3 1540 3466 1b40 a6ab 1e40
00000140: 91c5 363e 0f98 5e3f f7bb a13f 40ea c83f
00000150: 8457 e53f 7d09 fe3f be74 0840 a245 1140
00000160: de40 1940 cb46 1f40 aa69 2540 0250 2a40
00000170: ac1c 2f40 8a0f 3540 8f56 3840 a710 3d40
00000180: 2dc5 78be bf54 e33e c2ad 583f 3272 913f
00000190: 4221 ae3f 98ee c53f 62a7 d93f c031 eb3f
000001a0: 1f57 fb3f 531a 0440 4163 0a40 e5ea 0f40
000001b0: 7a28 1540 f705 1b40 97e5 1e40 0c92 2340
000001c0: 3e45 debd bbea 113f 333c 783f 9979 9e3f
000001d0: 53f0 ba3f 46aa d03f 61c3 e43f 37f7 f43f
000001e0: 6da0 0140 a3b3 0840 7ca8 0e40 7a50 1440
000001f0: 6467 1940 9c7e 1d40 497c 2240 8504 2640
00000200: 9b69 ccbd 0dcb 133f 2e1c 7a3f c68f 9e3f
00000210: d30d bb3f fe56 d03f a996 e43f ec75 f43f
00000220: f325 0140 e069 0840 7649 0e40 b4f7 1340
00000230: 6507 1940 3f8f 1c40 2ce6 2140 301c 2540
00000240: 7071 97be 4954 ca3e 40f9 4d3f 721c 8a3f
00000250: 8025 a73f 206a bd3f f64c d23f bcef e23f
00000260: c878 f13f b621 0040 bc41 0640 0b64 0c40
00000270: 00e3 1140 24a9 1540 542b 1b40 0cb6 1e40
00000280: de94 aabe fef4 b83e 60ad 463f 603d 863f
00000290: 1f57 a33f bb9f b93f ec7d ce3f d017 df3f
000002a0: b5c5 ed3f 4c7b fc3f bb55 0440 cba0 0a40
000002b0: d538 1040 57e2 1340 0870 1940 d4f0 1c40
000002c0: 2eed 2abe bf85 033f 525c 6a3f 703d 973f
000002d0: 29c0 b33f d731 c93f b78f dd3f c788 ed3f
000002e0: 7969 fb3f 46fd 0440 aae4 0a40 02af 1040
000002f0: 12d7 1540 2a58 1940 4cc0 1e40 4bfa 2140
00000300: 3134 c0bc c040 293f 8313 883f fde3 a93f
00000310: b177 c63f b6c8 db3f 7ffb ef3f e7d2 ff3f
00000320: f8d0 0640 3e1d 0e40 5d01 1440 6993 1940
00000330: c492 1e40 1914 2240 d564 2740 8ca0 2a40
00000340: 5077 87bd 89df 1c3f 3dac 813f 5f17 a33f
00000350: 3a9f bf3f 7bf4 d43f a327 e93f 3c14 f93f
00000360: ea7a 0340 b5ba 0a40 e39f 1040 e642 1640
00000370: 1a4d 1b40 4fe6 1e40 c028 2440 4272 2740
00000380: b984 47bd b9e7 213f 3a56 843f 09a1 a53f
00000390: 0d37 c23f d57e d73f c9c0 eb3f 2da5 fb3f
000003a0: e9b8 0440 3108 0c40 a8ee 1140 3091 1740
000003b0: 0c9c 1c40 c318 2040 456b 2540 5ab0 2840
000003c0: b6d5 00be ed8b 0e3f 6df8 753f f8b9 9c3f
000003d0: c254 b93f a1db ce3f 923f e33f 9342 f33f
000003e0: 4197 0040 9bde 0740 54c8 0d40 e095 1340
000003f0: 9cc4 1840 c63c 1c40 eb97 2140 90e8 2440

q_head.mamba.D f4 [18]
1.2793573 1.2592807 1.2321141 1.2629853 1.276436 1.2408898 1.2878288 1.2037612
1.2718786 1.265541 1.288548 1.2431419 1.2545509 1.2327858 1.2463332 1.2214766
1.270169 1.2922636
00000000: fbc1 a33f 1c30 a13f eab5 9d3f 81a9 a13f
00000010: 4162 a33f 7ad5 9e3f 93d7 a43f d914 9a3f
00000020: ebcc a23f 3ffd a13f 24ef a43f 461f 9f3f
00000030: 2095 a03f edcb 9d3f d987 9f3f 5859 9c3f
00000040: e694 a23f e568 a53f

q_head.mamba.in_proj.weight f4 [36, 9]
-0.64724964 -0.46779242 -0.06338508 -0.09700028 -0.59866166 -0.35964125 -0.05469466 -0.32053602
-0.39241722 -0.5924638 -0.55171657 -0.32021207 -0.06326289 -0.12096269 -0.045384742 -0.16965279
-0.28906387 -0.3394809 0.44964418 0.082624376 0.20220014 0.054486956 0.32514852 -0.026711946
0.09154802 0.073908284 0.3443113 -0.06085152 -0.065367885 0.07223307 0.08009023 -0.15382403
0.2739661 0.35144055 0.22976778 -0.057086047 0.36438963 0.6007844 0.30055413 0.6163439
0.54552317 0.5664951 0.04713752 0.48565394 0.36628827 -0.44670442 -0.26996204 -0.5264096
-0.0063710455 -0.45935455 -0.115893625 -0.04558065 -0.46220273 -0.35968107 0.11702515 -0.2987077
0.052442107 -0.4345879 0.17697026 -0.34167948 -0.13396013 -0.38798422 -0.34104666 0.18562138
-0.31565136 0.098397635 -0.107596435 0.17736907 -0.3133611 -0.34909576 0.009442297 -0.1549256
0.4206518 0.28066793 0.20630582 0.47642702 0.4753874 0.04175406 0.2500193 0.31754982
0.41486943 -0.0038212494 -0.108970486 -0.46575868 -0.16856211 -0.10242721 -0.47640866 -0.4565249
-0.22694562 -0.27344835 -0.66188616 -0.15839806 -0.097371615 -0.5456743 -0.53183377 -0.5262149
-0.24090524 -0.560047 -0.30765256 0.05233517 0.1647101 -0.26123777 0.16311318 0.014416554
0.114450745 -0.3211003 -0.2272509 0.175262 0.311732 -0.29138932 0.22026129 0.3233238
-0.12504399 0.21511045 0.4030383 -0.05448585 0.11517158 -0.28369242 -0.4954198 -0.63492584
-0.40079305 0.025454331 -0.19212323 0.027466793 -0.0044924836 -0.30153045 -0.066750675 -0.11069955
-0.0073922817 -0.24855721 -0.4514788 -0.14015986 -0.48597637 -0.54834944 -0.40752417 0.28985903
-0.10208178 0.044025026 0.12749362 -0.22227608 0.0043699015 0.5360031 0.55783635 0.1729668
-0.1419624 -0.5366648 -0.3107962 -0.51519597 -0.4257362 -0.018646842 -0.44679737 -0.46565393
-0.2698039 0.55634904 0.12824765 0.45535868 0.5132653 0.44062433 0.6927655 0.5048733
0.5234657 0.43149957 0.3088161 0.08975884 0.41626832 0.11540153 0.29537985 0.50418127
0.60080427 0.5742637 -0.06530263 -0.21096092 0.1535841 -0.31240597 -0.08198238 0.060959112
-0.43775705 -0.5733841 -0.60389775 -0.26010138 -0.5775515 -0.36237296 -0.4448313 0.12320028
0.12700999 -0.2891621 -0.5384009 -0.21828283 -0.09294284 -0.48820788 -0.17104597 -0.16046247
0.12968697 0.02178233 -0.55046827 0.007962422 -0.22664092 -0.37134686 0.35484228 0.08030866
0.12456729 0.1456296 0.025292275 0.5534187 0.14747174 0.4040179 0.21640208 0.5393052
0.33762357 0.047062863 0.49641016 0.28084746 0.21157543 0.27261564 0.26069552 0.42712492
-0.24957526 0.12274568 -0.057210505 -0.30651522 -0.13464598 -0.5245194 -0.5025007 -0.35402745
-0.039474636 0.1139519 0.054895107 0.38946474 0.4997909 0.080529585 0.03789161 0.4533904
0.23255026 0.18620259 0.2811828 0.19303183 -0.034603447 0.10903902 -0.012934108 0.5093515
0.05116494 0.60561454 -0.06826732 -0.6556873 -0.28139523 -0.4322633 0.07100339 0.03960736
-0.48166436 -0.40526506 -0.5665479 -0.21824986 -0.6379885 -0.16114885 -0.57183677 0.012912648
00000000: 27b2 25bf 7d82 efbe 09d0 81bd 15a8 c6bd
00000010: e441 19bf e622 b8be 8207 60bd 4c1d a4be
00000020: e9ea c8be b5ab 17bf 4c3d 0dbf d6f2 a3be
00000030: f98f 81bd 49bb f7bd 5ae5 39bd 76b9 2dbe
00000040: 2e00 94be 71d0 adbe c337 e63e f836 a93d
00000050: 8e0d 4f3e b72d 5f3d de79 a63e 03d3 dabc
00000060: 877d bb3d 3a5d 973d 9249 b03e 723f 79bd
00000070: 99df 85bd efee 933d 5906 a43d 0c84 1dbe
00000080: 4945 8c3e 04f0 b33e 3f48 6b3e 0fd3 69bd
00000090: 4791 ba3e 02cd 193f 3be2 993e b7c8 1d3f
000000a0: 68a7 0b3f d305 113f 4613 413d a2a7 f83e
000000b0: 238a bb3e 71b6 e4be 7738 8abe c8c2 06bf
000000c0: 34c4 d0bb 8530 ebbe a359 edbd c7b2 3abd
000000d0: d6a5 ecbe 1e28 b8be e2aa ef3d 37f0 98be
000000e0: 89cd 563d 4e82 debe b137 353e 9df0 aebe
000000f0: d82c 09be dea5 c6be ab9d aebe 8813 3e3e
00000100: 0e9d a1be b384 c93d 855b dcbd 3da0 353e
00000110: de70 a0be aebc b2be ddb3 1a3c d1a4 1ebe
00000120: ac5f d73e b5b3 8f3e d541 533e 3eee f33e
00000130: fa65 f33e 4e06 2b3d 8802 803e e495 a23e
00000140: c469 d43e ed6d 7abb eb2b dfbd ec77 eebe
00000150: 8c9b 2cbe 5bc5 d1bd d6eb f3be a2bd e9be
00000160: 6f64 68be 6c01 8cbe 5f71 29bf 1a33 22be
00000170: c56a c7bd 50b1 0bbf 4226 08bf 05b6 06bf
00000180: ddaf 76be 3d5f 0fbf a384 9dbe 675d 563d
00000190: c4a9 283e f5c0 85be 2407 273e 6933 6c3c
000001a0: 2765 ea3d 4267 a4be 76b4 68be e277 333e
000001b0: 569b 9f3e fb30 95be 2d8c 613e b28a a53e
000001c0: 880b 00be ea45 5c3e 095b ce3e 8e2c 5fbd
000001d0: 14df eb3d 2240 91be aaa7 fdbe 808a 22bf
000001e0: bf34 cdbe 9a85 d03c f4bb 44be 0a02 e13c
000001f0: af35 93bb 3362 9abe 94b4 88bd 72b6 e2bd
00000200: f43a f2bb c885 7ebe 3b28 e7be 1186 0fbe
00000210: e5d1 f8be a160 0cbf 02a7 d0be 6768 943e
00000220: 4110 d1bd 9653 343d b08d 023e 579c 63be
00000230: 6431 8f3b 8037 093f 5dce 0e3f 351e 313e
00000240: 975e 11be dd62 09bf ae20 9fbe e2e3 03bf
00000250: 18fa d9be 43c1 98bc a0c2 e4be 316a eebe
00000260: bd23 8abe e46c 0e3f 5a53 033e c624 e93e
00000270: 5b65 033f 8399 e13e 1459 313f 603f 013f
00000280: d901 063f 83ed dc3e 251d 9e3e 7cd3 b73d
00000290: 1f21 d53e a357 ec3d 073c 973e 0612 013f
000002a0: 4fce 193f f202 133f 63bd 85bd 2406 58be
000002b0: 2645 1d3e adf3 9fbe 61e6 a7bd 43b0 793d
000002c0: b121 e0be 4dc9 12bf 0b99 1abf 022c 85be
000002d0: 6ada 13bf f388 b9be eec0 e3be 6e50 fc3d
000002e0: e80e 023e 0e0d 94be a4d4 09bf 8985 5fbe
000002f0: d158 bebd 62f6 f9be ad26 2fbe 4650 24be
00000300: a9cc 043e db70 b23c 7deb 0cbf d274 023c
00000310: 8f14 68be 2d21 bebe e3ad b53e de78 a43d
00000320: 231d ff3d ed1f 153e bf31 cf3c d9ac 0d3f
00000330: d502 173e 6fdb ce3e 8298 5d3e e80f 0a3f
00000340: ffdc ac3e fdc4 403d 7929 fe3e 3dcb 8f3e
00000350: 3ba7 583e 4794 8b3e e279 853e 1eb0 da3e
00000360: a890 7fbe 1662 fb3d 9055 6abd 90ef 9cbe
00000370: a3e0 09be e746 06bf e3a3 00bf 1643 b5be
00000380: 28b0 21bd 9d5f e93d b1d9 603d ec67 c73e
00000390: 98e4 ff3e b2ec a43d 3c34 1b3d c922 e83e
000003a0: a821 6e3e e4ab 3e3e 31f7 8f3e 23aa 453e
000003b0: 58bc 0dbd da4f df3d 95e9 53bc dc64 023f
000003c0: 5492 513d 8e09 1b3f bdcf 8bbd 1fdb 27bf
000003d0: 0913 90be 9e51 ddbe 3a6a 913d 543b 223d
000003e0: b69c f6be e77e cfbe 4809 11bf e47c 5fbe
000003f0: 3753 23bf 3404 25be e563 12bf 928f 533c

q_head.mamba.conv1d.weight f4 [18, 1, 4]
-0.016784906 0.47580492 -0.5547918 -0.6419973 -0.042499363 -0.0908196 0.28376395 0.5402766
-0.3890695 0.46450722 -0.009330586 -0.5184469 -0.38070118 -0.029206872 0.1360497 -0.30895692
-0.22506678 0.25147355 0.34425154 0.4076562 0.0018467307 -0.20584339 0.20615382 0.40936747
0.20015806 0.28799635 0.6607655 0.20047036 -0.39871383 0.14634639 -0.27452102 0.37156114
-0.12883288 0.0009736419 0.5097334 0.15713297 -0.06866974 0.26806653 0.335698 0.4969758
0.48102546 0.1022833 -0.78253317 -0.8056867 0.31288713 0.038849533 -0.30566046 0.31089815
0.23926836 0.18455637 0.1965718 -0.342995 0.32210296 0.23598129 -0.37223786 -0.7457147
-0.34952664 0.42373204 -0.10470644 -0.4911339 0.47147095 -0.29042947 0.016149227 -0.4456917
0.22581601 0.47198606 0.71797305 0.6417535 0.35010314 0.48336077 0.2898817 0.3624688
00000000: 8080 89bc b49c f33e d606 0ebf ef59 24bf
00000010: d013 2ebd a0ff b9bd 8249 913e 914f 0a3f
00000020: 1e34 c7be e4d3 ed3e 50df 18bc f0b8 04bf
00000030: 44eb c2be 4043 efbc 9d50 0b3e 9a2f 9ebe
00000040: e877 66be 24c1 803e bd41 b03e 50b8 d03e
00000050: 000e f23a 9cc8 52be fd19 533e 9d98 d13e
00000060: 3cf6 4c3e 4274 933e ee27 293f 1a48 4d3e
00000070: 3824 ccbe d4db 153e 058e 8cbe 433d be3e
00000080: c4ec 03be 003c 7f3a e37d 023f 77e7 203e
00000090: b8a2 8cbd 0440 893e 9ce0 ab3e 9d73 fe3e
000000a0: f848 f63e e879 d13d 1854 48bf 7c41 4ebf
000000b0: be32 a03e b020 1f3d 877f 9cbe 0b2e 9f3e
000000c0: c402 753e 58fc 3c3e 1e4a 493e 0a9d afbe
000000d0: aeea a43e 14a5 713e f695 bebe 29e7 3ebf
000000e0: 28f5 b2be 68f3 d83e 5470 d6bd e775 fbbe
000000f0: a464 f13e 2cb3 94be 624b 843c b431 e4be
00000100: 503c 673e 28a8 f13e 15cd 373f f549 243f
00000110: b840 b33e 107b f73e 606b 943e 8395 b93e

q_head.mamba.conv1d.bias f4 [18]
0.5207686 -0.7841949 -0.49301377 -0.42412335 0.68848646 -0.35951042 -0.48578247 -0.3497396
0.42572588 -0.73525184 0.79628986 -0.5581655 -0.77791244 0.6441086 0.4678835 -0.54747534
-0.49831703 0.49722525
00000000: 1751 053f ffc0 48bf 4d6c fcbe b226 d9be
00000010: a640 303f c011 b8be 7bb8 f8be 1211 b3be
00000020: bef8 d93e 7739 3cbf a7d9 4b3f efe3 0ebf
00000030: 4525 47bf 4de4 243f 6d8e ef3e 5827 0cbf
00000040: 6923 ffbe 4f94 fe3e

q_head.mamba.x_proj.weight f4 [33, 18]
0.506123 -0.38829094 -0.1407278 -0.5056453 0.19352813 -0.45339778 -0.2845521 -0.28393018
0.18990564 -0.5849327 0.39256495 -0.21234454 -0.3344958 0.2556462 0.21638514 -0.43514323
-0.40534264 0.58990824 -0.25628555 0.59355015 0.33663055 0.16399924 -0.23175287 0.51781934
0.29944476 0.35202658 -0.16997899 0.51026297 -0.23072904 0.4291362 0.46668535 -0.59286314
-0.5124994 0.37049568 0.51575196 -0.47782323 -0.34763566 0.21755047 0.4169843 0.33252242
-0.46852148 0.45304036 0.50064576 0.34729093 -0.5532019 0.42648795 -0.3153319 0.14357366
0.5531264 -0.14095096 -0.32996455 0.18952076 0.38315284 -0.3399931 0.47536692 -0.28540468
-0.21053731 -0.3368014 0.28408554 -0.17541648 -0.48316556 -0.29837835 0.2369272 -0.3954867
0.43990743 -0.4422532 -0.2973874 0.19884475 0.1964009 -0.18544704 -0.21742968 0.44169506
-0.57990795 0.34765434 0.17496975 0.25594416 -0.43362913 0.15895532 0.26071706 0.49420217
-0.23642327 0.2664584 -0.39953116 0.18385719 0.39144033 -0.2240666 -0.31730425 0.17308557
0.3372355 -0.33826533 -0.49230084 0.12979123 0.23428476 0.4793944 -0.58443666 0.5167313
0.29673097 0.11033459 -0.43337414 0.498124 -0.35950056 0.53988427 0.20666334 -0.17379543
-0.49854875 0.34629855 0.27835724 -0.39094087 0.3388781 -0.35226867 -0.40591517 -0.23703042
0.44500712 -0.4342043 -0.2990022 -0.5458998 0.34729668 -0.259627 0.43244067 -0.48634392
-0.3383387 0.58529115 0.25281465 -0.52515846 -0.44355136 0.5932231 -0.585682 0.18752412
0.23204596 0.3889652 -0.52525073 0.50220126 0.12891896 0.21103303 -0.24275424 0.41518396
-0.57501495 0.151948 0.15223077 -0.20448163 -0.18066694 0.27582413 0.15261401 -0.26507032
-0.2530255 0.5358741 0.16370164 0.26625988 -0.38871458 0.5638927 0.23694226 0.35444427
-0.41823927 0.23367551 -0.6016637 0.54383403 0.15712652 -0.1556813 -0.38444582 0.26680082
0.2547289 -0.5128572 0.4564829 -0.23047122 -0.5090542 -0.32556352 0.3479028 -0.23425758
-0.54125017 -0.3383604 0.5607897 -0.49490756 0.5406475 -0.4779487 -0.40090033 0.2838668
0.16260631 -0.57596403 -0.37111828 0.27133507 -0.48970523 0.4328878 0.27333894 0.49470767
-0.29657692 0.40944546 0.5440888 0.32229176 -0.43702188 0.48429644 -0.5177236 0.17575972
0.52366644 -0.44176272 -0.24268652 0.30825028 0.18537876 -0.17374407 0.19716927 -0.2345124
-0.16257934 -0.52880377 0.46334842 -0.16651651 -0.23632072 -0.56867105 0.21709222 -0.50645655
0.23753119 -0.5504993 -0.43289274 0.41304982 0.26864472 -0.3571777 -0.58671635 0.1588313
-0.33068055 0.35806677 0.39695215 0.41820338 -0.22415128 0.14840622 0.15650499 0.22501783
-0.1847042 0.25260538 -0.43055242 0.43764827 0.5402474 -0.5168153 -0.5112132 0.10860099
0.35622412 -0.21371946 -0.39531076 0.23031597 0.52429473 0.48345417 -0.33902007 0.17657591
0.4064103 0.4259122 -0.42057166 0.15969495 -0.3385323 0.115782246 0.11539734 -0.25576603
-0.5046979 0.5204846 0.39514676 -0.4203167 -0.39414114 0.21872021 0.21155104 0.19768457
00000000: 4791 013f 12ce c6be f31a 10be f871 01bf
00000010: 3d2c 463e c123 e8be d0b0 91be 4c5f 91be
00000020: a076 423e 26be 15bf 46fe c83e d970 59be
00000030: 0943 abbe 0fe4 823e 1194 5d3e 18cb debe
00000040: 1289 cfbe 3a04 173f dc37 83be e7f2 173f
00000050: d75a ac3e 6bef 273e a050 6dbe cf8f 043f
00000060: d350 993e d43c b43e f90e 2ebe 98a0 023f
00000070: 3c44 6cbe bdb7 db3e 62f1 ee3e e1c5 17bf
00000080: 2933 03bf 9cb1 bd3e 5208 043f 3fa5 f4be
00000090: 4dfd b1be 8dc5 5e3e f77e d53e 6140 aa3e
000000a0: 0ce2 efbe e8f4 e73e 522a 003f 1ed0 b13e
000000b0: a49e 0dbf a15c da3e 2f73 a1be f904 133e
000000c0: b199 0d3f 7355 10be 1df1 a8be bb11 423e
000000d0: 9c2c c43e 9313 aebe 4b63 f33e 9020 92be
000000e0: 1897 57be 3c71 acbe a973 913e 61a0 33be
000000f0: 7a61 f7be 0cc5 98be 0b9d 723e 3c7d cabe
00000100: 8c3b e13e 036f e2be 2943 98be f59d 4b3e
00000110: 511d 493e d4e5 3dbe e3a5 5ebe db25 e23e
00000120: d974 14bf c0ff b13e 452b 333e 1d0b 833e
00000130: a304 debe 2fc5 223e b57c 853e 1108 fd3e
00000140: f118 72be 3c6d 883e 598f ccbe 0f45 3c3e
00000150: de6a c83e b771 65be b475 a2be 583d 313e
00000160: 22aa ac3e 1d31 adbe db0e fcbe fee7 043e
00000170: 58e8 6f3e 2f73 f53e a49d 15bf 8148 043f
00000180: 1fed 973e 1af7 e13d 37e3 ddbe 1c0a ff3e
00000190: 7510 b8be db35 0a3f 8e9f 533e 6ef7 31be
000001a0: c841 ffbe 0b4e b13e d784 8e3e 6729 c8be
000001b0: 6e81 ad3e 8f5c b4be 1dd4 cfbe 1ab8 72be
000001c0: f9d7 e33e 0750 debe d116 99be 17c0 0bbf
000001d0: dfd0 b13e d5ed 84be dd68 dd3e 1202 f9be
000001e0: bb3a adbe a4d5 153f ec70 813e c970 06bf
000001f0: 2a19 e3be 78dd 173f 41ef 15bf 5306 403e
00000200: 759d 6d3e 7226 c73e d576 06bf 4390 003f
00000210: 5503 043e 0b19 583e 9194 78be fe92 d43e
00000220: 2e34 13bf 4298 1b3e 62e2 1b3e a263 51be
00000230: c100 39be d238 8d3e d946 1c3e 4cb7 87be
00000240: 8f8c 81be 0c2f 093f 67a1 273e 3753 883e
00000250: 9905 c7be 465b 103f fea0 723e b879 b53e
00000260: 7523 d6be a248 6f3e a206 1abf b538 0b3f
00000270: c6e5 203e eb6a 1fbe 15d6 c4be 1e9a 883e
00000280: d46b 823e 9c4a 03bf 20b8 e93e a600 6cbe
00000290: 6051 02bf 43b0 a6be 5120 b23e 38e1 6fbe
000002a0: 5f8f 0abf 933d adbe ea8f 0f3f 8664 fdbe
000002b0: e067 0a3f b1b5 f4be cf42 cdbe fd56 913e
000002c0: 4582 263e 6172 13bf 3703 bebe 6eec 8a3e
000002d0: a5ba fabe 78a3 dd3e 15f3 8b3e 534a fd3e
000002e0: eed8 97be d6a2 d13e 6749 0b3f 6d03 a53e
000002f0: 55c1 dfbe b4f5 f73e 8989 04bf 5bfa 333e
00000300: 010f 063f b92e e2be d182 78be fbd2 9d3e
00000310: eed3 3d3e f7e9 31be bee6 493e 0524 70be
00000320: 337b 26be af5f 07bf 013c ed3e 4e83 2abe
00000330: 0ffe 71be 6d94 11bf 6c4d 5e3e 23a7 01bf
00000340: 603b 733e 86ed 0cbf 1ea4 ddbe 447b d33e
00000350: cd8b 893e ffdf b6be 0b33 16bf aca4 223e
00000360: f64e a9be 8754 b73e 503d cb3e c11e d63e
00000370: ea87 65be cdf7 173e d842 203e 136b 663e
00000380: 1923 3dbe 7e55 813e 5e71 dcbe 6f13 e03e
00000390: a74d 0a3f 024e 04bf dede 02bf 326a de3d
000003a0: 0263 b63e 46d9 5abe 2c66 cabe f3d7 6b3e
000003b0: 2e38 063f 4e87 f73e 0a94 adbe 51d0 343e
000003c0: 0315 d03e 2a11 da3e 2b55 d7be 1387 233e
000003d0: 1b54 adbe 3e1f ed3d 7155 ec3d c4f3 82be
000003e0: e233 01bf 7b3e 053f ad50 ca3e c033 d7be
000003f0: decc c9be 31f8 5f3e d6a0 583e d36d 4a3e

q_head.mamba.dt_proj.weight f4 [18, 1]
1.3223848 1.0075204 -0.1756433 0.2374673 0.36512178 0.71587443 1.0168575 1.2363498
0.44892457 1.1612971 0.7528197 0.6204996 0.20920372 0.39138138 -0.044893626 -0.51558685
1.2435381 -0.04400036
00000000: e843 a93f 6ef6 803f d6db 33be a12a 733e
00000010: 3ef1 ba3e 8c43 373f 6328 823f b640 9e3f
00000020: 71d9 e53e 62a5 943f cbb8 403f 10d9 1e3f
00000030: 8039 563e 2463 c83e 61e2 37bd 80fd 03bf
00000040: 422c 9f3f b939 34bd

q_head.mamba.dt_proj.bias f4 [18]
-5.0974913 -5.348283 -4.191253 -2.4851153 -3.6616263 -1.9864312 -3.6613219 -5.702119
-5.5627966 -3.7657645 -2.8885849 -4.8718133 -6.350788 -6.5635266 -6.5045457 -4.3586216
-5.275082 -2.2881937
00000000: a61e a3c0 2225 abc0 bf1e 86c0 210c 1fc0
00000010: 1658 6ac0 6143 febf 1953 6ac0 c277 b6c0
00000020: 6e02 b2c0 4902 71c0 93de 38c0 e5e5 9bc0
00000030: a839 cbc0 6908 d2c0 3d25 d0c0 d479 8bc0
00000040: 79cd a8c0 c471 12c0

q_head.mamba.out_proj.weight f4 [9, 18]
-0.20987953 -0.42595065 -0.4392633 -0.2571275 -0.5041699 0.44999757 -0.42752942 0.14621986
-0.48923638 -0.39861372 0.469464 0.17939967 0.03805792 -0.20385356 -0.3144522 0.45356625
-0.3170983 0.1534734 0.34333527 0.19628088 0.38461077 0.25984737 0.28158876 -0.11444564
0.51178783 0.010846899 0.3798033 0.34154204 -0.31728652 -0.37216192 -0.17344852 0.28716677
0.21697678 -0.22922066 0.30183402 -0.49894652 -0.41693553 -0.08253021 -0.27336952 -0.46946102
-0.20156732 0.3915074 -0.1865832 0.40178463 -0.14352766 -0.4259466 0.5135309 0.2913388
0.45257273 -0.43156806 -0.3742674 0.38711616 -0.31879288 0.4079966 0.54004806 0.19707434
0.13452147 0.20387562 0.46568906 -0.25317362 0.22670749 -0.27498507 0.16015221 0.41697016
-0.38818383 -0.32047975 -0.105090335 0.20127235 0.21784699 -0.3585436 0.36294866 -0.4287495
0.26750922 0.48021838 0.39013678 0.39937383 0.1302035 -0.09914112 0.44976342 -0.15249385
0.3288333 0.29141387 -0.1942191 -0.3808691 -0.32053435 0.22114702 0.17759149 -0.2471501
0.31493327 -0.38235942 -0.3243865 -0.45506912 -0.30292574 -0.49271184 -0.13293423 0.4610082
-0.16783628 0.34266374 -0.23576629 -0.26177162 0.58608943 0.39531198 0.08637211 -0.097639166
-0.3928254 0.13649546 -0.48587427 0.49623036 -0.0928806 -0.41888103 -0.42162848 -0.4185483
-0.18545516 0.08224935 -0.55732536 0.32310575 -0.07477192 -0.49126658 0.47401947 0.3944327
0.45444638 -0.32541817 -0.40432778 0.25040647 -0.09963294 0.21491833 -0.24367392 -0.36474755
-0.19243143 -0.28704745 -0.49258393 0.44229224 -0.2532089 0.45021328 -0.4333644 -0.30268058
0.5191767 0.14684324 0.34937796 -0.14323924 -0.29333752 0.45322576 -0.30426553 0.3070061
0.41798276 0.35686514 0.07082425 0.124351345 0.2508638 -0.32082424 0.50140476 -0.16835415
0.23236215 0.53038514 -0.14625774 -0.006115898 -0.15923013 0.142693 0.27160057 -0.32619584
0.19556877 -0.47792563
00000000: a9ea 56be 3416 dabe 1fe7 e0be 37a6 83be
00000010: 4711 01bf 1566 e63e 23e5 dabe a9ba 153e
00000020: 317d fabe 1917 ccbe 965d f03e 8cb4 373e
00000030: 9fe2 1b3d fdbe 50be e1ff a0be d639 e83e
00000040: b55a a2be 2228 1d3e a4c9 af3e dbfd 483e
00000050: b4eb c43e b70a 853e 672c 903e 7a62 eabd
00000060: 8704 033f 31b7 313c 9475 c23e 99de ae3e
00000070: 6173 a2be 028c bebe 7d9c 31be 8607 933e
00000080: 292f 5e3e d2b8 6abe fd89 9a3e eb75 ffbe
00000090: 9378 d5be 9905 a9bd 17f7 8bbe 325d f0be
000000a0: aa67 4ebe a873 c83e ab0f 3fbe b7b6 cd3e
000000b0: eaf8 12be ac15 dabe c376 033f 5c2a 953e
000000c0: 9db7 e73e 7df6 dcbe fa9f bfbe 1734 c63e
000000d0: d238 a3be eee4 d03e 9740 0a3f dbcd 493e
000000e0: ffbf 093e c5c4 503e cc6e ee3e f99f 81be
000000f0: 0226 683e d8ca 8cbe f1fe 233e 1d7d d53e
00000100: 08c0 c6be ec15 a4be 9a39 d7bd 571a 4e3e
00000110: 4813 5f3e 0793 b7be 68d4 b93e 0e85 dbbe
00000120: f8f6 883e 2fdf f53e 02c0 c73e ba7a cc3e
00000130: 1154 053e 800a cbbd 6447 e63e 5927 1cbe
00000140: d75c a83e 3334 953e 5fe1 46be 4601 c3be
00000150: 141d a4be 5d74 623e 8bda 353e ea14 7dbe
00000160: ef3e a13e 9dc4 c3be fd15 a6be d2fe e8be
00000170: 1519 9bbe ba44 fcbe e91f 08be 4409 ec3e
00000180: 46dd 2bbe 9f71 af3e b86c 71be ee06 86be
00000190: f509 163f 5566 ca3e dce3 b03d 0bf7 c7bd
000001a0: 6920 c9be 77c5 0b3e 83c4 f8be e811 fe3e
000001b0: 2f38 bebd 9377 d6be b0df d7be f64b d6be
000001c0: f5e7 3dbe 5972 a83d e0ac 0ebf 1e6e a53e
000001d0: 0522 99bd 4b87 fbbe aeb2 f23e 15f3 c93e
000001e0: 32ad e83e 369d a6be 0d04 cfbe 4735 803e
000001f0: 5b0c ccbd 8d13 5c3e a885 79be 31c0 babe
00000200: bf0c 45be e2f7 92be f633 fcbe 2174 e23e
00000210: 99a4 81be 5b82 e63e f0e1 ddbe f3f8 9abe
00000220: c4e8 043f 135e 163e abe1 b23e 4fad 12be
00000230: 5630 96be 350d e83e b1c8 9bbe e72f 9d3e
00000240: d601 d63e 07b7 b63e 4e0c 913d ebab fe3d
00000250: 3871 803e 1343 a4be 105c 003f 0865 2cbe
00000260: 58f0 6d3e 52c7 073f 97c4 15be df67 c8bb
00000270: 390d 23be 1d1e 123e 3b0f 8b3e 2403 a7be
00000280: 2e43 483e abb2 f4be

q_head.final_norm.gamma f4 [9]
1.0 1.0 1.0 1.0 1.0 1.0 1.0 1.0
1.0
00000000: 0000 803f 0000 803f 0000 803f 0000 803f
00000010: 0000 803f 0000 803f 0000 803f 0000 803f
00000020: 0000 803f

ema_model.q_head.action_bin_embeddings f4 [2, 256, 9]
0.19315007 -0.10671349 0.20543696 -0.14074962 -0.09473688 0.16788839 0.16715369 0.18850416
-0.1524264 0.16590153 -0.14063811 0.2057849 -0.14405179 -0.12293122 0.19150129 0.21230388
0.2138335 -0.15644015 0.15949692 -0.13235755 0.17142372 -0.1895842 -0.118845135 0.16725782
0.20715415 0.15131752 -0.15669073 0.14293201 -0.114548765 0.23124264 -0.16706644 -0.115504295
0.1718206 0.19539559 0.21072465 -0.12390313 0.12963292 -0.13870567 0.22567825 -0.15868591
-0.12845373 0.1766246 0.1861261 0.19137986 -0.09517403 0.18390353 -0.14184499 0.19206421
-0.15251073 -0.10974682 0.14777052 0.16525553 0.21850844 -0.14256968 0.17940536 -0.16568078
0.19490226 -0.1579758 -0.15115775 0.18737087 0.22215785 0.16780597 -0.14367183 0.16667187
-0.12991591 0.20506527 -0.16373022 -0.09035399 0.21661799 0.1256345 0.20920072 -0.14672445
0.1300042 -0.12339295 0.18953851 -0.14807977 -0.113258995 0.17483822 0.15848637 0.15639326
-0.09466098 0.21082522 0.027594956 0.19416957 -0.0689142 0.093196526 0.2129427 0.19022684
0.24903828 -0.0020047717 0.122208275 -0.03724194 0.123162486 -0.022054229 -0.05074707 0.1487017
0.1545 0.18433416 -0.07525536 0.18411785 -0.16455312 0.20471767 -0.14648397 -0.12416587
0.19247445 0.15048492 0.18357906 -0.10626812 0.2062035 -0.15972364 0.18248552 -0.17987762
-0.14855412 0.20771092 0.17943667 0.18847713 -0.1687712 0.18276905 -0.11591825 0.18386172
-0.16455087 -0.11418085 0.19521548 0.19254166 0.17150143 -0.10173556 0.153232 -0.13761297
0.20237213 -0.15336737 -0.105502196 0.15134767 0.19117194 0.19842555 -0.09492192 0.17092918
-0.14086089 0.18938126 -0.1580098 -0.12767187 0.20675953 0.1497426 0.1723149 -0.098665535
0.15032412 -0.11414689 0.16006629 -0.15448807 -0.11550914 0.17533216 0.17114402 0.20944148
-0.13980505 0.18065728 -0.15272331 0.1850469 -0.14212564 -0.14097817 0.17853238 0.17396978
0.17222685 -0.15449105 0.17293929 -0.11225314 0.1743819 -0.15642893 -0.09770004 0.1747668
0.17040898 0.20669104 -0.11568025 0.17746402 -0.13472477 0.20399506 -0.16105445 -0.15811238
0.16194232 0.19728884 0.20553541 -0.1631822 0.17132284 -0.1688366 0.17519325 -0.15634137
-0.103198595 0.17070432 0.17598292 0.20726974 -0.14403239 0.16211912 -0.13394485 0.22879954
-0.12899324 -0.13714157 0.16872033 0.16991882 0.21404356 -0.16018787 0.14859207 -0.13982967
0.20559962 -0.12581283 -0.1030561 0.18798712 0.16383842 0.2039159 -0.15076977 0.17189135
-0.16611314 0.17596138 -0.12915027 -0.10532621 0.14466976 0.14136468 0.20008913 -0.12584096
0.21631646 -0.16695425 0.19165301 -0.1802462 -0.1541436 0.1698549 0.16514723 0.16138312
-0.11502855 0.17638355 -0.11280309 0.2100518 -0.14764042 -0.14696054 0.17855178 0.18643586
0.20018882 -0.13474658 0.16332707 -0.11094984 0.22481158 -0.14156377 -0.119916804 0.17473407
0.19485895 0.18539664 -0.1342306 0.18505733 -0.1313986 0.21714546 -0.16347429 -0.12216413
0.16789187 0.19189693 0.17780527 -0.13367265 0.16926728 -0.17022654 0.17628725 -0.18459682
00000000: 22c9 453e 9a8c dabd 115e 523e ab20 10be
00000010: 6905 c2bd efea 2b3e 562a 2b3e 3c07 413e
00000020: ab15 1cbe 17e2 293e 7003 10be 47b9 523e
00000030: 5082 13be 5dc3 fbbd ea18 443e 3066 593e
00000040: 2bf7 5a3e d931 20be 2953 233e bd88 07be
00000050: b389 2f3e 5c22 42be 1465 f3bd a245 2b3e
00000060: 3820 543e fbf2 1a3e 8973 20be c55c 123e
00000070: 8b98 eabd dfca 6c3e 7713 2bbe 848d ecbd
00000080: bdf1 2f3e c815 483e 34c8 573e edc0 fdbd
00000090: 7ebe 043e dc08 0ebe 3318 673e 8f7e 22be
000000a0: 6089 03be 14dd 343e d797 3e3e 15f9 433e
000000b0: 9aea c2bd 3551 3c3e d03f 11be 7bac 443e
000000c0: c62b 1cbe f1c2 e0bd 2851 173e bf38 293e
000000d0: adc0 5f3e c9fd 11be 0ab6 373e 39a8 29be
000000e0: 7594 473e 68c4 21be 19c9 1abe 26de 3f3e
000000f0: 597d 633e 54d5 2b3e b51e 13be 08ac 2a3e
00000100: ad08 05be a1fc 513e e5a8 27be 830b b9bd
00000110: 1bd1 5d3e 55a6 003e b738 563e ef3e 16be
00000120: d21f 053e 71b5 fcbd 6216 423e 39a2 17be
00000130: 55f4 e7bd ca08 333e 404a 223e 8e25 203e
00000140: 9edd c1bd 91e2 573e d10e e23c 63d4 463e
00000150: e322 8dbd d2dd be3d a70d 5a3e d3ca 423e
00000160: e403 7f3e 7d62 03bb 5548 fa3d 018b 18bd
00000170: 9d3c fc3d 12ab b4bc 29dc 4fbd 4245 183e
00000180: 3f35 1e3e 18c2 3c3e 7b1f 9abd 6489 3c3e
00000190: 9d80 28be 82a1 513e e5ff 15be ad4a febd
000001a0: 0618 453e b818 1a3e 26fc 3b3e 1aa3 d9bd
000001b0: 0327 533e 988e 23be 7cdd 3a3e d731 38be
000001c0: 921e 18be 2cb2 543e 3fbe 373e 2600 413e
000001d0: 5cd2 2cbe cf27 3b3e 8c66 edbd 3f46 3c3e
000001e0: 0680 28be a6d7 e9bd 91e6 473e a429 453e
000001f0: 129e 2f3e bc5a d0bd d9e8 1c3e 6aea 0cbe
00000200: a43a 4f3e 560c 1dbe 8911 d8bd e2fa 1a3e
00000210: 94c2 433e 1130 4b3e 6c66 c2bd 0f08 2f3e
00000220: d63d 10be 29ed 413e 52cd 21be 6abc 02be
00000230: c5b8 533e 2056 193e 5173 303e 2811 cabd
00000240: 91ee 193e d8c5 e9bd 6be8 233e 1f32 1ebe
00000250: 0e90 ecbd 468a 333e 6140 2f3e d477 563e
00000260: 0e29 0fbe 39fe 383e 8063 1cbe ef7c 3d3e
00000270: 6289 11be 955c 10be 31d1 363e 2225 323e
00000280: 3c5c 303e e732 1ebe ff16 313e f9e4 e5bd
00000290: 2b91 323e e82e 20be f516 c8bd 11f6 323e
000002a0: b17f 2e3e d1a6 533e c4e9 ecbd 21b9 353e
000002b0: 4af5 09be 15e4 503e 75eb 24be 36e8 21be
000002c0: 35d4 253e 1606 4a3e e077 523e 3c19 27be
000002d0: 416f 2f3e 80e3 2cbe dc65 333e f417 20be
000002e0: c959 d3bd 1dcd 2e3e de34 343e 853e 543e
000002f0: 3a7d 13be 8e02 263e d728 09be 6d4a 6a3e
00000300: ce16 04be d76e 0cbe 06c5 2c3e 33ff 2d3e
00000310: 3c2e 5b3e 4a08 24be 8528 183e 822f 0fbe
00000320: b588 523e 14d5 00be 140f d3bd b27f 403e
00000330: 42c5 273e 54cf 503e 6463 1abe 4904 303e
00000340: 9019 2abe 382f 343e f83f 04be 45b5 d7bd
00000350: 4f24 143e e7c1 103e 2ae4 4c3e 74dc 00be
00000360: 1082 5d3e 0ef6 2abe b040 443e 7692 38be
00000370: d2d7 1dbe 71ee 2d3e 5b1c 293e 9e41 253e
00000380: 1794 ebbd e49d 343e 4e05 e7bd d217 573e
00000390: 0d2f 17be d37c 16be 47d6 363e 0be9 3e3e
000003a0: 4cfe 4c3e 02fb 09be 363f 273e ab39 e3bd
000003b0: 0235 663e 18f6 10be f196 f5bd 7ded 323e
000003c0: 1b89 473e 9ed8 3d3e bf73 09be ab7f 3d3e
000003d0: 5b8d 06be 615b 5e3e ce65 27be 3031 fabd
000003e0: d9eb 2b3e a180 443e 9612 363e 7ce1 08be
000003f0: 6754 2d3e de4f 2ebe a584 343e f306 3dbe

ema_model.q_head.mamba.A_log f4 [18, 16]
-0.26119635 0.4244233 0.82877606 1.0994089 1.3241426 1.4951187 1.6561961 1.7841916
1.8948561 2.009573 2.1037133 2.196545 2.279719 2.3367498 2.4222019 2.4750037
-0.1983702 0.48240867 0.88414013 1.1487323 1.3718456 1.5384121 1.6985621 1.823029
1.930855 2.0458252 2.138094 2.2294326 2.3106482 2.3636014 2.4500773 2.4995315
-0.16096483 0.5235912 0.92867994 1.195025 1.41863 1.58773 1.7471219 1.8726383
1.9818772 2.0954242 2.1880715 2.2792287 2.3607438 2.4150708 2.499039 2.5509844
-0.21817122 0.46681616 0.86717 1.1581551 1.3804053 1.5665189 1.7168645 1.8525457
1.9782627 2.0757565 2.1732273 2.2556894 2.3356087 2.4257736 2.483934 2.5559535
-0.24354333 0.44167253 0.8472812 1.1161376 1.3398662 1.5091634 1.6695117 1.7955651
1.9050608 2.0192673 2.1121168 2.2053254 2.2882063 2.342005 2.428125 2.4792385
0.17848933 0.8695107 1.2635547 1.5696547 1.7917392 1.9846705 2.1321373 2.269887
2.394596 2.488684 2.5845623 2.6611214 2.736113 2.8290615 2.8802712 2.9541295
-0.24293654 0.44400957 0.84640455 1.1363034 1.3603959 1.5463498 1.7004266 1.8374617
1.9636022 2.0641186 2.16232 2.2487237 2.3306074 2.422251 2.482775 2.555801
-0.10853013 0.56999093 0.96967155 1.2380918 1.4604651 1.6302023 1.7872185 1.9138004
2.0254285 2.135976 2.2290454 2.3174238 2.3969474 2.4608645 2.5388477 2.5940378
-0.09981043 0.57732004 0.97699547 1.2387686 1.4613653 1.6276608 1.7858537 1.9098547
2.0179532 2.131474 2.2232456 2.3120055 2.3910882 2.446255 2.5296855 2.5798573
-0.29578292 0.39517912 0.8045895 1.078999 1.3058379 1.4798071 1.6429796 1.7729471
1.8865044 2.0020695 2.097774 2.193618 2.279492 2.3384604 2.4245315 2.4798732
-0.3331594 0.36125353 0.7760914 1.0487576 1.2761042 1.4501958 1.6132249 1.7429211
1.8576026 1.9725187 2.0677445 2.166076 2.2534807 2.3107016 2.3974748 2.452211
-0.16691965 0.51376253 0.9154742 1.1815684 1.4043077 1.5718395 1.7309543 1.8557426
1.9641622 2.0779705 2.1702185 2.2606936 2.3412638 2.396018 2.4804988 2.5309136
-0.023462294 0.66114724 1.0631014 1.3272761 1.5505337 1.7170687 1.8748685 1.9986297
2.1065164 2.2205467 2.3125951 2.3996341 2.4777198 2.5324886 2.6155412 2.666061
-0.06614517 0.61278886 1.0130748 1.2741567 1.4970527 1.6637169 1.8215281 1.945936
2.054389 2.1676576 2.2597706 2.347845 2.4265928 2.4828188 2.564999 2.6163607
-0.048710372 0.63244504 1.0338874 1.2939829 1.517311 1.6835641 1.8418268 1.9659842
2.073798 2.188012 2.2802033 2.3682485 2.4470363 2.5015233 2.5846841 2.6357756
-0.1258145 0.5568256 0.9608249 1.2244313 1.4479051 1.6160835 1.7753835 1.9004751
2.0092437 2.1229737 2.215364 2.3060346 2.387012 2.4412212 2.5249093 2.5767064
00000000: 87bb 85be 034e d93e ab2a 543f 6eb9 8c3f
00000010: 817d a93f 0d60 bf3f 3cfe d33f 6460 e43f
00000020: a58a f23f d89c 0040 3da3 0640 3194 0c40
00000030: ebe6 1140 4f8d 1540 5b05 1b40 7666 1e40
00000040: 8f21 4bbe 45fe f63e 0257 623f a909 933f
00000050: a398 af3f b0ea c43f 7c6a d93f 0459 e93f
00000060: 4226 f73f cdee 0240 88d6 0840 06af 0e40
00000070: a9e1 1340 3f45 1740 11ce 1c40 53f8 1f40
00000080: f7d3 24be 130a 063f f8bd 6d3f 94f6 983f
00000090: ab95 b53f bd3a cb3f b1a1 df3f 9db2 ef3f
000000a0: 27ae fd3f 6e1b 0640 5d09 0c40 e2de 1140
000000b0: 6d16 1740 8590 1a40 41f0 1f40 5443 2340
000000c0: 4768 5fbe 8702 ef3e dafe 5d3f 6d3e 943f
000000d0: 1fb1 b03f b183 c83f 37c2 db3f 3820 ed3f
000000e0: b637 fd3f 32d9 0440 2816 0b40 375d 1040
000000f0: 9d7a 1540 e03f 1b40 c6f8 1e40 be94 2340
00000100: 6c63 79be e722 e23e 6ce7 583f 99dd 8e3f
00000110: bc80 ab3f 442c c13f 8fb2 d53f 14d5 e53f
00000120: 08d9 f33f ad3b 0140 ec2c 0740 0d24 0d40
00000130: f971 1240 69e3 1540 6666 1b40 d8ab 1e40
00000140: e8c5 363e 4198 5e3f 29bc a13f 72ea c83f
00000150: b657 e53f af09 fe3f f074 0840 d445 1140
00000160: 1041 1940 9946 1f40 7869 2540 d04f 2a40
00000170: 7a1c 2f40 580f 3540 5d56 3840 7510 3d40
00000180: 5bc4 78be 3955 e33e f8ad 583f 6472 913f
00000190: 7421 ae3f caee c53f 94a7 d93f f231 eb3f
000001a0: 5157 fb3f 851a 0440 7363 0a40 17eb 0f40
000001b0: ac28 1540 2906 1b40 c9e5 1e40 3e92 2340
000001c0: 0b45 debd edea 113f 653c 783f cb79 9e3f
000001d0: 85f0 ba3f 78aa d03f 93c3 e43f 69f7 f43f
000001e0: 9fa0 0140 d5b3 0840 aea8 0e40 ac50 1440
000001f0: 9667 1940 ce7e 1d40 7b7c 2240 b704 2640
00000200: 6969 ccbd 3fcb 133f 601c 7a3f f88f 9e3f
00000210: 050e bb3f 3057 d03f db96 e43f 1e76 f43f
00000220: 2526 0140 126a 0840 a849 0e40 e6f7 1340
00000230: 9707 1940 718f 1c40 5ee6 2140 621c 2540
00000240: dc70 97be eb54 ca3e 94f9 4d3f a41c 8a3f
00000250: b225 a73f 526a bd3f 284d d23f eeef e23f
00000260: fa78 f13f e821 0040 ee41 0640 3d64 0c40
00000270: 32e3 1140 56a9 1540 862b 1b40 3eb6 1e40
00000280: de93 aabe 39f6 b83e edad 463f b03d 863f
00000290: 6257 a33f 04a0 b93f 277e ce3f 0a18 df3f
000002a0: ecc5 ed3f 7e7b fc3f ed55 0440 fda0 0a40
000002b0: 0739 1040 89e2 1340 3a70 1940 06f1 1c40
000002c0: fcec 2abe f185 033f 845c 6a3f a23d 973f
000002d0: 5bc0 b33f 0932 c93f e98f dd3f f988 ed3f
000002e0: ab69 fb3f 78fd 0440 dce4 0a40 34af 1040
000002f0: 44d7 1540 5c58 1940 7ec0 1e40 7dfa 2140
00000300: ff33 c0bc f240 293f b513 883f 2fe4 a93f
00000310: e377 c63f e8c8 db3f b1fb ef3f 19d3 ff3f
00000320: 2ad1 0640 701d 0e40 8f01 1440 9b93 1940
00000330: f692 1e40 4b14 2240 0765 2740 bea0 2a40
00000340: 1e77 87bd bbdf 1c3f 6fac 813f 9117 a33f
00000350: 6c9f bf3f adf4 d43f d527 e93f 6e14 f93f
00000360: 1c7b 0340 e7ba 0a40 15a0 1040 1843 1640
00000370: 4c4d 1b40 81e6 1e40 f228 2440 7472 2740
00000380: 8784 47bd ebe7 213f 6c56 843f 3ba1 a53f
00000390: 3f37 c23f 077f d73f fbc0 eb3f 5fa5 fb3f
000003a0: 1bb9 0440 6308 0c40 daee 1140 6291 1740
000003b0: 3e9c 1c40 f518 2040 776b 2540 8cb0 2840
000003c0: 84d5 00be 1f8c 0e3f 9ff8 753f 2aba 9c3f
000003d0: f454 b93f d3db ce3f c43f e33f c542 f33f
000003e0: 7397 0040 cdde 0740 86c8 0d40 1296 1340
000003f0: cec4 1840 f83c 1c40 1d98 2140 c2e8 2440

ema_model.q_head.mamba.D f4 [18]
1.2792996 1.2592676 1.2321081 1.2629763 1.2763947 1.2408662 1.2878152 1.2037501
1.2718583 1.2655253 1.2884767 1.2431278 1.2545258 1.232745 1.2462726 1.2214596
1.270163 1.2922417
00000000: 17c0 a33f ae2f a13f b8b5 9d3f 35a9 a13f
00000010: e760 a33f b4d4 9e3f 21d7 a43f 7c14 9a3f
00000020: 41cc a23f bcfc a13f ceec a43f d01e 9f3f
00000030: 4d94 a03f 97ca 9d3f dc85 9f3f ca58 9c3f
00000040: b494 a23f 2d68 a53f

ema_model.q_head.mamba.in_proj.weight f4 [36, 9]
-0.64720005 -0.46733806 -0.063314416 -0.09652192 -0.5976901 -0.35913974 -0.054645848 -0.31989542
-0.39204174 -0.59245837 -0.55168194 -0.32020557 -0.06322447 -0.12086748 -0.045346174 -0.16964753
-0.2890144 -0.339462 0.44963646 0.082584225 0.20218967 0.054442104 0.32502836 -0.026762681
0.09153967 0.07384172 0.34428847 -0.060859546 -0.065426454 0.07222297 0.08002527 -0.15401353
0.27389634 0.35143372 0.22967209 -0.05711817 0.36436546 0.6005868 0.3005212 0.6161328
0.54504734 0.566275 0.047113754 0.48536843 0.36611575 -0.44669363 -0.2698205 -0.5263958
-0.0062160543 -0.4589777 -0.11573977 -0.045569334 -0.462 -0.35957766 0.117031194 -0.29865944
0.052450348 -0.43453544 0.1770881 -0.3416302 -0.13395469 -0.38791975 -0.34100974 0.18562774
-0.31560043 0.098406106 -0.10753997 0.17756069 -0.31329763 -0.34909004 0.009532249 -0.15491275
0.4206377 0.28057677 0.20628509 0.4763312 0.47521937 0.041659765 0.2500061 0.31743187
0.41476038 -0.0038127904 -0.10890838 -0.4657493 -0.16849573 -0.10226154 -0.47634262 -0.4565181
-0.22685759 -0.27340847 -0.66181093 -0.15776204 -0.097264834 -0.545007 -0.53061795 -0.5255045
-0.24083227 -0.5591603 -0.30707642 0.05233847 0.16474192 -0.2612341 0.1631495 0.014528387
0.11448953 -0.32109764 -0.22719705 0.17527756 0.31172907 -0.29141742 0.2202571 0.32329232
-0.1251455 0.21507612 0.40303534 -0.05453434 0.11516188 -0.28365934 -0.49514392 -0.63488257
-0.40049905 0.026122931 -0.19181067 0.027498972 -0.0040876064 -0.30131346 -0.06673101 -0.11052985
-0.0073665353 -0.24837516 -0.45101827 -0.13996841 -0.48595828 -0.54809743 -0.40741313 0.28985098
-0.10214461 0.044013645 0.12742515 -0.22246766 0.0042975172 0.53599584 0.557741 0.1729367
-0.14196019 -0.5366228 -0.31079262 -0.5151501 -0.42562777 -0.018601105 -0.44679588 -0.46559528
-0.26976633 0.55632097 0.12801084 0.45531878 0.51301473 0.44007143 0.6925033 0.5048471
0.5231272 0.43129024 0.30875346 0.089482255 0.4161888 0.11510882 0.29457366 0.50381017
0.60074395 0.57377607 -0.06541796 -0.21095121 0.1536195 -0.3123947 -0.081944115 0.06108426
-0.43770745 -0.57337624 -0.60383266 -0.26008883 -0.5775485 -0.3623586 -0.44482812 0.123216525
0.12705271 -0.28914443 -0.5383979 -0.21825965 -0.092935406 -0.48819748 -0.1709933 -0.16044872
0.1297437 0.021962931 -0.55040103 0.007973646 -0.22654799 -0.37133223 0.35481215 0.08016295
0.1245287 0.14547253 0.024841594 0.55322707 0.1474422 0.403763 0.21632557 0.5392706
0.33726746 0.047015503 0.49602842 0.2799357 0.21116507 0.27258113 0.26015815 0.42693102
-0.24954842 0.1228264 -0.057176895 -0.30642816 -0.13436513 -0.5243953 -0.5024765 -0.35386315
-0.039431628 0.11394315 0.054859366 0.38945496 0.49974978 0.080420285 0.037843615 0.453383
0.23248789 0.18617652 0.28117582 0.19300883 -0.03461313 0.10901319 -0.0130133955 0.50931746
0.05115716 0.60556984 -0.06827883 -0.6556603 -0.28123978 -0.43222716 0.0711683 0.040102318
-0.4814659 -0.4052374 -0.5662822 -0.21819727 -0.63788784 -0.16064471 -0.5717078 0.013450741
00000000: e7ae 25bf ef46 efbe fdaa 81bd 49ad c5bd
00000010: 3802 19bf 2ae1 b7be 53d4 5fbd 55c9 a3be
00000020: b2b9 c8be 5aab 17bf 073b 0dbf fcf1 a3be
00000030: d57b 81bd 5f89 f7bd e9bc 39bd 15b8 2dbe
00000040: b2f9 93be f7cd adbe c036 e63e eb21 a93d
00000050: cf0a 4f3e affe 5e3d 1e6a a63e 693d dbbc
00000060: 2779 bb3d 543a 973d 9446 b03e dc47 79bd
00000070: 4efe 85bd a3e9 933d 4ae4 a33d b9b5 1dbe
00000080: 243c 8c3e 1fef b33e 292f 6b3e bef4 69bd
00000090: 1c8e ba3e 0ec0 193f eadd 993e e1ba 1d3f
000000a0: 3988 0b3f 66f7 103f 5afa 403d 3682 f83e
000000b0: 8673 bb3e 07b5 e4be ea25 8abe e0c1 06bf
000000c0: 0bb0 cbbb 20ff eabe f908 edbd e9a6 3abd
000000d0: 448b ecbe 901a b8be 0dae ef3d e4e9 98be
000000e0: 2dd6 563d 6e7b debe 9556 353e 27ea aebe
000000f0: 6b2b 09be 6b9d c6be d498 aebe 3315 3e3e
00000100: 6196 a1be 2489 c93d ea3d dcbd 78d2 353e
00000110: 8c68 a0be eebb b2be 262d 1c3c 73a1 1ebe
00000120: d35d d73e c2a7 8f3e 663c 533e afe1 f33e
00000130: f44f f33e 6ea3 2a3d cd00 803e 6e86 a23e
00000140: 795b d43e 02e0 79bb 5b0b dfbd b176 eebe
00000150: 258a 2cbe 806e d1bd 2ee3 f3be bebc e9be
00000160: 5b4d 68be 32fc 8bbe 716c 29bf 5f8c 21be
00000170: c932 c7bd 9485 0bbf 94d6 07bf 7787 06bf
00000180: bc9c 76be 2125 0fbf 1f39 9dbe dd60 563d
00000190: 1bb2 283e 7ac0 85be aa10 273e 7908 6e3c
000001a0: 7d79 ea3d e966 a4be 58a6 68be f67b 333e
000001b0: f49a 9f3e aa34 95be 148b 613e 9286 a53e
000001c0: 2426 00be ea3c 5c3e a65a ce3e 665f 5fbd
000001d0: fed9 eb3d cc3b 91be 8183 fdbe aa87 22bf
000001e0: 360e cdbe c2ff d53c 046a 44be 8645 e13c
000001f0: 54f1 85bb c245 9abe 45aa 88bd 795d e2bd
00000200: fa62 f1bb 0f56 7ebe deeb e6be e153 0fbe
00000210: 86cf f8be 1d50 0cbf 7498 d0be 5967 943e
00000220: 3131 d1bd a747 343d bd7b 023e 90ce 63be
00000230: 30d2 8c3b 0637 093f 1dc8 0e3f 5116 313e
00000240: 035e 11be 1d60 09bf 3620 9fbe e1e0 03bf
00000250: e2eb d9be 5861 98bc 6ec2 e4be 8162 eebe
00000260: d01e 8abe 0d6b 0e3f 4615 033e 8b1f e93e
00000270: ef54 033f 0b51 e13e e547 313f a93d 013f
00000280: aaeb 053f 13d2 dc3e ef14 9e3e 7942 b73d
00000290: b316 d53e 2cbe eb3d 5cd2 963e b4f9 003f
000002a0: 5bca 193f fde2 123f daf9 85bd 9803 58be
000002b0: 6e4e 1d3e 33f2 9fbe 51d2 a7bd 7d33 7a3d
000002c0: 311b e0be c9c8 12bf c794 1abf 5d2a 85be
000002d0: 38da 13bf 1187 b9be 83c0 e3be f258 fc3d
000002e0: 1b1a 023e bd0a 94be 72d4 09bf 757f 5fbe
000002f0: eb54 bebd 05f5 f9be de18 2fbe ab4c 24be
00000300: 88db 043e 9beb b33c 15e7 0cbf e5a3 023c
00000310: 32fc 67be 421f bebe f0a9 b53e 792c a43d
00000320: e708 ff3d c0f6 143e 9980 cb3c 4aa0 0d3f
00000330: 17fb 163e 06ba ce3e 7384 5d3e a30d 0a3f
00000340: 52ae ac3e 5493 403d 70f7 fd3e bb53 8f3e
00000350: a83b 583e c18f 8b3e 7333 853e b496 da3e
00000360: 9f89 7fbe 688c fb3d 5232 6abd 27e4 9cbe
00000370: 0397 09be c53e 06bf 4da2 00bf 8d2d b5be
00000380: 0f83 21bd 075b e93d 37b4 603d a466 c73e
00000390: 34df ff3e 64b3 a43d e801 1b3d d121 e83e
000003a0: 4e11 6e3e 0fa5 3e3e 47f6 8f3e 1ba4 453e
000003b0: 7fc6 0dbd 4f42 df3d 2336 55bc a162 023f
000003c0: 2c8a 513d a006 1b3f c5d5 8bbd 5ad9 27bf
000003d0: a9fe 8fbe e14c ddbe b0c0 913d 5442 243d
000003e0: b382 f6be 477b cfbe dff7 10bf 1b6f 5fbe
000003f0: 9e4c 23bf 0c80 24be 715b 12bf 7f60 5c3c
