checkpoints/q-mamba/20240831_083609/checkpoint-2.pt (torch, 103216 bytes, 52 tensors)

q_head.DAC_block.mamba_blocks.0.A_log f4 [28, 32]
-0.0013408066 0.689308 1.09079 1.3767023 1.6027223 1.7846425 1.9416379 2.061775
2.1889439 2.2910092 2.3826447 2.4674792 2.5488644 2.6207273 2.6863246 2.745581
2.8140557 2.8678715 2.924598 2.9683907 3.033703 3.0681465 3.10867 3.1432633
3.1948323 3.23676 3.265291 3.3135114 3.3379493 3.377607 3.4023364 3.444915
-0.025079893 0.6561413 1.0521382 1.3373996 1.5673243 1.7495759 1.9120188 2.0224943
2.1543217 2.255159 2.3446956 2.4302814 2.5125525 2.5837345 2.6497855 2.7088547
2.7787013 2.8314147 2.8889434 2.9342587 3.0031142 3.0333533 3.076082 3.1100252
3.1619465 3.2036104 3.231689 3.2816927 3.3051727 3.3453171 3.3698084 3.4157617
-0.050902802 0.63159823 1.0278114 1.3139392 1.54719 1.7346525 1.8972529 2.0016234
2.1378837 2.240679 2.326122 2.4133668 2.496694 2.5671463 2.633964 2.6927369
2.7644408 2.8163686 2.8749452 2.920864 2.9965565 3.0199585 3.064923 3.097105
3.153219 3.1928372 3.22014 3.2719269 3.2951095 3.3367205 3.3602052 3.4093914
-0.0017987675 0.6883683 1.0896939 1.3755947 1.6014254 1.7833011 1.940249 2.0612948
2.1875324 2.2896779 2.3819063 2.466913 2.5481224 2.6203594 2.6865008 2.747083
2.8137498 2.8684099 2.924594 2.9695244 3.0321507 3.0686972 3.1096468 3.146654
3.1954832 3.2370272 3.2677362 3.3132725 3.3400304 3.3783317 3.4049985 3.444798
-0.0363586 0.64455366 1.0391831 1.3242506 1.5568712 1.7417289 1.9043773 2.0078921
2.1451077 2.2465768 2.331866 2.418164 2.5014534 2.570932 2.6365242 2.6934383
2.7672248 2.817354 2.8766718 2.9204898 3.0010207 3.019435 3.0642772 3.0933328
3.1548772 3.192106 3.2152827 3.271492 3.2901857 3.336242 3.3536646 3.4116838
-0.017058492 0.66419125 1.0601652 1.3452908 1.5743836 1.7557846 1.9179901 2.0302975
2.160681 2.2606373 2.351832 2.4368417 2.5187662 2.5904334 2.6565113 2.7177615
2.784618 2.8386111 2.8952582 2.9408524 3.0062737 3.0399783 3.0817187 3.120243
3.1660767 3.2091794 3.2401738 3.2867758 3.3122244 3.3497558 3.377592 3.4186661
-0.025729205 0.658684 1.0584781 1.3447925 1.5711687 1.7535268 1.9120564 2.0334268
2.1582503 2.2598398 2.3538463 2.4394867 2.5204322 2.5934505 2.6609895 2.7263927
2.7871172 2.8439748 2.8990126 2.947252 3.0045102 3.044428 3.08714 3.1318514
3.171889 3.2120016 3.2490559 3.2875829 3.3200328 3.3542387 3.38658 3.4196384
-0.057524856 0.6263559 1.0242778 1.3109987 1.5424073 1.7255747 1.8910502 2.001503
2.1322927 2.233944 2.3225532 2.409563 2.4927487 2.5637937 2.6317801 2.693504
2.7606108 2.8141303 2.8708596 2.9189892 2.9898708 3.017358 3.06118 3.1009912
3.1474354 3.1894815 3.2201872 3.2687814 3.2934709 3.331791 3.3592277 3.4055357
00000000: 01be afba 7d76 303f 029f 8b3f c837 b03f
00000010: 0126 cd3f 2a6f e43f 9787 f83f 1ff4 0340
00000020: a817 0c40 e59f 1240 407d 1840 2eeb 1d40
00000030: 9820 2340 ffb9 2740 beec 2b40 99b7 2f40
00000040: 7d19 3440 358b 3740 9d2c 3b40 1dfa 3d40
00000050: 3128 4240 835c 4440 73f4 4640 3a2b 4940
00000060: 2278 4c40 1327 4f40 87fa 5040 9210 5440
00000070: f6a0 5540 b72a 5840 e1bf 5940 7d79 5c40
00000080: 5974 cdbc e0f8 273f 77ac 863f e92f ab3f
00000090: 159e c83f 1af2 df3f 08bd f43f 8c70 0140
000000a0: 68e0 0940 8654 1040 7e0f 1640 bb89 1b40
000000b0: a9cd 2040 e85b 2540 1696 2940 e05d 2d40
000000c0: 3ed6 3140 e635 3540 73e4 3840 e5ca 3b40
000000d0: 0633 4040 7622 4240 87de 4440 a70a 4740
000000e0: 555d 4a40 f407 4d40 fed3 4e40 4107 5240
000000f0: f387 5340 ad19 5640 f1aa 5740 d79b 5a40
00000100: 757f 50bd 6cb0 213f 538f 833f 292f a83f
00000110: 520a c63f 1809 de3f 2fd9 f23f 991a 0040
00000120: 16d3 0840 4967 0f40 2fdf 1440 9a74 1a40
00000130: d6c9 1f40 204c 2440 de92 2840 cd55 2c40
00000140: 99ec 3040 623f 3440 1aff 3740 70ef 3a40
00000150: 95c7 3f40 0047 4140 b327 4440 f836 4640
00000160: 57ce 4940 7257 4c40 c616 4e40 4067 5140
00000170: 13e3 5240 d48c 5540 9a0d 5740 7833 5a40
00000180: 9fc4 ebba e838 303f 177b 8b3f 7d13 b03f
00000190: 82fb cc3f 3643 e43f 145a f83f 41ec 0340
000001a0: 8800 0c40 158a 1240 2771 1840 e7e1 1d40
000001b0: 7014 2340 f8b3 2740 a1ef 2b40 35d0 2f40
000001c0: 7a14 3440 0794 3740 8c2c 3b40 b00c 3e40
000001d0: c20e 4240 8965 4440 7404 4740 c762 4940
000001e0: cc82 4c40 742b 4f40 9722 5140 a80c 5440
000001f0: 0fc3 5540 9636 5840 7feb 5940 9277 5c40
00000200: c1ec 14bd 7801 253f f403 853f 0b81 a93f
00000210: 8e47 c73f f9f0 de3f a3c2 f33f 4e81 0040
00000220: 7249 0940 eac7 0f40 4b3d 1540 33c3 1a40
00000230: d017 2040 268a 2440 d0bc 2840 4b61 2c40
00000240: 361a 3140 874f 3440 641b 3840 4ee9 3a40
00000250: b910 4040 6c3e 4140 1e1d 4440 2af9 4540
00000260: 82e9 4940 774b 4c40 31c7 4d40 2060 5140
00000270: 6792 5240 fd84 5540 71a2 5640 0759 5a40
00000280: 40be 8bbc 7008 2a3f 7eb3 873f 7d32 ac3f
00000290: 6785 c93f 8dbd e03f b380 f53f 65f0 0140
000002a0: 9948 0a40 48ae 1040 6a84 1640 37f5 1b40
000002b0: 7733 2140 a9c9 2540 4804 2a40 ceef 2d40
000002c0: 2e37 3240 ceab 3540 e94b 3940 ed36 3c40
000002d0: ca66 4040 018f 4240 e13a 4540 10b2 4740
000002e0: 00a1 4a40 3263 4d40 025f 4f40 895a 5240
000002f0: 7cfb 5340 6662 5640 782a 5840 6dcb 5a40
00000300: 0ec6 d2bc 849f 283f 367c 873f 2922 ac3f
00000310: 0e1c c93f 9173 e03f 44be f43f aa23 0240
00000320: c620 0a40 37a1 1040 6ba5 1640 8d20 1c40
00000330: c34e 2140 18fb 2540 a74d 2a40 387d 2e40
00000340: 2160 3240 af03 3640 6c89 3940 c79f 3c40
00000350: e549 4040 e9d7 4240 b493 4540 4170 4840
00000360: 3b00 4b40 6f91 4d40 88f0 4f40 c267 5240
00000370: 6b7b 5440 d9ab 5640 babd 5840 5bdb 5a40
00000380: 2f9f 6bbd dc58 203f 891b 833f cece a73f
00000390: 9a6d c53f a2df dc3f ef0d f23f a018 0040
000003a0: 7c77 0840 f0f8 0e40 b6a4 1440 4836 1a40
000003b0: 3289 1f40 3215 2440 166f 2840 5f62 2c40
000003c0: d9ad 3040 b61a 3440 2abc 3740 b8d0 3a40
000003d0: 0b5a 3f40 651c 4140 60ea 4340 a476 4640
000003e0: 956f 4940 7720 4c40 8c17 4e40 b733 5140
000003f0: 3ac8 5240 103c 5540 96fd 5640 4cf4 5940

q_head.DAC_block.mamba_blocks.0.D f4 [28]
1.0848933 1.0893284 1.0888566 0.98928756 1.0859637 1.0590053 1.0760016 1.0844821
1.0804571 1.0558364 1.0848325 1.0880083 1.0835763 1.0869379 1.0538875 1.0834129
1.0859853 1.0930412 1.0237917 1.0070192 1.0564024 1.0883983 1.0107282 1.0817529
1.0774035 1.0660319 1.088004 1.0845242
00000000: c9dd 8a3f 1d6f 8b3f a75f 8b3f f341 7d3f
00000010: dc00 8b3f 7c8d 873f 6cba 893f 4fd0 8a3f
00000020: 6b4c 8a3f a625 873f cbdb 8a3f db43 8b3f
00000030: a1b2 8a3f c820 8b3f c9e5 863f 46ad 8a3f
00000040: 9101 8b3f c6e8 8b3f 9b0b 833f 01e6 803f
00000050: 3238 873f a350 8b3f 8b5f 813f e176 8a3f
00000060: 5ce8 893f bc73 883f b743 8b3f b0d1 8a3f

q_head.DAC_block.mamba_blocks.0.in_proj.weight f4 [56, 14]
-0.14197096 0.13196562 0.051336627 0.11695017 0.23873298 0.30585468 0.13500158 0.031434886
0.35190356 0.15069972 0.08375239 -0.11389513 0.1262274 -0.16204724 0.2367879 -0.15109952
0.31791064 0.09753667 0.26046345 0.28679284 0.22935463 -0.09488422 -0.0077249007 0.22490382
0.12940623 -0.19901255 0.14022154 0.24624856 -0.18838386 -0.30356506 -0.33133206 -0.19486092
-0.1580122 -0.28604075 -0.12182466 -0.35379982 -0.16033337 -0.01159571 0.13653494 0.10303336
-0.19024758 -0.21068808 0.063533984 -0.07067063 -0.058982164 0.23897246 -0.21939547 -0.076151475
0.24161293 0.29118335 0.04948448 0.07719839 0.16083108 0.1884171 -0.25463238 -0.3021063
-0.058778852 0.15004064 0.19285399 0.25875267 0.27833736 -0.06494615 0.1846184 0.026052808
-0.035610076 -0.17887485 0.2635868 -0.079374865 -0.017285008 0.13951327 0.3192914 -0.10186135
0.21099621 -0.15535249 -0.1880875 -0.13531822 -0.0076628453 0.19301122 0.24212249 -0.19288118
0.25864393 0.3069062 0.22234881 0.25704515 0.28137487 -0.15870214 0.054172464 0.22272447
-0.1613452 0.14234132 0.27413008 -0.032680895 -0.14121835 0.10260905 0.26181766 0.34178475
-0.15325464 0.22699489 -0.033831038 -0.02968515 -0.0048555466 0.037536215 -0.10401868 -0.2968756
-0.25221372 0.16326037 0.021400884 -0.09754019 -0.122487955 -0.058609795 -0.23149233 0.13033497
-0.13759233 0.02262625 0.050142836 -0.2016595 -0.06859879 -0.057179477 -0.30407614 -0.24682559
0.18287174 0.21231493 0.21730193 0.26314124 0.22826867 0.27804583 0.103763476 -0.29120135
0.0899829 -0.3198956 0.105848216 0.03755862 -0.23241772 -0.05177178 0.16160288 0.016883453
-0.19632335 -0.045942303 0.27403358 0.29946145 -0.10906416 0.31809366 -0.12157259 -0.13615501
-0.10161118 0.081422165 -0.10476232 -0.086886965 0.26370868 -0.24570549 -0.07942037 0.20359206
0.29602334 0.26098704 0.075976245 -0.14638755 -0.15314443 0.16979796 0.023239952 -0.033692744
0.14829665 -0.16930756 0.33089688 0.23769148 0.31514227 0.28514072 0.07970957 0.06299719
0.11219425 0.122213215 -0.17594384 -0.12778766 -0.29903346 0.042240255 -0.1631451 -0.17015883
-0.1030113 0.12562795 0.012605426 -0.0885997 0.14893809 0.0668518 -0.09374268 -0.03213046
-0.014096273 0.07168614 0.22574219 0.19117765 0.03809343 0.29822606 0.32981873 -0.20623852
0.2814833 0.06660298 0.16177258 0.06275609 -0.0028547575 -0.26147494 -0.20143265 -0.11253739
0.05624056 -0.1235917 -0.22769602 -0.23541601 0.14411007 -0.19261543 0.16022132 -0.28206238
-0.3202105 -0.012246762 -0.14222264 -0.16011718 0.2015505 0.17957595 -0.0047795814 0.24589741
0.0029893485 0.28844303 0.17146337 0.22565934 0.17030801 0.01583128 0.14984676 0.02754327
0.042051386 0.042336114 -0.3531863 0.006387698 -0.18036751 -0.16072991 0.08846223 -0.019140134
-0.09645752 -0.03451842 -0.29317376 -0.040593777 -0.023911726 -0.081800215 0.030190097 0.13495381
-0.05377018 0.18820503 -0.14869328 0.04254462 0.14470676 0.104544945 0.14259136 -0.07747898
0.1533199 -0.0184723 -0.034414057 0.3498989 -0.1920038 -0.18331905 -0.22483845 0.2188826
00000000: d660 11be ff21 073e 5b46 523d 9283 ef3d
00000010: 6b76 743e fc98 9c3e db3d 0a3e dec1 003d
00000020: b42c b43e 0751 1a3e 6086 ab3d da41 e9bd
00000030: c141 013e b6ef 25be 8778 723e d5b9 1abe
00000040: 2fc5 a23e 4ec1 c73d 775b 853e 83d6 923e
00000050: f1db 6a3e a852 c2bd 2a21 fdbb 304d 663e
00000060: 1183 043e f2c9 4bbe 3c96 0f3e 9528 7c3e
00000070: b3e7 40be e16c 9bbe 5ba4 a9be 9f89 47be
00000080: f3cd 21be ef73 92be 357f f9bd 4025 b5be
00000090: 6e2e 24be effb 3dbc d1cf 0b3e 2703 d33d
000000a0: 43d0 42be 9ebe 57be 1b1e 823d c3bb 90bd
000000b0: 4897 71bd 32b5 743e 35a9 60be 4ef5 9bbd
000000c0: 6169 773e fc15 953e 3db0 4a3d 311a 9e3d
000000d0: e7b0 243e 6af0 403e 2d5f 82be adad 9abe
000000e0: 18c2 70bd 41a4 193e 847b 453e 3b7b 843e
000000f0: 3c82 8e3e 7d02 85bd 9b0c 3d3e b36c d53c
00000100: dfdb 11bd f82a 37be d9f4 863e 4a8f a2bd
00000110: 4a99 8dbc 91dc 0e3e 2a7a a33e af9c d0bd
00000120: 640f 583e b914 1fbe 029a 40be dc90 0abe
00000130: 9b18 fbbb bca4 453e f5ee 773e a582 45be
00000140: fa6c 843e cf22 9d3e 68af 633e 6c9b 833e
00000150: 5e10 903e d082 22be f2e3 5d3d e211 643e
00000160: ad37 25be ecc1 113e c75a 8c3e 67dc 05bd
00000170: 8b9b 10be b224 d23d f70c 863e 69fe ae3e
00000180: c9ee 1cbe 5971 683e 6a92 0abd 462e f3bc
00000190: 471b 9fbb 93bf 193d bf07 d5bd 1400 98be
000001a0: 2822 81be ba2d 273e e850 af3c 27c3 c7bd
000001b0: f7da fabd d310 70bd 530c 6dbe 8876 053e
000001c0: 01e5 0cbe af5a b93c 9362 4d3d d47f 4ebe
000001d0: 867d 8cbd 0735 6abd deaf 9bbe d9bf 7cbe
000001e0: bb42 3b3e 1669 593e 6684 5e3e 73ba 863e
000001f0: 43bf 693e 065c 8e3e f281 d43d 5818 95be
00000200: f448 b83d 5bc9 a3be f3c6 d83d 11d7 193d
00000210: e9fe 6dbe a50e 54bd 3a7b 253e 2b4f 8a3c
00000220: fd08 49be ff2d 3cbd 214e 8c3e 0353 993e
00000230: 085d dfbd 2cdd a23e 0dfb f8bd 386c 0bbe
00000240: 8619 d0bd aac0 a63d a18d d6bd cbf1 b1bd
00000250: d304 873e 389a 7bbe 26a7 a2bd 707a 503e
00000260: 5f90 973e 18a0 853e 6f99 9b3d 9ee6 15be
00000270: e5d1 1cbe 84df 2d3e b661 be3c 6701 0abd
00000280: 14db 173e f65e 2dbe 516b a93e 6565 733e
00000290: 545a a13e f7fd 913e c53e a33d ac04 813d
000002a0: 19c6 e53d ec4a fa3d 9f2a 34be c5da 02be
000002b0: ea1a 99be 1e04 2d3d 820f 27be 1e3e 2ebe
000002c0: 97f7 d2bd 9da4 003e fd86 4e3c c273 b5bd
000002d0: 3a83 183e 99e9 883d 2afc bfbd 3b9b 03bd
000002e0: 0ef4 66bc 2fd0 923d f628 673e 13c4 433e
000002f0: db07 1c3d 16b1 983e 00de a83e 3130 53be
00000300: 941e 903e 2567 883d b6a7 253e 4486 803d
00000310: e216 3bbb 0be0 85be 5c44 4ebe 017a e6bd
00000320: 805c 663d a51d fdbd 2529 69be e510 71be
00000330: 9791 133e fb3c 45be 0f11 243e 7b6a 90be
00000340: a1f2 a3be a5a6 48bc d0a2 11be c2f5 23be
00000350: 4163 4e3e c2e2 373e 099e 9cbb 88cc 7b3e
00000360: f2e8 433b ceae 933e 1894 2f3e 3e13 673e
00000370: 3965 2e3e 9ab0 813c 6e71 193e 6ca2 e13c
00000380: 133e 2c3d a268 2d3d d6d4 b4be e54f d13b
00000390: 43b2 38be 6296 24be b02b b53d c5cb 9cbc
000003a0: 858b c5bd 3063 0dbd df1a 96be a945 26bd
000003b0: 86e2 c3bc df86 a7bd 3951 f73c 5531 0a3e
000003c0: 1f3e 5cbd d2b8 403e 0d43 18be 4443 2e3d
000003d0: 022e 143e a91b d63d 7803 123e 4dad 9ebd
000003e0: e4ff 1c3e 3953 97bc c1f5 0cbd f325 b33e
000003f0: a59c 44be fdb7 3bbe 0d3c 66be c322 603e

q_head.DAC_block.mamba_blocks.0.conv1d.weight f4 [28, 1, 4]
0.16933537 0.1372692 -0.39428678 0.48979953 0.16828698 -0.35534936 -0.5312302 -0.07518572
-0.28845686 0.24868953 0.44420338 0.53079426 -0.27426612 -0.453395 -0.5495976 0.37033525
-0.44143003 0.39759636 0.32915115 -0.48251766 -0.3306089 -0.3389591 0.069511086 0.4111772
0.07083106 -0.18967539 0.038728923 0.5396806 -0.2424171 -0.045998693 -0.34051213 -0.21934544
0.25744945 -0.13901925 0.29919976 -0.14819089 0.2916671 0.12754208 -0.37876466 0.17700681
-0.30303776 0.08562493 0.18437639 0.37482747 0.04196185 -0.2758264 0.023197513 0.4088863
-0.019853175 0.04672599 -0.497797 0.12725699 0.38839006 0.40366167 -0.4862668 -0.12592264
-0.41824663 0.30795246 -0.14894457 -0.53776294 0.28875607 -0.16521484 -0.35636595 0.5238193
-0.3064363 0.038155675 -0.011501865 0.37815574 -0.010876238 -0.43152815 0.3329203 0.28995958
0.35855246 -0.2115916 0.28423688 0.1764356 -0.13354611 -0.17424029 0.1185978 0.066766076
0.21516192 0.09959602 -0.4643042 0.37718874 -0.31578028 0.055472434 -0.3531091 0.31444523
0.25584018 0.07971257 0.014455973 -0.45915803 0.30041486 0.2283606 0.4196917 0.3074148
0.027144253 -0.13151896 -0.011171237 -0.26553285 -0.32277143 0.20261961 -0.584896 -0.3002186
0.31416994 -0.23655838 -0.405828 -0.01642161 -0.45996404 -0.016076684 -0.37302455 0.31150612
00000000: 4066 2d3e 4c90 0c3e f5df c9be 01c7 fa3e
00000010: 6c53 2c3e 5af0 b5be b4fe 07bf f9fa 99bd
00000020: 9eb0 93be 78a8 7e3e a06e e33e 22e2 073f
00000030: 9c6c 8cbe 6423 e8be 6eb2 0cbf 959c bd3e
00000040: 1e03 e2be c091 cb3e 8086 a83e 8e0c f7be
00000050: 9245 a9be 0c8c adbe d45b 8e3d d185 d23e
00000060: e00f 913d 443a 42be 38a2 1e3d 8228 0a3f
00000070: 303c 78be 2069 3cbd 9b57 aebe 179c 60be
00000080: 6ad0 833e 105b 0ebe b630 993e 5abf 17be
00000090: 6455 953e 649a 023e 71ed c1be 4641 353e
000000a0: c427 9bbe 205c af3d 2acd 3c3e 63e9 bf3e
000000b0: 30e0 2b3d 1e39 8dbe b608 be3c 8c59 d13e
000000c0: 20a3 a2bc c063 3f3d 40df febe a84f 023e
000000d0: 10db c63e beac ce3e f6f7 f8be ddf1 00be
000000e0: 6c24 d6be f2ab 9d3e ed84 18be d5aa 09bf
000000f0: d6d7 933e 142e 29be 9975 b6be 0619 063f
00000100: 38e5 9cbe 2049 1c3d 5272 3cbc a19d c13e
00000110: 4032 32bc 42f1 dcbe 8874 aa3e 9575 943e
00000120: 3094 b73e 78ab 58be 7f87 913e 89ab 343e
00000130: 50c0 08be 0c6c 32be 67e3 f23d a7bc 883d
00000140: 6853 5c3e 00f9 cb3d 48b9 edbe e21e c13e
00000150: f4ad a1be 1037 633d b7ca b4be f7fe a03e
00000160: 7cfd 823e 5840 a33d bfd8 6c3c c316 ebbe
00000170: facf 993e 5cd7 693e d5e1 d63e 7965 9d3e
00000180: a05d de3c e8ac 06be 9007 37bc ecf3 87be
00000190: 4c42 a5be 847b 4f3e bfbb 15bf 41b6 99be
000001a0: e2da a03e 5c3c 72be b0c8 cfbe 9d86 86bc
000001b0: 6880 ebbe 40b3 83bc 13fd bebe bb7d 9f3e

q_head.DAC_block.mamba_blocks.0.conv1d.bias f4 [28]
0.45224974 -0.27559006 0.15272932 -0.35257486 -0.53823346 0.23785742 0.11134694 0.43331325
-0.3458357 0.38473338 0.4697498 0.4238146 0.34491614 -0.29465583 0.29888794 0.41785565
-0.24072924 0.5542904 -0.29488602 -0.095635474 -0.111668386 -0.40170923 -0.010057958 -0.38099045
0.5801668 -0.3211582 0.39814466 0.23649167
00000000: 478d e73e 241a 8dbe 1365 1c3e b184 b4be
00000010: abc9 09bf e590 733e dd09 e43d 3cdb dd3e
00000020: 6011 b1be c6fb c43e 0c83 f03e 3afe d83e
00000030: d998 b03e 21dd 96be d707 993e 2df1 d53e
00000040: ba81 76be fae5 0d3f 4dfb 96be 88dc c3bd
00000050: 65b2 e4bd d5ac cdbe 22ca 24bc 2e11 c3be
00000060: d085 143f d96e a4be 9ed9 cb3e df2a 723e

q_head.DAC_block.mamba_blocks.0.x_proj.weight f4 [65, 28]
-0.087041184 0.20105341 -0.057592053 -0.05628471 0.04352999 -0.1222108 -0.024576187 -0.11001464
0.16504043 -0.19351561 -0.04057067 -0.22736582 -0.28922322 0.22786129 -0.2617048 -0.28673378
0.061005726 0.05628913 0.1748622 0.23084044 0.2601539 -0.08641032 0.05311441 -0.016533362
0.053176325 0.10555111 0.036220264 0.046807002 0.10668515 -0.20618662 -0.18547778 -0.09371287
0.053594023 -0.074434824 0.1792397 -0.06444868 -0.08673726 0.046836697 0.056207716 0.27653486
-0.015365581 -0.010297792 -0.045055673 0.08029391 -0.17228621 0.26913822 -0.04779606 0.030712891
-0.19077848 -0.13563715 -0.083607696 -0.10399113 -0.010894998 0.06493531 0.25581476 0.022630025
0.17623803 -0.12611167 0.03641113 -0.16995275 -0.011277411 0.11025426 0.1772316 0.24560966
-0.27820104 -0.061989315 -0.025553968 0.24877426 0.18415917 0.08400987 0.17093228 0.04185004
-0.20111887 0.015072429 -0.17611507 -0.121754795 -0.020617256 -0.19802108 -0.121964365 -0.12406938
-0.06698308 -0.19019471 -0.012757822 0.073937446 -0.27929026 -0.060280148 0.18314372 0.16852354
0.2357147 0.08143253 0.075227775 -0.03059235 0.09033111 0.013711429 -0.2083368 -0.01325106
0.019676486 -0.08616392 -0.27623925 -0.054169558 0.22543049 -0.13036573 0.15500309 0.06512918
-0.08127771 -0.032878757 0.0695694 -0.038694397 -0.26773766 0.01885514 0.014058762 -0.22102772
-0.009346638 -0.14823207 -0.10943402 -0.25992396 0.07478958 -0.010917826 0.17023814 -0.0488095
-0.23563045 -0.037900727 0.23789927 0.27242061 0.19113223 -0.053863846 0.24737109 0.26380754
0.030286836 0.021899438 -0.22868754 -0.067070454 -0.123960495 0.0012615622 -0.16225764 -0.13551654
0.23967338 -0.0262238 0.18448596 0.22682747 0.014936241 -0.06760589 -0.284718 -0.011363536
0.07312907 -0.034031406 0.11234929 0.10057092 -0.07873373 -0.08883952 0.09963085 -0.061928246
0.27929887 -0.21477488 0.11780778 0.17887886 -0.15692894 0.23148683 -0.033844456 -0.23946723
-0.13649172 -0.2537146 -0.058905255 -0.0800058 -0.013068471 -0.23512882 0.06436159 0.027179383
0.19966322 0.0588926 -0.17752624 -0.10227148 -0.13014838 0.16454604 -0.10250737 0.2281151
-0.08568751 0.14492212 0.17197774 0.19363402 0.035015143 0.015128965 0.23834904 -0.04348203
0.031838067 0.045494225 -0.19063652 -0.19105801 0.08060028 -0.01475093 -0.061614946 0.00890576
0.1080547 -0.11192725 0.15293516 -0.016310852 -0.15217169 0.18611638 -0.11490462 0.016192675
0.04675504 0.13749486 -0.10023491 -0.1918506 -0.0016736817 -0.042446185 -0.16967691 -0.12824066
-0.12381888 -0.11978731 -0.16461198 -0.0021712426 0.20456952 -0.00879297 0.0050195437 -0.14168067
0.26123887 0.04753416 0.19139424 -0.07630627 -0.023879584 0.056979895 -0.21444677 -0.13995217
-0.023854336 -0.24668516 -0.12328657 -0.07857318 -0.22112922 0.22360091 0.06848269 0.13755307
-0.15814468 0.27601692 0.04103444 0.02975058 0.2068881 -0.101638764 0.17882371 0.24108772
0.06839342 0.05524827 -0.17315008 -0.008413172 -0.20011203 -0.1398575 -0.11636338 -0.13757382
0.19933298 0.0036603485 0.20216322 0.23236266 0.18428707 -0.22160894 -0.13906503 -0.20518096
00000000: a642 b2bd f2e0 4d3e a5e5 6bbd cc8a 66bd
00000010: 814c 323d a849 fabd 0054 c9bc 5b4f e1bd
00000020: 5c00 293e f528 46be 6e2d 26bd 96d2 68be
00000030: 1115 94be 7854 693e 2cfe 85be c5ce 92be
00000040: 24e1 793d 6e8f 663d 140f 333e 7061 6c3e
00000050: e432 853e e5f7 b0bd 7f8e 593d f970 87bc
00000060: 6bcf 593d 2e2b d83d b35b 143d b3b8 3f3d
00000070: be7d da3d 9622 53be e3ed 3dbe 88ec bfbd
00000080: 6885 5b3d 4971 98bd 9d8a 373e abfd 83bd
00000090: 4ea3 b1bd d6d7 3f3d 103a 663d fa95 8d3e
000000a0: ebbf 7bbc 12b8 28bc 4c8c 38bd 2271 a43d
000000b0: cc6b 30be 7ccc 893e cdc5 43bd 9a99 fb3c
000000c0: 6f5b 43be 77e4 0abe 833a abbd 4df9 d4bd
000000d0: ef80 32bc cefc 843d 27fa 823e 9a62 b93c
000000e0: be77 343e 6b23 01be d623 153d 1808 2ebe
000000f0: e4c4 38bc fccc e13d 337c 353e 1981 7b3e
00000100: 5e70 8ebe 82e8 7dbd 8e56 d1bc aebe 7e3e
00000110: 3994 3c3e 5e0d ac3d df08 2f3e f36a 2b3d
00000120: 1bf2 4dbe 59f2 763c 8257 34be 945a f9bd
00000130: 85e5 a8bc 0ac6 4abe 74c8 f9bd 1618 febd
00000140: 6d2e 89bd 67c2 42be 2f06 51bc 846c 973d
00000150: 22ff 8ebe 51e8 76bd 078a 3b3e 6f91 2c3e
00000160: 325f 713e 19c6 a63d 0511 9a3d cf9c fabc
00000170: 84ff b83d e7a5 603c 3e56 55be f91a 59bc
00000180: 9530 a13c b676 b0bd 3b6f 8dbe e6e0 5dbd
00000190: 40d7 663e 987e 05be 21b9 1e3e 7362 853d
000001a0: ee74 a6bd e0ab 06bd 677a 8e3d 047e 1ebd
000001b0: e914 89be 1876 9a3c b956 663c 1755 62be
000001c0: a422 19bc 26ca 17be f21e e0bd c114 85be
000001d0: 482b 993d aee0 32bc e852 2e3e 78ec 47bd
000001e0: 1c49 71be cb3d 1bbd de9b 733e b77a 8b3e
000001f0: 2bb8 433e 56a0 5cbd d94e 7d3e c811 873e
00000200: 191c f83c 7366 b33c 112d 6abe 3c5c 89bd
00000210: 00df fdbd 015b a53a de26 26be d9c4 0abe
00000220: f06c 753e 4bd3 d6bc e3e9 3c3e 7645 683e
00000230: 23b7 743c f574 8abd 8fc6 91be 202e 3abc
00000240: b2c4 953d 8464 0bbd 6217 e63d 20f8 cd3d
00000250: 263f a1bd 7ff1 b5bd 420b cc3d 79a8 7dbd
00000260: 4300 8f3e f2ed 5bbe 3545 f13d 052c 373e
00000270: fbb1 20be e20a 6d3e 7ca0 0abd e636 75be
00000280: 7cc4 0bbe e1e6 81be a346 71bd 15da a3bd
00000290: 241d 56bc 9cc5 70be 02d0 833d 4ca7 de3c
000002a0: 8474 4c3e 5e39 713d 70c9 35be b673 d1bd
000002b0: 9e45 05be c27e 283e 62ef d1bd 0197 693e
000002c0: ef7c afbd 7766 143e ef1a 303e ff47 463e
000002d0: 0a6c 0f3d 7adf 773c c511 743e 371a 32bd
000002e0: a268 023d 2758 3a3d 3836 43be b6a4 43be
000002f0: c211 a53d e2ad 71bc f45f 7cbd 77e9 113c
00000300: c84b dd3d 1d3a e5bd 099b 1c3e 569e 85bc
00000310: e5d2 1bbe 4b95 3e3e 1d53 ebbd 80a6 843c
00000320: 3682 3f3d 74cb 0c3e f647 cdbd 7c74 44be
00000330: 705f dbba 0ddc 2dbd c9bf 2dbe 8551 03be
00000340: c194 fdbd 0d53 f5bd 0b90 28be 684b 0ebb
00000350: ac7a 513e 6410 10bc fc7a a43b bd14 11be
00000360: 1ac1 853e 2eb3 423d dafc 433e 7646 9cbd
00000370: 1e9f c3bc c063 693d ef97 5bbe 9f4f 0fbe
00000380: 2b6a c3bc 099b 7cbe ab7d fcbd faea a0bd
00000390: b36f 62be a3f7 643e a740 8c3d b6da 0c3e
000003a0: aef0 21be 1752 8d3e bb13 283d 7db7 f33c
000003b0: 79da 533e fc27 d0bd 901d 373e b3df 763e
000003c0: d911 8c3d 034c 623d 414e 31be 67d7 09bc
000003d0: 2bea 4cbe ce36 0fbe ec4f eebd 27e0 0cbe
000003e0: f21d 4c3e 75e2 6f3b e003 4f3e 7af0 6d3e
000003f0: c0b5 3c3e 74ed 62be 1067 0ebe f51a 52be

q_head.DAC_block.mamba_blocks.0.dt_proj.weight f4 [28, 1]
0.37182513 -0.1537272 0.5975232 0.13131817 -0.5211708 0.85865486 -0.88203573 -0.9699878
0.4924394 0.5919228 -0.8938288 -0.9641423 0.6596289 -0.48158833 -0.9343647 0.49631357
-0.7715441 0.5048542 -0.74290544 0.7213048 -0.81790155 -0.16414422 0.21073905 -0.81066406
-1.0408463 0.028620277 0.8264187 -0.48965114
00000000: dd5f be3e aa6a 1dbe 48f7 183f 4578 063e
00000010: 736b 05bf ced0 5b3f 18cd 61bf 1f51 78bf
00000020: 0421 fc3e 4188 173f f7d1 64bf 08d2 76bf
00000030: 71dd 283f bf92 f6be 8632 6fbf d01c fe3e
00000040: ea83 45bf 203e 013f 0d2f 3ebf 6ea7 383f
00000050: ff61 51bf 6c15 28be facb 573e ae87 4fbf
00000060: 743a 85bf 1275 ea3c 2d90 533f 8eb3 fabe

q_head.DAC_block.mamba_blocks.0.dt_proj.bias f4 [28]
-6.5321918 -3.9822524 -2.301059 -5.0914073 -4.7266684 -3.8540275 -4.591643 -2.6996326
-5.1937184 -2.8041804 -6.135261 -4.0029345 -3.4510145 -4.8183537 -3.0844443 -2.9122984
-2.8942943 -4.6400967 -3.9773448 -5.036152 -6.7824426 -3.5570107 -2.8995354 -4.2638884
-4.7656837 -6.6997066 -6.112244 -4.067362
00000000: b707 d1c0 39dd 7ec0 8d44 13c0 cfec a2c0
00000010: de40 97c0 63a8 76c0 bdee 92c0 c8c6 2cc0
00000020: f132 a6c0 b177 33c0 0f54 c4c0 0a18 80c0
00000030: 6cdd 5cc0 f42f 9ac0 8967 45c0 1963 3ac0
00000040: 1e3c 39c0 ac7b 94c0 d18c 7ec0 2828 a1c0
00000050: c509 d9c0 10a6 63c0 fd91 39c0 c671 88c0
00000060: 7b80 98c0 ff63 d6c0 8197 c3c0 d427 82c0

q_head.DAC_block.mamba_blocks.0.out_proj.weight f4 [14, 28]
-0.24573712 0.121348165 0.16968858 0.14397165 -0.22593565 0.06105805 0.10796269 0.18127364
0.09047713 0.035215955 0.18087564 -0.0117059965 0.23171741 -0.047306065 -0.029490303 0.022714801
0.0987695 0.12323397 -0.019273836 -0.00865979 0.039417643 0.16186371 -0.07702501 0.042476114
-0.101231635 -0.13284414 0.022233196 -0.18536657 -0.02576589 0.100586005 -0.07189048 -0.16917293
0.08642118 -0.20134346 0.17043914 0.09299633 -0.21227531 0.26100472 0.25976405 0.13188541
-0.07700049 -0.06803196 -0.0887312 -0.22471902 0.039626997 0.16118096 -0.111822225 -0.027201718
-0.023977336 0.040793855 0.027120862 -0.26696828 -0.18652174 0.10311559 -0.13753837 -0.19366248
0.16172914 -0.20568639 -0.06155452 0.16645716 -0.014878177 -0.021673119 -0.22653772 0.04203628
-0.030513112 -0.12813169 0.038042158 -0.1329101 0.11521363 -0.20917208 -0.040767796 0.17532481
-0.16848269 -0.08856731 -0.012089118 0.14289302 0.07525069 -0.18008576 0.04600929 0.053604573
0.11614334 0.098951176 0.19435814 0.0843968 0.1648597 -0.14700015 -0.20450813 0.17973563
0.06411626 0.12033671 -0.07935413 -0.1432452 0.09918108 0.07404006 0.07374301 -0.24367583
-0.16412663 -0.074468195 0.090838335 0.029923534 -0.089058906 -0.06351986 0.035279952 -0.20478334
-0.14450267 -0.058944874 0.022994116 -0.043078225 0.12398346 -0.066990614 0.04780134 0.12890987
-0.05250135 -0.08482269 -0.06311132 -0.08465836 -0.25588173 -0.057914943 0.08782451 0.16236377
-0.19547272 0.17869714 0.0058277934 0.18682785 -0.09577564 0.16441105 -0.079552576 -0.24726352
-0.07559977 0.19415264 0.023683464 0.030323897 0.08283321 0.07170079 0.12438953 -0.043393303
-0.18825665 -0.21989606 -0.064631484 0.0268283 -0.12596473 0.18860722 0.26693663 -0.118523404
0.046582308 -0.04627252 0.15680002 -0.020762539 -0.21457013 0.1558295 0.11887261 0.115044065
0.2238541 -0.012507068 -0.07106181 -0.13803801 0.061489396 0.18328303 -0.05391289 0.17963128
0.13762954 0.1975391 -0.018537115 -0.18531035 0.025263978 -0.2170554 -0.013637794 0.033457
0.06454699 -0.18790944 -0.25739548 -0.10297258 0.14369316 0.0724894 -0.0854859 -0.25343716
0.14772381 0.034889407 -0.21056469 0.03215002 -0.12473898 -0.21371064 0.04973118 -0.039124142
-0.10421273 -0.17864186 0.22049734 -0.047332253 0.011529518 0.014456118 -0.015526174 0.18844499
-0.091189414 0.14352928 0.26034558 0.2520697 0.02874944 -0.100043036 0.06961845 0.13052562
0.19304907 -0.05051673 0.08441864 -0.16553351 0.1515865 -0.062615864 -0.23193315 -0.2501135
-0.257797 -0.13683802 0.17567965 0.07745092 -0.20452106 -0.11877586 0.030654868 0.0146949645
-0.014034322 0.08094835 -0.08278951 0.16851428 0.14757769 0.059436068 0.15407814 0.19189113
0.17607415 -0.11050656 -0.07148538 0.05331292 0.071122415 0.20899971 -0.080478504 -0.014159625
-0.012837222 0.056958444 -0.09678296 -0.2574495 -0.1192363 -0.12419761 0.13416754 0.14260355
-0.21169151 0.07874709 -0.0585134 0.06993255 -0.090725325 -0.12313895 -0.16073698 0.25439405
0.013448686 0.037095293 0.2167335 -0.035923053 -0.044444878 0.16930303 0.15562247 0.17985295
00000000: 83a2 7bbe 6385 f83d d8c2 2d3e 4e6d 133e
00000010: ad5b 67be 0118 7a3d 8b1b dd3d cc9f 393e
00000020: 134c b93d 9b3e 103d 7737 393e 82ca 3fbc
00000030: 5447 6d3e 01c4 41bd a695 f1bc 6414 ba3c
00000040: aa47 ca3d 1762 fc3d 2ae4 9dbc cbe1 0dbc
00000050: 6574 213d 9abf 253e 4abf 9dbd 6ffb 2d3d
00000060: 8852 cfbd 4b08 08be 6422 b63c bcd0 3dbe
00000070: fd12 d3bc 0900 ce3d 513b 93bd ab3b 2dbe
00000080: 96fd b03d fb2c 4ebe 9987 2e3e dc74 be3d
00000090: b35e 59be 69a2 853e cbff 843e f80c 073e
000000a0: 6fb2 9dbd 5754 8bbd b4b8 b5bd be1c 66be
000000b0: eb4f 223d 9f0c 253e 0d03 e5bd 23d6 debc
000000c0: 1e6c c4bc 7517 273d 922c de3c 11b0 88be
000000d0: 8eff 3ebe 442e d33d dcd6 0cbe 754f 46be
000000e0: 539c 253e 749f 52be 9820 7cbd bf73 2a3e
000000f0: 99c3 73bc d38b b1bc 81f9 67be 3c2e 2c3d
00000100: a2f6 f9bc f434 03be 18d2 1b3d 9619 08be
00000110: 20f5 eb3d 3531 56be 22fc 26bd 5988 333e
00000120: ba86 2cbe c762 b5bd 7011 46bc 8c52 123e
00000130: 091d 9a3d 6768 38be 3d74 3c3d 7890 5b3d
00000140: 8fdc ed3d eaa6 ca3d d205 473e 3bd8 ac3d
00000150: fbd0 283e 3587 16be 946a 51be 9e0c 383e
00000160: 634f 833d 1873 f63d 6b84 a2bd dfae 12be
00000170: 731f cb3d 51a2 973d 9306 973d 2886 79be
00000180: d010 28be c882 98bd 7309 ba3d 3322 f53c
00000190: 8464 b6bd b316 82bd b681 103d b9b2 51be
000001a0: 82f8 13be 2e70 71bd 285e bc3c cb72 30bd
000001b0: 0aeb fd3d 6032 89bd 57cb 433d f300 043e
000001c0: a80b 57bd 85b7 adbd 8240 81bd 5d61 adbd
000001d0: ee02 83be 3838 6dbd 56dd b33d b042 263e
000001e0: 002a 48be 62fc 363e 13f7 be3b cd4f 3f3e
000001f0: 0526 c4bd 5f5b 283e 76ec a2bd a632 7dbe
00000200: 0dd4 9abd f3cf 463e d303 c23c d269 f83c
00000210: 75a4 a93d ddd7 923d f0bf fe3d 2dbd 31bd
00000220: 5ac6 40be 6f2c 61be 835d 84bd 06c7 db3c
00000230: e6fc 00be 4022 413e ebab 883e 66bc f2bd
00000240: 17cd 3e3d 4188 3dbd 2f90 203e 3316 aabc
00000250: 46b8 5bbe c591 1f3e 7c73 f33d 399c eb3d
00000260: 023a 653e 72ea 4cbc db88 91bd d659 0dbe
00000270: 4edc 7b3d 8cae 3b3e c3d3 5cbd 43f1 373e
00000280: c2ee 0c3e b147 4a3e 26db 97bc ffc1 3dbe
00000290: 67f6 ce3c c543 5ebe 0e71 5fbc 350a 093d
000002a0: 3631 843d 556b 40be 57c9 83be 4ae3 d2bd
000002b0: 4d24 133e 5375 943d 3b13 afbd 84c2 81be
000002c0: e944 173e 32e8 0e3d 459e 57be bdaf 033d
000002d0: 2677 ffbd f6d6 5abe ecb2 4b3d a340 20bd
000002e0: 7c6d d5bd e4ed 36be 0eca 613e 77df 41bd
000002f0: 4ee6 3c3c 5bd9 6c3c 7e61 7ebc b9f7 403e
00000300: 84c1 babd 57f9 123e 044c 853e 480f 813e
00000310: f283 eb3c 5de3 ccbd 1e94 8e3d 82a8 053e
00000320: a8ae 453e a1ea 4ebd aee3 ac3d 9e81 29be
00000330: 7e39 1b3e bf3c 80bd e27f 6dbe e00e 80be
00000340: f8fd 83be 441f 0cbe 5ee5 333e 979e 9e3d
00000350: f86d 51be c240 f3bd eb1f fb3c 26c3 703c
00000360: 37f0 65bc 40c8 a53d 8c8d a9bd 028f 2c3e
00000370: 9b1e 173e 3c73 733d a9c6 1d3e 1c7f 443e
00000380: c84c 343e 4351 e2bd ed66 92bd a65e 5a3d
00000390: a1a8 913d 0504 563e ead1 a4bd c6fd 67bc
000003a0: 3653 52bc 424d 693d 2536 c6bd 6cd0 83be
000003b0: 2932 f4bd 515b febd 3763 093e aa06 123e
000003c0: a9c5 58be 2846 a13d bfab 6fbd cc38 8f3d
000003d0: 33ce b9bd 4630 fcbd 3c98 24be f03f 823e
000003e0: e157 5c3c 3cf1 173d 63ef 5d3e 0d24 13bd
000003f0: d50b 36bd c65d 2d3e 7f5b 1f3e 5f2b 383e

q_head.DAC_block.ff1.weight f4 [32, 14]
-0.2437542 -0.17834318 0.11417788 0.09124974 -0.04326479 -0.26690257 0.108770765 0.11017757
0.050687686 0.14402282 0.17438376 0.24043475 0.11873602 0.25629213 0.19431116 0.06041819
-0.29636693 -0.18852633 0.2849232 -0.1444008 -0.2862262 -0.31057855 -0.115780614 -0.16854078
-0.31669027 -0.049940933 -0.2911899 0.096287936 -0.17971468 -0.13715172 -0.13483718 -0.26232192
0.21202424 0.20085575 0.039288066 0.16693568 -0.2945565 0.22863477 -0.16303027 -0.10891407
-0.10965413 0.29130524 -0.21056437 -0.26768982 0.29440063 -0.14600074 -0.34205392 -0.119264826
-0.15779506 0.24295285 0.27311647 -0.2787616 0.3436697 0.08023283 0.2211041 0.15917802
0.0902316 0.288315 -0.17088516 -0.13674785 0.27887148 -0.018094094 -0.090935886 0.18344475
-0.07539891 -0.021287274 0.044781353 -0.09731857 -0.31747088 -0.0223829 -0.09237865 0.3076091
-0.100047216 -0.10395255 0.049722165 0.2124556 -0.33066213 -0.251018 -0.05342666 0.0479674
-0.020963816 -0.0057538464 -0.13292074 0.29970184 0.24145524 0.29319894 0.16080333 -0.22098823
0.046137452 0.16310391 0.04806456 -0.2559313 -0.19376768 0.19754395 -0.18764396 -0.25897554
0.15723068 0.12232822 0.11933068 0.058926452 0.014666144 0.022344053 0.19458587 -0.040030193
-0.18647543 -0.18748674 -0.012014882 -0.059395093 -0.122133516 0.07027626 -0.31176862 0.13341263
-0.051344812 0.11374822 0.10423377 0.018200109 -0.27177796 -0.19829829 -0.08593258 0.30062476
0.09159915 0.0916515 0.06442037 -0.08548321 0.25993088 0.12240692 0.26060328 -0.08441285
-0.0072359494 0.16676831 0.11438355 0.090639755 0.13949543 -0.16509084 -0.2949615 -0.12556665
-0.11222795 -0.07663601 -0.008449046 0.22785927 0.14450286 0.2641671 0.06841252 0.018228
0.2931364 0.0629605 -0.29849243 -0.023645708 -0.15331444 0.10378818 0.07333305 0.13843708
0.02333479 0.036254764 -0.121373296 -0.13880678 -0.0022381814 -0.031132419 -0.15483913 0.28714794
0.11799973 0.029044924 0.015961181 -0.12237302 -0.08763158 -0.16412613 -0.26982248 -0.21262304
0.21741167 0.024561595 -0.1769671 0.18251047 0.15997116 0.045442175 -0.33111012 -0.33606637
0.041415244 -0.024994813 -0.05944427 0.14466289 -0.34092924 0.044603374 0.2610368 0.18938597
-0.08632311 -0.11874573 0.11663846 0.23987481 -0.34588253 -0.27145174 -0.3440483 0.22530667
-0.16967854 -0.08794845 -0.14002319 0.306542 -0.13873734 0.11730909 0.085429154 -0.32641622
0.23519777 0.11610384 0.0689654 -0.2309569 0.0480114 0.16531347 -0.30903947 -0.100267544
0.0022853622 0.15744825 0.2238575 0.026901932 -0.22672419 0.15769278 -0.010259842 0.08040443
-0.2796969 0.06834673 0.16547441 0.33470196 -0.3026883 -0.1539779 -0.35898152 -0.042646
-0.14542732 -0.20126893 -0.07537775 -0.059501503 -0.2915014 -0.12180808 0.0036757758 -0.122682415
0.015178952 0.13301757 0.13637406 0.28116652 0.34748843 -0.06848446 -0.30705807 -0.12388954
0.21146573 0.14941682 0.10796169 0.1603631 0.25863907 0.0032666812 0.17069472 -0.022673901
-0.0806284 0.1931047 0.32352045 -0.19253676 0.31919643 0.20502411 0.12403432 -0.11166063
00000000: b39a 79be 989f 36be 18d6 e93d 25e1 ba3d
00000010: 6c36 31bd 74a7 88be 35c3 de3d c7a4 e13d
00000020: e49d 4f3d b87a 133e a891 323e 8734 763e
00000030: df2b f33d b938 833e 81f9 463e 1079 773d
00000040: 68bd 97be 0c0d 41be 74e1 913e cedd 13be
00000050: 3e8c 92be 2704 9fbe 631e edbd f495 2cbe
00000060: 3a25 a2be dd8e 4cbd d816 95be 9c32 c53d
00000070: 2007 38be 8071 0cbe c212 0abe 0f4f 86be
00000080: e21c 593e 21ad 4d3e 86ec 203d 30f1 2a3e
00000090: 1cd0 96be 3c1f 6a3e 68f1 26be 570e dfbd
000000a0: 5892 e0bd f625 953e 309e 57be a40e 89be
000000b0: aebb 963e 3881 15be b121 afbe 1e41 f4bd
000000c0: 0795 21be a2c8 783e ecd5 8b3e d7b9 8ebe
000000d0: 7af5 af3e 1c51 a43d 1d69 623e 90ff 223e
000000e0: 58cb b83d 069e 933e 85fc 2ebe a107 0cbe
000000f0: 3ec8 8e3e 113a 94bc 983c babd f1d8 3b3e
00000100: be6a 9abd a662 aebc a76c 373d f54e c7bd
00000110: 8b8b a2be 585c b7bc 0531 bdbd f17e 9d3e
00000120: 8ee5 ccbd 13e5 d4bd 78a9 4b3d f68d 593e
00000130: 8c4c a9be 6e85 80be ead5 5abd 7779 443d
00000140: 4fbc abbc c38a bcbb 601c 08be 8572 993e
00000150: 0b40 773e 2c1e 963e a1a9 243e bd4a 62be
00000160: a0fa 3c3d b604 273e 58df 443d 6d09 83be
00000170: 096b 46be f648 4a3e bd25 40be 7198 84be
00000180: 1401 213e 3887 fa3d a563 f43d dd5c 713d
00000190: 444a 703c e00a b73c 8541 473e b3f6 23bd
000001a0: 6af3 3ebe 86fc 3fbe 11da 44bc 4548 73bd
000001b0: 2321 fabd 00ed 8f3d 23a0 9fbe 529d 083e
000001c0: f04e 52bd d4f4 e83d 8478 d53d 6518 953c
000001d0: 7b26 8bbe b50e 4bbe 6cfd afbd 7deb 993e
000001e0: 5698 bb3d c8b3 bb3d d4ee 833d d211 afbd
000001f0: a915 853e 7bb0 fa3d cb6d 853e a5e0 acbd
00000200: 8b1b edbb 50c5 2a3e ec41 ea3d 56a1 b93d
00000210: e4d7 0e3e 930d 29be 3205 97be 8b94 00be
00000220: c4d7 e5bd 57f3 9cbd de6d 0abc f153 693e
00000230: 8ff8 133e e940 873e dd1b 8c3d e352 953c
00000240: f915 963e 6ff1 803d 00d4 98be a5b4 c1bc
00000250: 76fe 1cbe e68e d43d a32f 963d 73c2 0d3e
00000260: 9a28 bf3c e07f 143d 9092 f8bd 5d23 0ebe
00000270: 74ae 12bb 6a09 ffbc 268e 1ebe 0e05 933e
00000280: d8a9 f13d 9fef ed3c 06c1 823c b59e fabd
00000290: 3078 b3bd ae10 28be 2c26 8abe dbb9 59be
000002a0: 2aa1 5e3e 6635 c93c dd36 35be 06e4 3a3e
000002b0: 7bcf 233e 9321 3a3d 4487 a9be e410 acbe
000002c0: 08a3 293d ecc1 ccbc d67b 73bd 8222 143e
000002d0: 478e aebe 07b2 363d 9ea6 853e 65ee 413e
000002e0: 2cca b0bd f630 f3bd 25e0 ee3d bea1 753e
000002f0: 8417 b1be b9fb 8abe 1927 b0be cbb6 663e
00000300: 36c0 2dbe 511e b4bd 3d62 0fbe 13f3 9c3e
00000310: 2911 0ebe c03f f03d 7bf5 ae3d 0720 a7be
00000320: afd7 703e dac7 ed3d bb3d 8d3d f77f 6cbe
00000330: 9aa7 443d ef47 293e 6c3a 9ebe 1259 cdbd
00000340: 04c6 153b 1d3a 213e e73a 653e 7161 dc3c
00000350: 632a 68be 377a 213e e518 28bc 14ab a43d
00000360: 6f34 8fbe 5ff9 8b3d 2072 293e 0e5e ab3e
00000370: f6f9 9abe 62ac 1dbe 6dcc b7be 92ad 2ebd
00000380: e6ea 14be 7119 4ebe a65f 9abd d9b7 73bd
00000390: ac3f 95be 8476 f9bd 49e5 703b eb40 fbbd
000003a0: 24b1 783c c235 083e a4a5 0b3e 0ff5 8f3e
000003b0: 01ea b13e 9541 8cbd b736 9dbe cdb9 fdbd
000003c0: 798a 583e b900 193e 051b dd3d 3936 243e
000003d0: 576c 843e d115 563b 99ca 2e3e 9ebe b9bc
000003e0: 8120 a5bd 3dbd 453e 79a4 a53e 5b28 45be
000003f0: b76d a33e d7f1 513e b505 fe3d 54ae e4bd

q_head.DAC_block.ff1.bias f4 [32]
0.07646901 0.28766385 0.25163803 -0.11828721 0.14962517 0.021885617 0.17291573 0.077267
-0.19253525 0.01979976 0.2674196 0.15990691 -0.15952769 0.08025659 0.30598804 0.2852832
-0.19175541 -0.30407128 0.21620344 0.046946216 0.31611425 0.25677118 0.1294991 0.15402089
-0.076662086 0.04431363 -0.22012448 -0.11196901 0.21241672 -0.17139861 -0.16542487 -0.26749152
00000000: c99b 9c3d ad48 933e b3d6 803e 9140 f2bd
00000010: 5737 193e 7749 b33c d210 313e 293e 9e3d
00000020: f627 45be 1b33 a23c 39eb 883e a3be 233e
00000030: 3a5b 23be 915d a43d 77aa 9c3e a410 923e
00000040: 885b 44be 3baf 9bbe 6f64 5d3e ad4a 403d
00000050: bad9 a13e 8377 833e 699b 043e a7b7 1d3e
00000060: 0301 9dbd 3582 353d 5068 61be 0250 e5bd
00000070: c583 593e 1e83 2fbe 2365 29be a6f4 88be

q_head.DAC_block.ff2.weight f4 [16, 32]
-0.03760789 0.01672738 -0.04959677 -0.04215483 -0.00038347094 -0.11083809 0.07842853 0.07365466
0.13922396 -0.13692458 0.069544695 -0.00097607414 -0.1198434 -0.044891745 -0.0944354 -0.23642464
0.14460911 -0.046637163 -0.059087627 -0.14677697 0.0059367605 -0.22346458 -0.22360428 -0.0635088
-0.046728004 -0.029478796 -0.057106536 0.24215627 0.005689926 0.14529577 0.22106297 -0.0889914
0.14519037 -0.22213295 0.06501819 -0.020846745 0.01720606 -0.07554512 -0.054309703 -0.107140146
-0.1017136 0.012087329 -0.20973039 -0.1808374 -0.106782354 -0.15036839 -0.00062782003 -0.19717807
0.055671122 0.08937465 0.111044146 -0.22611226 -0.024821855 -0.10800058 0.06348284 0.047111437
0.09508277 0.13243432 0.01225558 -0.08666047 0.061760593 0.07221457 0.009767733 0.23966993
0.11234754 -0.19570096 -0.09745524 -0.009930212 -0.13624124 0.03273053 -0.15330467 -0.0424855
0.028545948 0.13218646 -0.22719878 -0.08846489 -0.14112577 -0.08434446 -0.14701615 0.077106275
0.11044032 -0.08718177 -0.08618063 -0.21172963 0.08040299 -0.13169901 -0.20696647 0.022453943
-0.020890998 0.022886338 0.12627819 0.20253193 -0.0022333628 0.03805028 -0.027254768 0.13809472
-0.075027294 -0.02728556 -0.15310143 -0.04258902 -0.107431024 -0.07415883 -0.103680536 -0.1225786
0.23720255 -0.1444783 -0.13620858 -0.22155981 -0.1080216 -0.20851998 -0.08656544 -0.21009181
0.064609714 -0.0029656254 -0.09375954 -0.18102926 -0.23591007 -0.14725886 0.040978745 -0.114036456
-0.14818332 -0.113399856 0.15756929 -0.041871734 -0.11877085 -0.09599449 0.036905147 -0.045244623
0.13383347 0.10779583 0.09043198 0.2109459 -0.24558347 0.03363193 -0.24401309 -0.17686024
-0.063296154 0.10300382 0.097975425 -0.031430148 -0.077773295 -0.017825505 -0.084333576 0.10209659
0.17140368 0.19730754 -2.1209518e-05 -0.08235532 -0.13942005 -0.16641015 0.03482413 -0.165501
0.15165295 -0.071825154 0.23326972 0.12167563 0.032686282 0.0049612247 -0.07349433 0.12017262
0.11932721 -0.22930938 -0.12077253 0.04103871 0.09655213 -0.03613034 -0.19985513 -0.2383444
0.16114916 0.051521033 -0.2322174 -0.22374515 0.11243549 -0.17190152 -0.10875666 -0.00068841956
0.028315268 -0.06769558 -0.17514537 -0.076463 -0.13632615 0.0903999 0.115321785 0.019577703
-0.063597664 0.070680514 -0.053936787 -0.07342739 0.025511341 -0.10683287 -0.016307034 -0.010457146
0.102847986 -0.07629153 -0.21167302 0.21401961 -0.19700272 -0.15806615 -0.22786891 -0.006939098
0.12221811 -0.04232369 -0.12261455 -0.13937408 0.035699315 -0.19219461 0.00397495 0.07213916
-0.07414859 0.07005517 0.10860156 0.046723794 -0.0634731 -0.040564235 0.07374266 -0.07701244
-0.13718845 -0.042056147 -0.0028001384 0.22324608 0.07804269 -0.110182464 0.19737625 0.061247367
-0.1299281 -0.060849633 -0.07988003 0.07761891 -0.08059846 -0.16001165 0.074640974 -0.09537673
-0.031746585 -0.09597152 -0.22711655 -0.06336205 0.08745322 -0.13788784 -0.09780473 -0.08066908
0.20619273 0.2017818 -0.11777534 -0.099620715 -0.16731663 -0.19694975 -0.010927475 0.08050247
-0.04165765 0.11756397 0.13266143 -0.10392097 0.12120341 -0.058976624 -0.09168099 0.21976021
00000000: bb0a 1abd dc07 893c fc25 4bbd 8baa 2cbd
00000010: 990c c9b9 15ff e2bd 239f a03d 41d8 963d
00000020: ba90 0e3e f535 0cbe 736d 8e3d 3adf 7fba
00000030: 7570 f5bd 68e0 37bd 5967 c1bd 4d19 72be
00000040: 6914 143e 9c06 3fbd de05 72bd b44c 16be
00000050: 2889 c23b e6d3 64be 85f8 64be e710 82bd
00000060: dd65 3fbd 847d f1bc 8be8 69bd d0f7 773e
00000070: 8f72 ba3b 6ac8 143e 555e 623e 2041 b6bd
00000080: c9ac 143e d276 63be 4228 853d cbc6 aabc
00000090: b9f3 8c3c 66b7 9abd da73 5ebd 4b6c dbbd
000000a0: 384f d0bd ef09 463c 90c3 56be 702d 39be
000000b0: b5b0 dabd 2cfa 19be 4a94 24ba 0ce9 49be
000000c0: 6707 643d 0e0a b73d 1d6b e33d f989 67be
000000d0: 3457 cbbc 682f ddbd 4b03 823d ecf7 403d
000000e0: c1ba c23d dd9c 073e a1cb 483c 0b7b b1bd
000000f0: adf8 7c3d 3ce5 933d d708 203c 096c 753e
00000100: 7816 e63d d565 48be 9d96 c7bd 54b2 22bc
00000110: d382 0bbe 7310 063d e6fb 1cbe 4705 2ebd
00000120: 31d9 e93c e35b 073e cca6 68be 152d b5bd
00000130: 4683 10be cabc acbd 678b 16be e5e9 9d3d
00000140: 892e e23d 5b8c b2bd 787f b0bd a7cf 58be
00000150: 53aa a43d 1bdc 06be 05ef 53be 55f1 b73c
00000160: 9923 abbc 217c bb3c 124f 013e 8864 4f3e
00000170: 9c5d 12bb 9cda 1b3d 6445 dfbc b468 0d3e
00000180: e9a7 99bd f785 dfbc 9fc6 1cbe d371 2ebd
00000190: cc04 dcbd 96e0 97bd 7656 d4bd 7d0a fbbd
000001a0: 3ae5 723e 1ff2 13be 437a 0bbe 93e0 62be
000001b0: 6e3a ddbd 4386 55be 3949 b1bd 4f22 57be
000001c0: 1952 843d f05a 42bb 0005 c0bd bc5f 39be
000001d0: 6992 71be 07cb 16be 54d9 273d f28b e9bd
000001e0: 5ebd 17be 2f3e e8bd d859 213e b281 2bbd
000001f0: 223e f3bd c298 c4bd da29 173d 6d52 39bd
00000200: a40b 093e 0fc4 dc3d 6734 b93d 3402 583e
00000210: 3c7a 7bbe a2c1 093d 91de 79be da1a 35be
00000220: 6aa1 81bd abf3 d23d 57a7 c83d e6bc 00bd
00000230: 9b47 9fbd cb06 92bc 15b7 acbd 0418 d13d
00000240: 7284 2f3e fd0a 4a3e 18eb b1b7 e8a9 a8bd
00000250: 21c4 0ebe 6c67 2abe bfa3 0e3d 1879 29be
00000260: e94a 1b3e 1119 93bd 42de 6e3e 1331 f93d
00000270: 0de2 053d c591 a23b 3284 96bd 101d f63d
00000280: d361 f43d 14d0 6abe 9757 f7bd 3518 283d
00000290: 20bd c53d 68fd 13bd d3a6 4cbe 8e10 74be
000002a0: 4904 253e b807 533d 66ca 6dbe 731d 65be
000002b0: 9444 e63d f406 30be d0bb debd 0e77 34ba
000002c0: 6cf5 e73c fba3 8abd 4f59 33be a298 9cbd
000002d0: 1599 0bbe 9523 b93d d42d ec3d 6b61 a03c
000002e0: 7e3f 82bd f2c0 903d d2ec 5cbd 1961 96bd
000002f0: 29fd d03c 31cb dabd 5496 85bc 7354 2bbc
00000300: f7a1 d23d bc3e 9cbd d0c0 58be f527 5b3e
00000310: 15bb 49be 18dc 21be 7856 69be 5f61 e3bb
00000320: 7d4d fa3d 9b5b 2dbd 561d fbbd 14b8 0ebe
00000330: 7239 123d aace 44be 4c40 823b b2bd 933d
00000340: 37db 97bd 1679 8f3d 7f6a de3d 7361 3f3d
00000350: 2ffe 81bd af26 26bd 6406 973d b3b8 9dbd
00000360: 217b 0cbe 1143 2cbd 8782 37bb 9f9a 643e
00000370: d9d4 9f3d 58a7 e1bd 001d 4a3e 85de 7a3d
00000380: df0b 05be 773d 79bd 2498 a3bd aaf6 9e3d
00000390: ce10 a5bd 18da 23be 5edd 983d e054 c3bd
000003a0: b508 02bd b78c c4bd 3e91 68be f6c3 81bd
000003b0: ac1a b33d 7832 0dbe d94d c8bd d535 a5bd
000003c0: 3024 533e e39f 4e3e 3334 f1bd f205 ccbd
000003d0: 0d55 2bbe 32ad 49be 2709 33bc 7bde a43d
000003e0: 36a1 2abd 61c5 f03d 66d8 073e 84d4 d4bd
000003f0: 7e39 f83d 7991 71bd 3ec3 bbbd d208 613e

q_head.DAC_block.ff2.bias f4 [16]
-0.18072031 -0.18549517 0.017280875 -0.0800142 0.07625385 0.10024183 0.10591805 -0.21354859
0.06897062 -0.033148352 -0.10697259 -0.13651848 -0.18934022 -0.1066467 0.047873754 0.073706
00000000: bf0e 39be 72f2 3dbe 9f90 8d3c 7cde a3bd
00000010: fa2a 9c3d 974b cd3d 90eb d83d 7bac 5abe
00000020: 7840 8d3d 91c6 07bd 7214 dbbd 80cb 0bbe
00000030: 67e2 41be 9669 dabd 4517 443d 2cf3 963d

ema_model.q_head.DAC_block.mamba_blocks.0.A_log f4 [28, 32]
-0.00021407058 0.69247293 1.0970731 1.3843781 1.6082654 1.7905525 1.9453048 2.0755572
2.1958199 2.3004608 2.3947854 2.4812973 2.5617564 2.635201 2.7032096 2.7659757
2.8292542 2.8852842 2.9402585 2.989277 3.0428708 3.0860121 3.129414 3.1686754
3.2136838 3.253652 3.2881863 3.3286228 3.360185 3.3961558 3.4259198 3.4617972
-0.004668389 0.6847604 1.086226 1.372858 1.5994045 1.7818192 1.9394119 2.0620415
2.1871097 2.2904756 2.3826516 2.4690332 2.5503519 2.6227806 2.6901288 2.7512543
2.8175561 2.8719814 2.928142 2.9760704 3.0356107 3.0735536 3.1172407 3.154044
3.2019858 3.2425241 3.2743745 3.3188722 3.3471563 3.384874 3.4124787 3.452936
-0.013817855 0.67330325 1.0723854 1.3590508 1.5896322 1.7759322 1.9346478 2.0482755
2.1795418 2.2836034 2.371605 2.4589686 2.5414298 2.612821 2.6801753 2.7400997
2.809423 2.8625505 2.9200878 2.967471 3.0344648 3.0655565 3.1106148 3.1448376
3.1976435 3.2367587 3.2668884 3.3141315 3.3410487 3.3805726 3.4064934 3.4504054
-0.00021799566 0.6925163 1.0973027 1.3846898 1.6083593 1.7906252 1.9452487 2.076375
2.1959307 2.3006887 2.3953793 2.481985 2.5623164 2.635982 2.704285 2.76784
2.8300128 2.8865256 2.9411566 2.9908233 3.0428798 3.0871894 3.130776 3.1716588
3.2147965 3.2545927 3.2904472 3.3292763 3.3621516 3.3972647 3.4282749 3.4624093
-0.0077019203 0.6803423 1.0798382 1.3660336 1.595144 1.7795515 1.9376274 2.0530953
2.18356 2.287205 2.3755867 2.46239 2.5446627 2.6155388 2.682178 2.7407904
2.8114223 2.863331 2.9213507 2.9673355 3.0374947 3.0651798 3.1103349 3.1417992
3.199392 3.236379 3.2630622 3.313991 3.337375 3.3808372 3.4014187 3.4528244
-0.0031781658 0.68684286 1.0889729 1.3757563 1.6013988 1.7831477 1.9403867 2.0656364
2.1888769 2.291799 2.385581 2.4716523 2.5526636 2.6255887 2.6931388 2.756358
2.8198435 2.8754473 2.9307663 2.9792867 3.0353172 3.076653 3.1197004 3.1607049
3.2029548 3.24478 3.279414 3.320719 3.3509395 3.3861935 3.4169898 3.4531233
-0.0040092664 0.6868238 1.0904788 1.3777351 1.6020101 1.7843462 1.9399599 2.0692935
2.1896436 2.2934732 2.3885338 2.474968 2.5553546 2.6290703 2.6974945 2.762984
2.822956 2.8802328 2.9345794 2.9846804 3.0364394 3.0807514 3.124398 3.1689646
3.2082212 3.2478778 3.2860072 3.3225632 3.3569865 3.3905225 3.4237487 3.4552689
-0.015764436 0.67210907 1.0726676 1.3597329 1.5883121 1.7707202 1.9315809 2.0510547
2.1771472 2.2799683 2.3709443 2.4578865 2.5401006 2.611989 2.6802511 2.7427983
2.807819 2.8623354 2.9181354 2.9672468 3.029768 3.0646017 3.108458 3.1493113
3.193318 3.2347817 3.2676585 3.3122108 3.3401048 3.3766606 3.4058492 3.447169
00000000: 2278 60b9 e845 313f e46c 8c3f 4d33 b13f
00000010: a4db cd3f d330 e53f bfff f83f eed5 0440
00000020: 5088 0c40 c03a 1340 2a44 1940 93cd 1e40
00000030: d1f3 2340 22a7 2840 6301 2d40 bf05 3140
00000040: 8012 3540 7fa8 3840 322d 3c40 5050 3f40
00000050: 65be 4240 3981 4540 5248 4840 94cb 4a40
00000060: ffac 4d40 d63b 5040 a571 5240 2808 5540
00000070: 450d 5740 9e5a 5940 4542 5b40 168e 5d40
00000080: 49f9 98bb 754c 2f3f 7409 8b3f d0b9 af3f
00000090: 49b9 cc3f a712 e43f a63e f83f 7df8 0340
000000a0: 9bf9 0b40 2797 1240 5d7d 1840 a404 1e40
000000b0: f738 2340 a3db 2740 122b 2c40 8d14 3040
000000c0: d752 3440 8bce 3740 ae66 3b40 f077 3e40
000000d0: 7247 4240 1ab5 4440 df80 4740 dbdb 4940
000000e0: 56ed 4c40 8485 4f40 5a8f 5140 6768 5440
000000f0: cf37 5640 c7a1 5840 0d66 5a40 e7fc 5c40
00000100: 4964 62bc 9a5d 2c3f ed43 893f 60f5 ad3f
00000110: 1179 cb3f bf51 e33f 8aa2 f73f f216 0340
00000120: 9d7d 0b40 8f26 1240 60c8 1740 be5f 1d40
00000130: c9a6 2240 7638 2740 fe87 2b40 cb5d 2f40
00000140: 96cd 3340 0734 3740 b8e2 3a40 0beb 3d40
00000150: ac34 4240 1432 4440 5014 4740 0545 4940
00000160: 31a6 4c40 0e27 4f40 b314 5140 bb1a 5440
00000170: bed3 5540 4d5b 5840 fd03 5a40 71d3 5c40
00000180: c495 64b9 c048 313f 6a74 8c3f 843d b13f
00000190: b8de cd3f 3533 e53f e9fd f83f 54e3 0440
000001a0: 218a 0c40 7c3e 1340 e54d 1940 d8d8 1e40
000001b0: fefc 2340 eeb3 2840 0113 2d40 4a24 3140
000001c0: ee1e 3540 d6bc 3840 e93b 3c40 a669 3f40
000001d0: 8bbe 4240 8394 4540 a25e 4840 75fc 4a40
000001e0: 3abf 4d40 3f4b 5040 b096 5240 dd12 5540
000001f0: 7e2d 5740 c96c 5940 db68 5b40 1d98 5d40
00000200: 6460 fcbb ea2a 2e3f 2338 8a3f 30da ae3f
00000210: ae2d cc3f 58c8 e33f 2d04 f83f ea65 0340
00000220: 72bf 0b40 9161 1240 9d09 1840 cc97 1d40
00000230: c1db 2240 fd64 2740 cea8 2b40 1c69 2f40
00000240: 58ee 3340 d140 3740 69f7 3a40 d3e8 3d40
00000250: 5066 4240 e82b 4440 ba0f 4740 3d13 4940
00000260: d7c2 4c40 d520 4f40 03d6 5040 6e18 5440
00000270: 8d97 5540 a35f 5840 d8b0 5940 13fb 5c40
00000280: c648 50bb efd4 2f3f 7763 8b3f c818 b03f
00000290: a3fa cc3f 2f3e e43f 975e f83f 6333 0440
000002a0: 8f16 0c40 d6ac 1240 5cad 1840 8d2f 1e40
000002b0: d75e 2340 a509 2840 635c 2c40 2b68 3040
000002c0: 5178 3440 5407 3840 ad91 3b40 a2ac 3e40
000002d0: a342 4240 e2e7 4440 2ca9 4740 fd48 4a40
000002e0: 36fd 4c40 7aaa 4f40 ebe1 5140 a986 5440
000002f0: cb75 5640 65b7 5840 f6af 5a40 f9ff 5c40
00000300: 2a60 83bb afd3 2f3f cf94 8b3f a059 b03f
00000310: ab0e cd3f 7565 e43f 9b50 f83f 4e6f 0440
00000320: 1f23 0c40 44c8 1240 bddd 1840 e065 1e40
00000330: ee8a 2340 b042 2840 c0a3 2c40 bbd4 3040
00000340: 50ab 3440 bc55 3840 26d0 3b40 0105 3f40
00000350: 0655 4240 082b 4540 23f6 4740 51d0 4a40
00000360: 7f53 4d40 3bdd 4f40 f14d 5240 e0a4 5440
00000370: ded8 5640 52fe 5840 b31e 5b40 2023 5d40
00000380: 6b24 81bc 570f 2c3f 2c4d 893f ba0b ae3f
00000390: d04d cb3f f6a6 e23f 0b3e f73f 7b44 0340
000003a0: 6156 0b40 00eb 1140 8dbd 1740 034e 1d40
000003b0: 0291 2240 d42a 2740 3c89 2b40 028a 2f40
000003c0: 4eb3 3340 8130 3740 bbc2 3a40 5fe7 3d40
000003d0: b8e7 4140 6f22 4440 faf0 4640 518e 4940
000003e0: 525f 4c40 aa06 4f40 5121 5140 43fb 5340
000003f0: 47c4 5540 351b 5840 6ff9 5940 6b9e 5c40

ema_model.q_head.DAC_block.mamba_blocks.0.D f4 [28]
1.0408529 1.0433733 1.0434917 0.9787339 1.042045 1.0162961 1.0289 1.035776
1.0371611 1.013038 1.0381502 1.0432085 1.0399299 1.0436387 1.0111768 1.0394595
1.0423675 1.0450166 0.99287707 0.98613846 1.0151428 1.0433207 0.98882663 1.040875
1.0317844 1.0216358 1.0429453 1.0373516
00000000: ab3a 853f 428d 853f 2391 853f 4e8e 7a3f
00000010: bb61 853f fe15 823f ffb2 833f 4f94 843f
00000020: b2c1 843f 3bab 813f 1be2 843f db87 853f
00000030: 6c1c 853f f495 853f 3e6e 813f 020d 853f
00000040: 4c6c 853f 1bc3 853f 312d 7e3f 9273 7c3f
00000050: 33f0 813f 888b 853f be23 7d3f 643b 853f
00000060: 8311 843f f6c4 823f 3b7f 853f f0c7 843f
