checkpoints/q-mamba/20240831_083609/checkpoint-9.pt (torch, 103216 bytes, 52 tensors)

q_head.DAC_block.mamba_blocks.0.A_log f4 [28, 32]
000000 59 71 e4 ba a1 33 30 3f 44 65 8b 3f 1c f2 af 3f
       -0.00174288 0.6882878 1.0890279 1.3745761
000010 24 ec cc 3f 43 31 e4 3f 8f 58 f8 3f b3 bc 03 40
       1.6009564 1.7827533 1.9402026 2.0583923
000020 48 f3 0b 40 8e 72 12 40 65 48 18 40 d4 b0 1d 40
       2.1867237 2.2882419 2.3794186 2.4639177
000030 d7 e7 22 40 e6 7d 27 40 3a ab 2b 40 96 6f 2f 40
       2.5454004 2.6170592 2.6823258 2.7411857
000040 d8 d9 33 40 9c 48 37 40 41 ec 3a 40 52 ae 3d 40
       2.8101711 2.8638067 2.9206698 2.9637647
000050 63 f5 41 40 cd 15 44 40 84 a6 46 40 bb d9 48 40
       3.0306022 3.0638306 3.1039133 3.1382892
000060 ad 2e 4c 40 2b e1 4e 40 4e ab 50 40 60 cc 53 40
       3.1903489 3.2324932 3.2604556 3.309349
000070 43 52 55 40 da e0 57 40 bf 6f 59 40 dc 2e 5c 40
       3.3331459 3.3730989 3.3974454 3.44036
000080 ad 0c 01 bd b5 fa 25 3f 70 9d 85 3f 9b 18 aa 3f
       -0.03150623 0.64835674 1.0438671 1.3288759
000090 db 81 c7 3f 98 d1 de 3f b2 94 f3 3f f0 dd 00 40
       1.5586504 1.7407713 1.9029753 2.013546
0000a0 1b 49 09 40 d2 bc 0f 40 40 79 15 40 12 f2 1a 40
       2.145087 2.2458997 2.3355255 2.4210248
0000b0 80 34 20 40 ae c4 24 40 c6 00 29 40 1f cb 2c 40
       2.5032043 2.5745044 2.6406722 2.6998975
0000c0 18 3c 31 40 6f a0 34 40 8a 4c 38 40 ce 34 3b 40
       2.7692928 2.822292 2.8796716 2.925098
0000d0 61 90 3f 40 d6 8a 41 40 0e 44 44 40 28 7a 46 40
       2.9931872 3.0240989 3.0666537 3.1012058
0000e0 5d c5 49 40 b9 6d 4c 40 a5 3f 4e 40 3a 67 51 40
       3.152671 3.194197 3.2226346 3.2719254
0000f0 ca f3 52 40 3b 80 55 40 23 19 57 40 94 fa 59 40
       3.2961297 3.3359516 3.3609092 3.405919
000100 54 5b 6f bd 4c c7 1f 3f 14 a5 82 3f 24 42 a7 3f
       -0.058436707 0.6241348 1.0206628 1.306706
000110 53 0b c5 3f b1 06 dd 3f af b9 f1 3f 92 45 ff 3f
       1.5394081 1.7267667 1.8884791 1.9943106
000120 06 4c 08 40 86 e4 0e 40 18 60 14 40 ea f4 19 40
       2.12964 2.232698 2.318365 2.4055734
000130 01 47 1f 40 5e cb 23 40 66 14 28 40 fc d9 2b 40
       2.4887087 2.5592875 2.626245 2.6851797
000140 6f 67 30 40 5d be 33 40 a4 79 37 40 8c 6d 3a 40
       2.756313 2.8084939 2.8667994 2.9129362
000150 5e 2f 3f 40 d8 bf 40 40 81 9f 43 40 18 b7 45 40
       2.987266 3.0117092 3.0566103 3.0893002
000160 a0 44 49 40 c6 c9 4b 40 35 90 4d 40 79 d1 50 40
       3.1448135 3.1841903 3.2119267 3.2627852
000170 2b 5a 52 40 c1 fc 54 40 03 85 56 40 dc 99 59 40
       3.2867534 3.3279269 3.3518684 3.4000158
000180 42 24 01 bb dd 19 30 3f f4 5e 8b 3f ae f2 af 3f
       -0.001970545 0.68789464 1.0888352 1.3745935
000190 34 e8 cc 3f 06 33 e4 3f 4d 57 f8 3f 7f d3 03 40
       1.6008363 1.7828071 1.9401642 2.0597837
0001a0 3f f9 0b 40 f7 7b 12 40 44 5e 18 40 db cc 1d 40
       2.1870878 2.2888162 2.3807535 2.4656284
0001b0 3c 02 23 40 5d 9d 27 40 d9 d3 2b 40 56 ad 2f 40
       2.5470114 2.6189797 2.6848052 2.7449546
0001c0 86 ff 33 40 96 79 37 40 36 16 3b 40 8c e6 3d 40
       2.812471 2.866796 2.9232306 2.9671965
0001d0 8e 09 42 40 1a 48 44 40 e5 e1 46 40 92 33 49 40
       3.0318332 3.0669007 3.1075375 3.1437726
0001e0 d6 65 4c 40 e5 12 4f 40 81 fa 50 40 fd fc 53 40
       3.1937156 3.2355282 3.2652895 3.3123162
0001f0 7a 9c 55 40 d4 1a 58 40 66 bf 59 40 fe 62 5c 40
       3.3376756 3.3766375 3.402307 3.443542
000200 f1 16 3c bd ef 42 22 3f 05 a2 83 3f 53 1a a8 3f
       -0.045920316 0.6338338 1.028382 1.3133034
000210 ce cd c5 3f 14 71 dd 3f 7c 1e f2 3f 36 9b ff 3f
       1.5453432 1.7300134 1.8915553 1.9969242
000220 c2 81 08 40 3e 07 0f 40 89 82 14 40 44 09 1a 40
       2.1329198 2.234817 2.3204672 2.4068155
000230 de 5a 1f 40 d3 d1 23 40 21 09 28 40 1a b3 2b 40
       2.489921 2.5596817 2.6255572 2.6828065
000240 02 5f 30 40 ec 9b 33 40 96 63 37 40 b5 38 3a 40
       2.7557988 2.8063917 2.8654532 2.9097111
000250 66 41 3f 40 35 8a 40 40 30 67 43 40 80 51 45 40
       2.9883666 3.0084355 3.053173 3.0830994
000260 a3 35 49 40 63 93 4b 40 2e 1a 4d 40 d4 9e 50 40
       3.1438987 3.1808708 3.204723 3.259694
000270 d4 e5 51 40 d1 cf 54 40 a0 f9 55 40 75 99 59 40
       3.2796526 3.325184 3.343361 3.3999913
000280 13 b0 ac bc 0e ab 28 3f b8 f7 86 3f 2c 70 ab 3f
       -0.021080052 0.6588601 1.0544348 1.3393607
000290 f8 bf c8 3f 2a f5 df 3f 53 b6 f4 3f 75 89 01 40
       1.5683584 1.7496693 1.9118141 2.0240147
0002a0 a8 df 09 40 3a 44 10 40 af 1a 16 40 d6 89 1b 40
       2.154276 2.2541642 2.3453786 2.4302878
0002b0 07 c7 20 40 fe 5d 25 40 58 99 29 40 cf 85 2d 40
       2.5121477 2.5838618 2.6499844 2.711292
0002c0 17 c9 31 40 40 40 35 40 37 de 38 40 6b c9 3b 40
       2.7778986 2.8320465 2.888563 2.9341686
0002d0 cc f2 3f 40 ad 1f 42 40 eb c9 44 40 bd 46 47 40
       2.9991941 3.0331833 3.074824 3.1136925
0002e0 ca 30 4a 40 94 f1 4c 40 89 f0 4e 40 20 e5 51 40
       3.1592278 3.2022448 3.233431 3.2796097
0002f0 55 8c 53 40 e5 ef 55 40 0d bc 57 40 8f 53 5a 40
       3.3054402 3.342767 3.3708527 3.41135
000300 61 df 1d bd 36 2c 24 3f f1 11 85 3f f8 aa a9 3f
       -0.03854311 0.6412996 1.03961 1.32553
000310 fc 93 c6 3f 01 df dd 3f 62 f9 f1 3f f7 e9 00 40
       1.5513911 1.733368 1.890423 2.01428
000320 66 cc 08 40 f7 59 0f 40 93 69 15 40 48 ea 1a 40
       2.1374755 2.239866 2.3345687 2.4205494
000330 53 17 20 40 f7 ce 24 40 32 2c 29 40 c3 67 2d 40
       2.5014236 2.5751321 2.6433225 2.709458
000340 09 38 31 40 e3 ea 34 40 3f 6f 38 40 a6 93 3b 40
       2.769045 2.8268363 2.88179 2.9308867
000350 15 18 3f 40 06 cf 41 40 a6 86 44 40 11 7e 47 40
       2.9858449 3.0282607 3.0707183 3.1170695
000360 00 ff 49 40 93 8d 4c 40 48 fd 4e 40 1e 5d 51 40
       3.156189 3.196141 3.234209 3.2713084
000370 1b 8f 53 40 ac b6 55 40 bd da 57 40 a3 dd 59 40
       3.3056095 3.3392744 3.3727257 3.4041526
000380 fb e0 ab bd 80 cd 1a 3f ac d4 80 3f a4 ca a5 3f
       -0.08392521 0.6046982 1.0064902 1.2952466
000390 64 78 c3 3f c7 15 db 3f db 34 f0 3f 86 c7 fe 3f
       1.5271115 1.7116021 1.876613 1.990464
0003a0 90 bc 07 40 45 4c 0e 40 c1 02 14 40 a9 99 19 40
       2.120884 2.2234051 2.312668 2.4000037
0003b0 32 ef 1e 40 09 80 23 40 af de 27 40 e5 d6 2b 40
       2.4833493 2.5546896 2.6229665 2.6849911
0003c0 cf 1e 30 40 c8 90 33 40 9f 31 37 40 2d 4a 3a 40
       2.7518804 2.8057117 2.8624036 2.9107773
0003d0 3a c7 3e 40 a2 96 40 40 8a 66 43 40 38 fb 45 40
       2.9809098 3.009194 3.0531335 3.0934582
0003e0 5a ef 48 40 73 9f 4b 40 6e 9e 4d 40 5b b1 50 40
       3.1396089 3.181607 3.2127948 3.260825
0003f0 0e 53 52 40 d5 c3 54 40 ef 8d 56 40 e8 79 59 40
       3.2863193 3.3244526 3.352413 3.3980656

q_head.DAC_block.mamba_blocks.0.D f4 [28]
000000 21 fd 8f 3f 47 b7 8f 3f 40 9b 8f 3f ea a6 79 3f
       1.1249124 1.1227807 1.1219254 0.97520316
000010 83 ab 8e 3f a7 62 8b 3f 02 88 8c 3f 4e 48 90 3f
       1.1146091 1.0889481 1.0979006 1.1272066
000020 68 54 8d 3f 43 2a 8c 3f 95 da 8d 3f b4 bc 8e 3f
       1.1041384 1.0950397 1.1082331 1.1151338
000030 89 b2 8e 3f d4 be 8e 3f 5a 31 8c 3f 0e 19 8f 3f
       1.1148235 1.1151986 1.0952561 1.1179521
000040 8c 3c 8f 3f ef 7d 90 3f f2 15 89 3f 2a ef 86 3f
       1.1190352 1.1288432 1.0709822 1.0541737
000050 cf 60 8b 3f a4 e7 8f 3f 25 ab 88 3f 7b 31 8d 3f
       1.0888919 1.1242566 1.0677229 1.1030725
000060 69 31 8e 3f 51 ee 8b 3f b0 58 8f 3f 16 06 90 3f
       1.1108829 1.0932103 1.119894 1.1251857

q_head.DAC_block.mamba_blocks.0.in_proj.weight f4 [56, 14]
000000 85 b6 a1 bd df 1d 45 3e 9e 9b e8 3d 69 0a 29 3e
       -0.07896141 0.19249676 0.113578066 0.16507877
000010 3e 75 97 3e 5b 92 bb 3e f5 bb 47 3e 85 1f bc 3d
       0.29581636 0.36635098 0.19505294 0.091856994
000020 2f b1 d0 3e 07 51 1a 3e f0 27 c6 3d 4a a0 ce bd
       0.4076018 0.15069972 0.09675586 -0.100891665
000030 80 92 0e 3e f7 9e 18 be 83 92 8a 3e e6 26 f3 bd
       0.13923073 -0.1490439 0.27064905 -0.11872654
000040 8a 07 b4 3e 49 67 fc 3d a7 87 94 3e d5 67 a3 3e
       0.35162002 0.123243876 0.29009745 0.31915155
000050 be 08 86 3e 8a 31 80 bd 48 4b b1 3c 30 4d 66 3e
       0.26178545 -0.06259449 0.021642342 0.22490382
000060 da 7b 12 3e 29 d1 3d be 05 8f 1d 3e a2 10 85 3e
       0.14305058 -0.1853682 0.15386589 0.25989252
000070 0e 8e 71 be c0 ca b2 be 8b 7d c2 be a0 60 73 be
       -0.23589346 -0.3492031 -0.37986407 -0.23767328
000080 a6 2f 4c be 4e cf a9 be 80 50 2d be 42 77 cc be
       -0.19940051 -0.33165973 -0.1692524 -0.39934736
000090 38 15 4f be ef fb 3d bc 2b d9 06 3e ee 15 c9 3d
       -0.20222938 -0.01159571 0.1316878 0.09818636
0000a0 e9 c6 47 be 44 b5 5c be 4e 26 8a bb 51 eb 0a be
       -0.19509472 -0.21553522 -0.004215992 -0.13566329
0000b0 0f 9c 01 be fc af 3c 3e 1b 70 90 be 3c 7e 10 be
       -0.12657188 0.18426508 -0.2821053 -0.14110655
0000c0 09 4e 34 3e f9 c0 67 3e 9f a1 25 bc 31 1a 9e 3d
       0.17607893 0.22632207 -0.010109334 0.07719839
0000d0 0e 72 1a 3e 91 b1 36 3e 86 7e 87 be 06 cd 9f be
       0.15082571 0.17841174 -0.26463717 -0.31211108
0000e0 b1 91 41 bc e3 95 48 3e 56 45 75 3e a4 7d 98 3e
       -0.011814521 0.19588427 0.23952231 0.29783356
0000f0 e6 c6 a4 3e f0 9d 9c bc c8 ca 6b 3e dd 22 93 3d
       0.32182997 -0.01911828 0.23026574 0.07184384
000100 dd 68 03 3c f8 2a 37 be c9 76 8a 3e cf 87 94 bd
       0.008020607 -0.17887485 0.2704375 -0.07252466
000110 bf f6 2a bc 3f e0 15 3e 64 99 be 3e 68 77 51 bd
       -0.010434805 0.14636324 0.37226403 -0.051139265
000120 53 cb 86 3e 86 0e ee bd b3 f8 0f be 49 4e ad bd
       0.26327 -0.11623864 -0.14059715 -0.08462197
000130 e8 83 2e 3d 2c 7d 79 3e 4f b3 93 3e a5 82 45 be
       0.042606264 0.24364156 0.2884774 -0.19288118
000140 70 3f 8b 3e 45 f5 a3 3e 4f 54 71 3e e2 6d 8a 3e
       0.27196836 0.32023063 0.23567317 0.2703696
000150 2d ff a3 3e a8 b5 f8 bd 97 ee be 3d 21 48 82 3e
       0.3203062 -0.12144023 0.09322851 0.25445655
000160 80 4c 01 be a0 e5 37 3e 66 b0 9f 3e 6c 38 93 3b
       -0.12626839 0.17958689 0.3118927 0.00449281
000170 88 d1 db bd b2 24 d2 3d ed df 8a 3e 5f d1 b3 3e
       -0.10733324 0.10260905 0.27123967 0.35120675
000180 c3 48 13 be 5f 17 72 3e 0e 11 b5 bd 22 59 a7 bd
       -0.14383225 0.23641728 -0.088411435 -0.081712976
000190 28 ab 72 bd 6a 43 8f bb 5e ea 19 be 08 a0 b2 be
       -0.05924526 -0.00437205 -0.1503081 -0.3488772
0001a0 62 dc 9b be 31 12 e4 3d eb aa d0 bc 27 c3 c7 bd
       -0.30441576 0.11136282 -0.025472125 -0.09754019
0001b0 9d bd 0d be b0 a8 98 bd 75 5c 7d be ce 4c ea 3d
       -0.13841863 -0.074540496 -0.24742301 0.114404306
0001c0 7b fc a7 bd f6 c7 9c 3d e4 96 d7 3d 1d 28 1f be
       -0.08202454 0.07655327 0.10526827 -0.15542646
0001d0 c3 da 89 bc f6 f9 56 bb c0 26 80 be 9e 9d 45 be
       -0.016827947 -0.0032802797 -0.25029564 -0.19298407
0001e0 20 44 6f 3e 16 69 59 3e 7a de 65 3e 80 67 8a 3e
       0.23365831 0.21231493 0.2244815 0.2703209
0001f0 57 19 71 3e 13 09 92 3e a5 f1 26 3e 88 38 70 be
       0.23544823 0.28522548 0.16303118 -0.23459065
000200 f6 41 18 3e 9b 7c 8c be a4 5c 23 3e 5e cb c0 3d
       0.14868912 -0.27438816 0.15953308 0.09413789
000210 2d 1f 34 be 3b 71 9b 3b 58 4d 5a 3e 2b 4f 8a 3c
       -0.17590018 0.0047437227 0.21318567 0.016883453
000220 bf 05 3d be f3 20 0c bd ce 4f 92 3e b0 54 9f 3e
       -0.18459223 -0.03421111 0.2857651 0.311193
000230 8c 76 8d bd 3a 7b b6 3e d0 90 a7 bd d0 ce d7 bd
       -0.06907377 0.3564089 -0.08181918 -0.10537493
000240 33 a0 85 bd c0 2f f5 3d 96 fc 87 bd fe 38 47 bd
       -0.06524696 0.11971998 -0.06639974 -0.048638336
000250 e3 eb 98 3e 38 9a 7b be 5c 86 8e bd e1 8a 5a 3e
       0.29867467 -0.24570549 -0.06959221 0.2134204
000260 8a 98 9c 3e 43 a8 8a 3e 22 b6 f9 3d 05 08 d1 bd
       0.30585128 0.27081499 0.12192942 -0.10206608
000270 23 4b dd bd f4 c2 50 3e 95 c7 83 3d a8 c5 2d 3c
       -0.10805347 0.20386869 0.064345516 0.010606207
000280 0f 5d 44 3e 66 0f 00 be e1 78 be 3e 65 65 73 3e
       0.19176124 -0.12505874 0.37201598 0.23769148
000290 20 c4 a6 3e c3 67 97 3e f9 e5 b8 3d e0 ab 96 3d
       0.32571507 0.2957135 0.09028239 0.07357001
0002a0 2f f4 0c 3e 6b 60 16 3e 43 01 1b be 5c 70 e1 bd
       0.13765024 0.14685218 -0.151372 -0.11007759
0002b0 54 69 8d be 13 f1 88 3d 13 c6 0e be 6c fc 14 be
       -0.2761942 0.06686606 -0.13942747 -0.14549416
0002c0 1a 07 a3 bd 9d a4 00 3e f3 4a ab 3c df 71 a4 bd
       -0.07960339 0.12562795 0.020909762 -0.08029532
0002d0 24 04 21 3e 7c eb 99 3d 38 e0 5d bd 56 ae b7 3b
       0.15724236 0.07515618 -0.05416891 0.0056054993
0002e0 83 85 d1 3c e7 9b d2 3d 81 a3 85 3e 5f 63 6a 3e
       0.025576359 0.10283642 0.26101306 0.2288947
0002f0 97 6c 9c 3d cd f9 ab 3e 8a 4f ba 3e 31 30 53 be
       0.07637899 0.3358902 0.36388808 -0.20623852
000300 0b 39 95 3e 4c d1 9c 3d bd dc 2f 3e 6b f0 94 3d
       0.29145083 0.07657108 0.17174049 0.072724186
000310 05 72 79 bd eb 3b a2 be 47 59 84 be 7b 8e 1d be
       -0.060899753 -0.3168634 -0.25849363 -0.15386383
000320 00 61 83 3b 08 3e 37 be 54 93 90 be 59 d5 94 be
       0.004009366 -0.17894757 -0.28237402 -0.2906902
000330 2f 50 c0 3d fb 3c 45 be 8f 8e 14 3e b4 2b 98 be
       0.09390294 -0.19261543 0.14507507 -0.29720843
000340 da b3 ab be 1a 67 e0 bc 17 c3 a7 bd 36 5c d1 bd
       -0.33535653 -0.027392913 -0.08191507 -0.10222666
000350 8f 85 85 3e b8 49 65 3e 6d 24 4c 3d 91 85 9b 3e
       0.2607846 0.22391403 0.049839426 0.3037534
000360 33 cd 75 3d 80 45 b1 3e 90 24 66 3e 3e 13 67 3e
       0.060010146 0.34623337 0.22474885 0.22565934
000370 e7 ad 3a 3e 15 f6 e3 3c 1c ba 25 3e 00 f4 21 3d
       0.18230401 0.027827302 0.16184276 0.039539337
000380 a5 59 23 bc f2 a8 f4 bb 10 b6 cf be 24 41 18 bd
       -0.009970103 -0.007466429 -0.4056859 -0.037171498
000390 9e cb 67 be 67 8f 57 be 00 ab 19 3d c4 f7 8c bd
       -0.22636268 -0.21050797 0.037516594 -0.06883195
0003a0 93 41 11 be 30 63 0d bd 88 a7 9a be 79 aa 4a bd
       -0.14185171 -0.03451842 -0.3020594 -0.04947898
0003b0 18 56 06 bd 5c b9 b9 bd 39 7e 8d 3d 76 a1 30 3e
       -0.03279695 -0.090685576 0.06908841 0.17249092
0003c0 f4 ac 73 bc 3a 77 61 3e 14 cd e7 bd fb fa a3 3d
       -0.014872778 0.22018138 -0.113184124 0.08006855
0003d0 01 d9 3a 3e ec 6b 11 3e 36 a7 35 3e 4d ad 9e bd
       0.18246843 0.14201325 0.17739567 -0.07747898
0003e0 d0 f0 26 3e 42 97 0f bc ee 63 ca bc 6d 1e b8 3e
       0.163028 -0.00876409 -0.024705853 0.35960713
0003f0 cc 03 79 be 5e 70 6d be 64 b2 8d be 0e 89 34 3e
       -0.24317855 -0.23187396 -0.27675164 0.17630407

q_head.DAC_block.mamba_blocks.0.conv1d.weight f4 [28, 1, 4]
000000 40 66 2d 3e 4c 90 0c 3e 5b be c2 be d9 da 0b 3f
       0.16933537 0.1372692 -0.38035855 0.5463081
000010 6c 53 2c 3e 5a f0 b5 be 1c 18 0b bf f1 36 02 be
       0.16828698 -0.35534936 -0.54333663 -0.12716271
000020 9e b0 93 be 78 a8 7e 3e 82 e2 e5 3e 8c 89 14 3f
       -0.28845686 0.24868953 0.44899374 0.5802238
000030 9c 6c 8c be 64 23 e8 be 88 74 0e bf 69 be af 3e
       -0.27426612 -0.453395 -0.5564656 0.3432496
000040 1e 03 e2 be c0 91 cb 3e e5 e4 a3 3e f8 a1 04 bf
       -0.44143003 0.39759636 0.3201057 -0.51809645
000050 92 45 a9 be 0c 8c ad be 45 c5 b2 3d eb 6f e6 3e
       -0.3306089 -0.3389591 0.087290324 0.45007262
000060 e0 0f 91 3d 44 3a 42 be 79 1a 62 3d 69 12 11 3f
       0.07083106 -0.18967539 0.055201028 0.56668717
000070 30 3c 78 be 20 69 3c bd 5b c5 b9 be a9 35 92 be
       -0.2424171 -0.045998693 -0.36283383 -0.28556564
000080 6a d0 83 3e 10 5b 0e be cc 53 9c 3e ea b1 01 be
       0.25744945 -0.13901925 0.30532682 -0.12665525
000090 64 55 95 3e 64 9a 02 3e 02 81 c6 be 44 74 22 3e
       0.2916671 0.12754208 -0.387703 0.15864664
0000a0 c4 27 9b be 20 5c af 3d 09 d5 49 3e 6e dd cf 3e
       -0.30303776 0.08562493 0.19710173 0.40598625
0000b0 30 e0 2b 3d 1e 39 8d be ab 42 1d 3d 95 ee e0 3e
       0.04196185 -0.2758264 0.038393658 0.43932024
0000c0 20 a3 a2 bc c0 63 3f 3d 7a 03 02 bf 51 56 b2 3d
       -0.019853175 0.04672599 -0.50786555 0.0870787
0000d0 10 db c6 3e be ac ce 3e 30 65 fd be 8b 49 31 be
       0.38839006 0.40366167 -0.49491262 -0.1731321
0000e0 6c 24 d6 be f2 ab 9d 3e c9 b2 2b be 1c 37 18 bf
       -0.41824663 0.30795246 -0.1676742 -0.5945909
0000f0 d6 d7 93 3e 14 2e 29 be fa 22 af be a4 d4 12 3f
       0.28875607 -0.16521484 -0.34206372 0.57355714
000100 38 e5 9c be 20 49 1c 3d 69 3d 97 39 95 c6 da 3e
       -0.3064363 0.038155675 0.00028846718 0.4272963
000110 40 32 32 bc 42 f1 dc be aa f4 af 3e a2 84 a9 3e
       -0.010876238 -0.43152815 0.3436635 0.33109003
000120 30 94 b7 3e 78 ab 58 be 59 e7 97 3e 52 00 71 3e
       0.35855246 -0.2115916 0.29668692 0.23535278
000130 50 c0 08 be 0c 6c 32 be 3b af 08 3e 67 bd 01 3e
       -0.13354611 -0.17424029 0.13348095 0.12669908
000140 68 53 5c 3e 00 f9 cb 3d fc 9f eb be 03 1d dc 3e
       0.21516192 0.09959602 -0.46020496 0.42990884
000150 f4 ad a1 be 10 37 63 3d 24 e3 ae be ea a0 b9 3e
       -0.31578028 0.055472434 -0.3415767 0.3625558
000160 7c fd 82 3e 58 40 a3 3d 1e f1 65 bb cd e4 05 bf
       0.25584018 0.07971257 -0.0035086344 -0.5230225
000170 fa cf 99 3e 5c d7 69 3e 84 a9 d8 3e a5 d8 b1 3e
       0.30041486 0.2283606 0.4231683 0.347356
000180 a0 5d de 3c e8 ac 06 be 98 f4 c4 bc 1f 49 9d be
       0.027144253 -0.13151896 -0.024042413 -0.3071985
000190 4c 42 a5 be 84 7b 4f 3e 99 d9 17 bf c4 dd b5 be
       -0.32277143 0.20261961 -0.593164 -0.35520756
0001a0 e2 da a0 3e 5c 3c 72 be a5 96 d5 be 86 41 85 bd
       0.31416994 -0.23655838 -0.41716495 -0.06506638
0001b0 68 80 eb be 40 b3 83 bc 8c ac b2 be a9 ab bf 3e
       -0.45996404 -0.016076684 -0.34897268 0.37435654

q_head.DAC_block.mamba_blocks.0.conv1d.bias f4 [28]
000000 a1 95 01 3f b9 e8 a7 be 02 ee d4 3d 7e 87 cf be
       0.5061894 -0.3279474 0.10396959 -0.4053306
000010 d0 a4 12 bf 37 b2 94 3e ab 48 19 3e d5 2c fd 3e
       -0.57282734 0.29042217 0.14969127 0.49448267
000020 a1 c4 c4 be cb 2b e0 3e 7a 74 03 3f 98 a5 ef 3e
       -0.38431266 0.4378341 0.51349604 0.46806026
000030 1e a2 c7 3e 46 4c b1 be 28 e3 b6 3e 44 fb ef 3e
       0.38990873 -0.34628505 0.3572018 0.46871388
000040 da 39 94 be 4d 46 19 3f 18 11 b4 be d8 a9 1c be
       -0.28950387 0.59872895 -0.35169291 -0.15299165
000050 c1 3a 28 be 08 6b e3 be 8f 7f 91 bd da 85 d8 be
       -0.16428663 -0.44417596 -0.07104408 -0.4228962
000060 a7 df 20 3f 4c fe bc be 8e 5c e4 3e 41 45 93 3e
       0.62841266 -0.36912763 0.44601864 0.28763774

q_head.DAC_block.mamba_blocks.0.x_proj.weight f4 [65, 28]
000000 02 5a 23 be eb f7 87 3e 21 3f 8d 3b 39 64 40 3c
       -0.15952304 0.26556334 0.004310504 0.011742645
000010 13 ba e0 3d 30 bd 3b be c4 a1 aa bd 1f b6 37 be
       0.10972991 -0.18333888 -0.083316356 -0.17940567
000020 b6 23 6a 3e 23 89 85 be c7 42 d5 bd e1 c1 93 be
       0.22865185 -0.2608119 -0.104131274 -0.28858855
000030 d3 44 b5 be 72 94 94 3e 27 2c a8 be 85 ea b5 be
       -0.3540407 0.29019505 -0.32846186 -0.35530487
000040 ec 3c 03 3e 42 bd ea bb f1 be 77 3e 30 5d 9b 3e
       0.12816209 -0.0071636746 0.24193932 0.30344534
000050 ca 02 a7 3e 2a cf 8f bc eb 5e 02 3e f5 3d 41 3d
       0.32619315 -0.017554838 0.12731521 0.047178227
000060 c5 ef 47 bc 51 2c 2f 3e e2 b5 dd bc d7 fc c7 bc
       -0.012203162 0.17106749 -0.027064268 -0.024412556
000070 b9 e8 24 3e 5a 13 81 be 02 fb 6b be 05 a5 12 be
       0.16104402 -0.25210077 -0.2304497 -0.14320762
000080 2d 0b ce 3b 5c 9d fc bc fa 13 64 3e 99 f5 72 bc
       0.0062879534 -0.030836754 0.22273245 -0.014829063
000090 86 0c 07 be e5 75 c2 3d b7 e0 cf 3d f0 3b a4 3e
       -0.13188371 0.09495143 0.10150283 0.3207698
0000a0 01 ec fc 3c 74 ec 5f bd f4 de 5f 3b 82 32 06 3e
       0.030874254 -0.05466886 0.003415999 0.13105205
0000b0 61 32 62 be 14 0b a1 3e 0a f2 c3 bd cb 72 bd bc
       -0.2208953 0.31453764 -0.0956765 -0.023126027
0000c0 f8 7d 75 be 3c e7 3d be 9d f1 10 be 51 ca 18 be
       -0.23973835 -0.1854524 -0.14154668 -0.14920928
0000d0 50 90 13 3d 73 dd 95 3c 5b e7 99 3e d3 5b 9c 3d
       0.0360263 0.018294072 0.30059323 0.076347016
0000e0 34 49 6a 3e 2b dc 2d be 66 da cf bb 67 36 5e be
       0.22879487 -0.16978519 -0.006343174 -0.2170044
0000f0 24 67 67 bd cf 08 1b 3e 49 93 5f 3e c9 05 96 3e
       -0.056494847 0.15140079 0.21833529 0.2930129
000100 44 61 a4 be 2f a0 84 bc 26 26 8f 3c e3 e1 94 3e
       -0.32105458 -0.016189663 0.017474245 0.29078588
000110 7e 96 69 3e 74 97 2b 3d 18 50 5e 3e 61 6d b9 3d
       0.22811314 0.041892484 0.21710241 0.090540655
000120 38 77 7d be bb ab 6e 3d 8f 14 63 be 54 7c 31 be
       -0.2475251 0.058269244 -0.22175811 -0.17332584
000130 fa 86 88 bd be b1 7b be db fb 35 be 6a 1c 2b be
       -0.0666637 -0.24579522 -0.17771856 -0.16710058
000140 13 33 b6 bc a6 41 70 be 72 9a f3 3c 47 79 00 3e
       -0.022241151 -0.23462543 0.029736731 0.12546264
000150 a7 80 a9 be 42 63 92 bc b2 ff 65 3e 4a 44 5b 3e
       -0.33105966 -0.017869595 0.22460821 0.21412769
000160 c0 43 8f 3e 1f 12 2b 3d a0 0e 11 3d 14 59 9d bd
       0.27981377 0.04176533 0.035414338 -0.07683006
000170 3c 01 07 3e 20 02 fc bc 0c 05 80 be 0e 23 5d bd
       0.13184065 -0.030762732 -0.2500385 -0.05398851
000180 52 47 bc bc 9f c4 39 bd 22 72 a4 be 98 87 d0 bd
       -0.022983227 -0.045353528 -0.32118326 -0.101821125
000190 82 8f 8a 3e 3a 78 30 be cf 31 4c 3e 4d a6 ec 3d
       0.27062613 -0.17233363 0.19940875 0.11555157
0001a0 bc d2 17 bd 9e 3c 63 3c 21 9a fe 3d 86 11 4b 3b
       -0.037066206 0.013869433 0.124317415 0.0030985787
0001b0 4f 60 9f be 0f 1f 7e 3d 79 3b de bc 1c 0a 8b be
       -0.31128165 0.06204134 -0.027127968 -0.2715615
0001c0 95 01 2f 3d 41 2c 43 be c6 80 1a be ad 64 9c be
       0.042726118 -0.1905985 -0.15088186 -0.3054556
0001d0 0d 12 fb 3c a4 c2 ea 3c e1 d4 56 3e df 00 27 bb
       0.030648256 0.028657265 0.20979644 -0.0025482697
0001e0 ca e0 8d be 4c 69 d8 3b 54 27 8f 3e d5 52 a0 3e
       -0.27710563 0.0066043492 0.27959692 0.31313196
0001f0 b9 5a 6f 3e b5 cc c1 bd fd a6 95 3e 04 89 9f 3e
       0.23374452 -0.09462873 0.29228964 0.31159222
000200 91 76 74 bc d3 cd 82 3d be d3 8b be 67 ae f0 bd
       -0.014920847 0.06386914 -0.27309984 -0.117520146
000210 1f f0 2b be 4d b5 3a bd 70 4f 5e be b0 8c 35 be
       -0.16790818 -0.04558306 -0.2170999 -0.1772945
000220 da 05 91 3e cc 24 8e bd 2c 02 67 3e 2c 01 8e 3e
       0.28324777 -0.06940612 0.22559422 0.2773527
000230 67 54 8e 3d 13 89 e7 bd d5 88 a8 be 84 92 76 bd
       0.06949692 -0.11305442 -0.32916895 -0.060198322
000240 89 1f d5 3c fd 9e 0e 3c 05 80 1e 3e d9 76 19 3e
       0.026016014 0.008704898 0.15478523 0.14986743
000250 96 b3 fc bd fa 6e 28 bd bc df 13 3e 99 91 95 bc
       -0.12338941 -0.04112146 0.14440817 -0.018257903
000260 32 6d a6 3e 87 6a 84 be 44 b4 29 3e d8 f2 6a 3e
       0.32505184 -0.25862524 0.16572672 0.229442
000270 8c 14 52 be 4e 8a 8d 3e 67 99 a6 bd 1d ef 95 be
       -0.2051565 0.2764458 -0.08134728 -0.2928399
000280 7e 72 3c be e4 5b 9b be db 16 ee bd 83 b4 ff bd
       -0.1840305 -0.30343544 -0.11625453 -0.12485602
000290 ee 3a 09 3d a5 12 90 be 81 5e de 3d 20 cc a4 3d
       0.033503465 -0.28139225 0.10857869 0.08046746
0002a0 0e 38 83 3e 9e 9c 2b 3c ca 4f 66 be 7c fa 1d be
       0.25628704 0.010474352 -0.22491375 -0.15427583
0002b0 b8 4b 38 be 31 9d 57 3e 5b 01 69 bd 92 7a 8f 3e
       -0.17997634 0.21056058 -0.05688606 0.280232
0002c0 9b 9a 08 be 25 57 48 3e 66 07 61 3e fb 04 76 3e
       -0.13340227 0.19564493 0.21975479 0.24025337
0002d0 ca 9f ab 3d 16 fd 01 bd ae 13 94 3e e8 ac 1d 3c
       0.08380087 -0.031735502 0.28921264 0.009623744
0002e0 39 81 9d bc 42 2e bf 3d 3b d4 76 be 55 1f 7d be
       -0.019226657 0.09334995 -0.24104397 -0.24718983
0002f0 4d 86 ef 3c 74 4b 89 bd 0b b3 f8 bd 9e 25 1f bd
       0.029238844 -0.06703845 -0.12143525 -0.038854234
000300 84 3c 21 3e 2c f7 24 be f1 03 4d 3e 0f 48 22 3d
       0.15745741 -0.16109914 0.20021035 0.0396195
000310 95 89 57 be 0f d3 71 3e 39 91 87 bd 10 e6 8e 3d
       -0.21048577 0.23615669 -0.06619496 0.06977475
000320 1d 6b c9 3d e9 06 b9 3d c8 ee 16 be 51 ab 7b be
       0.09834883 0.09034521 -0.14739525 -0.24577071
000330 d2 d7 42 3d de 17 c2 bd 07 07 60 be d8 62 34 be
       0.047569104 -0.094772086 -0.2187768 -0.17615831
000340 19 6d 32 be fe 58 92 bd 2b 4e 5e be 1f eb 68 bd
       -0.1742443 -0.0714588 -0.21709506 -0.056864854
000350 e2 b6 83 3e 42 20 6e bd 2f e3 69 3d 2a a5 ab bd
       0.25725466 -0.058136232 0.057101425 -0.08381112
000360 d5 aa a0 3e 3d 37 d0 3d a7 5b 81 3e 67 7f dc bc
       0.31380334 0.10166786 0.25265238 -0.026916219
000370 96 4b 99 bd 11 b8 dc 3d 77 cd 86 be 12 a5 4a be
       -0.0748512 0.107772954 -0.26328632 -0.19789532
000380 06 eb ef 3c 22 e7 94 be 27 7c 2a be e7 fa 00 be
       0.029286873 -0.2908259 -0.16648923 -0.12595712
000390 d2 aa 88 be d8 af 87 3e f0 bc e0 3d 9b e2 3d 3e
       -0.26692826 0.26501346 0.10973537 0.18543474
0003a0 7f 4a 4e be 58 02 a5 3e cc 12 ad 3d 90 d4 93 3d
       -0.20145606 0.3222835 0.08450851 0.072182775
0003b0 f6 ad 80 3e e5 ae 13 be 67 c6 66 3e 59 a0 94 3e
       0.25132722 -0.14422186 0.22536622 0.29028586
0003c0 1a 31 b0 3c 4d 93 ca 3d 0a 8c 60 be 05 1c 77 bd
       0.021507788 0.09891377 -0.2192842 -0.060329456
0003d0 54 0a 7c be a8 bc 40 be 7a 6d 30 be 16 79 39 be
       -0.24613315 -0.18821967 -0.17229262 -0.18112597
0003e0 8b 72 7a 3e f6 19 29 bd 9c fc 7a 3e fb 8d 91 3e
       0.24457757 -0.041284524 0.24510425 0.28428635
0003f0 bb 8e 76 3e e8 eb 89 be 22 2d 3e be 7e 45 83 be
       0.24077885 -0.26937795 -0.18571904 -0.25638956

q_head.DAC_block.mamba_blocks.0.dt_proj.weight f4 [28, 1]
000000 86 42 9e 3e fc 6d 5e be 39 15 0a 3f db ee 0f 3e
       0.30910128 -0.21721643 0.53938633 0.1405596
000010 cf c4 13 bf fc dc 4f 3f 2d b8 6d bf 54 05 87 bf
       -0.5772218 0.8119657 -0.92859155 -1.0548501
000020 61 a2 e7 3e bf 70 08 3f 62 c4 70 bf 91 93 83 bf
       0.45241073 0.53297037 -0.94049656 -1.0279409
000030 67 8f 1b 3f 6a b4 0a bf b1 6a 81 bf e5 54 e0 3e
       0.6076569 -0.5418154 -1.0110685 0.4381477
000040 77 ff 57 bf 25 1a e6 3e ad ba 53 bf a4 d1 27 3f
       -0.84374183 0.44941822 -0.8270672 0.6555426
000050 ae aa 64 bf 4e 29 6c be 5a 37 03 3e 0a 82 5c bf
       -0.89322937 -0.23062631 0.12814084 -0.86135924
000060 c8 0c 8e bf f6 72 86 bc eb 01 47 3f 91 b6 10 bf
       -1.109765 -0.01641224 0.777373 -0.56528574

q_head.DAC_block.mamba_blocks.0.dt_proj.bias f4 [28]
000000 68 68 cf c0 73 97 7b c0 b2 43 10 c0 cc 2f a3 c0
       -6.481495 -3.9311187 -2.2541318 -5.0995846
000010 fe d6 95 c0 75 53 74 c0 f7 c1 91 c0 2d 33 28 c0
       -4.682494 -3.8175938 -4.5549273 -2.6281235
000020 36 38 a5 c0 4e 4c 30 c0 6e 28 c3 c0 b0 fb 7c c0
       -5.1631117 -2.7546573 -6.0986853 -3.9528618
000030 f5 42 5a c0 5f a9 98 c0 6d 30 41 c0 8a 54 37 c0
       -3.4103367 -4.770675 -3.0185807 -2.8645349
000040 9c 67 35 c0 23 0e 93 c0 aa f6 79 c0 a7 6c 9f c0
       -2.8344488 -4.5954757 -3.9056802 -4.982013
000050 e3 1a d7 c0 67 26 60 c0 80 08 35 c0 f4 2e 87 c0
       -6.722032 -3.502344 -2.8286438 -4.2244816
000060 a5 aa 96 c0 99 47 d5 c0 f5 62 c2 c0 f4 23 80 c0
       -4.7083306 -6.66499 -6.0745797 -4.004389

q_head.DAC_block.mamba_blocks.0.out_proj.weight f4 [14, 28]
000000 f7 ee 90 be 67 b7 1d 3e 15 de 50 3e 74 9b 13 3e
       -0.28307316 0.15401994 0.20397218 0.1441477
000010 a7 26 82 be 82 23 15 3d 04 41 07 3e 96 1a 72 3e
       -0.25420114 0.036410816 0.13208395 0.23642954
000020 ff a6 8b 3d 4a a7 95 3d 8e 35 51 3e 5b f2 b0 3c
       0.06818961 0.073072985 0.20430586 0.02159994
000030 bd 60 85 3e 76 69 a2 bc 3f 44 a5 bd 47 32 62 bc
       0.26050368 -0.019825678 -0.080696575 -0.013805932
000040 af 82 13 3e 35 91 1e 3e 9a 41 88 bd 4a cf cb 3c
       0.1440532 0.1548508 -0.066531375 0.024879117
000050 c6 c5 87 3d 1c d6 4a 3e 39 d3 01 bd 4c b5 85 3c
       0.06629519 0.19808239 -0.03169558 0.0163218
000060 dc 41 0c be d6 bb 21 be 3c 69 42 bb 66 6f 6a be
       -0.13696998 -0.1579431 -0.0029664775 -0.22894058
000070 47 b9 71 bd 9d 1e 05 3e 21 57 2b bd ea fb 28 be
       -0.059014585 0.1299996 -0.04183114 -0.16502348
000080 7d bf 81 3d ca 24 64 be 6a 78 40 3e e6 ef 12 3e
       0.063353516 -0.22279659 0.18795934 0.14349326
000090 48 5b 6c be 4d 49 96 3e 39 b9 8e 3e e0 a2 24 3e
       -0.23081696 0.293528 0.2787569 0.16077757
0000a0 1a 14 51 bd 45 2a 36 bd 45 81 05 be 56 a0 83 be
       -0.05104456 -0.044473905 -0.13037594 -0.25708264
0000b0 2c 2f a2 3d 62 42 41 3e 38 ef 18 be ec 25 13 3b
       0.079191536 0.1887298 -0.14935005 0.0022453023
0000c0 ac 74 ba 39 95 e5 93 3d ff 8c 8e 3d 1d 98 93 be
       0.00035563612 0.07221524 0.069604866 -0.2882699
0000d0 27 1a 5e be c4 6f a8 3d d2 8e 23 be 84 45 69 be
       -0.21689664 0.082244426 -0.1597245 -0.22780424
0000e0 6a a6 50 3e 7f 37 79 be 09 ed cc bd af 5c 28 3e
       0.20375982 -0.24337576 -0.10006148 0.16441606
0000f0 17 57 90 3c f8 11 ed 3b 4d 63 81 be dd 10 90 bc
       0.017619653 0.007234808 -0.25271073 -0.017586166
000100 39 59 62 bb 6b 4d 2d be 42 38 3c 3c f3 fd 2e be
       -0.0034538044 -0.16924064 0.011488022 -0.17089061
000110 21 63 a7 3d 14 24 78 be 3f 8d 42 3c 70 92 5d 3e
       0.08173204 -0.24232513 0.011874496 0.21637893
000120 b6 07 5f be a8 ba fe bd 86 99 16 3d 07 f4 d5 3d
       -0.21780285 -0.124379456 0.036767505 0.10446935
000130 9a 68 2e 3d 55 7c 62 be 8b 04 4c bb b5 23 ac 3d
       0.042580225 -0.22117741 -0.0031130638 0.08405248
000140 e3 45 20 3e 66 aa 02 3e b8 b8 66 3e ab 7b 05 3e
       0.1565166 0.12760314 0.22531402 0.13035457
000150 c1 1d 4e 3e 6a 59 39 be 37 fe 75 be f4 86 30 3e
       0.20128538 -0.18100515 -0.24022757 0.1723898
000160 42 0e c0 3d 68 e6 16 3e e4 c0 d8 bd eb 4b 4e be
       0.093777195 0.1473633 -0.10583666 -0.20146148
000170 fe ed fb 3d e0 5b 0d 3d 1f 49 45 3d b2 45 8f be
       0.12301253 0.034511447 0.048165437 -0.2798286
000180 9e 08 47 be b1 46 d4 bd 84 06 13 3e 91 a6 89 3d
       -0.19436881 -0.10365046 0.14357954 0.06721223
000190 59 49 0b be 88 97 c4 bd 00 04 ac 3d 3b ff 76 be
       -0.13602199 -0.09599215 0.083992004 -0.241208
0001a0 da 77 33 be 81 ad c4 bd eb 56 e5 bc 1f 29 73 bc
       -0.17526188 -0.09603406 -0.027995547 -0.014841347
0001b0 98 7c 24 3e 17 dc 23 bd 44 eb 98 3d 43 d3 31 3e
       0.16063154 -0.040004816 0.07466748 0.17365746
0001c0 ed a1 b2 bd 51 4d 5e bd 5c 00 02 bd ff 75 a5 bd
       -0.08722291 -0.054272953 -0.031738624 -0.080791466
0001d0 1f a3 8f be 04 72 a4 bd ee ca db 3d 77 62 5b 3e
       -0.2805414 -0.08029559 0.10732065 0.2142428
0001e0 bf 63 5c be b5 e3 59 3e 45 d9 d5 3c 1c 70 5e 3e
       -0.21522425 0.2127827 0.026104579 0.21722454
0001f0 2e fb 8c bd 6b ca 41 3e 44 f6 fc bd e6 d1 8f be
       -0.06883846 0.18924873 -0.12351659 -0.28089827
000200 c1 1f 0e bd c7 6e 64 3e ea 73 86 bc f5 fa 79 3d
       -0.03469825 0.22307883 -0.016412694 0.061030347
000210 15 b1 dc 3d d2 1c d6 3d ed 73 2b 3e 2c 60 87 bd
       0.10775963 0.10454716 0.16743441 -0.0661014
000220 66 8a 61 be c7 dc 77 be 44 1c b4 bd cb bd 1d bc
       -0.22025451 -0.24205314 -0.08794454 -0.00962777
000230 8d 04 1f be f1 6d 5d 3e 0e 24 97 3e 02 54 db bd
       -0.1552908 0.2162397 0.29519695 -0.107093826
000240 eb 94 d4 3c 55 01 89 bd 56 90 2f 3e d3 2c eb 3c
       0.025949916 -0.06689707 0.17144904 0.028707897
000250 ee c9 6c be 5d f4 3e 3e 6d a9 0b 3e 31 ed 11 3e
       -0.23123905 0.18647905 0.1363885 0.14250638
000260 70 4d 7e 3e 96 8c 13 3c 47 8a e0 bd e8 00 2c be
       0.24834228 0.009005686 -0.10963874 -0.1679722
000270 e7 a0 ca 3d db 99 55 3e 56 d6 b3 bd c8 83 54 3e
       0.09893971 0.20859472 -0.08781116 0.20753396
000280 a3 4d 26 3e 89 a0 67 3e 0d 85 dc 3c 80 86 51 be
       0.16240554 0.22619833 0.026918912 -0.20461464
000290 b8 8b 12 bb 21 30 72 be 4d b0 0b bd a2 eb 37 3b
       -0.002236111 -0.23651172 -0.03410368 0.0028064032
0002a0 2a f4 da 3d bd 06 65 be 35 26 97 be c0 bc ca bd
       0.10691102 -0.22365852 -0.29521337 -0.098992825
0002b0 4b 4e 34 3e 10 c8 cb 3d 3d cf e6 bd 2e c0 9e be
       0.17607991 0.09950268 -0.11269996 -0.31005996
0002c0 88 74 31 3e fe ca e1 bb d1 6a 72 be 1d 72 5a bb
       0.1732961 -0.0068906536 -0.2367356 -0.0033332177
0002d0 67 17 20 be 2e a4 7a be 13 5b d9 3d aa 48 b9 3a
       -0.15633927 -0.24476692 0.10613074 0.0014136035
0002e0 e8 82 1d be 34 2a 5b be 7d 24 8c 3e 08 70 ad bd
       -0.15381968 -0.21402818 0.27371588 -0.08468634
0002f0 ba c4 87 bc 94 f2 d7 bc 36 85 7d bd 30 26 5f 3e
       -0.016573299 -0.026360787 -0.061894618 0.21791911
000300 5e 74 50 bd eb bb 2f 3e 9c b8 93 3e 22 cc 9a 3e
       -0.050892226 0.17161529 0.28851783 0.30233866
000310 36 8a 84 3d 0d b4 06 be cd 80 18 3d 71 f2 02 3e
       0.06471674 -0.13154621 0.03723221 0.12787797
000320 fc eb 5f 3e 3b c7 df bc 5d 40 84 3d 01 38 5f be
       0.21867365 -0.02731668 0.06457589 -0.21798708
000330 30 4e 30 3e 19 1b c8 bd dd 77 81 be c4 e0 8f be
       0.17217326 -0.097707935 -0.2528676 -0.2810117
000340 4d 3e 92 be e7 99 26 be a3 45 62 3e 7b f1 e5 3d
       -0.28563157 -0.16269647 0.22096877 0.11227699
000350 2e d8 7c be ee 3a 18 be ee 8d 93 3d 20 aa 8b bc
       -0.24691841 -0.1486623 0.07204805 -0.017048895
000360 71 8a 23 bd df a2 3f 3d 14 9b 01 be 7a b0 44 3e
       -0.03992695 0.046786185 -0.12656814 0.19207945
000370 ab 1a 39 3e 27 a5 a8 3d 12 8a 36 3e 46 96 6b 3e
       0.1807658 0.08234625 0.17826107 0.23006544
000380 3e a5 55 3e 73 b9 0e be 12 df d0 bd 1a d5 4e 3d
       0.20863816 -0.13937931 -0.10198797 0.0504962
000390 66 0d c3 3d 78 13 6c 3e 0d 14 d0 bd 75 79 87 bd
       0.0952404 0.23054302 -0.101600744 -0.06614963
0003a0 12 0d bc 3b 0c a1 b9 3c 86 1b f0 bd 7d 1d 93 be
       0.005738863 0.022659801 -0.11724 -0.28733435
0003b0 d4 0c 14 be 9f ea 16 be ea 9a 39 3e e9 14 33 3e
       -0.14458019 -0.14737938 0.18125501 0.17488445
0003c0 a0 4b 81 be 63 a4 50 3d 88 66 80 bc 2d 21 25 3d
       -0.2525301 0.05093802 -0.01567389 0.040314842
0003d0 f1 e6 e9 bd 8b 5c 1e be 93 72 51 be d8 aa 8d 3e
       -0.11421002 -0.1546499 -0.20453863 0.27669406
0003e0 50 77 36 3d 13 b5 71 3d 77 c5 73 3e 0a e5 22 3b
       0.04454738 0.059010576 0.23805796 0.0024855756
0003f0 bd fd a3 bd 06 b4 4d 3e 3e 88 41 3e 16 73 39 3e
       -0.08007381 0.20088205 0.18899629 0.18110308

q_head.DAC_block.ff1.weight f4 [32, 14]
000000 af 0b 7b be 8c 2b 37 be 39 06 ec 3d 9d a6 bd 3d
       -0.24516176 -0.17887706 0.115246244 0.092602946
000010 cd b4 33 bd ef ea 88 be 7a 1a e0 3d 80 c1 e2 3d
       -0.043873597 -0.2674174 0.1094255 0.110720634
000020 a1 e7 51 3d da e0 12 3e a8 47 33 3e db 2a 78 3e
       0.05124629 0.14343587 0.17507803 0.24235098
000030 8c e1 f4 3d bf ac 82 3e 36 1a 74 3e e3 3c c8 3d
       0.11957082 0.2552242 0.23838124 0.09777238
000040 6e 39 ad be 1d 78 6c be 77 97 a5 3e b4 5a e2 bd
       -0.33832878 -0.23092695 0.3234212 -0.110524565
000050 02 46 a7 be 5d 8e b2 be 9e 6c 1c be 61 6d 07 be
       -0.326706 -0.3487424 -0.15275809 -0.13225318
000060 d6 9f b6 be b0 f1 c2 bd 15 db a9 be c2 15 0d 3e
       -0.3566882 -0.095187545 -0.3317496 0.13777831
000070 b0 99 0b be 35 9e cb bd 35 f4 34 be 37 04 9c be
       -0.13632846 -0.09942285 -0.17671283 -0.30471966
000080 35 0a 80 3e 81 d8 6f 3e 74 9f a1 ba e6 08 04 3e
       0.25007787 0.23422433 -0.0012330846 0.1289402
000090 40 e7 a9 be cc 95 87 3e ee ca 4f be 1c af 1d be
       -0.33184242 0.26481473 -0.20292255 -0.1539883
0000a0 06 a3 19 be 61 41 ab 3e d1 f1 78 be 9c c8 95 be
       -0.15003595 0.33448318 -0.24310996 -0.29254615
0000b0 6c d1 a5 3e b4 46 eb bd 01 59 bd be ef cc 12 be
       0.3238634 -0.11488095 -0.36981967 -0.14335988
0000c0 5e 46 04 be 62 4d 8a 3e 3c 19 99 3e 7b 82 9b be
       -0.12917468 0.27012163 0.29902065 -0.30372986
0000d0 96 ab be 3e bc 87 ec 3d fd e9 7f 3e 70 9c 0a 3e
       0.37240285 0.11549327 0.24991603 0.13536239
0000e0 0c ef f5 3d a4 f2 9e 3e fe 44 4a be b0 5c 29 be
       0.12008485 0.31044495 -0.19752881 -0.16539264
0000f0 84 b7 9b 3e 59 2f 6f 3b be c8 ef bd 21 88 22 3e
       0.3041345 0.0036496727 -0.117082104 0.15872242
000100 11 a4 ca bd 12 f6 8b 3a 3a 19 97 3c 6f 7e 05 be
       -0.098945744 0.0010678193 0.018444646 -0.13036512
000110 10 00 b0 be 91 82 13 bb 7e 36 42 bd 83 e4 b0 3e
       -0.34375048 -0.0022508244 -0.04741525 0.3454934
000120 5b be 11 be 66 cd 16 be d7 26 b7 3d ff 63 7d 3e
       -0.14232771 -0.14726791 0.08942955 0.24745177
000130 6d 8c be be 07 a8 94 be f6 0e bb bd 00 1d ae 3d
       -0.3721651 -0.29034445 -0.09133713 0.08501625
000140 af 71 7e bd fd e9 55 bd a7 83 32 be 48 16 ae 3e
       -0.062120136 -0.0522251 -0.17433034 0.34001374
000150 76 d3 89 3e 47 c3 a0 3e f1 c5 0a 3e 75 9c 7d be
       0.26919144 0.31398985 0.13552071 -0.24766715
000160 fd 89 8d 3d 70 2b 3b 3e 6d c6 c4 3c 69 90 8e be
       0.06911085 0.18278289 0.024020398 -0.2784455
000170 b5 99 5c be ef 7e 5f 3e ff c6 58 be 32 54 94 be
       -0.2154301 0.21825765 -0.21169661 -0.28970486
000180 d4 29 08 3e 20 85 12 3e a3 aa 18 3e c5 34 a7 3d
       0.13297206 0.14308596 0.14908843 0.08164362
000190 25 34 4d bc ed b6 ce bb 99 e7 60 3e a1 e2 96 bc
       -0.012524639 -0.0063084275 0.21963347 -0.018418612
0001a0 41 af 59 be 1d 27 59 be 8b f6 11 bd e4 89 16 bd
       -0.2125826 -0.21206327 -0.035635512 -0.036752596
0001b0 b3 d0 17 be a6 07 1a 3d e6 14 ad be 80 ad 1f 3e
       -0.14825706 0.03760495 -0.33805007 0.15593529
0001c0 fe 1d bf bd f0 e0 a1 3d 11 2f 13 3e 14 19 70 3d
       -0.093318924 0.079042315 0.14373423 0.058617666
0001d0 20 af 9d be 7b 41 6b be f4 b6 43 bd b1 46 ac 3e
       -0.30797672 -0.22974198 -0.0477819 0.33647683
0001e0 d8 49 01 3e 55 2a 6d 3d 6f 3b d1 3d 6b c8 2a bd
       0.12625825 0.0579017 0.10216414 -0.04169504
0001f0 ab a2 98 3e bf d0 ac 3d d2 48 9f 3e 0a 56 25 bd
       0.29811606 0.08438253 0.31110245 -0.040365256
000200 4d 7c 62 bd da fe f1 3d 88 cb 23 3e 74 c5 06 3e
       -0.055294324 0.11816187 0.1599561 0.1316126
000210 1d 91 bc 3d 5c 55 57 be b0 5f ad be 80 e7 a8 bd
       0.09207366 -0.21028656 -0.33862066 -0.0824728
000220 4e 0a 23 be 7d c6 02 be 04 6d 64 bd a8 ce 8c 3e
       -0.159219 -0.1277103 -0.055768028 0.27501416
000230 a2 a2 3b 3e 2d a7 97 3e 84 2e 01 3d 85 df 9b bc
       0.18323758 0.29619732 0.0315385 -0.01902748
000240 de f6 a6 3e 60 8c bb 3d 2e ba aa be 5c 8f 66 bd
       0.3261022 0.09157634 -0.3334517 -0.056289062
000250 5a 7a 3d be 8f 04 0a 3e 28 1d 1f 3d 90 e8 c8 3d
       -0.18503705 0.13478301 0.038846165 0.09809983
000260 23 6b 41 bc a4 02 95 3d 0d 75 be bd d9 a6 ef bd
       -0.011805329 0.07275894 -0.092996694 -0.117017455
000270 04 76 eb bc 98 18 70 bd 3a d7 06 be 98 11 9d 3e
       -0.028742798 -0.058617204 -0.1316804 0.30677485
000280 20 f4 be 3d ba 13 cc 3b 6b b3 cb bb b1 1a cf bd
       0.09323907 0.0062279375 -0.0062164566 -0.10112513
000290 94 b0 e5 bd be 2b 48 be 16 e8 96 be 7a 01 41 be
       -0.1121532 -0.19547936 -0.29473943 -0.1884822
0002a0 9c c4 88 3e 7e 6f 89 3d 56 a6 64 be 1d 1a 09 3e
       0.267125 0.067107186 -0.22329077 0.13388868
0002b0 63 3f 52 3e bd 32 b0 3d 97 92 c1 be 59 1b c3 be
       0.20531993 0.086034276 -0.37807152 -0.38106802
0002c0 27 37 02 bb 95 97 8b 3c 82 9f d9 bd f6 3c bd 3d
       -0.00198693 0.017040053 -0.10626127 0.09240143
0002d0 ed 52 c6 be a9 42 b1 3d 74 d9 97 3e 93 ea 5e 3e
       -0.38735142 0.086552925 0.2965809 0.2176917
0002e0 9f bf f4 bd bd 90 1c be 8d 11 16 3e 98 fd 87 3e
       -0.11950611 -0.15289588 0.14655133 0.26560664
0002f0 3c 41 c1 be f2 17 9a be 11 bf be be 43 83 81 3e
       -0.37745082 -0.30096394 -0.37255147 0.25295457
000300 91 c9 4d be e7 ce 00 be 18 e3 2f be f4 c1 ac 3e
       -0.20096423 -0.12578927 -0.17176473 0.33741724
000310 a1 95 d3 bd f9 f6 14 3e c1 59 58 3d 23 b8 b8 be
       -0.10331274 0.14547338 0.05281997 -0.36077985
000320 51 16 88 3e b1 14 12 3e 8a f0 17 3d bd b3 85 be
       0.26579526 0.14265706 0.03709463 -0.26113692
000330 91 20 9b 3c fa d5 45 3e a1 86 ae be b5 f9 0d be
       0.018936427 0.19319907 -0.3408709 -0.13864787
000340 24 71 f2 bc 4b 10 3e 3e 9e 35 8a 3e 93 e7 86 3d
       -0.029594965 0.18560903 0.26994032 0.06587138
000350 03 6a 8a be 5a 5b e8 3d 58 77 f7 3c 11 b0 ed 3d
       -0.27034006 0.11345549 0.030208275 0.116058476
000360 77 e6 a4 be f6 90 e7 3c 38 d3 01 3e 22 d2 be 3e
       -0.3220708 0.028267365 0.1267823 0.37269694
000370 11 73 b0 be 54 fc 4d be ad 85 cd be f4 a9 10 b9
       -0.3446279 -0.20115787 -0.4014105 -0.00013796223
000380 3b bc 38 be e6 eb 69 be a7 27 32 bd 1a 8d d3 bc
       -0.18040554 -0.22843894 -0.043494847 -0.025824118
000390 8b 88 a4 be 50 13 17 be 5e 2a 0e 3d 4b 26 bf bd
       -0.32135424 -0.14753461 0.034708373 -0.09333476
0003a0 4d 59 31 3d 3f 1e d9 3d 84 6d 2b 3e d2 5e a3 3e
       0.043298054 0.10601472 0.16740996 0.3190828
0003b0 66 d9 c1 3e 36 4f c3 bd d2 67 a8 be d1 db 0d be
       0.37861174 -0.09536593 -0.3289171 -0.13853385
0003c0 53 09 6c 3e f9 4e 2e 3e 44 7a b8 3d a1 7f 14 3e
       0.23050432 0.17022313 0.09007695 0.14501812
0003d0 25 0f 8e 3e 8a 2b a9 3c f6 8e 3f 3e 5c 38 1b bd
       0.2774593 0.020650644 0.18706879 -0.037895545
0003e0 ae 08 7c bd 9d 7a 5f 3e 18 63 af 3e 04 ef 50 be
       -0.061531715 0.21824117 0.3425529 -0.20403677
0003f0 d6 53 b8 3e 4a 8e 75 3e fe a2 ae 3d 6f a5 1b be
       0.36001462 0.2398006 0.08527182 -0.15199827

q_head.DAC_block.ff1.bias f4 [32]
000000 b8 5e 9c 3d 7b ef 9b 3e 06 bb 87 3e b4 c6 10 be
       0.07635254 0.30456147 0.26509875 -0.14138299
000010 da 86 2f 3e 02 f0 3c 3d c7 07 3e 3e be 63 be 3d
       0.17141286 0.046127327 0.18557654 0.09296368
000020 2f 5e 55 be 69 38 4b 3d 21 07 8f 3e 79 75 2d 3e
       -0.2083671 0.049614344 0.27935126 0.16939344
000030 6a 2b f4 bd 74 80 be 3d 65 f6 a6 3e 21 5a 9c 3e
       -0.11922343 0.09301844 0.3260986 0.30537513
000040 7f 6e 58 be 66 31 a4 be 21 17 6d 3e f7 c9 82 3d
       -0.21135901 -0.32068938 0.23153354 0.06386178
000050 1f 6f a8 3e 7d 63 8b 3e ec b8 17 3e 89 19 32 3e
       0.3289728 0.2722434 0.14816636 0.17392553
000060 cc de 2d bd 1c 06 36 3d 69 65 78 be 3e 2a 09 be
       -0.042448804 0.04443942 -0.24257435 -0.1339502
000070 8d 49 58 3e 18 57 43 be 9f c4 3f be fb 52 90 be
       0.21121807 -0.19076192 -0.18727349 -0.2818831

q_head.DAC_block.ff2.weight f4 [16, 32]
000000 89 73 0f bd 3f 06 93 bc 10 38 a8 bd 29 2b a7 bb
       -0.035022292 -0.017947314 -0.08213818 -0.0051015806
000010 8c f7 1d bd c4 6e 1c be 65 1f 31 3d 9c 3a 05 3d
       -0.038566157 -0.15276629 0.04324283 0.032526597
000020 6e bb 31 3e c5 f2 43 be cc 2a 1f 3d ca 0a f8 bc
       0.17356655 -0.19135578 0.038859174 -0.030278582
000030 f2 30 35 be ee 2d a9 bd f9 ce 00 be 06 3c 8a be
       -0.17694452 -0.082607135 -0.12578954 -0.2699892
000040 f3 19 39 3e e5 3e 69 bc 3c b8 bc bd 97 bb 41 be
       0.18076305 -0.014236187 -0.092148274 -0.18919216
000050 53 9b cc bc 08 66 81 be 0d 1b 88 be 0b 05 98 bd
       -0.024976408 -0.25273156 -0.26583138 -0.07422837
000060 ce df e5 bd 80 bd dd bc cc 7c cc bc 61 f3 90 3e
       -0.11224328 -0.0270679 -0.024961852 0.28310683
000070 9f 26 6b 3b 13 37 39 3e f1 3f 83 3e 9b 1f 65 bd
       0.0035881174 0.18087415 0.2563472 -0.055938344
000080 45 f3 15 3e 3c a0 7c be af 83 2d 3d 8b d9 e4 3b
       0.14643581 -0.246705 0.04236191 0.006983941
000090 91 74 35 bc a9 67 de bd 00 be a3 bd 89 ff 0d be
       -0.011075155 -0.10859615 -0.07995224 -0.1386701
0000a0 a5 0b 9f bd 11 f2 08 bd 46 4c 6c be 66 5e 4c be
       -0.07765893 -0.033433978 -0.23075971 -0.19957885
0000b0 f6 ed 20 be 72 4b 37 be a5 83 b6 bc 9d e5 61 be
       -0.15715775 -0.17899874 -0.02227957 -0.22060247
0000c0 c2 09 a7 3d b5 45 e5 3d 30 0b b4 3d 5f c8 84 be
       0.08156158 0.11194936 0.08791196 -0.2593412
0000d0 5a b8 3d bd a6 02 03 be 2f 46 0a 3d 86 f3 26 3d
       -0.04631839 -0.12793979 0.03375834 0.040759586
0000e0 a1 4f 17 3d 6f cf 08 3e bd 0a 0b 3d 05 30 66 bd
       0.036941174 0.1336038 0.033945788 -0.05619814
0000f0 4c db 75 3d a9 44 c4 3d 57 ff 0c 3d 9f 97 86 3e
       0.06002359 0.095834084 0.0344232 0.26287553
000100 f2 c5 e8 3d 3a 23 61 be 0e 79 f5 bd c1 22 8c 3c
       0.1136588 -0.21986094 -0.1198598 0.017106416
000110 25 c7 27 be 28 e8 83 3a 08 aa 36 be 58 74 95 bd
       -0.16384561 0.0010063695 -0.178383 -0.072975814
000120 4d 25 56 3d 65 cb b5 3d 99 07 7e be 10 33 dc bd
       0.052281667 0.08876685 -0.24807586 -0.10751927
000130 8e 57 41 be 0c 7c e5 bd 5b 86 2c be ea 00 5d 3d
       -0.18881056 -0.11205301 -0.16848128 0.05395595
000140 31 24 0b 3e 6f b6 84 bd 58 54 df bd f1 94 79 be
       0.13588025 -0.06480109 -0.10904759 -0.24373223
000150 8d 05 72 3d c5 39 1b be d3 e5 71 be ed 47 81 3c
       0.059087325 -0.15158756 -0.23622827 0.015781367
000160 d2 b8 9b bd 4f 97 c5 3c d4 7a 17 3e 87 bd 6d 3e
       -0.07603611 0.024120001 0.14792949 0.2321683
000170 90 5d 86 bb 18 f1 7b 3d 06 c7 40 bb 23 e1 24 3e
       -0.004100509 0.06150922 -0.0029415502 0.16101508
000180 9a e0 98 bd 8b 80 1b bd bb c6 26 be 51 20 f2 bc
       -0.07464714 -0.037964385 -0.16286747 -0.029556425
000190 6a ac f6 bd ee 97 b9 bd 76 fd eb bd 5b fe 0c be
       -0.12044604 -0.090621814 -0.11522953 -0.13768904
0001a0 47 85 7d 3e 5f 46 2e be 12 a8 14 be 4c db 6a be
       0.24757873 -0.17019032 -0.14517239 -0.22935218
0001b0 be 70 0e be 5f 60 63 be 52 53 c4 bd 12 7b 61 be
       -0.13910195 -0.22204731 -0.095862046 -0.22019604
0001c0 4b b5 9b 3d 5c 80 e0 3b 83 9b d4 bd 33 64 4a be
       0.07602938 0.006851239 -0.10381224 -0.19764785
0001d0 cd 29 7b be bb 8f 1f be c1 d1 e8 3c 03 cf ee bd
       -0.24527664 -0.15582173 0.028420331 -0.11660578
0001e0 f3 7b 3d be 67 7f e7 bd 7a b0 2a 3e ad 07 e5 bc
       -0.18504314 -0.11303597 0.16668883 -0.027957762
0001f0 6b be f5 bd 1c 9f b1 bd 34 4d 42 3d 90 f8 0f bd
       -0.1199921 -0.08672926 0.047436908 -0.035149157
000200 98 bd 07 3e a3 b6 e5 3d c8 4b be 3d 20 97 4f 3e
       0.13255918 0.11216476 0.09291798 0.20272493
000210 6d cb 75 be 04 02 43 3d 83 91 73 be ee 65 2b be
       -0.24003382 0.047609344 -0.23785977 -0.16738102
000220 57 ec 85 bd 4c 1f f6 3d 38 be cc 3d 61 ec 3e bd
       -0.06539219 0.12017688 0.09997219 -0.046612147
000230 8a 29 42 bd 71 d2 f1 bb 2a 11 a9 bd 19 06 d5 3d
       -0.047402896 -0.007379823 -0.08255227 0.10401554
000240 a5 13 2c 3e 55 c2 48 3e 9d 87 18 3b ac fa 94 bd
       0.16804369 0.19605382 0.0023274191 -0.07274374
000250 25 9c 0d be 8f d2 29 be 89 0b 19 3d 09 3f 43 be
       -0.13829096 -0.16584228 0.037364516 -0.19067015
000260 c5 bf 3c 3e d4 a5 95 bd 9b 7a 71 3e 43 18 eb 3d
       0.1843253 -0.0730702 0.23581927 0.11479237
000270 0a 67 00 3d 85 dc be 3a 11 d0 9a bd f7 8e f0 3d
       0.031348266 0.001456157 -0.07559217 0.117460184
000280 d3 62 f6 3d ef 05 80 be 82 3d 0f be 41 cf 84 3d
       0.12030568 -0.25004527 -0.13988307 0.06484843
000290 3d 51 94 3d fb 72 84 bd fc f6 62 be 26 e3 87 be
       0.072420575 -0.06467243 -0.2216453 -0.26540488
0002a0 a7 c7 39 3e 7f 7f 3c 3c a1 ec 7f be 82 43 75 be
       0.18142568 0.011505007 -0.2499261 -0.23951533
0002b0 8a 0d 8a 3d 57 22 49 be a8 0f 02 be ad 84 a7 bc
       0.067408636 -0.19642006 -0.12701285 -0.020449007
0002c0 5a c5 4d 3d ae 0e 47 bd b4 5d 47 be 70 69 d7 bd
       0.050237037 -0.048597984 -0.19469339 -0.105181575
0002d0 31 39 1e be 64 a3 96 3d 7c 1b b9 3d 0a 5c 68 3c
       -0.15451504 0.07355383 0.09038445 0.0141821
0002e0 49 d5 ec bd 3d a5 92 3d 62 39 12 bd 72 96 42 bd
       -0.115641184 0.07160423 -0.035699256 -0.047506757
0002f0 6b fe c2 3c b5 d1 b2 bd 84 58 91 3b 80 09 16 3c
       0.023802957 -0.08731405 0.0044356007 0.009157538
000300 1d c7 d5 3d ed 4c d2 bd 28 e5 71 be be 17 79 3e
       0.104383685 -0.10268579 -0.23622572 0.24325463
000310 61 58 68 be 5d b7 44 be 90 a0 82 be 73 e4 22 bd
       -0.22689964 -0.19210573 -0.25513124 -0.039768647
000320 17 bf 17 3e d9 9c b4 bd 80 0e 15 be ea 6d 24 be
       0.14818989 -0.08818979 -0.14556313 -0.16057554
000330 df 7c 6b bc 3e 73 63 be 78 66 a0 bc 73 9c 3f 3d
       -0.014373033 -0.2221193 -0.01958011 0.04678006
000340 30 25 3e bd fa ae c1 3d 63 24 ab 3d 64 31 4b 3c
       -0.046422184 0.09457202 0.083565496 0.012401912
000350 57 d2 b1 bd 03 c8 7f bd 1b 23 2b 3d 55 5f ad bd
       -0.08682697 -0.062446605 0.041781526 -0.08465449
000360 44 6f 47 be c4 59 26 bd 8b 86 ac 3c af b8 82 3e
       -0.19476038 -0.04061295 0.021060249 0.25531527
000370 73 b6 9b 3d fe 7f ac bd f1 61 65 3e 45 cc b0 3d
       0.07603159 -0.0842285 0.22400643 0.08632711
000380 7d 23 04 be ce 78 a5 bd 8d 05 c9 bd 1c 84 ce 3d
       -0.12904163 -0.08079682 -0.09815512 0.100837916
000390 bb 0e d5 bd db bd 40 be d5 5a 5b 3d 18 b6 f9 bd
       -0.104032 -0.18822424 0.05355342 -0.12192935
0003a0 59 a2 49 bc 70 6e 0b be 8c d6 79 be ca da 9f bd
       -0.012306773 -0.13616347 -0.2439825 -0.078054026
0003b0 54 b0 2b 3d 7e c4 25 be 2a fa eb bd 11 f0 cb bd
       0.041916206 -0.16188237 -0.115223244 -0.099578984
0003c0 3f c4 68 3e af 4a 61 3e 30 c1 0b be 46 06 03 be
       0.22731112 0.22001146 -0.13647914 -0.12795362
0003d0 fb 1b 3d be 77 09 5a be ac fc 0e bd b9 ea 9a 3d
       -0.18467705 -0.21292673 -0.034908935 0.07564301
0003e0 3c ab c1 bd 87 7b f2 3d cd 8a 19 3e 84 1b a1 bd
       -0.094564885 0.11839967 0.14994355 -0.07866576
0003f0 8c 0f f5 3d 56 94 25 bd 6c 08 93 bd 76 45 74 3e
       0.11965856 -0.040424667 -0.07179341 0.23854622

q_head.DAC_block.ff2.bias f4 [16]
000000 be 76 46 be 82 d2 46 be 30 8b 07 3c 2b 50 ac bd
       -0.19381234 -0.1941624 0.008272931 -0.08413728
000010 99 cb 82 3d 92 b2 bd 3d 9f 72 c4 3d 83 d2 61 be
       0.063864894 0.09262575 0.09592175 -0.2205296
000020 bf 0a 7e 3d e9 87 22 bd 5d 63 ef bd 5d 90 15 be
       0.062021967 -0.039680395 -0.11688874 -0.14605851
000030 8c 23 4c be eb ee ea bd 05 de 19 3d 6b ea 0a 3d
       -0.19935435 -0.11471351 0.03756525 0.033914965
