checkpoints/q-mamba/20240831_083609/checkpoint-10.pt (torch, 103287 bytes, 52 tensors)

q_head.DAC_block.mamba_blocks.0.A_log f4 [28, 32]
000000 ae 9b e4 ba 6f 33 30 3f 28 65 8b 3f c8 f1 af 3f
       -0.0017441416 0.6882848 1.0890245 1.3745661
000010 e9 eb cc 3f e8 30 e4 3f 39 58 f8 3f 53 bc 03 40
       1.6009494 1.7827425 1.9401923 2.0583694
000020 30 f3 0b 40 4b 72 12 40 04 48 18 40 70 b0 1d 40
       2.186718 2.288226 2.3793955 2.463894
000030 73 e7 22 40 82 7d 27 40 d4 aa 2b 40 1d 6f 2f 40
       2.5453765 2.6170354 2.6823015 2.7411568
000040 6e d9 33 40 2d 48 37 40 d7 eb 3a 40 bc ad 3d 40
       2.8101459 2.8637803 2.9206445 2.963729
000050 ff f4 41 40 55 15 44 40 bf a5 46 40 e1 d8 48 40
       3.0305784 3.063802 3.1038663 3.1382372
000060 1c 2e 4c 40 ad e0 4e 40 81 aa 50 40 d9 cb 53 40
       3.1903143 3.2324631 3.2604067 3.3093169
000070 7e 51 55 40 3f e0 57 40 ef 6e 59 40 1a 2e 5c 40
       3.333099 3.373062 3.3973958 3.4403138
000080 24 ae 01 bd c4 e5 25 3f 6d 8e 85 3f 52 07 aa 3f
       -0.031660214 0.6480372 1.043409 1.3283484
000090 78 70 c7 3f 99 be de 3f 4a 80 f3 3f 0b d2 00 40
       1.5581198 1.7401916 1.9023526 2.01282
0000a0 91 3d 09 40 ae b0 0f 40 c8 6c 15 40 ec e4 1a 40
       2.1443827 2.2451587 2.3347645 2.4202223
0000b0 34 27 20 40 97 b7 24 40 a0 f3 28 40 1c be 2c 40
       2.5023928 2.5737054 2.6398697 2.6991034
0000c0 e2 2d 31 40 fe 92 34 40 13 3f 38 40 0e 27 3b 40
       2.7684255 2.8214717 2.8788497 2.9242587
0000d0 d8 81 3f 40 8c 7d 41 40 d6 34 44 40 4b 6d 46 40
       2.9923 3.0232878 3.0657248 3.1004207
0000e0 9d b7 49 40 d0 5f 4c 40 1f 32 4e 40 e1 57 51 40
       3.1518319 3.193348 3.2218091 3.2709887
0000f0 ac e6 52 40 53 72 55 40 99 0c 57 40 a7 ea 59 40
       3.295329 3.3351028 3.360144 3.404947
000100 17 27 70 bd cb b7 1f 3f 7d 9d 82 3f 3a 3a a7 3f
       -0.05863103 0.6238982 1.0204312 1.3064644
000110 74 01 c5 3f fe fb dc 3f 74 aa f1 3f bd 3c ff 3f
       1.5391068 1.7264402 1.8880143 1.9940411
000120 7a 45 08 40 93 de 0e 40 94 5a 14 40 5c ef 19 40
       2.1292405 2.2323349 2.3180285 2.4052343
000130 f5 40 1f 40 8b c5 23 40 db 0e 28 40 d3 d4 2b 40
       2.4883397 2.558932 2.6259067 2.6848648
000140 a7 60 30 40 21 b8 33 40 d5 72 37 40 59 67 3a 40
       2.7558992 2.8081133 2.8663838 2.9125578
000150 37 25 3f 40 e5 b8 40 40 ec 97 43 40 0d b1 45 40
       2.9866464 3.011285 3.0561476 3.0889313
000160 e9 3c 49 40 45 c1 4b 40 d6 88 4d 40 05 c7 50 40
       3.1443427 3.1836712 3.2114768 3.2621472
000170 6d 52 52 40 88 f3 54 40 43 7d 56 40 43 8e 59 40
       3.2862809 3.327364 3.3513954 3.399308
000180 99 5b 02 bb dd 16 30 3f 47 5c 8b 3f 42 ef af 3f
       -0.0019891022 0.68784887 1.0887536 1.3744891
000190 16 e5 cc 3f 7f 2f e4 3f c6 53 f8 3f cb cf 03 40
       1.6007411 1.7826995 1.9400566 2.0595577
0001a0 ca f6 0b 40 dd 78 12 40 91 5a 18 40 6d c8 1d 40
       2.1869378 2.288627 2.3805277 2.465358
0001b0 ed fd 22 40 a7 98 27 40 4c ce 2b 40 83 a6 2f 40
       2.5467484 2.6186922 2.6844664 2.744538
0001c0 dd f9 33 40 86 73 37 40 9f 10 3b 40 69 de 3d 40
       2.8121254 2.866426 2.9228895 2.9666998
0001d0 08 05 42 40 75 41 44 40 79 d8 46 40 33 29 49 40
       3.031557 3.0664952 3.1069624 3.1431396
0001e0 3c 5e 4c 40 ed 0b 4f 40 db f0 50 40 ab f5 53 40
       3.1932516 3.235103 3.2647007 3.3118694
0001f0 43 93 55 40 be 12 58 40 9c b5 59 40 e7 59 5c 40
       3.3371131 3.376144 3.4017096 3.4429872
000200 77 54 3e bd d8 06 22 3f ab 7e 83 3f a3 f4 a7 3f
       -0.04646727 0.6329169 1.0273031 1.3121532
000210 61 a4 c5 3f df 44 dd 3f 5a e9 f1 3f dc 71 ff 3f
       1.544079 1.7286643 1.8899338 1.9956622
000220 84 68 08 40 5f ef 0e 40 f8 6b 14 40 d3 f2 19 40
       2.1313791 2.23336 2.31909 2.4054458
000230 ad 43 1f 40 db bb 23 40 4c f4 27 40 c4 9f 2b 40
       2.4885056 2.5583408 2.6242857 2.6816263
000240 dd 47 30 40 e4 86 33 40 cb 4d 37 40 e6 24 3a 40
       2.7543862 2.805108 2.864123 2.908502
000250 8c 25 3f 40 e9 75 40 40 91 51 43 40 41 40 45 40
       2.9866667 3.0071967 3.0518534 3.0820467
000260 44 21 49 40 ec 7d 4b 40 83 07 4d 40 74 86 50 40
       3.1426554 3.1795607 3.2035835 3.2582064
000270 a3 d3 51 40 4d bb 54 40 9b e8 55 40 b5 81 59 40
       3.2785423 3.323932 3.342322 3.3985417
000280 bd cb ac bc 0b a9 28 3f 15 f6 86 3f 28 6e ab 3f
       -0.021093244 0.6588294 1.0543848 1.3392992
000290 06 be c8 3f fa f2 df 3f 0f b4 f4 3f b0 87 01 40
       1.568299 1.7496026 1.911745 2.0239067
0002a0 34 de 09 40 83 42 10 40 cf 18 16 40 b7 87 1b 40
       2.1541872 2.2540596 2.3452642 2.4301584
0002b0 e4 c4 20 40 cc 5b 25 40 f2 96 29 40 43 83 2d 40
       2.5120173 2.5837278 2.649838 2.7111366
0002c0 7f c6 31 40 af 3d 35 40 aa db 38 40 7b c6 3b 40
       2.7777402 2.8318899 2.8884072 2.9339893
0002d0 43 f0 3f 40 e6 1c 42 40 7c c6 44 40 9d 43 47 40
       2.9990394 3.0330138 3.0746145 3.1135018
0002e0 b5 2d 4a 40 89 ee 4c 40 36 ed 4e 40 bc e1 51 40
       3.1590397 3.202059 3.2332282 3.2794027
0002f0 09 89 53 40 8a ec 55 40 c0 b8 57 40 93 4f 5a 40
       3.305239 3.3425622 3.3706512 3.4111068
000300 8b a3 26 bd 4b 39 23 3f 8a 7c 84 3f 82 0c a9 3f
       -0.04068331 0.637593 1.0350506 1.3206942
000310 d0 f3 c5 3f f5 38 dd 3f 3c 45 f1 3f 4e 95 00 40
       1.5465031 1.7283007 1.8849254 2.0091128
000320 78 73 08 40 43 03 0f 40 ef 15 15 40 c1 97 1a 40
       2.1320477 2.234574 2.3294637 2.4155123
000330 1f c5 1f 40 fb 80 24 40 db e1 28 40 1c 22 2d 40
       2.4964063 2.5703723 2.6387851 2.7052069
000340 76 eb 30 40 a8 a4 34 40 a8 29 38 40 95 52 3b 40
       2.7643714 2.8225498 2.8775425 2.9269154
000350 e5 cb 3e 40 15 91 41 40 36 45 44 40 c1 48 47 40
       2.9811947 3.02448 3.0667243 3.1138155
000360 92 c4 49 40 bb 52 4c 40 8f c8 4e 40 61 1f 51 40
       3.1526227 3.1925495 3.2309911 3.2675402
000370 43 5e 53 40 9f 82 55 40 59 ae 57 40 b2 a5 59 40
       3.3026283 3.3360975 3.3700163 3.4007382
000380 b6 e5 bd bd 49 15 19 3f 5c 36 80 3f 99 4f a5 3f
       -0.092723295 0.59798104 1.0016589 1.2914916
000390 5d 07 c3 3f 51 bb da 3f c9 d5 ef 3f 81 9d fe 3f
       1.5236622 1.7088414 1.8737117 1.9891816
0003a0 0b a6 07 40 ef 3c 0e 40 09 f8 13 40 b3 91 19 40
       2.1195095 2.222469 2.3120139 2.3995178
0003b0 d4 e8 1e 40 6a 7b 23 40 5f db 27 40 9e d4 2b 40
       2.4829607 2.5544076 2.6227643 2.6848521
0003c0 a7 1c 30 40 40 8f 33 40 68 30 37 40 55 49 3a 40
       2.7517488 2.8056183 2.8623295 2.9107258
0003d0 52 c6 3e 40 2c 96 40 40 26 66 43 40 df fa 45 40
       2.9808545 3.0091658 3.0531096 3.093437
0003e0 0e ef 48 40 59 9f 4b 40 6e 9e 4d 40 5b b1 50 40
       3.1395907 3.1816008 3.2127948 3.260825
0003f0 0e 53 52 40 d5 c3 54 40 ef 8d 56 40 e8 79 59 40
       3.2863193 3.3244526 3.352413 3.3980656

q_head.DAC_block.mamba_blocks.0.D f4 [28]
000000 45 0d 90 3f 9f cf 8f 3f 78 b0 8f 3f 7e 65 79 3f
       1.125405 1.1235236 1.1225729 0.9742049
000010 f4 b5 8e 3f bb 7b 8b 3f d5 92 8c 3f d1 73 90 3f
       1.1149278 1.0897135 1.098231 1.1285344
000020 bc 5a 8d 3f ce 47 8c 3f 80 e6 8d 3f fa cb 8e 3f
       1.1043315 1.0959413 1.1085968 1.1155999
000030 d8 c2 8e 3f ca cf 8e 3f 83 4c 8c 3f 7a 29 8f 3f
       1.1153212 1.1157162 1.096085 1.1184533
000040 72 57 8f 3f 6f 90 90 3f 61 4a 89 3f 76 1e 87 3f
       1.1198561 1.1294078 1.0725824 1.0556171
000050 21 86 8b 3f b8 fd 8f 3f f4 e1 88 3f 8c 3a 8d 3f
       1.0900308 1.1249304 1.0693955 1.1033492
000060 e5 45 8e 3f 4c f7 8b 3f 38 72 8f 3f b3 2d 90 3f
       1.111508 1.0934844 1.1206732 1.1263946

q_head.DAC_block.mamba_blocks.0.in_proj.weight f4 [56, 14]
000000 23 95 9f bd ea e1 44 3e c9 8b e9 3d 6b 2e 23 3e
       -0.077921174 0.19226804 0.11403615 0.15935676
000010 86 b7 96 3e ef 70 bb 3e e4 de 46 3e 86 ae bb 3d
       0.29436892 0.366096 0.19420964 0.09164147
000020 80 91 cf 3e 07 51 1a 3e e9 69 cd 3d 51 5e c7 bd
       0.40540695 0.15069972 0.100299664 -0.09734786
000030 7f 33 12 3e f8 fd 14 be 77 be 8b 3e 5d 29 f0 bd
       0.14277457 -0.14550006 0.2729375 -0.117266394
000040 15 1c b5 3e 79 bb f8 3d 8e aa 94 3e 1d 25 a4 3e
       0.35372987 0.121451326 0.29036373 0.32059565
000050 5f ae 86 3e 4c 6c 7a bd a8 ff b1 3c 30 4d 66 3e
       0.2630491 -0.061138436 0.021728352 0.22490382
000060 80 05 16 3e 83 47 3a be ab 18 21 3e 78 d5 86 3e
       0.14650536 -0.18191342 0.15732066 0.2633474
000070 6c 16 74 be 65 99 b3 be 96 f7 c3 be 8f e3 73 be
       -0.23836678 -0.35077968 -0.3827483 -0.23817275
000080 c8 30 4c be 33 9c aa be f7 9c 2f be 9b 45 cd be
       -0.19940484 -0.33322296 -0.17149721 -0.40092167
000090 21 32 4f be ef fb 3d bc a6 e4 06 3e db 2c c9 3d
       -0.20233966 -0.01159571 0.1317316 0.098230086
0000a0 6e bb 47 be c9 a9 5c be 53 03 96 bb 11 c7 09 be
       -0.19505093 -0.21549143 -0.004578033 -0.13454844
0000b0 9b c3 01 be 82 54 42 3e 3e 62 8f be d7 53 0f be
       -0.12672274 0.1897755 -0.2800464 -0.13996826
0000c0 0c 73 35 3e d9 e1 68 3e 1b e0 db bb 31 1a 9e 3d
       0.17719668 0.22742404 -0.006710065 0.07719839
0000d0 1f 63 18 3e a2 a2 34 3e 01 86 88 be 81 d4 a0 be
       0.14881562 0.17640164 -0.26664737 -0.31412128
0000e0 f7 33 24 bc bf dc 49 3e 53 e4 76 3e c0 c6 97 3e
       -0.010022155 0.19713114 0.24110536 0.29643822
0000f0 f7 f1 a4 3e 54 7d 92 bc 15 d6 6c 3e 19 b4 95 3d
       0.32215855 -0.017882027 0.23128541 0.073097415
000100 b8 53 0a 3c f8 2a 37 be 9c d3 8a 3e 84 14 93 bd
       0.008442812 -0.17887485 0.2711457 -0.071816474
000110 8a 5c 1f bc e3 99 16 3e 41 c1 bf 3e f9 4f 4d bd
       -0.009726653 0.1470714 0.3745213 -0.050125096
000120 08 b1 87 3e b7 fa f6 bd 5a 68 10 be d5 47 ab bd
       0.26502252 -0.12059539 -0.14102307 -0.0836331
000130 7b 6e 30 3d 82 88 7a 3e 79 31 93 3e a5 82 45 be
       0.043074112 0.24466136 0.28748682 -0.19288118
000140 80 03 8d 3e 55 b9 a5 3e 71 dc 74 3e f2 31 8c 3e
       0.27541733 0.3236796 0.23912217 0.27381855
000150 ba 85 a4 3e 08 6f f8 bd fa ff c0 3d db 15 81 3e
       0.32133275 -0.121305525 0.09423824 0.25211987
000160 a7 db 01 be 1d 05 38 3e 2f cd 9f 3e 91 6b 97 3b
       -0.12681447 0.179707 0.3121123 0.004620977
000170 78 96 de bd b2 24 d2 3d 89 b2 8b 3e fb a3 b4 3e
       -0.108685434 0.10260905 0.2728465 0.35281357
000180 82 a3 11 be a0 bc 73 3e d7 c3 bb bd 1b 32 ab bd
       -0.1422253 0.23802423 -0.09168213 -0.08359166
000190 c9 0c 7f bd 6b 1a bc ba 99 a0 19 be 80 92 b3 be
       -0.062268052 -0.0014351135 -0.1500267 -0.35072708
0001a0 c3 b6 9c be 92 3d e0 3d 69 b1 cc bc 27 c3 c7 bd
       -0.30608186 0.109492436 -0.02498694 -0.09754019
0001b0 bc 3c 12 be f1 a6 a1 bd c8 ed 80 be 8d 4e e1 3d
       -0.14280981 -0.0789317 -0.25181413 0.110013105
0001c0 d5 04 a8 bd b8 05 9b 3d 9d c3 d6 3d 8c cf 23 be
       -0.08204047 0.0756945 0.10486529 -0.15997142
0001d0 1f 4e 96 bc 37 29 88 bb 0e ca 80 be a3 7a 46 be
       -0.018347798 -0.004155304 -0.25154155 -0.1938272
0001e0 13 22 6d 3e 16 69 59 3e 74 da 66 3e 7e e5 8a 3e
       0.2315753 0.21231493 0.22544271 0.27128214
0001f0 51 15 72 3e 11 87 92 3e 1e a3 26 3e 27 14 72 be
       0.23640944 0.28618672 0.16273162 -0.236405
000200 e2 69 17 3e 27 38 90 be 78 70 20 3e 72 06 bd 3d
       0.14786485 -0.2816784 0.15667903 0.09229745
000210 69 68 36 be 49 f5 41 3b be 2e 56 3e 2b 4f 8a 3c
       -0.17813267 0.0029595664 0.20916268 0.016883453
000220 6d 6a 3a be b8 b3 01 bd 72 9d 93 3e 54 a2 a0 3e
       -0.1820466 -0.031665534 0.2883106 0.31373847
000230 d9 f8 89 bd 33 e1 b6 3e e2 81 a4 bd 3a 0c dd bd
       -0.06736917 0.35718688 -0.08032586 -0.10793348
000240 d1 2d 86 bd 8b be f6 3d 19 c5 86 bd 3c 09 44 bd
       -0.065517075 0.12048062 -0.06580562 -0.04786037
000250 50 8a 98 3e 38 9a 7b be 1a e7 8a bd 7e 5a 5c 3e
       0.29793024 -0.24570549 -0.067823604 0.21518895
000260 57 80 9d 3e 10 90 8b 3e f9 e3 fc 3d 56 af cf bd
       0.30761978 0.27258348 0.1234817 -0.101408646
000270 06 55 db bd 39 5f 4c 3e d1 06 83 3d a6 36 38 3c
       -0.10709576 0.199582 0.063977845 0.011243498
000280 e2 49 44 3e fd c1 fe bd 41 17 be 3e 65 65 73 3e
       0.19168809 -0.12439344 0.37127116 0.23769148
000290 74 02 a8 3e 17 a6 98 3e 32 df bd 3d 19 a5 9b 3d
       0.32814372 0.29814216 0.09271087 0.07599849
0002a0 cb 2e 0b 3e 7a 23 14 3e 6a 71 1d be bc 62 ed bd
       0.13592069 0.14466658 -0.15375295 -0.11591098
0002b0 29 96 8e be ed 70 84 3d 5d c2 11 be 63 30 17 be
       -0.27848938 0.064668514 -0.142343 -0.14764552
0002c0 bb 7f a8 bd 9d a4 00 3e 8a a2 b4 3c f6 1b a2 bd
       -0.08227488 0.12562795 0.02205016 -0.079154894
0002d0 17 2f 22 3e 65 41 9c 3d eb dd 55 bd 86 7e d5 3b
       0.15838276 0.076296605 -0.05221359 0.006515327
0002e0 76 fb e1 3c 1f f8 ce 3d c0 6a 85 3e 58 4d 6b 3e
       0.027585726 0.10105919 0.26058006 0.22978723
0002f0 7b b3 9e 3d c5 6f ac 3e 37 de b9 3e 31 30 53 be
       0.07749077 0.33679023 0.3630235 -0.20623852
000300 c7 43 96 3e 46 fc a0 3d 39 f2 31 3e 65 1b 99 3d
       0.29348585 0.07860617 0.17377557 0.07475928
000310 2e c9 80 bd 79 85 a2 be 79 09 85 be 8f d0 17 be
       -0.06288372 -0.31742457 -0.2598379 -0.14825653
000320 36 2f 9b 3b cb c9 37 be 8c 83 90 be ca 1f 95 be
       0.0047358526 -0.17948072 -0.28225362 -0.29125816
000330 5d dd c3 3d fb 3c 45 be 1b 2f 10 3e 6e 5b 9a be
       0.09563706 -0.19261543 0.1408047 -0.3014788
000340 94 e3 ad be 51 b1 01 bd 7c 6d a5 bd a1 9a d1 bd
       -0.3396269 -0.031663243 -0.08077523 -0.10234571
000350 96 b9 85 3e 5c da 5e 3e ce ee 46 3d 8f 72 9b 3e
       0.26118153 0.21762985 0.048567586 0.3036084
000360 ca e2 71 3d 5b 38 b1 3e 61 10 64 3e 3e 13 67 3e
       0.059054174 0.34613308 0.22271873 0.22565934
000370 8d d7 3d 3e 57 43 fd 3c c2 e3 28 3e a0 9a 2e 3d
       0.18539257 0.0309159 0.16493133 0.04262793
000380 b5 00 45 bc df b8 09 bc 09 d0 d0 be 20 aa 10 bd
       -0.012024094 -0.008405893 -0.40783718 -0.035318494
000390 34 6e 67 be ff 80 58 be 60 9c 14 3d e2 e3 8e bd
       -0.22600633 -0.21142958 0.036281943 -0.06977059
0003a0 d6 5a 10 be 30 63 0d bd 5b 5d 9b be 16 59 50 bd
       -0.14097151 -0.03451842 -0.30344662 -0.05086621
0003b0 b5 04 0c bd b3 90 bc bd 0b 86 90 3d 2d 6b 31 3e
       -0.034184176 -0.09207287 0.07056817 0.1732604
0003c0 cc 9b 5c bc 75 d4 5f 3e f9 ef e7 bd fe 87 a5 3d
       -0.013464879 0.2185839 -0.11325068 0.08082579
0003d0 66 9b 3b 3e 4b 35 12 3e 27 43 35 3e 4d ad 9e bd
       0.18320999 0.14278142 0.17701398 -0.07747898
0003e0 ef a1 28 3e 9e 0b e9 bb 38 db bc bc f3 f6 b8 3e
       0.16468023 -0.0071119806 -0.02305375 0.36125907
0003f0 72 48 7b be d6 55 6e be 1a f5 8e be 0a 22 36 3e
       -0.24539354 -0.23274931 -0.27921373 0.17786422

q_head.DAC_block.mamba_blocks.0.conv1d.weight f4 [28, 1, 4]
000000 40 66 2d 3e 4c 90 0c 3e 3c bd c0 be 69 8c 0b 3f
       0.16933537 0.1372692 -0.37644374 0.54511124
000010 6c 53 2c 3e 5a f0 b5 be 89 c6 0b bf 62 80 02 be
       0.16828698 -0.35534936 -0.54599816 -0.12744287
000020 9e b0 93 be 78 a8 7e 3e 9d d2 e5 3e 09 f2 14 3f
       -0.28845686 0.24868953 0.44887248 0.58181816
000030 9c 6c 8c be 64 23 e8 be 37 85 0e bf 7e 21 b1 3e
       -0.27426612 -0.453395 -0.5567202 0.34595865
000040 1e 03 e2 be c0 91 cb 3e 92 35 a3 3e e7 d5 04 bf
       -0.44143003 0.39759636 0.31876808 -0.5188889
000050 92 45 a9 be 0c 8c ad be 1c 14 be 3d 96 e9 e7 3e
       -0.3306089 -0.3389591 0.09281179 0.452954
000060 e0 0f 91 3d 44 3a 42 be e3 fa 75 3d a8 62 11 3f
       0.07083106 -0.18967539 0.060053717 0.5679116
000070 30 3c 78 be 20 69 3c bd 3a 90 bd be 5e 26 93 be
       -0.2424171 -0.045998693 -0.370241 -0.2874021
000080 6a d0 83 3e 10 5b 0e be 1d 80 9c 3e dd ba 03 be
       0.25744945 -0.13901925 0.30566493 -0.12864251
000090 64 55 95 3e 64 9a 02 3e eb 9f c6 be c3 ae 28 3e
       0.2916671 0.12754208 -0.38793883 0.16472916
0000a0 c4 27 9b be 20 5c af 3d cb 98 4c 3e ad 5e d0 3e
       -0.30303776 0.08562493 0.19980161 0.40697232
0000b0 30 e0 2b 3d 1e 39 8d be bd e9 2f 3d ca d7 e0 3e
       0.04196185 -0.2758264 0.04294752 0.43914634
0000c0 20 a3 a2 bc c0 63 3f 3d 44 50 02 bf 42 2c b6 3d
       -0.019853175 0.04672599 -0.50903726 0.0889516
0000d0 10 db c6 3e be ac ce 3e 26 12 fe be 54 ca 30 be
       0.38839006 0.40366167 -0.4962322 -0.17264682
0000e0 6c 24 d6 be f2 ab 9d 3e 4e f8 31 be d7 65 18 bf
       -0.41824663 0.30795246 -0.17379877 -0.59530395
0000f0 d6 d7 93 3e 14 2e 29 be f9 f8 ac be 3a a3 12 3f
       0.28875607 -0.16521484 -0.337837 0.57280314
000100 38 e5 9c be 20 49 1c 3d f9 5c 34 3b da 41 db 3e
       -0.3064363 0.038155675 0.0027521236 0.42823678
000110 40 32 32 bc 42 f1 dc be 7d fe b0 3e 1a 87 a9 3e
       -0.010876238 -0.43152815 0.3456916 0.33110887
000120 30 94 b7 3e 78 ab 58 be e2 0c 99 3e 17 b9 72 3e
       0.35855246 -0.2115916 0.2989264 0.23703419
000130 50 c0 08 be 0c 6c 32 be a1 be 0c 3e f6 eb 01 3e
       -0.13354611 -0.17424029 0.13744594 0.12687668
000140 68 53 5c 3e 00 f9 cb 3d 9e 3d e9 be 28 4a df 3e
       0.21516192 0.09959602 -0.45554823 0.43611264
000150 f4 ad a1 be 10 37 63 3d 42 83 ad be 92 3f ba 3e
       -0.31578028 0.055472434 -0.33889204 0.36376625
000160 7c fd 82 3e 58 40 a3 3d 40 95 10 bc b7 22 06 bf
       0.25584018 0.07971257 -0.0088246465 -0.5239672
000170 fa cf 99 3e 5c d7 69 3e 90 88 d8 3e 3f da b1 3e
       0.30041486 0.2283606 0.4229169 0.3473682
000180 a0 5d de 3c e8 ac 06 be 10 2f e0 bc c0 20 9d be
       0.027144253 -0.13151896 -0.027366191 -0.3068905
000190 4c 42 a5 be 84 7b 4f 3e a4 26 18 bf 4d 3b b6 be
       -0.32277143 0.20261961 -0.5943396 -0.35592118
0001a0 e2 da a0 3e 5c 3c 72 be 61 c9 d6 be 69 a7 87 bd
       0.31416994 -0.23655838 -0.41950515 -0.06623728
0001b0 68 80 eb be 40 b3 83 bc ae f9 ad be e9 ac bf 3e
       -0.45996404 -0.016076684 -0.33979553 0.37436607

q_head.DAC_block.mamba_blocks.0.conv1d.bias f4 [28]
000000 13 ea 01 3f 7c 9e a8 be 1c f5 cf 3d 10 3b d0 be
       0.50747794 -0.32933414 0.10154173 -0.4067006
000010 dd 03 13 bf 68 a8 95 3e 86 34 1a 3e de 4b fe 3e
       -0.5742777 0.29230046 0.15059099 0.49667257
000020 8d 24 c5 be a4 fc e0 3e b6 d1 03 3f 08 52 f0 3e
       -0.3850445 0.4394275 0.5149187 0.46937585
000030 ed 47 c8 3e 47 0f b2 be f9 ab b7 3e 1d ab f0 3e
       0.39117375 -0.3477728 0.35873392 0.4700555
000040 b8 29 95 be a7 92 19 3f 37 f2 b4 be 10 9f 1e be
       -0.2913339 0.599894 -0.35341045 -0.15490365
000050 1b 63 29 be b5 6e e4 be aa 10 97 bd f0 04 d9 be
       -0.16541712 -0.44615713 -0.07376225 -0.4238658
000060 7a 38 21 3f 43 86 bd be 00 36 e5 3e f5 14 94 3e
       0.629768 -0.37016496 0.4476776 0.2892224

q_head.DAC_block.mamba_blocks.0.x_proj.weight f4 [65, 28]
000000 02 76 22 be 99 3d 89 3e 61 d6 a6 3b 04 5f 70 3c
       -0.15865329 0.26804808 0.005091474 0.014671091
000010 70 c5 e3 3d c9 6f 3f be ce 24 b0 bd 20 5c 3a be
       0.111216426 -0.18694986 -0.0860077 -0.18199205
000020 d4 a5 6c 3e 64 e5 86 be dc 4a da bd e6 63 94 be
       0.23110133 -0.26346886 -0.106588095 -0.28982466
000030 6e b0 b6 be 25 95 95 3e 36 30 a9 be 2d e0 b5 be
       -0.3568148 0.2921535 -0.33044595 -0.35522595
000040 c1 07 05 3e bb 2a 13 bc af 4a 7a 3e 04 67 9c 3e
       0.12991239 -0.008982356 0.24442552 0.30547345
000050 c9 31 a9 3e 1b 0f 86 bc b7 ee 02 3e ab 9b 48 3d
       0.33045796 -0.016364625 0.12786375 0.04897658
000060 bd 5c 60 bc 3b 85 31 3e 33 27 f6 bc f0 f3 c8 bc
       -0.0136939855 0.1733598 -0.030047989 -0.024530381
000070 e3 07 25 3e b1 ed 81 be ea c8 6c be a1 c8 14 be
       0.1611629 -0.25376657 -0.23123518 -0.14529659
000080 0b ff a4 3b cc ce eb bc 44 cd 65 3e 77 5c 55 bc
       0.0050352863 -0.028785132 0.22441584 -0.013022534
000090 c7 bf 08 be 2c 54 c6 3d ff 0a d3 3d 82 b2 a4 3e
       -0.13354407 0.09684023 0.10304832 0.3216744
0000a0 66 30 06 3d ec 75 65 bd df 0f 9f 3b 72 ab 06 3e
       0.032761 -0.056020662 0.004854187 0.13151339
0000b0 b6 9b 63 be c4 b0 a1 3e b5 87 c7 bd 5e 19 cb bc
       -0.22227368 0.31580174 -0.09742681 -0.02479237
0000c0 7f 6c 78 be c9 1f 3f be 23 d2 11 be fb 29 1a be
       -0.24260138 -0.18664469 -0.14240317 -0.15055077
0000d0 e7 5d 18 3d 6e b4 88 3c 06 d9 9a 3e 13 e6 9d 3d
       0.037198927 0.016687598 0.302437 0.07709899
0000e0 ca 43 6a 3e f8 61 2f be b2 ed e4 bb bb 23 60 be
       0.22877422 -0.17127216 -0.0069863433 -0.2188863
0000f0 46 e7 6b bd e4 e7 1c 3e e7 1e 61 3e f9 d9 96 3e
       -0.057593606 0.15322834 0.21984445 0.29463175
000100 d5 22 a5 be ea 8b 6d bc 5e 49 9a 3c 4a 45 95 3e
       -0.32253137 -0.01449869 0.018833812 0.29154426
000110 bf 51 6b 3e ee bd 26 3d 63 9b 5f 3e f8 14 ba 3d
       0.22980402 0.040708475 0.21836619 0.09086031
000120 10 b4 7e be cd 2f 73 3d fa ad 64 be 01 ff 32 be
       -0.24873376 0.05937176 -0.22331992 -0.17480089
000130 de d4 8d bd f0 c0 7c be 5d ad 36 be f6 51 2c be
       -0.06925367 -0.24682975 -0.1783957 -0.1682814
000140 00 e6 ad bc b9 b7 71 be bf 90 00 3d 2b 16 01 3e
       -0.021227837 -0.23605241 0.03138804 0.12606113
000150 75 88 a9 be a6 a4 85 bc 24 bc 66 3e ba 3b 5d 3e
       -0.3311192 -0.016313862 0.22532707 0.21604815
000160 a9 dd 8f 3e 22 70 23 3d 6e 25 0a 3d 2c d6 a0 bd
       0.280988 0.03990186 0.033727102 -0.0785335
000170 1a 90 08 3e d3 19 05 bd 4a bc 80 be a9 9c 60 bd
       0.1333622 -0.03249533 -0.25143653 -0.054836903
000180 f1 8b ca bc f9 af 34 bd 5d 27 a5 be 00 66 d1 bd
       -0.024724932 -0.044113133 -0.32256594 -0.10224533
000190 83 37 8b 3e 89 ae 31 be 85 da 4d 3e 0d e4 ef 3d
       0.2719079 -0.17351736 0.2010289 0.11713419
0001a0 c2 25 0d bd a4 96 75 3c eb 24 00 3e 45 54 8e 3b
       -0.034459837 0.014989529 0.12514083 0.004343542
0001b0 6a ef 9f be bc 16 82 3d 7d 33 ec bc 0b 6f 8b be
       -0.31237346 0.063519925 -0.028833145 -0.27233157
0001c0 c5 c4 2f 3d 28 d7 44 be fd 54 1b be 91 6b 9d be
       0.042912263 -0.192227 -0.15169139 -0.3074613
0001d0 9f dc f0 3c 36 e5 fa 3c 29 96 58 3e be 40 45 ba
       0.029402075 0.030626874 0.21151032 -0.0007524601
0001e0 2a b2 8e be e1 0f 0a 3c c3 ec 8f 3e 34 ce a0 3e
       -0.27870303 0.008426637 0.28110322 0.3140732
0001f0 b5 36 71 3e 31 82 c4 bd 8d 67 96 3e f1 ce 9f 3e
       0.23556025 -0.095951445 0.29375878 0.3121257
000200 3f 7c 85 bc 47 66 85 3d a2 b3 8c be 68 26 f4 bd
       -0.016294597 0.065136485 -0.274808 -0.11921388
000210 05 b2 2e be a7 a1 3f bd c1 4c 5f be 6b e5 36 be
       -0.17060097 -0.046785023 -0.21806623 -0.17860954
000220 e1 a0 91 3e 53 58 91 bd 85 d5 68 3e c9 6f 8e 3e
       0.28443053 -0.07096925 0.22737701 0.2781966
000230 cd 58 8e 3d 8a c9 ea bd 3c e5 a8 be 66 c1 7e bd
       0.06950531 -0.11464222 -0.32987392 -0.062196158
000240 ad 8b cb 3c ce 26 2f 3c 8f 1d 20 3e e5 3b 1b 3e
       0.024846876 0.010690404 0.15636276 0.15159567
000250 47 f1 ff bd f0 07 21 bd cf 64 15 3e 2a bc 8e bc
       -0.12497192 -0.03931421 0.14589237 -0.017423708
000260 8a 59 a7 3e 03 12 85 be 20 16 2b 3e 76 51 6b 3e
       0.326855 -0.25990304 0.16707659 0.22980294
000270 1a 68 53 be 54 26 8e 3e 8f 05 aa bd b3 bc 96 be
       -0.2064518 0.27763617 -0.083018415 -0.2944084
000280 bc 40 3f be e4 eb 9b be e1 9b ef bd 2b 25 01 be
       -0.18677038 -0.30453408 -0.116996534 -0.12611835
000290 d1 b6 0d 3d 46 db 90 be b7 ff e1 3d b4 0d a6 3d
       0.034598175 -0.28292292 0.11035102 0.081080824
0002a0 f0 37 83 3e fc e8 10 3c 6c 0a 67 be 05 17 20 be
       0.25628614 0.00884461 -0.2256257 -0.15633781
0002b0 cc 83 39 be 4d bb 59 3e 94 87 62 bd 96 60 90 3e
       -0.18116683 0.21262856 -0.05530508 0.2819869
0002c0 a9 48 0a be 4f 40 4a 3e 9b 99 62 3e 4c e0 76 3e
       -0.1350428 0.19751094 0.22128908 0.24109
0002d0 b2 72 af 3d fe 61 07 bd 32 c5 94 3e e6 56 23 3c
       0.08566798 -0.033052437 0.29056698 0.009969449
0002e0 e1 4c a8 bc 7a a9 c1 3d 66 96 78 be 01 bc 7e be
       -0.020544471 0.09456153 -0.24276122 -0.24876405
0002f0 56 17 d8 3c ec 92 8b bd 90 28 fa bd 43 75 24 bd
       0.026378315 -0.068151325 -0.12214768 -0.040150892
000300 c4 5f 22 3e 9e 94 26 be 2b e4 4e 3e 72 ad 24 3d
       0.15856844 -0.1626763 0.20204227 0.040204473
000310 29 84 57 be 34 c5 73 3e ca dd 85 bd 75 a2 93 3d
       -0.21046509 0.23805696 -0.065364435 0.072087206
000320 84 4f cc 3d 2f 5e b4 3d f8 10 19 be 47 be 7d be
       0.09976104 0.088070266 -0.1494788 -0.24779616
000330 72 80 4a 3d 00 61 c6 bd 99 bd 61 be 94 66 35 be
       0.0494389 -0.0968647 -0.22044982 -0.17714912
000340 3b 9d 34 be cf 42 8f bd 65 fa 5f be 68 b0 6a bd
       -0.17638104 -0.069951646 -0.21872862 -0.05729714
000350 3f 7d 84 3e 9b f2 73 bd c9 e0 71 3d b3 f0 a7 bd
       0.25876805 -0.05955754 0.059052262 -0.082002066
000360 4f 48 a2 3e 82 e9 d2 3d eb ca 81 3e a1 09 d0 bc
       0.31695792 0.10298444 0.25350127 -0.025395216
000370 f8 ef 9b bd a0 62 e0 3d 94 e0 87 be 25 89 4b be
       -0.0761413 0.10956311 -0.26538527 -0.19876535
000380 a1 d5 ee 3c 43 9a 95 be 74 08 2b be 73 c3 02 be
       0.0291546 -0.29219255 -0.16702443 -0.1276987
000390 cd 2c 89 be f9 8b 88 3e b2 90 e3 3d 64 66 3f 3e
       -0.26791993 0.2666929 0.11111583 0.18691403
0003a0 92 af 4f be 37 cf a5 3e e5 97 af 3d 31 25 95 3d
       -0.20281819 0.32384655 0.085738935 0.07282484
0003b0 d4 7b 81 3e 63 c7 14 be e8 ed 67 3e 0c bb 94 3e
       0.25289786 -0.14529185 0.22649348 0.29048955
0003c0 1a 51 a7 3c 5d 98 cc 3d 51 04 62 be 2a 82 7c bd
       0.020424414 0.099899985 -0.22071959 -0.06164757
0003d0 2e 82 7e be 73 ae 41 be 8d f4 30 be ae 92 3a be
       -0.24854347 -0.18914203 -0.17280789 -0.18220016
0003e0 50 5d 7b 3e f5 75 2e bd 89 8c 7c 3e 4c cc 91 3e
       0.24547315 -0.04259296 0.24662985 0.2847618
0003f0 4e 8c 76 3e 2d c7 8a be 6b ec 3e be f4 56 84 be
       0.2407696 -0.27105084 -0.18644874 -0.2584759

q_head.DAC_block.mamba_blocks.0.dt_proj.weight f4 [28, 1]
000000 7f 12 9e 3e d5 69 60 be 7a be 09 3f 3e bb 0e 3e
       0.30873486 -0.21915372 0.5380627 0.13938615
000010 80 ed 13 bf 47 6e 4f 3f 33 36 6e bf e9 64 87 bf
       -0.5778427 0.81027645 -0.9305145 -1.057767
000020 ac a7 e7 3e 1e 5e 08 3f d4 fb 70 bf 73 d0 83 bf
       0.4524511 0.5326861 -0.9413426 -1.0297989
000030 1e 3e 1b 3f 51 18 0b bf 1a 60 81 bf bb 69 e0 3e
       0.6064166 -0.5433398 -1.0107453 0.43830666
000040 d7 80 58 bf c6 9f e5 3e 93 b1 54 bf 66 4a 27 3f
       -0.84571594 0.4484846 -0.83083457 0.653479
000050 08 c0 65 bf 93 10 6d be f2 d9 00 3e 17 7c 5c bf
       -0.8974614 -0.23150854 0.1258314 -0.86126846
000060 e1 00 8e bf c0 61 89 bc 23 8a 46 3f a5 4e 11 bf
       -1.1094018 -0.016770244 0.7755453 -0.5676063

q_head.DAC_block.mamba_blocks.0.dt_proj.bias f4 [28]
000000 7a 63 cf c0 3e 7e 7b c0 6b 32 10 c0 a0 2c a3 c0
       -6.480893 -3.9295802 -2.2530773 -5.0991974
000010 33 d2 95 c0 ce 40 74 c0 81 b9 91 c0 ca 06 28 c0
       -4.681909 -3.8164554 -4.5538945 -2.6254144
000020 83 36 a5 c0 4a 3d 30 c0 ff 22 c3 c0 50 e6 7c c0
       -5.1629043 -2.7537408 -6.098022 -3.9515572
000030 75 35 5a c0 64 9f 98 c0 80 2a 41 c0 54 4d 37 c0
       -3.4095128 -4.769457 -3.018219 -2.8640947
000040 7a 49 35 c0 78 07 93 c0 4f c0 79 c0 99 5d 9f c0
       -2.8326097 -4.5946617 -3.9023626 -4.9801755
000050 3a ff d6 c0 66 15 60 c0 b7 e3 34 c0 23 2d 87 c0
       -6.7186556 -3.501306 -2.8263986 -4.22426
000060 22 a8 96 c0 38 44 d5 c0 b3 59 c2 c0 e2 11 80 c0
       -4.708024 -6.6645775 -6.0734496 -4.002183

q_head.DAC_block.mamba_blocks.0.out_proj.weight f4 [14, 28]
000000 fa 30 91 be 05 25 1e 3e a1 72 51 3e e3 bb 12 3e
       -0.2835768 0.1544381 0.20453884 0.14329486
000010 4d 71 82 be f3 eb 13 3d 01 69 08 3e 47 28 74 3e
       -0.25477067 0.03611369 0.13321306 0.2384349
000020 ef 1a 8b 3d 66 9b 97 3d f6 c5 51 3e 46 ce b6 3c
       0.067922466 0.07402687 0.20485672 0.022315156
000030 87 73 85 3e 29 0e 9f bc 41 73 a9 bd b1 f2 69 bc
       0.26064703 -0.019415932 -0.08273936 -0.014279054
000040 47 da 14 3e 45 07 1f 3e 13 0e 8d bd cf 72 d1 3c
       0.14536391 0.15530117 -0.0688745 0.02556744
000050 22 52 88 3d 56 86 4b 3e e4 dc fd bc d2 1d 81 3c
       0.066562906 0.19875464 -0.030989118 0.01576129
000060 01 1f 0d be ab 2e 22 be 3c 28 55 bb 56 6f 6c be
       -0.13781358 -0.15838115 -0.0032525202 -0.23089346
000070 85 d3 72 bd e7 0c 06 3e 27 3a 29 bd 2a d6 28 be
       -0.059283752 0.1309086 -0.041315224 -0.16487947
000080 56 1f 82 3d b7 d5 64 be 60 f7 3f 3e 1c 69 14 3e
       0.06353633 -0.2234715 0.1874671 0.14493221
000090 74 69 6c be 8e 90 96 3e d7 c7 8e 3e 48 4e 25 3e
       -0.23087102 0.2940716 0.2788684 0.16143143
0000a0 7b 58 4e bd 67 e5 33 bd 01 9e 04 be 3d d5 83 be
       -0.05037735 -0.043919947 -0.12950899 -0.25748625
0000b0 31 01 a4 3d 36 96 41 3e 14 7c 18 be d3 b3 42 3b
       0.0800804 0.18904957 -0.14891082 0.0029709234
0000c0 11 06 e1 3a 0d e2 94 3d 5c cd 91 3d 5e 9d 93 be
       0.0017167946 0.07269678 0.07119247 -0.28831
0000d0 be 53 5e be 2f 6e a8 3d d6 60 24 be a4 d6 68 be
       -0.21711633 0.08224141 -0.16052565 -0.22738129
0000e0 c3 e5 50 3e 6e d3 79 be 72 d8 cd bd f6 4d 29 3e
       0.20400147 -0.2439706 -0.10051049 0.16533646
0000f0 c7 04 92 3c 13 d5 fc 3b e9 e4 81 be 8c ac a0 bc
       0.017824544 0.00771583 -0.25369957 -0.019613527
000100 60 f7 58 bb da 09 2e be dd d3 33 3c c6 02 30 be
       -0.0033106431 -0.16995946 0.010975805 -0.17188558
000110 9f cc a6 3d e6 9c 78 be 52 a1 4b 3c b7 da 5d 3e
       0.08144497 -0.24278602 0.0124285985 0.21665464
000120 7c 03 60 be d6 57 ff bd 8a f2 1a 3d 18 a9 d4 3d
       -0.21876329 -0.12467925 0.03782896 0.103838146
000130 c5 31 2b 3d 51 ee 62 be 5b 0f 86 bb a4 07 ad 3d
       0.04179551 -0.22161223 -0.004091186 0.08448723
000140 04 ca 20 3e 32 eb 02 3e 13 47 67 3e 5c 33 06 3e
       0.15702063 0.12785032 0.22585706 0.1310553
000150 57 80 4e 3e b3 e1 39 be 2b 8d 76 be 22 ed 31 3e
       0.20166145 -0.18152504 -0.24077289 0.17375615
000160 e4 f1 c0 3d f2 55 17 3e 4f 78 db bd 27 99 50 be
       0.09421137 0.1477888 -0.107163064 -0.20370923
000170 5a 64 fc 3d 3b 8e 09 3d 22 bc 42 3d 3d c1 8f be
       0.12323828 0.033582907 0.0475427 -0.28077117
000180 5b 40 47 be 16 34 d5 bd 8b 89 14 3e 5a 73 8a 3d
       -0.19458143 -0.10410325 0.14505593 0.06760283
000190 b1 8d 0c be 74 68 c5 bd e4 f8 af 3d e0 be 77 be
       -0.13725926 -0.096390635 0.08592394 -0.24193907
0001a0 bc 0b 34 be 3c df c5 bd d9 48 ed bc 73 ff 69 bc
       -0.17582601 -0.09661719 -0.0289654 -0.014282095
0001b0 a1 38 25 3e 0d 40 22 bd 2d c6 99 3d 46 5b 33 3e
       0.16134883 -0.039611865 0.07508502 0.17515287
0001c0 2c e1 b2 bd ce c7 5b bd 26 9c 00 bd 31 41 a6 bd
       -0.087343544 -0.053657345 -0.031398915 -0.08117903
0001d0 26 98 8f be ec 6b a5 bd d7 44 dc 3d 48 f6 5c 3e
       -0.28045768 -0.08077225 0.10755318 0.21578324
0001e0 e7 6c 5c be ce 5b 5a 3e b8 d6 d7 3c 4e 34 5f 3e
       -0.21525918 0.21324083 0.026347503 0.21797296
0001f0 95 32 8c bd 8c 2e 42 3e 09 01 fc bd af eb 8f be
       -0.06845585 0.18963069 -0.12304885 -0.281095
000200 cc 64 0b bd 77 a1 64 3e 68 8d 86 bc c4 0e 7c 3d
       -0.034031674 0.22327219 -0.01642485 0.06153752
000210 0f 93 de 3d ac b1 d6 3d 63 9a 2c 3e c5 af 87 bd
       0.10867893 0.10483107 0.16855769 -0.06625322
000220 15 be 61 be 97 e9 77 be 5f 3e b5 bd e2 16 1b bc
       -0.22045167 -0.24210201 -0.08849787 -0.009465905
000230 a3 56 1f be fd b1 5e 3e dc 79 97 3e cd 95 d9 bd
       -0.15560393 0.21747585 0.2958516 -0.10624275
000240 1f e0 d7 3c d6 00 8b bd b2 18 2e 3e a4 ae f5 3c
       0.026351986 -0.06787269 0.17001608 0.029990502
000250 d4 d1 6c be 9b 87 3f 3e 5f 9b 0b 3e 8b 95 12 3e
       -0.23126918 0.18704073 0.13633488 0.14314859
000260 c8 54 7f 3e 8b 4e 1f 3c 0e 9d dd bd 32 8d 2c be
       0.24934685 0.009723316 -0.108209714 -0.16850737
000270 86 97 cc 3d b7 00 56 3e af 8b b1 bd 8d 77 55 3e
       0.09989838 0.2089871 -0.08669221 0.20846386
000280 2e 6d 28 3e 01 39 68 3e 90 a6 ed 3c d9 64 51 be
       0.16447899 0.22677995 0.029010087 -0.20448627
000290 3e 18 1b bb b5 11 72 be cf 2b 10 bd 96 d5 77 3b
       -0.0023665573 -0.23639567 -0.03519803 0.0037816516
0002a0 89 39 dd 3d c5 77 65 be 7b a3 97 be 58 3f c9 bd
       0.108019896 -0.2240897 -0.29616913 -0.09826535
0002b0 9e 85 35 3e 0c 4c cc 3d bb 3e e9 bd 15 99 9f be
       0.17726752 0.09975442 -0.11388918 -0.3117148
0002c0 06 07 32 3e 56 6a 09 bc f9 21 73 be f6 76 74 bb
       0.17385492 -0.008387169 -0.23743428 -0.0037302352
0002d0 97 37 20 be 78 3f 7b be c1 48 e0 3d 94 2d 1b 3b
       -0.15646206 -0.2453593 0.10951377 0.002367829
0002e0 11 83 1f be 9d 0a 5c be ac 19 8e 3e 62 a1 af bd
       -0.15577342 -0.21488424 0.2775396 -0.08575703
0002f0 bf f4 86 bc 94 5b e2 bc d8 b8 7f bd 70 fe 5f 3e
       -0.016474126 -0.027631558 -0.06243214 0.21874404
000300 68 51 4a bd 5c 90 30 3e b0 d3 93 3e 39 b4 9c 3e
       -0.04939404 0.17242569 0.28872442 0.3060625
000310 84 6b 85 3d 42 91 07 be c7 fe 15 3d 41 f9 02 3e
       0.065146476 -0.13239005 0.036619928 0.12790395
000320 05 fc 5f 3e 70 bf da bc f9 a3 84 3d 00 e9 60 be
       0.21873482 -0.026702613 0.06476588 -0.21963882
000330 ee 73 30 3e ab a2 c9 bd 02 95 81 be 73 31 90 be
       0.17231724 -0.098454796 -0.25308996 -0.28162727
000340 63 8a 92 be c7 31 27 be af 2e 62 3e 16 00 e7 3d
       -0.28621206 -0.16327582 0.22088121 0.11279313
000350 6c 07 7e be 30 ab 18 be 07 60 94 3d b7 51 92 bc
       -0.24807519 -0.14909053 0.07244878 -0.01786123
000360 2c 2c 28 bd 43 fe 3c 3d 79 1b 03 be f6 df 44 3e
       -0.04105775 0.04614092 -0.12803449 0.1922606
000370 e5 94 39 3e ca f4 a8 3d d5 47 37 3e 97 f8 6b 3e
       0.18123205 0.08249815 0.17898495 0.23044048
000380 05 02 56 3e a8 27 0f be d0 d0 d1 bd a1 c7 51 3d
       0.20899208 -0.13979971 -0.10244906 0.05121577
000390 76 c7 c3 3d 4d 64 6c 3e 18 e0 d1 bd 9b 6d 8b bd
       0.095595285 0.23085137 -0.102478206 -0.06808015
0003a0 0d ce c1 3b 9d 44 b3 3c ac 00 f1 bd 56 78 93 be
       0.0059144557 0.021883303 -0.11767706 -0.28802747
0003b0 f3 3b 14 be 5c 45 17 be 6b 05 3b 3e 35 73 33 3e
       -0.14475994 -0.14772552 0.18263786 0.17524417
0003c0 f4 d9 81 be 11 3e 4f 3d ec 19 65 bc b0 c0 22 3d
       -0.25361598 0.0505963 -0.013983231 0.039734542
0003d0 32 b4 ea bd e6 e1 1e be aa 4b 52 be ac e0 8d 3e
       -0.11460151 -0.15515861 -0.20536676 0.27710474
0003e0 3c f7 38 3d d4 f4 72 3d cb 14 74 3e de 11 79 3b
       0.045157656 0.059315518 0.23836057 0.0038005034
0003f0 66 e2 a4 bd ed 08 4e 3e e0 0b 42 3e 2d 46 38 3e
       -0.080509946 0.20120592 0.18949842 0.1799552

q_head.DAC_block.ff1.weight f4 [32, 14]
000000 9c d1 7a be c8 00 37 be 65 8b eb 3d a5 58 bd 3d
       -0.24494022 -0.17871392 0.11501197 0.09245423
000010 fc 49 33 bd f0 df 88 be 5a d9 df 3d ec 91 e2 3d
       -0.04377173 -0.2673335 0.109301284 0.11062989
000020 2d 86 51 3d bb 04 13 3e 5c 2a 33 3e 2c 25 78 3e
       0.05115335 0.14357273 0.17496628 0.2423293
000030 18 89 f4 3d 58 41 83 3e bd 5b 75 3e 3a e7 ca 3d
       0.11940211 0.2563579 0.23960777 0.09907384
000040 82 e3 ad be 25 86 6d be 76 28 a6 3e ec 37 e0 bd
       -0.33962637 -0.23195703 0.32452744 -0.10948166
000050 71 e4 a7 be 76 1b b3 be 7b 78 1d be e0 35 06 be
       -0.32791474 -0.3498189 -0.15377991 -0.13106489
000060 46 33 b7 be 46 99 c4 bd 0d 77 aa be 31 2f 0f 3e
       -0.35781306 -0.09599547 -0.33293954 0.13982846
000070 46 23 0a be f5 7d c8 bd 49 80 36 be 10 a5 9c be
       -0.13490018 -0.097896494 -0.17822374 -0.30594683
000080 19 b5 80 3e a0 1c 71 3e a7 c6 2d bb 71 ba 02 3e
       0.25138167 0.23546076 -0.002651611 0.12766434
000090 a5 87 aa be 18 4d 88 3e e8 26 51 be 2e b4 1e be
       -0.33306614 0.26621318 -0.20424998 -0.1549842
0000a0 5b 10 1b be e8 74 ac 3e 87 9b 78 be 51 7f 95 be
       -0.15142958 0.33682942 -0.24278079 -0.29198697
0000b0 0c 93 a5 3e 1d a5 eb bd 02 2c bd be 17 5d 12 be
       0.3233875 -0.11506102 -0.36947638 -0.14293323
0000c0 6f 9c 04 be 07 24 8a 3e 6c ef 98 3e 05 40 9b be
       -0.129503 0.26980612 0.29870164 -0.3032228
0000d0 6b 85 be 3e 66 c9 ec 3d 37 79 7f 3e 9a f1 0b 3e
       0.37211165 0.11561851 0.24948584 0.13666382
0000e0 ee 37 f5 3d f7 a1 9e 3e a9 bc 49 be d7 2c 29 be
       0.11973558 0.30982944 -0.19700874 -0.16521011
0000f0 d0 87 9b 3e 1d 40 4f 3b ea 10 ef bd 07 df 22 3e
       0.30377054 0.0031623908 -0.11673148 0.1590539
000100 94 f4 c9 bd b2 d7 04 3a 14 9d 99 3c d8 a2 05 be
       -0.09861103 0.00050675415 0.018751658 -0.13050401
000110 15 c4 af be 40 ec 72 bb fa aa 3c bd 98 82 b1 3e
       -0.34329286 -0.0037067086 -0.046061493 0.34669948
000120 66 0a 13 be ce 08 18 be 35 77 b9 3d c2 53 7e 3e
       -0.14359435 -0.14847109 0.0905594 0.24836639
000130 46 37 bf be bc 3a 95 be c5 2a bd bd 79 53 b0 3d
       -0.37346858 -0.29146373 -0.09236673 0.08609671
000140 06 b5 81 bd 4d a5 5a bd e5 bc 33 be 66 f1 ae 3e
       -0.063333556 -0.0533803 -0.17552526 0.34168547
000150 72 be 89 3e 9c 8f a0 3e 36 17 0b 3e 43 97 7d be
       0.2690311 0.31359565 0.13583073 -0.24764733
000160 5d 28 8d 3d 53 e3 3a 3e 24 1b c6 3c 73 7b 8e be
       0.06892464 0.1825078 0.024182864 -0.2782856
000170 6d 6d 5c be dc 23 5f 3e b7 a4 58 be e3 79 94 be
       -0.21526118 0.21791023 -0.21156584 -0.28999242
000180 52 70 08 3e c3 5f 11 3e 5c 78 18 3e 22 58 a6 3d
       0.13324097 0.14196686 0.14889663 0.08122279
000190 80 ae 47 bc 65 f9 cc bb 10 af 60 3e d9 55 99 bc
       -0.0121876 -0.006255316 0.21941781 -0.018717693
0001a0 c9 7c 59 be 49 f5 58 be 41 26 11 bd c6 11 18 bd
       -0.21239008 -0.21187319 -0.035436872 -0.037126325
0001b0 68 a6 17 be ac 00 19 3d be ed ac be ae 83 1e 3e
       -0.14809573 0.037354156 -0.33775133 0.1547992
0001c0 77 f3 c1 bd 68 5a 9f 3d e6 84 14 3e b2 22 75 3d
       -0.09470265 0.077809155 0.14503822 0.05984754
0001d0 b1 45 9e be f6 33 6c be 8c 4d 3e bd e7 db ac 3e
       -0.30912545 -0.23066697 -0.046460673 0.33761522
0001e0 d3 5d 02 3e 75 a5 68 3d 2d c1 d3 3d 57 fe 25 bd
       0.12731104 0.056798417 0.1033958 -0.04052576
0001f0 80 43 99 3e 03 3d a9 3d 6e eb 9f 3e ea ca 1f bd
       0.2993431 0.0826359 0.31234306 -0.039011873
000200 e8 ed 67 bd 7f df ef 3d b2 f6 24 3e ff ea 07 3e
       -0.05662337 0.1171255 0.16109732 0.13273238
000210 75 0a ba 3d a7 77 58 be cf e9 ad be f0 59 a6 bd
       0.09084026 -0.21139394 -0.33967444 -0.08122623
000220 9a 37 24 be c0 97 03 be 9f 6c 69 bd d2 e3 8d 3e
       -0.16036835 -0.12850857 -0.056988355 0.27712876
000230 7a e9 3c 3e 77 49 98 3e 0f f4 f7 3c 55 9e a4 bc
       0.18448439 0.2974355 0.030267743 -0.02009503
000240 72 84 a7 3e 53 7c bd 3d 9b 58 ab be 6d e5 6a bd
       0.32718235 0.092522286 -0.33466038 -0.057347704
000250 0a 80 3e be bf 28 0b 3e de 82 1a 3d ed 13 c7 3d
       -0.1860353 0.13589762 0.03772246 0.097205974
000260 69 90 54 bc d6 f7 98 3d 35 77 bd bd a6 2a ef bd
       -0.012973883 0.07469146 -0.092512526 -0.116780564
000270 ef 3f ee bc 08 5e 72 bd 49 79 06 be fa 2d 9d 3e
       -0.02908322 -0.059171706 -0.13132204 0.3069914
000280 04 07 be 3d c6 b7 bf 3b ba ec d6 bb a8 a3 ce bd
       0.09278682 0.005850765 -0.0065589817 -0.10089809
000290 ff 97 e6 bd 00 09 49 be 1a 13 97 be 33 29 41 be
       -0.1125946 -0.1963234 -0.2950676 -0.18863373
0002a0 12 0d 89 3e f0 09 8a 3d e2 0d 65 be f1 73 08 3e
       0.26767784 0.06740177 -0.22368577 0.13325478
0002b0 13 b7 52 3e 73 d3 b0 3d c4 da c1 be e4 59 c3 be
       0.2057765 0.08634081 -0.37862217 -0.3815452
0002c0 51 81 1e bb d5 fb 8d 3c 1e bc da bd 52 57 bb 3d
       -0.0024185965 0.017331997 -0.10680412 0.091475144
0002d0 dd 85 c6 be c6 ca b0 3d f4 54 98 3e 5d 9d 5f 3e
       -0.38774005 0.08632426 0.29752314 0.21837373
0002e0 d1 5e f6 bd 08 7c 1d be 9b cc 16 3e 07 40 88 3e
       -0.120298035 -0.15379345 0.14726488 0.2661135
0002f0 ac b2 c1 be 37 76 9a be 80 14 bf be fc d2 81 3e
       -0.37831628 -0.30168316 -0.37320328 0.2535628
000300 19 9e 4e be 95 e5 01 be b8 a6 30 be 26 26 ad 3e
       -0.20177497 -0.12685235 -0.17251098 0.33818167
000310 ba b3 d3 bd 6b ac 14 3e 23 29 59 3d c9 c0 b8 be
       -0.103370145 0.14518897 0.053017747 -0.36084583
000320 ec 09 88 3e 07 e5 11 3e 0a 2f 18 3d 63 aa 85 be
       0.2657007 0.14247523 0.037154235 -0.26106557
000330 29 d5 9b 3c 7a 95 45 3e e0 81 ae be ff 58 0e be
       0.019022541 0.19295302 -0.34083462 -0.13901137
000340 65 08 f1 bc d1 19 3d 3e 69 d8 8a 3e 4e 8c 89 3d
       -0.029422948 0.1846688 0.27118233 0.06716214
000350 b9 13 8b be 84 35 e6 3d 7c 4b 00 3d 22 ce ef 3d
       -0.27163485 0.11240676 0.031321988 0.117092386
000360 3d 86 a5 be b9 ad de 3c 6b c6 00 3e c3 6c bf 3e
       -0.32328978 0.027182447 0.1257569 0.37387666
000370 0c 08 b1 be ca d8 4e be 5a 22 ce be cf d9 f3 3a
       -0.34576452 -0.20199886 -0.40260583 0.0018604341
000380 bd a7 38 be 3f 9a 69 be 16 13 33 bd 83 1e d3 bc
       -0.18032737 -0.22812746 -0.043719374 -0.025771385
000390 db 79 a4 be 8f dd 16 be 31 d5 0d 3d 0c 54 bf bd
       -0.32124218 -0.14732955 0.034627143 -0.093422025
0003a0 3d f0 30 3d 00 ac d9 3d 4d 5f 2b 3e 68 8d a3 3e
       0.04319786 0.106285095 0.16735573 0.31943822
0003b0 46 c0 c1 3e fe 47 c1 bd d1 3a a8 be be 37 0d be
       0.37842005 -0.094375595 -0.32857373 -0.13790795
0003c0 12 80 6b 3e a0 22 2e 3e c6 35 b9 3d d7 02 15 3e
       0.22998074 0.17005396 0.090434596 0.14551865
0003d0 d7 e1 8d 3e f0 85 a6 3c b6 39 3f 3e d7 e2 18 bd
       0.27711365 0.020327538 0.18674359 -0.037325706
0003e0 21 42 7d bd e4 a3 5f 3e 8f 27 af 3e 2e 64 4f be
       -0.061830644 0.21839863 0.34209868 -0.2025306
0003f0 de 26 b9 3e 20 e3 76 3e 93 c4 ab 3d e1 42 1d be
       0.36162466 0.24110079 0.08387103 -0.15357544

q_head.DAC_block.ff1.bias f4 [32]
000000 85 53 9c 3d cd 7f 9b 3e ec 5e 87 3e fe cc 12 be
       0.076331176 0.30370942 0.26439607 -0.14336011
000010 ff 2f 32 3e c0 d1 3b 3d a3 2a 3f 3e 04 06 c1 3d
       0.17401122 0.04585433 0.18668608 0.094249755
000020 68 1e 55 be 06 24 45 3d eb cb 8e 3e ad ec 2d 3e
       -0.2081238 0.048130058 0.27889952 0.16984816
000030 cc 44 f0 bd ec e0 be 3d 1b aa a7 3e 8e e2 9b 3e
       -0.11731872 0.09320244 0.32746968 0.30446285
000040 05 f7 59 be 7b 99 a5 be 02 52 6d 3e 42 a7 84 3d
       -0.21285637 -0.3234366 0.23175815 0.064772144
000050 eb 22 a9 3e 2a 1a 8c 3e 17 a5 17 3e 95 b9 38 3e
       0.33034453 0.27363712 0.1480907 0.18039544
000060 1c 6b 3b bd 33 2f 36 3d 91 c5 7a be 6e 59 0a be
       -0.045756444 0.044478606 -0.24489428 -0.13510677
000070 18 47 58 3e 28 d5 43 be be 45 3f be ff b5 90 be
       0.2112087 -0.19124281 -0.18678948 -0.28263852

q_head.DAC_block.ff2.weight f4 [16, 32]
000000 70 05 0f bd 42 6a 9d bc 23 98 aa bd 93 25 7a bb
       -0.034917295 -0.019215707 -0.08329799 -0.0038169369
000010 cc 7f 23 bd 6f 13 1e be 9a 10 2c 3d bb 0b fe 3c
       -0.0399168 -0.15437101 0.04200802 0.031011453
000020 8e fe 32 3e de 3f 46 be 03 bd 1a 3d ed 2f 00 bd
       0.17479917 -0.19360301 0.037777912 -0.031295706
000030 88 a8 37 be 31 fc ab bd 03 e8 01 be dd db 8a be
       -0.17935383 -0.08397711 -0.12686162 -0.27120867
000040 46 6d 3a 3e 07 2a 57 bc ee 2c bf bd 6a 61 43 be
       0.18205747 -0.013132579 -0.093347415 -0.1908013
000050 b4 d5 d4 bc 69 e3 81 be 4c 05 89 be 1a 7e 98 bd
       -0.025980808 -0.25368813 -0.26761854 -0.07445927
000060 34 ec eb bd 1e f2 dc bc 27 55 c3 bc b1 be 91 3e
       -0.115196615 -0.02697092 -0.023844315 0.28465798
000070 75 99 6b 3b f8 bb 3a 3e c1 ef 83 3e a4 65 60 bd
       0.0035949622 0.18235767 0.25768855 -0.054784432
000080 02 ff 15 3e a6 6f 7d be 07 a2 2a 3d e3 69 00 3c
       0.14648059 -0.24749622 0.041658428 0.007837745
000090 07 f1 43 bc a3 be e0 bd 41 5e a5 bd 95 0f 0f be
       -0.011959321 -0.10973861 -0.08074618 -0.13970788
0000a0 29 81 9d bd 05 f2 0f bd 14 f5 6c be 2c ea 4c be
       -0.07690651 -0.035142917 -0.23140365 -0.20011204
0000b0 7c f1 22 be d2 3e 38 be 66 c7 bb bc a5 a8 62 be
       -0.15912431 -0.17992714 -0.022922229 -0.22134645
0000c0 a8 b4 a8 3d 8c a3 e6 3d 59 8b b2 3d 47 5c 85 be
       0.082375824 0.11261663 0.08717985 -0.26046965
0000d0 eb 2f 40 bd b2 95 03 be c4 a8 05 3d be 75 26 3d
       -0.046920698 -0.12850073 0.03263165 0.04063963
0000e0 e5 59 0d 3d 4c da 08 3e 64 b6 0d 3d 75 fa 61 bd
       0.03450956 0.13364524 0.03459777 -0.055170495
0000f0 69 de 75 3d e2 0e c6 3d 12 60 10 3d 51 f4 86 3e
       0.06002656 0.096708074 0.03524787 0.26358274
000100 4e db e8 3d cb d2 61 be a7 b2 f6 bd 3c fc 91 3c
       0.11369954 -0.22053067 -0.12045794 0.01782047
000110 19 8a 28 be 8b 9a 70 38 20 59 37 be b5 3a 97 bd
       -0.1645893 5.736439e-05 -0.17905092 -0.07384244
000120 e9 c2 58 3d a1 e2 b2 3d ba 97 7e be fc 26 dd bd
       0.052920256 0.08734632 -0.24862567 -0.10798451
000130 0e 03 43 be 29 12 e7 bd db 15 2d be 0b 69 5a 3d
       -0.19044134 -0.11282761 -0.16902868 0.053322833
000140 e3 d8 0b 3e 31 8c 83 bd 03 9b e0 bd 6a 8b 7a be
       0.13656954 -0.06423224 -0.10967066 -0.24467245
000150 aa ec 6f 3d c7 b7 1b be cd e1 72 be 5d 5c 80 3c
       0.05857531 -0.15206824 -0.23718949 0.015669042
000160 6a e1 9f bd 74 e6 c5 3c e4 0d 18 3e 21 a0 6e 3e
       -0.07806666 0.02415774 0.14849049 0.23303272
000170 77 47 86 bb f5 02 7f 3d a3 c2 12 bb b5 7e 25 3e
       -0.0040978747 0.06225868 -0.0022393845 0.16161616
000180 ec de 98 bd 11 d2 1b bd 4f d8 26 be a0 5f f1 bc
       -0.07464394 -0.03804213 -0.16293453 -0.029464543
000190 93 dd f6 bd 03 e1 b9 bd fc 27 ec bd 62 1d 0d be
       -0.12053981 -0.09076121 -0.11531064 -0.1378074
0001a0 26 98 7d 3e 78 88 2e be dd b7 14 be 02 e7 6a be
       0.24765071 -0.17044246 -0.14523263 -0.22939685
0001b0 85 c9 0e be 58 7b 63 be f7 72 c4 bd df 8d 61 be
       -0.13944061 -0.2221502 -0.0959224 -0.22026776
0001c0 f2 df 9b 3d 8f 96 e2 3b a5 c0 d4 bd e1 87 4a be
       0.076110736 0.0069149206 -0.103883065 -0.19778396
0001d0 a0 38 7b be 58 9d 1f be a7 e2 e7 3c 15 d5 ee bd
       -0.2453332 -0.15587366 0.028306318 -0.11661736
0001e0 79 f0 3d be d5 7d e7 bd 43 c0 2a 3e 3f 1f e4 bc
       -0.18548764 -0.113032974 0.16674905 -0.02784693
0001f0 6a be f5 bd ba 75 b1 bd 60 a1 42 3d e0 b0 0f bd
       -0.11999209 -0.08665033 0.04751718 -0.03508079
000200 cd 4d 07 3e 66 34 e6 3d 5f 86 be 3d b7 19 4f 3e
       0.13213272 0.11240463 0.09302973 0.20224653
000210 67 7c 75 be f2 da 45 3d a4 3a 73 be c2 d9 2a be
       -0.23973237 0.048304506 -0.23752838 -0.1668463
000220 89 1d 86 bd b2 3a f7 3d 1a f9 cc 3d 9b 7d 45 bd
       -0.06548602 0.12071742 0.1000845 -0.04821549
000230 7e fd 3d bd fb d3 dd bb e4 f4 a8 bd 48 45 d5 3d
       -0.046384327 -0.006769655 -0.08249834 0.10413605
000240 64 e2 2b 3e 65 b6 48 3e 01 e3 22 3b cf c0 93 bd
       0.1678558 0.19600828 0.0024854543 -0.0721451
000250 29 99 0d be bd cd 29 be 03 49 19 3d bc 9d 4f be
       -0.13827957 -0.16582389 0.037423145 -0.20275015
000260 78 69 3d 3e a1 8c 96 bd 13 db 71 3e ed 5e ea 3d
       0.18497264 -0.073510416 0.23618726 0.11443887
000270 c7 a6 ff 3c 82 61 b3 3a 96 e0 9a bd be 35 f0 3d
       0.031207455 0.0013685676 -0.075623676 0.117290005
000280 fe 70 f6 3d 9d 48 80 be 5a b3 0f be a5 f3 85 3d
       0.1203327 -0.250554 -0.14033261 0.06540612
000290 e5 22 93 3d 19 04 86 bd bc 7d 63 be 0a 3d 88 be
       0.0718439 -0.0654375 -0.22215933 -0.2660907
0002a0 9f 45 3a 3e 31 32 29 3c 1f 2c 80 be 42 9a 75 be
       0.18190621 0.010326908 -0.25033662 -0.23984626
0002b0 e8 30 87 3d 5d c2 49 be fe 7a 02 be 70 6d ab bc
       0.06601125 -0.1970305 -0.1274223 -0.020926207
0002c0 51 ec 4f 3d ab 4e 45 bd f1 d8 47 be 76 f4 d8 bd
       0.05076248 -0.048170727 -0.1951635 -0.10593502
0002d0 94 9d 1e be 19 e8 95 3d e8 9b b7 3d 75 03 67 3c
       -0.15489799 0.0731966 0.08965284 0.014099945
0002e0 4e 67 f0 bd 68 b2 92 3d 93 85 10 bd 7b d4 3f bd
       -0.11738454 0.071629345 -0.035283636 -0.046833497
0002f0 17 02 c3 3c ab af b1 bd 23 bc a2 3b e6 78 1d 3c
       0.023804707 -0.08676084 0.0049662753 0.009611344
000300 ad e2 d5 3d 0a f3 d3 bd a1 a2 72 be 2d f6 79 3e
       0.104436256 -0.103490904 -0.2369485 0.24410315
000310 4b 40 69 be 5e db 45 be 4b 09 83 be 34 14 27 bd
       -0.22778432 -0.19321963 -0.25593027 -0.04079075
000320 c2 88 18 3e dd f2 b7 bd 7a bd 15 be 0d 04 25 be
       0.14895919 -0.08981869 -0.14623061 -0.16114827
000330 af e9 84 bc f8 63 64 be 09 d5 a5 bc f5 7a 3c 3d
       -0.01622471 -0.2230376 -0.020243185 0.0460157
000340 9b c2 3a bd c4 17 c3 3d e5 99 a9 3d 61 1a 39 3c
       -0.045595746 0.09526017 0.08281306 0.011297793
000350 4a 17 b3 bd f9 16 81 bd 22 6f 26 3d b9 ab ad bd
       -0.087446764 -0.0630321 0.04063333 -0.08480019
000360 bd c5 49 be ab 26 26 bd 37 1e b2 3c 10 3f 83 3e
       -0.19704337 -0.04056422 0.021742923 0.2563405
000370 35 b8 9b 3d 57 a3 aa bd d4 3f 66 3e 95 48 b2 3d
       0.07603494 -0.08331936 0.22485286 0.0870525
000380 6c 1c 04 be 9c 94 a6 bd da fe c9 bd d7 bf cf 3d
       -0.12901467 -0.08133814 -0.09863062 0.101440124
000390 c3 53 d6 bd ea 98 41 be 6b 19 59 3d 96 3c fb bd
       -0.10465195 -0.18905988 0.053002756 -0.12267415
0003a0 b3 46 41 bc be c5 0c be c7 47 7a be 68 8e a0 bd
       -0.011796641 -0.13747308 -0.24441443 -0.07839662
0003b0 f1 4b 25 3d be 71 26 be c4 dc ec bd 95 f8 cc bd
       0.040355626 -0.16254327 -0.11565545 -0.10008351
0003c0 fd 56 69 3e cc c0 61 3e 63 43 0c be a1 dd 03 be
       0.2278709 0.22046202 -0.13697581 -0.12877513
0003d0 36 86 3d be 88 6b 5a be b5 2a 12 bd 26 c2 9a 3d
       -0.18508229 -0.21330082 -0.03568526 0.07556562
0003e0 b9 ac c5 bd a4 88 f2 3d a0 fc 19 3e 9c 9f 9f bd
       -0.09652085 0.118424684 0.15037775 -0.07794115
0003f0 7b 10 f5 3d f5 32 23 bd 3f e2 91 bd 5b c3 74 3e
       0.11966034 -0.03984352 -0.07123231 0.23902647

q_head.DAC_block.ff2.bias f4 [16]
000000 b9 b3 46 be 16 f2 46 be dd c8 05 3c be 55 ac bd
       -0.19404496 -0.19428286 0.008165565 -0.084147915
000010 b1 43 75 3d fd 89 bd 3d a9 2b c4 3d c4 e6 61 be
       0.05987901 0.09254835 0.0957864 -0.22060686
000020 c9 d5 7d 3d 99 bd 22 bd a3 ae ef bd 3c b2 15 be
       0.06197146 -0.039731596 -0.11703231 -0.14618772
000030 b7 4a 4c be d6 22 eb bd 4a 4f 19 3d 70 1d 0b 3d
       -0.19950376 -0.11481254 0.03742913 0.03396362
