checkpoints/q-mamba/20240831_083609/checkpoint-8.pt (torch, 103216 bytes, 52 tensors)

q_head.DAC_block.mamba_blocks.0.A_log f4 [28, 32]
0	0xbae42c97	-0.0017408308
1	0x3f303405	0.68829376
2	0x3f8b65a8	1.0890398
3	0x3faff280	1.374588
4	0x3fccec88	1.6009684
5	0x3fe431a7	1.7827653
6	0x3ff858f3	1.9402145
7	0x4003bd18	2.0584164
8	0x400bf3ac	2.1867476
9	0x401272f2	2.2882657
10	0x401848cc	2.3794432
11	0x401db151	2.4639475
12	0x4022e852	2.5454297
13	0x40277e6c	2.6170912
14	0x402babdd	2.6823647
15	0x402f7071	2.7412379
16	0x4033da82	2.8102117
17	0x4037495f	2.8638532
18	0x403aeceb	2.9207103
19	0x403daf40	2.9638214
20	0x4041f5e7	3.0306337
21	0x4044169d	3.0638802
22	0x4046a7ab	3.1039836
23	0x4048db05	3.138368
24	0x404c2f99	3.1904051
25	0x404ee20a	3.2325463
26	0x4050ac89	3.2605307
27	0x4053cd48	3.3094044
28	0x4055536c	3.3332167
29	0x4057e1d2	3.373158
30	0x405970fc	3.397521
31	0x405c3001	3.44043
32	0xbd001f66	-0.031279944
33	0x3f261777	0.64879555
34	0x3f85b0a3	1.044453
35	0x3faa2df6	1.3295276
36	0x3fc79838	1.5593328
37	0x3fdee9f4	1.7415147
38	0x3ff3afaa	1.9037983
39	0x4000eb53	2.014363
40	0x40095781	2.1459658
41	0x400fcb48	2.2467823
42	0x401587a8	2.3364048
43	0x401b00eb	2.421931
44	0x402043b9	2.5041335
45	0x4024d360	2.5754013
46	0x40290f33	2.6415527
47	0x402cd913	2.7007492
48	0x40314c01	2.770264
49	0x4034af39	2.8231947
50	0x40385ba6	2.8805938
51	0x403b435e	2.9259868
52	0x403fa1e3	2.9942558
53	0x40419960	3.0249863
54	0x40445440	3.0676422
55	0x4046878b	3.102023
56	0x4049d465	3.1535885
57	0x404c7d23	3.1951377
58	0x404e4e05	3.223512
59	0x40517892	3.272984
60	0x405301d2	3.296986
61	0x40558f88	3.3368855
62	0x4057265d	3.3617165
63	0x405a0c45	3.4069989
64	0xbd6e66d2	-0.058203526
65	0x3f1fd834	0.62439275
66	0x3f82ad0a	1.0209057
67	0x3fa74a5a	1.3069565
68	0x3fc515c4	1.5397267
69	0x3fdd1206	1.7271125
70	0x3ff1c9f1	1.8889753
71	0x3fff4e87	1.994584
72	0x400852df	2.130058
73	0x400eeaa8	2.2330723
74	0x401465bf	2.31871
75	0x4019fa99	2.4059203
76	0x401f4d2f	2.489086
77	0x4023d13d	2.559646
78	0x40281a0a	2.6265893
79	0x402bdf38	2.6854992
80	0x40306e55	2.7567341
81	0x4033c4ac	2.808879
82	0x40378099	2.867224
83	0x403a73bb	2.9133136
84	0x403f39ee	2.9879107
85	0x4040c6d8	3.0121365
86	0x4043a71d	3.0570748
87	0x4045bd30	3.089672
88	0x40494c74	3.1452913
89	0x404bd265	3.1847165
90	0x404d97a4	3.2123804
91	0x4050dc2e	3.2634387
92	0x405261fd	3.2872307
93	0x40550626	3.3285003
94	0x40568cc1	3.352341
95	0x4059a5b8	3.4007397
96	0xbafec9f9	-0.0019438855
97	0x3f301e2a	0.68796027
98	0x3f8b62c1	1.0889512
99	0x3faff78b	1.3747419
100	0x3fcceca4	1.6009717
101	0x3fe4381f	1.7829627
102	0x3ff85c40	1.9403152
103	0x4003d8a9	2.060099
104	0x400bfcbb	2.1873004
105	0x40128049	2.28908
106	0x40186378	2.381071
107	0x401dd30b	2.466006
108	0x40230850	2.5473824
109	0x4027a3f0	2.619381
110	0x402bdb83	2.685273
111	0x402fb6bc	2.7455282
112	0x40340762	2.8129506
113	0x403781f4	2.8673067
114	0x403b1e03	2.9237068
115	0x403df18a	2.9678674
116	0x40420fe4	3.03222
117	0x40445133	3.067456
118	0x4046eea8	3.1083164
119	0x40494167	3.1446168
120	0x404c7048	3.194353
121	0x404f1c77	3.2361124
122	0x4051077e	3.2660823
123	0x4054070e	3.3129306
124	0x4055a8f0	3.3384361
125	0x405825e6	3.3773131
126	0x4059cc65	3.4031003
127	0x405c6f69	3.4443
128	0xbd390652	-0.045172043
129	0x3f228c27	0.63495106
130	0x3f83c9ce	1.0295961
131	0x3fa843ab	1.3145651
132	0x3fc5fcc0	1.5467758
133	0x3fdda319	1.7315398
134	0x3ff25c3b	1.8934397
135	0x3fffc5f3	1.9982284
136	0x40089d9c	2.1346197
137	0x400f20a1	2.2363665
138	0x40149a33	2.3219116
139	0x401a208a	2.408236
140	0x401f7317	2.4913995
141	0x4023e881	2.561066
142	0x40281e6e	2.6268573
143	0x402bc6c3	2.6840065
144	0x403076e8	2.7572575
145	0x4033b17f	2.8077085
146	0x40377a25	2.86683
147	0x403a4ca9	2.910929
148	0x403f5f27	2.9901826
149	0x40409ee6	3.0096984
150	0x40437d17	3.0545099
151	0x404562ed	3.084163
152	0x40494a82	3.1451726
153	0x404ba96d	3.182216
154	0x404d2d20	3.2058792
155	0x4050b815	3.2612355
156	0x4051f853	3.2807815
157	0x4054e4dc	3.3264685
158	0x40560ac6	3.3444076
159	0x4059b1e5	3.4014828
160	0xbcac83eb	-0.021058997
161	0x3f28ae25	0.65890723
162	0x3f86fa1e	1.054508
163	0x3fab7308	1.339448
164	0x3fc8c2d5	1.5684458
165	0x3fdff86d	1.7497689
166	0x3ff4b9b4	1.9119172
167	0x40018bcc	2.0241575
168	0x4009e1cb	2.1544063
169	0x40104699	2.254309
170	0x40161d33	2.3455322
171	0x401b8ca2	2.4304585
172	0x4020c9e2	2.512322
173	0x402560e0	2.5840378
174	0x40299c55	2.6501667
175	0x402d88ee	2.7114825
176	0x4031cc70	2.7781029
177	0x40354381	2.832245
178	0x4038e185	2.8887646
179	0x403bccf4	2.9343843
180	0x403ff64c	2.9994078
181	0x4042231e	3.0333934
182	0x4044ce0f	3.0750768
183	0x40474a5c	3.1139135
184	0x404a34a0	3.159462
185	0x404cf571	3.2024806
186	0x404ef47a	3.2336717
187	0x4051e985	3.279878
188	0x40539043	3.30568
189	0x4055f411	3.3430216
190	0x4057bff0	3.37109
191	0x405a5888	3.4116535
192	0xbd12773a	-0.035758235
193	0x3f254b73	0.6456825
194	0x3f85b61e	1.0446203
195	0x3faa54b0	1.3307095
196	0x3fc74610	1.5568256
197	0x3fde9827	1.7390183
198	0x3ff2c713	1.8967003
199	0x40013ede	2.019462
200	0x40092d5d	2.1433938
201	0x400fb4b5	2.2454045
202	0x4015bf74	2.3398104
203	0x401b3df1	2.4256556
204	0x40206b89	2.5065634
205	0x40251dbc	2.5799398
206	0x4029763e	2.647842
207	0x402dac95	2.7136586
208	0x4031858f	2.7737768
209	0x4035315d	2.831138
210	0x4038b61b	2.8861148
211	0x403bd36b	2.934779
212	0x403f6979	2.9908125
213	0x40420d05	3.0320446
214	0x4044c778	3.0746746
215	0x4047b278	3.1202679
216	0x404a3a0a	3.1597924
217	0x404cc963	3.1997917
218	0x404f31ce	3.2374148
219	0x40519cd4	3.275197
220	0x4053c013	3.3085983
221	0x4055ebaa	3.3425088
222	0x405806d5	3.375417
223	0x405a1709	3.407656
224	0xbd9a5a41	-0.07536746
225	0x3f1c70de	0.6110972
226	0x3f816b57	1.0110883
227	0x3fa640a6	1.2988479
228	0x3fc3e6d1	1.5304815
229	0x3fdb7012	1.7143576
230	0x3ff093f4	1.8795152
231	0x3ffef21e	1.9917638
232	0x4007d3f2	2.122311
233	0x400e5c57	2.224386
234	0x40140e3b	2.3133686
235	0x4019a25d	2.4005349
236	0x401ef649	2.483782
237	0x40238538	2.555006
238	0x4027e272	2.6231961
239	0x402bd992	2.6851544
240	0x40302165	2.7520382
241	0x4033929b	2.805823
242	0x40373318	2.8624935
243	0x403a4b2e	2.9108386
244	0x403ec86f	2.9809835
245	0x40409749	3.0092337
246	0x40436707	3.0531633
247	0x4045fb9c	3.093482
248	0x4048efbe	3.1396327
249	0x404b9fd2	3.1816297
250	0x404d9e80	3.212799
251	0x4050b16f	3.2608297
252	0x4052530e	3.2863193
253	0x4054c3d5	3.3244526
254	0x40568def	3.352413
255	0x405979e8	3.3980656

q_head.DAC_block.mamba_blocks.0.D f4 [28]
0	0x3f8ff0eb	1.1245397
1	0x3f8fa54a	1.1222317
2	0x3f8f8bc3	1.1214527
3	0x3f79efc3	0.9763147
4	0x3f8ea325	1.1143538
5	0x3f8b509d	1.0883976
6	0x3f8c7f66	1.0976379
7	0x3f902767	1.1262025
8	0x3f8d4f89	1.1039897
9	0x3f8c1a4d	1.0945526
10	0x3f8dd1dc	1.1079669
11	0x3f8eb055	1.1147562
12	0x3f8ea50a	1.1144116
13	0x3f8eb232	1.1148131
14	0x3f8c1e0d	1.0946671
15	0x3f8f0e62	1.1176264
16	0x3f8f2958	1.1184492
17	0x3f906fba	1.1284096
18	0x3f88efaa	1.069814
19	0x3f86ce24	1.0531659
20	0x3f8b454a	1.088052
21	0x3f8fd7e7	1.1237763
22	0x3f887d63	1.0663265
23	0x3f8d2aa3	1.1028637
24	0x3f8e2338	1.1104498
25	0x3f8be6ec	1.0929847
26	0x3f8f45d4	1.1193185
27	0x3f8fe989	1.1243144

q_head.DAC_block.mamba_blocks.0.in_proj.weight f4 [56, 14]
0	0xbda3b955	-0.07994334
1	0x3e44f729	0.19234909
2	0x3de7ed9b	0.113246165
3	0x3e2d9f67	0.16955338
4	0x3e979c1b	0.29611287
5	0x3ebb7f4c	0.36620557
6	0x3e47fc85	0.19529922
7	0x3dbbd64d	0.09171734
8	0x3ed14980	0.4087639
9	0x3e1a5107	0.15069972
10	0x3dbf8f0e	0.093534574
11	0xbdd5392c	-0.10411295
12	0x3e0b4612	0.13600948
13	0xbe1beb65	-0.15226515
14	0x3e898721	0.26860908
15	0xbdf644ff	-0.12024879
16	0x3eb32189	0.34986523
17	0x3dfea2f0	0.124334216
18	0x3e940fec	0.28918397
19	0x3ea2a071	0.31763032
20	0x3e855239	0.26039293
21	0xbd834969	-0.06410486
22	0x3cabe8d0	0.020985037
23	0x3e664d30	0.22490382
24	0x3e0f3f05	0.13988884
25	0xbe410dfe	-0.18852994
26	0x3e1a5230	0.15070415
27	0x3e837239	0.25673082
28	0xbe6fcebb	-0.23418705
29	0xbeb23669	-0.34807137
30	0xbec18f70	-0.37804747
31	0xbe73485d	-0.23758073
32	0xbe4be8d5	-0.19913037
33	0xbea93af6	-0.33052796
34	0xbe2bb586	-0.16768464
35	0xbecbe3d3	-0.39822254
36	0xbe4edf34	-0.20202333
37	0xbc3dfbef	-0.01159571
38	0x3e06bd68	0.1315819
39	0x3dc8de69	0.09808046
40	0xbe47e2ac	-0.19520062
41	0xbe5cd107	-0.21564113
42	0xbb83e1fe	-0.004024743
43	0xbe0bad4b	-0.13640325
44	0xbe01d501	-0.12678911
45	0x3e381efb	0.17980568
46	0xbe90eb63	-0.28304586
47	0xbe114071	-0.14184739
48	0x3e338812	0.17532375
49	0x3e66fca2	0.2255731
50	0xbc49a949	-0.012308427
51	0x3d9e1a31	0.07719839
52	0x3e1c4c58	0.15263498
53	0x3e388bdb	0.180221
54	0xbe869163	-0.26282796
55	0xbe9edfe3	-0.31030187
56	0xbc57cac3	-0.013170901
57	0x3e478e70	0.1948793
58	0x3e7424a1	0.23842098
59	0x3e990688	0.29887795
60	0x3ea47eaf	0.32127902
61	0xbca4d7da	-0.020122457
62	0x3e6ae708	0.22939694
63	0x3d911556	0.07084148
64	0x3bf73353	0.00754396
65	0xbe372af8	-0.17887485
66	0x3e8a20f9	0.2697828
67	0xbd95df00	-0.073179245
68	0xbc35b04d	-0.011089397
69	0x3e1534a6	0.14570865
70	0x3ebd8de2	0.3702231
71	0xbd569573	-0.05238862
72	0x3e860c97	0.2618148
73	0xbde7a068	-0.11309892
74	0xbe10a38a	-0.14124885
75	0xbdafdc2d	-0.08586917
76	0x3d2ad8af	0.04171055
77	0x3e7838ac	0.24240369
78	0x3e93b7a8	0.28851056
79	0xbe4582a5	-0.19288118
80	0x3e89adda	0.2689045
81	0x3ea263af	0.31716678
82	0x3e6e3128	0.23260939
83	0x3e88dc4c	0.26730573
84	0x3ea380af	0.31934115
85	0xbdf988b7	-0.121842794
86	0x3dbd506d	0.092438556
87	0x3e83220e	0.2561192
88	0xbe017a7a	-0.12644377
89	0x3e377c37	0.17918478
90	0x3e9f7582	0.3114434
91	0x3b867a19	0.0041039106
92	0xbddab3ca	-0.10678823
93	0x3dd224b2	0.10260905
94	0x3e8a23c5	0.26980415
95	0x3eb31537	0.34977123
96	0xbe14c118	-0.14526784
97	0x3e709f0a	0.23498169
98	0xbdaef958	-0.08543652
99	0xbda317d5	-0.0796353
100	0xbd6842f9	-0.056704495
101	0xbbd0a7d7	-0.0063676643
102	0xbe18f84e	-0.1493847
103	0xbeb1900a	-0.34680206
104	0xbe9add10	-0.30246782
105	0x3de8494b	0.113421045
106	0xbccc260e	-0.02492049
107	0xbdc7c327	-0.09754019
108	0xbe09bb24	-0.13450295
109	0xbd90a3c2	-0.07062484
110	0xbe7959fc	-0.24350733
111	0x3df251bc	0.11831996
112	0xbda7c9c7	-0.08192783
113	0x3d9e0a24	0.07716778
114	0x3dd89fb7	0.10577338
115	0xbe1ba146	-0.1519824
116	0xbc8396b9	-0.016063081
117	0xbb2ea0f3	-0.0026646226
118	0xbe7f6f2f	-0.24944757
119	0xbe44fc5e	-0.19236895
120	0x3e70abe3	0.2350307
121	0x3e596916	0.21231493
122	0x3e64fbb7	0.22361647
123	0x3e89f61b	0.26945576
124	0x3e703694	0.2345832
125	0x3e9197ae	0.28436035
126	0x3e278866	0.16360626
127	0xbe6eab6a	-0.23307577
128	0x3e19802d	0.14990301
129	0xbe89636f	-0.26833674
130	0x3e2514d4	0.16121227
131	0x3dc3e659	0.0956542
132	0xbe3246ab	-0.1740977
133	0x3bcd153b	0.0062586344
134	0x3e5d46bb	0.21609013
135	0x3c8a4f2b	0.016883453
136	0xbe3f3fd9	-0.186767
137	0xbd15094b	-0.036385816
138	0x3e9132c2	0.28359038
139	0x3e9e37a4	0.30901825
140	0xbd908779	-0.07057089
141	0x3eb602e9	0.35549095
142	0xbda9fb8c	-0.08299932
143	0xbdd43492	-0.103615895
144	0xbd86a94a	-0.06575258
145	0x3df34ef3	0.11880293
146	0xbd899f8b	-0.067198835
147	0xbd4af114	-0.049546316
148	0x3e98f129	0.2987149
149	0xbe7b9a38	-0.24570549
150	0xbd91c7f6	-0.07118218
151	0x3e58ea12	0.2118304
152	0x3e9bc828	0.30426145
153	0x3e89d7e1	0.26922515
154	0x3df6c679	0.120495744
155	0xbdd2cce8	-0.10292989
156	0xbddf0940	-0.10890436
157	0x3e53e36f	0.20692228
158	0x3d82e4d0	0.06391299
159	0x3c1fa6f6	0.009744396
160	0x3e43f3fc	0.19136041
161	0xbe00efbf	-0.12591456
162	0x3ebe7dd4	0.37205374
163	0x3e736565	0.23769148
164	0x3ea5a512	0.323525
165	0x3e9648b5	0.29352346
166	0x3db469b3	0.08809223
167	0x3d922f9a	0.071379855
168	0x3e0e9d53	0.13927202
169	0x3e1852cc	0.14875335
170	0xbe18d6fd	-0.14925762
171	0xbdd84c61	-0.10561443
172	0xbe8c84fc	-0.2744521
173	0x3d8cd6c3	0.068769
174	0xbe0c66f3	-0.13711147
175	0xbe130daf	-0.14360689
176	0xbd9e89d4	-0.077411324
177	0x3e00a49d	0.12562795
178	0x3ca3132e	0.019906607
179	0xbda67fcd	-0.08129845
180	0x3e1ffd2b	0.1562392
181	0x3d97dd8e	0.07415305
182	0xbd645453	-0.05574448
183	0x3b99d72f	0.0046948413
184	0x3cc5dcf2	0.024153206
185	0x3dd55933	0.10417404
186	0x3e857fbb	0.26074013
187	0x3e6974d2	0.2279847
188	0x3d9a475d	0.07533143
189	0x3eab84b3	0.3349968
190	0x3eba6cab	0.36411032
191	0xbe533031	-0.20623852
192	0x3e945c4b	0.28976664
193	0x3d995e3a	0.074886754
194	0x3e2e233c	0.17005628
195	0x3d917d59	0.07103986
196	0xbd71a3ee	-0.058994226
197	0xbea1bc2d	-0.3158888
198	0xbe83c105	-0.257332
199	0xbe21ff4e	-0.15820047
200	0x3b94ba77	0.00453883
201	0xbe363f31	-0.17797543
202	0xbe90520f	-0.28187606
203	0xbe945789	-0.28973034
204	0x3dbf32d4	0.093358666
205	0xbe453cfb	-0.19261543
206	0x3e188004	0.14892584
207	0xbe9632fc	-0.29335773
208	0xbea9bb22	-0.33150584
209	0xbcc0db8e	-0.023542192
210	0xbda9e1ed	-0.08295045
211	0xbdd1cc80	-0.102440834
212	0x3e856341	0.26052287
213	0x3e6a5ecf	0.22887729
214	0x3d4cd5b3	0.050008487
215	0x3e9b69d2	0.30354172
216	0x3d773325	0.06035151
217	0x3eb12a24	0.34602463
218	0x3e6736d3	0.22579508
219	0x3e67133e	0.22565934
220	0x3e37d246	0.17951307
221	0x3ccd1905	0.025036344
222	0x3e22de7b	0.15905182
223	0x3d168575	0.03674837
224	0xbc09b080	-0.008403897
225	0xbbd8b1de	-0.0066130003
226	0xbecefad6	-0.40425748
227	0xbd1e7079	-0.03868148
228	0xbe678988	-0.22611058
229	0xbe56afc4	-0.20965487
230	0x3d1df558	0.038564056
231	0xbd8b3e10	-0.06798947
232	0xbe1191b8	-0.14215744
233	0xbd0d6330	-0.03451842
234	0xbe9a03f8	-0.30081153
235	0xbd458e12	-0.048231192
236	0xbd0139b1	-0.03154916
237	0xbdb72b24	-0.08943775
238	0x3d8ae84a	0.06782587
239	0x3e2fcb7b	0.17167465
240	0xbc82adae	-0.015951958
241	0x3e6295b3	0.22127418
242	0xbde8bd63	-0.11364248
243	0x3da24f5b	0.07925292
244	0x3e3a07f9	0.18167104
245	0x3e109824	0.14120537
246	0x3e358fcd	0.17730637
247	0xbd9ead4d	-0.07747898
248	0x3e2569c6	0.1615363
249	0xbc2807f0	-0.010255799
250	0xbcd69c45	-0.026197562
251	0x3eb75ae8	0.35811543
252	0xbe771fa5	-0.24133165
253	0xbe6c700a	-0.23089615
254	0xbe8cc7cb	-0.2749618
255	0x3e334f1e	0.1751065

q_head.DAC_block.mamba_blocks.0.conv1d.weight f4 [28, 1, 4]
0	0x3e2d6640	0.16933537
1	0x3e0c904c	0.1372692
2	0xbec4a6a7	-0.38408396
3	0x3f0bf36d	0.54668313
4	0x3e2c536c	0.16828698
5	0xbeb5f05a	-0.35534936
6	0xbf0a7a73	-0.5409309
7	0xbe01a741	-0.12661459
8	0xbe93b09e	-0.28845686
9	0x3e7ea878	0.24868953
10	0x3ee5f8c0	0.44916344
11	0x3f14401b	0.5791032
12	0xbe8c6c9c	-0.27426612
13	0xbee82364	-0.453395
14	0xbf0e6e39	-0.55636936
15	0x3eae8fbf	0.34094045
16	0xbee2031e	-0.44143003
17	0x3ecb91c0	0.39759636
18	0x3ea483c1	0.3213177
19	0xbf0471b4	-0.51736
20	0xbea94592	-0.3306089
21	0xbead8c0c	-0.3389591
22	0x3da80900	0.082048416
23	0x3ee4f920	0.44721317
24	0x3d910fe0	0.07083106
25	0xbe423a44	-0.18967539
26	0x3d5149e2	0.05109585
27	0x3f10c668	0.56552744
28	0xbe783c30	-0.2424171
29	0xbd3c6920	-0.045998693
30	0xbeb6468b	-0.35600695
31	0xbe910852	-0.2832666
32	0x3e83d06a	0.25744945
33	0xbe0e5b10	-0.13901925
34	0x3e9c3745	0.30510917
35	0xbdff6668	-0.12470704
36	0x3e955564	0.2916671
37	0x3e029a64	0.12754208
38	0xbec6b3c7	-0.38809034
39	0x3e1c1245	0.15241344
40	0xbe9b27c4	-0.30303776
41	0x3daf5c20	0.08562493
42	0x3e471343	0.19440942
43	0x3ecf3478	0.40469718
44	0x3d2be030	0.04196185
45	0xbe8d391e	-0.2758264
46	0x3d0b9822	0.034080632
47	0x3ee0a669	0.4387696
48	0xbca2a320	-0.019853175
49	0x3d3f63c0	0.04672599
50	0xbf01c34a	-0.5068861
51	0x3db00a95	0.08595768
52	0x3ec6db10	0.38839006
53	0x3eceacbe	0.40366167
54	0xbefcca3b	-0.4937304
55	0xbe315545	-0.17317684
56	0xbed6246c	-0.41824663
57	0x3e9dabf2	0.30795246
58	0xbe260062	-0.16211084
59	0xbf17ed43	-0.5934641
60	0x3e93d7d6	0.28875607
61	0xbe292e14	-0.16521484
62	0xbeb12700	-0.34600067
63	0x3f12d8ec	0.57362247
64	0xbe9ce538	-0.3064363
65	0x3d1c4920	0.038155675
66	0xbb03b7aa	-0.0020098486
67	0x3eda4892	0.42633492
68	0xbc323240	-0.010876238
69	0xbedcf142	-0.43152815
70	0x3eaf01e7	0.3418114
71	0x3ea95f70	0.33080626
72	0x3eb79430	0.35855246
73	0xbe58ab78	-0.2115916
74	0x3e96d68a	0.29460555
75	0x3e6f6d43	0.23381524
76	0xbe08c050	-0.13354611
77	0xbe326c0c	-0.17424029
78	0x3e04f0d1	0.12982489
79	0x3e0111bd	0.12604423
80	0x3e5c5368	0.21516192
81	0x3dcbf900	0.09959602
82	0xbeedf52e	-0.4647612
83	0x3ed920b1	0.42407754
84	0xbea1adf4	-0.31578028
85	0x3d633710	0.055472434
86	0xbeb022d7	-0.3440158
87	0x3eb9115d	0.3614606
88	0x3e82fd7c	0.25584018
89	0x3da34058	0.07971257
90	0x3ac34290	0.0014897157
91	0xbf0591cc	-0.52175593
92	0x3e99cffa	0.30041486
93	0x3e69d75c	0.2283606
94	0x3ed8c75d	0.42339602
95	0x3eb1d1b8	0.34730315
96	0x3cde5da0	0.027144253
97	0xbe06ace8	-0.13151896
98	0xbcab78f0	-0.02093169
99	0xbe9d2393	-0.30691203
100	0xbea5424c	-0.32277143
101	0x3e4f7b84	0.20261961
102	0xbf1795d6	-0.59213006
103	0xbeb57e3a	-0.35447866
104	0x3ea0dae2	0.31416994
105	0xbe723c5c	-0.23655838
106	0xbed47d4b	-0.4150184
107	0xbd82c12f	-0.06384503
108	0xbeeb8068	-0.45996404
109	0xbc83b340	-0.016076684
110	0xbeb6f859	-0.3573635
111	0x3ebf825c	0.37404144

q_head.DAC_block.mamba_blocks.0.conv1d.bias f4 [28]
0	0x3f014661	0.50498015
1	0xbea74ee9	-0.3267739
2	0x3dd853c7	0.10562854
3	0xbeceee8a	-0.40416366
4	0xbf125b93	-0.5717098
5	0x3e93d402	0.28872687
6	0x3e186c00	0.14884949
7	0x3efc2cab	0.4925283
8	0xbec47225	-0.38368335
9	0x3edf7faf	0.43652102
10	0x3f0323a3	0.5122625
11	0x3eef05c9	0.466841
12	0x3ec70fa3	0.38879117
13	0xbeb0b5b2	-0.34513623
14	0x3eb622f9	0.35573557
15	0x3eef5a8b	0.46748766
16	0xbe938640	-0.28813362
17	0x3f19075d	0.5977686
18	0xbeb35dae	-0.3503241
19	0xbe1af54b	-0.15132634
20	0xbe2728d0	-0.16324162
21	0xbee29e8d	-0.4426159
22	0xbd8ce6f7	-0.068799905
23	0xbed82a32	-0.42219692
24	0x3f20939a	0.6272522
25	0xbebc9372	-0.36831242
26	0x3ee3a5f5	0.44462553
27	0x3e929678	0.28630424

q_head.DAC_block.mamba_blocks.0.x_proj.weight f4 [65, 28]
0	0xbe2364eb	-0.15956466
1	0x3e8698ea	0.2628854
2	0x3b41a258	0.0029546227
3	0x3c0febf4	0.008784283
4	0x3ddd3214	0.10800567
5	0xbe37b311	-0.17939402
6	0xbda45831	-0.08024634
7	0xbe34bc66	-0.17649993
8	0x3e678f69	0.226133
9	0xbe842bbe	-0.25814623
10	0xbdcf6d7a	-0.10128303
11	0xbe92ca4f	-0.28669974
12	0xbeb3daf5	-0.35127988
13	0x3e9368c0	0.28790855
14	0xbea6e5ed	-0.32597294
15	0xbeb59725	-0.35466877
16	0x3e01123e	0.12604615
17	0xbba1d872	-0.0049391324
18	0x3e7504b2	0.23927572
19	0x3e9a0d15	0.30088106
20	0x3ea4d14f	0.3219094
21	0xbc9bbd7d	-0.019011253
22	0x3e00ee0a	0.12590805
23	0x3d39040f	0.045169886
24	0xbc281680	-0.010259271
25	0x3e2ca4a7	0.16859685
26	0xbcc3dd9a	-0.023909379
27	0xbcc23f6f	-0.023711888
28	0x3e247bee	0.160629
29	0xbe804fa0	-0.2506075
30	0xbe6b158e	-0.22957441
31	0xbe10cb92	-0.14140156
32	0x3bf32b06	0.0074209003
33	0xbd063234	-0.03276272
34	0x3e627a97	0.22117077
35	0xbc871ea2	-0.016494099
36	0xbe05916f	-0.1304376
37	0x3dbf249e	0.09333156
38	0x3dccd191	0.10000909
39	0x3ea3b5ea	0.31974727
40	0x3cefcd1b	0.029272607
41	0xbd5aaf4e	-0.05338984
42	0x3b02f55c	0.0019982671
43	0x3e058860	0.13040304
44	0xbe60db5e	-0.21958682
45	0x3ea06a17	0.3133094
46	0xbdc0c118	-0.0941183
47	0xbcb00d7a	-0.021490801
48	0xbe72f276	-0.23725304
49	0xbe3ccbe9	-0.1843716
50	0xbe0fd4ac	-0.14045972
51	0xbe178d31	-0.14799954
52	0x3d0eca1a	0.034860708
53	0x3ca1a573	0.019732213
54	0x3e990ef3	0.29894218
55	0x3d9ab013	0.07553115
56	0x3e69fd27	0.22850476
57	0xbe2c7d35	-0.16844638
58	0xbbb75a58	-0.0055954866
59	0xbe5c8bb9	-0.21537675
60	0xbd634d58	-0.055493683
61	0x3e194400	0.14967346
62	0x3e5e23a9	0.21693291
63	0x3e95411a	0.2915123
64	0xbea3b82a	-0.31976444
65	0xbc90852e	-0.01764163
66	0x3c844006	0.01614381
67	0x3e946d6e	0.28989738
68	0x3e681dea	0.22667661
69	0x3d303ab3	0.04302473
70	0x3e5d05a5	0.21584184
71	0x3db85bb6	0.090018675
72	0xbe7c4714	-0.24636489
73	0x3d6a38dc	0.05718313
74	0xbe61a66f	-0.22036146
75	0xbe2ffcb7	-0.17186247
76	0xbd83eebb	-0.064420186
77	0xbe7ab99c	-0.24484867
78	0xbe3509b2	-0.1767948
79	0xbe2a0377	-0.16602884
80	0xbcbe988b	-0.023266098
81	0xbe6ef0ec	-0.23334092
82	0x3ce77064	0.028251834
83	0x3dff8ee8	0.12478429
84	0xbea9547a	-0.33072263
85	0xbc9da66d	-0.019244397
86	0x3e6530e0	0.22381926
87	0x3e599634	0.21248704
88	0x3e8ebb0a	0.27877074
89	0x3d322ff5	0.043502767
90	0x3d1740db	0.036927085
91	0xbd9a2dad	-0.07528243
92	0x3e05a9e1	0.13053085
93	0xbceff9c8	-0.02929391
94	0xbe7ea930	-0.24869227
95	0xbd5949a2	-0.053048737
96	0xbcb05193	-0.021523273
97	0xbd3e84c4	-0.046513334
98	0xbea3c394	-0.31985152
99	0xbdcf546f	-0.10123526
100	0x3e89f235	0.26942602
101	0xbe2f4f7b	-0.17120163
102	0x3e4abc0c	0.19798297
103	0x3de985d3	0.11402478
104	0xbd20f93d	-0.039300192
105	0x3c52eb8b	0.012873541
106	0x3dfc83c5	0.123298205
107	0x3b02a110	0.0019932427
108	0xbe9ed42e	-0.31021255
109	0x3d78c21f	0.060732003
110	0xbcd1dca1	-0.0256179
111	0xbe8aa2e3	-0.27077398
112	0x3d2d3e50	0.042295754
113	0xbe41b567	-0.18916856
114	0xbe19a07f	-0.1500263
115	0xbe9b857a	-0.30375272
116	0x3d0207dc	0.031745777
117	0x3cdbe6c6	0.02684344
118	0x3e5540c1	0.20825483
119	0xbb888068	-0.004165698
120	0xbe8d2dcd	-0.27574006
121	0x3ba6276b	0.005070617
122	0x3e8e6ca1	0.27817252
123	0x3e9fce83	0.31212243
124	0x3e6dcd90	0.23222947
125	0xbdbf4cc8	-0.09340817
126	0x3e94ef98	0.29089046
127	0x3e9f3170	0.31092405
128	0xbc5faf4a	-0.013652632
129	0x3d805b2a	0.06267388
130	0xbe8b1052	-0.2716089
131	0xbded6198	-0.1159088
132	0xbe299660	-0.1656127
133	0xbd366067	-0.04452553
134	0xbe5d2743	-0.21597008
135	0xbe345d20	-0.1761365
136	0x3e9070da	0.282111
137	0xbd8b55ae	-0.068034515
138	0x3e65671f	0.22402619
139	0x3e8d91f0	0.27650404
140	0x3d8dad43	0.06917813
141	0xbde49ac9	-0.111623354
142	0xbea81edc	-0.32836044
143	0xbd6f7f82	-0.05847121
144	0x3cddd893	0.02708081
145	0x3bdfea44	0.0068333466
146	0x3e1cfb0e	0.15330145
147	0x3e17d2ba	0.1482648
148	0xbdf9df5a	-0.12200804
149	0xbd2ec781	-0.04267073
150	0x3e126565	0.14296491
151	0xbc9d7bc6	-0.019224059
152	0x3ea5a44f	0.3235192
153	0xbe83cac7	-0.25740644
154	0x3e2852ee	0.16437885
155	0x3e6a5eca	0.22887722
156	0xbe50cf6b	-0.20391624
157	0x3e8cf0f2	0.27527577
158	0xbda38a64	-0.0798538
159	0xbe95235a	-0.29128534
160	0xbe3a038a	-0.18165413
161	0xbe9ad85a	-0.30243188
162	0xbdec0faa	-0.11526425
163	0xbdfd5c26	-0.123710915
164	0x3d04b6ee	0.032401018
165	0xbe8f5e52	-0.28001648
166	0x3ddb1a6c	0.10698399
167	0x3da35c19	0.079765506
168	0x3e830e7d	0.2559699
169	0x3c43cad2	0.011950212
170	0xbe6576fb	-0.22408669
171	0xbe1c256c	-0.1524865
172	0xbe372e1a	-0.1788868
173	0x3e559bdd	0.20860238
174	0xbd6f2e53	-0.058393788
175	0x3e8ea424	0.27859604
176	0xbe0721f8	-0.13196552
177	0x3e46b25b	0.19403975
178	0x3e5f7f16	0.21825823
179	0x3e750306	0.23926935
180	0x3da85cf2	0.08220853
181	0xbcf9a375	-0.03047345
182	0x3e936098	0.28784633
183	0x3c147bca	0.009062717
184	0xbc931cdf	-0.017958103
185	0x3dbcb9b3	0.09215107
186	0xbe754092	-0.23950413
187	0xbe7b8377	-0.24561869
188	0x3d01fba2	0.031734116
189	0xbd873403	-0.06601717
190	0xbdf6b49b	-0.120461665
191	0xbd1a4e70	-0.03767246
192	0x3e20152a	0.15633073
193	0xbe23825e	-0.159677
194	0x3e4b5221	0.19855548
195	0x3d1f7698	0.03893146
196	0xbe573a68	-0.21018374
197	0x3e701bf1	0.23448159
198	0xbd8972c7	-0.06711345
199	0x3d8ada45	0.06779913
200	0x3dc6de82	0.09710409
201	0x3dbd675f	0.09248232
202	0xbe1505b1	-0.14552952
203	0xbe79c85b	-0.24392836
204	0x3d3c458b	0.04596476
205	0xbdbe76c4	-0.092999965
206	0xbe5e5e65	-0.21715696
207	0xbe334059	-0.17505015
208	0xbe3098d5	-0.17245801
209	0xbd953b09	-0.07286651
210	0xbe5cb12c	-0.2155196
211	0xbd665e7b	-0.056242447
212	0x3e82fd65	0.2558395
213	0xbd689087	-0.056778457
214	0x3d62dd10	0.055386603
215	0xbdaf3c83	-0.085564636
216	0x3e9f45af	0.31107852
217	0x3dcdd6c1	0.10050727
218	0x3e80ce85	0.25157562
219	0xbce77e98	-0.028258607
220	0xbd96b573	-0.073588274
221	0x3dd97aee	0.1061915
222	0xbe85d9f7	-0.26142856
223	0xbe49bf84	-0.19701964
224	0x3cee7f7c	0.029113524
225	0xbe9446f4	-0.28960383
226	0xbe29d471	-0.16584946
227	0xbdfee6fb	-0.124464
228	0xbe883542	-0.26603132
229	0x3e86e057	0.26343033
230	0x3dde22f0	0.108465075
231	0x3e3c7d05	0.18407066
232	0xbe4d1512	-0.20027569
233	0x3ea453ff	0.32095334
234	0x3daa9b39	0.083303876
235	0x3d924052	0.071411744
236	0x3e8000c1	0.25000575
237	0xbe12a34b	-0.14320104
238	0x3e659ff5	0.224243
239	0x3e946ba1	0.28988364
240	0x3cb8afcb	0.022544762
241	0x3dc89627	0.09794264
242	0xbe5f3df7	-0.21800981
243	0xbd71c371	-0.059024278
244	0xbe79ebe5	-0.24406393
245	0xbe3fe156	-0.18738303
246	0xbe2fa844	-0.17154032
247	0xbe387b4a	-0.18015781
248	0x3e79847b	0.24366944
249	0xbd244f29	-0.040114556
250	0x3e799721	0.24374057
251	0x3e9145f4	0.28373682
252	0x3e7641c7	0.2404853
253	0xbe892921	-0.2678919
254	0xbe3d55ee	-0.18489811
255	0xbe825b8b	-0.25460467

q_head.DAC_block.mamba_blocks.0.dt_proj.weight f4 [28, 1]
0	0x3e9e82ab	0.30959067
1	0xbe5c9b57	-0.21543632
2	0x3f0a5c0a	0.5404669
3	0x3e114587	0.14186679
4	0xbf138cd6	-0.57636774
5	0x3f503907	0.81337017
6	0xbf6d12fe	-0.92607105
7	0xbf869848	-1.0515223
8	0x3ee7be3f	0.45262334
9	0x3f08743f	0.5330238
10	0xbf7060c6	-0.93897665
11	0xbf833b18	-1.0252409
12	0x3f1bdac6	0.60880697
13	0xbf0a52f2	-0.54032815
14	0xbf815de3	-1.0106777
15	0x3ee05166	0.43812102
16	0xbf578669	-0.8418947
17	0x3ee693d2	0.45034653
18	0xbf52f189	-0.82399803
19	0x3f284197	0.6572508
20	0xbf639945	-0.88905746
21	0xbe6b4aae	-0.22977707
22	0x3e060493	0.13087682
23	0xbf5c578e	-0.860711
24	0xbf8e022a	-1.109441
25	0xbc7fbcbb	-0.015608962
26	0x3f475f21	0.7787953
27	0xbf103a51	-0.56338984

q_head.DAC_block.mamba_blocks.0.dt_proj.bias f4 [28]
0	0xc0cf6cd7	-6.482036
1	0xc07bac1e	-3.9323802
2	0xc01050e2	-2.2549367
3	0xc0a332a2	-5.099931
4	0xc095dc00	-4.6831055
5	0xc07461c0	-3.8184662
6	0xc091cc0a	-4.556157
7	0xc0285d57	-2.630697
8	0xc0a53a2a	-5.16335
9	0xc0305490	-2.7551613
10	0xc0c32f7c	-6.0995464
11	0xc07d154a	-3.9544244
12	0xc05a4ebd	-3.4110558
13	0xc098b1ed	-4.7717195
14	0xc0413a91	-3.0191996
15	0xc0375a22	-2.8648763
16	0xc0358001	-2.8359377
17	0xc09313d2	-4.5961695
18	0xc07a2049	-3.9082205
19	0xc09f77ef	-4.9833903
20	0xc0d732d6	-6.7249556
21	0xc0603404	-3.5031748
22	0xc0352cea	-2.8308663
23	0xc08732e1	-4.224961
24	0xc096af11	-4.7088704
25	0xc0d54be4	-6.665514
26	0xc0c269f2	-6.075433
27	0xc08031ae	-4.0060644

q_head.DAC_block.mamba_blocks.0.out_proj.weight f4 [14, 28]
0	0xbe90b12c	-0.2826017
1	0x3e1d45e4	0.15358692
2	0x3e505328	0.20344222
3	0x3e143b82	0.14475825
4	0xbe81e6ff	-0.2537155
5	0x3d1669d5	0.036722023
6	0x3e0661f5	0.13123305
7	0x3e7046f6	0.2346457
8	0x3d8c272b	0.06843408
9	0x3d93ebe7	0.07222729
10	0x3e50bc33	0.20384292
11	0x3cab6e9d	0.020926768
12	0x3e854580	0.26029587
13	0xbca5afd1	-0.020225437
14	0xbda1c6f3	-0.07899275
15	0xbc5a7138	-0.0133326575
16	0x3e124a41	0.14286138
17	0x3e1e22b8	0.15442932
18	0xbd8469a5	-0.064654626
19	0x3cc69c51	0.02424446
20	0x3d8711b9	0.06595177
21	0x3e4a31ac	0.19745511
22	0xbd051c85	-0.0324979
23	0x3c89bc0c	0.0168133
24	0xbe0b7e08	-0.13622296
25	0xbe215957	-0.15756737
26	0xbb2ec407	-0.0026667134
27	0xbe68cfab	-0.22735469
28	0xbd7149dc	-0.05890833
29	0x3e047cf9	0.12938298
30	0xbd2c7b07	-0.042109516
31	0xbe293ce8	-0.1652714
32	0x3d817eb4	0.06322995
33	0xbe63b496	-0.22236857
34	0x3e40a18b	0.18811624
35	0x3e115de4	0.14195973
36	0xbe6c5284	-0.23078352
37	0x3e962e79	0.2933233
38	0x3e8eacbd	0.27866164
39	0x3e23e432	0.16005018
40	0xbd5316e9	-0.05153552
41	0xbd378dff	-0.044813152
42	0xbe061afb	-0.1309623
43	0xbe837fe2	-0.25683504
44	0x3da108c5	0.07863001
45	0x3e411204	0.18854529
46	0xbe197735	-0.1498688
47	0x3af4a1e3	0.0018663969
48	0xba0b4f43	-0.000531424
49	0x3d9367c0	0.07197523
50	0x3d8bab20	0.06819749
51	0xbe938829	-0.2881482
52	0xbe5deda2	-0.21672681
53	0x3da86cfd	0.08223913
54	0xbe230f8a	-0.15923896
55	0xbe69da95	-0.22837289
56	0x3e506e95	0.20354684
57	0xbe78a7b5	-0.24282725
58	0xbdcc2002	-0.099670425
59	0x3e27bc6e	0.16380474
60	0x3c8e63e9	0.017381625
61	0x3bdf115d	0.00680749
62	0xbe80eaaa	-0.25179034
63	0xbc7ed744	-0.015554253
64	0xbb6c53f6	-0.0036060787
65	0xbe2cb8e3	-0.16867404
66	0x3c43f0b9	0.011959248
67	0xbe2de555	-0.16982014
68	0x3da80e48	0.08205849
69	0xbe77b7c4	-0.24191195
70	0x3c3685a9	0.0111402655
71	0x3e5d4510	0.21608377
72	0xbe5e1f81	-0.21691705
73	0xbdfe2265	-0.12408904
74	0x3d12eab0	0.035868347
75	0x3dd701fe	0.10498427
76	0x3d312a12	0.043253012
77	0xbe62152f	-0.22078393
78	0xbb039aa5	-0.002008119
79	0x3dab2294	0.08356205
80	0x3e1fbdac	0.15599698
81	0x3e026d2f	0.12736963
82	0x3e664538	0.22487342
83	0x3e04ec68	0.12980807
84	0x3e4dc267	0.2009369
85	0xbe38d5de	-0.18050334
86	0xbe757c20	-0.23973131
87	0x3e2f8a99	0.17142715
88	0x3dbf395b	0.093371116
89	0x3e167c93	0.14695959
90	0xbdd67d76	-0.104731485
91	0xbe4c29bd	-0.19937797
92	0x3dfb7b8c	0.12279424
93	0x3d109899	0.03530178
94	0x3d47864d	0.048712064
95	0xbe8ec914	-0.27887785
96	0xbe46c2cd	-0.19410248
97	0xbdd368b3	-0.10322704
98	0x3e119b04	0.1421929
99	0x3d88d3f4	0.06681052
100	0xbe0a21a9	-0.13489403
101	0xbdc3d128	-0.09561378
102	0x3da8c355	0.08240382
103	0xbe765774	-0.24056798
104	0xbe32e8fe	-0.17471692
105	0xbdc39276	-0.095494196
106	0xbcdc6ce5	-0.026907394
107	0xbc7c1e5e	-0.0153880995
108	0x3e23cc36	0.15995869
109	0xbd254c23	-0.040355813
110	0x3d98274b	0.074293695
111	0x3e30933a	0.17243662
112	0xbdb287ba	-0.08717294
113	0xbd6039bb	-0.054742556
114	0xbd02e846	-0.031959794
115	0xbda50bd2	-0.08058895
116	0xbe8fa59b	-0.28056034
117	0xbda3bca8	-0.07994968
118	0x3ddb0693	0.10694613
119	0x3e59b972	0.21262148
120	0xbe5c59c5	-0.2151862
121	0x3e59a1b7	0.21253096
122	0x3cd3f67c	0.025874369
123	0x3e5d967d	0.21639438
124	0xbd8da65b	-0.069164954
125	0x3e4182b0	0.1889751
126	0xbdfd3aec	-0.12364754
127	0xbe8fbdf3	-0.28074607
128	0xbd10381b	-0.035209756
129	0x3e6448c4	0.22293383
130	0xbc86874d	-0.016421938
131	0x3d78b267	0.060717013
132	0x3ddb5c09	0.10710914
133	0x3dd5bfa7	0.104369454
134	0x3e2a529f	0.1663308
135	0xbd86e630	-0.065868735
136	0xbe6152f9	-0.22004308
137	0xbe77cf25	-0.24200113
138	0xbdb35b1f	-0.08757614
139	0xbc217616	-0.009854814
140	0xbe1ef071	-0.15521409
141	0x3e5c9e6b	0.21544807
142	0x3e96fdba	0.29490453
143	0xbddd2781	-0.107985504
144	0x3cd1ff83	0.025634533
145	0xbd87d661	-0.066326864
146	0x3e30622f	0.17224954
147	0x3cdeeaea	0.027211625
148	0xbe6ccb0f	-0.23124336
149	0x3e3ee2d8	0.18641222
150	0x3e0bb885	0.13644607
151	0x3e1124f9	0.1417426
152	0x3e7d966f	0.24764417
153	0x3c0d1c6c	0.008612733
154	0xbde32f0c	-0.11092958
155	0xbe2bb6fa	-0.16769019
156	0x3dc992d4	0.09842458
157	0x3e556b13	0.20841627
158	0xbdb68c22	-0.08913447
159	0x3e54184f	0.20712398
160	0x3e24f7f6	0.16110215
161	0x3e67667a	0.22597685
162	0x3ccc893c	0.024967782
163	0xbe5188aa	-0.2046229
164	0xbb0f6b87	-0.002188416
165	0xbe724f68	-0.23663104
166	0xbd0923d8	-0.03348145
167	0x3acf47bf	0.0015814229
168	0x3dd8dc5f	0.105889075
169	0xbe648ba8	-0.223189
170	0xbe96b1ca	-0.29432517
171	0xbdcbd921	-0.099535234
172	0x3e335c15	0.17515595
173	0x3dcb28e0	0.09919906
174	0xbde56213	-0.11200347
175	0xbe9e0967	-0.30866548
176	0x3e30f8d6	0.17282423
177	0xbbb49107	-0.0055104527
178	0xbe71e1b0	-0.23621249
179	0xbb4bbc20	-0.0031087473
180	0xbe1fe5ec	-0.15615052
181	0xbe7a0cc3	-0.2441893
182	0x3dd3b30b	0.10336884
183	0x3a0a3f89	0.00052737497
184	0xbe1baf0d	-0.15203495
185	0xbe5a6532	-0.21327665
186	0x3e8a88c5	0.27057472
187	0xbdab59da	-0.08366747
188	0xbc8695b2	-0.016428802
189	0xbcce72e3	-0.025201267
190	0xbd7b41ab	-0.061341923
191	0x3e5e8c39	0.21733178
192	0xbd557ee9	-0.052122984
193	0x3e2f0fac	0.17095822
194	0x3e938f88	0.28820443
195	0x3e993282	0.29921347
196	0x3d83fba7	0.06444483
197	0xbe06183d	-0.13095184
198	0x3d1a1d93	0.03762586
199	0x3e030ac3	0.12797074
200	0x3e5fdc1b	0.21861307
201	0xbce32407	-0.02772714
202	0x3d843dc6	0.06457095
203	0xbe5da0a6	-0.21643314
204	0x3e303199	0.1720642
205	0xbdc737f9	-0.09727473
206	0xbe81612e	-0.25269455
207	0xbe8f8ec4	-0.2803861
208	0xbe9204d3	-0.28519306
209	0xbe26346a	-0.16230932
210	0x3e623507	0.22090541
211	0x3de5322a	0.11191209
212	0xbe7c04fb	-0.24611275
213	0xbe17eeec	-0.14837235
214	0x3d9323cf	0.07184564
215	0xbc878b09	-0.01654579
216	0xbd206884	-0.039162174
217	0x3d415180	0.047196865
218	0xbe00559c	-0.12532657
219	0x3e447b76	0.19187722
220	0x3e38bb3d	0.18040176
221	0x3da86933	0.0822319
222	0x3e360f8e	0.17779371
223	0x3e6b72ac	0.22992963
224	0x3e555094	0.2083152
225	0xbe0e5090	-0.1389792
226	0xbdd005c6	-0.10157351
227	0x3d4cc63b	0.049993735
228	0x3dc2653d	0.09491966
229	0x3e6bc76d	0.23025294
230	0xbdce9c05	-0.10088352
231	0xbd83e339	-0.06439824
232	0x3bb6a558	0.0055739097
233	0x3cbf08a8	0.023319557
234	0xbdef557c	-0.11686227
235	0xbe92c406	-0.2866518
236	0xbe13d511	-0.14436747
237	0xbe1696ef	-0.14706014
238	0x3e385514	0.18001205
239	0x3e32b799	0.1745285
240	0xbe80cc5c	-0.25155914
241	0x3d51f087	0.051254775
242	0xbc8b9db6	-0.017042976
243	0x3d273326	0.040820263
244	0xbde91fba	-0.113830045
245	0xbe1de378	-0.15418804
246	0xbe5088df	-0.20364712
247	0x3e8d77f7	0.27630588
248	0x3d342f9a	0.04399071
249	0x3d709c10	0.058742583
250	0x3e737e21	0.23778583
251	0x3aba5af1	0.0014217776
252	0xbda3150b	-0.07962998
253	0x3e4d4b99	0.2004837
254	0x3e4100e2	0.18847993
255	0x3e3a50ad	0.18194838

q_head.DAC_block.ff1.weight f4 [32, 14]
0	0xbe7b4278	-0.24537075
1	0xbe374e3f	-0.17900942
2	0x3dec81de	0.11548208
3	0x3dbde640	0.09272432
4	0xbd340662	-0.0439514
5	0xbe88f573	-0.26749763
6	0x3de05150	0.10953009
7	0x3de2e638	0.11079067
8	0x3d523033	0.051315498
9	0x3e12c26f	0.14331983
10	0x3e33601e	0.17517135
11	0x3e78347d	0.24238773
12	0x3df53247	0.1197248
13	0x3e8214e5	0.25406566
14	0x3e729f52	0.23693588
15	0x3dc57213	0.096408986
16	0xbeac7497	-0.336827
17	0xbe6b4106	-0.22974023
18	0x3ea4fc2b	0.3222364
19	0xbde49dc8	-0.11162907
20	0xbea6927a	-0.32533628
21	0xbeb1f4db	-0.34757122
22	0xbe1b5136	-0.15167698
23	0xbe08b3b8	-0.13349807
24	0xbeb5f8dd	-0.3554143
25	0xbdc0d1f4	-0.094150454
26	0xbea927b3	-0.330381
27	0x3e0ae4a2	0.13563779
28	0xbe0d6b02	-0.13810351
29	0xbdcf1b95	-0.10112683
30	0xbe3311dd	-0.17487283
31	0xbe9b3dce	-0.3032059
32	0x3e7e8ebe	0.2485914
33	0x3e6e715e	0.23285434
34	0x39f9656e	0.00047568552
35	0x3e058d64	0.13042217
36	0xbea930cb	-0.3304504
37	0x3e86ca7f	0.26326367
38	0xbe4e27d4	-0.2013238
39	0xbe1c4afd	-0.15262981
40	0xbe17e6b4	-0.148341
41	0x3ea9ebb3	0.33187637
42	0xbe798bd9	-0.24369754
43	0xbe9627d8	-0.29327273
44	0x3ea63b12	0.32466942
45	0xbdea98fa	-0.11454959
46	0xbebd97df	-0.3702993
47	0xbe137011	-0.14398219
48	0xbe03b84c	-0.12863272
49	0x3e8a89b9	0.270582
50	0x3e9951f0	0.29945326
51	0xbe9bdbad	-0.30441037
52	0x3ebeeb5b	0.37288937
53	0x3dec96af	0.11552178
54	0x3e804f80	0.25060654
55	0x3e08f77b	0.13375656
56	0x3df74e70	0.12075508
57	0x3e9f681e	0.31134123
58	0xbe4b4432	-0.19850233
59	0xbe29bc0e	-0.16575643
60	0x3e9c0174	0.3046986
61	0x3b9228de	0.004460438
62	0xbdf11348	-0.11771256
63	0x3e21fb18	0.15818441
64	0xbdcbb0bc	-0.09945819
65	0x3afb8403	0.0019189123
66	0x3c927b9d	0.017881209
67	0xbe05802f	-0.1303718
68	0xbeb06b0e	-0.34456676
69	0xb979ceea	-0.00023823572
70	0xbd474cd1	-0.048657242
71	0x3eb05a4c	0.3444389
72	0xbe108d16	-0.1411632
73	0xbe15af58	-0.1461767
74	0x3db51bad	0.08843169
75	0x3e7c8bc3	0.2466269
76	0xbebdf2d7	-0.37099335
77	0xbe94257f	-0.28934857
78	0xbdb93423	-0.090431474
79	0x3dac2a56	0.084065124
80	0xbd79f420	-0.06102383
81	0xbd516c99	-0.051128957
82	0xbe3163f5	-0.17323287
83	0x3ead58f0	0.33856916
84	0x3e89fe76	0.2695195
85	0x3ea102b4	0.31447375
86	0x3e0a3517	0.13496815
87	0xbe7db456	-0.24775824
88	0x3d8e0b18	0.0693571
89	0x3e3b94a5	0.18318422
90	0x3cc2635a	0.023729015
91	0xbe8eae50	-0.27867365
92	0xbe5cd1c4	-0.21564394
93	0x3e5ff3de	0.21870372
94	0xbe5906f1	-0.21194054
95	0xbe94380b	-0.28949007
96	0x3e07b650	0.1325314
97	0x3e13e2b4	0.14441949
98	0x3e190d9d	0.149466
99	0x3da8483b	0.08216902
100	0xbc56e859	-0.013116919
101	0xbbd372e9	-0.0064529073
102	0x3e613448	0.219926
103	0xbc934ca2	-0.017980877
104	0xbe5a084f	-0.21292232
105	0xbe596f5a	-0.21233884
106	0xbd1306a6	-0.035895012
107	0xbd148c04	-0.03626634
108	0xbe181d61	-0.14854957
109	0x3d1aa8aa	0.037758507
110	0xbead54a5	-0.3385364
111	0x3e21114b	0.15729253
112	0xbdbc63a8	-0.091986954
113	0x3da42b49	0.080160685
114	0x3e11e697	0.1424812
115	0x3d6b4dcd	0.057447243
116	0xbe9d24ed	-0.30692235
117	0xbe6a5f40	-0.22887897
118	0xbd48cb97	-0.049022283
119	0x3eabbca0	0.33542347
120	0x3e004d82	0.12529567
121	0x3d7149c2	0.05890823
122	0x3dcedaab	0.10100301
123	0xbd2f990b	-0.042870563
124	0x3e98088f	0.2969403
125	0x3db007c8	0.08595234
126	0x3e9e82e2	0.3095923
127	0xbd2b5c0a	-0.041835822
128	0xbd5bface	-0.053705983
129	0x3df484ed	0.11939416
130	0x3e227e27	0.15868436
131	0x3e0581cd	0.13037796
132	0x3dbf8a13	0.093525074
133	0xbe560ca4	-0.2090326
134	0xbeacc7da	-0.33746225
135	0xbdabaf26	-0.08383016
136	0xbe21a7a0	-0.157866
137	0xbe01b1a7	-0.12665425
138	0xbd5e7650	-0.05431205
139	0x3e8ba59a	0.2727478
140	0x3e3a4086	0.18188676
141	0x3e9708e8	0.29498982
142	0x3d06bf9c	0.032897577
143	0xbc9294da	-0.017893244
144	0x3ea66a94	0.32503188
145	0x3db9a0cc	0.09063873
146	0xbeaa1524	-0.33219254
147	0xbd62345a	-0.055225708
148	0xbe3c794f	-0.1840565
149	0x3e08e75c	0.13369507
150	0x3d23e7e2	0.040016063
151	0x3dcb0c58	0.09914464
152	0xbc2d2236	-0.010567239
153	0x3d9122f6	0.070867464
154	0xbdbf6ddc	-0.09347126
155	0xbdf0307a	-0.11727996
156	0xbce9158a	-0.028452653
157	0xbd6db391	-0.058032576
158	0xbe073c60	-0.13206625
159	0x3e9cf8f7	0.30658695
160	0x3dbfdf53	0.093687676
161	0x3bd937ce	0.006628967
162	0xbbbf6277	-0.0058405953
163	0xbdcf9506	-0.10135846
164	0xbde4c7a3	-0.1117089
165	0xbe474e18	-0.19463384
166	0xbe96be12	-0.29441887
167	0xbe40e7f1	-0.18838479
168	0x3e88839e	0.26662916
169	0x3d88e328	0.066839516
170	0xbe64613b	-0.22302715
171	0x3e09c406	0.13453683
172	0x3e51c746	0.20486173
173	0x3dafc5e9	0.0858267
174	0xbec1500f	-0.37756392
175	0xbec2dcf0	-0.38059187
176	0xbaca60d9	-0.001544024
177	0x3c899a5c	0.016797237
178	0xbdd8931b	-0.10574933
179	0x3dbf23e0	0.093330145
180	0xbec628c8	-0.3870299
181	0x3db1deb9	0.08685059
182	0x3e9771f7	0.29579136
183	0x3e5e5395	0.21711572
184	0xbdf365cd	-0.11884651
185	0xbe1bc880	-0.15213203
186	0x3e1571c5	0.14594181
187	0x3e87c55f	0.2651777
188	0xbec0e251	-0.37672666
189	0xbe99c765	-0.30034938
190	0xbebe75a2	-0.37199122
191	0x3e813ff9	0.2524412
192	0xbe4d15b5	-0.20027812
193	0xbdffc570	-0.1248883
194	0xbe2f3cc6	-0.17113027
195	0x3eac6fe5	0.3367912
196	0xbdd339a6	-0.1031373
197	0x3e154ed3	0.1458085
198	0x3d56cbdb	0.052440505
199	0xbeb8b466	-0.36075133
200	0x3e882685	0.26591888
201	0x3e125e66	0.14293823
202	0x3d175488	0.03694585
203	0xbe85c1e7	-0.26124498
204	0x3c9a49c7	0.018834008
205	0x3e462741	0.19350912
206	0xbeae9556	-0.3409831
207	0xbe0da797	-0.13833462
208	0xbcf4d8cf	-0.029888539
209	0x3e3f2645	0.18666942
210	0x3e8978ae	0.26849884
211	0x3d842be8	0.06453687
212	0xbe89a8d4	-0.26886618
213	0x3deacb67	0.11464577
214	0x3cedcba8	0.029027775
215	0x3deb7696	0.11497228
216	0xbea43404	-0.32070935
217	0x3cf11f53	0.029433882
218	0x3e02ec39	0.12785424
219	0x3ebe31e7	0.37147447
220	0xbeafccab	-0.34335837
221	0xbe4ce686	-0.20009813
222	0xbeccd42d	-0.40005627
223	0xbb0f27a6	-0.00218437
224	0xbe38f3a3	-0.1806169
225	0xbe6a4e31	-0.2288139
226	0xbd3066c5	-0.04306676
227	0xbcd39f13	-0.025832688
228	0xbea49c46	-0.32150477
229	0xbe176683	-0.14785199
230	0x3d0ee931	0.034890357
231	0xbdbee09e	-0.09320186
232	0x3d31db4e	0.043422036
233	0x3dd8681c	0.10566732
234	0x3e2b9273	0.16755085
235	0x3ea336dc	0.31877792
236	0x3ec204b4	0.37894213
237	0xbdc5a51f	-0.09650635
238	0xbea8c195	-0.3296019
239	0xbe0edcff	-0.13951491
240	0x3e6d1b42	0.2315493
241	0x3e2eab63	0.17057566
242	0x3db74626	0.08948927
243	0x3e138bb8	0.14408767
244	0x3e8e64ac	0.27811182
245	0x3cadbd63	0.02120847
246	0x3e401bc2	0.18760589
247	0xbd1f1474	-0.038837865
248	0xbd79a915	-0.060952265
249	0x3e5f71c0	0.21820736
250	0x3eafd457	0.3434169
251	0xbe533b93	-0.20628195
252	0x3eb7990a	0.35858947
253	0x3e745faf	0.23864625
254	0x3db12d4b	0.08651217
255	0xbe1a3375	-0.15058692

q_head.DAC_block.ff1.bias f4 [32]
0	0x3d9c640f	0.07636272
1	0x3e9c1764	0.30486596
2	0x3e87d874	0.26532328
3	0xbe0fc4e3	-0.1403995
4	0x3e2e2a25	0.17008264
5	0x3d3cf478	0.04613158
6	0x3e3d75a1	0.18501903
7	0x3dbd11ef	0.09231936
8	0xbe55642f	-0.20838998
9	0x3d4d78f6	0.050164185
10	0x3e8f1a28	0.27949643
11	0x3e2d32a7	0.16913854
12	0xbdf66bb0	-0.120322585
13	0x3dbe350b	0.09287461
14	0x3ea699d8	0.32539248
15	0x3e9c8369	0.30569008
16	0xbe57a4b4	-0.21058923
17	0xbea37687	-0.31926367
18	0x3e6cdffc	0.23132318
19	0x3d81b800	0.06333923
20	0x3ea814fb	0.32828507
21	0x3e8b05a5	0.27152744
22	0x3e17a456	0.14808783
23	0x3e2d9ff3	0.16955547
24	0xbd278354	-0.04089673
25	0x3d35f409	0.044422183
26	0xbe773770	-0.24142241
27	0xbe0885f4	-0.13332349
28	0x3e584a85	0.21122177
29	0xbe42eb6a	-0.19035116
30	0xbe3fe2ac	-0.18738812
31	0xbe901ef3	-0.28148612

q_head.DAC_block.ff2.weight f4 [16, 32]
0	0xbd0fd98b	-0.035119575
1	0xbc897aef	-0.016782252
2	0xbda60b9b	-0.08107682
3	0xbbce3eba	-0.0062940987
4	0xbd18d9de	-0.03731715
5	0xbe1aecc6	-0.15129384
6	0x3d35cbbb	0.044383746
7	0x3d0af6f3	0.033926915
8	0x3e3091ae	0.17243072
9	0xbe41d628	-0.1892935
10	0x3d23373f	0.03984761
11	0xbcf05ffa	-0.02934264
12	0xbe32ea89	-0.1747228
13	0xbda698e7	-0.081346326
14	0xbdff96da	-0.124799445
15	0xbe89a9e6	-0.26887435
16	0x3e37e06e	0.17956707
17	0xbc79e471	-0.015252219
18	0xbdba7c86	-0.09105782
19	0xbe4038bd	-0.18771644
20	0xbcc4f91d	-0.024044568
21	0xbe80f270	-0.25184965
22	0xbe8747a1	-0.26421836
23	0xbd97a176	-0.07403843
24	0xbde0500a	-0.10952766
25	0xbcde77c2	-0.027156714
26	0xbcd4f2cb	-0.025994679
27	0x3e9037e3	0.28167638
28	0x3b6abc02	0.0035817628
29	0x3e37d3cc	0.17951888
30	0x3e829f3f	0.2551212
31	0xbd6978ef	-0.057000097
32	0x3e15e929	0.14639725
33	0xbe7bef41	-0.24602987
34	0x3d2ff6e8	0.042960078
35	0x3bccb6f2	0.0062473947
36	0xbc290270	-0.010315523
37	0xbddc6923	-0.10762241
38	0xbda258b0	-0.07927072
39	0xbe0d15fe	-0.1377792
40	0xbda05d76	-0.07830326
41	0xbd02fb88	-0.03197816
42	0xbe6bbcdb	-0.23021261
43	0xbe4be6d2	-0.1991227
44	0xbe1f34a5	-0.15547426
45	0xbe367b61	-0.17820503
46	0xbcb1feed	-0.021728003
47	0xbe613fe8	-0.21997035
48	0x3da59b1e	0.08086227
49	0x3de41a4a	0.11137827
50	0x3db54f95	0.0885307
51	0xbe844a64	-0.25838006
52	0xbd3b97d6	-0.0457991
53	0xbe02849e	-0.12745902
54	0x3d0e24cc	0.03470306
55	0x3d2755ef	0.040853437
56	0x3d1fcf59	0.0390161
57	0x3e08c631	0.13356854
58	0x3d08bf27	0.033385422
59	0xbd69cbfe	-0.057079308
60	0x3d75d89f	0.06002104
61	0x3dc2bfbd	0.095092274
62	0x3d0a2072	0.03372235
63	0x3e864854	0.26227057
64	0x3de8b3b6	0.11362402
65	0xbe608e7b	-0.21929352
66	0xbdf47048	-0.119354784
67	0x3c872045	0.01649488
68	0xbe2720ce	-0.16321108
69	0x3aed282b	0.0018093636
70	0xbe3614c7	-0.17781363
71	0xbd93f114	-0.072237164
72	0x3d53ec02	0.051738746
73	0x3db84104	0.08996776
74	0xbe7d8dfe	-0.24761197
75	0xbddb63d0	-0.10712397
76	0xbe3fec7d	-0.18742557
77	0xbde4235d	-0.111395575
78	0xbe2c0c10	-0.16801476
79	0x3d5f311e	0.0544902
80	0x3e0a8a1f	0.13529252
81	0xbd85b3e5	-0.06528453
82	0xbdde422a	-0.108524635
83	0xbe78c480	-0.24293709
84	0x3d73d13e	0.05952572
85	0xbe1ace85	-0.15117843
86	0xbe71140c	-0.23542804
87	0x3c81fff7	0.015869124
88	0xbd9833dd	-0.07431767
89	0x3cc55476	0.024088126
90	0x3e16fd57	0.14745079
91	0x3e6cfcad	0.23143263
92	0xbb867073	-0.0041027605
93	0x3d795af5	0.06087776
94	0xbb679aa1	-0.0035339969
95	0x3e245b54	0.16050464
96	0xbd98e1f1	-0.0746497
97	0xbd1b3f7d	-0.037902344
98	0xbe26b8bb	-0.16281407
99	0xbcf2bba2	-0.029630486
100	0xbdf684eb	-0.12037071
101	0xbdb95dbc	-0.090510815
102	0xbdebdb56	-0.115164444
103	0xbe0ce577	-0.13759409
104	0x3e7d7629	0.24752106
105	0xbe2e11e3	-0.1699901
106	0xbe149b7f	-0.14512442
107	0xbe6ad1e7	-0.22931634
108	0xbe0e2a0e	-0.1388323
109	0xbe634ad6	-0.22196516
110	0xbdc439df	-0.095813505
111	0xbe616c12	-0.22013882
112	0x3d9b9301	0.07596398
113	0x3bded39c	0.006800128
114	0xbdd47e0f	-0.10375606
115	0xbe4a47c3	-0.19753937
116	0xbe7b1ddc	-0.24523109
117	0xbe1f84c2	-0.15577987
118	0x3ce98e01	0.028510096
119	0xbdeeca3d	-0.11659668
120	0xbe3d1fa2	-0.18469098
121	0xbde780a6	-0.113038346
122	0x3e2aa3b7	0.16664015
123	0xbce5c259	-0.028046774
124	0xbdf5be6b	-0.1199921
125	0xbdb1bfe8	-0.08679181
126	0x3d420a12	0.047372885
127	0xbd103207	-0.03520396
128	0x3e08210a	0.13293853
129	0x3de4189f	0.111375086
130	0x3dbcd4f6	0.092203066
131	0x3e50a41d	0.20375104
132	0xbe76b27f	-0.24091528
133	0x3d3dbe39	0.04632399
134	0xbe746ed3	-0.23870401
135	0xbe2c87b4	-0.16848642
136	0xbd84908d	-0.064728834
137	0x3df3d68b	0.11906155
138	0x3dcb47fa	0.09925838
139	0xbd3af652	-0.045645066
140	0xbd48ac74	-0.04899259
141	0xbc0c070a	-0.0085466
142	0xbdaa4baa	-0.08315213
143	0x3dd37afc	0.10326192
144	0x3e2cda41	0.16880132
145	0x3e496c9f	0.19670342
146	0x3ac923f0	0.0015345793
147	0xbd978322	-0.073980585
148	0xbe0e309c	-0.1388573
149	0xbe2a84f8	-0.16652286
150	0x3d15ff05	0.03662016
151	0xbe3b86c1	-0.18313123
152	0x3e3b9aed	0.18320818
153	0xbd94cc71	-0.072655566
154	0x3e71b585	0.236044
155	0x3ded0294	0.11572757
156	0x3d00c1a3	0.031434666
157	0x3b0508db	0.0020299468
158	0xbd998fc0	-0.07498121
159	0x3df21797	0.11820906
160	0x3df6570a	0.1202832
161	0xbe7f9e20	-0.24962664
162	0xbe0edcd8	-0.13951433
163	0x3d83dc0b	0.06438454
164	0x3d954bd9	0.072898574
165	0xbd83295a	-0.064043716
166	0xbe62876d	-0.22121973
167	0xbe8798c1	-0.2648373
168	0x3e395fa2	0.18102887
169	0x3c4c56e6	0.01247189
170	0xbe7f9460	-0.24958944
171	0xbe74fbde	-0.23924205
172	0x3d8c697b	0.06856056
173	0xbe489e6a	-0.1959168
174	0xbe01b6c7	-0.1266738
175	0xbca44ff7	-0.020057661
176	0x3d4bfce3	0.04980172
177	0xbd4880b8	-0.04895088
178	0xbe46f931	-0.19430996
179	0xbdd624e4	-0.10456255
180	0xbe1de5b0	-0.1541965
181	0x3d973e60	0.07384944
182	0x3dba51f1	0.0909766
183	0x3c696649	0.014245578
184	0xbde9e6af	-0.114209525
185	0x3d929a73	0.07158365
186	0xbd13a30b	-0.03604416
187	0xbd44de3d	-0.048063505
188	0x3cc2fb64	0.023801513
189	0xbdb3bf06	-0.08776669
190	0x3b831532	0.0040003294
191	0x3c0fe68f	0.008782997
192	0x3dd5afac	0.104338974
193	0xbdd0e925	-0.10200719
194	0xbe714609	-0.23561873
195	0x3e785a40	0.24253178
196	0xbe67938b	-0.22614877
197	0xbe43c18c	-0.19116801
198	0xbe8247c1	-0.2544537
199	0xbd1f57a5	-0.038901944
200	0x3e171496	0.14753947
201	0xbdb1ce5c	-0.08681938
202	0xbe147ba3	-0.14500289
203	0xbe23ef07	-0.1600915
204	0xbc51d771	-0.012807713
205	0xbe62a7f9	-0.22134389
206	0xbc9bcb7b	-0.019017925
207	0x3d423d47	0.04742172
208	0xbd41042c	-0.04712312
209	0x3dc07e00	0.093990326
210	0x3dac6dc5	0.084193744
211	0x3c5a6a61	0.013331027
212	0xbdb0bda0	-0.08629918
213	0xbd7dc037	-0.06195089
214	0x3d2f08a7	0.04273286
215	0xbdad23d7	-0.084541015
216	0xbe457703	-0.1928368
217	0xbd2684b6	-0.040653907
218	0x3ca7c731	0.020480724
219	0x3e8246ed	0.25444737
220	0x3d9bb4f0	0.076028705
221	0xbdae0f7a	-0.08499046
222	0x3e64a7be	0.22329614
223	0x3daf8afe	0.085714325
224	0xbe042972	-0.12906435
225	0xbda48bad	-0.080344535
226	0xbdc835f8	-0.09775919
227	0x3dcd7962	0.100329176
228	0xbdd3fd4a	-0.103510454
229	0xbe400716	-0.18752703
230	0x3d5d4028	0.054016262
231	0xbdf86dec	-0.12130341
232	0xbc50a4f4	-0.01273464
233	0xbe0a504d	-0.13507195
234	0xbe797855	-0.2436231
235	0xbd9f4449	-0.07776696
236	0x3d310aa4	0.04322304
237	0xbe25337f	-0.16132925
238	0xbdeb3bb3	-0.11485996
239	0xbdcb13e6	-0.09915905
240	0x3e6848cc	0.2268402
241	0x3e60e7a7	0.21963368
242	0xbe0b556d	-0.13606806
243	0xbe0252a6	-0.1272684
244	0xbe3cc24b	-0.18433492
245	0xbe59b725	-0.2126127
246	0xbd0c6038	-0.03427145
247	0x3d9b0a25	0.07570294
248	0xbdbe539d	-0.09293292
249	0x3df2709f	0.11837887
250	0x3e192ae9	0.14957775
251	0xbda25aa5	-0.07927445
252	0x3df50ebe	0.119657025
253	0xbd278ed7	-0.040907707
254	0xbd93fd5e	-0.0722606
255	0x3e73dbfd	0.23814388

q_head.DAC_block.ff2.bias f4 [16]
0	0xbe463f4b	-0.19360082
1	0xbe46b7b7	-0.19406019
2	0x3c09072f	0.008363529
3	0xbdac4ba1	-0.084128626
4	0x3d873e8a	0.06603725
5	0x3dbdd3ff	0.09268951
6	0x3dc4ae30	0.09603536
7	0xbe61c1a4	-0.22046524
8	0x3d7e361c	0.06206332
9	0xbd225caf	-0.03963917
10	0xbdef2271	-0.11676491
11	0xbe15733a	-0.14594737
12	0xbe4c015e	-0.19922397
13	0xbdeac31d	-0.11462996
14	0x3d1a577e	0.037681095
15	0x3d0a79d6	0.033807598
