checkpoints/q-mamba/20240831_083609/checkpoint-6.pt (torch, 103216 bytes, 52 tensors)

q_head.DAC_block.mamba_blocks.0.A_log f4 [28, 32]
-0.0017338641 0.6883097 1.0890654 1.3746313 1.6010054 1.7828108 1.9402581 2.0585077
2.186797 2.2883337 2.3795362 2.4640465 2.5455282 2.6171932 2.6824958 2.741391
2.810347 2.8639956 2.920847 2.9640038 3.0307353 3.0640311 3.1041994 3.1386008
3.1905866 3.2327085 3.2607527 3.309581 3.3334296 3.37335 3.39774 3.440649
-0.030654216 0.64985114 1.0457063 1.3308655 1.5608089 1.7431073 1.9056683 2.0158715
2.14779 2.2485132 2.3380656 2.4236076 2.505871 2.5770533 2.6431355 2.7022412
2.7720423 2.8248203 2.8822856 2.9275348 2.9963737 3.0265737 3.069367 3.1034276
3.1552305 3.1968498 3.2250392 3.2749448 3.2984843 3.3385718 3.3631213 3.4089677
-0.05772002 0.6248794 1.0213493 1.30741 1.5403082 1.7277436 1.8898904 1.9950674
2.1308126 2.2337353 2.3193197 2.4065313 2.4897537 2.5602818 2.6271932 2.6860611
2.7574735 2.8095562 2.8679702 2.9139702 2.9890587 3.0128798 3.0578797 3.0903184
3.146124 3.1856358 3.2131693 3.2645838 3.288057 3.3294988 3.353156 3.4019973
-0.0018656276 0.6881518 1.0892872 1.3751653 1.6013625 1.783408 1.9407483 2.0609646
2.187905 2.2898152 2.3819485 2.4670365 2.5483954 2.620464 2.6865141 2.7470016
2.8142366 2.868657 2.9249823 2.969565 3.0332844 3.068902 3.1102726 3.146656
3.1960006 3.2376392 3.2680504 3.3145578 3.3403292 3.3790605 3.4050438 3.4462595
-0.043424964 0.63716274 1.0318037 1.3167992 1.5493895 1.7343068 1.8969817 2.0004263
2.1376379 2.2390375 2.3243666 2.410637 2.493908 2.5634005 2.6290383 2.6860054
2.7597165 2.8099232 2.8691607 2.9129531 2.99333 3.0118132 3.056734 3.0859365
3.147317 3.184484 3.2078156 3.2638521 3.2826736 3.3286428 3.3461604 3.4040072
-0.020989874 0.6590499 1.05471 1.33968 1.5686889 1.7500417 1.9122169 2.0244815
2.1547494 2.2546637 2.3458974 2.4308472 2.512722 2.5844336 2.6505644 2.711876
2.7785556 2.8326712 2.8892088 2.9348204 2.999933 3.0338404 3.075588 3.1143425
3.1599512 3.2029874 3.2341518 3.2804687 3.3061624 3.3435593 3.3715575 3.412299
-0.029561374 0.65408134 1.0533919 1.33953 1.5664833 1.7490565 1.90839 2.0278041
2.1537359 2.2547004 2.3484423 2.4339874 2.5150282 2.5877864 2.6551456 2.7203846
2.7815495 2.8381615 2.8932698 2.941037 2.9994366 3.0382438 3.0811067 3.1254556
3.165762 3.2058957 3.2426925 3.2818031 3.3135576 3.3479664 3.3798788 3.4136183
-0.062260285 0.6208111 1.0181515 1.304477 1.5358897 1.7189043 1.8843948 1.9940178
2.1248531 2.2261758 2.314688 2.4015663 2.484647 2.5556576 2.6236854 2.685511
2.752391 2.8060808 2.8627117 2.9109926 2.9811676 3.0093355 3.0532548 3.0935307
3.139681 3.1816773 3.2128465 3.2608771 3.2863212 3.3244536 3.352413 3.3980656
00000000: d342 e3ba 1135 303f 7f66 8b3f ebf3 af3f
00000010: bfed cc3f 2533 e43f 615a f83f 97be 0340
00000020: 7bf4 0b40 0f74 1240 524a 1840 f0b2 1d40
00000030: efe9 2240 1880 2740 03ae 2b40 f372 2f40
00000040: badc 3340 b44b 3740 28ef 3a40 3db2 3d40
00000050: 91f7 4140 1619 4440 34ab 4640 d6de 4840
00000060: 9232 4c40 b2e4 4e40 2cb0 5040 2dd0 5340
00000070: e956 5540 f7e4 5740 9274 5940 9833 5c40
00000080: 8d1e fbbc a55c 263f b4d9 853f cd59 aa3f
00000090: 96c8 c73f 241e df3f f0ec f33f 0a04 0140
000000a0: 6475 0940 a4e7 0f40 dea2 1540 631c 1b40
000000b0: 3160 2040 71ee 2440 2229 2940 85f1 2c40
000000c0: 2469 3140 dbc9 3440 5e77 3840 bb5c 3b40
000000d0: 96c4 3f40 62b3 4140 8270 4440 8f9e 4640
000000e0: 4cef 4940 3099 4c40 0b67 4e40 b298 5140
000000f0: 5e1a 5340 29ab 5540 613d 5740 872c 5a40
00000100: d46b 6cbd 19f8 1f3f 93bb 823f 3659 a73f
00000110: d228 c53f b426 dd3f eee7 f13f 5e5e ff3f
00000120: 3c5f 0840 85f5 0e40 bc6f 1440 9c04 1a40
00000130: 2058 1f40 a8db 2340 ef23 2840 6de8 2b40
00000140: 727a 3040 c5cf 3340 d38c 3740 7d7e 3a40
00000150: bd4c 3f40 06d3 4040 4db4 4340 c7c7 4540
00000160: 185a 4940 75e1 4b40 91a4 4d40 f1ee 5040
00000170: 876f 5240 8216 5540 1c9a 5640 53ba 5940
00000180: 1388 f4ba b72a 303f c36d 8b3f 6b05 b03f
00000190: 72f9 cc3f b746 e43f 716a f83f d8e6 0340
000001a0: a306 0c40 558c 1240 d871 1840 ede3 1d40
000001b0: e918 2340 afb5 2740 d9ef 2b40 e0ce 2f40
000001c0: 741c 3440 1498 3740 e932 3b40 5a0d 3e40
000001d0: 5521 4240 e468 4440 b50e 4740 d062 4940
000001e0: 468b 4c40 7b35 4f40 bd27 5140 b721 5440
000001f0: f4c7 5540 8742 5840 3dec 5940 848f 5c40
00000200: 60de 31bd 191d 233f 2512 843f e08c a83f
00000210: 6552 c63f c4fd dd3f 4cd0 f23f fc06 0040
00000220: 0fcf 0840 644c 0f40 6cc2 1440 e047 1a40
00000230: 309c 1f40 c10e 2440 2a42 2840 83e7 2b40
00000240: 329f 3040 c8d5 3340 54a0 3740 d36d 3a40
00000250: b892 3f40 8cc1 4040 88a1 4340 fc7f 4540
00000260: a46d 4940 96ce 4b40 da4c 4d40 f4e2 5040
00000270: 5317 5240 7c08 5540 7e27 5640 41db 5940
00000280: f5f2 abbc 7fb7 283f bd00 873f a27a ab3f
00000290: ccca c83f 5e01 e03f 86c3 f43f 1b91 0140
000002a0: 6ae7 0940 694c 1040 2f23 1640 0093 1b40
000002b0: 70d0 2040 5c67 2540 d9a2 2940 608f 2d40
000002c0: dbd3 3140 7c4a 3540 cce8 3840 19d4 3b40
000002d0: e7fe 3f40 712a 4240 6fd6 4440 6351 4740
000002e0: a43c 4a40 bffd 4c40 58fc 4e40 33f3 5140
000002f0: 2a98 5340 e0fc 5540 99c7 5740 1b63 5a40
00000300: b22a f2bc e071 273f 8cd5 863f b875 ab3f
00000310: 8682 c83f 15e1 df3f 2046 f43f 8bc7 0140
00000320: cfd6 0940 034d 1040 e14c 1640 73c6 1b40
00000330: 39f6 2040 4b9e 2540 e8ed 2940 c81a 2e40
00000340: e804 3240 70a4 3540 552b 3940 f339 3c40
00000350: c5f6 3f40 9672 4240 da30 4540 7707 4840
00000360: d89b 4a40 652d 4d40 4688 4f40 1009 5240
00000370: 5411 5440 1545 5640 ef4f 5840 b978 5a40
00000380: a404 7fbd 7aed 1e3f ca52 823f 1af9 a63f
00000390: 0998 c43f 0e05 dc3f d933 f13f fa3b ff3f
000003a0: 98fd 0740 aa79 0e40 d923 1440 43b3 1940
000003b0: 7504 1f40 e58f 2340 76ea 2740 6adf 2b40
000003c0: 2d27 3040 d496 3340 ab36 3740 b44d 3a40
000003d0: 73cb 3e40 f498 4040 8768 4340 68fc 4540
000003e0: 89f0 4840 9aa0 4b40 479f 4d40 36b2 5040
000003f0: 1653 5240 d9c3 5440 ef8d 5640 e879 5940

q_head.DAC_block.mamba_blocks.0.D f4 [28]
1.1235656 1.1211388 1.120428 0.9767989 1.1136843 1.0872864 1.0969185 1.1242739
1.1035154 1.0932994 1.107268 1.1139462 1.1135212 1.1139959 1.0932771 1.1168582
1.1172936 1.1273893 1.0674295 1.0510314 1.0865048 1.1227472 1.0634493 1.102347
1.1095278 1.0922973 1.1181802 1.1224781
00000000: ffd0 8f3f 7a81 8f3f 2f6a 8f3f 7e0f 7a3f
00000010: 358d 8e3f 332c 8b3f d367 8c3f 35e8 8f3f
00000020: fe3f 8d3f 3cf1 8b3f f5ba 8d3f ca95 8e3f
00000030: dd87 8e3f 6b97 8e3f 81f0 8b3f 36f5 8e3f
00000040: 7a03 8f3f 4b4e 903f 88a1 883f 3288 863f
00000050: 9712 8b3f 2eb6 8f3f 1b1f 883f b519 8d3f
00000060: 0205 8e3f 66d0 8b3f 8720 8f3f 5dad 8f3f

q_head.DAC_block.mamba_blocks.0.in_proj.weight f4 [56, 14]
-0.08299221 0.19026934 0.1104751 0.17206974 0.2947511 0.3641437 0.19334549 0.08965586
0.40841442 0.15069972 0.08886866 -0.108778864 0.13134365 -0.15693098 0.264834 -0.12343898
0.34613487 0.12362603 0.28680778 0.3144495 0.2571727 -0.06727352 0.018899035 0.22490382
0.13527593 -0.19314285 0.14609124 0.2521181 -0.23134501 -0.34593418 -0.37479413 -0.23616786
-0.19811185 -0.32840014 -0.16480888 -0.39610553 -0.20115384 -0.01159571 0.13140117 0.0978997
-0.19538136 -0.21582186 -0.002250104 -0.13568442 -0.12502885 0.17702377 -0.28279915 -0.14114594
0.1763547 0.22627471 -0.013445455 0.07719839 0.15527427 0.1828603 -0.2601889 -0.3076628
-0.015589998 0.19287892 0.23608601 0.29895768 0.3198366 -0.022115542 0.22740471 0.06884901
0.0062696636 -0.17887485 0.26880312 -0.07415889 -0.012069019 0.14472912 0.36595106 -0.05577136
0.25777018 -0.112236895 -0.14381948 -0.08923671 0.0384361 0.23904225 0.2867495 -0.19288118
0.26457494 0.3128372 0.22827975 0.26297617 0.3169814 -0.12355621 0.09001615 0.2563383
-0.12777634 0.17748159 0.30950192 0.0024135213 -0.10728716 0.10260905 0.26773927 0.34770635
-0.14733295 0.23291658 -0.079662636 -0.0748823 -0.050953235 -0.005402276 -0.1462185 -0.34206513
-0.29755798 0.11813689 -0.022110486 -0.09754019 -0.12892438 -0.0650463 -0.23792876 0.1238985
-0.08265211 0.07703047 0.10521188 -0.14949898 -0.015886918 -0.0027915793 -0.24954885 -0.19250105
0.23587137 0.21231493 0.22236374 0.26820326 0.23333047 0.28310785 0.16313317 -0.23250982
0.14966217 -0.2634823 0.16214281 0.09623816 -0.17356877 0.006827635 0.21839432 0.016883453
-0.18977086 -0.039389685 0.28058648 0.30601436 -0.07367365 0.35304514 -0.08604801 -0.10350652
-0.067661285 0.11636809 -0.069719955 -0.051973715 0.29749265 -0.24570549 -0.07347406 0.20953844
0.3019697 0.2669334 0.11739127 -0.10539224 -0.11168477 0.20832841 0.062061455 0.0072941924
0.18920802 -0.12836248 0.37075147 0.23769148 0.32037845 0.2903769 0.08494561 0.06823324
0.14087442 0.15067923 -0.14732853 -0.10128555 -0.2725376 0.070702426 -0.13491982 -0.1416983
-0.07508076 0.12562795 0.018478893 -0.08272614 0.15481152 0.072725356 -0.058879826 0.0023235388
0.020880135 0.103861734 0.25920698 0.2256249 0.07258853 0.3326553 0.36319304 -0.20623852
0.28739992 0.07251988 0.16768943 0.06867299 -0.054465562 -0.31242037 -0.25314745 -0.16007933
0.00731535 -0.17452587 -0.27861893 -0.2862876 0.094879605 -0.19261543 0.15445736 -0.28782606
-0.32597417 -0.01801068 -0.085926056 -0.104476 0.25796843 0.23207828 0.048576627 0.30152395
0.058639128 0.3440022 0.2254006 0.22565934 0.17548053 0.021003725 0.15501928 0.032715756
-0.0052359193 -0.004290886 -0.40089166 -0.03849841 -0.22464709 -0.20734577 0.04137635 -0.06569061
-0.14137007 -0.03451842 -0.29897335 -0.04639318 -0.029711155 -0.08759975 0.06530766 0.16967642
-0.018487636 0.22110148 -0.11516434 0.077262804 0.17953652 0.13922338 0.17625943 -0.07747898
0.1593631 -0.012429051 -0.028370822 0.3559422 -0.23728506 -0.22788198 -0.27056035 0.17626028
00000000: d2f7 a9bd f7d5 423e c540 e23d 0d33 303e
00000010: 9ee9 963e 0b71 ba3e 5cfc 453e 7e9d b73d
00000020: b21b d13e 0751 1a3e c600 b63d 74c7 debd
00000030: f37e 063e 84b2 20be 5298 873e 93cd fcbd
00000040: 9738 b13e a52f fd3d 78d8 923e 86ff a03e
00000050: 24ac 833e b3c6 89bd 26d2 9a3c 304d 663e
00000060: c685 0a3e 3dc7 45be f198 153e a015 813e
00000070: b5e5 6cbe 491e b1be 04e5 bfbe fdd5 71be
00000080: d5dd 4abe 1024 a8be a9c3 28be 58ce cabe
00000090: 46fb 4dbe effb 3dbc 078e 063e a37f c83d
000000a0: 0d12 48be 6800 5dbe 7b76 13bb dbf0 0abe
000000b0: 9007 00be b845 353e 0dcb 90be 9088 10be
000000c0: 5496 343e 8fb4 673e 534a 5cbc 311a 9e3d
000000d0: 3800 1f3e bb3f 3b3e 7b37 85be fb85 9dbe
000000e0: 316d 7fbc 0d82 453e 88c0 713e fb10 993e
000000f0: 9fc1 a33e a72b b5bc c8dc 683e b600 8d3d
00000100: c071 cd3b f82a 37be 90a0 893e 9ee0 97bd
00000110: 22bd 45bc df33 143e f05d bb3e 8270 64bd
00000120: 74fa 833e 75dc e5bd 6a45 13be bcc1 b6bd
00000130: 2c6f 1d3d 7ec7 743e d5d0 923e a582 45be
00000140: 5e76 873e 332c a03e 2bc2 693e d0a4 863e
00000150: 634b a23e 0a0b fdbd 635a b83d c63e 833e
00000160: cdd7 02be bcbd 353e 0977 9e3e 2b2c 1e3b
00000170: 5fb9 dbbd b224 d23d 1f15 893e 9106 b23e
00000180: 73de 16be af81 6e3e 2a26 a3bd e45b 99bd
00000190: 57b4 50bd 9305 b1bb 4dba 15be 2923 afbe
000001a0: 8559 98be c1f1 f13d 0d21 b5bc 27c3 c7bd
000001b0: c104 04be ff36 85bd 99a3 73be 7fbe fd3d
000001c0: 8245 a9bd 27c2 9d3d 5379 d73d 4316 19be
000001d0: 4825 82bc eef2 36bb bc89 7fbe ff1e 45be
000001e0: 4488 713e 1669 593e 52b3 633e f051 893e
000001f0: 2fee 6e3e 83f3 903e 620c 273e 0e17 6ebe
00000200: 0a41 193e 27e7 86be c408 263e 8318 c53d
00000210: 03bc 31be 5bba df3b c3a2 5f3e 2b4f 8a3c
00000220: 4b53 42be 1457 21bd 08a9 8f3e eaad 9c3e
00000230: 36e2 96bd 55c2 b43e f039 b0bd 3afb d3bd
00000240: 0092 8abd 6552 ee3d 56c9 8ebd 64e2 54bd
00000250: f550 983e 389a 7bbe 9179 96bd 3f91 563e
00000260: c69b 9a3e 7fab 883e d66a f03d e3d7 d7bd
00000270: fcba e4bd 0b54 553e 2734 7e3d 1f04 ef3b
00000280: bfbf 413e 7471 03be 23d3 bd3e 6565 733e
00000290: a508 a43e 48ac 943e f7f7 ad3d debd 8b3d
000002a0: 6241 103e a84b 1a3e 4add 16be cc6e cfbd
000002b0: 0c8a 8bbe 6fcc 903d 6c28 0abe 5c19 11be
000002c0: f1c3 99bd 9da4 003e 0c61 973c 536c a9bd
000002d0: e986 1e3e 08f1 943d f92b 71bd 8346 183b
000002e0: d10c ab3c 76b5 d43d c7b6 843e 370a 673e
000002f0: 4ca9 943d cc51 aa3e 70f4 b93e 3130 53be
00000300: 1526 933e 4e85 943d c7b6 2b3e 6da4 8c3d
00000310: 4817 5fbd 90f5 9fbe 8b9c 81be d6eb 23be
00000320: 9bb5 ef3b e9b6 32be 24a7 8ebe 4a94 92be
00000330: 3d50 c23d fb3c 45be 122a 1e3e f05d 93be
00000340: 16e6 a6be 228b 93bc 00fa afbd 83f7 d5bd
00000350: 7014 843e eea5 6d3e 49f8 463d 5961 9a3e
00000360: 952f 703d 0e21 b03e 6acf 663e 3e13 673e
00000370: 2bb1 333e 0110 ac3c 60bd 1e3e f500 063d
00000380: 1392 abbb 909a 8cbb ac41 cdbe 82b0 1dbd
00000390: e309 66be 7352 54be 3f7a 293d cc88 86bd
000003a0: 51c3 10be 3063 0dbd 0913 99be c606 3ebd
000003b0: cf64 f3bc 7f67 b3bd 06c0 853d a8bf 2d3e
000003c0: 6273 97bc 6d68 623e 48db ebbd f63b 9e3d
000003d0: 6cd8 373e 9390 0e3e 5a7d 343e 4dad 9ebd
000003e0: 1530 233e 38a3 4bbc ed69 e8bc 0e3e b63e
000003f0: dbfa 72be e559 69be e386 8abe 937d 343e

q_head.DAC_block.mamba_blocks.0.conv1d.weight f4 [28, 1, 4]
0.16933537 0.1372692 -0.38960615 0.5448877 0.16828698 -0.35534936 -0.537435 -0.123999745
-0.28845686 0.24868953 0.44943708 0.57683295 -0.27426612 -0.453395 -0.5563325 0.33860242
-0.44143003 0.39759636 0.32312524 -0.515462 -0.3306089 -0.3389591 0.0744681 0.44196266
0.07083106 -0.18967539 0.04534407 0.56269336 -0.2424171 -0.045998693 -0.3461106 -0.2773011
0.25744945 -0.13901925 0.30484855 -0.12246882 0.2916671 0.12754208 -0.38907477 0.14436124
-0.30303776 0.08562493 0.19040525 0.40192705 0.04196185 -0.2758264 0.027753567 0.43640658
-0.019853175 0.04672599 -0.5055457 0.08552695 0.38839006 0.40366167 -0.49200317 -0.17171879
-0.41824663 0.30795246 -0.15406778 -0.5890547 0.28875607 -0.16521484 -0.35178992 0.57135534
-0.3064363 0.038155675 -0.0054569007 0.42349085 -0.010876238 -0.43152815 0.33910915 0.32913983
0.35855246 -0.2115916 0.2914859 0.22993793 -0.13354611 -0.17424029 0.124484904 0.122776486
0.21516192 0.09959602 -0.47164476 0.41363987 -0.31578028 0.055472434 -0.3476387 0.35858732
0.25584018 0.07971257 0.00896263 -0.51735055 0.30041486 0.2283606 0.42373508 0.3462555
0.027144253 -0.13151896 -0.01636379 -0.3047479 -0.32277143 0.20261961 -0.59061736 -0.35203952
0.31416994 -0.23655838 -0.41194472 -0.060982365 -0.45996404 -0.016076684 -0.36997 0.36991015
00000000: 4066 2d3e 4c90 0c3e 757a c7be c37d 0b3f
00000010: 6c53 2c3e 5af0 b5be 5795 09bf 94f3 fdbd
00000020: 9eb0 93be 78a8 7e3e 9e1c e63e 53ab 133f
00000030: 9c6c 8cbe 6423 e8be cf6b 0ebf 4c5d ad3e
00000040: 1e03 e2be c091 cb3e ac70 a53e 51f5 03bf
00000050: 9245 a9be 0c8c adbe bb82 983d ee48 e23e
00000060: e00f 913d 443a 42be b4ba 393d ac0c 103f
00000070: 303c 78be 2069 3cbd 6935 b1be 69fa 8dbe
00000080: 6ad0 833e 105b 0ebe 1c15 9c3e efd0 fabd
00000090: 6455 953e 649a 023e cf34 c7be 6fd3 133e
000000a0: c427 9bbe 205c af3d 98f9 423e 62c9 cd3e
000000b0: 30e0 2b3d 1e39 8dbe 735b e33c af70 df3e
000000c0: 20a3 a2bc c063 3f3d 716b 01bf c128 af3d
000000d0: 10db c63e beac ce3e d7e7 fbbe 0dd7 2fbe
000000e0: 6c24 d6be f2ab 9d3e f2c3 1dbe 4acc 16bf
000000f0: d6d7 933e 142e 29be cf1d b4be 5844 123f
00000100: 38e5 9cbe 2049 1c3d cdcf b2bb cbd3 d83e
00000110: 4032 32bc 42f1 dcbe b79f ad3e 0485 a83e
00000120: 3094 b73e 78ab 58be a43d 953e d974 6b3e
00000130: 50c0 08be 0c6c 32be f1f1 fe3d 3d72 fb3d
00000140: 6853 5c3e 00f9 cb3d 6c7b f1be 9bc8 d33e
00000150: f4ad a1be 1037 633d b3fd b1be c298 b73e
00000160: 7cfd 823e 5840 a33d ffd7 123c 1671 04bf
00000170: facf 993e 5cd7 693e cef3 d83e 6748 b13e
00000180: a05d de3c e8ac 06be 5b0d 86bc eb07 9cbe
00000190: 4c42 a5be 847b 4f3e b332 17bf 863e b4be
000001a0: e2da a03e 5c3c 72be 6bea d2be a5c8 79bd
000001b0: 6880 ebbe 40b3 83bc b56c bdbe dd64 bd3e

q_head.DAC_block.mamba_blocks.0.conv1d.bias f4 [28]
0.50172985 -0.32385543 0.10846962 -0.4009994 -0.5697141 0.2848585 0.14662226 0.48805544
-0.38197395 0.43321088 0.50936955 0.46400973 0.38619384 -0.34236562 0.35176927 0.46435556
-0.28525758 0.5955606 -0.3468916 -0.14736451 -0.1602967 -0.43978518 -0.06422794 -0.42053393
0.62444025 -0.3659797 0.44155338 0.28305078
00000000: 5e71 003f 61d0 a5be 5225 de3d cb4f cdbe
00000010: c9d8 11bf f9d8 913e 2524 163e 67e2 f93e
00000020: 1792 c3be d1cd dd3e 0b66 023f af92 ed3e
00000030: 33bb c53e 8c4a afbe 1a1b b43e 03c0 ed3e
00000040: 480d 92be a976 183f c79b b1be b9e6 16be
00000050: d124 24be 862b e1be f089 83bd 3950 d7be
00000060: 51db 1f3f b161 bbbe 4913 e23e 08ec 903e

q_head.DAC_block.mamba_blocks.0.x_proj.weight f4 [65, 28]
-0.1562045 0.2563127 -0.0019429666 0.0019456148 0.10280334 -0.17105272 -0.07213379 -0.16934493
0.2200604 -0.25183585 -0.09456259 -0.2808751 -0.3447979 0.28193402 -0.31893846 -0.35023618
0.12006099 0.0011721608 0.23275517 0.29367548 0.31290603 -0.023996081 0.11962988 0.039655615
-0.0045099217 0.16245805 -0.016797636 -0.018677665 0.15832347 -0.24727046 -0.22698316 -0.13762987
0.010267698 -0.036668595 0.21723422 -0.02020874 -0.12728575 0.08989781 0.096723676 0.31688613
0.025868768 -0.05037601 -0.0016156157 0.12777995 -0.21637115 0.31025785 -0.090696596 -0.01748872
-0.23238811 -0.18149136 -0.13673511 -0.14510612 0.03186218 0.0229329 0.29546174 0.07234797
0.22641419 -0.16537781 -0.00324084 -0.21190415 -0.05287753 0.14610344 0.21331823 0.28807685
-0.31687877 -0.020795826 0.013135206 0.28728732 0.22355224 0.0457797 0.21251449 0.08762827
-0.24340753 0.05438573 -0.21721207 -0.16815554 -0.059966255 -0.24220037 -0.17335695 -0.16337822
-0.026015228 -0.23040129 0.025054839 0.12185998 -0.3286007 -0.022316268 0.22145799 0.20904143
0.27613723 0.047033504 0.040602367 -0.07182722 0.12766142 -0.026157431 -0.24570347 -0.05042244
-0.018410247 -0.04926037 -0.3164858 -0.09880355 0.26645827 -0.16838919 0.19483475 0.11028032
-0.04367405 0.010196252 0.119780846 -0.00066017587 -0.3074486 0.05779819 -0.022431772 -0.26776037
0.0400822 -0.18605362 -0.14760746 -0.3002607 0.034424778 0.02325025 0.20457463 -0.0076799328
-0.27282625 0.0018807369 0.27511385 0.30943623 0.22907464 -0.09061106 0.28746998 0.30841595
-0.010626836 0.059807226 -0.26840588 -0.11209214 -0.16120636 -0.0417949 -0.21235104 -0.17344074
0.27928725 -0.065048255 0.22079478 0.27344453 0.066992775 -0.10837161 -0.32586327 -0.05481688
0.029840162 0.003014662 0.1494899 0.14463069 -0.11894817 -0.04600446 0.13975121 -0.022004908
0.32021302 -0.25447753 0.16086102 0.22636266 -0.2007926 0.27230215 -0.076519065 -0.287392
-0.17697284 -0.29964912 -0.11167221 -0.1209046 0.02948602 -0.2769003 0.10358354 0.07673356
0.2537535 0.015334878 -0.22149038 -0.14867985 -0.17603596 0.20457457 -0.062377483 0.2748515
-0.12876217 0.19056799 0.21490335 0.2363803 0.07875205 -0.027412381 0.28421733 0.0064951186
-0.014731637 0.08906451 -0.23604336 -0.24163745 0.036685955 -0.06315872 -0.1168367 -0.034749944
0.15331563 -0.15643516 0.19499828 0.035848036 -0.20778617 0.23067504 -0.0699951 0.06358681
0.09388883 0.096904844 -0.1409083 -0.23973304 0.042392947 -0.08915354 -0.2134782 -0.171824
-0.16859451 -0.076277204 -0.21142465 -0.053394895 0.25224647 -0.053316187 0.051532123 -0.08999222
0.30565605 0.09729531 0.24757978 -0.03154607 -0.0702215 0.1025831 -0.2574494 -0.19347644
0.027229005 -0.28671956 -0.16367131 -0.12120518 -0.2635827 0.2600818 0.1050718 0.18085067
-0.19756225 0.31798974 0.080491066 0.068991356 0.24706066 -0.14062215 0.22113952 0.287698
0.025303207 0.0953293 -0.21505293 -0.055577587 -0.23988701 -0.18491429 -0.1684052 -0.17767176
0.24110825 -0.037354875 0.2407307 0.28104034 0.23827894 -0.26449803 -0.18231371 -0.25080836
00000000: 13f4 1fbe 6b3b 833e 24ab feba 0004 ff3a
00000010: 8f8a d23d 7228 2fbe e1ba 93bd c268 2dbe
00000020: 8357 613e a1f0 80be 08aa c1bd dcce 8fbe
00000030: 5a89 b0be a859 903e e74b a3be 2852 b3be
00000040: 89e2 f53d 31a3 993a 5f57 6e3e a25c 963e
00000050: 3835 a03e 6e93 c4bc 8300 f53d ed6d 223d
00000060: f7c7 93bb 675b 263e 329b 89bc e701 99bc
00000070: 8c1f 223e 7834 7dbe 466e 68be d8ee 0cbe
00000080: d939 283c cf31 16bd a672 5e3e cd8c a5bc
00000090: 3257 02be 581c b83d 1017 c63d e63e a23e
000000a0: bdea d33c 1357 4ebd 11c3 d3ba bfd8 023e
000000b0: 6690 5dbe 1eda 9e3e 23bf b9bd 8144 8fbc
000000c0: 26f7 6dbe dfd8 39be 4a04 0cbe b396 14be
000000d0: eb81 023d c7dd bb3c c346 973e 2c2b 943d
000000e0: 1fd9 673e cd58 29be 4664 54bb 67fd 58be
000000f0: 1c96 58bd 249c 153e 1870 5a3e cf7e 933e
00000100: ef3d a2be 025c aabc 0c35 573c 5317 933e
00000110: e1ea 643e 7f83 3b3d 669d 593e 7376 b33d
00000120: d33f 79be 92c3 5e3d d76c 5ebe f730 2cbe
00000130: 2d9f 75bd 6003 78be 7c84 31be 9f4c 27be
00000140: e31d d5bc 51ee 6bbe ce3f cd3c ba91 f93d
00000150: 5a3e a8be 9bd0 b6bc e2c5 623e f50e 563e
00000160: dc61 8d3e 34a6 403d ab4e 263d 261a 93bd
00000170: adb9 023e 1c48 d6bc b199 7bbe c387 4ebd
00000180: 16d1 96bc 3ec5 49bd 6d0a a2be 8459 cabd
00000190: 386d 883e 376e 2cbe c382 473e a6da e13d
000001a0: 90e3 32bd 2e0e 273c a94f f53d a70f 2dba
000001b0: e769 9dbe cbbd 6c3d d6c2 b7bc e317 89be
000001c0: 3c2d 243d d784 3ebe 6926 17be c5bb 99be
000001d0: ff00 0d3d 4f77 be3c 037c 513e f2a7 fbbb
000001e0: e2af 8bbe 0f83 f63a b9db 8c3e 6d6e 9e3e
000001f0: 8b92 6a3e 4b92 b9bd 442f 933e b2e8 9d3e
00000200: 2e1c 2ebc 6cf8 743d 7f6c 89be 9090 e5bd
00000210: 4813 25be 2131 2bbd 8d72 59be 739a 31be
00000220: bdfe 8e3e 0538 85bd 0718 623e ec00 8c3e
00000230: 8233 893d eff1 ddbd 8dd7 a6be aa87 60bd
00000240: 5b73 f43c a391 453b e113 193e 111a 143e
00000250: 199b f3bd 2c6f 3cbd f11a 0f3e a343 b4bc
00000260: f6f2 a33e e14a 82be c0b8 243e 9dcb 673e
00000270: 939c 4dbe 306b 8b3e 07b6 9cbd 0b25 93be
00000280: 5e38 35be 9c6b 99be 66b4 e4bd d59c f7bd
00000290: aa8c f13c e0c5 8dbe 9b23 d43d 7c26 9d3d
000002a0: fbeb 813e 243f 7b3c 60ce 62be 883f 18be
000002b0: c542 34be ff7b 513e 887f 7fbd 56b9 8c3e
000002c0: 3bda 03be 4124 433e a00f 5c3e ad0d 723e
000002d0: c148 a13d ee8f e0bc ef84 913e 01d5 d43b
000002e0: f75c 71bc 7467 b63d 5ab5 71be cf6f 77be
000002f0: 0344 163d 5c59 81bd 1448 efbd f555 0ebd
00000300: c6fe 1c3e 8a30 20be a1ad 473e 64d5 123d
00000310: e6c5 54be 1436 6c3e 9759 8fbd cd39 823d
00000320: c948 c03d 0c76 c63d 444a 10be 947c 75be
00000330: 3aa4 2d3d 2296 b6bd 079a 5abe a1f2 2fbe
00000340: 0aa4 2cbe 3937 9cbd b47f 58be 9bb4 5abd
00000350: 7326 813e 1362 5abd 5913 533d d74d b8bd
00000360: f37e 9c3e c342 c73d 8e85 7d3e 7436 01bd
00000370: 4ad0 8fbd 1717 d23d 68d0 83be b01e 46be
00000380: 5d0f df3c e8cc 92be 7499 27be 6c3a f8bd
00000390: 50f4 86be 7129 853e e22f d73d eb30 393e
000003a0: c24d 4abe 8dcf a23e 80d8 a43d 574b 8d3d
000003b0: 78fd 7c3e 41ff 0fbe 6672 623e 274d 933e
000003c0: ac48 cf3c 023c c33d d636 5cbe 53a5 63bd
000003d0: f1a4 75be 2c5a 3dbe 6a72 2cbe 96ef 35be
000003e0: 15e5 763e 6d01 19bd 1c82 763e 85e4 8f3e
000003f0: 65ff 733e 496c 87be 72b0 3abe f469 80be

q_head.DAC_block.mamba_blocks.0.dt_proj.weight f4 [28, 1]
0.31207594 -0.21101914 0.5433919 0.14675465 -0.57299876 0.81652284 -0.9192079 -1.0429976
0.4542869 0.53545403 -0.93351877 -1.0180883 0.6115526 -0.53618884 -1.0055054 0.43972918
-0.83665895 0.4532328 -0.8159208 0.66186297 -0.8799677 -0.22651467 0.13806775 -0.85683125
-1.105292 -0.0123802535 0.7817572 -0.5575973
00000000: 6bc8 9f3e 6715 58be bb1b 0b3f da46 163e
00000010: 0cb0 12bf a407 513f 3551 6bbf f280 85bf
00000020: 4b98 e83e 8413 093f 16fb 6ebf b850 82bf
00000030: b68e 1c3f ac43 09bf 67b4 80bf 2f24 e13e
00000040: 482f 56bf 210e e83e 30e0 50bf da6f 293f
00000050: 9045 61bf 76f3 67be a261 0d3e 4b59 5bbf
00000060: 357a 8dbf 8cd6 4abc 3d21 483f b2be 0ebf

q_head.DAC_block.mamba_blocks.0.dt_proj.bias f4 [28]
-6.4838123 -3.9352217 -2.256856 -5.1022387 -4.685166 -3.820292 -4.5596943 -2.6366146
-5.164326 -2.757137 -6.1024847 -3.9583907 -3.4126818 -4.7743187 -3.022899 -2.8661969
-2.8395748 -4.598005 -3.9142208 -4.9865837 -6.7308693 -3.5055263 -2.8360455 -4.2271404
-4.7117586 -6.667306 -6.077163 -4.0103755
00000000: 647b cfc0 acda 7bc0 5470 10c0 8a45 a3c0
00000010: e1ec 95c0 aa7f 74c0 04e9 91c0 4bbe 28c0
00000020: 2942 a5c0 ef74 30c0 8e47 c3c0 4656 7dc0
00000030: 6169 5ac0 38c7 98c0 2d77 41c0 c56f 37c0
00000040: 98bb 35c0 db22 93c0 9882 7ac0 1892 9fc0
00000050: 4863 d7c0 8b5a 60c0 c581 35c0 bc44 87c0
00000060: bac6 96c0 925a d5c0 1f78 c2c0 ff54 80c0

q_head.DAC_block.mamba_blocks.0.out_proj.weight f4 [14, 28]
-0.28154406 0.15250878 0.202272 0.14551508 -0.25274858 0.037474945 0.12987815 0.2308967
0.06898212 0.07053164 0.20296273 0.0193996 0.25962675 -0.021141948 -0.07578559 -0.012191058
0.14036535 0.15350151 -0.061440162 0.022905761 0.06498513 0.19609076 -0.03465815 0.017829452
-0.13468064 -0.15680027 -0.0019394566 -0.22458397 -0.058424022 0.12823744 -0.042868298 -0.1651161
0.06357072 -0.22157627 0.18734004 0.13817261 -0.23051868 0.2924245 0.27809 0.1582716
-0.052375443 -0.045555186 -0.12986526 -0.2561022 0.076910816 0.18797018 -0.14890613 0.00097335974
-0.0018618344 0.07118944 0.06545301 -0.28742683 -0.2158216 0.082561344 -0.15845378 -0.2279188
0.20284104 -0.24157894 -0.098660484 0.16279483 0.0165982 0.005868708 -0.24997126 -0.011272502
-0.0040902514 -0.16728787 0.012995896 -0.16755927 0.08287223 -0.24092913 0.008807124 0.21517292
-0.21472491 -0.12330804 0.033555042 0.10618119 0.044616237 -0.21969847 0.0005632012 0.08235984
0.1546258 0.12670833 0.22396134 0.128184 0.20006955 -0.17933394 -0.23858823 0.17003031
0.092436664 0.14604868 -0.1028112 -0.19512056 0.12225136 0.036983788 0.049802266 -0.27686077
-0.19336483 -0.1022602 0.1391678 0.06576982 -0.13241974 -0.0947326 0.07933357 -0.23918773
-0.17346938 -0.09423783 -0.024261102 -0.0165805 0.15846223 -0.04114823 0.07347278 0.16999707
-0.08681611 -0.055688832 -0.032595456 -0.07999258 -0.2801959 -0.07926648 0.105766945 0.20907304
-0.21494792 0.2116859 0.025217442 0.2146188 -0.06980312 0.18834296 -0.122431256 -0.28019193
-0.03669544 0.22246262 -0.015239193 0.05995374 0.10603478 0.10373728 0.16406219 -0.06511425
-0.21921998 -0.24166116 -0.086923316 -0.009277506 -0.15476729 0.21408953 0.2940914 -0.10827712
0.025860766 -0.065345615 0.1717263 0.022917408 -0.2309977 0.18555592 0.13590497 0.13966627
0.246575 0.0077943145 -0.11028391 -0.16689189 0.09658162 0.20781323 -0.08872716 0.20615633
0.15931381 0.22517572 0.021171598 -0.20390113 -0.0013137318 -0.2363726 -0.032564037 0.0015086621
0.10389934 -0.22189415 -0.2925304 -0.099940404 0.17359793 0.09835948 -0.1110804 -0.30519718
0.17191479 -0.0029681867 -0.2352883 -0.0021660994 -0.15534249 -0.2429003 0.09870594 -0.0013576914
-0.14852892 -0.21178208 0.26571268 -0.08163831 -0.015506337 -0.022935834 -0.05932083 0.21620913
-0.05441814 0.16979095 0.28730032 0.29429466 0.06368691 -0.12977321 0.038580906 0.12775888
0.21804984 -0.02853699 0.06537504 -0.21273446 0.17168291 -0.096054465 -0.2520522 -0.2787772
-0.28435612 -0.16145837 0.21909487 0.11096732 -0.24404967 -0.14762376 0.07009319 -0.01543324
-0.03789023 0.048258934 -0.122767895 0.19107884 0.17923643 0.08175184 0.17697003 0.22860344
0.20753835 -0.13804537 -0.100631066 0.049275953 0.09419733 0.22959399 -0.09961961 -0.060787264
0.0051737744 0.024714718 -0.11610213 -0.2851695 -0.14378354 -0.14633405 0.17735694 0.17363466
-0.2494535 0.051981602 -0.019658886 0.041904174 -0.11294596 -0.153135 -0.20147382 0.27545652
0.042767428 0.05814572 0.23718286 -0.00066391286 -0.07862717 0.19944915 0.18733448 0.18295443
00000000: 8b26 90be 432b 1c3e 6420 4f3e e801 153e
00000010: 4368 81be 547f 193d c7fe 043e 2f70 6c3e
00000020: 7f46 8d3d e472 903d 76d5 4f3e e9eb 9e3c
00000030: cced 843e e131 adbc 7a35 9bbd 01bd 47bc
00000040: efbb 0f3e 802f 1d3e aea8 7bbd dda4 bb3c
00000050: ed16 853d 04cc 483e b4f5 0dbd 120f 923c
00000060: b9e9 09be 4090 20be 5d35 feba 57f9 65be
00000070: 074e 6fbd ad50 033e ab96 2fbd 3214 29be
00000080: 5e31 823d e4e4 62be 11d6 3f3e 1f7d 0d3e
00000090: 170d 6cbe aab8 953e d061 8e3e f311 223e
000000a0: a287 56bd 1398 3abd 66fb 04be d41f 83be
000000b0: 6b83 9d3d 417b 403e d97a 18be 1129 7f3a
000000c0: cc08 f4ba c5cb 913d 3a0c 863d 9c29 93be
000000d0: 5600 5dbe ec15 a93d b541 22be 8c63 69be
000000e0: 90b5 4f3e 7860 77be 820e cabd b0b3 263e
000000f0: f3f8 873c 4a4e c03b 77f8 7fbe 4db0 38bc
00000100: 8407 86bb 834d 2bbe bdec 543c a894 2bbe
00000110: eab8 a93d 20b6 76be c14b 103c 4a56 5c3e
00000120: d9e0 5bbe ed88 fcbd 0371 093d 8675 d93d
00000130: 84bf 363d a3f8 60be cba3 133a 47ac a83d
00000140: 3a56 1e3e d4bf 013e 1f56 653e ab42 033e
00000150: 08df 4c3e 51a3 37be 7950 74be 6d1c 2e3e
00000160: 6f4f bd3d c98d 153e ae8e d2bd afcd 47be
00000170: ec5e fa3d 507c 173d 76fd 4b3d b2c0 8dbe
00000180: 6e01 46be cc6d d1bd 0182 0e3e 54b2 863d
00000190: 0a99 07be 2a03 c2bd a479 a23d a1ed 74be
000001a0: f5a1 31be c3ff c0bd 38bf c6bc d4d3 87bc
000001b0: ec43 223e 0c8b 28bd e678 963d b613 2e3e
000001c0: a5cc b1bd f919 64bd d082 05bd 26d3 a3bd
000001d0: d675 8fbe 7756 a2bd 579c d83d 3e17 563e
000001e0: 4f1b 5cbe 30c4 583e cf94 ce3c 08c5 5b3e
000001f0: f0f4 8ebd fadc 403e 3dbd fabd 5175 8fbe
00000200: f54d 16bd 3ecd 633e cfad 79bc 0e92 753d
00000210: c328 d93d 3674 d43d ebff 273e 9f5a 85bd
00000220: 347b 60be 0676 77be da04 b2bd ae00 18bc
00000230: 517b 1ebe 493a 5b3e 2693 963e 65c0 ddbd
00000240: f5d9 d33c ecd3 85bd 05d9 2f3e 4abd bb3c
00000250: a98a 6cbe 5f02 3e3e ac2a 0b3e ad04 0f3e
00000260: 287e 7c3e 7367 ff3b 88dc e1bd b5e5 2abe
00000270: 96cc c53d fecc 543e 96b6 b5bd a51a 533e
00000280: 2923 233e 7794 663e 0f70 ad3c 75cb 50be
00000290: 8631 acba a90b 72be de61 05bd 4dbe c53a
000002a0: 2dc9 d43d 3838 63be 8bc6 95be 8ead ccbd
000002b0: a8c3 313e b270 c93d 1f7e e3bd ce42 9cbe
000002c0: 6e0a 303e e985 42bb 6bef 70be 1ef5 0dbb
000002d0: 1a12 1fbe dbba 78be 5726 ca3d 90f4 b1ba
000002e0: f717 18be 67dd 58be 7e0b 883e fc31 a7bd
000002f0: 4b0e 7ebc eee3 bbbc 66fa 72bd ed65 5d3e
00000300: 8ee5 5ebd aedd 2d3e 0719 933e caad 963e
00000310: 486e 823d 45e3 04be 0307 1e3d 39d3 023e
00000320: 7548 5f3e 68c6 e9bc 59e3 853d 10d7 59be
00000330: a5cd 2f3e 34b8 c4bd fc0c 81be e3bb 8ebe
00000340: 2097 91be 5855 25be 685a 603e d642 e33d
00000350: 28e8 79be af2a 17be 058d 8f3d b3db 7cbc
00000360: c932 1bbd 29ab 453d bc6d fbbd 2caa 433e
00000370: c189 373e 826d a73d a237 353e 0517 6a3e
00000380: ef84 543e c45b 0dbe a917 cebd 95d5 493d
00000390: 88ea c03d b01a 6b3e 5e05 ccbd 11fc 78bd
000003a0: c488 a93b 8576 ca3c f4c6 edbd bd01 92be
000003b0: fe3b 13be 98d8 15be 0f9d 353e 49cd 313e
000003c0: bd70 7fbe a9ea 543d ac0b a1bc b6a3 2b3d
000003d0: 3650 e7bd 6ccf 1cbe 274f 4ebe a308 8d3e
000003e0: e62c 2f3d 352a 6e3d 10e0 723e 700a 2eba
000003f0: 4807 a1bd 663c 4c3e 9cd4 3f3e 6858 3b3e

q_head.DAC_block.ff1.weight f4 [32, 14]
-0.24545704 -0.17906523 0.115606345 0.09269008 -0.043966193 -0.26754194 0.109560266 0.11080045
0.051312245 0.14327137 0.17519248 0.24224208 0.11980367 0.2531898 0.23436226 0.09429761
-0.33440945 -0.22759606 0.32023638 -0.11336242 -0.32299072 -0.34558058 -0.14991552 -0.13541377
-0.35320294 -0.09201178 -0.32805595 0.1326684 -0.14141238 -0.103917636 -0.17175548 -0.30032194
0.24596234 0.23062046 0.0035570823 0.13306855 -0.32804954 0.26075363 -0.19840927 -0.14971612
-0.14531963 0.3280147 -0.24376479 -0.2934531 0.32499158 -0.11497382 -0.37019408 -0.14423081
-0.12867662 0.27044204 0.29922032 -0.30457577 0.37279063 0.11465 0.25085396 0.13257605
0.1209171 0.31167322 -0.19905603 -0.16519065 0.30458936 0.004889898 -0.11771332 0.15835027
-0.09914091 0.0022201808 0.01797386 -0.12919547 -0.34497598 0.0016478807 -0.050985795 0.34257957
-0.13908702 -0.14406759 0.086558945 0.24513115 -0.36882964 -0.28747016 -0.08873744 0.08237576
-0.058960777 -0.048869416 -0.17119166 0.336313 0.2690771 0.3142491 0.13511308 -0.24687405
0.068857774 0.1831016 0.024229025 -0.27813804 -0.21504924 0.21849768 -0.21140559 -0.28811955
0.13274215 0.14509666 0.1491466 0.08203462 -0.013072927 -0.0056999614 0.21952489 -0.017994083
-0.2125319 -0.21190354 -0.035397023 -0.036388926 -0.14812306 0.03896834 -0.33843106 0.15804921
-0.08951418 0.0820993 0.14027467 0.055215664 -0.30497718 -0.22734246 -0.051282633 0.33347172
0.12353198 0.060663477 0.09884938 -0.04527263 0.29478595 0.088377595 0.3067734 -0.044211835
-0.051048394 0.12173831 0.15642637 0.12836313 0.096138194 -0.20678806 -0.33547893 -0.086008795
-0.15539417 -0.124350265 -0.051721964 0.26951185 0.17956972 0.29314435 0.035044517 -0.01591554
0.32326785 0.08917432 -0.3301045 -0.053464055 -0.18248382 0.13203622 0.041983854 0.101183616
-0.008519579 0.0682696 -0.09504536 -0.118418664 -0.027183192 -0.056284696 -0.13334414 0.30578765
0.09515928 0.0079404535 -0.004569323 -0.10237081 -0.11027949 -0.19244632 -0.2931714 -0.1893256
0.26445594 0.065095566 -0.2212829 0.13700052 0.20285988 0.08449947 -0.37537196 -0.37853554
0.0004466157 0.015201581 -0.10359359 0.096254945 -0.38521683 0.08568801 0.29406574 0.21583371
-0.11738179 -0.15044591 0.14458187 0.26420724 -0.37515157 -0.29897672 -0.3707235 0.2512869
-0.19876595 -0.12292775 -0.16970122 0.33539787 -0.10394147 0.14527492 0.052938204 -0.3595849
0.26513118 0.14260192 0.037781358 -0.26042166 0.01968032 0.19302288 -0.3401325 -0.13672091
-0.02933897 0.18686874 0.26584047 0.06238185 -0.26640448 0.11689012 0.026942354 0.11318872
-0.3182872 0.031509154 0.12969378 0.369506 -0.3410627 -0.1978277 -0.39766422 -0.00510143
-0.17982653 -0.22831163 -0.04352765 -0.027014328 -0.32072154 -0.14754261 0.034072377 -0.09402055
0.042576812 0.10612967 0.1667096 0.31711683 0.3784171 -0.09680185 -0.32983828 -0.14001934
0.23235938 0.16982824 0.08962736 0.14343669 0.2781338 0.020987142 0.1871611 -0.039297927
-0.06106762 0.2166938 0.3439939 -0.20910425 0.35565665 0.2362616 0.089074984 -0.14764404
00000000: 1759 7bbe e05c 37be 05c3 ec3d 4cd4 bd3d
00000010: e515 34bd 42fb 88be 2261 e03d 59eb e23d
00000020: ca2c 523d bbb5 123e a865 333e 4f0e 783e
00000030: a05b f53d 18a2 813e a9fc 6f3e 1b1f c13d
00000040: b737 abbe f10e 69be 06f6 a33e 8e2a e8bd
00000050: 0a5f a5be f0ef b0be 7483 19be e8a9 0abe
00000060: 04d7 b4be ac70 bcbd f3f6 a7be 3ada 073e
00000070: 68ce 10be c5d2 d4bd abe0 2fbe ccc3 99be
00000080: 8ddd 7b3e c527 6c3e f01d 693b 1f43 083e
00000090: 1cf6 a7be 8081 853e cd2b 4bbe 2f4f 19be
000000a0: abce 14be 8bf1 a73e 7a9d 79be 7c3f 96be
000000b0: 4c65 a63e 6577 ebbd 148a bdbe 3eb1 13be
000000c0: cec3 03be 6177 8a3e 6833 993e 5bf1 9bbe
000000d0: 6ade be3e 9fcd ea3d ee6f 803e 04c2 073e
000000e0: 62a3 f73d a293 9f3e 58d5 4bbe bd27 29be
000000f0: 23f3 9b3e 703b a03b ae13 f1bd 9326 223e
00000100: 640a cbbd 7480 113b eb3d 933c d14b 04be
00000110: b1a0 b0be b3fd d73a 7bd6 50bd 9766 af3e
00000120: d46c 0ebe 7486 13be d145 b13d a903 7b3e
00000130: 3dd7 bcbe 4a2f 93be fabb b5bd 9fb4 a83d
00000140: db80 71bd 4c2b 48bd de4c 2fbe 3831 ac3e
00000150: 79c4 893e 42e5 a03e 155b 0a3e 8dcc 7cbe
00000160: 4e05 8d3d fc7e 3b3e f37b c63c 1c68 8ebe
00000170: de35 5cbe dbbd 5f3e b57a 58be 6884 93be
00000180: 8fed 073e 3894 143e e3b9 183e c401 a83d
00000190: d42f 56bc bec6 babb 22cb 603e 5468 93bc
000001a0: f6a1 59be 3efd 58be 78fc 10bd 8e0c 15bd
000001b0: 92ad 17be 449d 1f3d d646 adbe a7d7 213e
000001c0: 3653 b7bd ae23 a83d 2aa4 0f3e d229 623d
000001d0: f825 9cbe 76cc 68be bd0d 52bd cebc aa3e
000001e0: 56fe fc3d 447a 783d 8b71 ca3d cb6f 39bd
000001f0: 2fee 963e 50ff b43d 6711 9d3e 7817 35bd
00000200: 1f18 51bd ef51 f93d 3c2e 203e a071 033e
00000210: 1ae4 c43d 40c0 53be e5c3 abbe 6125 b0bd
00000220: a61f 1fbe 5aab febd 69da 53bd 75fd 893e
00000230: 20e1 373e 0417 963e d78a 0f3d 4e61 82bc
00000240: 5d83 a53e 07a1 b63d 7503 a9be 20fd 5abd
00000250: 0add 3abe 8134 073e 43f7 2b3d 5b39 cf3d
00000260: b495 0bbc efd0 8b3d 24a7 c2bd 7c85 f2bd
00000270: 49af debc c88a 66bd 5e8b 08be 3390 9c3e
00000280: dee2 c23d ad18 023c 42ba 95bb caa7 d1bd
00000290: 37da e1bd a610 45be 901a 96be 92de 41be
000002a0: c566 873e d350 853d fc97 62be dd49 0c3e
000002b0: 80ba 4f3e 0f0e ad3d c130 c0be 69cf c1be
000002c0: bf27 ea39 0d10 793c e028 d4bd 5021 c53d
000002d0: 243b c5be 327d af3d c98f 963e 8303 5d3e
000002e0: dd65 f0bd 7e0e 1abe 450d 143e 2c46 873e
000002f0: de13 c0be 7a13 99be 78cf bdbe ada8 803e
00000300: 4d89 4bbe 8bc1 fbbd 28c6 2dbe 45b9 ab3e
00000310: 44df d4bd f3c2 143e bbd5 583d 831b b8be
00000320: 46bf 873e 3d06 123e a0c0 1a3d fd55 85be
00000330: 9f38 a13c caa7 453e d925 aebe 9100 0cbe
00000340: 4858 f0bc 855a 3f3e 3e1c 883e 1c84 7f3d
00000350: 2b66 88be 1664 ef3d 36b6 dc3c 7dcf e73d
00000360: 8af6 a2be be0f 013d 72ce 043e e42f bd3e
00000370: c59f aebe 5893 4abe a59a cbbe e629 a7bb
00000380: 7224 38be 86ca 69be 0d4a 32bd 274d ddbc
00000390: 9d35 a4be 6915 17be 7a8f 0b3d d98d c0bd
000003a0: 0665 2e3d 835a d93d ecb5 2a3e 235d a23e
000003b0: e3bf c13e 0c40 c6bd 90e0 a8be 3b61 0fbe
000003c0: 9eef 6d3e 74e7 2d3e 8d8e b73d 11e1 123e
000003d0: 8e67 8e3e 3aed ab3c 29a7 3f3e ddf6 20bd
000003e0: 0a22 7abd fbe4 5d3e f81f b03e 6d1f 56be
000003f0: a118 b63e 90ee 713e f26c b63d 0030 17be

q_head.DAC_block.ff1.bias f4 [32]
0.07637135 0.30478954 0.26518524 -0.13948424 0.16886349 0.045731287 0.18447036 0.09168954
-0.2081169 0.050034128 0.27940345 0.16880734 -0.121804684 0.09257961 0.32463178 0.30554643
-0.20977437 -0.31797102 0.23084857 0.06264801 0.32762975 0.27078503 0.14766471 0.16395219
-0.04045484 0.044410866 -0.24039885 -0.13254951 0.21122363 -0.18948296 -0.18709359 -0.28102833
00000000: 9568 9c3d 600d 9c3e 5cc6 873e f5d4 0ebe
00000010: 8dea 2c3e bb50 3b3d cce5 3c3e bac7 bb3d
00000020: 991c 55be 96f0 4c3d f80d 8f3e d5db 2c3e
00000030: bc74 f9bd 619a bd3d 2336 a63e 9570 9c3e
00000040: 18cf 56be 19cd a2be 9163 6c3e 9a4d 803d
00000050: 16bf a73e 56a4 8a3e 6b35 173e 15e3 273e
00000060: f9b3 25bd 2be8 353d 1e2b 76be 0fbb 07be
00000070: 024b 583e d207 42be 7695 3fbe f2e2 8fbe

q_head.DAC_block.ff2.weight f4 [16, 32]
-0.035333093 -0.014235232 -0.078762144 -0.008935831 -0.03455864 -0.14808021 0.046894353 0.037008148
0.16993608 -0.18480685 0.042003907 -0.027290532 -0.16987285 -0.07858366 -0.12261694 -0.26644304
0.17693448 -0.01748872 -0.08869371 -0.18450366 -0.021976974 -0.24990246 -0.26075763 -0.073711805
-0.10365144 -0.027350081 -0.028279977 0.27853718 0.0035679042 0.17659426 0.25245598 -0.05933106
0.14631762 -0.24464595 0.044183724 0.0047172257 -0.008743006 -0.105631135 -0.07786466 -0.13594224
-0.07963134 -0.029011264 -0.22909358 -0.19818273 -0.15203327 -0.17657495 -0.020587659 -0.2186781
0.07941866 0.11019948 0.08978857 -0.25641954 -0.04471816 -0.12646341 0.036602903 0.041010875
0.043218248 0.13349651 0.032222793 -0.058892574 0.06001583 0.09359029 0.032293256 0.26102537
0.11355161 -0.21811932 -0.11831187 0.015212482 -0.16188547 0.0034666248 -0.17662784 -0.07069983
0.050608996 0.09243714 -0.24665415 -0.10630091 -0.18457046 -0.11003272 -0.16704096 0.055592656
0.13406792 -0.06629171 -0.10745145 -0.24130037 0.060447093 -0.15032327 -0.23380372 0.016018732
-0.070808806 0.024022378 0.14644845 0.22990502 -0.004107402 0.05958697 -0.004753137 0.15944408
-0.07465515 -0.037771318 -0.16270147 -0.029788753 -0.12021001 -0.0902775 -0.115026265 -0.13739268
0.24739859 -0.1695713 -0.14502308 -0.2292398 -0.13826853 -0.22179171 -0.095710166 -0.22001821
0.07582474 0.006691267 -0.103638165 -0.19731168 -0.24513339 -0.15569042 0.028696787 -0.116579205
-0.18396187 -0.11304331 0.16653593 -0.028235547 -0.1199921 -0.08692234 0.04723805 -0.035320297
0.1332439 0.109675445 0.09069694 0.2059039 -0.2428841 0.043525018 -0.240394 -0.17095916
-0.06321379 0.11643792 0.09774083 -0.04453209 -0.0526366 -0.010980799 -0.08438591 0.10148617
0.17052718 0.19815683 -0.00018592818 -0.07690133 -0.14005151 -0.16798092 0.03479045 -0.17579006
0.1807549 -0.07229347 0.23675948 0.11783403 0.031497836 0.0031946371 -0.07355696 0.11984094
0.12023726 -0.24877451 -0.1387651 0.06342782 0.07388076 -0.06276788 -0.22034815 -0.26367557
0.18021657 0.014426556 -0.24890535 -0.23868167 0.07089399 -0.19489108 -0.12597764 -0.019263279
0.048909508 -0.04967407 -0.19353577 -0.10330967 -0.15353785 0.074457265 0.0921594 0.014354601
-0.111337155 0.07154191 -0.03675458 -0.049200647 0.023798587 -0.088677034 0.003119057 0.008017509
0.1042465 -0.10061042 -0.23437169 0.24102399 -0.22458825 -0.18924256 -0.25305018 -0.03710752
0.1461932 -0.084014945 -0.14385214 -0.15908936 -0.009595948 -0.21974495 -0.017850894 0.04873852
-0.048575565 0.09278517 0.08547592 0.01523341 -0.085195854 -0.06092059 0.04465351 -0.08434878
-0.1889259 -0.04073789 0.019274384 0.25265536 0.0760229 -0.08653967 0.22184262 0.08444809
-0.12911065 -0.07942898 -0.09695929 0.09928543 -0.102444485 -0.18611984 0.054959152 -0.12002923
-0.013605879 -0.13287689 -0.2428969 -0.0771821 0.045857243 -0.16020785 -0.11411809 -0.09831142
0.22587998 0.21886337 -0.13524258 -0.12588896 -0.18363151 -0.21197042 -0.03300547 0.07580392
-0.08967436 0.11833691 0.14882801 -0.08051162 0.119654 -0.041873936 -0.073201716 0.23732574
00000000: 6fb9 10bd e43a 69bc 0c4e a1bd 9767 12bc
00000010: 5c8d 0dbd 57a2 17be 4b14 403d db95 173d
00000020: b903 2e3e 023e 3dbe 4a0c 2c3d 6590 dfbc
00000030: 26f3 2dbe 78f0 a0bd 971e fbbd 396b 88be
00000040: 502e 353e 8144 8fbc 0ca5 b5bd 87ee 3cbe
00000050: 0e09 b4bc 6ee6 7fbe 0682 85be 37f6 96bd
00000060: 3547 d4bd 470d e0bc 69ab e7bc 6d9c 8e3e
00000070: 80d3 693b 20d5 343e e941 813e 2005 73bd
00000080: 49d4 153e 7884 7abe fef9 343d f592 9a3b
00000090: d33e 0fbc 2355 d8bd 8277 9fbd 7134 0bbe
000000a0: c215 a3bd 08a9 edbc 8297 6abe 6af0 4abe
000000b0: 9cae 1bbe 10d0 34be 73a7 a8bc 27ed 5fbe
000000c0: 40a6 a23d 44b0 e13d 12e3 b73d 6c49 83be
000000d0: 642a 37bd a07f 01be edec 153d 05fb 273d
000000e0: 9e05 313d 4fb3 083e 0cfc 033d 5739 71bd
000000f0: 29d3 753d 44ac bf3d ef45 043d 1ea5 853e
00000100: bf8d e83d ac5a 5fbe 7e4d f2bd c63d 793c
00000110: 4ec5 25be 5030 633b eedd 34be 13cb 90bd
00000120: 614b 4f3d af4f bd3d e892 7cbe 4bb4 d9bd
00000130: 0a00 3dbe d658 e1bd c90c 2bbe 20b5 633d
00000140: 1a49 093e f3c3 87bd 810f dcbd 7217 77be
00000150: 5f97 773d 58ee 19be 3e6a 6fbe b739 833c
00000160: 3504 91bd 94ca c43c 95f6 153e 396c 6b3e
00000170: 6397 86bb 7711 743d 34c0 9bbb 4f45 233e
00000180: cde4 98bd 19b6 1abd 379b 26be 8b07 f4bc
00000190: aa30 f6bd 69e3 b8bd e492 ebbd abb0 0cbe
000001a0: 0e56 7d3e 19a4 2dbe ee80 14be d7bd 6abe
000001b0: 4496 0dbe 5e1d 63be b103 c4bd 744c 61be
000001c0: 004a 9b3d 6a42 db3b 3f40 d4bd 130c 4abe
000001d0: 3f04 7bbe 4f6d 1fbe 8615 eb3c 14c1 eebd
000001e0: 8060 3cbe 4083 e7bd 6588 2a3e 3c4e e7bc
000001f0: 6bbe f5bd 5704 b2bd af7c 413d 04ac 10bd
00000200: 1771 083e 859d e03d 51bf b93d 79d8 523e
00000210: 9cb6 78be 4a47 323d d829 76be eb0f 2fbe
00000220: 3b76 81bd 0177 ee3d 582c c83d 4867 36bd
00000230: 7a99 57bd cfe8 33bc 85d2 acbd fbd7 cf3d
00000240: ad9e 2e3e a0e9 4a3e b7f5 42b9 727e 9dbd
00000250: aa69 0fbe 3103 2cbe 6e80 0e3d 4f02 34be
00000260: d017 393e 990e 94bd 1471 723e f852 f13d
00000270: e003 013d 1e5d 513b 08a5 96bd 2b6f f53d
00000280: f43e f63d bfbe 7ebe 7018 0ebe 72e6 813d
00000290: cc4e 973d 728c 80bd f2a2 61be 7c00 87be
000002a0: b18a 383e 5d5d 6c3c 0be1 7ebe f868 74be
000002b0: de30 913d 8791 47be 4800 01be 06ce 9dbc
000002c0: 5655 483d 0a77 4bbd 3e2e 46be 0594 d3bd
000002d0: 0739 1dbe 0d7d 983d 11be bc3d 8f2f 6b3c
000002e0: bc04 e4bd 9184 923d f88b 16bd 9e86 49bd
000002f0: 41f5 c23c 4e9c b5bd 1869 4c3b df5b 033c
00000300: 307f d53d d60c cebd 22ff 6fbe fece 763e
00000310: 76fa 65be cdc8 41be cb8f 81be 0efe 17bd
00000320: acb3 153e 0710 acbd fa4d 13be 52e8 22be
00000330: 5338 1dbc d204 61be 0a3c 92bc 0ba2 473d
00000340: 2cf7 46bd 2706 be3d 000e af3d 8d95 793c
00000350: 2a7b aebd de87 79bd 99e6 363d 0ebf acbd
00000360: cb75 41be c6dc 26bd 50e5 9d3c 0b5c 813e
00000370: e5b1 9b3d b63b b1bd b62a 633e 1ff3 ac3d
00000380: 9535 04be a9ab a2bd 9892 c6bd 2956 cb3d
00000390: 6ace d1bd 3396 3ebe d91c 613d e3d1 f5bd
000003a0: 31eb 5ebc e110 08be f7b9 78be a611 9ebd
000003b0: ced4 3b3d 870d 24be bfb6 e9bd 7f57 c9bd
000003c0: 154d 673e b81d 603e 087d 0abe 09e9 00be
000003d0: e609 3cbe c60e 59be be30 07bd 163f 9b3d
000003e0: 31a7 b7bd 9f5a f23d 5f66 183e 47e3 a4bd
000003f0: 280d f53d 0184 2bbd c8ea 95bd 8505 733e

q_head.DAC_block.ff2.bias f4 [16]
-0.19312184 -0.19384311 0.008557575 -0.08410939 0.06771699 0.09282403 0.09627698 -0.22033013
0.0621513 -0.03955344 -0.11649711 -0.14570808 -0.19893895 -0.114451475 0.037929736 0.033719346
00000000: bbc1 45be cf7e 46be 1235 0c3c 8b41 acbd
00000010: 35af 8a3d 861a be3d de2c c53d 399e 61be
00000020: 5d92 7e3d ca02 22bd 0996 eebd 8034 15be
00000030: a7b6 4bbe 8965 eabd 365c 1b3d 4c1d 0a3d

ema_model.q_head.DAC_block.mamba_blocks.0.A_log f4 [28, 32]
-0.0014317121 0.6891393 1.0906643 1.3765773 1.6024481 1.7843465 1.9412496 2.0619085
2.1885808 2.2907414 2.382571 2.4674785 2.5487525 2.6207757 2.6866212 2.746294
2.8140998 2.8682296 2.9247026 2.96904 3.033122 3.0684042 3.1092105 3.1446033
3.195175 3.236864 3.266216 3.313339 3.3387573 3.3778737 3.4033592 3.444824
-0.02557107 0.65675324 1.0537698 1.3392321 1.5684572 1.7507715 1.9122721 2.0250943
2.1555724 2.2568588 2.3469524 2.4326656 2.5147326 2.5861754 2.6525207 2.7120433
2.7811134 2.8342352 2.8914304 2.9372418 3.00413 3.035955 3.078924 3.1135578
3.1645625 3.2059572 3.234903 3.2836738 3.308215 3.3478074 3.3729978 3.417708
-0.04890224 0.634617 1.0316195 1.3178028 1.550219 1.7374182 1.8988444 2.0057726
2.1405845 2.2437496 2.3298252 2.4170659 2.5001307 2.5708368 2.6378403 2.696925
2.767898 2.8201964 2.8784285 2.9247208 2.9981248 3.0234537 3.0684576 3.1012704
3.1564543 3.1958787 3.2239475 3.274484 3.298686 3.3397248 3.363859 3.4116592
-0.0016283449 0.68881834 1.0905755 1.3767033 1.6024034 1.7844545 1.9412696 2.0635173
2.1890304 2.2914693 2.3840783 2.469428 2.5505726 2.6229622 2.6894534 2.7505467
2.816729 2.871586 2.9275649 2.9731722 3.0345302 3.0719044 3.11366 3.151017
3.1990647 3.2403316 3.2718549 3.316729 3.344019 3.3819828 3.4090443 3.4486825
-0.03634778 0.64579034 1.0414337 1.3266747 1.5585428 1.7433513 1.9050723 2.0110002
2.1468184 2.248689 2.3346415 2.4210172 2.504083 2.5738597 2.639705 2.6970074
2.7700827 2.8206377 2.879626 2.9238753 3.0021505 3.0225224 3.0674865 3.097157
3.1577616 3.1948905 3.2189074 3.2738843 3.2936559 3.3391094 3.3572621 3.4137752
-0.017428499 0.66461307 1.0615811 1.3469174 1.57523 1.7566563 1.9178063 2.0327432
2.16156 2.2620966 2.3538506 2.439027 2.5207222 2.5926845 2.6591055 2.7208073
2.7868245 2.8412485 2.897535 2.9437451 3.0069742 3.042426 3.0844269 3.1236515
3.1685674 3.2113528 3.243233 3.2885036 3.3151436 3.352093 3.3806763 3.4204466
-0.0247481 0.66051406 1.0607688 1.3471421 1.573524 1.7560385 1.914621 2.0360816
2.16085 2.2624092 2.3564153 2.4421284 2.5230272 2.5959835 2.6635578 2.728842
2.7897499 2.8464973 2.9014397 2.9497006 3.0066946 3.046655 3.089669 3.13407
3.1741428 3.2141788 3.2512593 3.289804 3.3221412 3.3563566 3.388563 3.4217927
-0.05288475 0.6310672 1.0290127 1.3154608 1.5462576 1.7291279 1.8936381 2.0053527
2.1351776 2.2368474 2.3258824 2.412791 2.495707 2.5669217 2.6350203 2.697013
2.7635124 2.817389 2.8738618 2.9223351 2.990947 3.0204935 3.0644042 3.1048098
3.150531 3.192428 3.223944 3.2712774 3.2972138 3.3350325 3.3632417 3.4080286
00000000: 49a8 bbba 6f6b 303f e39a 8b3f af33 b03f
00000010: 051d cd3f 7765 e43f de7a f83f 4ff6 0340
00000020: b511 0c40 829b 1240 0b7c 1840 2beb 1d40
00000030: c31e 2340 caba 2740 9af1 2b40 48c3 2f40
00000040: 361a 3440 1391 3740 542e 3b40 c004 3e40
00000050: ac1e 4240 bc60 4440 4efd 4640 2e41 4940
00000060: bf7d 4c40 c828 4f40 af09 5140 bf0d 5440
00000070: 33ae 5540 152f 5840 a3d0 5940 ff77 5c40
00000080: 6c7a d1bc fb20 283f eee1 863f f56b ab3f
00000090: 35c3 c83f 4819 e03f 55c5 f43f 259b 0140
000000a0: e6f4 0940 6070 1040 7834 1640 cbb0 1b40
000000b0: 61f1 2040 e683 2540 e6c2 2940 1e92 2d40
000000c0: c3fd 3140 1c64 3540 320d 3940 c5fb 3b40
000000d0: aa43 4040 164d 4240 170d 4540 8844 4740
000000e0: 3188 4a40 672e 4d40 a708 4f40 b627 5240
000000f0: cbb9 5340 7a42 5640 32df 5740 babb 5a40
00000100: b74d 48bd 4276 223f 1c0c 843f c3ad a83f
00000110: 946d c63f b863 de3f 550d f33f 945e 0040
00000120: 56ff 0840 9899 0f40 db1b 1540 35b1 1a40
00000130: 2402 2040 9788 2440 60d2 2840 6b9a 2c40
00000140: 3e25 3140 197e 3440 2c38 3840 a02e 3b40
00000150: 47e1 3f40 4480 4140 9c61 4440 377b 4640
00000160: 5903 4a40 4789 4c40 2855 4e40 2591 5140
00000170: ac1d 5340 0dbe 5540 7749 5740 a058 5a40
00000180: 306e d5ba 6656 303f fa97 8b3f d037 b03f
00000190: 8e1b cd3f 0169 e43f 867b f83f ab10 0440
000001a0: 1319 0c40 6fa7 1240 bd94 1840 1c0b 1e40
000001b0: 953c 2340 9dde 2740 0120 2c40 f508 3040
000001c0: 4a45 3440 11c8 3740 395d 3b40 7448 3e40
000001d0: be35 4240 159a 4440 3546 4740 43aa 4940
000001e0: 7abd 4c40 9861 4f40 1266 5140 4a45 5440
000001f0: 6804 5640 6872 5840 c82d 5a40 37b7 5c40
00000200: 69e1 14bd 8452 253f b34d 853f 7ad0 a93f
00000210: 557e c73f 2326 df3f 69d9 f33f 3ab4 0040
00000220: 7965 0940 85ea 0f40 c46a 1540 f2f1 1a40
00000230: e542 2040 1eba 2440 edf0 2840 c59b 2c40
00000240: 0949 3140 5485 3440 cb4b 3840 c620 3b40
00000250: 3c23 4040 0271 4140 b351 4440 d237 4640
00000260: c418 4a40 1679 4c40 9402 4e40 5287 5140
00000270: 42cb 5240 f8b3 5540 62dd 5640 4b7b 5a40
00000280: 36c6 8ebc 1524 2a3f e4e1 873f ca67 ac3f
00000290: 23a1 c93f 1dda e03f ad7a f53f 7718 0240
000002a0: 0057 0a40 31c6 1040 7da5 1640 0519 1c40
000002b0: 8353 2140 8bee 2540 c92e 2a40 b521 2e40
000002c0: 555b 3240 04d7 3540 3771 3940 5266 3c40
000002d0: 4472 4040 1cb7 4240 4067 4540 e8e9 4740
000002e0: cfc9 4a40 ce86 4d40 2191 4f40 d876 5240
000002f0: 502b 5440 b188 5640 005d 5840 99e8 5a40
00000300: 87bc cabc 7317 293f 46c7 873f 276f ac3f
00000310: 3c69 c93f dfc5 e03f 4d12 f53f 294f 0240
00000320: 5e4b 0a40 50cb 1040 82cf 1640 d54b 1c40
00000330: 4779 2140 9824 2640 bb77 2a40 59a5 2e40
00000340: 438b 3240 032d 3640 30b1 3940 e5c7 3c40
00000350: af6d 4040 65fc 4240 23bd 4540 9a94 4840
00000360: 2825 4b40 1bb5 4d40 a214 5040 268c 5240
00000370: f69d 5440 8cce 5640 37de 5840 a7fe 5a40
00000380: ae9d 58bd 9f8d 213f b0b6 833f 0561 a83f
00000390: c5eb c53f 1054 dd3f bc62 f23f b357 0040
000003a0: c0a6 0840 8228 0f40 42db 1440 2b6b 1a40
000003b0: aab9 1f40 7248 2440 2ca4 2840 dc9b 2c40
000003c0: 63dd 3040 1a50 3440 5aed 3740 8a07 3b40
000003d0: ad6b 3f40 c44f 4140 331f 4440 34b5 4640
000003e0: 4da2 4940 be50 4c40 1955 4e40 9c5c 5140
000003f0: 8d05 5340 2c71 5540 5a3f 5740 241d 5a40

ema_model.q_head.DAC_block.mamba_blocks.0.D f4 [28]
1.1027495 1.1021093 1.1015792 0.9789388 1.0964622 1.0698916 1.0811279 1.1016881
1.0879209 1.072794 1.0911193 1.0970064 1.0955867 1.0970247 1.0722047 1.0977056
1.09878 1.1071697 1.0470364 1.0325438 1.0684142 1.1030699 1.0410532 1.0879678
1.090475 1.0753541 1.0998111 1.1006715
00000000: e526 8d3f eb11 8d3f 8c00 8d3f bc9b 7a3f
00000010: e058 8c3f 35f2 883f 6662 8a3f 1e04 8d3f
00000020: fe40 8b3f 5051 893f cca9 8b3f b56a 8c3f
00000030: 2f3c 8c3f 4e6b 8c3f 013e 893f 9e81 8c3f
00000040: d3a4 8c3f bdb7 8d3f 4a05 863f 652a 843f
00000050: ccc1 883f 6531 8d3f 3b41 853f 8742 8b3f
00000060: af94 8b3f 34a5 893f 9cc6 8c3f cee2 8c3f
