checkpoints/q-mamba/20240831_083609/checkpoint-5.pt (torch, 103216 bytes, 52 tensors)

q_head.DAC_block.mamba_blocks.0.A_log f4 [28, 32]
-0.0017306342 0.68831706 1.0890788 1.3746487 1.601021 1.7828296 1.9402755 2.058543
2.1868207 2.2883623 2.3795733 2.4640913 2.5455723 2.6172404 2.682549 2.7414546
2.8104022 2.864053 2.920902 2.9640756 3.0307834 3.0640945 3.1042833 3.1386878
3.1906586 3.232776 3.2608376 3.309653 3.333512 3.3734252 3.397823 3.440737
-0.030435743 0.65016097 1.0460341 1.3312026 1.5611986 1.7435224 1.9061831 2.0162215
2.1482525 2.2489324 2.3384564 2.4239957 2.5062768 2.5774357 2.6434956 2.7025764
2.7724516 2.8251917 2.8826764 2.9278834 2.9968903 3.026934 3.0697522 3.1037393
3.155604 3.1972423 3.2253811 3.2753997 3.298821 3.338958 3.363435 3.4094186
-0.05759105 0.62500113 1.0214576 1.3075206 1.5404507 1.727897 1.8901129 1.9951832
2.1309936 2.2338936 2.3194647 2.4066765 2.489913 2.5604336 2.6273365 2.6861942
2.7576492 2.8097167 2.868147 2.9141264 2.989329 3.0130541 3.0580678 3.0904715
3.1463203 3.1858494 3.2133536 3.2648509 3.2882493 3.329731 3.3533454 3.4022892
-0.0018338291 0.6882286 1.0894194 1.3753283 1.6015148 1.7835817 1.9409152 2.0612738
2.1881356 2.2900872 2.3822663 2.467402 2.548757 2.6208425 2.6869366 2.7474806
2.8146803 2.8691127 2.9254224 2.9701025 3.033671 3.0693817 3.1108885 3.1472623
3.1965399 3.2381501 3.2686577 3.315108 3.3409195 3.3796308 3.405636 3.4469016
-0.04293641 0.63769484 1.0323029 1.3172945 1.5499804 1.7349296 1.8977956 2.0008993
2.1383064 2.2396188 2.3248987 2.4111562 2.4944518 2.5639033 2.6295085 2.686437
2.7602487 2.810402 2.8696656 2.9133892 2.99402 3.01227 3.057214 3.0863218
3.1477828 3.184977 3.2082365 3.2644207 3.2830856 3.3291168 3.3465424 3.4045556
-0.020959616 0.659105 1.0547787 1.339755 1.5687723 1.7501352 1.912326 2.024575
2.1548622 2.2547724 2.3460035 2.4309561 2.512837 2.5845444 2.650671 2.7119782
2.778681 2.8327868 2.889333 2.9349334 3.000092 3.0339615 3.0757184 3.1144493
3.1600804 3.2031243 3.234276 3.2806315 3.3062868 3.3437014 3.3716779 3.41247
-0.027936269 0.65596145 1.0552139 1.3413253 1.5685126 1.7511641 1.9109247 2.0294464
2.1558833 2.2565806 2.3501718 2.4356515 2.5167308 2.5893617 2.656606 2.7217286
2.7831223 2.839583 2.894732 2.9422977 3.0012512 3.0395103 3.0824163 3.1265163
3.1669986 3.207166 3.2437873 3.2831938 3.3145952 3.349118 3.3808153 3.414884
-0.059800692 0.62266076 1.019532 1.3056067 1.5370077 1.7198732 1.8854545 1.9945306
2.1254466 2.2266073 2.3150163 2.401832 2.4848766 2.5558376 2.6238241 2.6856155
2.7524989 2.8061607 2.8627825 2.9110446 2.9812317 3.00937 3.053285 3.0935545
3.139705 3.1817002 3.2128606 3.260894 3.2863212 3.3244536 3.352413 3.3980656
00000000: 73d6 e2ba 8c35 303f ef66 8b3f 7df4 af3f
00000010: 42ee cc3f c333 e43f f35a f83f 2bbf 0340
00000020: dff4 0b40 8774 1240 ee4a 1840 acb3 1d40
00000030: a8ea 2240 de80 2740 e2ae 2b40 fe73 2f40
00000040: a1dd 3340 a54c 3740 0ff0 3a40 6ab3 3d40
00000050: 5bf8 4140 201a 4440 94ac 4640 43e0 4840
00000060: c033 4c40 cde5 4e40 90b1 5040 5bd1 5340
00000070: 4358 5540 33e6 5740 ef75 5940 0935 5c40
00000080: 6154 f9bc f370 263f 72e4 853f d964 aa3f
00000090: 5bd5 c73f be2b df3f cffd f33f c609 0140
000000a0: f87c 0940 82ee 0f40 45a9 1540 bf22 1b40
000000b0: d766 2040 b5f4 2440 082f 2940 03f7 2c40
000000c0: d96f 3140 f1cf 3440 c57d 3840 7162 3b40
000000d0: 0dcd 3f40 49b9 4140 d276 4440 aaa3 4640
000000e0: 6af5 4940 9e9f 4c40 a56c 4e40 26a0 5140
000000f0: e21f 5340 7db1 5540 8542 5740 ea33 5a40
00000100: 98e4 6bbd 1300 203f 1fbf 823f d65c a73f
00000110: 7d2d c53f bb2b dd3f 38ef f13f 2a62 ff3f
00000120: 3362 0840 1df8 0e40 1c72 1440 fd06 1a40
00000130: bc5a 1f40 25de 2340 4826 2840 9bea 2b40
00000140: 537d 3040 66d2 3340 b88f 3740 0c81 3a40
00000150: 2b51 3f40 e1d5 4040 62b7 4340 49ca 4540
00000160: 505d 4940 f5e4 4b40 96a7 4d40 51f3 5040
00000170: ad72 5240 501a 5540 369d 5640 1bbf 5940
00000180: 185d f0ba c02f 303f 1872 8b3f c20a b03f
00000190: 70fe cc3f 684c e43f e96f f83f e9eb 0340
000001a0: 6a0a 0c40 ca90 1240 0d77 1840 eae9 1d40
000001b0: d61e 2340 e2bb 2740 c5f6 2b40 b9d6 2f40
000001c0: b923 3440 8b9f 3740 1f3a 3b40 2916 3e40
000001d0: aa27 4240 c070 4440 cc18 4740 bf6c 4940
000001e0: 1c94 4c40 da3d 4f40 b031 5140 bb2a 5440
000001f0: a0d1 5540 df4b 5840 f1f5 5940 099a 5c40
00000200: 17de 2fbd f83f 233f 8022 843f 1b9d a83f
00000210: c265 c63f 2c12 de3f f7ea f23f bc0e 0040
00000220: 03da 0840 ea55 0f40 24cb 1440 6250 1a40
00000230: 19a5 1f40 fe16 2440 de49 2840 95ee 2b40
00000240: eaa7 3040 a0dd 3340 9aa8 3740 f874 3a40
00000250: 069e 3f40 08c9 4040 65a9 4340 4c86 4540
00000260: 4675 4940 aad6 4b40 bf53 4d40 45ec 5040
00000270: 131e 5240 4010 5540 c02d 5640 3de4 5940
00000280: 80b3 abbc 1bbb 283f fd02 873f 187d ab3f
00000290: 88cd c83f 6e04 e03f 19c7 f43f a392 0140
000002a0: 43e9 0940 314e 1040 ec24 1640 c994 1b40
000002b0: 52d2 2040 2d69 2540 98a4 2940 0d91 2d40
000002c0: e9d5 3140 614c 3540 d5ea 3840 f3d5 3b40
000002d0: 8201 4040 6d2c 4240 92d8 4440 2353 4740
000002e0: c23e 4a40 fdff 4c40 61fe 4e40 def5 5140
000002f0: 349a 5340 34ff 5540 92c9 5740 e965 5a40
00000300: 9ada e4bc 17ed 273f 4011 873f 8cb0 ab3f
00000310: 05c5 c83f 2526 e03f 2e99 f43f 73e2 0140
00000320: fef9 0940 d16b 1040 3769 1640 b7e1 1b40
00000330: 1e12 2140 1ab8 2540 d505 2a40 cd30 2e40
00000340: ad1e 3240 babb 3540 4a43 3940 9b4e 3c40
00000350: 8014 4040 5687 4240 4f46 4540 d818 4840
00000360: 1bb0 4a40 3542 4d40 369a 4f40 d91f 5240
00000370: 5422 5440 f357 5640 475f 5840 768d 5a40
00000380: 92f1 74bd b266 1f3f 0680 823f 1f1e a73f
00000390: abbc c43f ce24 dc3f 9356 f13f c74c ff3f
000003a0: 5107 0840 bc80 0e40 3a29 1440 9eb7 1940
000003b0: 3808 1f40 d892 2340 bcec 2740 20e1 2b40
000003c0: f128 3040 2398 3340 d437 3740 8e4e 3a40
000003d0: 80cc 3e40 8599 4040 0569 4340 ccfc 4540
000003e0: edf0 4840 faa0 4b40 829f 4d40 7db2 5040
000003f0: 1653 5240 d9c3 5440 ef8d 5640 e879 5940

q_head.DAC_block.mamba_blocks.0.D f4 [28]
1.1226449 1.1203499 1.1196557 0.97693884 1.1130923 1.0864981 1.0963513 1.1229324
1.1030787 1.0922184 1.1067351 1.1133071 1.1128434 1.1133614 1.0921395 1.116103
1.1164542 1.12657 1.0658666 1.0495547 1.0854509 1.1219091 1.0612447 1.1019204
1.1087589 1.0916729 1.1173943 1.121165
00000000: d4b2 8f3f a067 8f3f e150 8f3f aa18 7a3f
00000010: cf79 8e3f 5f12 8b3f 3d55 8c3f 40bc 8f3f
00000020: af31 8d3f d0cd 8b3f 7fa9 8d3f d980 8e3f
00000030: a771 8e3f a082 8e3f 3acb 8b3f 77dc 8e3f
00000040: f9e7 8e3f 7233 903f 516e 883f cf57 863f
00000050: 0ef0 8a3f b89a 8f3f ded6 873f ba0b 8d3f
00000060: d0eb 8d3f f0bb 8b3f c706 8f3f 5682 8f3f

q_head.DAC_block.mamba_blocks.0.in_proj.weight f4 [56, 14]
-0.08583206 0.18776031 0.10758261 0.17051715 0.292424 0.36163878 0.19067574 0.087170824
0.40656856 0.15069972 0.087999225 -0.1096483 0.1304743 -0.15780033 0.2629079 -0.1251794
0.34416336 0.122414984 0.28524742 0.31271094 0.25534225 -0.06899828 0.01754556 0.22490382
0.13440506 -0.19401371 0.14522037 0.2512472 -0.22954378 -0.34438762 -0.37279457 -0.23467858
-0.1969017 -0.3268551 -0.16293405 -0.39457694 -0.2001194 -0.01159571 0.13136041 0.0978589
-0.19542211 -0.21586262 0.0001538481 -0.13363968 -0.12249883 0.17837791 -0.28088027 -0.13910474
0.17868182 0.2282958 -0.012108948 0.07719839 0.15577653 0.18336256 -0.25968674 -0.30716065
-0.017225187 0.19139503 0.23442195 0.2979933 0.3184931 -0.02359745 0.22585109 0.06737633
0.005088574 -0.17887485 0.26861024 -0.07435169 -0.012261801 0.14453636 0.36321434 -0.05821899
0.25499356 -0.11377739 -0.1461058 -0.09168088 0.03586665 0.23661529 0.28488025 -0.19288118
0.26377794 0.3120402 0.2274828 0.26217917 0.31529945 -0.12502182 0.08824726 0.25525576
-0.12912892 0.17601775 0.30786934 0.0009648521 -0.10831032 0.10260905 0.26735035 0.34731743
-0.14772175 0.23252778 -0.07635711 -0.071907654 -0.047547363 -0.0031661445 -0.1436676 -0.33909371
-0.29438502 0.12108324 -0.019830339 -0.09754019 -0.12789567 -0.06401755 -0.23690005 0.12492725
-0.084066086 0.075827435 0.10375783 -0.15015003 -0.017009685 -0.003991884 -0.25087154 -0.19368947
0.23507519 0.21231493 0.22212444 0.26796395 0.23309118 0.28286853 0.16104814 -0.2342426
0.14749494 -0.26437274 0.16046265 0.09450938 -0.17553107 0.0051152287 0.21733703 0.016883453
-0.19031756 -0.039936356 0.2800397 0.30546758 -0.07560426 0.3513315 -0.08803323 -0.10464701
-0.0692985 0.114656515 -0.07155715 -0.053671453 0.29622555 -0.24570549 -0.07390648 0.20910601
0.30153725 0.26650095 0.115259185 -0.10731317 -0.1138107 0.20723689 0.06030859 0.0053764097
0.18724975 -0.13026698 0.36925858 0.23769148 0.3197892 0.28978765 0.08435633 0.067643955
0.14006016 0.15000395 -0.14813682 -0.10144972 -0.2731415 0.07002939 -0.13564704 -0.142367
-0.07551246 0.12562795 0.018209003 -0.08299611 0.1545416 0.07245539 -0.06089976 0.0005451424
0.018759262 0.10252885 0.25761086 0.22384858 0.070619315 0.33089602 0.36191913 -0.20623852
0.2869633 0.07208325 0.16725281 0.06823636 -0.051323246 -0.30962124 -0.24997519 -0.15842493
0.00998677 -0.17173095 -0.27569523 -0.28351364 0.096985795 -0.19261543 0.15548259 -0.28680083
-0.32494894 -0.01698545 -0.08860212 -0.10683535 0.25528136 0.23082438 0.04635021 0.29916924
0.056176163 0.34166464 0.22366025 0.22565934 0.17472555 0.020248739 0.1542643 0.031960767
-0.0029751125 -0.0023258606 -0.39847583 -0.036923204 -0.22294775 -0.20538303 0.043624412 -0.063746706
-0.139998 -0.03451842 -0.29861873 -0.046038553 -0.029356534 -0.08724511 0.06375133 0.16829914
-0.020105064 0.22012973 -0.11644372 0.07588732 0.17803897 0.13785943 0.17524163 -0.07747898
0.1589487 -0.012843448 -0.028785218 0.35552785 -0.23459408 -0.22554444 -0.267666 0.17825241
00000000: b8c8 afbd 3d44 403e 4554 dc3d 0c9c 2e3e
00000010: 99b8 953e b828 b93e 8040 433e 9e86 b23d
00000020: c129 d03e 0751 1a3e f038 b43d 4a8f e0bd
00000030: 0e9b 053e 6996 21be dd9b 863e 072f 00be
00000040: 2e36 b03e b5b4 fa3d f30b 923e a61b a03e
00000050: 38bc 823e f84e 8dbd b5bb 8f3c 304d 663e
00000060: 7ba1 093e 88ab 46be a6b4 143e 79a3 803e
00000070: 860d 6bbe 9353 b0be eede bebe 954f 70be
00000080: 99a0 49be 8d59 a7be 2fd8 26be fd05 cabe
00000090: 1aec 4cbe effb 3dbc 5883 063e 3f6a c83d
000000a0: bc1c 48be 170b 5dbe 4952 2139 d7d8 08be
000000b0: abe0 fabd b3a8 363e 8acf 8fbe 7971 0ebe
000000c0: 5ef8 363e 60c6 693e 9c64 46bc 311a 9e3d
000000d0: e283 1f3e 65c3 3b3e a9f5 84be 2944 9dbe
000000e0: d61b 8dbc 0ffd 433e 4f0c 703e 9492 983e
000000f0: 8711 a33e 714f c1bc 8245 673e 9afc 893d
00000100: 0dbe a63b f82a 37be 4887 893e b345 98bd
00000110: b9e5 48bc 5701 143e 3bf7 b93e 0977 6ebd
00000120: 848e 823e 1f04 e9bd c29c 15be 2fc3 bbbd
00000130: e9e8 123d 474b 723e d3db 913e a582 45be
00000140: e70d 873e bcc3 9f3e 40f1 683e 593c 863e
00000150: ee6e a13e b805 00be fbba b43d e2b0 823e
00000160: 5f3a 04be ff3d 343e 0da1 9d3e 21ee 7c3a
00000170: cdd1 ddbd b224 d23d 25e2 883e 97d3 b13e
00000180: 5f44 17be c31b 6e3e 1e61 9cbd 5244 93bd
00000190: 06c1 42bd 177f 4fbb 991d 13be b19d adbe
000001a0: a2b9 96be 7dfa f73d 3c73 a2bc 27c3 c7bd
000001b0: 15f7 02be a21b 83bd ed95 72be dcd9 ff3d
000001c0: d72a acbd 6a4b 9b3d fc7e d43d eec0 19be
000001d0: e557 8bbc 5ace 82bb 3c72 80be 8856 46be
000001e0: 8db7 703e 1669 593e 9774 633e 9232 893e
000001f0: 74af 6e3e 25d4 903e cee9 243e 4bdd 6fbe
00000200: ea08 173e dd5b 87be 5250 243e 228e c13d
00000210: 6bbe 33be a69d a73b 998d 5e3e 2b4f 8a3c
00000220: 9be2 42be 4e94 23bd 5d61 8f3e 3f66 9c3e
00000230: 68d6 9abd b9e1 b33e c44a b4bd 2c51 d6bd
00000240: 5fec 8dbd 09d1 ea3d 8e8c 92bd 99d6 5bbd
00000250: e0aa 973e 389a 7bbe 485c 97bd e31f 563e
00000260: 1763 9a3e d072 883e 020d ec3d 02c7 dbbd
00000270: 9615 e9bd e835 543e 2406 773d 982c b03b
00000280: 66be 3f3e b564 05be 760f bd3e 6565 733e
00000290: 69bb a33e 0c5f 943e 03c3 ac3d ea88 8a3d
000002a0: ee6b 0f3e a39a 193e 2eb1 17be dfc4 cfbd
000002b0: 34d9 8bbe 926b 8f3d 0fe7 0abe a8c8 11be
000002c0: 47a6 9abd 9da4 003e 0c2b 953c ddf9 a9bd
000002d0: 2740 1e3e 7e63 943d 0772 79bd e3e7 0e3a
000002e0: 06ad 993c a5fa d13d 92e5 833e 9038 653e
000002f0: dca0 903d 346b a93e 774d b93e 3130 53be
00000300: dbec 923e 62a0 933d 5244 2b3e 81bf 8b3d
00000310: 5338 52bd ad86 9ebe 7ff9 7fbe 253a 22be
00000320: 8d9f 233c 3dda 2fbe ed27 8dbe b328 91be
00000330: 7da0 c63d fb3c 45be d436 1f3e 8fd7 92be
00000340: b55f a6be 1225 8bbc 0775 b5bd 7ecc dabd
00000350: 3db4 823e 3a5d 6c3e b8d9 3d3d b62c 993e
00000360: fa18 663d abee ae3e 3107 653e 3e13 673e
00000370: 41eb 323e afe0 a53c 76f7 1d3e 4be9 023d
00000380: 1bfa 42bb 776d 18bb 0605 ccbe c93c 17bd
00000390: 6a4c 64be ee4f 52be 83af 323d a28d 82bd
000003a0: a35b 0fbe 3063 0dbd 8ee4 98be ec92 3cbd
000003b0: 1d7d f0bc 90ad b2bd 0f90 823d 9c56 2c3e
000003c0: 60b3 a4bc b069 613e 0c7a eebd d06a 9b3d
000003d0: d94f 363e 062b 0d3e 8b72 333e 4dad 9ebd
000003e0: 73c3 223e 536d 52bc face ebbc bf07 b63e
000003f0: 6e39 70be 1ff5 66be 850b 89be cd87 363e

q_head.DAC_block.mamba_blocks.0.conv1d.weight f4 [28, 1, 4]
0.16933537 0.1372692 -0.390652 0.5424133 0.16828698 -0.35534936 -0.5367723 -0.12160993
-0.28845686 0.24868953 0.4494936 0.5751384 -0.27426612 -0.453395 -0.5563293 0.33826923
-0.44143003 0.39759636 0.32347867 -0.51409066 -0.3306089 -0.3389591 0.07306865 0.43958807
0.07083106 -0.18967539 0.044307053 0.56118774 -0.2424171 -0.045998693 -0.3442912 -0.27317095
0.25744945 -0.13901925 0.30480307 -0.1224957 0.2916671 0.12754208 -0.38929412 0.14198522
-0.30303776 0.08562493 0.18963449 0.40044087 0.04196185 -0.2758264 0.026568206 0.4348787
-0.019853175 0.04672599 -0.505293 0.08618033 0.38839006 0.40366167 -0.4916687 -0.16988456
-0.41824663 0.30795246 -0.1525842 -0.58569145 0.28875607 -0.16521484 -0.35288322 0.5689541
-0.3064363 0.038155675 -0.0061294194 0.42120785 -0.010876238 -0.43152815 0.3385932 0.32766515
0.35855246 -0.2115916 0.29087326 0.22704957 -0.13354611 -0.17424029 0.12347975 0.11977261
0.21516192 0.09959602 -0.4729418 0.40878654 -0.31578028 0.055472434 -0.34833816 0.35649753
0.25584018 0.07971257 0.010382093 -0.5138036 0.30041486 0.2283606 0.4237976 0.34491378
0.027144253 -0.13151896 -0.015502428 -0.30284616 -0.32277143 0.20261961 -0.59032273 -0.3497486
0.31416994 -0.23655838 -0.41136953 -0.05894482 -0.45996404 -0.016076684 -0.37232256 0.36601382
00000000: 4066 2d3e 4c90 0c3e 8a03 c8be 99db 0a3f
00000010: 6c53 2c3e 5af0 b5be e969 09bf a10e f9bd
00000020: 9eb0 93be 78a8 7e3e 0624 e63e 453c 133f
00000030: 9c6c 8cbe 6423 e8be 996b 0ebf a031 ad3e
00000040: 1e03 e2be c091 cb3e ff9e a53e 729b 03bf
00000050: 9245 a9be 0c8c adbe 04a5 953d b011 e13e
00000060: e00f 913d 443a 42be 507b 353d 00aa 0f3f
00000070: 303c 78be 2069 3cbd f046 b0be 10dd 8bbe
00000080: 6ad0 833e 105b 0ebe 260f 9c3e 07df fabd
00000090: 6455 953e 649a 023e 8f51 c7be 9364 113e
000000a0: c427 9bbe 205c af3d 8b2f 423e 9606 cd3e
000000b0: 30e0 2b3d 1e39 8dbe 91a5 d93c 6ca8 de3e
000000c0: 20a3 a2bc c063 3f3d e25a 01bf 507f b03d
000000d0: 10db c63e beac ce3e 00bc fbbe 38f6 2dbe
000000e0: 6c24 d6be f2ab 9d3e 083f 1cbe e0ef 15bf
000000f0: d6d7 933e 142e 29be 1cad b4be faa6 113f
00000100: 38e5 9cbe 2049 1c3d 4cd9 c8bb 8ea8 d73e
00000110: 4032 32bc 42f1 dcbe 175c ad3e bac3 a73e
00000120: 3094 b73e 78ab 58be 57ed 943e af7f 683e
00000130: 50c0 08be 0c6c 32be f3e2 fc3d 584b f53d
00000140: 6853 5c3e 00f9 cb3d 6d25 f2be 784c d13e
00000150: f4ad a1be 1037 633d 6159 b2be d886 b63e
00000160: 7cfd 823e 5840 a33d a719 2a3c a288 03bf
00000170: facf 993e 5cd7 693e 00fc d83e 8a98 b03e
00000180: a05d de3c e8ac 06be e5fd 7dbc a70e 9bbe
00000190: 4c42 a5be 847b 4f3e 641f 17bf 4012 b3be
000001a0: e2da a03e 5c3c 72be 079f d2be 2070 71bd
000001b0: 6880 ebbe 40b3 83bc 10a1 bebe 2a66 bb3e

q_head.DAC_block.mamba_blocks.0.conv1d.bias f4 [28]
0.4991972 -0.3215864 0.11024835 -0.3985958 -0.56848544 0.28225115 0.14500298 0.4849069
-0.3806166 0.43076387 0.5073661 0.4620173 0.38435346 -0.3401686 0.34880492 0.4619954
-0.2832169 0.593957 -0.34431392 -0.14452544 -0.15795128 -0.43806493 -0.061184146 -0.4191281
0.6223491 -0.3639891 0.4394557 0.2806703
00000000: c796 ff3e f9a6 a4be e3c9 e13d c014 ccbe
00000010: 4388 11bf 3983 903e a97b 143e b845 f83e
00000020: 2ee0 c2be 158d dc3e bfe2 013f 888d ec3e
00000030: fac9 c43e 942a aebe 8f96 b23e a98a ec3e
00000040: ce01 91be 910d 183f ea49 b0be 7afe 13be
00000050: fbbd 21be 0c4a e0be 3a9c 7abd f597 d6be
00000060: 4552 1f3f c85c babe 5600 e13e 04b4 8f3e

q_head.DAC_block.mamba_blocks.0.x_proj.weight f4 [65, 28]
-0.15225281 0.25210932 -0.00574927 -0.0025626794 0.09886793 -0.1666563 -0.0675169 -0.16476603
0.21605127 -0.24755903 -0.09045277 -0.2769053 -0.3405854 0.27795738 -0.31430325 -0.34611917
0.11581361 0.0052271043 0.22846498 0.28871205 0.30777487 -0.028031256 0.114588924 0.035740584
-0.0004188236 0.15834978 -0.012583204 -0.014005865 0.15601385 -0.24508576 -0.22497338 -0.13515179
0.012360471 -0.038900647 0.21480323 -0.022637483 -0.1251908 0.08759609 0.0946174 0.31484196
0.023646126 -0.04832489 -0.0040811654 0.12548512 -0.21409078 0.30816463 -0.08842915 -0.014717062
-0.22951367 -0.1792826 -0.13377187 -0.14306471 0.029710518 0.025086913 0.29330623 0.06963289
0.22422378 -0.16333868 -0.0013695197 -0.20958658 -0.05091424 0.14404081 0.21106648 0.285796
-0.31492853 -0.022947589 0.011175163 0.2853863 0.22147961 0.04768756 0.2102074 0.085467756
-0.2412696 0.05243347 -0.2150898 -0.16554172 -0.057306048 -0.24012041 -0.1705495 -0.16147302
-0.028027901 -0.22838812 0.023048883 0.11929558 -0.32642567 -0.02431417 0.21962807 0.20677808
0.27420318 0.049031552 0.04280919 -0.06958123 0.12575802 -0.024052717 -0.2437922 -0.048563357
-0.0163829 -0.05112316 -0.31421614 -0.09666744 0.2643576 -0.16647458 0.19275227 0.10769863
-0.046241846 0.008139268 0.116992585 -0.00252744 -0.30547187 0.0558255 -0.020472383 -0.26520973
0.03788357 -0.184054 -0.1457708 -0.29799664 0.036364757 0.02124929 0.20238578 -0.009932293
-0.27091977 -0.00023038177 0.27319333 0.307571 0.22704606 -0.08874442 0.28519747 0.30626503
-0.008519019 0.05788679 -0.26631755 -0.10950238 -0.1586521 -0.039728798 -0.2095464 -0.17157008
0.27730253 -0.063069895 0.21883461 0.27089253 0.064692676 -0.106211506 -0.32388094 -0.052375514
0.031917706 0.0008242145 0.14712009 0.14222011 -0.11687994 -0.048281267 0.13766865 -0.024021756
0.31801853 -0.25245282 0.15842536 0.22408599 -0.19853416 0.27023125 -0.07427285 -0.28464735
-0.17418273 -0.29745412 -0.10874307 -0.11888437 0.027353888 -0.27476713 0.10145564 0.07405191
0.25138882 0.017623674 -0.21938922 -0.14609915 -0.17385499 0.20221795 -0.06492265 0.27232265
-0.12656286 0.18816265 0.21269062 0.23423737 0.07642244 -0.025258131 0.28165004 0.004126232
-0.012358539 0.08687251 -0.23367535 -0.23877862 0.03968888 -0.060870077 -0.1138159 -0.032611046
0.15106921 -0.1541813 0.1927321 0.033064697 -0.20522358 0.22815783 -0.07228749 0.06077358
0.09148388 0.099453814 -0.13808629 -0.23695576 0.039983843 -0.08652774 -0.21107627 -0.16948359
-0.16603826 -0.07863559 -0.2086053 -0.050811045 0.24964975 -0.05091125 0.04893712 -0.093112655
0.3024179 0.09477683 0.24431017 -0.03390101 -0.067760594 0.100113116 -0.25496197 -0.19040492
0.025099676 -0.2847215 -0.16184253 -0.11894169 -0.26165837 0.25806832 0.102871984 0.17861982
-0.19565111 0.3158828 0.078574896 0.067134075 0.24502768 -0.13875353 0.21888573 0.28559235
0.02739288 0.09341886 -0.21297508 -0.053031523 -0.2372991 -0.18287875 -0.16568768 -0.17580342
0.23913956 -0.035382554 0.23876476 0.2785387 0.23589775 -0.26220936 -0.18021956 -0.2482347
00000000: 29e8 1bbe 7914 813e 5f64 bcbb a0f2 27bb
00000010: 457b ca3d f3a7 2abe 4d46 8abd 6db8 28be
00000020: 8b3c 5d3e 1d80 7dbe 4d3f b9bd 88c6 8dbe
00000030: 3661 aebe 6e50 8e3e 5bec a0be 8836 b1be
00000040: b02f ed3d 2148 ab3b b9f2 693e 11d2 933e
00000050: ab94 9d3e cea1 e5bc 99ad ea3d b864 123d
00000060: 8d95 dbb9 7226 223e c829 4ebc db78 65bc
00000070: 18c2 1f3e c3f7 7abe 6c5f 66be 3b65 0abe
00000080: 9383 4a3c 4956 1fbd 61f5 5b3e 3e72 b9bc
00000090: 0432 00be 9465 b33d c4c6 c13d f732 a13e
000000a0: 85b5 c13c 52f0 45bd 4cbb 85bb 2c7f 003e
000000b0: 9d3a 5bbe c1c7 9d3e 581a b5bd d51f 71bc
000000c0: a205 6bbe dc95 37be 7efb 08be 8e7f 12be
000000d0: 7963 f33c 1283 cd3c 3c2c 963e b09b 8e3d
000000e0: eb9a 653e 4142 27be 7581 b3ba dd9d 56be
000000f0: 738b 50bd 6f7f 133e d021 583e da53 923e
00000100: 503e a1be 95fc bbbc 0818 373c 271e 923e
00000110: 8dcb 623e 0854 433d 9c40 573e b809 af3d
00000120: 610f 77be 7ac4 563d 8040 5cbe c583 29be
00000130: bfb9 6abd 20e2 75be 87a4 2ebe 2f59 25be
00000140: c59a e5bc 93de 69be 03d1 bc3c 3e51 f43d
00000150: 4421 a7be 832e c7bc 2ee6 603e a2bd 533e
00000160: 5c64 8c3e 4fd5 483d b058 2f3d 9b80 8ebd
00000170: b6c6 003e 340a c5bc aaa4 79be 5fea 46bd
00000180: 6e35 86bc 8566 51bd f0e0 a0be 94f9 c5bd
00000190: e159 873e 5078 2abe da60 453e 1991 dc3d
000001a0: 1768 3dbd 905a 053c cf99 ef3d 68a3 25bb
000001b0: cf66 9cbe 48a9 643d b3b5 a7bc 92c9 87be
000001c0: cd2b 1b3d a778 3cbe f144 15be 0493 98be
000001d0: 36f3 143d fe12 ae3c 383e 4f3e 0ebb 22bc
000001e0: ffb5 8abe a392 71b9 ffdf 8b3e f279 9d3e
000001f0: c37e 683e a2bf b5bd 6705 923e c5ce 9c3e
00000200: 5b93 0bbc b31a 6d3d c65a 88be c942 e0bd
00000210: b275 22be aaba 22bd 5593 56be 11b0 2fbe
00000220: 99fa 8d3e ca2a 81bd 2e16 603e 6db2 8a3e
00000230: 987d 843d 6b85 d9bd b9d3 a5be b587 56bd
00000240: 24bc 023d 1910 583a a6a6 163e 26a2 113e
00000250: c05e efbd 94c2 45bd 03f9 0c3e 46c9 c4bc
00000260: 53d3 a23e 7f41 81be 423a 223e cc76 653e
00000270: 8a4c 4bbe c05b 8a3e 5d1c 98bd 4cbd 91be
00000280: f55c 32be e84b 98be b0b4 debd a679 f3bd
00000290: 4315 e03c 47ae 8cbe f9c7 cf3d 87a8 973d
000002a0: 09b6 803e 865f 903c 91a7 60be 049b 15be
000002b0: 0b07 32be 3912 4f3e 2bf6 84bd e06d 8b3e
000002c0: b299 01be b6ad 403e 92cb 593e ecdb 6f3e
000002d0: 5e83 9c3d 24ea cebc 6f34 903e 5835 873b
000002e0: 787b 4abc 37ea b13d 9748 6fbe 6282 74be
000002f0: cf90 223d e752 79bd 5018 e9bd 2993 05bd
00000300: e3b1 1a3e b4e1 1dbe 905b 453e d96e 073d
00000310: 2126 52be 35a2 693e 770b 94bd b8ed 783d
00000320: e75b bb3d 71ae cb3d 7e66 0dbe 88a4 72be
00000330: 19c6 233d 7535 b1bd 6124 58be 1b8d 2dbe
00000340: ef05 2abe b20b a1bd a19c 55be 3e1f 50bd
00000350: 2fa4 7f3e 5188 50bd 4a72 483d d9b1 bebd
00000360: 85d6 9a3e 5b1a c23d 722c 7a3e c9db 0abd
00000370: 11c6 8abd 1b08 cd3d 608a 82be 82f9 42be
00000380: d69d cd3c 04c7 91be 0cba 25be b397 f3bd
00000390: 16f8 85be 8821 843e 8cae d23d 1de8 363e
000003a0: c458 48be 64bb a13e e0eb a03d 977d 893d
000003b0: 89e8 7a3e 6815 0ebe 9523 603e 2939 923e
000003c0: 0867 e03c 6352 bf3d 2416 5abe 9537 59bd
000003d0: 89fe 72be 9144 3bbe 08aa 29be d005 34be
000003e0: 00e1 743e 4ced 10bd c07e 743e a09c 8e3e
000003f0: 2e8f 713e 4e40 86be 7a8b 38be 3d31 7ebe

q_head.DAC_block.mamba_blocks.0.dt_proj.weight f4 [28, 1]
0.31472418 -0.20783873 0.5457216 0.14748824 -0.5701047 0.8186155 -0.9156059 -1.0371894
0.4557657 0.5381551 -0.9303877 -1.0136663 0.6135748 -0.53298163 -1.0005958 0.441969
-0.8325501 0.45555985 -0.8104662 0.66512215 -0.87441003 -0.22336611 0.14348832 -0.85387224
-1.101084 -0.009988213 0.78375393 -0.55295616
00000000: 8723 a13e add3 54be 69b4 0b3f 2807 173e
00000010: 62f2 11bf c990 513f 2665 6abf 9fc2 84bf
00000020: 1f5a e93e 88c4 093f e32d 6ebf d1bf 81bf
00000030: 3d13 1d3f 7c71 08bf 8613 80bf c349 e23e
00000040: 0122 55bf 243f e93e b67a 4fbf 7245 2a3f
00000050: 56d9 5fbf 16ba 64be 9aee 123e 5f97 5abf
00000060: 52f0 8cbf 9aa5 23bc 19a4 483f 898e 0dbf

q_head.DAC_block.mamba_blocks.0.dt_proj.bias f4 [28]
-6.485534 -3.9372633 -2.2583416 -5.1025896 -4.6869464 -3.821524 -4.5618205 -2.6406977
-5.1651564 -2.7589676 -6.1043224 -3.9610734 -3.4138904 -4.7763357 -3.026337 -2.8676622
-2.842372 -4.59946 -3.9182088 -4.9887724 -6.7345695 -3.5076318 -2.8399403 -4.2288775
-4.7145777 -6.6686726 -6.078343 -4.013672
00000000: 7f89 cfc0 1ffc 7bc0 ab88 10c0 6a48 a3c0
00000010: 77fb 95c0 d993 74c0 6ffa 91c0 3101 29c0
00000020: f648 a5c0 ed92 30c0 9c56 c3c0 3a82 7dc0
00000030: 2e7d 5ac0 bed7 98c0 81af 41c0 c787 37c0
00000040: 6ce9 35c0 c72e 93c0 efc3 7ac0 06a4 9fc0
00000050: 9881 d7c0 0a7d 60c0 95c1 35c0 f752 87c0
00000060: d2dd 96c0 c465 d5c0 c981 c2c0 0070 80c0

q_head.DAC_block.mamba_blocks.0.out_proj.weight f4 [14, 28]
-0.2806724 0.1516 0.20132679 0.14575431 -0.25199187 0.038100485 0.12901781 0.22811842
0.06944362 0.06927636 0.20232293 0.018171353 0.25897235 -0.021883538 -0.07343185 -0.011202525
0.13848284 0.15274006 -0.059308156 0.02188741 0.06415231 0.19500554 -0.03656157 0.018629903
-0.1334956 -0.15620105 -0.0013500677 -0.22273435 -0.057811104 0.12746073 -0.043568347 -0.16508217
0.06404519 -0.221065 0.18678565 0.13561237 -0.23020875 0.2915534 0.277649 0.15719014
-0.05294416 -0.046116058 -0.12826018 -0.25536653 0.07545069 0.18742646 -0.14756477 0.0002258518
-0.0026212113 0.07041666 0.06363522 -0.2868437 -0.21496317 0.08295679 -0.15796241 -0.22685716
0.20186499 -0.24042192 -0.09754779 0.16252042 0.01568197 0.005041461 -0.24884218 -0.007899747
-0.0046844846 -0.16587432 0.013817696 -0.16589509 0.083726995 -0.2399665 0.0062041515 0.21401983
-0.2125487 -0.12240477 0.031248301 0.10739198 0.045752335 -0.21843295 0.002922045 0.08129767
0.15320127 0.12598176 0.22316763 0.1262378 0.19921511 -0.1783273 -0.23756175 0.16959748
0.09159801 0.14529036 -0.10164735 -0.19196501 0.121729955 0.038364787 0.050600395 -0.27535304
-0.19262744 -0.10142944 0.13660027 0.064733654 -0.13037182 -0.09391739 0.07700942 -0.23803534
-0.17243615 -0.09309555 -0.021926798 -0.017543782 0.15718731 -0.041840483 0.07280352 0.16803756
-0.08615127 -0.056511197 -0.033364944 -0.07983145 -0.2796257 -0.07870941 0.10501939 0.20634024
-0.2145929 0.21069105 0.024682784 0.21340892 -0.07040063 0.18772508 -0.12053177 -0.27939364
-0.038292903 0.22185467 -0.013607119 0.059125677 0.10525351 0.10288102 0.16214897 -0.06442971
-0.2182523 -0.24119858 -0.08640259 -0.007980278 -0.15428115 0.21336044 0.29347548 -0.10837676
0.02622151 -0.06484711 0.17129005 0.02037625 -0.23074268 0.18481468 0.13552383 0.13861196
0.2460298 0.007303018 -0.10899774 -0.16625929 0.09526915 0.20735666 -0.08771895 0.20549421
0.15850435 0.22453333 0.019149065 -0.20339641 -0.0005981344 -0.23604015 -0.0321075 0.0022603418
0.10288606 -0.22101675 -0.29153907 -0.100127846 0.17278765 0.09777032 -0.11039677 -0.30288517
0.1714087 -0.00165268 -0.23469558 -0.0012046314 -0.154719 -0.24212903 0.09643344 -0.0024106014
-0.14666799 -0.21096593 0.2635121 -0.08055733 -0.014755824 -0.021756582 -0.057786264 0.21547246
-0.055638347 0.16915925 0.28669602 0.29220584 0.06299617 -0.12896922 0.03934192 0.12768944
0.21750593 -0.029071428 0.06596226 -0.21024431 0.17133082 -0.09509134 -0.25157502 -0.2777125
-0.28377116 -0.16084749 0.21736245 0.110168405 -0.24250975 -0.14702283 0.068575025 -0.01461533
-0.037118882 0.049114756 -0.121026084 0.19045758 0.17830135 0.08130604 0.17644572 0.22733311
0.20682734 -0.13726519 -0.09982518 0.049050983 0.09358095 0.22905743 -0.09883805 -0.058150828
0.004809778 0.02581392 -0.11554849 -0.28405467 -0.14322491 -0.14573312 0.17522214 0.17280193
-0.247787 0.05261792 -0.021553518 0.042770766 -0.112226985 -0.1522332 -0.19961253 0.2747824
0.041771624 0.057644654 0.23670274 -0.0022383179 -0.07776078 0.19853257 0.18637042 0.18326269
00000000: 4bb4 8fbe 083d 1b3e 9c28 4e3e 9e40 153e
00000010: 1405 81be 410f 1c3d 3f1d 043e e097 693e
00000020: 7538 8e3d c4e0 8d3d be2d 4f3e 17dc 943c
00000030: 0698 843e 1b45 b3bc 7063 96bd cc8a 37bc
00000040: 72ce 0d3e e467 1c3e 1ced 72bd 3a4d b33c
00000050: 4962 833d 88af 473e 96c1 15bd bd9d 983c
00000060: 12b3 08be 2bf3 1fbe c1f4 b0ba 7914 64be
00000070: 56cb 6cbd 1185 023e b974 32bd 4d0b 29be
00000080: 202a 833d dd5e 62be bd44 3f3e f8dd 0a3e
00000090: d8bb 6bbe 7d46 953e 0228 8e3e 74f6 203e
000000a0: fadb 58bd 31e4 3cbd a356 03be 67bf 82be
000000b0: e485 9a3d b9ec 3f3e 381b 17be a2d2 6c39
000000c0: a1c8 2bbb 9c36 903d 2f53 823d 2ddd 92be
000000d0: 4e1f 5cbe 40e5 a93d e6c0 21be 3e4d 68be
000000e0: b2b5 4e3e 2a31 76be 23c7 c7bd c16b 263e
000000f0: 7a77 803c d732 a53b 7cd0 7ebe f16d 01bc
00000100: 4e80 99bb f5da 29be 9e63 623c 67e0 29be
00000110: 0f79 ab3d c7b9 75be 324c cb3b 0428 5b3e
00000120: 5ea6 59be 5aaf fabd 70fc ff3c 54f0 db3d
00000130: cd66 3b3d e3ac 5fbe c87f 3f3b 657f a63d
00000140: cbe0 1c3e 5d01 013e 0e86 643e 7b44 013e
00000150: 0cff 4b3e 6f9b 36be 6343 73be f6aa 2d3e
00000160: bd97 bb3d ffc6 143e 7c2c d0bd 7a92 44be
00000170: 8e4d f93d 6524 1d3d 5c42 4f3d 13fb 8cbe
00000180: 2140 45be 3dba cfbd f1e0 0b3e 1493 843d
00000190: 3180 05be c357 c0bd 1db7 9d3d 89bf 73be
000001a0: 1a93 30be e1a8 bebd d49f b3bc fab7 8fbc
000001b0: b6f5 203e ed60 2bbd 031a 953d 0a12 2c3e
000001c0: 1470 b0bd 4978 67bd aea9 08bd ac7e a3bd
000001d0: 1a2b 8fbe 6632 a1bd 6814 d73d db4a 533e
000001e0: 3ebe 5bbe 65bf 573e 8d33 ca3c de87 5a3e
000001f0: 352e 90bd 013b 403e 5cd9 f6bd af0c 8fbe
00000200: 05d9 1cbd df2d 633e 65f0 5ebc c42d 723d
00000210: 278f d73d 49b3 d23d 610a 263e b9f3 83bd
00000220: 887d 5fbe c3fc 76be d7f3 b0bd b6bf 02bc
00000230: e1fb 1dbe 297b 5a3e 6b42 963e a2f4 ddbd
00000240: 7ece d63c 90ce 84bd a966 2f3e 18ec a63c
00000250: cf47 6cbe 0f40 3d3e c2c6 0a3e 4bf0 0d3e
00000260: 3cef 7b3e 284e ef3b 353a dfbd e03f 2abe
00000270: 791c c33d 4e55 543e fea5 b3bd 136d 523e
00000280: f74e 223e 11ec 653e 80de 9c3c 2647 50be
00000290: 1fcc 1cba 82b4 71be 2783 03bd 3e22 143b
000002a0: edb5 d23d 3752 62be 9c44 95be d40f cdbd
000002b0: 3fef 303e ce3b c83d b417 e2bd c413 9bbe
000002c0: c385 2f3e bd9e d8ba 0a54 70be b9e4 9dba
000002d0: a86e 1ebe acf0 77be e57e c53d 2efb 1dbb
000002e0: 2230 16be 7407 58be 0feb 863e 3efb a4bd
000002f0: 69c2 71bc dc3a b2bc 4ab1 6cbd d0a4 5c3e
00000300: 09e5 63bd 1538 2d3e d2c9 923e 019c 953e
00000310: 2304 813d 8210 04be fe24 213d 05c1 023e
00000320: e0b9 5e3e 3427 eebc 3917 873d 494a 57be
00000330: 5971 2f3e 40bf c2bd 71ce 80be 5530 8ebe
00000340: 744a 91be 34b5 24be 4394 5e3e f99f e13d
00000350: 7a54 78be 278d 16be 1071 8c3d 2375 6fbc
00000360: f809 18bd 8e2c 493d 86dc f7bd 5007 433e
00000370: a194 363e c883 a63d 30ae 343e 03ca 683e
00000380: 8cca 533e 3f8f 0cbe 2571 ccbd afe9 483d
00000390: 5ea7 bf3d 088e 6a3e 9b6b cabd 902f 6ebd
000003a0: 589b 9d3b b777 d33c b0a4 ecbd 9d6f 91be
000003b0: 8da9 12be 103b 15be 6f6d 333e fdf2 303e
000003c0: e0bb 7dbe e385 573d 0191 b0bc 6630 2f3d
000003d0: 43d7 e5bd 05e3 1bbe 3a67 4cbe 47b0 8c3e
000003e0: b918 2b3d cd1c 6c3d 3462 723e beb0 12bb
000003f0: 0b41 9fbd 1f4c 4b3e e3d7 3e3e 37a9 3b3e

q_head.DAC_block.ff1.weight f4 [32, 14]
-0.24543615 -0.1790635 0.11561409 0.092645995 -0.043954737 -0.26754457 0.10954661 0.11078832
0.051299065 0.14327155 0.17517707 0.24216072 0.11980022 0.2530291 0.23272903 0.09297993
-0.3329141 -0.22607607 0.318901 -0.11444181 -0.3214865 -0.344241 -0.14867342 -0.13663115
-0.3517539 -0.090372235 -0.32659405 0.13108076 -0.14332817 -0.10551193 -0.16998172 -0.2984966
0.24437967 0.22934733 0.0053548547 0.13467123 -0.32653856 0.25929952 -0.19668004 -0.1477523
-0.1435827 0.32606265 -0.24310514 -0.29301843 0.32455316 -0.1157307 -0.36963072 -0.14392258
-0.12930512 0.26986238 0.29867956 -0.30418864 0.3721636 0.11367405 0.25035536 0.13274133
0.12023169 0.31124485 -0.19866732 -0.16432215 0.3039796 0.004614362 -0.11703625 0.15898977
-0.0985324 0.0018484357 0.018659446 -0.1280306 -0.3444843 0.0016821062 -0.052623343 0.3412741
-0.13764118 -0.14249521 0.08519172 0.24406672 -0.3673008 -0.28609276 -0.08745992 0.08116993
-0.057477985 -0.047136284 -0.16974258 0.33488187 0.26835215 0.3137622 0.13562605 -0.24605782
0.06826129 0.18275993 0.024906699 -0.27752376 -0.21446964 0.2180673 -0.21073572 -0.28707308
0.13329907 0.1448259 0.1484379 0.081552185 -0.012572028 -0.0049013495 0.21893248 -0.018335337
-0.2118614 -0.21129327 -0.03482299 -0.036815893 -0.14746012 0.03998541 -0.3378838 0.15778764
-0.08788179 0.08337673 0.13882963 0.053653374 -0.30364585 -0.22631712 -0.052782048 0.3321309
0.12228558 0.061838455 0.09739763 -0.04700787 0.29335412 0.089825004 0.30486172 -0.045792118
-0.04930052 0.1235196 0.15481323 0.12702881 0.09793108 -0.20517042 -0.33398175 -0.08748383
-0.15365957 -0.12245366 -0.049983285 0.26768532 0.17816545 0.29203695 0.03632326 -0.014597768
0.3221473 0.08829228 -0.32882762 -0.05233803 -0.1814355 0.13102284 0.043211184 0.10263115
-0.0072836373 0.06690901 -0.096102476 -0.11919555 -0.026302408 -0.05519235 -0.13417913 0.30521938
0.096125476 0.008793019 -0.003760498 -0.103061855 -0.10934346 -0.191137 -0.2922978 -0.19011989
0.2625103 0.06350269 -0.2196532 0.13902253 0.20112887 0.08322988 -0.37346244 -0.37676552
0.0021163917 0.013742032 -0.101722784 0.09852793 -0.3835026 0.08425899 0.29284322 0.21491718
-0.116334975 -0.14924699 0.14360403 0.26349485 -0.3740413 -0.29798952 -0.36980417 0.25045195
-0.1976896 -0.12154655 -0.16866314 0.33440813 -0.105001666 0.1444977 0.05376116 -0.35845137
0.26423582 0.14201854 0.038785987 -0.25950488 0.020541226 0.19232203 -0.33914435 -0.13535595
-0.028466562 0.18626559 0.26405728 0.060958136 -0.26479322 0.11855552 0.025474457 0.11201013
-0.31664658 0.032980364 0.1310546 0.36818233 -0.3394749 -0.19602242 -0.3960712 -0.0067591215
-0.17873427 -0.22753488 -0.044361364 -0.028177433 -0.3198092 -0.14695767 0.033053 -0.094951265
0.04170764 0.10683385 0.16570397 0.31570178 0.3775299 -0.09622016 -0.3292226 -0.13967414
0.23213686 0.16887994 0.09022469 0.14359756 0.27746704 0.020334328 0.18650952 -0.039022364
-0.061758056 0.21535222 0.34360373 -0.20959143 0.3538258 0.23476142 0.09068729 -0.14579052
00000000: 9d53 7bbe 6c5c 37be 14c7 ec3d 2fbd bd3d
00000010: e209 34bd 9afb 88be f959 e03d fde4 e23d
00000020: f81e 523d c7b5 123e 9e61 333e fbf8 773e
00000030: d159 f53d 088d 813e 8550 6e3e 436c be3d
00000040: b873 aabe 7c80 67be fe46 a33e 7860 eabd
00000050: e199 a4be 5b40 b0be d83d 18be 09e9 0bbe
00000060: 1619 b4be 1415 b9bd 5637 a7be 093a 063e
00000070: 9fc4 12be a416 d8bd b00f 2ebe 8cd4 98be
00000080: aa3e 7a3e 07da 6a3e c777 af3b 41e7 093e
00000090: 1030 a7be e8c2 843e 7e66 49be 614c 17be
000000a0: 5807 13be aff1 a63e 8ef0 78be 8306 96be
000000b0: d52b a63e 3804 edbd 3d40 bdbe 7160 13be
000000c0: 9068 04be 672b 8a3e 87ec 983e 9dbe 9bbe
000000d0: 3a8c be3e f1cd e83d 942e 803e 58ed 073e
000000e0: 083c f63d 7c5b 9f3e 726f 4bbe 1144 28be
000000f0: 37a3 9b3e 1334 973b b4b0 efbd 37ce 223e
00000100: 5bcb c9bd 3647 f23a b2db 983c 741a 03be
00000110: 3f60 b0be 1e7a dc3a 938b 57bd 7bbb ae3e
00000120: cff1 0cbe 44ea 11be ff78 ae3d a0ec 793e
00000130: da0e bcbe c07a 92be 301e b3bd 6c3c a63d
00000140: 096e 6bbd fa11 41bd 00d1 2dbe a375 ab3e
00000150: 7465 893e 70a5 a03e 8ee1 0a3e 95f6 7bbe
00000160: 93cc 8b3d 6b25 3b3e 2209 cc3c 9817 8ebe
00000170: ee9d 5bbe 094d 5f3e 1bcb 57be 3efb 92be
00000180: 8d7f 083e 3e4d 143e 1b00 183e d504 a73d
00000190: e8fa 4dbc 809b a0bb d62f 603e fd33 96bc
000001a0: 32f2 58be 435d 58be 8da2 0ebd 43cc 16bd
000001b0: c9ff 16be bec7 233d 1bff acbe 1593 213e
000001c0: 5efb b3bd 6bc1 aa3d 5b29 0e3e a4c3 5b3d
000001d0: 7877 9bbe adbf 67be fd31 58bd 100d aa3e
000001e0: dd70 fa3d 524a 7d3d 6978 c73d 538b 40bd
000001f0: 8332 963e 2cf6 b73d d616 9c3e 8490 3bbd
00000200: 58ef 49bd d8f7 fc3d 5c87 1e3e d713 023e
00000210: 1790 c83d 3218 52be a8ff aabe b92a b3bd
00000220: ef58 1dbe fcc8 fabd 46bb 4cbd 0d0e 893e
00000230: 0171 363e de85 953e b3c7 143d 7a2b 6fbc
00000240: 7ef0 a43e 95d2 b43d 185c a8be 6760 56bd
00000250: 3aca 39be da2a 063e 36fe 303d 4830 d23d
00000260: 94ab eebb 9707 893d 60d1 c4bd cc1c f4bd
00000270: 2678 d7bc 6011 62bd 4166 09be b745 9c3e
00000280: 6fdd c43d 9810 103c b072 76bb 1812 d3bd
00000290: 77ef dfbd 6bb9 43be 0fa8 95be caae 42be
000002a0: c067 863e b30d 823d c5ec 60be ec5b 0e3e
000002b0: baf4 4d3e 6d74 aa3d 7836 bfbe 69e7 c0be
000002c0: 29b3 0a3b 4326 613c 0954 d0bd 03c9 c93d
000002d0: 745a c4be fa8f ac3d 8cef 953e 4013 5c3e
000002e0: 0841 eebd 34d4 18be ef0c 133e cce8 863e
000002f0: 5782 bfbe 1592 98be f956 bdbe 3d3b 803e
00000300: 246f 4abe 66ed f8bd 08b6 2cbe 8b37 ab3e
00000310: 1d0b d7bd 34f7 133e a934 5c3d f086 b7be
00000320: eb49 873e 4f6d 113e 0ede 1e3d d3dd 84be
00000330: 1346 a83c 11f0 443e 54a4 adbe c09a 0abe
00000340: b532 e9bc 68bc 3e3e 8432 873e 3daf 793d
00000350: fa92 87be 3dcd f23d cfaf d03c 9165 e53d
00000360: 801f a2be 6b16 073d 2d33 063e 6582 bc3e
00000370: a7cf adbe 1aba 48be d8c9 cabe 9f7b ddbb
00000380: 1e06 37be e7fe 68be 43b4 35bd 5cd4 e6bc
00000390: 08be a3be 127c 16be 9562 073d cf75 c2bd
000003a0: a1d5 2a3d b5cb da3d 4dae 293e aaa3 a13e
000003b0: 994b c13e 130f c5bd dd8f a8be bd06 0fbe
000003c0: 49b5 6d3e ddee 2c3e b9c7 b83d 3d0b 133e
000003d0: 2910 8e3e 2d94 a63c 5afc 3e3e ead5 1fbd
000003e0: 04f6 7cbd 4b85 5c3e d4ec af3e 239f 56be
000003f0: a828 b53e 4c65 703e 42ba b93d 1c4a 15be

q_head.DAC_block.ff1.bias f4 [32]
0.07637368 0.30452058 0.26493722 -0.13911642 0.16844273 0.04530315 0.18425865 0.09143857
-0.2078262 0.049520757 0.27922755 0.16864711 -0.122651935 0.09237063 0.3242741 0.30518544
-0.20939949 -0.31758887 0.23052981 0.062292445 0.3274003 0.27047437 0.14728461 0.1635855
-0.04105384 0.04440887 -0.24001917 -0.13212621 0.21122476 -0.18891099 -0.18669707 -0.28079748
00000000: ce69 9c3d 1fea 9b3e daa5 873e 8974 0ebe
00000010: 407c 2c3e cc8f 393d 4dae 3c3e 2544 bb3d
00000020: 64d0 54be 47d6 4a3d eaf6 8e3e d4b1 2c3e
00000030: f030 fbbd d02c bd3d 4107 a63e 4441 9c3e
00000040: d26c 56be 029b a2be 0210 6c3e 5d26 7f3d
00000050: 03a1 a73e 9e7b 8a3e c7d1 163e f582 273e
00000060: 1228 28bd 13e6 353d 96c7 75be 184c 07be
00000070: 4e4b 583e e271 41be 842d 3fbe b0c4 8fbe

q_head.DAC_block.ff2.weight f4 [16, 32]
-0.035475757 -0.012534214 -0.07721648 -0.010718977 -0.032702032 -0.14593948 0.048580557 0.039073765
0.16826376 -0.18183681 0.043445986 -0.02591152 -0.16665927 -0.0767346 -0.12114776 -0.2648204
0.17516766 -0.018992962 -0.087122515 -0.18236901 -0.020575896 -0.24858819 -0.2584895 -0.07333119
-0.09979812 -0.027478883 -0.029823044 0.27644208 0.0035587752 0.17467497 0.25068435 -0.060896132
0.14626585 -0.24374768 0.044977404 0.0037125163 -0.0077148285 -0.10434251 -0.07694649 -0.13474546
-0.08049729 -0.027104285 -0.22836697 -0.19756888 -0.14981844 -0.17551444 -0.019841706 -0.21784107
0.07847722 0.10942967 0.09059965 -0.25515527 -0.04400588 -0.12581162 0.037808605 0.041169833
0.045893166 0.13344964 0.03146113 -0.06006831 0.06001247 0.09263154 0.031371206 0.2602133
0.11350349 -0.21734267 -0.11762267 0.014354323 -0.16100247 0.0045593027 -0.1758387 -0.0696793
0.049858272 0.09405403 -0.24602072 -0.10575327 -0.18269831 -0.10912903 -0.16639192 0.05632003
0.13325429 -0.06696163 -0.10674682 -0.24022518 0.061065864 -0.1497532 -0.2327543 0.016168542
-0.068534024 0.023978874 0.14577982 0.22889602 -0.00411046 0.058747046 -0.0055542397 0.15873946
-0.07465885 -0.037683453 -0.16262627 -0.029896205 -0.120101586 -0.09012167 -0.11493298 -0.13725723
0.24731612 -0.16929348 -0.14495529 -0.2291882 -0.13789383 -0.221675 -0.09564036 -0.21993776
0.07573097 0.006617983 -0.10355994 -0.19716033 -0.24506693 -0.15563029 0.028818555 -0.116563946
-0.1834827 -0.113046624 0.16646549 -0.028361911 -0.1199921 -0.08700861 0.04714831 -0.03539857
0.13334517 0.10859627 0.08969184 0.20726536 -0.24419014 0.041701794 -0.2414963 -0.17255142
-0.062202975 0.114395656 0.09681397 -0.04444768 -0.055200834 -0.012484509 -0.08521574 0.10039701
0.17165844 0.19907808 -0.001283822 -0.078762166 -0.14085613 -0.16887002 0.033362683 -0.17470708
0.17876129 -0.07217964 0.23738869 0.11927522 0.03151514 0.004087637 -0.07254725 0.120859824
0.12020712 -0.24821831 -0.13827671 0.0627957 0.07452638 -0.061937764 -0.21977548 -0.26291445
0.17968361 0.015689746 -0.24845925 -0.2383138 0.07240458 -0.19421974 -0.12551977 -0.018746436
0.048324537 -0.050148487 -0.19303457 -0.10249783 -0.15310128 0.07485669 0.09291237 0.014456261
-0.10949868 0.07151466 -0.037221722 -0.0499418 0.02379668 -0.08926204 0.0025479184 0.0075158784
0.10418601 -0.09970141 -0.233561 0.24003114 -0.22356522 -0.18799321 -0.2521311 -0.035935216
0.14531292 -0.082207136 -0.14310344 -0.15843327 -0.007522317 -0.2187016 -0.017085586 0.04959331
-0.049525045 0.09199658 0.086304195 0.01646323 -0.08446682 -0.06024489 0.045874536 -0.084161416
-0.1864289 -0.040792555 0.01848286 0.2514907 0.076019116 -0.08753171 0.2209029 0.08362053
-0.1291409 -0.078834 -0.0964399 0.09859905 -0.10174671 -0.18520828 0.055575743 -0.119198106
-0.014174882 -0.13146503 -0.242425 -0.07679965 0.047554128 -0.15947723 -0.11363226 -0.09776192
0.22525299 0.21835992 -0.13471009 -0.1249986 -0.18316732 -0.21154968 -0.03220205 0.07590202
-0.08759919 0.11830957 0.14833646 -0.081314825 0.11965201 -0.042491835 -0.073809534 0.23679164
00000000: 074f 11bd 4e5c 4dbc ad23 9ebd a69e 2fbc
00000010: 91f2 05bd 2971 15be 68fc 463d d00b 203d
00000020: 564d 2c3e 6e33 3abe 6bf4 313d 6544 d4bc
00000030: baa8 2abe 0827 9dbd 511c f8bd 8a96 87be
00000040: 275f 333e 2197 9bbc 4a6d b2bd f1be 3abe
00000050: c88e a8bc e78d 7ebe bc58 84be aa2e 96bd
00000060: f562 ccbd 651b e1bc 754f f4bc d189 8d3e
00000070: 573a 693b ffdd 323e b359 803e 396e 79bd
00000080: b7c6 153e fe98 79be 3a3a 383d b04d 733b
00000090: accc fcbb 87b1 d5bd 1f96 9dbd b7fa 09be
000000a0: c3db a4bd ce09 debc 08d9 69be 7f4f 4abe
000000b0: 016a 19be 0fba 33be 138b a2bc bb11 5fbe
000000c0: aab8 a03d aa1c e03d 4f8c b93d b6a3 82be
000000d0: 823f 34bd c3d4 00be 32dd 1a3d b3a1 283d
000000e0: 79fa 3b3d 06a7 083e 63dd 003d 300a 76bd
000000f0: a3cf 753d 9bb5 bd3d 187f 003d ad3a 853e
00000100: 8574 e83d 148f 5ebe 28e4 f0bd 652e 6b3c
00000110: d5dd 24be 3466 953b 0f0f 34be 05b4 8ebd
00000120: 3038 4c3d 669f c03d dbec 7bbe 2c95 d8bd
00000130: 4415 3bbe 0a7f dfbd a562 2abe d5af 663d
00000140: d073 083e 2e23 89bd 149e dabd 97fd 75be
00000150: 3320 7a3d e758 19be 2557 6ebe e473 843c
00000160: 915b 8cbd 586f c43c 4e47 153e b863 6a3e
00000170: 0ab1 86bb bea0 703d 5700 b6bb 998c 223e
00000180: bde6 98bd f759 1abd 8087 26be e3e8 f4bc
00000190: d2f7 f5bd b691 b8bd fb61 ebbd 298d 0cbe
000001a0: 7040 7d3e 455b 2dbe 296f 14be 50b0 6abe
000001b0: 0a34 0dbe c5fe 62be 18df c3bd 5d37 61be
000001c0: d718 9b3d aadb d83b 3c17 d4bd 66e4 49be
000001d0: d3f2 7abe 8c5d 1fbe e414 ec3c 14b9 eebd
000001e0: e4e2 3bbe fd84 e7bd ee75 2a3e 3d57 e8bc
000001f0: 6bbe f5bd 9231 b2bd 961e 413d 17fe 10bd
00000200: a38b 083e b967 de3d 5bb0 b73d 5f3d 543e
00000210: fb0c 7abe 80cf 2a3d ce4a 77be 52b1 30be
00000220: 8cc8 7ebd 4548 ea3d 6746 c63d c50e 36bd
00000230: 451a 62bd d38b 4cbc 9785 aebd f39c cd3d
00000240: 3bc7 2f3e 20db 4b3e eb45 a8ba 0f4e a1bd
00000250: 973c 10be 43ec 2cbe 4fa7 083d 6ae6 32be
00000260: 330d 373e ebd2 93bd 0516 733e 9146 f43d
00000270: 0516 013d 96f1 853b a793 94bd 5b85 f73d
00000280: 272f f63d f12c 7ebe 6998 0dbe 089b 803d
00000290: 49a1 983d 74b2 7dbd d30c 61be b99c 86be
000002a0: fbfe 373e c887 803c 1a6c 7ebe 8808 74be
000002b0: da48 943d 8ae1 46be 4188 00be 2092 99bc
000002c0: f3ef 453d 8068 4dbd dbaa 45be 62ea d1bd
000002d0: 95c6 1cbe 774e 993d d748 be3d f4d9 6c3c
000002e0: d840 e0bd 4776 923d ce75 18bd c68f 4cbd
000002f0: 41f1 c23c 04cf b6bd fafa 263b c247 f63b
00000300: 7a5f d53d 4130 ccbd 9d2a 6fbe b9ca 753e
00000310: 48ee 64be 4b81 40be 5417 81be ce30 13bd
00000320: e9cc 143e 375c a8bd b589 12be 553c 22be
00000330: c57d f6bb 50f3 5fbe 12f7 8bbc 5b22 4b3d
00000340: c6da 4abd b468 bc3d 41c0 b03d e5dd 863c
00000350: f1fc acbd 59c3 76bd f0e6 3b3d d25c acbd
00000360: 38e7 3ebe 1816 27bd 5e69 973c 64c3 803e
00000370: e9af 9b3d d343 b3bd 5f34 623e 3e41 ab3d
00000380: 833d 04be b873 a1bd 4882 c5bd 4cee c93d
00000390: 9460 d0bd 3da7 3dbe 64a3 633d 231e f4bd
000003a0: c43d 68bc c59e 06be 423e 78be 2349 9dbd
000003b0: 1ec8 423d 004e 23be 08b8 e8bd 6737 c8bd
000003c0: b8a8 663e be99 5f3e 71f1 09be 44ff ffbd
000003d0: 3790 3bbe 7ba0 58be 4ce6 03bd 8572 9b3d
000003e0: 3467 b3bd 4a4c f23d 83e5 173e 6388 a6bd
000003f0: 1d0c f53d eb0b 2ebd 7429 97bd 8279 723e

q_head.DAC_block.ff2.bias f4 [16]
-0.19278088 -0.19369501 0.008691843 -0.08409615 0.06798462 0.09291514 0.09644124 -0.22023821
0.06221184 -0.0394957 -0.11631453 -0.14554153 -0.19874087 -0.11433083 0.038103905 0.034005795
00000000: 5a68 45be fc57 46be 3b68 0e3c 9a3a acbd
00000010: 853b 8b3d 4b4a be3d fc82 c53d 2086 61be
00000020: d8d1 7e3d 3ec6 21bd 5036 eebd d708 15be
00000030: ba82 4bbe 4826 eabd d712 1c3d a949 0b3d

ema_model.q_head.DAC_block.mamba_blocks.0.A_log f4 [28, 32]
-0.0013245879 0.6894337 1.0912317 1.3772678 1.6029593 1.7848904 1.9415998 2.063115
2.1892126 2.2915945 2.3836453 2.4686937 2.5498936 2.6220446 2.6880817 2.7480302
2.815427 2.8697283 2.9260669 2.9708216 3.033964 3.0699513 3.1109803 3.146727
3.1967967 3.2383325 3.2681484 3.3146648 3.340641 3.379472 3.4053469 3.4462953
-0.02380173 0.65915215 1.0565785 1.3421469 1.5711055 1.7534201 1.914522 2.0283108
2.1582537 2.2597492 2.3500419 2.4358156 2.517809 2.58935 2.6557932 2.71547
2.7842636 2.837516 2.8946111 2.9406319 3.0067902 3.039226 3.0822527 3.1171067
3.167813 3.2091246 3.2383504 3.2866926 3.3116157 3.3510213 3.376455 3.420732
-0.045784142 0.63806427 1.0352594 1.3214859 1.553724 1.7408366 1.9019917 2.0095654
2.1440318 2.2472887 2.3335414 2.4207926 2.5037982 2.57457 2.6416075 2.7007713
2.7715795 2.8239582 2.8821213 2.9285216 3.0013025 3.0271883 3.0721905 3.105145
3.160098 3.1994882 3.2277532 3.2779596 3.3024364 3.3433235 3.3676364 3.4150453
-0.0015499142 0.689041 1.0910093 1.3772198 1.6027449 1.7847935 1.9414228 2.0643663
2.1893868 2.2920058 2.3847752 2.4702082 2.5512774 2.623778 2.690417 2.751715
2.81753 2.8725398 2.9283986 2.9743502 3.0348983 3.0728793 3.1147442 3.1524496
3.2000496 3.2411897 3.2730892 3.3173935 3.3452163 3.3829107 3.410351 3.4494178
-0.03392331 0.6487574 1.0447648 1.3300939 1.561685 1.7464485 1.9077897 2.0146728
2.1499546 2.2520106 2.338195 2.4246113 2.507599 2.5774856 2.6434116 2.700842
2.7736685 2.82436 2.8832536 2.9276795 3.0051534 3.0262468 3.0712214 3.1010787
3.1613898 3.1984994 3.2227762 3.2773445 3.297487 3.3427434 3.361141 3.417145
-0.016164428 0.666586 1.0640175 1.3494828 1.5775456 1.7589964 1.9197781 2.035671
2.1639662 2.2647252 2.356665 2.4419212 2.523552 2.5956044 2.6621294 2.7239714
2.7897472 2.8442833 2.9004784 2.9469051 3.009453 3.0454626 3.087553 3.1269488
3.1716132 3.214309 3.2464452 3.2913358 3.3183205 3.355107 3.3839037 3.4233174
-0.023365939 0.6624162 1.063018 1.3494802 1.57561 1.7580882 1.9163123 2.0386875
2.1629372 2.2647638 2.358896 2.4446824 2.5255232 2.5985768 2.6662512 2.7315762
2.7923446 2.849173 2.9040475 2.9525251 3.008904 3.0493891 3.0924485 3.1369202
3.1768734 3.2168672 3.2540853 3.2923665 3.324986 3.359108 3.3914642 3.4244437
-0.05005454 0.6343397 1.032599 1.3191435 1.5497242 1.7325745 1.8967164 2.0092893
2.138738 2.2405648 2.3298082 2.4167397 2.4996047 2.570903 2.6390343 2.7010937
2.7674556 2.8214056 2.8778238 2.9263694 2.9944222 3.024465 3.0683737 3.108827
3.1543958 3.1962564 3.2278972 3.2749822 3.3010974 3.3388042 3.3671029 3.411581
00000000: cb9d adba ba7e 303f 7bad 8b3f 504a b03f
00000010: c52d cd3f 4a77 e43f 5886 f83f 130a 0440
00000020: 0f1c 0c40 7ca9 1240 a58d 1840 14ff 1d40
00000030: 7531 2340 94cf 2740 8809 2c40 badf 2f40
00000040: f52f 3440 a1a9 3740 ae44 3b40 f121 3e40
00000050: 772c 4240 157a 4440 4d1a 4740 fa63 4940
00000060: 5198 4c40 d740 4f40 5829 5140 7823 5440
00000070: 10cd 5540 4549 5840 34f1 5940 1a90 5c40
00000080: d8fb c2bc 32be 283f f73d 873f 78cb ab3f
00000090: fc19 c93f 1270 e03f 0f0f f53f d8cf 0140
000000a0: d420 0a40 bb9f 1040 1667 1640 67e4 1b40
000000b0: c823 2140 e9b7 2540 84f8 2940 43ca 2d40
000000c0: 6031 3240 dd99 3540 4f41 3940 5033 3c40
000000d0: 406f 4040 ae82 4240 a143 4540 ad7e 4740
000000e0: 73bd 4a40 4c62 4d40 2241 4f40 2c59 5240
000000f0: 83f1 5340 2277 5640 d717 5840 46ed 5a40
00000100: 2788 3bbd 2e58 233f 6183 843f 7326 a93f
00000110: 6ee0 c63f bcd3 de3f 7774 f33f b89c 0040
00000120: d137 0940 94d3 0f40 be58 1540 44ee 1a40
00000130: 3b3e 2040 c1c5 2440 1910 2940 70d9 2c40
00000140: 8f61 3140 bbbb 3440 ad74 3840 e66c 3b40
00000150: 5715 4040 74bd 4140 c59e 4440 b2ba 4640
00000160: 0c3f 4a40 6ac4 4c40 8293 4e40 17ca 5140
00000170: 1e5b 5340 03f9 5540 5b87 5740 1a90 5a40
00000180: 7e26 cbba fe64 303f 31a6 8b3f bd48 b03f
00000190: bf26 cd3f 1d74 e43f 8b80 f83f 941e 0440
000001a0: ea1e 0c40 39b0 1240 28a0 1840 e417 1e40
000001b0: 2148 2340 fbeb 2740 cb2f 2c40 191c 3040
000001c0: 6952 3440 b1d7 3740 e26a 3b40 c15b 3e40
000001d0: c63b 4240 0eaa 4440 f857 4740 bcc1 4940
000001e0: 9dcd 4c40 a76f 4f40 4b7a 5140 2d50 5440
000001f0: 0618 5640 9c81 5840 3143 5a40 43c3 5c40
00000200: 2bf3 0abd f714 263f daba 853f 8440 aa3f
00000210: 4be5 c73f a08b df3f 7432 f43f 66f0 0040
00000220: db98 0940 f120 1040 fda4 1540 d52c 1b40
00000230: 817c 2040 86f5 2440 a82d 2940 98da 2c40
00000240: c983 3140 50c2 3440 3a87 3840 1a5f 3b40
00000250: 6f54 4040 07ae 4140 e48e 4440 1378 4640
00000260: 3654 4a40 37b4 4c40 f741 4e40 03c0 5140
00000270: 070a 5340 82ef 5540 ef1c 5740 81b2 5a40
00000280: 436b 84bc 61a5 2a3f ba31 883f dabb ac3f
00000290: 04ed c93f cb26 e13f 4abb f53f 6f48 0240
000002a0: 6c7e 0a40 42f1 1040 99d3 1640 7048 1c40
000002b0: e081 2140 621e 2640 5460 2a40 8c55 2e40
000002c0: 388b 3240 bd08 3640 70a1 3940 189a 3c40
000002d0: e19a 4040 dce8 4240 789a 4540 ee1f 4840
000002e0: b6fb 4a40 3db7 4d40 c2c5 4f40 3fa5 5240
000002f0: 5d5f 5440 13ba 5640 e191 5840 a217 5b40
00000300: ed69 bfbc 1c94 293f f910 883f c4bb ac3f
00000310: 97ad c93f 0909 e13f b949 f53f db79 0240
00000320: 906d 0a40 e4f1 1040 27f8 1640 ad75 1c40
00000330: 2ca2 2140 154f 2640 dca3 2a40 25d2 2e40
00000340: c6b5 3240 da58 3640 eadb 3940 2cf6 3c40
00000350: e291 4040 3129 4340 adea 4540 4dc3 4840
00000360: e551 4b40 27e1 4d40 ef42 5040 22b6 5240
00000370: 92cc 5440 a0fb 5640 c00d 5940 162a 5b40
00000380: fd05 4dbd 1664 223f 342c 843f b2d9 a83f
00000390: 5d5d c63f 00c5 dd3f 9ac7 f23f 3298 0040
000003a0: 15e1 0840 6a65 0f40 941b 1540 ddab 1a40
000003b0: 86f9 1f40 ad89 2440 f0e5 2840 b8de 2c40
000003c0: fe1d 3140 e991 3440 442e 3840 a349 3b40
000003d0: 9da4 3f40 d690 4140 3c60 4440 06f7 4640
000003e0: 9fe1 4940 778f 4c40 de95 4e40 4f99 5140
000003f0: 2e45 5340 f8ae 5540 9d7e 5740 5857 5a40

ema_model.q_head.DAC_block.mamba_blocks.0.D f4 [28]
1.0954815 1.0954578 1.0949893 0.9796906 1.0904211 1.0638233 1.0755962 1.093863
1.0824326 1.065667 1.0854521 1.0910736 1.0893042 1.0910809 1.0648832 1.0910007
1.0923223 1.1000983 1.0400378 1.0262046 1.0621433 1.0961955 1.0334356 1.0829121
1.0838114 1.0694181 1.0933958 1.0931247
00000000: bd38 8c3f f637 8c3f 9c28 8c3f 01cd 7a3f
00000010: eb92 8b3f 5d2b 883f 23ad 893f b403 8c3f
00000020: 278d 8a3f c767 883f 18f0 8a3f 4da8 8b3f
00000030: 526e 8b3f 8aa8 8b3f 184e 883f e9a5 8b3f
00000040: 38d1 8b3f 05d0 8c3f f51f 853f ac5a 833f
00000050: 50f4 873f 2250 8c3f 9e47 843f dd9c 8a3f
00000060: 55ba 8a3f b1e2 883f 65f4 8b3f 83eb 8b3f
