checkpoints/q-mamba/20240817_010332/checkpoint-7.pt (torch, 115222 bytes, 42 tensors)

q_head.action_bin_embeddings f4 [2, 256, 9]
00000000: a840 313e 8bed 22be 9eeb 293e 1d35 483e
00000010: d9c6 643e e088 63be bae8 85be 977a 563e
00000020: 117a 4c3e de69 1f3e e0f8 1abe fb95 4d3e
00000030: be1e 0d3e 2d6e 4b3e a084 5bbe 5f52 85be
00000040: 695c 373e 7d18 463e 2a82 1c3e 3639 18be
00000050: a966 183e 0f9c fe3d 6790 323e 719d 61be
00000060: 09ff 6abe 7d58 173e 81d3 693e 4ac0 403e
00000070: 231f 42be c0b8 533e 029d 103e 4511 543e
00000080: 2e0b 78be 5157 80be f9bc 653e 8f3a 383e
00000090: c9ad 2e3e b868 45be c84b 563e 4b48 1c3e
000000a0: 2cb3 743e f4f6 79be e34c 9bbe fe4c 6b3e
000000b0: 0240 643e 999d 193e 4bf1 1abe 7511 733e
000000c0: 157f 003e 12d0 833e 4f8b 3fbe a030 62be
000000d0: 8b5e 383e ffae 4e3e 2fbe 0c3e e1fa 10be
000000e0: 73ca 2e3e 50d7 0c3e 0723 603e 085a 61be
000000f0: 8e49 62be f609 583e 9e7d 303e a160 363e
00000100: 51ca 03be 5cf7 543e 57a9 2a3e b51d 2a3e
00000110: 892d 5ebe 9632 38be 7c44 323e f8b8 6b3e
00000120: d44e 853d 6d61 ecbd f03c 6f3d 4dfa 033e
00000130: ac08 303e 8be0 32be 345b 22be 4962 f83d
00000140: f551 043e 1a53 583e dc00 1ebe 53a2 3e3e
00000150: 383e 0c3e 7ade 5f3e c66c 43be c59b 6abe
00000160: 8c4d 333e 9512 683e 9136 483e db07 32be
00000170: f41c 4a3e e072 2d3e 87d0 673e dfd2 54be
00000180: 2dca 5fbe 151b 1c3e e26d 553e 64ae 403e
00000190: 350c 1ebe 1221 413e c5dc 193e b0dc 573e
000001a0: 2764 47be 6090 6ebe 3c26 543e 269e 623e
000001b0: de2c 373e 3a33 22be 44a8 493e a64c 3f3e
000001c0: 8667 7c3e 6bd9 38be 3f93 83be 9ad4 5e3e
000001d0: 6401 5f3e 254e 333e 0617 36be 4fbb 373e
000001e0: ae84 243e f09f 6b3e 748f 34be 2d15 80be
000001f0: 1075 433e fde9 4a3e 38ff 513e 555c 24be
00000200: 6055 233e 441e 2b3e b7fd 473e 4623 6ebe
00000210: 2949 79be c760 693e 2cc3 4b3e 22ac 4c3e
00000220: 2731 29be 30da 3c3e 5feb 463e 685d 8e3e
00000230: fe6f 58be 1ac9 8fbe 35f5 683e ed70 373e
00000240: d261 473e da85 23be c920 6c3e 61e0 4e3e
00000250: e92f 4d3e 44e6 54be d2c7 8abe d1ff 413e
00000260: 4630 533e 37e0 123e 9678 17be 5142 183e
00000270: 4d37 3a3e bee1 1b3e 3e9f 31be 69c4 85be
00000280: 3f07 4c3e a094 2e3e f7fd 0f3e d078 30be
00000290: ddcf 1b3e 4158 463e 0686 3e3e a04d 65be
000002a0: b7df 80be cca9 583e e220 6b3e c430 1c3e
000002b0: 6e14 3ebe 1988 803e 9040 233e 97e1 4e3e
000002c0: 9ccd 57be a70b 85be 9e77 453e 7005 733e
000002d0: b57c 653e dfa4 51be 16b6 2b3e 7e7a 3d3e
000002e0: 2617 763e a122 6ebe 8b29 7bbe 62b7 603e
000002f0: dbfb 3e3e d6d2 413e 220e 24be d4fd 6d3e
00000300: 8f4a 213e 8185 7b3e 3943 48be 1e17 7cbe
00000310: 98c1 763e 2ea6 453e ec20 1c3e f472 f7bd
00000320: b46c 2e3e 3261 453e 1bc3 543e 2079 25be
00000330: 6c74 69be 2db0 4f3e e4cb 583e e40d 1f3e
00000340: f4a3 2abe bf57 4e3e 2109 1a3e 4945 613e
00000350: e523 5fbe ce60 7cbe c643 6b3e 1f74 5a3e
00000360: 44a2 573e 3e85 13be 7b38 393e 89fa 3a3e
00000370: 8c89 733e 0a1b 47be 1de2 67be 58f3 653e
00000380: 2b23 3c3e 0fe8 2d3e 6bd3 0cbe 7d48 773e
00000390: 5504 313e 37b3 503e 0701 53be c34b 73be
000003a0: 8608 313e 316c 523e c2e4 483e 208e 23be
000003b0: d35e 473e e5af 023e f9e0 4c3e f7c0 56be
000003c0: add4 69be 56b5 493e 88ae 623e 6dac 193e
000003d0: 9a88 2bbe 040c 573e 4355 2d3e 1eca 513e
000003e0: 0078 54be c691 62be f486 2b3e 8fd3 483e
000003f0: 9d00 5c3e c3cf 2dbe 980a 383e 68e0 313e
0.1730982 -0.15910928 0.16593787 0.19551511 0.2234148 -0.22220182 -0.2615412 0.20945202
0.1996844 0.15567729 -0.15134001 0.20076744 0.13781258 0.19866247 -0.21437311 -0.26039407
0.17906345 0.19345279 0.15284029 -0.14865574 0.14882912 0.124321096 0.17437898 -0.22032715
-0.2294885 0.1477985 0.22834589 0.18823352 -0.1895719 0.20675945 0.14122394 0.20709713
-0.24223015 -0.25066617 0.22435369 0.17991088 0.17058481 -0.19278228 0.20927346 0.15261953
0.23896474 -0.24410611 -0.30332097 0.22978589 0.22290042 0.15001525 -0.15131108 0.23737128
0.12548478 0.25744683 -0.18705486 -0.22088861 0.18004815 0.20183943 0.13744424 -0.14158203
0.17069416 0.1375401 0.21888362 -0.22007 -0.22098371 0.2109755 0.17235419 0.17810299
-0.12870146 0.20797485 0.1666616 0.16612895 -0.21697058 -0.17988047 0.17408937 0.23019779
0.06509176 -0.1154202 0.058407724 0.12888451 0.17190808 -0.17468469 -0.15855104 0.121281214
0.12921889 0.2112545 -0.15430015 0.1861661 0.1369561 0.21862212 -0.19084463 -0.22910984
0.1751005 0.22663338 0.19552065 -0.17385809 0.19737607 0.16938353 0.2263814 -0.20783566
-0.21854468 0.15244706 0.20842698 0.18816525 -0.15434344 0.18860272 0.15025623 0.2108028
-0.19471799 -0.23297262 0.2071771 0.22130641 0.17888209 -0.15839854 0.19693094 0.18681583
0.24648866 -0.18051688 -0.25698277 0.21760789 0.21777874 0.17510279 -0.1778222 0.17942546
0.16066238 0.2301023 -0.17632848 -0.25016156 0.19087625 0.19815822 0.20507514 -0.16050847
0.15950537 0.16710764 0.19530378 -0.23255643 -0.24344315 0.22790824 0.19898671 0.19987538
-0.16522656 0.18442607 0.19425724 0.27805638 -0.21136472 -0.28083116 0.22749789 0.17914172
0.19470909 -0.15969029 0.23059382 0.20202781 0.20037808 -0.20790964 -0.27105576 0.18945242
0.20623884 0.14343344 -0.14792094 0.14869048 0.18185158 0.15222833 -0.17345902 -0.26126412
0.19924639 0.17048883 0.14061724 -0.17233586 0.15216012 0.19369604 0.18605813 -0.22392893
-0.2517068 0.21158522 0.22961763 0.15252978 -0.18562481 0.25103834 0.15942597 0.20203243
-0.21074528 -0.25985453 0.19283912 0.23732543 0.22410853 -0.2047305 0.16768679 0.18503758
0.24032268 -0.23255397 -0.24527566 0.21944955 0.18650763 0.18928084 -0.16021016 0.23241359
0.15751098 0.24562646 -0.19556893 -0.24618194 0.24097288 0.19301674 0.15246934 -0.120824724
0.17033654 0.19275358 0.20777552 -0.16159487 -0.22798318 0.2028205 0.21171528 0.15532643
-0.16664106 0.2015066 0.15042545 0.21999086 -0.21791036 -0.24646303 0.22975072 0.21333359
0.21057993 -0.14406297 0.18087952 0.18259634 0.23782939 -0.19443908 -0.22644849 0.2245611
0.1837279 0.16983055 -0.13752525 0.24148746 0.17286809 0.20380865 -0.2060586 -0.2375937
0.17288408 0.20549084 0.19618514 -0.15972185 0.19469766 0.12762411 0.20007695 -0.20972048
-0.22835036 0.1969808 0.22136891 0.15007181 -0.16751328 0.21000677 0.16927056 0.20487258
-0.20748901 -0.2212592 0.167507 0.19611953 0.21484609 -0.16973786 0.17972791 0.1737076

q_head.mamba.A_log f4 [18, 16]
00000000: 5f10 153c 0fd2 143f 5b85 733f ce07 a43f
00000010: 415b bb3f 535d e83f 75bd e23f 0f47 f33f
00000020: 724d 1340 a316 1640 c03c 1c40 897b 1240
00000030: 7636 2440 a661 1b40 acdc 1e40 7091 2440
00000040: 5bb9 bf3a 0d56 1b3f b0ae 823f b219 a43f
00000050: b672 c03f cb37 e33f 35ba eb3f 8174 fc3f
00000060: 1815 0d40 28be 1140 d016 1840 14c2 1740
00000070: e1c0 2040 f196 2240 d3f2 2640 91eb 2940
00000080: 666f 713d 8091 b83e 4ac5 3f3f 1444 933f
00000090: bbf4 a93f b60d e23f 8cbd ca3f 39e0 e03f
000000a0: 93ad 1640 3225 1540 0a22 1a40 a7a3 0940
000000b0: 279e 1e40 426f 1040 a01e 1540 d7ff 1940
000000c0: 498c 323d 4461 dc3e 0959 513f 0b7f 973f
000000d0: 5755 ad3f 105c e63f b77c d03f 7833 e53f
000000e0: 083e 1640 66f2 1540 9686 1b40 4c6d 0b40
000000f0: f7f0 2040 7a95 1240 a338 1740 3db1 1b40
00000100: afd3 ce3c fa4a 0e3f 0e91 713f 4458 a13f
00000110: 6d1a ba3f bfde e93f a61e e33f d027 f43f
00000120: bdd7 1340 80bf 1640 6322 1c40 ac96 1340
00000130: 01d2 2340 857b 1c40 25db 2040 1dbb 2540
00000140: c60b 013e d43e 7d3e d775 293f f6fb 9c3f
00000150: a1fc b33f baa1 ed3f 31fd c03f 8c46 e73f
00000160: b215 2040 bd4f 1f40 3c92 2640 4912 0d40
00000170: 210f 2140 f618 0e40 e9b9 1240 4fe7 1640
00000180: 9262 ac3d bb3c fc3e e987 633f eea9 a63f
00000190: ffe6 bd3f 0e8d ee3f db3b dc3f d22d f43f
000001a0: e44a 1740 938d 1a40 4f84 2040 533a 1340
000001b0: a239 2440 ff25 1940 f731 1e40 0655 2240
000001c0: 0350 083d 1cdc 043f d6ad 663f 2a5d 9e3f
000001d0: e61d b63f 1511 e93f 9de5 dc3f 0402 ef3f
000001e0: 091b 1540 9592 1640 56ca 1b40 aeb2 1040
000001f0: 1a98 2240 a477 1840 9dfe 1c40 5d1c 2240
00000200: 9521 623d 9c49 823e 8bfd 293f 9ac5 953f
00000210: 7c2e ac3f b1a0 e33f b781 bf3f 8d0e df3f
00000220: 42d1 1840 08b8 1740 1886 1d40 d991 0840
00000230: b7dd 1b40 0a51 0c40 22f0 1040 7837 1540
00000240: 984c 68b9 2dbe 313f a81b 8d3f 7976 b13f
00000250: f42d ce3f e332 e53f f970 f93f f348 0540
00000260: 172e 0c40 bb2d 1340 7749 1940 5e41 1f40
00000270: 4c00 2440 fa44 2940 d8d0 2d40 1fa7 3140
00000280: 5444 013e 499b fe3e 3faf 653f daf3 ab3f
00000290: a77a c13f 06bd f53f 352c dd3f 8cda f73f
000002a0: e47d 1840 a315 1e40 4833 2440 f373 1440
000002b0: 05a0 2c40 71bd 1940 62d0 1e40 e563 2240
000002c0: 7f75 88bd 5675 2b3f 3797 8a3f be69 af3f
000002d0: 38c6 cf3f 78fa d33f 7374 f73f b443 0640
000002e0: 443b 1040 2709 0c40 c236 1240 a809 2040
000002f0: 2397 1b40 e251 2640 05bf 2c40 3f10 3040
00000300: abda cbbd 2713 6d3f 15f6 a83f 412f ba3f
00000310: 1e18 dd3f 3326 da3f 116c 0d40 10fa 0f40
00000320: 91e2 0240 c017 0b40 d2ab 1240 a66c 2b40
00000330: f6d0 2040 c805 3a40 8faa 3e40 cbfd 4240
00000340: 74a1 cfbc 2552 4b3f 35e1 9c3f c24d b93f
00000350: 55f0 da3f 4027 de3f c860 0540 c805 0d40
00000360: e03f 0540 22fc 0d40 2f41 1440 a282 2740
00000370: 906a 2040 e3dc 3340 95a4 3740 2a47 3b40
00000380: ebd2 52be 5834 613f b413 a83f 1821 a83f
00000390: a908 cc3f 2d58 c93f 23d0 0840 36e2 0740
000003a0: e3fc fd3f bbc7 0340 5049 0840 f4ee 2240
000003b0: 98df 1740 2a30 3540 1b48 3940 aa85 3d40
000003c0: fd8d 1b39 5a19 313f ad32 8c3f 405c b13f
000003d0: 2ec2 cd3f 476d e53f fca3 f83f 22d8 0440
000003e0: f0ee 0c40 e97b 1340 c193 1940 90bf 1e40
000003f0: 8e36 2440 ec82 2840 c8c9 2c40 b326 3140
0.009098141 0.58133024 0.9512536 1.2814882 1.4637223 1.815348 1.7714068 1.900606
2.301602 2.3451316 2.441208 2.28879 2.565824 2.427835 2.4822187 2.5713768
0.0014627384 0.6067818 1.020956 1.2820342 1.5035007 1.7751402 1.8416201 1.9723054
2.2044125 2.2772312 2.3763924 2.3712206 2.5117724 2.5404627 2.6085708 2.6550028
0.05894413 0.36048508 0.74910414 1.1505151 1.3277811 1.7660434 1.5839095 1.7568427
2.3543441 2.3303952 2.4083276 2.1506135 2.4784029 2.2567906 2.3299942 2.4062402
0.043590818 0.43042958 0.8177648 1.1835645 1.3541669 1.7996845 1.628806 1.7906332
2.347536 2.3429198 2.4300895 2.178546 2.5147073 2.2903733 2.3628318 2.4326928
0.025247423 0.55583155 0.9436196 1.2605062 1.4539315 1.8271102 1.7743728 1.907465
2.3100426 2.3554382 2.4395988 2.3060713 2.5596926 2.445039 2.5133755 2.5895455
0.12602147 0.24730998 0.66195434 1.2264392 1.4061471 1.856498 1.5077268 1.8068404
2.5013242 2.4892418 2.6026754 2.204241 2.5165484 2.2202735 2.292597 2.357868
0.08417238 0.49265084 0.8887926 1.3020608 1.483612 1.8636796 1.7205766 1.9076483
2.363946 2.414891 2.5080755 2.3004348 2.5660176 2.392944 2.4717996 2.5364394
0.03327943 0.5189836 0.90109 1.2372181 1.4227874 1.8208338 1.7257572 1.867249
2.329775 2.3526967 2.4342246 2.2609057 2.5405335 2.3823023 2.4530404 2.5329812
0.055207808 0.25446784 0.664025 1.1700928 1.3451686 1.7783414 1.4961461 1.7426316
2.387772 2.3706074 2.4613094 2.1339018 2.4354074 2.1924462 2.2646565 2.3315105
-0.00022153778 0.6943081 1.1024065 1.386428 1.6107774 1.7906154 1.9487602 2.0825775
2.190313 2.2996662 2.395109 2.4883647 2.5625181 2.644835 2.7158718 2.7758253
0.12623721 0.49727848 0.8972053 1.3433793 1.5115556 1.919831 1.7279116 1.936357
2.3826838 2.4700706 2.56563 2.319577 2.6972668 2.4021876 2.4814687 2.537347
-0.066630356 0.66975915 1.0827397 1.3704145 1.6232367 1.6560812 1.9332412 2.0978823
2.2536173 2.1880586 2.2845922 2.5005894 2.4310997 2.5987477 2.699159 2.7509916
-0.09953817 0.9260735 1.3200098 1.4545671 1.7272985 1.7042907 2.2097208 2.2496376
2.0450785 2.1733246 2.291737 2.6785064 2.512754 2.9066029 2.97916 3.0467403
-0.025345542 0.7942222 1.2256228 1.4476855 1.7104594 1.7355728 2.084032 2.2034779
2.0820236 2.218514 2.3164785 2.6173482 2.506504 2.8103569 2.8694203 2.9262185
-0.20588271 0.87970495 1.3131013 1.31351 1.5940143 1.5730034 2.1377037 2.1231818
1.98428 2.0590656 2.1294746 2.5458345 2.373022 2.8310647 2.895026 2.9612832
0.00014834847 0.6917931 1.0952965 1.3856277 1.6074884 1.7923974 1.9425044 2.0756917
2.2020836 2.3044379 2.3996432 2.480442 2.5658298 2.6329908 2.6998158 2.767987

q_head.mamba.D f4 [18]
00000000: a98a 8e3f b4af 9d3f deca af3f e5bb 863f
00000010: 9d0d ad3f 14fc 9b3f 7972 a13f 81b6 b03f
00000020: e9ba aa3f 6e72 ad3f 5a62 a63f 74e4 c13f
00000030: d369 a03f 67a9 9f3f 5a6c b03f 5be5 b23f
00000040: 8d33 ba3f 3fd7 9c3f
1.1136066 1.2319245 1.3733785 1.0526091 1.351978 1.2186303 1.2613059 1.3805696
1.333829 1.3550546 1.2998765 1.5147843 1.2532295 1.2473572 1.3783066 1.3976244
1.4546982 1.2253188

q_head.mamba.in_proj.weight f4 [36, 9]
00000000: 7518 edbe 03ea 0ebd 2316 02bf d984 503e
00000010: d700 93be 5169 fbbd 532b d8be 271c 6bbe
00000020: bb34 dabd d2dd 363e 4adf 2f3e bbcc 3cbd
00000030: 34ff 8abe f001 4d3e c477 aabe 873a e7bc
00000040: 548b af3e 080c 043f b2eb 98be 8d37 c73d
00000050: f85d 1cbe c54c ae3d 9ca8 bdbd 900b f33c
00000060: 0993 69be d10e 0dbf 2d26 06bf cbd1 b73a
00000070: 024e a03e 0243 23bd 458c 8ebe 3f18 a03e
00000080: 9910 973d 911f 9b3e a24c 913c f9e8 513e
00000090: 780b f03e 8996 293e 2da4 133f 257e 29be
000000a0: 0443 263f a8c0 d33e a684 503e 04ae 073f
000000b0: 1374 053e 2574 a93d bbc7 47bc b5be c33d
000000c0: 5a89 5ebe 9ece 6e3e e3bf bd3e 27ed f2be
000000d0: 2448 0a3f 80ca c13e 63b8 17bf d0ee e2be
000000e0: 400d 1cbf f37e f8bc 6bd3 0abf 122c 0ebf
000000f0: 32ce c8be 9d65 23bf f6e6 04bf 31b6 533e
00000100: cbf7 823e ee93 1a3f 4aed c53c 68f4 073f
00000110: 8898 603f 33cc acbe 924c f83d a7a4 d73e
00000120: a4f6 c83e ad0b ea3e 26cd 51bd 0995 2abe
00000130: e7f4 3bbe 4e39 0fbd 2b05 fa3e ec8e bd3e
00000140: 43dd 823d 4364 1a3e bc86 283f 37b0 5f3e
00000150: 93ce 8e3d 7222 413f 9432 a63e 7ba1 e63e
00000160: 8b0c a23e 41b6 213f 6123 623f 5549 343e
00000170: f659 c73e 4262 08bf 8105 013f 6861 d83e
00000180: a15c 2c3f 75a4 9e3e bed9 683e 7599 243e
00000190: 7cc3 053e ecab ea3e c54c 493f 933c 94be
000001a0: b6d9 e23d 4a5d 4f3d a799 ad3e cb7c 4b3e
000001b0: 2458 a53e e6de ecbd 2e2a 02be 0777 ce3d
000001c0: 52c3 6fbe 9f3a 0ebe 43f0 493e 7d84 9cbe
000001d0: 30c7 ca3c d55d 873e e9ed f33d 4fd3 023e
000001e0: 2ce3 ddbe 861d 523e 6fe6 903e e606 063e
000001f0: f0d1 763e 738b b63e 60ee 6cbf 447e 09bd
00000200: e00e 7dbb 8d0f 0d3f 8d14 32be 3116 3dbe
00000210: 92ed 60be 1adb 0b3b 0399 14bf ac8f 443e
00000220: 955a 143f 3195 b23d d8c6 edbd 19cc 9d3e
00000230: 3521 633f 7c5b dc3e 5f7a 383f 3b4b 243f
00000240: 132a 28bf 3ccc 56be 300a bfbe cb1d 363d
00000250: 56b0 edbe 2671 2bbe 463d 32bf 19c8 04bf
00000260: c8a2 24bf 66bd 233f d2d2 b63e 7cf5 983e
00000270: a7e7 83be f8eb 123e b706 1d3f 5ef7 843e
00000280: 712d b63d 29ea db3e ccb5 bdbd 5171 cc3d
00000290: c325 cc3e 2e57 88be f395 cd3e 682f c63e
000002a0: 6b6c 923c 1095 07bd 8827 7d3d d600 573e
000002b0: 361a 36be 4753 bdbd 9d66 233e abb3 63be
000002c0: c5b3 fa3d d6ae eebb 9337 58bd da39 9ebe
000002d0: 7f0d ce3e c3d5 2abf 00ae 33bd 96f6 043e
000002e0: c41a 61be 585d 90be b8ca 6bbe 0ccd 2dbe
000002f0: ee88 c0be 4cf7 47be e639 2dbd c28a d03d
00000300: d29b c4be 23f4 b53e 40d9 f53e 9bde 363e
00000310: dfcb ee3e d1e4 a3bd 0f6a 343e 268a eebd
00000320: a2e7 653d 18c0 9a3e 7ca9 0e3f 011f 8ebe
00000330: f358 99bd 5e0a 033f c4a2 a33e e530 94be
00000340: 2aa3 8c3e 57ca 28be 42e1 d0be 3679 65be
00000350: f253 1e3e b3ad debd e750 83be 46b2 c03d
00000360: c337 acbb bdb2 bd3e 87b6 2e3f 5ab8 60be
00000370: 15fb 9e3e 7026 aa3e 5e88 b7bd bbcd 0d3f
00000380: 7280 cc3e 3bcc d83e 7fad 0cbf 0a7e bf3c
00000390: 4da1 133c 536f 86be e8ff 11bf 7b97 c6be
000003a0: 9bdf 3a3e a4ba b4be cdc5 eebe b0ce 553e
000003b0: 2847 cc3d 3450 bebe 4e64 7bbe 0b9a bc3e
000003c0: a7be 673e 16e2 f0bd f1c4 f83e 6a6a 913d
000003d0: bd9c 853e a9f4 cb3d c986 7d3c 9305 993e
000003e0: 0cac 473e 6375 2f3e 3289 933e db5c 973e
000003f0: 380e ed3e 2c91 b7bd fb52 063f dca1 033f
-0.46307722 -0.03489114 -0.5081503 0.20363177 -0.28711578 -0.12275947 -0.42220554 -0.22959958
-0.10654589 0.17858055 0.17175022 -0.046093684 -0.2714783 0.2002027 -0.332945 -0.02822615
0.34285986 0.5158086 -0.2986732 0.09727392 -0.15270221 0.085107364 -0.09260675 0.0296686
-0.22809996 -0.55100733 -0.52402 0.0014024315 0.31309515 -0.039858826 -0.27841392 0.31268498
0.073762126 0.3029752 0.017736737 0.20499028 0.4688375 0.16561331 0.5767239 -0.16552027
0.6494601 0.41357923 0.20363101 0.529999 0.1303256 0.08274106 -0.012193616 0.09557859
-0.21732083 0.23321006 0.3706046 -0.47446558 0.5401633 0.37849808 -0.59265727 -0.44322824
-0.6095772 -0.030333972 -0.5422885 -0.55535996 -0.39219815 -0.63826925 -0.5191492 0.2067497
0.25579676 0.6038197 0.024161 0.5310731 0.87732744 -0.33749542 0.1212398 0.42117807
0.39250672 0.45712033 -0.051221035 -0.16658415 -0.18355142 -0.03496676 0.48832068 0.37023103
0.063898586 0.1507731 0.6583059 0.21844564 0.06972995 0.75443184 0.32460463 0.45045075
0.31650195 0.6316872 0.88335234 0.17606099 0.38935822 -0.5327493 0.50399023 0.42261815
0.6732884 0.30984846 0.22739312 0.16074164 0.13062853 0.4583429 0.78632766 -0.28952464
0.11076681 0.050626077 0.3390629 0.19871823 0.32293808 -0.11565952 -0.12711403 0.100812964
-0.23414353 -0.1388955 0.19720559 -0.3056983 0.024753183 0.26438776 0.11910612 0.1277592
-0.4333738 0.20519075 0.28300807 0.13088569 0.24103522 0.35653266 -0.9255123 -0.033567682
-0.0038613603 0.55101854 -0.17390652 -0.18465497 -0.21965626 0.0021340312 -0.5804598 0.19195431
0.5795072 0.08719862 -0.11610192 0.30819777 0.88722545 0.43038547 0.72061723 0.6417729
-0.656892 -0.20976347 -0.3731246 0.044462007 -0.46423596 -0.16742381 -0.69624746 -0.51867825
-0.64310884 0.63960874 0.35707718 0.2987479 -0.25762674 0.14347827 0.6133837 0.25969976
0.08895386 0.42952088 -0.092631906 0.09982551 0.3987256 -0.26629013 0.40153465 0.38708043
0.017873963 -0.03310114 0.061805278 0.20996413 -0.17783436 -0.092443995 0.15957113 -0.22236507
0.122413196 -0.0072840257 -0.052787375 -0.30903512 0.40244672 -0.66732424 -0.04386711 0.1298469
-0.21982867 -0.28196216 -0.2302655 -0.1697275 -0.3760447 -0.1952793 -0.042291544 0.10182716
-0.3840013 0.35537824 0.4801731 0.17858355 0.46639916 -0.08002628 0.17618583 -0.116474435
0.056129105 0.3022468 0.5572736 -0.2775803 -0.07487669 0.51187694 0.31960118 -0.28943554
0.27468234 -0.16483437 -0.40796858 -0.2240952 0.1546171 -0.10872974 -0.2564766 0.09409003
-0.0052556708 0.3705043 0.68247265 -0.21945325 0.31050935 0.3323245 -0.08961557 0.55392045
0.39941746 0.42343315 -0.54952234 0.02337553 0.009010625 -0.2625681 -0.57031107 -0.38787445
0.18249361 -0.35298645 -0.46635285 0.20879626 0.099745095 -0.37170565 -0.24549982 0.36836275
0.22631322 -0.117618725 0.48587754 0.07100375 0.26096144 0.099587746 0.01547403 0.29887065
0.19499224 0.17134623 0.2881561 0.2956303 0.4629991 -0.08963236 0.5247037 0.5141885

q_head.mamba.conv1d.weight f4 [18, 1, 4]
00000000: 5ca3 dabe a4e6 6bbe 284a a5be e70d dfbe
00000010: a4a8 7dbe 68b6 a13d 6d01 09be b970 0d3f
00000020: 7034 773e 600b 5a3d 956d 023e 9352 6f3e
00000030: 264f ea3e 4050 10be 935f 1c3e b78f 933e
00000040: a0ae efbd b423 0cbe 5cde 86be ab3b f1be
00000050: 3862 b63d b66b b13e b8e6 22bf bfaf 26bf
00000060: 3022 713e ecea c9be f0fb 0c3e 8ec1 793f
00000070: 7e6a 833e c024 1bbe b0e6 fcbe 42ff 29bf
00000080: 5020 3b3d f05a 023d cee8 16bf 7a90 1c3d
00000090: 90d2 63bd 2879 793e 15df 26be 97e7 68bf
000000a0: 40d4 8cbd 40b7 fbbd d40a 5a3f 4584 843e
000000b0: b461 cf3e 00df 043d e805 16bf 9310 483f
000000c0: 787d 20be e4b2 353e 7a2c 6b3e 9e18 89be
000000d0: 18aa ab3d 84b1 033e 8828 0fbe db1b b83e
000000e0: 50e7 2bbd 101b 40be cb44 4abf 248b b53e
000000f0: 2212 b23e 68b1 d7bd f9b8 bbbe ec4e 68bf
00000100: 98e3 c8be 4ad2 d73e 983e 72bf fafa 07bf
00000110: 88fa e6bd a0e4 253e ab41 37bf 9cf8 02bf
-0.42702758 -0.23037201 -0.3228314 -0.43565294 -0.24771363 0.07896119 -0.1337945 0.55250126
0.24141097 0.053233504 0.12737115 0.23371343 0.4576351 -0.14093113 0.15270834 0.28820583
-0.11703229 -0.13685495 -0.26341522 -0.47115836 0.089054525 0.3465249 -0.636333 -0.6511192
0.23548198 -0.39437044 0.13767982 0.97560966 0.25667185 -0.15150738 -0.4939475 -0.6640512
0.045685112 0.031825006 -0.5894898 0.03822372 -0.05562073 0.24362624 -0.16296037 -0.9097838
-0.06876421 -0.122908115 0.8517277 0.25882164 0.4050423 0.032439232 -0.5860276 0.7815029
-0.15672863 0.17744023 0.22966185 -0.26776594 0.08382052 0.12860686 -0.13980305 0.35958752
-0.041968644 -0.18760324 -0.7901122 0.35457718 0.3477946 -0.105318844 -0.3666456 -0.90745425
-0.3923614 0.42152625 -0.9462676 -0.53117335 -0.11278254 0.16200495 -0.71584576 -0.511606

q_head.mamba.conv1d.bias f4 [18]
00000000: 16a3 cf3e 9b68 cb3d 3b66 39bf 05bd 463f
00000010: 1474 49bf 212c 3ebf 60c2 22bf 3484 5cbf
00000020: b4a8 44bf da3b 21bf 55d9 783e 5e92 1e3f
00000030: 3786 4f3f b071 7a3e c390 283f ad2d 67bf
00000040: b4be 3a3f 19a5 e5bd
0.40554112 0.09932061 -0.72421616 0.7763217 -0.78692746 -0.74286085 -0.6357784 -0.86139226
-0.7681992 -0.6298195 0.24301656 0.6194209 0.8106417 0.24457431 0.6584589 -0.9030407
0.7294724 -0.112131305

q_head.mamba.x_proj.weight f4 [33, 18]
00000000: 4600 473e 9c8d 393e 4d04 52be 3a42 f13e
00000010: 43a9 66be ed53 babe 890d 9fbe 6484 e6be
00000020: cbbc e1be 858e f9be cb54 c23d 1a17 313c
00000030: 7aef 443e bec0 9e3e a20d 36be 9883 04bf
00000040: ac9c 973e 3067 e1be bf63 22bc 5f74 3a3e
00000050: 4e82 96be 78c9 a13e 861b 9abe 6994 17be
00000060: e23a 01bd 582c 31bd 8272 cbbd 20fe 52be
00000070: e78d a6bd 17d1 22be 9bcf ae3e 2dd5 af3e
00000080: 8d3c 52be aa3c 89be a5d5 b03e 3ae7 2ebe
00000090: c598 0abf 75e8 9dbe 66e0 1f3f d4e2 0bbf
000000a0: 6999 8b3e 146f be3e 4b01 283f 3651 cb3e
000000b0: c8b6 d33e c4d0 c03e 21c6 babe 07da 52bc
000000c0: 4921 1bbf ac18 f1be 4eaa 29be 8ed8 2b3f
000000d0: 603b 2dbf e6a2 063f 9f6e 8fbe 685c aabe
000000e0: 5568 f83e 6c43 1cbf dee9 053f 2e79 ee3e
000000f0: 20f4 333e 168d ed3e 80d7 123f ce77 1a3f
00000100: a169 11bf 4ac8 b0bd a513 98be a737 89be
00000110: 8e01 96be cd6a 243f e29b aabe cc9d e43e
00000120: 5394 643e f2de a53e bd38 5dbe e0b6 043f
00000130: f2d3 04bf d1c6 76be 075b 25bf 6d3e a7be
00000140: eb55 c4be 40f1 6abe 90d1 f83e 7924 75bd
00000150: 4d4c 8e3e c383 523e 3c53 2d3e 31d0 d2be
00000160: 17c8 243f c3c8 71be 6261 a13e edc6 713e
00000170: 0784 17bf 9248 793e a695 a4be cc94 f7be
00000180: 5296 b5be fd80 f0be 49be ffbe bbc2 0dbf
00000190: eab8 e93e 2eec a9bd 8261 163f eae5 12bd
000001a0: 19c9 b53e 9503 09bf 5788 293f 08e6 08bf
000001b0: 2bbf acbe a46f b4be 71fd 083f 9b48 14be
000001c0: 757f 9a3e 99d5 373e efe8 133e ad41 fa3e
000001d0: ea07 323d 1edd 653e 6230 c0bd 8783 a23e
000001e0: 6308 efbe d63b a9be b0f7 1ebd 6fac b73e
000001f0: 8e2a 05bd 4838 8a3e 8f78 ad3e 8a70 b8bd
00000200: 3ae1 f5be 0768 213f 9937 0bbf 615d 15bf
00000210: 1e2d 23bf 27f8 a7be 81da 9fbe 135a 54be
00000220: 8af7 e13e 9865 4a3e b920 cc3e d9ae 043d
00000230: 623b a03c 8b14 efbe 4e94 c03e ff23 1abf
00000240: 9ef1 e83e c1f3 4b3e b9a0 b3be 1cf2 a23e
00000250: 75ce ecbe 3f78 97be a29d aabe 396c f0be
00000260: fc66 20bf 6b33 0cbf a6c1 203f 7111 04bd
00000270: 6f08 b93e f19d 803e cdf8 9f3e 3240 1ebf
00000280: c3e4 e63e f5d5 afbe 8271 8b3e fccd 0abf
00000290: bb12 85bd 3884 b43d 5659 b3be 25f3 c2be
000002a0: 4cea 34be c710 2cbe 0a54 96be 5de1 023e
000002b0: 28af 2a3e a244 a73e d69d cb3d 34bd ebbe
000002c0: b216 023f 547e 393d 00df 433e edd9 b9bd
000002d0: c115 5fbc 1f2f af3e c8cb 63be 8a6a be3e
000002e0: 9506 abbe 0a35 f0be 0d0f a6be c15c 67be
000002f0: 9850 87bd af4e 6bbe fb95 12be adb1 a9be
00000300: cee7 4e3e a6d9 a33e 0566 37be 448e 03bf
00000310: 20e6 b13e 5688 37be 6cbc 7abe 2c5b e43d
00000320: 76a6 043f 9ecc f2be 970f b53d 579b 873e
00000330: 259d 053e f7ce 293d 8878 c63d acc9 eb3e
00000340: 032b 283e 6094 003d 8324 febe a8e7 bbbe
00000350: a48c 8b3e cfb0 c33e a897 d3bc cd24 943c
00000360: 1f6c f33e 59a6 11bc ed44 f3be 5ede 5b3e
00000370: 3982 02bf 269f b1be 66e8 00bf 34b9 fcbe
00000380: ce9a 10bf 6896 1fbf 28e2 a33e e150 1f3e
00000390: 4a3e 023f 690c 863d 8d3f 033e 5791 c6be
000003a0: b097 1d3f 8112 6bbe 6af9 ca3e d099 0c3e
000003b0: 8721 29be 6f7b 473e 3e8c c9be 215a 38be
000003c0: 5c51 bbbe 98c7 d4be fc26 93be ae62 a9be
000003d0: 069f 983e 3973 c8be edc6 bc3e b532 723e
000003e0: 2d9c 8bbe 6639 f5be 5c25 ff3e ab9d 1bbd
000003f0: ab3a 9d3e c3d0 3d3e 5dff 92be 6ab8 8b3e
0.19433698 0.18120426 -0.20509453 0.4712084 -0.22525506 -0.36392155 -0.31065014 -0.4502288
-0.4408935 -0.48741546 0.09488829 0.0108087305 0.19231978 0.31006426 -0.17778638 -0.51763296
0.2961172 -0.44024038 -0.009911477 0.18208455 -0.2939629 0.3159902 -0.30099124 -0.14802708
-0.031550296 -0.04325518 -0.0993395 -0.20604753 -0.081325345 -0.15900074 0.34142765 0.34342328
-0.20530911 -0.26804096 0.34537998 -0.17080393 -0.5413936 -0.30841413 0.6245178 -0.5464299
0.2726548 0.3719412 0.6562697 0.39710397 0.4135039 0.37659276 -0.36479285 -0.012869365
-0.60597664 -0.47089136 -0.16568872 0.6712731 -0.67668724 0.52592313 -0.28014085 -0.33273625
0.485171 -0.6104038 0.5230998 0.46576828 0.17573595 0.46396703 0.57360077 0.6033906
-0.568018 -0.08631952 -0.29702488 -0.26800272 -0.2929806 0.64225465 -0.33322054 0.4465164
0.22322206 0.32396656 -0.21603675 0.51841545 -0.518859 -0.2409928 -0.6459202 -0.32664815
-0.383468 -0.22943592 0.48597383 -0.059849236 0.27792588 0.20558076 0.16926283 -0.41174462
0.6436781 -0.23611741 0.3151961 0.2361104 -0.5918583 0.2434409 -0.32145423 -0.4835571
-0.35466248 -0.4697341 -0.49949864 -0.5537526 0.4564889 -0.08297001 0.58742535 -0.035863794
0.35504988 -0.5352109 0.66223663 -0.53476 -0.337396 -0.35241425 0.5351172 -0.14480822
0.30175367 0.17952575 0.14444326 0.48878232 0.04346458 0.22447631 -0.09384228 0.31740972
-0.46686086 -0.33053464 -0.038810432 0.35873744 -0.032511286 0.26996064 0.3388104 -0.0900584
-0.48023397 0.6304936 -0.5438171 -0.5834561 -0.6374072 -0.32806513 -0.31221393 -0.20737486
0.4413417 0.19765317 0.39868715 0.03239331 0.019559566 -0.4669536 0.37613147 -0.60211176
0.4549684 0.19917203 -0.3508356 0.3182534 -0.46251264 -0.29583928 -0.3332339 -0.46957567
-0.6265714 -0.5476596 0.62795484 -0.032243196 0.36139247 0.251205 0.31244507 -0.61816704
0.45096406 -0.34342924 0.27235037 -0.5422056 -0.06497713 0.08814281 -0.35029095 -0.3807613
-0.17667502 -0.16803275 -0.29360992 0.12781282 0.1666838 0.3266955 0.09942214 -0.46042788
0.5081588 0.04528649 0.19128036 -0.09074769 -0.013616026 0.34215638 -0.22245705 0.37190658
-0.3340346 -0.46915466 -0.32433358 -0.22593977 -0.06607169 -0.22979234 -0.14315026 -0.33143368
0.20205614 0.3200199 -0.17910011 -0.51388955 0.34745884 -0.17923102 -0.2448594 0.11150202
0.518165 -0.47421736 0.08840864 0.26485702 0.13048227 0.041457143 0.09690958 0.460523
0.16422658 0.0313915 -0.4963723 -0.36700177 0.27255738 0.38220832 -0.025829151 0.018083954
0.47543427 -0.008889758 -0.47513524 0.21471545 -0.50979954 -0.34691733 -0.5035461 -0.4936005
-0.56486213 -0.62338877 0.3200848 0.15558197 0.50876296 0.06545336 0.12817211 -0.3878276
0.6155958 -0.22956277 0.39643413 0.1373055 -0.16516696 0.1948068 -0.3936481 -0.18003131
-0.3658551 -0.41558528 -0.2874068 -0.330831 0.29808825 -0.39150408 0.36870518 0.23652156
-0.2726759 -0.47895354 0.4983319 -0.03799216 0.30708823 0.18536668 -0.28710452 0.27289134

q_head.mamba.dt_proj.weight f4 [18, 1]
00000000: dcab 623f f643 593f 2d61 babd 4a45 273f
00000010: 979f dbbe c749 953f 52a5 b7be c79b 7cbe
00000020: 0843 0c3f dc06 8abe c233 4bbf f0d8 c63e
00000030: 9b57 b13d e458 2abe dcc1 293e e045 d2be
00000040: 5cf9 873f 63dd 3f3e
0.88543487 0.84869325 -0.09100566 0.653401 -0.42895195 1.166314 -0.35868317 -0.246688
0.5478978 -0.26958358 -0.7937585 0.38837385 0.086592875 -0.16635472 0.16577858 -0.41068935
1.0622973 0.18736796

q_head.mamba.dt_proj.bias f4 [18]
00000000: c917 adc0 24cc a6c0 a2cc 55c0 2664 a2c0
00000010: 96e1 aac0 3e95 03c0 8d32 59c0 349c a8c0
00000020: a002 2ec0 a691 c9c0 adde 8fc0 cd6c 67c0
00000030: d8a1 87c0 7f87 cec0 febf 04c0 b7ce bcc0
00000040: 1dc7 01c0 c534 05c0
-5.4091535 -5.2124195 -3.3406148 -5.074725 -5.3400373 -2.055984 -3.3937104 -5.269068
-2.7189102 -6.2990294 -4.495932 -3.6160157 -4.2385063 -6.45404 -2.0742183 -5.9002337
-2.027778 -2.0813458

q_head.mamba.out_proj.weight f4 [9, 18]
00000000: ea7c b2bd 7cae c73e b65e 6abe d8c2 5dbe
00000010: 2d1d f43d 7d12 d23e 3ac7 4e3e 1195 03bf
00000020: dae4 223e b53e f43e fb99 bd3e eaec cebe
00000030: df40 cdbe fedf 70be 29c0 373e 278c 793e
00000040: eb95 093f bd13 333d ca90 84bc a3ab 7abe
00000050: 3da5 243f d93a 5f3e 3cf4 20be e88e 9fbe
00000060: d5be bebe 3271 1d3f 1c24 d4be 2343 10bf
00000070: 5dd9 f4be d920 6b3e 2af8 9d3e 4127 af3e
00000080: 19a3 a5be 1fce 93be 67fb 05bf b465 6d3e
00000090: 3cb4 adbe 2c1f 033f a5bc f4be 6af1 31be
000000a0: cbc0 09be 5458 0d3f 28c9 c03c 2d6f ecbe
000000b0: 0003 093f a56d 683c fa39 ec3e 0ed3 293e
000000c0: af68 8cbe 9d7f 7bbe 42e0 3b3e 264f 493e
000000d0: 6204 a43e 138e c43d e22b 75be 85f9 223e
000000e0: 5223 63be 3bcf cebc 00db 60bd 9605 c53e
000000f0: f968 883e ce31 a9be 403a e33e ec8c 983e
00000100: f8f5 a43e edd3 90be 9a87 71be da01 aebe
00000110: 1639 e53d b32b 273f b50b 923e 0b50 51be
00000120: bf4a eb3d 4205 22bd 1bba 2bbd 6e9e 1c3c
00000130: b480 d13e 5804 94bc 6c61 af3c eb4a 9ebe
00000140: de2f 913e 138a 833e 30c7 81be cf2d 9bbe
00000150: c2bf b6be 3d1a c9be 4b20 0fbf 58c8 533e
00000160: bcd5 783e 5353 913e de7a 813e 7459 cebe
00000170: 6372 473e 0c9c 07be 575c 22bf 3582 9b3e
00000180: b3fc e0be d872 2f3e 31aa 54ba efdf 09bf
00000190: 48b6 8c3e ad1f 233f 679a 9d3e 6d1f 7a3e
000001a0: a24d 103f a8ed 25bf b954 82be 1e1b 0bbf
000001b0: abab 553e b2b0 8bbe 2694 41bd 7e7f 4c3e
000001c0: 737a 2ebe 70c6 f6bd 7e36 5dbe 2e2a 943d
000001d0: 500e 1a3e b2b5 44bd 363b ae3e f98f fa3e
000001e0: 0642 ae3e 71ca f53d 13d6 003f 39fa c3be
000001f0: a294 1fbe d938 1bbe baff cbbe 9189 4b3d
00000200: 247b c7be fbff cbbe 50ac 2abe cc95 e33e
00000210: e0b7 943c f133 9ebe cb8a 1f3e 7db4 173c
00000220: 97ef 9a3e 0602 67be 28be 18be 8485 84be
00000230: 7615 8b3e 84b1 ef3e 2956 1b3f a996 25be
00000240: 15d3 42be 78a7 803e 41c9 f03d ba6d 1a3e
00000250: 63cf a43e cf65 2abe 09fb c93d 4bfc b03d
00000260: 0e79 58be 5854 233e a4fd 8bbe b98e c4be
00000270: c8fe cabe 5082 073c 768a 13bf dde3 f23e
00000280: dbef 26be 574c a73e
-0.08715232 0.3900031 -0.22887692 -0.21656358 0.11919627 0.4102973 0.20193186 -0.5139933
0.15907612 0.47704092 0.3703154 -0.40415126 -0.40088555 -0.23522946 0.17944397 0.2436987
0.5374438 0.043719996 -0.016182322 -0.24479537 0.64314634 0.21799792 -0.15718168 -0.31163716
-0.37254968 0.6150085 -0.414338 -0.5635244 -0.47822085 0.22961749 0.30853397 0.34209636
-0.32350996 -0.28868195 -0.52336735 0.23183328 -0.3392657 0.5121944 -0.47800174 -0.17377248
-0.13452451 0.55212903 0.023533419 -0.4617857 0.535202 0.014186298 0.46137983 0.16584417
-0.27423617 -0.245604 0.18347266 0.19659099 0.32034594 0.09597411 -0.23942521 0.15915497
-0.22181442 -0.0252453 -0.054896355 0.38480824 0.26642588 -0.3304581 0.4438038 0.29795015
0.3221891 -0.28286687 -0.23586884 -0.33985788 0.11192529 0.65301055 0.28524557 -0.2044069
0.11488866 -0.039555795 -0.04192553 0.009559257 0.40918505 -0.018068478 0.021408759 -0.30916533
0.28356832 0.2569128 -0.2534728 -0.30308387 -0.35693175 -0.3927783 -0.5590865 0.20681894
0.24300283 0.28383884 0.25289053 -0.40302622 0.19477229 -0.13243121 -0.6342215 0.30372778
-0.43942794 0.17133653 -0.00081125187 -0.5385732 0.2748282 0.6372021 0.30781862 0.2442605
0.5636846 -0.6481576 -0.25455263 -0.5433825 0.20866267 -0.27283245 -0.047260426 0.1997051
-0.17038898 -0.12049568 -0.21602818 0.07234608 0.15044522 -0.04802484 0.3402955 0.48937967
0.34034747 0.12001503 0.5032665 -0.38276842 -0.15584043 -0.15158404 -0.3984354 0.04969174
-0.38961136 -0.39843735 -0.16667295 0.44450223 0.018154085 -0.30899003 0.15580289 0.00925934
0.30260918 -0.22559366 -0.14916289 -0.25883114 0.2716481 0.4681512 0.60678345 -0.16170754
-0.19025834 0.2512777 0.11757136 0.1508092 0.32189474 -0.166404 0.09862334 0.08641871
-0.21139929 0.15950143 -0.2734195 -0.3839014 -0.39647508 0.008270815 -0.5763315 0.4743947
-0.16302435 0.3267543

q_head.final_norm.gamma f4 [9]
00000000: 0000 803f 0000 803f 0000 803f 0000 803f
00000010: 0000 803f 0000 803f 0000 803f 0000 803f
00000020: 0000 803f
1.0 1.0 1.0 1.0 1.0 1.0 1.0 1.0
1.0

ema_model.q_head.action_bin_embeddings f4 [2, 256, 9]
00000000: 35d6 2f3e 45c2 23be 9127 293e 6363 483e
00000010: f4b1 603e 5235 62be 2219 81be fd99 543e
00000020: ba83 463e 3419 1e3e 2bfc 1abe 5639 4c3e
00000030: 1dc0 0c3e b312 493e 1cc8 5abe 0cee 81be
00000040: 5ed5 353e e0ca 423e 2402 183e dd4c 15be
00000050: 5c17 143e 9c40 f83d 20a0 2d3e 162b 5ebe
00000060: 5f0f 66be de3e 123e 082f 663e 5c92 3d3e
00000070: 3f65 40be de23 543e 8d68 0e3e 1b07 4f3e
00000080: 5c74 75be 729c 75be 673d 623e d99a 373e
00000090: ffd0 2b3e 192a 43be 1d93 533e 66ec 193e
000000a0: 1afd 703e b252 77be 57d5 96be c542 683e
000000b0: cf0f 653e 2ecc 1d3e 5467 1fbe 1277 713e
000000c0: 85fa 043e f498 853e 65bd 43be ca42 63be
000000d0: 4847 3c3e d17f 493e 8053 0e3e 6df8 12be
000000e0: eaf2 2b3e 78ad 0e3e 142c 613e 3f05 63be
000000f0: 7c12 63be c09a 593e 7be9 323e 2c23 363e
00000100: 29f9 03be e7d1 553e 58c1 2a3e 1939 293e
00000110: b632 5ebe 3ec5 35be 87d2 313e 12fd 6a3e
00000120: eeaf 793d 8a98 e6bd 1860 713d c15f 003e
00000130: 4dff 283e 2aec 2abe a391 19be 6e99 f13d
00000140: ace5 f33d 65ce 563e 680d 1ebe b4b7 413e
00000150: fcce 0b3e 6573 5c3e 4ed8 40be a518 66be
00000160: 3b46 323e 34e5 633e ebcb 443e 2781 2fbe
00000170: f015 4a3e 09d6 2a3e 0df9 623e eb9a 51be
00000180: 6b44 55be 087b 183e 0b3c 563e ce8f 3e3e
00000190: 5f0e 1dbe 8bfe 413e 97c9 183e d7e0 533e
000001a0: 162a 45be 0949 67be 29e4 513e 4e19 613e
000001b0: b756 333e dc8a 1ebe 040e 4b3e c09c 3b3e
000001c0: b12a 783e b104 35be 3c44 81be 36f4 5a3e
000001d0: 244d 623e 0ab9 2e3e 41a6 32be 0d34 383e
000001e0: b3a4 203e e3ea 663e 6594 30be 9381 7bbe
000001f0: c48c 3e3e a003 4c3e fdc8 4e3e 2c10 21be
00000200: 4b44 243e 82a9 273e 83f3 443e 1928 6abe
00000210: fbcf 76be 9192 663e 86c4 4b3e d350 493e
00000220: 097d 28be 9021 393e 779d 453e ee93 8b3e
00000230: dca3 55be da65 8abe 195c 653e 1bd1 353e
00000240: dc39 453e f5b7 22be c0f5 6a3e 9fa5 4d3e
00000250: c0a6 493e 5648 53be 505f 86be 6a92 3f3e
00000260: e23b 513e d06b 0f3e fee6 15be 3590 173e
00000270: fa2d 383e 5e29 163e 2bd9 2ebe a808 81be
00000280: e65d 483e 40cc 2c3e 4ed9 0b3e 1eaa 2dbe
00000290: 7f14 183e b23d 433e f0bc 383e 635c 61be
000002a0: e451 74be e23c 543e 7b54 693e 71e7 173e
000002b0: 1628 3bbe ef87 803e bf0d 203e c9d7 493e
000002c0: 996e 53be e400 82be 4d28 413e b189 6f3e
000002d0: 9947 5a3e b39c 48be 28db 2a3e 51e4 333e
000002e0: 4b27 6a3e 9d9d 62be ca25 6fbe 25e7 553e
000002f0: af67 363e 8299 3d3e 0b00 21be 7813 6f3e
00000300: fff1 1d3e 8b0c 763e 8a92 44be ba20 74be
00000310: ed4f 723e 3f91 463e 9391 1c3e 43f0 f8bd
00000320: af06 2e3e e0ff 453e 5e6d 543e eb02 26be
00000330: fabc 67be 2b35 503e 4ec1 573e 2220 1c3e
00000340: f580 28be 0546 483e 74b7 173e 84c2 5d3e
00000350: 0502 5dbe 00e4 77be b9d2 673e 9702 5c3e
00000360: f0f2 563e 33c6 13be 7087 363e 8510 3b3e
00000370: f158 713e 88f5 46be 00a5 63be 80d0 643e
00000380: 2d57 3c3e d72f 2d3e 9154 0cbe 7103 773e
00000390: 9d9f 303e 6c7f 4f3e 6285 52be f9cc 70be
000003a0: 1c00 303e 1e56 533e 7354 473e 2817 22be
000003b0: 102a 463e d535 013e 2d9d 4a3e e7a3 54be
000003c0: bb74 66be 8e47 483e e349 643e 1123 193e
000003d0: 5a11 2bbe 56b0 583e 5ed1 2c3e 6ca2 513e
000003e0: b706 54be cc5b 62be c3f8 2a3e 87b7 4a3e
000003f0: b839 573e 7ecd 2abe 27b5 383e 4e27 2e3e
0.17171557 -0.15992077 0.16519 0.19569163 0.21942884 -0.22090653 -0.25214487 0.20761867
0.19386187 0.15439302 -0.15135257 0.19943747 0.1374516 0.1963604 -0.21365398 -0.25376928
0.17757174 0.19022703 0.14844567 -0.14580102 0.14462036 0.12121698 0.16955614 -0.21696123
-0.22466801 0.14281794 0.22478878 0.18512863 -0.18788622 0.20716807 0.1390707 0.20217554
-0.23970169 -0.2398546 0.22093736 0.17930163 0.16778944 -0.19059028 0.20661588 0.15031585
0.2353405 -0.2415264 -0.2945964 0.2268172 0.22369312 0.1540992 -0.1556676 0.23580578
0.1298619 0.26093256 -0.19115217 -0.22193447 0.18386567 0.19677664 0.1389904 -0.1435258
0.16791883 0.1393336 0.2198947 -0.2216997 -0.2217502 0.21250439 0.17471878 0.17786855
-0.12888016 0.20880853 0.16675317 0.16525687 -0.21699032 -0.17751023 0.17365466 0.22948101
0.060958795 -0.11259563 0.058929533 0.12536527 0.1650364 -0.16691652 -0.14996962 0.117968425
0.11909041 0.20977171 -0.15434802 0.18917733 0.13653177 0.21528395 -0.18832514 -0.22470339
0.17409603 0.22255403 0.19218414 -0.17139111 0.19734931 0.1668321 0.22165318 -0.20469253
-0.2082688 0.14890683 0.20921342 0.18609545 -0.15337513 0.18944757 0.1492065 0.20691238
-0.19254336 -0.22586454 0.20497192 0.21982309 0.17513548 -0.15482658 0.19829565 0.18321514
0.24235035 -0.17677571 -0.2524737 0.21382222 0.2209974 0.17062774 -0.17446233 0.17988606
0.15687828 0.2255054 -0.17244108 -0.24561147 0.18608385 0.19923258 0.20193858 -0.15728825
0.16041677 0.16373256 0.19233517 -0.22866859 -0.24102776 0.22516848 0.19899186 0.19659738
-0.16453947 0.1807921 0.1929835 0.272613 -0.20863289 -0.27030832 0.22398414 0.17755549
0.19260353 -0.15890487 0.22945309 0.2008271 0.19692516 -0.20633063 -0.26244593 0.18708196
0.20433 0.14005971 -0.14638898 0.14801104 0.17986289 0.14664218 -0.1707503 -0.25201917
0.1956707 0.1687479 0.13657114 -0.16959426 0.14851569 0.19066504 0.18040824 -0.22007899
-0.23859364 0.2072635 0.22786133 0.14834382 -0.1827701 0.2510371 0.15630244 0.19711222
-0.20647658 -0.25391304 0.1886303 0.23392369 0.21316375 -0.19591026 0.16685164 0.17567565
0.22866552 -0.22130437 -0.23354259 0.20888956 0.1781299 0.1851559 -0.15722673 0.2334727
0.15424345 0.24028222 -0.19196525 -0.23840609 0.23663302 0.19391344 0.15289907 -0.12155201
0.16994737 0.1933589 0.20744845 -0.1621205 -0.22630683 0.20332782 0.21069834 0.15246633
-0.16455443 0.1955796 0.14816076 0.21656233 -0.21582802 -0.24208069 0.22638978 0.21485363
0.20991111 -0.14431076 0.17825103 0.1826802 0.23569085 -0.194296 -0.22230911 0.22345161
0.1839263 0.1691278 -0.13704135 0.24122407 0.17248388 0.20263451 -0.20558694 -0.23515691
0.17187542 0.2063832 0.19465809 -0.15829146 0.19351983 0.12618192 0.1978652 -0.20765649
-0.22505467 0.19558546 0.2229381 0.14954783 -0.16705838 0.21161017 0.16876742 0.20472115
-0.20705687 -0.2210533 0.16696458 0.19796573 0.21018112 -0.16679952 0.18037854 0.17007181

ema_model.q_head.mamba.A_log f4 [18, 16]
00000000: 8f19 153c 4dd4 143f 3988 733f 2f09 a43f
00000010: 3e5d bb3f e45d e83f 28c0 e23f e949 f33f
00000020: e04d 1340 fa16 1640 093d 1c40 4c7d 1240
00000030: 3d37 2440 6663 1b40 efde 1e40 4c93 2440
00000040: 3525 bf3a 8351 1b3f a7ab 823f e716 a43f
00000050: 816e c03f c436 e33f 92b4 eb3f 406e fc3f
00000060: 7a14 0d40 8fbd 1140 4116 1840 37be 1740
00000070: 7ebf 2040 1693 2240 d0ed 2640 8ce7 2940
00000080: c69a 713d 61c0 b83e 34e2 3f3f 4d52 933f
00000090: 4201 aa3f 7f13 e23f 3bcc ca3f 65f0 e03f
000000a0: 06b2 1640 3028 1540 b31e 1a40 27aa 0940
000000b0: 91a5 1e40 8576 1040 1125 1540 cc04 1a40
000000c0: 69a1 323d c482 dc3e 996e 513f d489 973f
000000d0: 4063 ad3f 7560 e63f 348e d03f d946 e53f
000000e0: 5841 1640 1ef5 1540 e887 1b40 7778 0b40
000000f0: dbf6 2040 80a0 1240 ec45 1740 39bc 1b40
00000100: 1ed3 ce3c cb4a 0e3f d490 713f 2858 a13f
00000110: 171a ba3f 9ede e93f 351e e33f 5127 f43f
00000120: a8d7 1340 6cbf 1640 2522 1c40 4696 1340
00000130: edd1 2340 247b 1c40 8ada 2040 92ba 2540
00000140: e9da 033e 0329 803e 7d31 2a3f 3642 9d3f
00000150: 6d2b b43f 20b6 ed3f da25 c13f 4a60 e73f
00000160: 2912 2040 aa4d 1f40 6e8d 2640 cb0e 0d40
00000170: 960e 2140 ce16 0e40 b0b3 1240 fde0 1640
00000180: fc61 ac3d c43a fc3e 8586 633f 41a9 a63f
00000190: 6de6 bd3f ed8c ee3f 113b dc3f c82c f43f
000001a0: ce4a 1740 948d 1a40 ba84 2040 ee39 1340
000001b0: 5939 2440 9525 1940 8831 1e40 de54 2240
000001c0: 7750 083d c6dc 043f b8ae 663f 985d 9e3f
000001d0: 341e b63f 2c11 e93f 0ee6 dc3f 8b02 ef3f
000001e0: 1b1b 1540 9a92 1640 ffc9 1b40 dfb2 1040
000001f0: 5798 2240 e477 1840 c7fe 1c40 5e1c 2240
00000200: ef20 663d 063f 833e 0080 2a3f b202 963f
00000210: 225e ac3f 52c8 e33f bdb0 bf3f 893e df3f
00000220: b1de 1840 0cc6 1740 637d 1d40 bda2 0840
00000230: 6ff3 1b40 4563 0c40 2aff 1040 2c44 1540
00000240: a64d 68b9 3fbe 313f cf1b 8d3f a276 b13f
00000250: 072e ce3f 1533 e53f f270 f93f 1449 0540
00000260: 492e 0c40 ed2d 1340 a949 1940 6c41 1f40
00000270: 7e00 2440 0845 2940 cfd0 2d40 29a7 3140
00000280: e844 013e f79f fe3e 7bb2 653f 94f5 ab3f
00000290: b37c c13f 95bd f53f c12e dd3f addd f73f
000002a0: 3d7e 1840 fb15 1e40 1a33 2440 b675 1440
000002b0: 15a1 2c40 30bf 1940 71d2 1e40 7b65 2240
000002c0: 8a84 88bd 1747 2b3f 537e 8a3f cd50 af3f
000002d0: 0e9f cf3f 16eb d33f 3e4c f73f 712f 0640
000002e0: 8930 1040 3d00 0c40 cb1e 1240 27f1 1f40
000002f0: 478d 1b40 233b 2640 6da5 2c40 dcf5 2f40
00000300: 8bdf cbbd 2a05 6d3f 04ed a83f de27 ba3f
00000310: 080e dd3f 2924 da3f 1765 0d40 c7f2 0f40
00000320: 47e1 0240 b316 0b40 41ab 1240 5f64 2b40
00000330: 00ce 2040 38fd 3940 82a0 3e40 53f5 4240
00000340: b6a1 cfbc e851 4b3f 03e1 9c3f 904d b93f
00000350: 1ef0 da3f 1b27 de3f 9660 0540 9605 0d40
00000360: ef3f 0540 41fc 0d40 4941 1440 6e82 2740
00000370: 5e6a 2040 acdc 3340 3da4 3740 ee46 3b40
00000380: 6846 55be 9e6e 603f 6bb1 a73f 8bbe a73f
00000390: c89b cb3f 69f3 c83f 789a 0840 c7ac 0740
000003a0: 3099 fd3f 3e96 0340 db03 0840 2cb6 2240
000003b0: 78b1 1740 f7f8 3440 3f0f 3940 684b 3d40
000003c0: fb90 1b39 5319 313f b632 8c3f 495c b13f
000003d0: 34c2 cd3f 676d e53f fda3 f83f 1ed8 0440
000003e0: beee 0c40 167c 1340 e593 1940 95bf 1e40
000003f0: b036 2440 f882 2840 dbc9 2c40 c526 3140
0.009100332 0.58136445 0.95129734 1.2815303 1.463783 1.8153653 1.7714891 1.900693
2.301628 2.3451524 2.4412253 2.2888975 2.5658715 2.4279418 2.4823568 2.5714903
0.0014583232 0.6067125 1.0208634 1.2819489 1.5033723 1.7751088 1.8414481 1.9721146
2.2043748 2.2771947 2.3763583 2.3709848 2.5116878 2.5402274 2.608265 2.6547575
0.058985494 0.36084273 0.74954534 1.1509491 1.3281634 1.76622 1.5843576 1.7573363
2.3546157 2.3305779 2.4081237 2.1510103 2.4788554 2.2572339 2.3303874 2.4065428
0.043610964 0.43068516 0.81809384 1.1838937 1.3545914 1.7998186 1.6293397 1.7912246
2.3477383 2.3430858 2.43017 2.1792276 2.5150669 2.2910461 2.3636427 2.4333632
0.025247153 0.55582875 0.94361615 1.2605028 1.4539212 1.8271062 1.7743593 1.9074498
2.3100376 2.3554335 2.439584 2.306047 2.5596879 2.445016 2.5133386 2.5895123
0.12876476 0.2503129 0.66481763 1.2285831 1.4075752 1.8571205 1.5089676 1.807626
2.5011084 2.4891152 2.6023822 2.204028 2.5165153 2.220142 2.2922173 2.3574822
0.084171265 0.49263585 0.88877136 1.3020402 1.4835945 1.8636757 1.7205526 1.9076166
2.3639407 2.4148912 2.508101 2.3004107 2.5660002 2.3929188 2.4717731 2.53643
0.033279862 0.51899374 0.9011035 1.2372313 1.4227967 1.8208365 1.7257707 1.8672651
2.3297794 2.3526978 2.4342039 2.2609174 2.540548 2.3823175 2.4530504 2.5329814
0.05618375 0.2563402 0.6660156 1.1719573 1.3466227 1.7795508 1.4975811 1.7440959
2.388592 2.3714628 2.460778 2.1349328 2.436733 2.193559 2.265574 2.332286
-0.0002215417 0.6943092 1.1024112 1.3864329 1.6107796 1.7906214 1.9487593 2.0825853
2.190325 2.299678 2.3951209 2.488368 2.56253 2.6448383 2.7158697 2.7758276
0.12623942 0.49731418 0.89725465 1.343432 1.511618 1.9198481 1.7279893 1.9364525
2.382705 2.4700916 2.565619 2.3196845 2.6973317 2.4022942 2.4815943 2.5374439
-0.06665905 0.6690535 1.0819801 1.3696533 1.6220415 1.6556118 1.9320142 2.0966456
2.2529624 2.1875145 2.2831295 2.4990938 2.430498 2.5973594 2.6975968 2.749381
-0.09954747 0.92586005 1.3197331 1.4543417 1.7269907 1.7042285 2.209295 2.249193
2.0449998 2.1732605 2.2917025 2.6780012 2.5125732 2.9060802 2.9785466 3.0462234
-0.025345664 0.79421854 1.2256168 1.4476795 1.7104528 1.7355684 2.0840201 2.203466
2.0820272 2.2185214 2.3164847 2.6173358 2.5064921 2.8103437 2.8693993 2.9262042
-0.20827639 0.8766879 1.3101019 1.3105024 1.5906916 1.5699283 2.134428 2.1199205
1.9812374 2.056045 2.1252353 2.542369 2.3702068 2.8276956 2.8915555 2.9577274
0.00014835961 0.69179267 1.0952976 1.3856288 1.6074891 1.7924012 1.9425045 2.0756907
2.2020717 2.3044486 2.3996518 2.4804432 2.5658379 2.6329937 2.6998203 2.7679913

ema_model.q_head.mamba.D f4 [18]
00000000: 9c90 8e3f dda0 9c3f 9a52 af3f 265e 873f
00000010: 981a ad3f b068 9c3f 8ace a03f 6664 b03f
00000020: 67bd aa3f d1a3 ac3f 6b11 a63f 8b61 c13f
00000030: 5ee1 9f3f 10c8 9e3f afd0 af3f 9be1 b13f
00000040: 239e b93f 1caf 9c3f
1.1137881 1.2236592 1.3697083 1.0575607 1.3523741 1.2219448 1.2563031 1.3780639
1.3339051 1.3487493 1.2974066 1.5107893 1.2490652 1.2404804 1.373556 1.3896974
1.4501384 1.2240939

ema_model.q_head.mamba.in_proj.weight f4 [36, 9]
00000000: 6485 e9be 975f 27bd 6b3b 02bf 93a9 4d3e
00000010: 3ea6 8fbe 7c3b 06be 55f9 d6be 6ed7 6abe
00000020: ec32 c6bd 91af 333e 708a 3c3e 0d3d 40bd
00000030: 19e2 87be 91ed 463e 98bd a5be f341 d9bc
00000040: a610 b33e b1f5 033f 6f69 96be 3adf b53d
00000050: a4a7 1dbe f4e0 a83d da9a b3bd afae b13c
00000060: a057 67be dc56 0dbf 0609 04bf d197 a6bb
00000070: 95dc a63e ceca 22bd 13ef 8cbe e3b5 9c3e
00000080: fc32 ae3d 31e3 9a3e 8b1c 953c 1aec 483e
00000090: 741e ee3e d0d5 323e 6615 143f 0170 28be
000000a0: 3bd4 243f 7912 d83e 8d3d 503e dcee 073f
000000b0: b50e f83d d17a af3d 85b2 83bb f459 d13d
000000c0: 873c 59be 095b 733e 61e4 c13e 7a36 f7be
000000d0: 5cf4 0b3f f88a c13e a698 17bf f3f7 dfbe
000000e0: 8cd6 1bbf 6d4f a0bc 60dd 09bf fd3e 0dbf
000000f0: 7f95 cabe 6da7 21bf 89c4 febe 3ec5 5d3e
00000100: 1b51 743e 62c7 1a3f 7bd3 903c 46f9 093f
00000110: ca4c 5a3f da9b b1be 536b fc3d f0bb d83e
00000120: a44b c63e 7182 e83e 05be 38bd cffe 27be
00000130: 6c86 42be 7286 15bd 2372 f83e 90f2 bc3e
00000140: 4442 653d 53c5 183e f5f9 263f 617a 5f3e
00000150: 7d11 833d 08aa 403f 4132 a43e 3c1d e73e
00000160: d0d6 9f3e 2858 1e3f 68e5 5f3f 1399 2f3e
00000170: d925 c83e 58d2 07bf fe5f fd3e 84f3 d63e
00000180: 1d58 2a3f 5937 9d3e b397 5b3e 2a1a 173e
00000190: cb06 103e 3dc1 e53e 0144 483f 3f43 95be
000001a0: 703a f33d f87a 3a3d 11f3 af3e eed6 533e
000001b0: bc53 a53e 21bc fdbd 073d f2bd 4c63 ce3d
000001c0: de67 6dbe cd7c 14be 6b12 473e ab7e a1be
000001d0: 2644 603c 35bb 853e 0a37 053e 3327 fe3d
000001e0: 544a dcbe ea3e 4c3e 2528 953e 2b1f 083e
000001f0: 1046 7f3e f88d b83e e1e0 6abf 2cc8 f1bc
00000200: 4353 18bc 6b6b 0c3f 0e5d 2bbe 4363 3abe
00000210: 3967 5cbe 770e aa3b 47bd 11bf 446f 5d3e
00000220: 643d 0f3f 1c8f d13d dad9 f5bd 64ef a63e
00000230: 0289 5d3f 6b95 d83e 58ea 383f 5604 243f
00000240: f522 26bf 24ec 55be 83e4 bfbe f0d8 2b3d
00000250: deae e9be 4b50 2cbe 024b 30bf cf9b 04bf
00000260: 9dc8 21bf b65e 233f 5440 b83e f5ae 9b3e
00000270: 79e6 81be 719c 103e 56fe 1d3f 4dc6 813e
00000280: 9439 bc3d 5c44 d83e 4df3 c7bd b3c1 cc3d
00000290: d0e2 ca3e 1064 89be d08e cb3e 4d36 c63e
000002a0: 376f 4d3c 9b87 fabc b43a 6d3d 4233 553e
000002b0: c351 4abe 71ab c9bd 3233 1e3e 2fb6 5abe
000002c0: a5cc d63d cbb0 78bb ca41 95bd baec 9abe
000002d0: d40f cf3e 3450 2abf 1ea3 29bd 84a6 0a3e
000002e0: b1e6 5fbe 06d9 8fbe 8585 6abe 2da0 2cbe
000002f0: f0df bdbe aa19 49be d5ea 2ebd f992 ce3d
00000300: 03e4 c4be 454d b53e bdc1 f53e 9c67 343e
00000310: a8b1 ef3e 1b2e a8bd 4549 363e 43e5 ebbd
00000320: 94c1 703d e4ba 993e dae4 0e3f 753b 8ebe
00000330: 8ef9 9dbd 5ce8 033f 6efb a13e 98f1 93be
00000340: f3ef 8c3e e697 28be 7703 d0be cf6c 66be
00000350: 4ab6 1e3e d6bc e3bd 348f 81be 9157 bb3d
00000360: 460d 93bc 1fef be3e 0a6c 2c3f 9345 66be
00000370: 3880 9a3e 3c9b aa3e 0183 d3bd 6d28 0e3f
00000380: c945 ca3e 46b0 da3e 3a5c 0cbf 1c22 df3c
00000390: 1b92 843c 40e3 84be 84fb 11bf bc77 c6be
000003a0: c962 3d3e 2ae2 b0be 2a36 efbe 6368 573e
000003b0: b223 cb3d 5b89 bebe 374d 7dbe 9935 bd3e
000003c0: 91e6 643e 80bc e9bd 4405 f73e f9e6 763d
000003d0: bc5a 863e 5a6b bb3d 675c 153c 94ef 943e
000003e0: bd19 483e 3bc6 273e 22cd 933e f4ba 943e
000003f0: d2bd eb3e ba9e a9bd 62f1 053f 88cb 033f
-0.4560958 -0.040862646 -0.50871915 0.20084219 -0.2805652 -0.13108629 -0.419871 -0.22933742
-0.09677681 0.17547442 0.18412185 -0.046933223 -0.26539686 0.19426562 -0.3237121 -0.026520705
0.3497364 0.5154677 -0.29377314 0.08880468 -0.15395981 0.082460314 -0.0876977 0.021689741
-0.2259202 -0.5521066 -0.5157627 -0.005084016 0.32590166 -0.03974419 -0.2752615 0.3060752
0.08505818 0.30251458 0.018202087 0.19621316 0.4650761 0.17464375 0.5784515 -0.16448976
0.6438634 0.42201594 0.2033598 0.53098845 0.1211218 0.08568347 -0.004019084 0.10222235
-0.21214496 0.23765196 0.37869552 -0.4828375 0.5466974 0.37801337 -0.592173 -0.43743858
-0.6087425 -0.019569123 -0.53853416 -0.5517424 -0.3956718 -0.63146096 -0.4975932 0.21657273
0.23859064 0.60460484 0.017678967 0.53895986 0.8527342 -0.34689218 0.12325158 0.42330885
0.38729584 0.4541202 -0.04510309 -0.16405796 -0.1899659 -0.03650517 0.4852458 0.3690381
0.0559714 0.14919023 0.65225154 0.21824028 0.0639982 0.7525945 0.3206959 0.45139492
0.31218576 0.61853266 0.8745942 0.17148237 0.39091375 -0.53055334 0.494873 0.41982663
0.665407 0.3070629 0.21444587 0.14756075 0.14065091 0.44873992 0.78228766 -0.29152867
0.118763804 0.04552743 0.34365132 0.20687458 0.32290447 -0.12389398 -0.11828046 0.10077533
-0.23184153 -0.14500733 0.1944062 -0.31541952 0.013688123 0.2611939 0.13009277 0.124098204
-0.43025458 0.19945875 0.2913219 0.1329314 0.2492907 0.36045814 -0.9174939 -0.029514395
-0.009297195 0.54851407 -0.16734716 -0.18201928 -0.21523751 0.0051897126 -0.5692944 0.21624476
0.5595305 0.10232374 -0.120044425 0.32604516 0.8653718 0.42301497 0.7223258 0.64069116
-0.6489709 -0.20890862 -0.37479028 0.041954935 -0.45641226 -0.16827504 -0.6886445 -0.51800245
-0.63196737 0.6381639 0.35986578 0.3040692 -0.2537115 0.14122178 0.6171621 0.25346604
0.0919067 0.42239654 -0.09763203 0.09997883 0.3962617 -0.26834154 0.39757395 0.38713303
0.012538723 -0.03058224 0.05791731 0.20820335 -0.19757752 -0.09847153 0.15449217 -0.2135856
0.104882516 -0.0037947174 -0.07287939 -0.30258733 0.40441763 -0.6652863 -0.041415326 0.13540083
-0.21865346 -0.28095263 -0.22902496 -0.16857977 -0.37084913 -0.19638696 -0.042704422 0.100866266
-0.3845521 0.35410514 0.47999373 0.17617649 0.46815228 -0.08211919 0.17801388 -0.115183376
0.05877836 0.300254 0.5581795 -0.27779737 -0.077136144 0.5152643 0.31637138 -0.2889526
0.27526817 -0.16464195 -0.40627643 -0.22502445 0.15499225 -0.11120002 -0.25304568 0.09147561
-0.017950665 0.3729181 0.67352355 -0.22487478 0.30175948 0.3332156 -0.103277214 0.55530435
0.39506367 0.4271261 -0.54828227 0.027237944 0.01618295 -0.25954628 -0.5702441 -0.38763225
0.18494715 -0.3454755 -0.4672101 0.21035914 0.09918918 -0.3721417 -0.24736486 0.36954954
0.22353579 -0.11412907 0.48246205 0.060278866 0.262411 0.09151335 0.009116269 0.29089034
0.19541068 0.16384213 0.2886744 0.29048884 0.4604326 -0.08282228 0.52321446 0.5148244
