checkpoints/q-mamba/20240817_010332/checkpoint-10.pt (torch, 115280 bytes, 42 tensors)

q_head.action_bin_embeddings f4 [2, 256, 9]
00000000: 78a4 353e 3ca7 24be 41e0 2c3e aa90 4a3e
00000010: 10de 693e 12d8 67be ffe5 88be 0dd0 5a3e
00000020: 60f1 4d3e c0c8 2d3e a688 25be d805 4b3e
00000030: fa90 173e 0e6b 5c3e a452 6abe 6c1e 93be
00000040: 76ed 443e e315 4d3e 838a 393e 04ea 2ebe
00000050: 9b96 1a3e d641 163e 00dd 523e 9393 80be
00000060: 15d7 85be 4742 323e 5513 773e 0349 433e
00000070: 760e 43be 863b 4e3e 861c 123e bea5 583e
00000080: 3ede 7dbe 2a04 83be 8b07 673e c8fd 393e
00000090: d303 2d3e f83e 42be b682 503e 0c73 193e
000000a0: e3f3 733e 05a5 78be cb65 9ebe a55f 693e
000000b0: ba44 6c3e cc97 253e d71a 23be 7feb 6b3e
000000c0: 58e4 083e fb38 8b3e 7857 4bbe 5f56 78be
000000d0: b1fb 433e 0276 563e 04e1 183e 7cf9 1cbe
000000e0: 4e46 2b3e 9091 173e cd5a 6b3e 9bf1 6dbe
000000f0: 5450 6dbe 5f94 633e aa48 393e 137b 403e
00000100: a947 0abe 3694 463e 73f9 313e f69d 373e
00000110: bf1c 68be 31b9 4dbe 9722 3c3e 9851 6d3e
00000120: ee6a cc3d 849a 0ebe 7925 8f3d ddf3 1e3e
00000130: 6548 5a3e 8d45 51be cc07 57be 7541 213e
00000140: 272a 103e 14a8 5f3e f5b2 23be 06e4 383e
00000150: 5759 123e 27ac 693e 378a 4cbe 8e41 78be
00000160: 3874 393e 69da 6c3e e252 513e f078 37be
00000170: 7075 473e a881 333e 3fc9 733e 0dcf 5dbe
00000180: 6913 74be 72e4 243e 0240 5c3e 5c20 4b3e
00000190: 3cee 26be 0def 403e e7fe 213e 5b34 633e
000001a0: f279 52be e756 7abe 4302 5e3e 893f 683e
000001b0: e50a 3e3e be07 27be 4935 473e 7219 443e
000001c0: 5b4b 823e bcfa 3fbe e34f 89be dd6d 653e
000001d0: 7b84 613e 41a8 3b3e 7b53 3cbe 2bd3 383e
000001e0: 7aff 2a3e fac0 743e 2001 3dbe a456 84be
000001f0: 7d54 4b3e 7389 4b3e e9bc 593e 73fe 29be
00000200: 7b7e 243e 2e58 313e e363 513e dc4d 76be
00000210: 0263 84be 80d0 703e f7d7 4c3e 8713 523e
00000220: 8a4d 2ebe eee9 3a3e 29e9 4b3e f264 913e
00000230: ae7a 5fbe 6c26 94be 18b1 6d3e 053b 363e
00000240: 5a72 4f3e 1340 29be 34e6 723e 28f6 543e
00000250: 5fed 573e 8fb4 5cbe 0eaa 92be 764d 4a3e
00000260: 9c2d 4c3e 5a40 223e 0b73 1fbe dd62 183e
00000270: d208 443e 5d63 303e 9069 3fbe 1308 96be
00000280: aac6 5b3e e59f 393e 2c66 173e d846 34be
00000290: a4be 163e ee3d 4a3e 5c3e 493e 9029 6dbe
000002a0: b06b 8cbe 972e 603e 7d5f 763e 4095 283e
000002b0: 8427 46be 3b4a 813e 7cb1 2c3e 1e73 5f3e
000002c0: 9044 64be f38a 90be 2871 513e e731 753e
000002d0: 9721 6e3e 3c9b 58be 026d 2d3e 14db 443e
000002e0: 47ec 7f3e 8870 78be 798a 81be a650 683e
000002f0: 8b33 3e3e 5854 483e 764b 29be 17ec 703e
00000300: b1a9 263e 6686 813e fa16 4fbe 5e56 83be
00000310: 9038 7d3e 35ad 443e 4dd0 273e 1017 04be
00000320: b35b 273e 741b 4e3e c103 653e be90 35be
00000330: 5819 7fbe c550 593e c42c 683e e2b1 263e
00000340: ca6f 2fbe 2700 4c3e e33a 1f3e 79cb 6a3e
00000350: c6fa 66be 3c4c 88be 1053 723e 4139 603e
00000360: 8884 683e 3fb4 20be e28e 363e 2874 483e
00000370: 0c4a 823e b613 59be 9f24 78be f3b3 753e
00000380: 6704 453e 599e 333e b1e2 12be 714f 803e
00000390: 51e9 363e d488 563e 87c1 58be 0a7f 7bbe
000003a0: a8c5 363e d230 4b3e 39fe 543e 107b 2bbe
000003b0: 5742 433e 51d5 0b3e f5f9 5c3e ceb9 67be
000003c0: 132c 7dbe 1cff 533e 5a82 713e 2347 1e3e
000003d0: 30ab 2fbe 3787 543e c08f 313e e69d 563e
000003e0: d9b1 5bbe 3ac0 68be d6d0 2e3e f129 4f3e
000003f0: bbdc 663e 405e 35be 2168 353e 9276 393e
0.17738521 -0.1607942 0.16882421 0.19781747 0.22838616 -0.22641018 -0.26737973 0.21368428
0.20111609 0.16971111 -0.16165408 0.19826448 0.14801398 0.21525213 -0.22883087 -0.28734148
0.19231209 0.2002788 0.18119244 -0.17081457 0.15096514 0.14673552 0.20592117 -0.2511259
-0.26140657 0.17408095 0.24128468 0.1907082 -0.19048485 0.20139894 0.14268693 0.21156976
-0.2479181 -0.25589114 0.22561471 0.18163216 0.1689599 -0.18969333 0.20362362 0.14985293
0.23823504 -0.242817 -0.30937037 0.22790392 0.23073092 0.16171187 -0.15928207 0.23039053
0.13368356 0.2719191 -0.19857585 -0.24251698 0.19138981 0.20943454 0.14929587 -0.15329546
0.16726038 0.14801621 0.22983856 -0.23236696 -0.23175174 0.22224568 0.18094125 0.18796949
-0.13503899 0.19392475 0.17380314 0.17931351 -0.22667216 -0.20090176 0.1837257 0.23175657
0.09981333 -0.1392613 0.06989569 0.15522714 0.21316679 -0.20436688 -0.20999068 0.15747626
0.1407858 0.2184146 -0.15986235 0.18055734 0.14291893 0.22819577 -0.199746 -0.24243757
0.1811074 0.23130192 0.20441774 -0.17917228 0.19478393 0.17529929 0.23807238 -0.21661015
-0.2383553 0.1610277 0.21508792 0.19836563 -0.16301817 0.1884119 0.15819894 0.22187941
-0.20554331 -0.24447213 0.2168055 0.22680487 0.18558843 -0.16311547 0.1945392 0.19150332
0.25448117 -0.18747991 -0.2681876 0.22405191 0.22023194 0.18325903 -0.1839122 0.18049304
0.16699019 0.2390174 -0.1845746 -0.25847352 0.19856448 0.19876651 0.2126347 -0.16600971
0.16063873 0.17318794 0.2044826 -0.24053138 -0.25856787 0.23517036 0.20004259 0.20515262
-0.17021766 0.182533 0.19913162 0.28397328 -0.21824142 -0.28935564 0.23212087 0.17795952
0.20258465 -0.16528349 0.23720628 0.20797026 0.21086644 -0.21553253 -0.28645366 0.19756112
0.19939274 0.1584486 -0.15571229 0.14881463 0.1914399 0.17225404 -0.18692613 -0.29303035
0.21462503 0.18127401 0.14785069 -0.1760515 0.14721161 0.19750187 0.19652694 -0.23160386
-0.2742591 0.21892773 0.24059863 0.16463184 -0.19351012 0.25251946 0.1686458 0.21821257
-0.2229178 -0.2823101 0.20453322 0.23944817 0.23255001 -0.21152967 0.16936114 0.19224197
0.24992476 -0.24261677 -0.2530096 0.22687015 0.1857435 0.19563425 -0.16532692 0.23527561
0.1627567 0.2529785 -0.20223609 -0.2565183 0.24728608 0.19206698 0.16388054 -0.12899423
0.16343574 0.2012766 0.22364713 -0.17730996 -0.24912012 0.21222217 0.22673327 0.16278794
-0.17132488 0.19921933 0.15549807 0.22929181 -0.225566 -0.26620662 0.23664498 0.2189684
0.22706807 -0.15693758 0.17827943 0.1957556 0.25447118 -0.21198925 -0.2423272 0.23994426
0.1923996 0.17540874 -0.14344288 0.2506061 0.1786244 0.20950633 -0.21167575 -0.2456018
0.17848837 0.19842842 0.20800103 -0.16746163 0.19068275 0.13655593 0.21579726 -0.22629473
-0.24723844 0.20702785 0.23584881 0.15456824 -0.17155147 0.20754705 0.17339993 0.20958671
-0.21454562 -0.22729579 0.17071852 0.20230843 0.2254514 -0.17711735 0.17715503 0.18111637

q_head.mamba.A_log f4 [18, 16]
00000000: 10fa 143c 9ccd 143f d97f 733f 1505 a43f
00000010: 1857 bb3f 285c e83f d4b7 e23f 1241 f33f
00000020: 5f4c 1340 db15 1640 e73b 1c40 bb77 1240
00000030: d234 2440 d55d 1b40 a6d7 1e40 498d 2440
00000040: 6a2b c03a e858 1b3f 7ab0 823f 5a1b a43f
00000050: 5575 c03f 4d38 e33f dabd eb3f 6578 fc3f
00000060: 6c15 0d40 6dbe 1140 1117 1840 87c4 1740
00000070: 9dc1 2040 6599 2240 12f6 2640 1eee 2940
00000080: 8987 703d 0598 b73e ea2d 3f3f 7df3 923f
00000090: e988 a93f 6ae3 e13f 9c3c ca3f 7155 e03f
000000a0: b689 1640 8708 1540 2c06 1a40 0f53 0940
000000b0: 8e6f 1e40 9120 1040 e2c0 1440 8cad 1940
000000c0: e64d 323d 680d dc3e 8324 513f 8463 973f
000000d0: 6b2d ad3f a64e e63f 0349 d03f fdfa e43f
000000e0: bf31 1640 d4e8 1540 967c 1b40 b949 0b40
000000f0: 7fdf 2040 c772 1240 880b 1740 768b 1b40
00000100: f5ce ce3c 1149 0e3f 9b8e 713f 0957 a13f
00000110: 8a18 ba3f 45de e93f fa1b e33f e124 f43f
00000120: 4dd7 1340 34bf 1640 0b22 1c40 a794 1340
00000130: 2cd1 2340 7779 1c40 66d8 2040 cab8 2540
00000140: 6944 e13d 1ca3 653e dee6 233f d7bb 9a3f
00000150: 88ec b13f a8d4 ec3f bf0c bf3f d0cf e53f
00000160: 2a0e 2040 8449 1f40 1090 2640 21c2 0c40
00000170: 0107 2140 8cd0 0d40 ec7b 1240 2dbf 1640
00000180: 5967 ac3d a24a fc3e b390 633f adae a63f
00000190: 2dee bd3f 388f ee3f f344 dc3f 1e38 f43f
000001a0: dd4c 1740 1a8f 1a40 fd85 2040 dc40 1340
000001b0: 8c3c 2440 342c 1940 653a 1e40 f05b 2240
000001c0: 384a 083d a2d7 043f 29a8 663f 475a 9e3f
000001d0: 7c19 b63f a70f e93f 81df dc3f 57fb ee3f
000001e0: a719 1540 9191 1640 48c9 1b40 25ae 1040
000001f0: ff95 2240 1a73 1840 8bf8 1c40 4317 2240
00000200: d368 4f3d f9c2 763e 0c59 263f a1f6 933f
00000210: 6246 aa3f f278 e23f 5492 bd3f 8721 dd3f
00000220: 0f45 1840 ef39 1740 c81c 1d40 e5ad 0740
00000230: 6e42 1b40 fe74 0b40 870b 1040 8667 1440
00000240: 5940 68b9 31be 313f a81b 8d3f 7976 b13f
00000250: f82d ce3f e332 e53f 0171 f93f f548 0540
00000260: 172e 0c40 bb2d 1340 7749 1940 6341 1f40
00000270: 4c00 2440 ff44 2940 e1d0 2d40 26a7 3140
00000280: 6842 013e 6690 fe3e 30a8 653f d2ef ab3f
00000290: 9e74 c13f 1abb f53f 9824 dd3f b2d1 f73f
000002a0: 187c 1840 1e14 1e40 b331 2440 ef6d 1440
000002b0: 039d 2c40 b0b7 1940 b0c8 1e40 7c5d 2240
000002c0: 06e3 89bd 7134 2a3f 06e3 893f 78ba ae3f
000002d0: 19f5 ce3f 179d d33f 1c8d f63f 48cd 0540
000002e0: d4f9 0f40 3ed2 0b40 0604 1240 8890 1f40
000002f0: cf48 1b40 4cdc 2540 703e 2c40 0d9c 2f40
00000300: b9d1 cbbd f029 6d3f 5e04 a93f 6c3b ba3f
00000310: b92b dd3f 722a da3f d97a 0d40 b508 1040
00000320: e8e5 0240 a31a 0b40 06af 1240 a47f 2b40
00000330: 15d7 2040 8319 3a40 3cc4 3e40 fc12 4340
00000340: 21a1 cfbc 4852 4b3f 49e1 9c3f d34d b93f
00000350: 7cf0 da3f 4127 de3f e260 0540 e205 0d40
00000360: e03f 0540 22fc 0d40 3041 1440 cf82 2740
00000370: 956a 2040 14dd 3340 dea4 3740 6547 3b40
00000380: 9f11 5bbe c332 5d3f 070d a63f 142e a63f
00000390: dd12 ca3f e2cc c73f 7bd8 0740 16ea 0640
000003a0: da5a fc3f 1906 0340 07a4 0740 a20c 2240
000003b0: ba0e 1740 e362 3440 2379 3840 6ac8 3c40
000003c0: eba3 1b39 6419 313f b332 8c3f 455c b13f
000003d0: 37c2 cd3f 476d e53f 09a4 f83f 2ad8 0440
000003e0: f0ee 0c40 e97b 1340 c193 1940 9bbf 1e40
000003f0: 8f36 2440 f782 2840 d7c9 2c40 c026 3140
0.009092823 0.58126235 0.95116955 1.2814051 1.4635954 1.8153124 1.771235 1.9004233
2.3015363 2.345084 2.4411561 2.2885578 2.565724 2.427602 2.4819121 2.5711234
0.0014661376 0.60682535 1.0210106 1.2820847 1.5035807 1.7751557 1.8417313 1.9724241
2.2044325 2.2772477 2.3764079 2.37137 2.5118172 2.5406125 2.608769 2.6551585
0.058723006 0.3585817 0.74679434 1.1480557 1.3244907 1.7647526 1.5799747 1.7526075
2.3521552 2.3286455 2.4066267 2.1456945 2.4755588 2.2519877 2.3242726 2.4012175
0.04353132 0.42978978 0.8169634 1.1827245 1.3529485 1.7992752 1.6272281 1.7889096
2.3467863 2.3423357 2.4294791 2.1763747 2.513641 2.2882555 2.3600788 2.430387
0.02524517 0.5558024 0.94358224 1.2604686 1.4538739 1.8270956 1.7742913 1.9073755
2.310016 2.35542 2.4395778 2.305948 2.5596418 2.4449136 2.513208 2.5894036
0.10999376 0.22425503 0.6402415 1.2088574 1.3900309 1.8502398 1.4925765 1.7954044
2.5008645 2.488862 2.6025429 2.1993487 2.5160525 2.2158537 2.2888136 2.3554184
0.084181495 0.4927569 0.8889267 1.3022057 1.483831 1.8637457 1.7208542 1.9079626
2.3640664 2.4149842 2.508178 2.3008337 2.5661955 2.393323 2.4723141 2.5368614
0.033273906 0.5189153 0.9010034 1.23713 1.4226527 1.8207902 1.7255708 1.8670453
2.3296907 2.3526347 2.4341602 2.260629 2.540405 2.3820252 2.4526699 2.5326698
0.050637078 0.24097814 0.64979625 1.155964 1.3302729 1.769316 1.4810281 1.7275857
2.379215 2.362911 2.4548817 2.1199887 2.4259295 2.1790156 2.2507036 2.3188186
-0.00022149216 0.69430834 1.1024065 1.386428 1.6107779 1.7906154 1.9487611 2.082578
2.190313 2.2996662 2.395109 2.488366 2.5625181 2.6448362 2.715874 2.775827
0.12622988 0.49719542 0.8970976 1.3432562 1.5113714 1.9197724 1.7276793 1.9360869
2.382574 2.4699779 2.5655334 2.3192098 2.6970832 2.4018364 2.480999 2.5369558
-0.067327544 0.6648627 1.0772407 1.3650656 1.6168548 1.6532315 1.9261813 2.0906544
2.2496233 2.1847072 2.2814956 2.4931965 2.426319 2.5915709 2.691311 2.7438996
-0.09952111 0.92642117 1.3204458 1.4549384 1.7278968 1.7044203 2.210623 2.2505314
2.0452824 2.1735008 2.2919326 2.6796656 2.5131276 2.907807 2.9807272 3.0480337
-0.025345387 0.79422426 1.2256252 1.4476875 1.710464 1.7355729 2.0840383 2.203484
2.0820236 2.218514 2.3164787 2.617359 2.5065053 2.8103685 2.8694377 2.9262326
-0.2139344 0.8640558 1.2972726 1.2982812 1.5787007 1.56094 2.122588 2.1080375
1.9715226 2.0472472 2.1193864 2.532021 2.3602738 2.8185356 2.8823936 2.9497323
0.00014843016 0.6917937 1.0952972 1.3856283 1.6074895 1.7923974 1.942506 2.0756936
2.2020836 2.3044379 2.3996432 2.4804447 2.56583 2.6329935 2.6998193 2.76799

q_head.mamba.D f4 [18]
00000000: d2aa 8f3f 6cf9 9e3f 1381 b33f 8b8e 873f
00000010: de4d af3f 8b7f 9c3f ef4a a43f 5c35 b43f
00000020: f84a ac3f cb7f b03f 56a0 a83f c8ad c53f
00000030: fac8 a33f a861 a03f e87d b33f 4866 b63f
00000040: e3a3 be3f e24a 9f3f
1.1224005 1.2419868 1.4023765 1.0590376 1.3695638 1.2226423 1.2835368 1.4078784
1.3460379 1.3788999 1.3173931 1.5443659 1.2795708 1.2529802 1.4022799 1.4249964
1.4893764 1.2444727

q_head.mamba.in_proj.weight f4 [36, 9]
00000000: 1fd1 ffbe 2d80 81bd 2ccc 08bf 8e29 2e3e
00000010: d01c a5be 2917 0dbe 3d46 cdbe 5bff 84be
00000020: a8d0 21be 51d9 563e e1ec 153e 0131 73bc
00000030: 3bc8 70be bb1f 6d3e 4407 b8be c7c3 5dbd
00000040: d6f9 bd3e dd22 0b3f 27f3 a6be 690c a63d
00000050: 8434 31be 9ede 673d f3e8 f3bd 1b25 d73c
00000060: 9eed 59be 95f4 12bf e496 10bf 7b40 1c3d
00000070: 786b ac3e 79a2 51bc 62f7 79be 0610 b23e
00000080: 8ed6 a73d aee2 8f3e 7964 453d f922 833e
00000090: 1842 fe3e 9044 323e 7fe5 183f 9330 0bbe
000000a0: 7a94 2d3f e5ff d03e 591a 3d3e 26c9 0d3f
000000b0: 7b39 2f3e 3cc6 cb3d 8aa5 debb 936c d83d
000000c0: 5d9a 52be 51bf 803e b37d be3e a743 f9be
000000d0: 0033 0d3f 9e85 d23e 5d43 1dbf 0fe9 d3be
000000e0: bf8e 1fbf 86d3 3dbd a80c 11bf eab2 06bf
000000f0: 1a6e babe a157 28bf e510 0ebf 4acc 413e
00000100: 1302 883e 248a 173f 3934 893c 5d13 043f
00000110: 7451 653f ad3d a6be 075c e03d 4945 d23e
00000120: 1da7 d33e e6a5 f63e 4f3d 2cbd 583d 14be
00000130: def4 2abe 99d7 4abc 34b1 023f 8436 c83e
00000140: 38a5 cf3d 6701 353e f976 223f 893d 743e
00000150: 4a4d c43d c75e 473f 3e35 993e 84e9 d93e
00000160: d154 ae3e ab4c 2a3f 8129 6b3f 12e8 523e
00000170: 75df d13e 21e9 00bf 31c2 0a3f 5ee4 e53e
00000180: 9c75 303f b0fc ac3e 7e16 933e 2b88 4d3e
00000190: a37e 073e d5a7 fe3e f4dd 4f3f 8f25 83be
000001a0: 3d85 df3d 37e7 283d 8644 b93e d901 503e
000001b0: e161 983e ae28 babd cb34 1fbe 5021 e43d
000001c0: a7d5 85be 7f77 e9bd 6286 653e 98b8 9fbe
000001d0: d257 1a3d fa37 983e 8e1f c43d 34ac 273e
000001e0: 3428 cdbe fd32 723e 2645 843e 574f d73d
000001f0: 1603 8b3e f4a9 be3e f467 6fbf 2a90 80bd
00000200: c47c 69bc ba79 063f b4dd 28be d1ba 59be
00000210: b5b7 7fbe d957 bebc faa0 1cbf 0a73 423e
00000220: 01f6 103f 0601 a63d e092 f2bd 95a3 9d3e
00000230: 6dd3 5f3f 3ef8 d43e 6714 393f 137b 253f
00000240: dbd0 31bf af81 77be de11 cbbe 5213 533c
00000250: 09b1 00bf f61f 47be c58c 31bf bb46 0cbf
00000260: 2daa 33bf e022 2b3f 10de c23e 5828 a23e
00000270: dc05 6fbe fce3 2f3e 6fd9 213f d157 813e
00000280: a724 e33d ec3d f33e 9d14 cebd 86a8 053e
00000290: 15fb cb3e 059b 7bbe dd5d c73e ee9b d53e
000002a0: 24e0 323d e455 0dbd cc72 763d d234 653e
000002b0: 55b2 37be 295e a4bd 820c 213e 45b5 62be
000002c0: 84d2 ed3d 2642 c3bc 98f8 04bd 555e a3be
000002d0: 0eb0 d63e e7af 32bf 3111 0abd b690 fb3d
000002e0: c869 4ebe b256 9fbe 2aad 81be d565 23be
000002f0: 5aba babe 9cac 58be 6ed9 36bc 8a23 be3d
00000300: 0959 c0be 80ed ac3e 0392 023f 1a99 4f3e
00000310: 6cf8 e93e 7f5a babd 9abc 443e a8fa 01be
00000320: d50b 913d 533e a53e b098 123f c286 94be
00000330: 87fa b2bd 2938 063f c04c ae3e 3ea4 9fbe
00000340: a9db a03e f662 36be 6f9f ccbe 8da9 7cbe
00000350: 6261 453e 4f84 a2bd 2e17 8abe fc48 aa3d
00000360: 67c6 3d3b e480 ca3e 0df4 333f bd1b 43be
00000370: 5648 a13e c847 b73e e4fe 80bd 0ae6 113f
00000380: 974b d03e 79f3 de3e 4e77 13bf d9ba ec3c
00000390: 72fc 72bb 8e14 7fbe 846b 18bf 2261 d0be
000003a0: 2486 403e 4bd6 b1be 56d2 f7be 694c 7c3e
000003b0: c6a6 bb3d 9906 b6be 7569 87be ed18 cf3e
000003c0: 580a 823e eb10 01be 1da8 f53e e578 983d
000003d0: 76d0 923e 1548 ea3d a776 303d 9ce3 983e
000003e0: 8c78 623e e0d1 463e 006d 993e 4b15 9a3e
000003f0: af5b f73e 9da9 fdbd 72c6 093f 731b 033f
-0.49964234 -0.06323276 -0.5343654 0.1700804 -0.32248545 -0.13778366 -0.4009265 -0.2597607
-0.15802252 0.20981337 0.14641143 -0.014843226 -0.23513882 0.23156635 -0.35943043 -0.054141786
0.37104672 0.5435007 -0.32607386 0.08107836 -0.1730519 0.05660879 -0.11909666 0.02626281
-0.2128205 -0.5740445 -0.5648024 0.03814743 0.33675742 -0.012795084 -0.24410775 0.3477785
0.0819522 0.2810263 0.04819152 0.2561262 0.496598 0.17408967 0.59725183 -0.13592748
0.6780468 0.40820232 0.18467082 0.55385053 0.17111771 0.099499196 -0.006794636 0.10567584
-0.20566697 0.25145963 0.37205276 -0.48684427 0.55155945 0.41117567 -0.61430913 -0.41388747
-0.6232719 -0.046344303 -0.56659937 -0.5261675 -0.36412126 -0.6575871 -0.5549453 0.18925586
0.26564083 0.5919516 0.016748535 0.51592046 0.8957741 -0.3246893 0.10955053 0.41068485
0.41338435 0.48173445 -0.042050656 -0.14476526 -0.16694972 -0.012380504 0.5105164 0.39104092
0.10138935 0.17676316 0.6346279 0.23851599 0.09585054 0.77878994 0.29923433 0.4256097
0.34049085 0.66523236 0.91860205 0.2059634 0.40990797 -0.50355726 0.5420256 0.44900793
0.6892946 0.33786535 0.28728098 0.20071475 0.13231902 0.4973742 0.8119805 -0.25614592
0.10914085 0.04123613 0.36185092 0.20313205 0.29762176 -0.0908979 -0.15547483 0.11139166
-0.26139566 -0.11399745 0.22414544 -0.3119552 0.03768141 0.29730207 0.09576331 0.16374284
-0.40069735 0.23652263 0.25834006 0.1051318 0.27150792 0.3723904 -0.93517995 -0.06277497
-0.014250938 0.5252949 -0.16490823 -0.21262671 -0.24972422 -0.023235248 -0.6118313 0.18989196
0.5662537 0.08105664 -0.118444204 0.30788866 0.87431985 0.41595644 0.72296757 0.6464092
-0.69459313 -0.24170564 -0.3966207 0.012883024 -0.50270134 -0.19445786 -0.6935542 -0.54795426
-0.7018154 0.6685009 0.38060045 0.31671405 -0.23342079 0.17176813 0.632224 0.2526231
0.11090975 0.4750818 -0.100625254 0.13052568 0.39839998 -0.24570854 0.389388 0.41720527
0.04367079 -0.03450574 0.060168073 0.2238343 -0.17939122 -0.08025772 0.15727428 -0.22139461
0.11612418 -0.023835253 -0.03246364 -0.31907907 0.41931194 -0.69799656 -0.0337078 0.12283461
-0.2015754 -0.3112083 -0.25327426 -0.15956815 -0.364703 -0.21159595 -0.011160238 0.09284122
-0.37567928 0.33774948 0.51004046 0.20273247 0.45697343 -0.09099292 0.19212571 -0.12693274
0.07082335 0.32274112 0.5726423 -0.29009062 -0.087391905 0.52429444 0.3404293 -0.31179994
0.31417587 -0.17811188 -0.39965388 -0.24674053 0.1927543 -0.07935392 -0.2697081 0.08314702
0.0028957368 0.3955146 0.70294267 -0.1905355 0.315005 0.35796952 -0.062986165 0.56991637
0.4068267 0.4354513 -0.5760392 0.02889769 -0.0037076739 -0.24910185 -0.59539056 -0.40699106
0.1880117 -0.34733805 -0.4840266 0.24638523 0.09162669 -0.3555191 -0.26447645 0.40448704
0.25398517 -0.1260411 0.47979823 0.07444934 0.28674668 0.1143953 0.043081906 0.29861152
0.22116297 0.19415998 0.29965973 0.3009437 0.48312137 -0.12385867 0.5381843 0.5121376

q_head.mamba.conv1d.weight f4 [18, 1, 4]
00000000: 5ca3 dabe a4e6 6bbe b1ae b7be 1f53 f3be
00000010: a4a8 7dbe 68b6 a13d ac3a dfbd b91b 173f
00000020: 7034 773e 600b 5a3d ce1c 2f3e d118 893e
00000030: 264f ea3e 4050 10be b23d 3e3e b6a0 873e
00000040: a0ae efbd b423 0cbe 26f6 95be d380 00bf
00000050: 3862 b63d b66b b13e 0549 29bf 640e 2bbf
00000060: 3022 713e ecea c9be edf4 2d3e 7deb 7c3f
00000070: 7e6a 833e c024 1bbe 9699 f0be 4633 2cbf
00000080: 5020 3b3d f05a 023d 1e48 1fbf 59aa 533d
00000090: 90d2 63bd 2879 793e 9bf5 4abe b0b5 6ebf
000000a0: 40d4 8cbd 40b7 fbbd 7804 693f ff93 983e
000000b0: b461 cf3e 00df 043d b672 0ebf b4c8 523f
000000c0: 787d 20be e4b2 353e 8195 623e c779 92be
000000d0: 18aa ab3d 84b1 033e 6940 d6bd 4c3d ca3e
000000e0: 50e7 2bbd 101b 40be 2038 4fbf 4aef 9f3e
000000f0: 2212 b23e 68b1 d7bd 7e13 c3be 180f 61bf
00000100: 98e3 c8be 4ad2 d73e 5938 7dbf 8abc 14bf
00000110: 88fa e6bd a0e4 253e 119d 40bf 57f4 0dbf
-0.42702758 -0.23037201 -0.35875466 -0.47524354 -0.24771363 0.07896119 -0.10899863 0.59026676
0.24141097 0.053233504 0.17100832 0.26776746 0.4576351 -0.14093113 0.18578222 0.264898
-0.11703229 -0.13685495 -0.2928936 -0.5019657 0.089054525 0.3465249 -0.66127044 -0.66818833
0.23548198 -0.39437044 0.16987963 0.98796827 0.25667185 -0.15150738 -0.46992177 -0.6726574
0.045685112 0.031825006 -0.6221942 0.051676128 -0.05562073 0.24362624 -0.19820254 -0.93245983
-0.06876421 -0.122908115 0.91022444 0.29800412 0.4050423 0.032439232 -0.55643785 0.823375
-0.15672863 0.17744023 0.22127344 -0.28608534 0.08382052 0.12860686 -0.10461504 0.3949989
-0.041968644 -0.18760324 -0.80945015 0.3123725 0.3477946 -0.105318844 -0.3810081 -0.87913656
-0.3923614 0.42152625 -0.98914105 -0.5810019 -0.11278254 0.16200495 -0.75239664 -0.5545096

q_head.mamba.conv1d.bias f4 [18]
00000000: 7a6a e43e c424 0e3e d4bd 42bf a848 513f
00000010: b708 53bf f9cf 41bf deeb 28bf eb62 59bf
00000020: e3f4 4dbf c761 28bf 2fe9 903e b3e2 2b3f
00000030: e635 5a3f b79b 923e cd8f 2f3f 1c4c 66bf
00000040: 9ad9 453f ca3a 13be
0.44612485 0.13881212 -0.76070905 0.8175149 -0.8243517 -0.75707966 -0.65984905 -0.8491656
-0.8045179 -0.65774196 0.28302905 0.6714279 0.8523849 0.28634426 0.685788 -0.89959884
0.7728516 -0.14377895

q_head.mamba.x_proj.weight f4 [33, 18]
00000000: ee2d 733e acd8 5d3e d98e 7dbe 0105 043f
00000010: 37d9 88be e7e6 cfbe 37b4 b4be 9a20 fcbe
00000020: 5145 f7be fcca 07bf b290 173e 4b76 893d
00000030: edfc 703e 09e3 b23e 7637 eebd 6f5e 0fbf
00000040: a364 af3e eaa7 f9be c7ff 953c 4da6 563e
00000050: 974b a4be 9c34 b13e cab6 a7be 5435 33be
00000060: d816 6ebd 6f49 8fbd f4f9 00be ec66 6ebe
00000070: 6756 3fbd 79ac 05be 7f8d bd3e ac1f bd3e
00000080: 63aa 2dbe ffd8 96be dab7 c23e 0ca9 4dbe
00000090: b450 13bf c7fb adbe 8433 283f 5801 15bf
000000a0: bb11 9c3e 970d cf3e ea3e 303f 74d9 db3e
000000b0: 7034 e43e c774 d13e 7116 d0be be7c 48bd
000000c0: 2ee5 23bf 9883 00bf 89b6 55be db1a 343f
000000d0: b272 37bf 1ee4 0f3f de93 a1be 5812 babe
000000e0: e8da 043f 21c4 25bf 207c 0e3f 7dba ff3e
000000f0: fc52 563e 33c4 fe3e fc6b 1b3f 3227 233f
00000100: 3c7b 1cbf 81de ffbd 0b68 aabe 7f64 99be
00000110: 9b7a adbe 920a 2d3f 50cb bfbe f9b0 f73e
00000120: 55ed 833e fc4a b43e 3fcf 7ebe 66fe 0d3f
00000130: b426 0dbf f21f 8cbe 90b7 2dbf 88fa b7be
00000140: 9201 d5be 8664 86be b53c 073f 70fc b3bc
00000150: 9338 a03e 1625 713e 0480 5c3e 97a1 e3be
00000160: 7c2a 2f3f 0f57 8bbe ab13 b33e d725 873e
00000170: daf5 1fbf c545 8f3e 9b52 b5be 2f34 04bf
00000180: 486a c6be d2aa 00bf f740 08bf ef47 16bf
00000190: bc86 ff3e 0660 35bd c561 1f3f 265f c4bb
000001a0: 25e2 cd3e 007a 11bf c6ec 333f c12f 12bf
000001b0: 754a bcbe 09c5 c0be 3168 103f ab7b 35be
000001c0: 7e2f a93e 1478 553e 3876 313e 5b85 043f
000001d0: dce7 933d 44e2 813e 05b6 06be 8004 913e
000001e0: 5a10 ffbe 7363 b6be 247c a7bd 1e8a c63e
000001f0: 8cbd 8ebd 4e90 9a3e ccaa bf3e 6221 80bd
00000200: 979f 03bf 19fc 2a3f 21d5 13bf d002 1ebf
00000210: 2dd8 2bbf 914b b9be c21b b1be 597e 77be
00000220: e55d f83e 7ad1 733e e0ae de3e aa4b 803d
00000230: a96f 8c3d af42 00bf bad6 d53e 00a6 23bf
00000240: a01c fb3e 11b1 673e 5dfa c4be 2417 b63e
00000250: d304 febe 81bd a8be f2f1 bbbe 31de 00bf
00000260: 8d05 29bf 79fc 14bf f7f3 2b3f 6653 043c
00000270: 7c94 cb3e 5100 903e f44a b93e 9df8 26bf
00000280: 4420 fc3e eed2 c2be d4e3 9e3e bfdf 03bf
00000290: c372 cebd c061 033e 01a3 c5be be3d d5be
000002a0: 93b7 59be 55d5 50be f29f a8be 324b bb3d
000002b0: a445 593e 1940 bb3e c7da 0d3e 3ee3 dbbe
000002c0: dafb 0e3f f9db 143c acff 713e 1efa 03be
000002d0: c403 893c 90b0 ba3e 0fb1 80be f615 cf3e
000002e0: 5cb0 b9be 5df2 febe 1bdb b4be 5377 82be
000002f0: 9b0f c2bd d5aa 84be bb1b d8bd 41de 97be
00000300: f920 6f3e e3ad b03e 1d34 0abe 9103 0bbf
00000310: 35d2 c43e 1bbd 57be ca09 8cbe d99e b73d
00000320: a2a7 0b3f e94e 01bf 9e87 ec3d d896 953e
00000330: 8c97 213e a1d6 8c3d fe0f fe3d 7ff8 f93e
00000340: 9c91 033e f7c8 26bb ceb4 06bf 1419 c8be
00000350: 4ad0 6b3e 07c7 d13e 07ff 7abd 6dea 443d
00000360: e4cc 023f 87c4 8b3c 814e 02bf dc2c 813e
00000370: 6c1e 0bbf 53e0 c2be 9b96 09bf 5207 07bf
00000380: 5839 19bf 2866 28bf 793c ba3e 2f0b 483e
00000390: b892 0b3f 808c c23d 2fb0 363e 6b0d d8be
000003a0: ca3e 283f 7b62 88be 3f68 db3e 5fd5 243e
000003b0: f57b 48be 768a 6a3e d518 d9be e294 57be
000003c0: 8dff cabe 5471 e4be 14ba a2be 744c b9be
000003d0: 1c03 ad3e d45c b5be c6bf cd3e 0bb3 863e
000003e0: f1d1 67be 1682 02bf 0e6f 093f 6536 92bd
000003f0: 357d af3e 5a78 583e 9071 a4be 1b09 9f3e
0.2374799 0.21664685 -0.24761523 0.51570135 -0.26728222 -0.40605852 -0.35293743 -0.49243623
-0.48295072 -0.53044105 0.1480129 0.06712016 0.23533984 0.3493884 -0.11631672 -0.5600347
0.34256467 -0.4876092 0.01831044 0.20961876 -0.3208892 0.3461045 -0.32756644 -0.17500812
-0.058127254 -0.06996428 -0.1259535 -0.23281449 -0.04671326 -0.13054074 0.37022015 0.36938226
-0.16959529 -0.2946243 0.38030893 -0.20084018 -0.5754502 -0.33981153 0.65703607 -0.58205175
0.30482277 0.40440056 0.68846 0.4293934 0.44571257 0.40909407 -0.4064212 -0.04894709
-0.64021575 -0.50200796 -0.20870413 0.7035348 -0.71659386 0.56207454 -0.31558126 -0.3634212
0.51896524 -0.64752394 0.5565815 0.49946967 0.20930094 0.49759063 0.60711646 0.6373168
-0.6112554 -0.12493611 -0.33282503 -0.29959485 -0.33882603 0.67594254 -0.37459803 0.48377207
0.25767007 0.3521346 -0.24883746 0.55466306 -0.5513718 -0.27368122 -0.6785822 -0.35933328
-0.4160276 -0.26248568 0.52827007 -0.021970958 0.31293163 0.23549303 0.21533209 -0.4445922
0.684242 -0.27214858 0.34975943 0.26396057 -0.62484515 0.27982917 -0.35414585 -0.51642126
-0.3875296 -0.5026065 -0.5322413 -0.5870351 0.49907482 -0.04428103 0.6225856 -0.005992788
0.40211597 -0.5682678 0.7028316 -0.57104117 -0.36775556 -0.37650326 0.56408983 -0.17722957
0.33044046 0.20846587 0.17330253 0.51765984 0.07221958 0.2536794 -0.13155372 0.28323746
-0.49817163 -0.3562275 -0.08177975 0.3877725 -0.06969747 0.3018822 0.37434995 -0.06256367
-0.5141539 0.6679092 -0.57747084 -0.6172304 -0.67126733 -0.36190465 -0.3459149 -0.24169292
0.48509136 0.23810378 0.43492794 0.06264432 0.06857235 -0.5010175 0.41765386 -0.6392517
0.49045277 0.22626139 -0.38472262 0.3556453 -0.49613056 -0.3295708 -0.36708027 -0.5033904
-0.66024095 -0.5819774 0.67169136 0.008076524 0.39761722 0.2812524 0.36189997 -0.65223104
0.49243367 -0.38051552 0.31033194 -0.51513284 -0.10080483 0.12830257 -0.38600925 -0.41648668
-0.21261434 -0.2039388 -0.3293453 0.09145202 0.21217972 0.3657234 0.13852988 -0.4294681
0.55853045 0.009085649 0.23632687 -0.12888381 0.016725428 0.36462831 -0.25135085 0.40446442
-0.36267364 -0.49794284 -0.35323414 -0.25481662 -0.09475633 -0.25911584 -0.10552164 -0.29661754
0.23352422 0.34507665 -0.13496442 -0.54302317 0.38441625 -0.21068232 -0.27351218 0.08965845
0.5455266 -0.5051103 0.115493044 0.29216647 0.15780467 0.06876875 0.12405394 0.488224
0.12848514 -0.0025449374 -0.52619636 -0.39081633 0.23028675 0.40972158 -0.06127837 0.04807513
0.5109389 0.017061485 -0.5090104 0.25229537 -0.54343295 -0.3806177 -0.5374543 -0.52745545
-0.59853125 -0.6578088 0.36374262 0.19535516 0.5452075 0.094994545 0.17840646 -0.42197737
0.6572081 -0.26637635 0.4285297 0.1609702 -0.19578536 0.22904381 -0.42401758 -0.21052888
-0.39648095 -0.44617712 -0.3178259 -0.36191142 0.33791435 -0.35422385 0.40185374 0.26308474
-0.2263868 -0.50979745 0.5368508 -0.07139281 0.34275213 0.2113966 -0.3211789 0.31061634

q_head.mamba.dt_proj.weight f4 [18, 1]
00000000: ad30 683f 875e 5c3f d047 5cbd 27a9 2c3f
00000010: 3865 d2be f622 973f 9868 acbe d705 62be
00000020: e598 123f 797c 85be 8cad 45bf 3bdf da3e
00000030: 98b6 e93d a9a1 2fbe 4f23 513e 2d3c c9be
00000040: 6c2a 8e3f 5643 613e
0.90699273 0.8608174 -0.053779423 0.67445606 -0.4109285 1.1807544 -0.3367355 -0.2207254
0.5726455 -0.26071528 -0.77217937 0.42748436 0.1141178 -0.17151512 0.20423625 -0.39303723
1.1106696 0.21998343

q_head.mamba.dt_proj.bias f4 [18]
00000000: 7e91 acc0 db79 a6c0 f6a4 53c0 ccd1 a1c0
00000010: 6067 aac0 5ad2 02c0 59e7 57c0 f3e4 a7c0
00000020: 269a 2cc0 2959 c9c0 9949 8fc0 750b 65c0
00000030: e6d2 86c0 c1a7 cec0 5e87 02c0 0953 bcc0
00000040: ff88 fdbf 4b49 03c0
-5.3927603 -5.202375 -3.3069434 -5.05686 -5.325119 -2.0440888 -3.3734953 -5.246698
-2.6969085 -6.292134 -4.477734 -3.5788243 -4.2132444 -6.457978 -2.0395122 -5.885136
-1.9807433 -2.0513484

q_head.mamba.out_proj.weight f4 [9, 18]
00000000: b64c dcbd fe34 c83e a40d 85be 9145 6bbe
00000010: 965c ec3d 60aa d73e 8d18 523e 3bde 09bf
00000020: 9355 393e a905 fe3e 6074 c33e e333 e1be
00000030: 2152 d1be 83b7 71be 56ee 443e ee95 8a3e
00000040: d516 153f cb09 9a3c 33e5 823b e05e 7abe
00000050: fa78 2c3f 91de 6d3e 1085 1bbe 54eb a5be
00000060: 0979 bfbe 2e9a 233f a887 dfbe fad2 14bf
00000070: 58a2 fbbe a218 873e fde7 a03e c6fd ae3e
00000080: e55f adbe 52da a0be 4245 11bf c7e6 833e
00000090: 4819 b5be dff8 033f 8d66 03bf bb6d 37be
000000a0: e105 07be cf4e 0d3f 5f6d 063d 5a44 fbbe
000000b0: 4961 0d3f 5f8b 163d d68c ee3e a344 033e
000000c0: 5b4b 94be 48bc 80be 8b74 3c3e 53ef 633e
000000d0: 566e be3e e66c 933d 9c94 86be ada6 213e
000000e0: 47bb 80be 27ea 2bbd 738d 7ebd 2a0e cd3e
000000f0: 4fed 873e c028 b5be 361d ef3e e3e2 a03e
00000100: 8ded ac3e 8145 a2be 31d6 73be d807 adbe
00000110: aa34 063e 694d 2e3f cc25 a73e 6823 6cbe
00000120: 3ff3 ed3d 6de5 c8bc a359 43bd 3d9e e33c
00000130: cce5 d93e 0635 32bd 7cbf 123d 99b8 a0be
00000140: e5da 8c3e 86fd 883e 8976 8bbe 3f1d a7be
00000150: 456c c1be 7842 d1be bfb6 17bf 562f 603e
00000160: a74a 863e 2729 9e3e d7ac 7d3e 09d2 d9be
00000170: 64f8 463e f002 24be 817c 29bf 270b b23e
00000180: b69e f1be 29ea 2e3e d685 b03c c47e 11bf
00000190: 64b8 9e3e 9a10 303f 2a09 b33e cad0 883e
000001a0: 2c4e 1e3f cc34 2fbf 2dc1 74be 354a 13bf
000001b0: 201f 453e a1e8 94be 10af 88bd 7cb7 323e
000001c0: bcc0 3ebe 2725 c1bd e8a8 6bbe 1590 683d
000001d0: 959c 303e c4a7 66bd 98a8 ba3e 3035 023f
000001e0: 9eed b73e 00ce 093e 71c7 093f d841 c8be
000001f0: 81f6 febd d00f 39be 9d83 d6be 13f5 343d
00000200: 3b0a d5be 3ea0 d5be 6650 35be 05eb ec3e
00000210: 6c87 473c fbdd a8be f354 373e 0875 933c
00000220: 527f a43e 80db 7ebe 27d5 14be 25c2 81be
00000230: 98cb 963e e66a f83e b76f 253f 039a 41be
00000240: 2a9d 30be f753 853e 57db 143e ded6 2d3e
00000250: 4200 a93e a3aa 3bbe 4466 cd3d 0504 de3d
00000260: f312 6dbe 2ef3 153e 0279 94be 4464 babe
00000270: 25b1 cbbe c14b 023b 3092 19bf d8f7 e83e
00000280: 7a86 4ebe 23ae b53e
-0.10756819 0.3910293 -0.2598697 -0.22975756 0.11541097 0.42122173 0.20517178 -0.5385472
0.1809905 0.49613693 0.38174725 -0.439849 -0.40882972 -0.2360516 0.19231543 0.27067512
0.58237964 0.018803498 0.003994608 -0.24450254 0.67372096 0.23229434 -0.15187478 -0.32406104
-0.3739703 0.63907135 -0.43658185 -0.58134425 -0.49147296 0.2638598 0.31426993 0.3417799
-0.33862224 -0.31416565 -0.56746304 0.25762007 -0.3537085 0.5155162 -0.51328355 -0.17912953
-0.13185836 0.5519838 0.03281915 -0.49075586 0.5522657 0.03675401 0.46591824 0.12819152
-0.28963742 -0.25143647 0.18403833 0.22259264 0.37193555 0.07198505 -0.26285255 0.15786238
-0.2514288 -0.041971352 -0.062146615 0.4004987 0.2654824 -0.35382652 0.46701974 0.314231
0.33774987 -0.31693652 -0.23812176 -0.33795047 0.13106027 0.6808687 0.32646024 -0.23060381
0.11618661 -0.024523461 -0.047692906 0.027785415 0.42558134 -0.0435076 0.035827145 -0.31390837
0.27510753 0.26755923 -0.27238873 -0.326395 -0.37777916 -0.40871024 -0.59263223 0.21893057
0.2622883 0.30890772 0.24772964 -0.42543057 0.19430691 -0.16016746 -0.662056 0.34774134
-0.471914 0.17081513 0.021548193 -0.56834054 0.31000054 0.6877533 0.3496793 0.26721793
0.6183803 -0.68439937 -0.23901816 -0.57535106 0.19250154 -0.29083732 -0.066740155 0.17452806
-0.1862821 -0.09430914 -0.23013651 0.056778032 0.17247231 -0.056312338 0.36456752 0.5086241
0.35923475 0.13457489 0.5381995 -0.39112735 -0.12449361 -0.18072438 -0.41897288 0.044179033
-0.41609368 -0.41723818 -0.17706451 0.46273056 0.012178283 -0.32981858 0.179035 0.01800014
0.32128388 -0.2488842 -0.14534436 -0.25343433 0.29452205 0.48519057 0.6462359 -0.18906407
-0.17247453 0.26040623 0.14536797 0.16976497 0.3300801 -0.18326811 0.10029271 0.108406104
-0.2315176 0.14643547 -0.28998572 -0.36404622 -0.39783588 0.0019881579 -0.5998869 0.4550159
-0.20168486 0.35484418

q_head.final_norm.gamma f4 [9]
00000000: 0000 803f 0000 803f 0000 803f 0000 803f
00000010: 0000 803f 0000 803f 0000 803f 0000 803f
00000020: 0000 803f
1.0 1.0 1.0 1.0 1.0 1.0 1.0 1.0
1.0

ema_model.q_head.action_bin_embeddings f4 [2, 256, 9]
00000000: 496a 353e e37b 24be f7e3 2c3e af67 4a3e
00000010: 1fa4 693e 7f97 67be cfc7 88be 2f9a 5a3e
00000020: 43cc 4d3e da0d 2d3e 19d3 24be ac07 4b3e
00000030: a7f3 163e 1fba 5b3e d581 69be 5fd8 92be
00000040: 0841 443e 092c 4d3e 590b 393e 6782 2ebe
00000050: 9d96 1a3e d7e2 153e 8d5b 523e a34b 80be
00000060: a596 85be 8acf 313e 43cc 763e 2f1c 433e
00000070: 5bef 42be 074a 4e3e 01fc 113e d271 583e
00000080: 23a5 7dbe 84e9 82be 35e1 663e 07f8 393e
00000090: 23e6 2c3e 492e 42be e28d 503e 6262 193e
000000a0: 28d1 733e be81 78be 7b48 9ebe 6145 693e
000000b0: 9724 6c3e e424 253e 57c1 22be 8304 6c3e
000000c0: ff92 083e 1efd 8a3e 72d8 4abe 6bca 77be
000000d0: 1492 433e 902a 563e 9469 183e 388c 1cbe
000000e0: 9752 2b3e 1134 173e 0fec 6a3e 0b6c 6dbe
000000f0: 20e3 6cbe 1e27 633e 94f9 383e 5031 403e
00000100: 6cfb 09be 3ffd 463e c6ca 313e c850 373e
00000110: 68b1 67be 3953 4dbe 5ae6 3b3e d132 6d3e
00000120: 3d0b c93d 1f33 0dbe b1ac 8d3d 4da2 1d3e
00000130: 2fb8 583e e3b5 4fbe 448d 55be 119b 1f3e
00000140: 34e6 0f3e ac98 5d3e 6292 21be 8375 383e
00000150: a069 103e edba 673e 9c4a 4abe 53de 76be
00000160: dd84 373e 5c7e 6e3e cdfb 503e 982b 37be
00000170: 3784 473e ff43 333e 5072 733e 1363 5dbe
00000180: bdac 73be 1a97 243e 3617 5c3e d5bb 4a3e
00000190: 608f 26be f6f9 403e 95ad 213e 1bd6 623e
000001a0: 7007 52be dbfb 79be 40a6 5d3e ef0f 683e
000001b0: 5cc6 3d3e 5ccf 26be 2747 473e 3de9 433e
000001c0: 6d28 823e 1ca9 3fbe 0d28 89be 8e30 653e
000001d0: e967 613e c730 3b3e 9ee4 3bbe ccc6 383e
000001e0: a597 2a3e a04d 743e e284 3cbe ac26 84be
000001f0: 23e2 4a3e f199 4b3e ba92 593e ebe2 29be
00000200: 0c84 243e 1a3c 313e 8b32 513e 021e 76be
00000210: c83d 84be 2da9 703e 27bf 4c3e 705c 513e
00000220: 709a 2dbe f987 3a3e 6b3c 4b3e af08 913e
00000230: cbba 5ebe 76e4 93be 58fe 6c3e cec9 363e
00000240: 9a61 4e3e af38 28be 9aed 713e 39f0 533e
00000250: d5d5 563e 93a1 5bbe 2c39 92be 2f3d 493e
00000260: ed51 4d3e 71d5 213e 7d2d 1fbe 476e 183e
00000270: 86c2 433e 17ed 2f3e 48f8 3ebe 61b9 95be
00000280: f960 5b3e 4355 393e 7a1b 173e 070d 34be
00000290: 4ec9 163e bd0a 4a3e b9ee 483e 9cd4 6cbe
000002a0: 6334 8cbe 12e9 5f3e 352a 763e 9320 283e
000002b0: 36c3 45be 4839 813e 874a 2c3e bbf4 5e3e
000002c0: 8dce 63be 6443 90be 2600 513e 3364 753e
000002d0: acee 6d3e c36a 58be b05b 2d3e 05b1 443e
000002e0: 8ab8 7f3e 0e35 78be 8c75 81be aa21 683e
000002f0: 1f3f 3e3e af23 483e 862b 29be 7af0 703e
00000300: b389 263e b069 813e dce0 4ebe 002f 83be
00000310: a309 7d3e c794 443e 524b 273e 41a7 03be
00000320: ff6b 273e 93b6 4d3e 9f79 643e fee9 34be
00000330: 6184 7ebe 72de 583e 63bd 673e 5b6a 263e
00000340: 133c 2fbe 510a 4c3e b809 1f3e 937e 6a3e
00000350: 4cab 66be 2218 88be 9012 723e 6b09 603e
00000360: e131 683e b472 20be 3d9b 363e 1738 483e
00000370: b720 823e 8cb4 58be 48d0 77be 586a 753e
00000380: 5ccb 443e c677 333e 99c5 12be 4e47 803e
00000390: 33cb 363e ce5c 563e 2f9a 58be fd38 7bbe
000003a0: a3a0 363e b437 4b3e 8ae3 543e 9479 2bbe
000003b0: 2757 433e b7cb 0b3e 50cd 5c3e 4293 67be
000003c0: f3d7 7cbe 57ea 533e 8329 713e 962b 1e3e
000003d0: f790 2fbe 7e85 543e 2a7c 313e 3884 563e
000003e0: 9288 5bbe 78a4 68be edbb 2e3e 6b18 4f3e
000003f0: 13cc 663e c15f 35be 2577 353e d06f 393e
0.17716326 -0.16062884 0.16883837 0.19766115 0.22816513 -0.22616385 -0.26714942 0.21347879
0.20097451 0.16899815 -0.16096152 0.19827145 0.14741383 0.21457718 -0.22803433 -0.28680703
0.19165432 0.2003633 0.18070735 -0.17041932 0.15096517 0.14637314 0.20542736 -0.25057706
-0.26091495 0.17364326 0.24101357 0.1905372 -0.1903662 0.20145427 0.14256288 0.21137169
-0.24770026 -0.25568783 0.22546847 0.18161021 0.16884665 -0.18962969 0.20366624 0.14978936
0.23810256 -0.24268243 -0.30914673 0.22780372 0.23060833 0.16127354 -0.15894066 0.23048596
0.13337325 0.27146238 -0.1980913 -0.2419831 0.19098693 0.20914674 0.14884025 -0.15287864
0.16730724 0.14765956 0.22941612 -0.23185746 -0.23133516 0.22182891 0.18063956 0.18768811
-0.13474816 0.19432543 0.17362508 0.1790191 -0.22626269 -0.20051278 0.18349591 0.23163916
0.09816597 -0.13789032 0.06917704 0.15393944 0.2116401 -0.20284228 -0.2085467 0.15586497
0.1405266 0.21640271 -0.15778497 0.18013577 0.14102793 0.226299 -0.19755024 -0.24108247
0.17921777 0.2329039 0.20408554 -0.17887723 0.1948403 0.17506407 0.23774076 -0.21619825
-0.23796363 0.16073266 0.2149323 0.19798215 -0.1626563 0.18845353 0.15788873 0.22151987
-0.2051065 -0.24412481 0.2164545 0.22662328 0.185327 -0.16290039 0.19460736 0.19131942
0.25421467 -0.18716854 -0.2678837 0.22381803 0.22012295 0.18280326 -0.1834893 0.18044585
0.1665941 0.23857737 -0.18410066 -0.25810754 0.19812827 0.19882943 0.21247378 -0.16590469
0.16065997 0.17308083 0.20429437 -0.24034885 -0.25828385 0.23502035 0.19994794 0.20445418
-0.16953444 0.18215932 0.19847266 0.28326938 -0.21750943 -0.2888524 0.231439 0.1785042
0.2015442 -0.16427873 0.23625794 0.20697106 0.20980008 -0.21448354 -0.28559244 0.19652246
0.20050783 0.15804078 -0.15544696 0.14885817 0.19117174 0.17180286 -0.186494 -0.29242995
0.21423711 0.18098931 0.14756575 -0.17583095 0.14725229 0.19730659 0.19622315 -0.23127979
-0.27383718 0.21866253 0.24039538 0.16418676 -0.19312748 0.25239015 0.16825305 0.21773045
-0.22246762 -0.28176415 0.20410213 0.23964004 0.23235577 -0.21134476 0.16929507 0.19208153
0.2497274 -0.24238989 -0.25284994 0.22669092 0.18578766 0.19544862 -0.16520509 0.23529235
0.16263466 0.25275946 -0.20202965 -0.25621796 0.24710707 0.19197379 0.16337326 -0.12856771
0.16349791 0.20089178 0.2231202 -0.17667386 -0.24855186 0.21178606 0.22630839 0.16251509
-0.1711276 0.1992581 0.15531051 0.22899847 -0.22526282 -0.26580912 0.23639894 0.21878593
0.22675277 -0.15668756 0.17832656 0.19552647 0.25415584 -0.21162623 -0.24200547 0.23966348
0.192182 0.17526159 -0.1433319 0.250544 0.17850952 0.2093384 -0.21152566 -0.24533458
0.17834716 0.19845468 0.20789924 -0.16745597 0.19076215 0.1365193 0.21562696 -0.22614768
-0.24691753 0.20694862 0.23550992 0.15446314 -0.17145143 0.20754048 0.17332521 0.20948875
-0.21438816 -0.2271899 0.17063875 0.20224158 0.22538786 -0.17712308 0.17721231 0.1810906

ema_model.q_head.mamba.A_log f4 [18, 16]
00000000: 65fa 143c cecd 143f 0b80 733f 4705 a43f
00000010: 4a57 bb3f 5a5c e83f 06b8 e23f 4441 f33f
00000020: 914c 1340 0d16 1640 193c 1c40 ed77 1240
00000030: 0435 2440 075e 1b40 d8d7 1e40 7b8d 2440
00000040: 272a c03a b658 1b3f 48b0 823f 281b a43f
00000050: 2375 c03f 1b38 e33f a8bd eb3f 3378 fc3f
00000060: 3a15 0d40 3bbe 1140 df16 1840 55c4 1740
00000070: 6bc1 2040 3399 2240 e0f5 2640 eced 2940
00000080: 558b 703d 299c b73e 7730 3f3f daf4 923f
00000090: db8a a93f 20e4 e13f fa3e ca3f 0758 e03f
000000a0: 558a 1640 0209 1540 b106 1a40 a354 0940
000000b0: 5970 1e40 1322 1040 c7c2 1440 2daf 1940
000000c0: de4e 323d af0e dc3e 5125 513f f163 973f
000000d0: 022e ad3f d84e e63f d049 d03f dffb e43f
000000e0: f131 1640 06e9 1540 c87c 1b40 454a 0b40
000000f0: bcdf 2040 4f73 1240 400c 1740 0a8c 1b40
00000100: 27cf ce3c 4349 0e3f cd8e 713f 3a57 a13f
00000110: bc18 ba3f 77de e93f 2c1c e33f 1325 f43f
00000120: 7fd7 1340 64bf 1640 3322 1c40 d994 1340
00000130: 5ed1 2340 a979 1c40 98d8 2040 fcb8 2540
00000140: cb44 e23d 53f5 663e 2b30 243f d8d1 9a3f
00000150: 6c00 b23f 27d8 ec3f 181e bf3f 22d9 e53f
00000160: 5c0e 2040 b649 1f40 3a90 2640 6fc3 0c40
00000170: 3307 2140 b0d1 0d40 de7c 1240 bcbf 1640
00000180: 2767 ac3d 6e4a fc3e 8190 633f 7bae a63f
00000190: fbed bd3f 068f ee3f c144 dc3f ec37 f43f
000001a0: ab4c 1740 e88e 1a40 cb85 2040 aa40 1340
000001b0: 5a3c 2440 022c 1940 333a 1e40 be5b 2240
000001c0: 6a4a 083d d4d7 043f 5ba8 663f 795a 9e3f
000001d0: ae19 b63f d90f e93f b3df dc3f 89fb ee3f
000001e0: d919 1540 c191 1640 7ac9 1b40 57ae 1040
000001f0: 3196 2240 4c73 1840 bdf8 1c40 7517 2240
00000200: e9c4 4f3d 1328 773e e974 263f 5e04 943f
00000210: c056 aa3f 927f e23f 45a3 bd3f 2732 dd3f
00000220: 3748 1840 753c 1740 2c1f 1d40 4ab5 0740
00000230: b945 1b40 a77b 0b40 fa12 1040 b46d 1440
00000240: 8b40 68b9 3fbe 313f cf1b 8d3f a276 b13f
00000250: 072e ce3f 1533 e53f f270 f93f 1449 0540
00000260: 492e 0c40 ed2d 1340 a949 1940 6c41 1f40
00000270: 7e00 2440 0845 2940 cfd0 2d40 29a7 3140
00000280: 9a42 013e 9890 fe3e 62a8 653f 04f0 ab3f
00000290: d074 c13f 4cbb f53f ca24 dd3f e4d1 f73f
000002a0: 4a7c 1840 5014 1e40 e531 2440 216e 1440
000002b0: 359d 2c40 e2b7 1940 e2c8 1e40 ae5d 2240
000002c0: 49df 89bd 0d39 2a3f bfe5 893f 15bd ae3f
000002d0: 9cf8 ce3f 3b9e d33f 3791 f63f 63cf 0540
000002e0: bcfa 0f40 eed2 0b40 ba04 1240 c892 1f40
000002f0: e649 1b40 66de 2540 ec40 2c40 299e 2f40
00000300: ebd1 cbbd 7529 6d3f 1604 a93f 383b ba3f
00000310: 4e2b dd3f 402a da3f 8c7a 0d40 6808 1040
00000320: b6e5 0240 711a 0b40 d4ae 1240 3a7f 2b40
00000330: e3d6 2040 1619 3a40 b1c3 3e40 8412 4340
00000340: 53a1 cfbc 1652 4b3f 17e1 9c3f a14d b93f
00000350: 4af0 da3f 1b27 de3f b060 0540 b005 0d40
00000360: ef3f 0540 41fc 0d40 4941 1440 9d82 2740
00000370: 636a 2040 e2dc 3340 aca4 3740 3347 3b40
00000380: e6cc 5abe 987d 5d3f 8033 a63f 5450 a63f
00000390: 6339 ca3f 8de0 c73f 3ceb 0740 a4fc 0640
000003a0: de71 fc3f 110f 0340 4aad 0740 431c 2240
000003b0: 1319 1740 cf6e 3440 bb85 3840 b1d2 3c40
000003c0: 89a3 1b39 5319 313f b632 8c3f 495c b13f
000003d0: 34c2 cd3f 676d e53f fda3 f83f 1ed8 0440
000003e0: beee 0c40 167c 1340 e593 1940 95bf 1e40
000003f0: b036 2440 f882 2840 dbc9 2c40 c526 3140
0.009092902 0.58126533 0.95117253 1.281411 1.4636014 1.8153183 1.771241 1.9004292
2.3015482 2.3450959 2.441168 2.2885697 2.5657358 2.427614 2.481924 2.5711353
0.0014661 0.6068224 1.0210047 1.2820787 1.5035747 1.7751497 1.8417253 1.9724182
2.2044206 2.2772357 2.376396 2.3713582 2.5118053 2.5406005 2.608757 2.6551466
0.058726627 0.35861328 0.74683326 1.1480973 1.32455 1.7647743 1.5800469 1.7526864
2.352193 2.3286748 2.4066584 2.1457908 2.4756072 2.2520797 2.3243883 2.401317
0.043532245 0.42979953 0.81697565 1.1827375 1.3529665 1.7992811 1.6272526 1.7889365
2.3467982 2.3423476 2.429491 2.176408 2.5136557 2.2882879 2.3601227 2.4304223
0.025245262 0.5558054 0.9435852 1.2604744 1.4538798 1.8271016 1.7742972 1.9073814
2.3100278 2.3554316 2.4395874 2.30596 2.5596538 2.4449255 2.5132198 2.5894156
0.110482775 0.22554521 0.64136 1.2095289 1.3906379 1.8503464 1.4931059 1.7956889
2.5008764 2.488874 2.602553 2.1994283 2.5160644 2.2159233 2.2888713 2.3554525
0.08418112 0.49275535 0.8889237 1.3021997 1.4838251 1.8637397 1.7208482 1.9079566
2.3640544 2.4149723 2.508166 2.3008218 2.5661836 2.393311 2.4723022 2.5368495
0.03327409 0.5189183 0.9010064 1.237136 1.4226587 1.8207961 1.7255768 1.8670512
2.3297026 2.352646 2.4341722 2.2606409 2.540417 2.3820372 2.4526818 2.5326817
0.050724898 0.24136381 0.6502214 1.1563833 1.3307724 1.7695181 1.4815451 1.728093
2.3794076 2.363065 2.4550276 2.12044 2.4261305 2.1794221 2.2511582 2.3191957
-0.00022149288 0.6943092 1.1024112 1.3864329 1.6107796 1.7906214 1.9487593 2.0825853
2.190325 2.299678 2.3951209 2.488368 2.56253 2.6448383 2.7158697 2.7758276
0.12623063 0.4971969 0.89710057 1.3432622 1.5113773 1.9197783 1.7276852 1.9360929
2.382586 2.4699898 2.5655453 2.3192217 2.6970952 2.4018483 2.481011 2.5369678
-0.067320414 0.664933 1.0773238 1.3651453 1.616962 1.6532663 1.9263066 2.0907829
2.2496786 2.1847491 2.2815385 2.4933338 2.4263854 2.5916991 2.6914625 2.7440283
-0.09952148 0.92641383 1.3204372 1.4549322 1.727884 1.7044144 2.2106047 2.250513
2.0452704 2.1734889 2.2919207 2.6796403 2.5131156 2.9077811 2.980694 3.048005
-0.02534548 0.7942213 1.2256192 1.4476815 1.710458 1.7355684 2.0840263 2.2034721
2.0820272 2.2185214 2.3164847 2.617347 2.5064933 2.8103566 2.8694258 2.9262207
-0.21367225 0.86519766 1.2984467 1.2993264 1.5798763 1.5615402 2.1237326 2.10917
1.972225 2.0477946 2.1199517 2.532975 2.3609054 2.8192632 2.8831623 2.9503596
0.00014842873 0.69179267 1.0952976 1.3856288 1.6074891 1.7924012 1.9425045 2.0756907
2.2020717 2.3044486 2.3996518 2.4804432 2.5658379 2.6329937 2.6998203 2.7679913

ema_model.q_head.mamba.D f4 [18]
00000000: 54a1 8f3f 1df6 9e3f 6354 b33f cb82 873f
00000010: 9f2a af3f f077 9c3f ff28 a43f b800 b43f
00000020: 9d39 ac3f 7259 b03f 3675 a83f 45fb c43f
00000030: 147f a33f 2e62 a03f d94a b33f 3d22 b63f
00000040: 8841 be3f 342c 9f3f
1.1221108 1.2418858 1.4010128 1.058679 1.3684882 1.2224102 1.2825011 1.4062719
1.3455082 1.3777297 1.316077 1.5389181 1.2773156 1.2529962 1.4007217 1.4229199
1.4863749 1.2435365

ema_model.q_head.mamba.in_proj.weight f4 [36, 9]
00000000: 6bc1 fdbe e486 6cbd 90b2 07bf 06ae 333e
00000010: 4489 a3be 77f4 07be a824 cebe aaab 82be
00000020: d340 1dbe de51 543e ee0e 173e b557 93bc
00000030: 581f 76be ab7e 6a3e ac45 b7be b094 53bd
00000040: d025 bc3e f776 0a3f 7301 a6be ddc7 a93d
00000050: f0eb 2ebe ffd0 753d 3700 f1bd 7320 e53c
00000060: cfc2 5abe 1f58 12bf ed12 10bf 5d6d 0c3d
00000070: 21bb a93e af08 8bbc 986d 7fbe 828a b03e
00000080: 1518 9e3d 4ec4 903e 2734 333d aaef 803e
00000090: 1b8d fd3e 6d15 313e 917b 183f a5ff 0dbe
000000a0: eb49 2d3f 5675 d03e 95d1 3d3e d053 0d3f
000000b0: fd42 2d3e d213 c73d fab1 04bc cb00 d43d
000000c0: b7a7 54be 50bb 7f3e 1ddb bd3e aaca f8be
000000d0: f1ad 0c3f 745d d13e befa 1cbf 182b d5be
000000e0: 126a 1fbf eefa 40bd 28b6 10bf 4649 07bf
000000f0: 233f bbbe bc3c 28bf 3bb2 0dbf 43b5 423e
00000100: 2c28 883e 89d5 173f 3518 953c 9e40 043f
00000110: 6f5e 653f f478 a6be 6dad e23d b094 d23e
00000120: 15c2 d23e cfba f53e 256e 33bd 6d7e 16be
00000130: 44f4 2abe fcc4 68bc cb34 023f b651 c73e
00000140: 90bd cb3d 4fd3 323e 65e6 223f b91a 723e
00000150: f4dc bf3d b1da 463f bf23 9a3e f1f0 da3e
00000160: f83e ad3e 49c4 293f e80c 6a3f 0919 4f3e
00000170: 84e8 cf3e 73f0 01bf 7e0b 0a3f fa05 e43e
00000180: 0087 2f3f 8612 ab3e ce2a 903e 1bdd 493e
00000190: 57bd 033e 3979 fb3e 3a11 4e3f 045d 84be
000001a0: 8514 d93d daf0 2c3d e110 b63e bfa2 4d3e
000001b0: e445 993e 03aa bcbd 1071 1dbe 7ff7 e43d
000001c0: e169 84be 80a6 ecbd aa86 623e c0ee 9ebe
000001d0: f826 203d 4ff2 963e 0ce4 c53d fd28 243e
000001e0: fee4 cfbe 358e 6f3e fae8 843e 2a64 dc3d
000001f0: 11fc 883e 9b6f bd3e 9bde 6ebf 49f6 76bd
00000200: 1ea4 3fbc 7725 073f b7e5 2abe 3c10 57be
00000210: 4a43 7cbe 44f6 abbc 1756 1cbf 0de4 413e
00000220: 7b9c 113f 7d1e a63d 8e53 efbd 3144 9d3e
00000230: b864 603f 6491 d53e f526 393f 7d58 253f
00000240: ee8e 30bf b31e 72be 47c2 c8be 76dc 913c
00000250: 539d ffbe b9ea 41be 6f20 31bf 961c 0bbf
00000260: e40f 32bf b03b 2a3f 11fe c03e 7669 a03e
00000270: 96ff 72be d17a 2d3e 45f3 203f 0056 813e
00000280: 1926 dc3d c620 f13e 5dbb ccbd 210d 033e
00000290: 1afc cb3e 44f9 7dbe 6edd c73e 395a d43e
000002a0: 374f 2c3d a5d3 0ebd 5572 793d 51d0 643e
000002b0: 5d17 37be 01f5 a4bd cb74 213e a7fc 62be
000002c0: 4009 ef3d 8a75 bebc 6a18 06bd 4d4c a3be
000002d0: c805 d63e 3704 32bf 2769 0dbd eceb fd3d
000002e0: bb04 50be 8002 9ebe 68b3 80be 8fec 23be
000002f0: 746a bbbe 018e 57be 790e 61bc 6945 bf3d
00000300: 2421 c1be 84a0 ad3e aded 013f cac9 4d3e
00000310: 6b15 ea3e 7ef9 b7bd f8ee 433e 41cf 01be
00000320: 21fb 8e3d be57 a43e 7163 123f b464 94be
00000330: ad84 b1bd 26f5 053f 64d0 ad3e 4198 9ebe
00000340: 8ab9 9d3e 6ef0 35be beb0 cebe 37ea 79be
00000350: f734 3f3e d685 a9bd 5249 8abe 2781 ae3d
00000360: fd9a 353b 5474 c93e 50b2 333f 4507 46be
00000370: de57 a13e 6a4a b63e 4026 83bd 9e8d 113f
00000380: 0c3c d03e 188a de3e 1ffe 12bf b232 e93c
00000390: 98eb 2dbb 2f0d 80be bbf7 17bf d7b9 cfbe
000003a0: 5754 403e 2842 b2be 7d0d f7be ae7e 773e
000003b0: 1731 bc3d 9ae3 b7be 3060 86be 35bc cc3e
000003c0: 26a7 803e a082 01be ab68 f63e 428a 983d
000003d0: 83df 913e 84de e83d e197 263d 5002 993e
000003e0: cdb3 603e cdda 453e 53e9 983e a018 9a3e
000003f0: 8ab8 f63e 5d60 f9bd 6282 093f 6223 033f
-0.4956163 -0.05774583 -0.5300684 0.17546853 -0.31940663 -0.1327685 -0.40262341 -0.25521594
-0.1535676 0.20734355 0.14751789 -0.017986158 -0.24035394 0.22899882 -0.35795343 -0.05165547
0.367476 0.54087776 -0.3242298 0.08290074 -0.1708219 0.060013767 -0.11767619 0.027969575
-0.21363376 -0.5716571 -0.5627888 0.034283984 0.3315058 -0.016971914 -0.2494415 0.34480673
0.07719437 0.2827477 0.04375091 0.2518285 0.49521717 0.1729333 0.5956355 -0.13867052
0.67690915 0.4071452 0.1853698 0.5520601 0.16920085 0.09720577 -0.008099074 0.10351714
-0.20767103 0.24973798 0.37081233 -0.4859212 0.54952914 0.40891612 -0.613201 -0.4163444
-0.62271225 -0.047114305 -0.5652795 -0.5284618 -0.36571607 -0.65717673 -0.55350083 0.19014458
0.2659315 0.59310204 0.01820002 0.516611 0.8959722 -0.32514155 0.110682346 0.41129065
0.41163698 0.47994086 -0.043806214 -0.14696665 -0.16694742 -0.014207121 0.50861806 0.38929528
0.099482656 0.1746342 0.63632804 0.23643006 0.09368315 0.77677447 0.30105397 0.4276195
0.33837104 0.6631513 0.91425943 0.20224394 0.40607083 -0.5075752 0.53923786 0.4453581
0.6856537 0.3341257 0.28157657 0.19713251 0.12865196 0.49115923 0.80495036 -0.25852215
0.10599617 0.04222188 0.35559753 0.20081614 0.29936135 -0.09212115 -0.15375161 0.11180019
-0.2586203 -0.11555195 0.22121683 -0.31041527 0.039099663 0.29481742 0.09662637 0.16031261
-0.40604395 0.23394091 0.25958997 0.10761292 0.2675481 0.3699921 -0.9330842 -0.06029347
-0.011696843 0.5279154 -0.16689192 -0.21002287 -0.24635044 -0.020991452 -0.6106886 0.1893465
0.56879395 0.08111284 -0.11685859 0.30716088 0.87653685 0.41712487 0.7232507 0.6458815
-0.68968093 -0.23644523 -0.39210722 0.01780532 -0.49924716 -0.18937196 -0.69190115 -0.54340494
-0.695555 0.66497326 0.37693837 0.3133046 -0.23730311 0.16941382 0.628712 0.25260925
0.10749454 0.47095317 -0.09996674 0.12797977 0.39840776 -0.24802119 0.39036125 0.41475084
0.042067733 -0.03486981 0.06090005 0.22345091 -0.17880006 -0.08054543 0.15767209 -0.22166692
0.11671686 -0.023249406 -0.032738127 -0.3189415 0.41801286 -0.6953768 -0.03452411 0.12398514
-0.20314305 -0.30861282 -0.25136876 -0.16008209 -0.36604655 -0.21050264 -0.013736361 0.09339411
-0.37720597 0.33911526 0.5075329 0.20096508 0.45719466 -0.08983134 0.19134128 -0.12676717
0.06981493 0.32098192 0.57182986 -0.2898308 -0.08667884 0.5232719 0.33948052 -0.30975536
0.30805618 -0.17767498 -0.4036922 -0.24405752 0.18672548 -0.0827748 -0.27009064 0.085207276
0.0027710788 0.39346564 0.7019396 -0.1933871 0.3151235 0.35603648 -0.0640378 0.56856716
0.40670812 0.43464732 -0.5741901 0.028466556 -0.002653813 -0.25010058 -0.5936238 -0.40571472
0.18782173 -0.34816098 -0.48252478 0.24169418 0.09189051 -0.35915834 -0.2624526 0.3998734
0.25127524 -0.12647486 0.4812673 0.074482456 0.28490838 0.113705665 0.040672187 0.29884577
0.21943589 0.19321747 0.29865512 0.30096912 0.48187667 -0.12176583 0.53714573 0.51225865
