checkpoints/q-mamba/20240817_010332/checkpoint-9.pt (torch, 115222 bytes, 42 tensors)

q_head.action_bin_embeddings f4 [2, 256, 9]
000000 ee 84 35 3e 20 8f 24 be cc df 2c 3e e9 7d 4a 3e
       0.1772649 -0.16070223 0.16882247 0.19774593
000010 5f c0 69 3e 1f aa 67 be 05 d7 88 be 81 b7 5a 3e
       0.2282729 -0.2262349 -0.26726547 0.21359064
000020 be df 4d 3e 99 42 2b 3e bb bf 22 be f1 9a 4a 3e
       0.20104882 0.16724624 -0.15893452 0.19785668
000030 0e 3a 15 3e f9 30 5a 3e a6 76 67 be 8c b9 92 be
       0.14572927 0.21307744 -0.22603855 -0.28657186
000040 d3 92 42 3e 3c 53 4f 3e 52 63 39 3e 32 cb 2e be
       0.19001321 0.20246595 0.18104294 -0.170697
000050 a7 93 1a 3e 43 2a 16 3e 26 b9 52 3e 33 78 80 be
       0.15095387 0.14664559 0.20578441 -0.25091705
000060 5b c5 85 be ff 22 32 3e 8d ff 76 3e 0f 2d 43 3e
       -0.26127133 0.17396162 0.24120922 0.19060157
000070 f5 f9 42 be 91 3b 4e 3e f4 0b 12 3e dd 8a 58 3e
       -0.19040664 0.2013991 0.14262372 0.21146722
000080 9b b5 7d be 54 f6 82 be d6 f1 66 3e 9a ed 39 3e
       -0.24776308 -0.25578558 0.2255319 0.18157044
000090 c7 f7 2c 3e ee 35 42 be 91 82 50 3e 0b 6c 19 3e
       0.16891395 -0.18965885 0.20362307 0.14982621
0000a0 8c e8 73 3e 24 93 78 be 17 60 9e be 57 56 69 3e
       0.23819178 -0.2427488 -0.30932686 0.22786842
0000b0 12 3e 6c 3e 42 42 25 3e 09 d8 22 be 0d eb 6b 3e
       0.23070553 0.16138557 -0.15902723 0.23038884
0000c0 5b b0 08 3e d6 10 8b 3e 84 db 4a be 70 04 78 be
       0.13348524 0.27161282 -0.19810301 -0.24220443
0000d0 ef b8 43 3e d0 45 56 3e b1 89 18 3e 5a b3 1c be
       0.19113515 0.20925069 0.14896275 -0.15302792
0000e0 bf 44 2b 3e 02 5c 17 3e 85 09 6b 3e 48 73 6d be
       0.16725443 0.14781192 0.2295285 -0.23188508
0000f0 b5 fe 6c be 09 50 63 3e ef 19 39 3e 51 21 40 3e
       -0.23144038 0.221985 0.18076299 0.18762709
000100 ed cd 09 be 70 91 46 3e 3b aa 31 3e df 54 37 3e
       -0.1345746 0.19391418 0.17350094 0.1790347
000110 d7 97 67 be b9 69 4d be df d7 3b 3e 6a 8a 6d 3e
       -0.22616516 -0.20059861 0.18344067 0.23197332
000120 19 ea c7 3d 71 04 0d be 9c 30 8d 3d 45 65 1d 3e
       0.097614475 -0.13771226 0.06894037 0.15370663
000130 97 2f 58 3e 58 23 4f be ca f4 54 be 41 1e 1f 3e
       0.21111904 -0.20228326 -0.20796505 0.15538885
000140 22 38 0f 3e b4 bb 5c 3e f7 a0 20 be f5 1b 38 3e
       0.13986257 0.21555978 -0.15686403 0.17979415
000150 35 9a 0f 3e 5d 02 67 3e 0b 4a 49 be da 8c 76 be
       0.14023669 0.22559495 -0.19657151 -0.24077168
000160 a0 ba 36 3e 8f 41 6f 3e d2 03 51 3e bf 1b 37 be
       0.1784463 0.23364852 0.20411614 -0.17881678
000170 92 73 47 3e fe 4b 33 3e 24 88 73 3e 68 4d 5d be
       0.1947768 0.17509457 0.23782402 -0.2161156
000180 aa e1 73 be 57 a6 24 3e 51 3f 5c 3e e0 ea 4a 3e
       -0.23816553 0.16079079 0.21508528 0.1981616
000190 e0 c1 26 be 83 ee 40 3e ff dd 21 3e e3 02 63 3e
       -0.16284895 0.18840985 0.15807341 0.2216907
0001a0 67 2a 52 be cf 25 7a be bd d8 5d 3e 95 25 68 3e
       -0.20523988 -0.24428485 0.2166471 0.22670586
0001b0 90 e8 3d 3e f9 ed 26 be 37 35 47 3e 0e 05 44 3e
       0.18545747 -0.16301717 0.19453894 0.19142553
0001c0 1f 3b 82 3e 68 c8 3f be 4b 3f 89 be 4c 53 65 3e
       0.2543573 -0.18728793 -0.268061 0.22395056
0001d0 e3 70 61 3e c2 7d 3b 3e 79 3a 3c be dc d2 38 3e
       0.22015719 0.18309692 -0.1838168 0.18049186
0001e0 be e5 2a 3e fb 91 74 3e 82 d0 3c be cf 38 84 be
       0.16689202 0.23883812 -0.18438914 -0.25824592
0001f0 03 30 4b 3e 2c 70 4b 3e e0 a6 59 3e 2c ee 29 be
       0.19842534 0.19867009 0.21255064 -0.16594762
000200 4b 7e 24 3e 41 4b 31 3e d9 4e 51 3e c6 2d 76 be
       0.16063802 0.17313863 0.20440234 -0.24040899
000210 4c 58 84 be 5b bf 70 3e 82 cb 4c 3e 73 26 4f 3e
       -0.25848615 0.23510496 0.19999507 0.20229511
000220 4f 4e 2b be e2 cc 38 3e a8 09 49 3e 7d f7 8f 3e
       -0.16729091 0.18046907 0.1963259 0.28118506
000230 81 79 5c be 78 cd 93 be 5f cc 6a 3e 5c 19 39 3e
       -0.21530725 -0.28867698 0.22929524 0.1807608
000240 8b 36 4c 3e 17 02 26 be ef 25 70 3e b4 c4 51 3e
       0.19942681 -0.16211735 0.2345197 0.20485193
000250 99 b9 54 3e ac 6d 59 be 7f 7c 91 be 58 18 47 3e
       0.20773925 -0.21233243 -0.28415295 0.1944288
000260 ea 45 4f 3e 2a e3 21 3e 1f 2c 1f be 1f 5e 18 3e
       0.20241514 0.15809312 -0.15544175 0.14879654
000270 b5 cf 43 3e ee 0a 30 3e 57 ea 3e be b3 db 95 be
       0.19122203 0.1719167 -0.18644081 -0.2926918
000280 f7 7b 5b 3e 36 6c 39 3e bd 42 17 3e 48 2b 34 be
       0.21434008 0.18107685 0.14771552 -0.17594635
000290 26 bd 16 3e bc 28 4a 3e 73 1d 49 3e bd f6 6c be
       0.14720592 0.19742101 0.1964014 -0.23140998
0002a0 30 5b 8c be ae 12 60 3e ad 4c 76 3e 50 8c 28 3e
       -0.2741332 0.21882126 0.24052687 0.16459775
0002b0 0a 23 46 be 41 4a 81 3e fa ab 2c 3e e9 67 5f 3e
       -0.19349304 0.25251964 0.16862479 0.21816982
0002c0 92 3b 64 be 8d 80 90 be 08 69 51 3e 3f 2c 75 3e
       -0.2228835 -0.28223076 0.20450222 0.2394266
0002d0 f7 0c 6e 3e 3c 82 58 be 08 6b 2d 3e 49 ce 44 3e
       0.23247133 -0.2114343 0.1693536 0.19219317
0002e0 19 dc 7f 3e c9 50 78 be e3 86 81 be 1c 40 68 3e
       0.24986304 -0.24249567 -0.25298223 0.22680706
0002f0 aa 36 3e 3e 38 35 48 3e bd 34 29 be 78 ec 70 3e
       0.1857554 0.19551551 -0.16524024 0.23527706
000300 6f 97 26 3e 6a 77 81 3e 78 e9 4e be c0 46 83 be
       0.16268705 0.25286418 -0.20206249 -0.25639915
000310 55 20 7d 3e d4 9a 44 3e d6 5c 27 3e ce bc 03 be
       0.24719365 0.19199687 0.16344008 -0.12864992
000320 a3 58 27 3e c9 d4 4d 3e 87 97 64 3e 4d ed 34 be
       0.16342406 0.20100702 0.22323428 -0.17668648
000330 a4 ab 7e be c6 f5 58 3e 75 eb 67 3e 7c 90 26 3e
       -0.24870163 0.21187505 0.22648413 0.16266054
000340 44 56 2f be e2 ff 4b 3e 0c 27 1f 3e ff ab 6a 3e
       -0.17122751 0.1992183 0.15542239 0.22917174
000350 9e c9 66 be 3d 3c 88 be 2e 39 72 3e 51 26 60 3e
       -0.22537848 -0.26608458 0.23654625 0.21889617
000360 08 70 68 3e aa a4 20 be ff 8e 36 3e 17 68 48 3e
       0.22698987 -0.15687814 0.17827986 0.19570957
000370 80 40 82 3e f3 f4 58 be b9 10 78 be 3e a4 75 3e
       0.25439835 -0.2118719 -0.24225129 0.23988435
000380 9e f8 44 3e 5b 6d 33 3e a7 c8 12 be 65 4f 80 3e
       0.19235465 0.17522185 -0.14334355 0.25060573
000390 10 cc 36 3e 2a 4e 56 3e a0 8e 58 be 64 26 7b be
       0.17851281 0.20928255 -0.21148157 -0.24526364
0003a0 1b 9a 36 3e 8c 13 4b 3e 8d e2 54 3e 20 69 2b be
       0.17832224 0.19831675 0.20789547 -0.16739321
0003b0 bb 41 43 3e 51 c4 0b 3e b5 dc 5c 3e cf 97 67 be
       0.19068043 0.13649108 0.21568568 -0.22616504
0003c0 3a 08 7d be 00 e8 53 3e dc 72 71 3e 65 ec 1d 3e
       -0.2471017 0.2069397 0.23578972 0.15422209
0003d0 77 47 2f be 3a 85 54 3e b4 49 31 3e 73 4c 56 3e
       -0.17117105 0.20753947 0.17313272 0.209276
0003e0 b1 3b 5b be 31 77 68 be 31 83 2e 3e 29 0b 4f 3e
       -0.21409489 -0.22701718 0.17042233 0.20219101
0003f0 f9 d7 66 3e db 5a 35 be 10 68 35 3e d3 73 39 3e
       0.22543325 -0.1771044 0.17715478 0.1811059

q_head.mamba.A_log f4 [18, 16]
000000 64 fa 14 3c a2 cd 14 3f e1 7f 73 3f 17 05 a4 3f
       0.009092901 0.5812627 0.95117 1.2814053
000010 1e 57 bb 3f 28 5c e8 3f dd b7 e2 3f 1c 41 f3 3f
       1.4635961 1.8153124 1.7712361 1.9004245
000020 5f 4c 13 40 db 15 16 40 e7 3b 1c 40 c0 77 12 40
       2.3015363 2.345084 2.4411561 2.288559
000030 d2 34 24 40 da 5d 1b 40 ad d7 1e 40 4f 8d 24 40
       2.565724 2.4276032 2.4819138 2.5711248
000040 fb 2a c0 3a e8 58 1b 3f 7a b0 82 3f 5a 1b a4 3f
       0.0014661247 0.60682535 1.0210106 1.2820847
000050 55 75 c0 3f 4d 38 e3 3f da bd eb 3f 65 78 fc 3f
       1.5035807 1.7751557 1.8417313 1.9724241
000060 6c 15 0d 40 6d be 11 40 11 17 18 40 87 c4 17 40
       2.2044325 2.2772477 2.3764079 2.37137
000070 9d c1 20 40 65 99 22 40 12 f6 26 40 1e ee 29 40
       2.5118172 2.5406125 2.608769 2.6551585
000080 a9 8e 70 3d 22 a0 b7 3e 04 33 3f 3f 3a f6 92 3f
       0.0587298 0.3586436 0.7468722 1.1481392
000090 1c 8d a9 3f c8 e4 e1 3f ee 41 ca 3f 56 5b e0 3f
       1.3246188 1.7647943 1.580137 1.7527874
0000a0 0a 8b 16 40 63 09 15 40 4f 07 1a 40 d8 56 09 40
       2.3522363 2.328698 2.406696 2.1459255
0000b0 19 71 1e 40 1e 24 10 40 a6 c5 14 40 7e b1 19 40
       2.475653 2.2522044 2.3245635 2.4014583
0000c0 bf 4f 32 3d bc 0f dc 3e f6 25 51 3f 38 64 97 3f
       0.043533083 0.42980754 0.8169855 1.1827459
0000d0 8e 2e ad 3f 02 4f e6 3f 89 4a d0 3f ab fc e4 3f
       1.3529832 1.7992861 1.6272746 1.7889608
0000e0 18 32 16 40 0f e9 15 40 e7 7c 1b 40 c9 4a 0b 40
       2.3468075 2.3423498 2.4294984 2.1764395
0000f0 ec df 20 40 c9 73 12 40 f9 0c 17 40 9c 8c 1b 40
       2.513667 2.288317 2.3601668 2.430457
000100 04 cf ce 3c 13 49 0e 3f 9f 8e 71 3f 09 57 a1 3f
       0.025245197 0.5558025 0.9435825 1.2604686
000110 8d 18 ba 3f 45 de e9 3f 00 1c e3 3f e8 24 f4 3f
       1.4538742 1.8270956 1.774292 1.9073763
000120 4d d7 13 40 34 bf 16 40 0b 22 1c 40 aa 94 13 40
       2.310016 2.35542 2.4395778 2.3059487
000130 2c d1 23 40 7a 79 1c 40 6c d8 20 40 cf b8 25 40
       2.5596418 2.4449143 2.5132093 2.5894048
000140 ab d7 e4 3d 63 04 6b 3e 7b 17 25 3f b3 17 9b 3f
       0.11173948 0.22950892 0.64488953 1.2116607
000150 6f 41 b2 3f dd db ec 3f b6 55 bf 3f af f0 e5 3f
       1.3926219 1.8504597 1.4948032 1.7964076
000160 33 0e 20 40 8b 49 1f 40 10 90 26 40 66 c4 0c 40
       2.5008667 2.4888637 2.6025429 2.1994872
000170 09 07 21 40 58 d2 0d 40 4e 7d 12 40 d3 bf 16 40
       2.5160544 2.2159634 2.288898 2.355458
000180 3b 67 ac 3d 46 4a fc 3e 78 90 63 3f 92 ae a6 3f
       0.08418127 0.49275416 0.88892317 1.3022025
000190 fc ed bd 3f 2f 8f ee 3f b0 44 dc 3f d3 37 f4 3f
       1.4838252 1.8637446 1.7208462 1.9079536
0001a0 d5 4c 17 40 15 8f 1a 40 f5 85 20 40 ae 40 13 40
       2.3640645 2.414983 2.508176 2.3008227
0001b0 80 3c 24 40 09 2c 19 40 25 3a 1e 40 be 5b 22 40
       2.5661926 2.3933127 2.4722989 2.5368495
0001c0 52 4a 08 3d af d7 04 3f 3e a8 66 3f 4e 5a 9e 3f
       0.033274002 0.5189161 0.9010047 1.2371309
0001d0 8c 19 b6 3f a8 0f e9 3f 9b df dc 3f 75 fb ee 3f
       1.4226546 1.8207903 1.7255739 1.8670489
0001e0 a8 19 15 40 91 91 16 40 49 c9 1b 40 37 ae 10 40
       2.329691 2.3526347 2.4341605 2.2606332
0001f0 03 96 22 40 2b 73 18 40 a6 f8 1c 40 59 17 22 40
       2.540406 2.3820293 2.4526763 2.532675
000200 e5 31 50 3d 65 13 78 3e a6 b8 26 3f e4 25 94 3f
       0.050828833 0.24226148 0.651255 1.1574063
000210 13 83 aa 3f 40 8b e2 3f ca d1 bd 3f 97 5f dd 3f
       1.3321251 1.7698746 1.4829648 1.7294797
000220 ad 4d 18 40 1a 40 17 40 80 23 1d 40 6d c9 07 40
       2.379741 2.3632874 2.4552917 2.121669
000230 1b 4b 1b 40 ff 8c 0b 40 94 27 10 40 ae 7d 14 40
       2.426459 2.1804807 2.2524157 2.3201709
000240 ad 40 68 b9 31 be 31 3f a8 1b 8d 3f 79 76 b1 3f
       -0.00022149338 0.69430834 1.1024065 1.386428
000250 f8 2d ce 3f e3 32 e5 3f 01 71 f9 3f f5 48 05 40
       1.6107779 1.7906154 1.9487611 2.082578
000260 17 2e 0c 40 bb 2d 13 40 77 49 19 40 63 41 1f 40
       2.190313 2.2996662 2.395109 2.488366
000270 4c 00 24 40 ff 44 29 40 e1 d0 2d 40 26 a7 31 40
       2.5625181 2.6448362 2.715874 2.775827
000280 6b 42 01 3e 8f 90 fe 3e 46 a8 65 3f db ef ab 3f
       0.12622993 0.49719664 0.8970989 1.3432573
000290 b2 74 c1 3f 1d bb f5 3f b2 24 dd 3f d4 d1 f7 3f
       1.5113738 1.9197727 1.7276824 1.936091
0002a0 1b 7c 18 40 1e 14 1e 40 b6 31 24 40 03 6e 14 40
       2.3825748 2.4699779 2.565534 2.3192146
0002b0 09 9d 2c 40 c3 b7 19 40 cf c8 1e 40 93 5d 22 40
       2.6970847 2.401841 2.4810064 2.5369613
0002c0 21 de 89 bd 8c 3c 2a 3f 0c e8 89 3f 3c bf ae 3f
       -0.06731821 0.6649864 1.077394 1.365211
0002d0 7e fc ce 3f d3 9e d3 3f 51 96 f6 3f 0b d2 05 40
       1.6170805 1.6532844 1.9264623 2.090945
0002e0 5e fb 0f 40 3e d3 0b 40 58 05 12 40 ea 95 1f 40
       2.2497172 2.1847682 2.2815762 2.493525
0002f0 92 4a 1b 40 1a e1 25 40 ac 44 2c 40 03 a1 2f 40
       2.4264264 2.591864 2.6916914 2.7442024
000300 1e d2 cb bd f5 28 6d 3f ca 03 a9 3f ee 3a ba 3f
       -0.09952186 0.9264062 1.3204281 1.4549234
000310 d9 2a dd 3f 49 2a da 3f 34 7a 0d 40 13 08 10 40
       1.7278701 1.7044154 2.2105837 2.2504928
000320 c6 e5 02 40 8a 1a 0b 40 e3 ae 12 40 be 7e 2b 40
       2.0452743 2.1734948 2.2919242 2.6796107
000330 d8 d6 20 40 95 18 3a 40 f0 c2 3e 40 f1 11 43 40
       2.513113 2.9077504 2.980648 3.04797
000340 21 a1 cf bc 48 52 4b 3f 49 e1 9c 3f d3 4d b9 3f
       -0.025345387 0.79422426 1.2256252 1.4476875
000350 7c f0 da 3f 41 27 de 3f e2 60 05 40 e2 05 0d 40
       1.710464 1.7355729 2.0840383 2.203484
000360 e0 3f 05 40 22 fc 0d 40 30 41 14 40 cf 82 27 40
       2.0820236 2.218514 2.3164787 2.617359
000370 95 6a 20 40 14 dd 33 40 de a4 37 40 65 47 3b 40
       2.5065053 2.8103685 2.8694377 2.9262326
000380 be 04 5a be f2 85 5e 3f de ba a6 3f 36 cb a6 3f
       -0.21290872 0.86923134 1.3025777 1.3030765
000390 6f c2 ca 3f 53 28 c8 3f aa 2e 08 40 47 3f 07 40
       1.5840586 1.5637306 2.1278481 2.1132371
0003a0 f7 c4 fc 3f 84 2f 03 40 87 d1 07 40 a2 56 22 40
       1.9747609 2.0497751 2.1221635 2.5365376
0003b0 9f 3e 17 40 1e 9c 34 40 d5 b5 38 40 13 fa 3c 40
       2.363197 2.8220286 2.8860981 2.9527633
0003c0 eb a2 1b 39 64 19 31 3f b3 32 8c 3f 45 5c b1 3f
       0.00014842644 0.6917937 1.0952972 1.3856283
0003d0 37 c2 cd 3f 47 6d e5 3f 09 a4 f8 3f 2a d8 04 40
       1.6074895 1.7923974 1.942506 2.0756936
0003e0 f0 ee 0c 40 e9 7b 13 40 c1 93 19 40 9b bf 1e 40
       2.2020836 2.3044379 2.3996432 2.4804447
0003f0 8f 36 24 40 f7 82 28 40 d7 c9 2c 40 c0 26 31 40
       2.56583 2.6329935 2.6998193 2.76799

q_head.mamba.D f4 [18]
000000 00 a1 8f 3f 96 fd 9e 3f 2f fe b2 3f 69 4b 87 3f
       1.1221008 1.2421138 1.3983821 1.0569888
000010 50 ca ae 3f be 23 9c 3f 58 30 a4 3f f1 8e b3 3f
       1.3655491 1.2198408 1.2827253 1.4027997
000020 ef e8 ab 3f 61 5d b0 3f c2 dd a7 3f 76 44 c4 3f
       1.3430461 1.3778497 1.311455 1.5333393
000030 ba 58 a3 3f 20 9f a0 3f a0 bb b2 3f ac ff b5 3f
       1.2761452 1.2548561 1.3963509 1.421865
000040 ba 77 bd 3f a7 cb 9e 3f
       1.4802163 1.24059

q_head.mamba.in_proj.weight f4 [36, 9]
000000 49 80 f9 be ef f4 47 bd d2 76 05 bf 56 d5 3c 3e
       -0.48730686 -0.04881757 -0.5213443 0.18440756
000010 d6 17 a0 be 55 c1 fe bd af 04 d1 be f3 81 7c be
       -0.31268185 -0.12439219 -0.40823886 -0.24658947
000020 9c f2 14 be 4a 3c 4e 3e b9 b9 1c 3e df 1c cb bc
       -0.14545673 0.20140186 0.15305223 -0.02479404
000030 0b 04 7e be b2 2a 64 3e 06 53 b4 be e3 af 38 bd
       -0.2480623 0.22281912 -0.35219592 -0.045089614
000040 76 b9 b8 3e 81 df 08 3f 8e 9c a3 be 8b 0f b1 3d
       0.36078995 0.5346604 -0.3195538 0.08645543
000050 0b f9 28 be a0 3f 89 3d 82 56 e9 bd cc 3d 00 3d
       -0.16501252 0.06701589 -0.11393453 0.031308934
000060 bc 04 5e be 28 db 10 bf db f9 0e bf 03 e2 d6 3c
       -0.21681494 -0.56584406 -0.5585 0.026230818
000070 f6 4f a5 3e fe cb d0 bc b7 37 84 be 09 31 ad 3e
       0.32287568 -0.025487896 -0.25823757 0.33826473
000080 0b b9 8d 3d 5c 9d 93 3e 3a 9d 10 3d a3 ce 79 3e
       0.0692006 0.28830993 0.035306193 0.24395232
000090 9d ba fb 3e c3 e4 2e 3e 3b 4e 17 3f 60 f7 13 be
       0.49165812 0.17079453 0.59103745 -0.14449835
0000a0 14 8d 2c 3f ec 64 cf 3e c5 63 40 3e ad 26 0c 3f
       0.6740277 0.40506685 0.18788059 0.54746515
0000b0 bc 94 29 3e 72 02 ba 3d cc 78 5e bc d7 11 c6 3d
       0.16560644 0.09082498 -0.013578605 0.096713714
0000c0 37 89 5b be c9 94 7a 3e b8 fc ba 3e 15 e3 f6 be
       -0.21439062 0.2447082 0.36520934 -0.48220125
0000d0 86 ff 0a 3f 0f 8e ce 3e 43 ff 1b bf 79 d0 d7 be
       0.5429615 0.40342757 -0.60936373 -0.4215124
0000e0 f9 78 1e bf b3 08 38 bd 6f a2 0f bf e4 8b 08 bf
       -0.6190334 -0.04493017 -0.5610723 -0.53338456
0000f0 57 7d bd be 95 7a 27 bf 2c 9e 0c bf ec 20 45 3e
       -0.3700969 -0.6542142 -0.5492885 0.1925084
000100 36 cc 88 3e cd ac 18 3f 21 ca ba 3c 52 c6 04 3f
       0.267183 0.59638673 0.02280146 0.5186511
000110 61 b7 65 3f a0 5e a7 be 10 6b e9 3d c9 be d3 3e
       0.8973294 -0.3268938 0.11397374 0.41356495
000120 03 a0 d0 3e a8 d6 f2 3e c6 cb 4b bd 56 f3 1c be
       0.4074708 0.47429395 -0.04975488 -0.153272
000130 5d 64 29 be a4 67 a3 bc d2 f6 00 3f 3b 5d c4 3e
       -0.16542192 -0.01994688 0.5037662 0.3835238
000140 da 08 ca 3d 22 d8 2c 3e 4b 3c 24 3f 12 bf 6b 3e
       0.098649696 0.16879323 0.641545 0.23022106
000150 6b f3 b2 3d 32 66 45 3f db bf 9c 3e f3 d4 dd 3e
       0.087378345 0.7710906 0.30615124 0.4332653
000160 ab 41 aa 3e a0 4c 28 3f 5e cb 67 3f ff c5 46 3e
       0.33253226 0.6574192 0.9054469 0.19411467
000170 a4 74 cb 3e 6b 17 04 bf 55 94 08 3f 96 d6 df 3e
       0.39737427 -0.51598233 0.53351337 0.43718404
000180 88 08 2e 3f 34 cc a6 3e f5 88 8b 3e 00 0e 44 3e
       0.6798177 0.3257767 0.27252927 0.19145966
000190 4f dd 04 3e ca 33 f8 3e 32 19 4d 3f bc ca 86 be
       0.12975048 0.48477012 0.8011657 -0.2632655
0001a0 7b 3b dc 3d 77 46 43 3d 4c a6 b3 3e 10 fc 47 3e
       0.107535325 0.047674622 0.35087812 0.19529748
0001b0 c7 42 9b 3e e6 a5 c9 bd 9e b5 1e be c8 4b da 3d
       0.30324385 -0.09846096 -0.15498969 0.106589854
0001c0 5e f4 80 be 27 22 fa bd 27 f5 5a 3e 1b b0 a0 be
       -0.25186437 -0.12213545 0.2138258 -0.31384358
0001d0 e0 f8 37 3d a4 f3 93 3e d0 05 d1 3d dd 28 1d 3e
       0.04491508 0.2889682 0.10206187 0.1534762
0001e0 dd 58 d3 be cd 38 69 3e e1 d1 87 3e 37 ea e9 3d
       -0.41278735 0.22775574 0.26527312 0.11421626
0001f0 53 93 85 3e 9e 43 ba 3e 0d 09 6e bf 91 7a 5a bd
       0.26088962 0.36379713 -0.9298256 -0.053339545
000200 0d 2f 88 bb 8c fa 08 3f 62 90 31 be e0 c8 4f be
       -0.0041559995 0.53507304 -0.17340234 -0.20291471
000210 07 68 74 be f2 4e 65 bc b3 f9 1c bf a7 53 3e 3e
       -0.23867808 -0.013995873 -0.6131851 0.18586598
000220 d0 b2 12 3f 9d 43 9f 3d af 0e f3 bd d8 5f 9b 3e
       0.57304096 0.07776568 -0.11868035 0.3034656
000230 24 6a 61 3f 5b 76 d7 3e f8 7b 38 3f 9f 6b 24 3f
       0.8805258 0.42082486 0.7206416 0.64226717
000240 79 27 2e bf 7e 08 69 be 7d 21 c4 be 3d e3 d8 3c
       -0.6802898 -0.22757146 -0.383068 0.026475543
000250 6d 17 fc be 10 d9 38 be 04 35 31 bf d0 e1 08 bf
       -0.49236622 -0.18051553 -0.6922152 -0.5346956
000260 1b 8a 2f bf 7b 3c 28 3f 1f 2d bd 3e ba 5e 9c 3e
       -0.6857011 0.65717286 0.36948487 0.3054102
000270 84 d1 7a be 38 e4 27 3e 29 06 1f 3f 6e 81 82 3e
       -0.24493986 0.16395652 0.62118775 0.25489372
000280 ff 9f cc 3d 89 3e ed 3e 35 60 c6 bd 4a be fc 3d
       0.09991454 0.46336773 -0.09686319 0.12340982
000290 e9 66 cd 3e c2 e2 7d be eb cd c9 3e 62 10 d2 3e
       0.40117577 -0.24793532 0.39414915 0.41028124
0002a0 d6 a2 1b 3d ca 81 07 bd c1 95 84 3d 80 ba 63 3e
       0.03799709 -0.03308276 0.06473876 0.22239113
0002b0 9c 9f 35 be 6f 48 a7 bd ee 64 20 3e 50 72 64 be
       -0.17736667 -0.081681125 0.15663502 -0.22309232
0002c0 8b c1 f1 3d 5a 5b b3 bc 7d 0e 09 bd 1a 10 a4 be
       0.118044935 -0.021894146 -0.033461083 -0.32043535
0002d0 01 ba d3 3e 8a 91 30 bf 32 e7 1f bd 56 3c f8 3d
       0.41352847 -0.68972075 -0.039038844 0.12120883
0002e0 c2 19 55 be 26 23 9b be 4a 1d 7c be 5f 9d 27 be
       -0.20810607 -0.30300254 -0.24620548 -0.16368626
0002f0 6b f3 bd be 9a 8d 53 be 59 78 9b bc f4 15 c7 3d
       -0.37099776 -0.20659485 -0.018978285 0.09720984
000300 93 44 c0 be 6d ea af 3e ee 9b 00 3f 52 fa 48 3e
       -0.37552318 0.3435854 0.5023793 0.1962674
000310 27 8a eb 3e ca c7 ae bd 46 73 41 3e f3 bd fe bd
       0.4600384 -0.085342005 0.1889163 -0.12438574
000320 d3 2a 89 3d 0b b2 a2 3e 18 bf 11 3f 43 3b 93 be
       0.06697621 0.3177646 0.5693221 -0.2875615
000330 84 05 ac bd f1 56 05 3f ab 6b ac 3e 88 6a 9b be
       -0.083994895 0.5208579 0.33675894 -0.30354714
000340 9f 4a 99 3e ed 3d 30 be 0d db cd be 61 ee 72 be
       0.29939744 -0.17211123 -0.40206185 -0.23723747
000350 5c 44 36 3e 6c 25 b8 bd 4a 1f 88 be 47 da bb 3d
       0.17799515 -0.08991513 -0.26586372 0.091724925
000360 9b 21 8a 3b 88 0f c8 3e ba e7 33 3f c4 f7 47 be
       0.004215432 0.3907435 0.7027546 -0.19528109
000370 9f 5c a2 3e 15 04 b5 3e dc 36 87 bd 22 8b 11 3f
       0.3171129 0.35354677 -0.066022605 0.56852925
000380 14 34 d1 3e 59 dd dc 3e 89 eb 11 bf 60 f6 cd 3c
       0.40860045 0.43137625 -0.57000023 0.025141895
000390 7b 75 98 bb c3 f4 81 be b5 ed 16 bf cb c3 cd be
       -0.0046526766 -0.2538205 -0.5895646 -0.4018844
0003a0 17 c7 3d 3e 6d 34 b4 be bd 5f f4 be f0 bd 6f 3e
       0.18532978 -0.35196248 -0.47729293 0.23412299
0003b0 dc ab c5 3d 68 7b b7 be 74 56 83 be 6f d9 c8 3e
       0.0965192 -0.3583634 -0.25651896 0.3922839
0003c0 be e2 7a 3e bb 51 fc bd bd 57 f9 3e 0c ca 9b 3d
       0.24500558 -0.12320276 0.48699751 0.07606897
0003d0 42 88 90 3e 6a 46 eb 3d f2 f8 21 3d 21 14 9a 3e
       0.28228956 0.1148804 0.039544053 0.30093482
0003e0 a9 3b 5e 3e cf ba 43 3e b5 1a 99 3e d2 25 9b 3e
       0.21702446 0.1911423 0.29903188 0.30302292
0003f0 8f bd f4 3e fa ed ef bd 6b 77 08 3f ff 57 02 3f
       0.47800872 -0.11715312 0.5330722 0.5091552

q_head.mamba.conv1d.weight f4 [18, 1, 4]
000000 5c a3 da be a4 e6 6b be c2 d1 b0 be c3 47 ec be
       -0.42702758 -0.23037201 -0.34535033 -0.461485
000010 a4 a8 7d be 68 b6 a1 3d 66 1f d1 bd 63 aa 14 3f
       -0.24771363 0.07896119 -0.10211067 0.5807249
000020 70 34 77 3e 60 0b 5a 3d a1 94 24 3e 8c d6 83 3e
       0.24141097 0.053233504 0.16072322 0.25749624
000030 26 4f ea 3e 40 50 10 be 9f b9 42 3e 1e 35 8d 3e
       0.4576351 -0.14093113 0.19016121 0.27579588
000040 a0 ae ef bd b4 23 0c be 09 0a 92 be 54 c5 fc be
       -0.11703229 -0.13685495 -0.2852328 -0.493693
000050 38 62 b6 3d b6 6b b1 3e 5d 69 27 bf 3e f5 28 bf
       0.089054525 0.3465249 -0.65395147 -0.6599921
000060 30 22 71 3e ec ea c9 be da 52 25 3e 82 ba 7c 3f
       0.23548198 -0.39437044 0.16144887 0.9872209
000070 7e 6a 83 3e c0 24 1b be f2 ed f3 be a7 30 2d bf
       0.25667185 -0.15150738 -0.47642475 -0.6765236
000080 50 20 3b 3d f0 5a 02 3d be ef 1c bf a9 c6 4a 3d
       0.045685112 0.031825006 -0.6130332 0.049505863
000090 90 d2 63 bd 28 79 79 3e 2f 68 40 be 26 01 6d bf
       -0.05562073 0.24362624 -0.18789743 -0.9257988
0000a0 40 d4 8c bd 40 b7 fb bd fd 43 65 3f f5 65 93 3e
       -0.06876421 -0.122908115 0.89556867 0.28788725
0000b0 b4 61 cf 3e 00 df 04 3d 32 4b 11 bf 97 16 4d 3f
       0.4050423 0.032439232 -0.56755364 0.80112594
0000c0 78 7d 20 be e4 b2 35 3e 5e 30 6a 3e 06 69 8c be
       -0.15672863 0.17744023 0.22870013 -0.27423877
0000d0 18 aa ab 3d 84 b1 03 3e 6e 57 ce bd 8a 8c c6 3e
       0.08382052 0.12860686 -0.1007527 0.38779098
0000e0 50 e7 2b bd 10 1b 40 be a8 d9 50 bf 5a cb a2 3e
       -0.041968644 -0.18760324 -0.8158212 0.3179577
0000f0 22 12 b2 3e 68 b1 d7 bd a5 60 bf be a5 c7 63 bf
       0.3477946 -0.105318844 -0.3737842 -0.8897651
000100 98 e3 c8 be 4a d2 d7 3e 32 c8 79 bf cf 24 10 bf
       -0.3923614 0.42152625 -0.975711 -0.56306165
000110 88 fa e6 bd a0 e4 25 3e 2c 9f 3d bf 81 b1 0a bf
       -0.11278254 0.16200495 -0.74071 -0.541771

q_head.mamba.conv1d.bias f4 [18]
000000 d2 e1 dc 3e 46 68 00 3e 17 6b 3f bf 01 7e 4d 3f
       0.43141037 0.12539777 -0.7477278 0.8027039
000010 f3 5f 50 bf d7 92 3f bf 43 9f 27 bf e6 39 5b bf
       -0.81396407 -0.74833435 -0.6547739 -0.8563522
000020 4d bd 4a bf f1 f0 25 bf 76 83 89 3e 87 26 26 3f
       -0.791951 -0.6482077 0.2685811 0.6490254
000030 c5 4f 56 3f f4 3b 8b 3e c9 c0 2c 3f 31 c8 65 bf
       0.8371547 0.27194178 0.67481667 -0.8975859
000040 d3 d8 41 3f db 5f 06 be
       0.7572147 -0.13122503

q_head.mamba.x_proj.weight f4 [33, 18]
000000 42 de 63 3e 82 c5 51 3e a2 cd 6e be b7 26 00 3f
       0.22252753 0.204855 -0.2332063 0.50059074
000010 d4 72 81 be 07 93 c8 be d0 4d ad be bd b9 f4 be
       -0.2528292 -0.39174673 -0.3384843 -0.47797957
000020 9d f0 ef be 10 0d 04 bf e1 24 07 3e 49 63 35 3d
       -0.4686326 -0.5158243 0.13197662 0.04428414
000030 a3 78 61 3e eb 04 ac 3e 40 27 0b be 8b ad 0b bf
       0.22018676 0.33597502 -0.13589191 -0.5456168
000040 b3 9e a7 3e 5e 26 f2 be 2a a3 2b 3c a1 97 51 3e
       0.32738265 -0.47294897 0.010475913 0.20467998
000050 93 de a0 be 7b e3 ac 3e 20 34 a4 be 87 48 2c be
       -0.3141981 0.33767304 -0.32071018 -0.16824542
000060 36 2f 52 bd 18 38 81 bd 04 2b f4 bd 81 6e 67 be
       -0.051314555 -0.06309527 -0.11922267 -0.22600748
000070 94 73 5d bd 1a ba 0e be f4 26 b9 3e 16 33 ba 3e
       -0.054065302 -0.1393818 0.3616253 0.363671
000080 ee d8 35 be 18 5a 93 be 85 68 bd 3e cd 99 47 be
       -0.17758533 -0.28779674 0.36993805 -0.19492264
000090 25 b9 10 bf bd 77 aa be 49 eb 25 3f ca 43 12 bf
       -0.5653251 -0.33294478 0.6481214 -0.5713469
0000a0 ca 6b 97 3e 0e 76 ca 3e fd ee 2d 3f 07 32 d7 3e
       0.29574424 0.39543194 0.6794279 0.42030355
0000b0 2c a1 df 3e b7 d1 cc 3e 08 05 cb be a7 9f 15 bd
       0.43677652 0.4000375 -0.39652276 -0.03652921
0000c0 b0 1d 21 bf f0 04 fd be 13 7c 4a be 48 ca 31 3f
       -0.62935925 -0.4941783 -0.19773893 0.6944928
0000d0 28 49 34 bf 18 c8 0d 3f 5c 56 9c be e1 93 b6 be
       -0.7042413 0.55383444 -0.30534637 -0.35659698
0000e0 28 8e 02 3f 93 f7 22 bf a7 23 0c 3f f9 18 fb 3e
       0.50998163 -0.6365902 0.547419 0.4904249
0000f0 0f fa 4c 3e 08 11 fa 3e 7e 1d 19 3f ef cf 20 3f
       0.20017265 0.4884112 0.59810627 0.6281728
000100 47 f0 19 bf 8a 67 e5 bd 60 b6 a4 be 49 66 95 be
       -0.6013226 -0.11201389 -0.3217039 -0.291796
000110 8a b3 a7 be 01 b4 2a 3f 04 53 b9 be b4 7c f3 3e
       -0.32754165 0.66680914 -0.36196148 0.47556078
000120 6b d0 7d 3e 59 fe b0 3e dc 0f 76 be 27 4a 0b 3f
       0.24786536 0.34569052 -0.24029487 0.5441002
000130 a6 ea 0a bf 32 b7 87 be 21 7d 2b bf c8 7f b3 be
       -0.54264295 -0.26506954 -0.66987807 -0.35058427
000140 90 9c d0 be 60 ef 81 be f3 d0 04 3f 3b 5e 0c bd
       -0.40744448 -0.2537794 0.5188133 -0.034269553
000150 50 b4 9a 3e 39 a2 69 3e 16 68 51 3e fe 2b df be
       0.30215693 0.2281579 0.20449862 -0.4358825
000160 20 00 2c 3f 6b 63 87 be 18 f9 ad 3e cf ba 83 3e
       0.6718769 -0.26443037 0.33979106 0.2572846
000170 d4 ba 1d bf 0b cc 89 3e 92 c4 b0 be b2 f4 01 bf
       -0.616132 0.26913485 -0.3452497 -0.50764
000180 de de c1 be 29 c5 fc be 17 03 06 bf 4c 02 14 bf
       -0.37865347 -0.4936917 -0.52348465 -0.57816005
000190 58 8e fa 3e 26 14 68 bd 27 97 1c 3f 99 55 5d bc
       0.48936725 -0.05665984 0.6116814 -0.013509178
0001a0 b1 36 c8 3e fa 33 0f bf a3 bc 30 3f 1c 28 10 bf
       0.39104226 -0.55938685 0.69037837 -0.563112
0001b0 3b 1d b8 be 81 01 be be 23 a0 0e 3f 27 6c 2c be
       -0.359598 -0.37110522 0.557131 -0.16838132
0001c0 99 88 a5 3e c6 40 4e 3e e7 2b 2a 3e c0 b0 02 3f
       0.32330778 0.20141897 0.1661831 0.5105095
0001d0 ac 83 85 3d 4c 85 7c 3e 22 7a fd bd f7 64 95 3e
       0.06519255 0.24660224 -0.123768106 0.29178593
0001e0 eb 6c fa be 7c 5c b3 be 80 24 96 bd 98 e3 c2 3e
       -0.48911223 -0.35031497 -0.073311806 0.38064265
0001f0 23 bd 70 bd c4 69 97 3e e9 87 ba 3e e5 dc 8d bd
       -0.058774125 0.2957288 0.36431816 -0.06926898
000200 51 61 01 bf e7 37 28 3f 8b 8a 11 bf de bf 1b bf
       -0.5053912 0.657103 -0.56852025 -0.6083964
000210 6d 8e 29 bf 82 b3 b4 be e8 98 ac be e4 58 6e be
       -0.6623295 -0.35293204 -0.33710408 -0.23276097
000220 f1 5e f3 3e 76 14 67 3e 07 09 d9 3e e4 c1 61 3d
       0.47533372 0.22566399 0.423897 0.05511655
000230 a4 c0 6a 3d 89 f1 fb be 76 65 cf 3e 2f 9d 21 bf
       0.057312623 -0.49207714 0.40507096 -0.6313047
000240 1c f5 f5 3e 17 c7 60 3e 3f 79 c0 be 55 8a b0 3e
       0.48038566 0.21950947 -0.37592503 0.3448054
000250 16 6b f9 be 06 33 a4 be a7 59 b7 be e2 1f fd be
       -0.48714513 -0.32070178 -0.35810587 -0.49438387
000260 ba c1 26 bf d5 b0 12 bf 0c 71 29 3f 5f ed 8d bb
       -0.65139353 -0.57301074 0.6618812 -0.0043312754
000270 eb e9 c5 3e 7b 21 8c 3e 31 7f b3 3e 51 ac 24 bf
       0.38655028 0.27369294 0.35057977 -0.64325434
000280 58 ab f5 3e 66 bc be be 95 8d 9a 3e 1c 2d 05 bf
       0.47982287 -0.37253112 0.30186144 -0.52021956
000290 dc d4 bf bd 36 38 f3 3d c2 de c1 be dc 88 d1 be
       -0.093667716 0.11875956 -0.37865263 -0.40924728
0002a0 91 31 52 be 22 44 49 be 38 f0 a4 be c6 43 ca 3d
       -0.2052672 -0.19654897 -0.32214522 0.09876208
0002b0 b9 67 51 3e 06 2f b6 3e 22 c8 03 3e bb e0 de be
       0.20449723 0.3558275 0.12869313 -0.4353083
0002c0 f3 a6 0c 3f 33 af 86 3c ac d6 65 3e 55 98 fb bd
       0.54942244 0.016440963 0.22445172 -0.122849144
0002d0 7a 7d 0d 3c e6 06 b8 3e 5b 58 7a be 96 8a ca 3e
       0.008635873 0.35942763 -0.24447767 0.39558858
0002e0 3f 13 b6 be db 61 fb be 28 3f b1 be 9b ae 7d be
       -0.3556156 -0.49098095 -0.34618497 -0.24773638
0002f0 75 d8 b3 bd 2b 14 81 be 7f c0 e7 bd 49 68 9c be
       -0.0878152 -0.252107 -0.113160126 -0.30548313
000300 a5 cc 65 3e eb b9 ad 3e f3 f3 12 be 17 35 09 bf
       0.22441347 0.33930907 -0.14350872 -0.53596634
000310 f3 35 bf 3e 37 97 51 be b2 1b 88 be f0 f3 c1 3d
       0.37345847 -0.2046784 -0.2658363 0.094703555
000320 ce fd 09 3f b5 53 fe be c9 de de 3d 2c 37 92 3e
       0.539029 -0.49673238 0.10882337 0.28557718
000330 07 c5 1a 3e ff 46 7e 3d 49 9a f0 3d 1c 96 f6 3e
       0.15114222 0.062079426 0.117481776 0.481614
000340 01 08 0b 3e 8a 56 a4 3b 95 81 04 bf e2 4a c5 be
       0.13577272 0.005015199 -0.51760226 -0.38533694
000350 d9 dc 73 3e 69 5c ce 3e 97 00 50 bd 12 9e 2d 3d
       0.23814715 0.40304878 -0.050781813 0.042387076
000360 86 50 00 3f 9d f7 2e 3c 97 26 00 bf df 89 77 3e
       0.5012287 0.010679153 -0.50058883 0.24173687
000370 9f e9 08 bf 1a 86 be be 37 62 07 bf db d0 04 bf
       -0.5348148 -0.37211686 -0.5288424 -0.5188119
000380 c2 0d 17 bf e2 32 26 bf e5 72 b5 3e af 0f 3c 3e
       -0.5900537 -0.6492139 0.3543922 0.18365358
000390 80 ce 08 3f 9d e3 b3 3d 2c 8e 2b 3e 52 a4 d3 be
       0.53440094 0.08783648 0.16753453 -0.41336304
0003a0 fd 0f 25 3f 91 86 84 be 71 04 d7 3e 5c 15 1f 3e
       0.6447752 -0.25883916 0.41995576 0.15535492
0003b0 5b f7 40 be 3d f6 60 3e 65 3e d5 be b3 f9 4f be
       -0.18844359 0.21968932 -0.41649166 -0.20310096
0003c0 ec 25 c7 be e0 93 e0 be 0b ef 9e be 90 77 b5 be
       -0.3889612 -0.4386282 -0.3104175 -0.3544278
0003d0 5f d1 a8 3e e4 3a ba be e4 d6 c8 3e 9c 85 83 3e
       0.32972237 -0.36373055 0.3922645 0.25687873
0003e0 97 43 71 be d7 94 00 bf 95 85 06 3f b5 e9 84 bd
       -0.2356094 -0.5022711 0.5254758 -0.064898886
0003f0 d5 77 aa 3e a0 ca 51 3e 14 14 a0 be 1e 98 99 3e
       0.3329455 0.20487452 -0.31265318 0.2999887

q_head.mamba.dt_proj.weight f4 [18, 1]
000000 e6 df 67 3f b6 83 5c 3f bc 1b 81 bd 6a 47 2b 3f
       0.90576017 0.86138475 -0.06304118 0.66905844
000010 5f 07 d4 be 8e 5d 96 3f 78 e0 ac be eb ff 66 be
       -0.41411874 1.1747301 -0.33765006 -0.22558562
000020 f2 8a 10 3f ea 7f 85 be 9a 0e 47 bf a1 dc d0 3e
       0.56462014 -0.26074153 -0.77756655 0.40793326
000030 26 1d e0 3d f4 bb 2e be 58 bc 44 3e c2 77 c9 be
       0.109430596 -0.17063886 0.19212472 -0.3934918
000040 38 14 8c 3f 02 74 56 3e
       1.094367 0.20942691

q_head.mamba.dt_proj.bias f4 [18]
000000 33 97 ac c0 5e 77 a6 c0 d4 1d 54 c0 03 f3 a1 c0
       -5.393457 -5.202071 -3.3143206 -5.0609145
000010 8c 78 aa c0 20 2b 03 c0 eb ef 57 c0 ba 00 a8 c0
       -5.327215 -2.0495071 -3.3740184 -5.2500887
000020 41 0f 2d c0 2c 59 c9 c0 ee 69 8f c0 ca 2c 66 c0
       -2.704056 -6.2921352 -4.481681 -3.5964837
000030 2f ed 86 c0 9b a3 ce c0 c0 3a 03 c0 15 55 bc c0
       -4.216453 -6.4574714 -2.0504608 -5.885386
000040 0b 93 ff bf c1 e2 03 c0
       -1.9966749 -2.060715

q_head.mamba.out_proj.weight f4 [9, 18]
000000 c6 7f da bd 6e b6 c8 3e 2c 38 82 be 99 46 67 be
       -0.10668902 0.39201683 -0.2543348 -0.22585525
000010 f1 44 f3 3d bc d0 d4 3e 00 51 54 3e 10 d8 08 bf
       0.11878384 0.41565502 0.20734024 -0.53454685
000020 0b 89 32 3e f5 f6 fd 3e 1c 4f c1 3e 26 f7 db be
       0.1743509 0.49602476 0.37755668 -0.42961997
000030 bf 67 d2 be e2 c8 73 be 1c a3 3f 3e c7 47 8a 3e
       -0.41094777 -0.238071 0.18714565 0.27007887
000040 44 51 11 3f 72 be e1 3c 93 39 44 3b e9 85 7b be
       0.56764627 0.027556632 0.0029941543 -0.24562801
000050 e4 f7 2a 3f 46 9a 69 3e b7 27 1f be 2e 15 a3 be
       0.667845 0.22812757 -0.15542494 -0.31852096
000060 c0 a3 c0 be 88 80 22 3f 52 12 dc be 26 cc 14 bf
       -0.3762493 0.63477373 -0.42982727 -0.58124006
000070 71 5b f9 be 2c cf 81 3e 94 03 a2 3e 7f 1f b0 3e
       -0.48702577 0.25353372 0.31643355 0.3439903
000080 e9 ba aa be ca 83 a0 be 9f 7d 0d bf 01 9f 7e 3e
       -0.33345726 -0.31350547 -0.5526981 0.24865343
000090 34 7e b4 be 3b 3c 04 3f af ba 01 bf e2 96 33 be
       -0.35252535 0.51654404 -0.5067548 -0.17538026
0000a0 7b 9d 04 be 6b 04 0d 3f 0c d5 05 3d 5d e2 f8 be
       -0.12950699 0.55084866 0.03267388 -0.486102
0000b0 1d 0e 0c 3f 25 90 10 3d 8f e3 ec 3e db 16 13 3e
       0.54709035 0.035293717 0.46267363 0.14364187
0000c0 8a 5c 93 be 54 a0 81 be fb 49 3c 3e 56 cf 60 3e
       -0.2878154 -0.25317633 0.18387596 0.21954092
0000d0 33 36 b5 3e 7e 45 a5 3d b4 fa 85 be b2 1d 23 3e
       0.35392913 0.08069895 -0.26167834 0.15929297
0000e0 c6 26 7b be 6f 4f 18 bd 8f ea 6c bd fe 58 c9 3e
       -0.2452651 -0.03718513 -0.05784088 0.39325708
0000f0 b1 aa 89 3e 0b c5 b2 be ef 3a eb 3e 9b 23 a1 3e
       0.2688804 -0.34915957 0.459434 0.31472477
000100 3e 2e aa 3e 20 f7 9e be de c6 77 be a4 6e ae be
       0.33238405 -0.31047916 -0.24196956 -0.34068787
000110 37 c8 fd 3d e5 62 2e 3f ee 3a a0 3e 4e 8a 62 be
       0.123917036 0.6811965 0.3129496 -0.22123072
000120 c4 4d ee 3d dc 4a c9 bc 79 16 3f bd c5 7e e1 3c
       0.11635926 -0.024571829 -0.04665229 0.027526269
000130 f4 65 d9 3e 58 82 0f bd e1 3c 0b 3d bd 6d a0 be
       0.42460597 -0.035036415 0.033993606 -0.31333724
000140 c0 cb 8d 3e 5a 8b 88 3e eb 07 8b be ba df 9f be
       0.2769451 0.26668817 -0.27154478 -0.31225377
000150 1f 6f bf be b0 1c d1 be 5c 7b 15 bf c3 5d 5e 3e
       -0.37389466 -0.408422 -0.58391356 0.21715455
000160 25 d5 7d 3e f3 a2 9d 3e 7d d7 7d 3e 99 6f d9 be
       0.2478834 0.30788383 0.24789234 -0.42467955
000170 7b 62 49 3e 4e 97 20 be be 69 28 bf 61 e5 aa 3e
       0.19666474 -0.15682718 -0.6578635 0.33378127
000180 f6 0c ef be 0a cc 30 3e cf e9 64 3c b9 03 11 bf
       -0.46689576 0.17265335 0.01397176 -0.56646305
000190 9b 62 9c 3e a8 51 2b 3f 84 cf ae 3e 01 cb 87 3e
       0.3054398 0.6692147 0.34142697 0.26522067
0001a0 e7 85 1a 3f 60 50 2e bf fc d4 7a be b4 3d 11 bf
       0.6036057 -0.6809139 -0.2449531 -0.56734776
0001b0 75 0b 46 3e 13 1f 94 be 2b bf 7c bd bd c1 37 3e
       0.19340308 -0.28929958 -0.06170575 0.17944999
0001c0 18 8e 39 be a0 33 d7 bd 14 3f 66 be 7c cd 78 3d
       -0.1812061 -0.105078936 -0.22485 0.06074284
0001d0 54 2e 28 3e e6 cb 5e bd 86 94 b7 3e 1e e7 fc 3e
       0.16423923 -0.05439367 0.35855502 0.49395078
0001e0 78 30 b4 3e 1f a7 06 3e a3 d8 06 3f 82 a8 c6 be
       0.3519323 0.13149689 0.5267431 -0.38800436
0001f0 39 1f 0a be 3b 7e 2f be 39 d4 d5 be 31 71 3b 3d
       -0.13488473 -0.17137997 -0.41763476 0.045762245
000200 72 b5 d1 be 7c 14 d3 be cf df 30 be 13 7a e9 3e
       -0.40958744 -0.41226566 -0.17272876 0.45600948
000210 2b 79 7c 3c ac 54 a6 be 38 aa 2f 3e 7a 15 96 3c
       0.015409748 -0.32486475 0.17154777 0.018320788
000220 62 b3 a1 3e 33 7a 76 be 62 59 18 be dc 3a 83 be
       0.3158217 -0.24070053 -0.14877847 -0.25630844
000230 0d 6d 93 3e 61 5f f8 3e 9a e2 21 3f 86 db 37 be
       0.28794137 0.48510268 0.6323639 -0.17954835
000240 3a 6e 31 be 7e b8 84 3e cf ba 0f 3e c0 6d 29 3e
       -0.17327204 0.25922006 0.14036106 0.16545773
000250 f1 d2 a6 3e dd 56 32 be 08 4f c5 3d c8 47 d6 3d
       0.3258281 -0.17415948 0.09634215 0.1046291
000260 fa 5d 65 be fb ed 14 3e b7 e1 91 be c8 2c b8 be
       -0.2239913 0.14543907 -0.2849252 -0.35971665
000270 ad f3 c8 be 0b 57 92 3b 0c 29 17 bf 16 2b e8 3e
       -0.3924841 0.0044659427 -0.5904701 0.45345372
000280 ed 6f 42 be b0 07 b1 3e
       -0.18988009 0.34576178

q_head.final_norm.gamma f4 [9]
000000 00 00 80 3f 00 00 80 3f 00 00 80 3f 00 00 80 3f
       1.0 1.0 1.0 1.0
000010 00 00 80 3f 00 00 80 3f 00 00 80 3f 00 00 80 3f
       1.0 1.0 1.0 1.0
000020 00 00 80 3f
       1.0

ema_model.q_head.action_bin_embeddings f4 [2, 256, 9]
000000 74 0d 34 3e 72 78 23 be 38 fc 2c 3e c0 6e 49 3e
       0.17583257 -0.15963915 0.16893089 0.19671154
000010 63 47 68 3e bd 1e 66 be 7f 11 88 be f5 52 59 3e
       0.22683482 -0.22472663 -0.26575848 0.21223052
000020 86 eb 4c 3e ef d5 28 3e 18 bf 20 be b7 24 4b 3e
       0.2001172 0.16487859 -0.15697896 0.19838224
000030 92 69 13 3e db b7 57 3e ab d0 64 be 5c 34 91 be
       0.1439574 0.21066229 -0.22345226 -0.2836026
000040 f2 5a 40 3e 38 6f 4d 3e 01 f7 35 3e eb fe 2b be
       0.18784693 0.20061958 0.17770006 -0.16796462
000050 1d 98 1a 3e 97 90 13 3e 01 36 4f 3e 0d 26 7d be
       0.15097089 0.14410625 0.20235445 -0.24721546
000060 a9 05 84 be 6c 04 2f 3e 70 12 75 3e d0 12 42 3e
       -0.25785568 0.1709153 0.23932815 0.18952489
000070 57 38 42 be c1 a7 4e 3e 19 38 11 3e 7a 39 57 3e
       -0.18966804 0.2018118 0.14181556 0.2101802
000080 70 58 7c be 2a 49 82 be 10 fc 65 3e a0 e0 39 3e
       -0.24643111 -0.25446445 0.22459435 0.18152094
000090 02 30 2c 3e bd c9 41 be 36 d6 50 3e 39 fc 18 3e
       0.16815189 -0.18924613 0.20394215 0.14939965
0000a0 e1 f9 72 3e 73 ac 77 be 75 8f 9d be 09 a3 68 3e
       0.23728134 -0.24186878 -0.30773512 0.22718443
0000b0 1c 5a 6b 3e d2 8c 22 3e 8a bb 20 be 7f a6 6c 3e
       0.22983593 0.15874031 -0.1569654 0.23110388
0000c0 09 b4 06 3e 23 9f 89 3e 98 18 48 be 94 8d 74 be
       0.13154615 0.26879224 -0.19540632 -0.23882133
0000d0 3f 24 41 3e f2 6e 54 3e 81 b6 15 3e a0 0a 1a be
       0.18861483 0.20745447 0.14620401 -0.15043116
0000e0 eb a2 2b 3e 86 08 15 3e c8 6b 68 3e 14 85 6a be
       0.16761367 0.14554033 0.22697365 -0.22902328
0000f0 19 6d 6a be 8d a3 60 3e e8 24 37 3e f7 11 40 3e
       -0.2289318 0.2193739 0.17885172 0.18756853
000100 e2 9e 0a be eb bb 49 3e 6a 31 32 3e ce a7 36 3e
       -0.13537171 0.19700591 0.17401662 0.1783745
000110 19 b3 67 be 9c 81 4b be 44 cd 3b 3e 50 08 6b 3e
       -0.22626914 -0.19873661 0.18340021 0.2295239
000120 13 89 ba 3d af ea 06 be d2 6e 86 3d 96 7a 17 3e
       0.09108176 -0.13175462 0.06564106 0.14792857
000130 42 c3 51 3e 29 49 49 be 25 f5 4e be 90 43 18 3e
       0.20484641 -0.19656815 -0.20210703 0.14869523
000140 21 69 0f 3e c0 70 5b 3e e8 de 1f be 90 da 38 3e
       0.14004947 0.2142973 -0.15612376 0.18052125
000150 c8 ac 0e 3e bf 46 65 3e 86 07 48 be 4c 04 74 be
       0.13933098 0.22390269 -0.1953412 -0.23829764
000160 71 86 35 3e 5f c1 6e 3e 0d 31 4f 3e b1 c8 35 be
       0.17727067 0.23315953 0.20233555 -0.17752339
000170 8c e6 47 3e 2c 00 32 3e d8 8f 71 3e a4 5f 5b be
       0.1952154 0.17382878 0.23590028 -0.21423203
000180 dc 44 71 be fb f4 22 3e 20 f2 5a 3e c3 69 48 3e
       -0.23561424 0.15913765 0.21381426 0.19571595
000190 e8 60 24 be 2a 41 41 3e 0a c4 1f 3e f0 a5 60 3e
       -0.16052592 0.18872514 0.15602127 0.219383
0001a0 2a 7c 4f be 9b dc 77 be e8 7d 5b 3e 9e ec 66 3e
       -0.20262209 -0.24205248 0.21434748 0.225512
0001b0 50 29 3c 3e 69 79 25 be a8 ba 47 3e 28 c3 42 3e
       0.18375134 -0.16159596 0.19504797 0.19019759
0001c0 b5 54 81 3e 6f c6 3d be df 34 88 be 3e bb 63 3e
       0.2525994 -0.18532728 -0.26602837 0.22239396
0001d0 16 c0 60 3e 1b 5c 38 3e 29 37 39 be 02 77 38 3e
       0.21948275 0.18003885 -0.18087448 0.18014148
0001e0 c3 14 28 3e 36 95 71 3e 5b 9f 39 be b5 0c 83 be
       0.1641417 0.23592076 -0.18127196 -0.25595632
0001f0 c1 25 48 3e 00 20 4c 3e f9 94 58 3e db 3e 29 be
       0.19545652 0.19934082 0.21150579 -0.16527884
000200 36 a8 24 3e 7a 91 30 3e 70 05 50 3e dd 04 75 be
       0.16079792 0.17242995 0.20314574 -0.23927636
000210 24 56 83 be 5e b9 6f 3e 13 29 4c 3e 09 d4 4f 3e
       -0.25651658 0.23410556 0.19937544 0.20295729
000220 05 3f 2c be d6 49 3a 3e 7a e8 49 3e 2b 36 90 3e
       -0.16820915 0.18192229 0.19717589 0.28166327
000230 e6 0e 5d be 1b 97 92 be 40 89 6b 3e 47 5d 37 3e
       -0.21587715 -0.2863091 0.23001575 0.17906676
000240 26 51 4c 3e 23 6b 26 be a4 d0 6f 3e 02 1c 52 3e
       0.1995283 -0.16251807 0.23419434 0.20518497
000250 53 8e 54 3e 4b 8e 59 be 16 20 91 be dc 28 47 3e
       0.20757417 -0.21245687 -0.28344792 0.1944918
000260 fd f7 4f 3e 5d 67 1f 3e bf 9f 1d be 52 b9 18 3e
       0.20309444 0.15566774 -0.1539297 0.14914444
000270 57 25 42 3e 12 34 2d 3e ee 81 3c be 60 de 93 be
       0.18959557 0.16914394 -0.18408939 -0.28880596
000280 f1 04 59 3e c9 9a 37 3e 5d 57 15 3e 4a af 32 be
       0.21193291 0.1793014 0.14584108 -0.1744968
000290 e2 0e 17 3e f8 d1 48 3e 94 08 47 3e e7 dc 6a be
       0.14751771 0.19611347 0.19436866 -0.2293583
0002a0 0d dd 8a be 7c 3f 5e 3e e8 e1 74 3e ce 3a 25 3e
       -0.27121773 0.21703905 0.23914301 0.16135713
0002b0 fb 41 43 be bd cb 80 3e 7b b8 29 3e d5 d1 5b 3e
       -0.19068138 0.2515544 0.1657428 0.21466763
0002c0 3b e2 60 be e0 7e 8e be 34 30 4e 3e ac b0 76 3e
       -0.219613 -0.27831173 0.20135576 0.24090832
0002d0 32 df 6c 3e b7 82 57 be 9b f3 2c 3e 97 c5 43 3e
       0.23132017 -0.21045958 0.16889803 0.19118343
0002e0 ab 92 7e 3e 1e 10 77 be 51 f0 80 be 87 20 67 3e
       0.24860637 -0.24127242 -0.25183347 0.22571002
0002f0 de 70 3e 3e 84 04 47 3e 4c 71 28 be a2 0c 71 3e
       0.18597743 0.19435316 -0.1644947 0.23539975
000300 c3 ca 25 3e fd bc 80 3e 01 ac 4d be cd 3d 82 be
       0.16190629 0.25144187 -0.20085146 -0.25437775
000310 66 ef 7b 3e 92 06 44 3e 71 5c 24 3e 39 28 01 be
       0.24603042 0.19143131 0.16050889 -0.12613
000320 09 d7 27 3e 4d 6b 4b 3e f9 62 61 3e 32 53 31 be
       0.16390623 0.19865151 0.22010411 -0.17316893
000330 ff 28 7b be c7 4f 56 3e 19 2a 65 3e f1 b8 24 3e
       -0.24527358 0.2092887 0.2237934 0.16086175
000340 ab 03 2e be 1d 4c 4c 3e e0 dc 1d 3e d0 a8 68 3e
       -0.16993587 0.1995091 0.15416288 0.22720647
000350 f2 d4 64 be 0f d5 86 be eb 87 70 3e 67 e4 5e 3e
       -0.22346857 -0.26334426 0.23489349 0.21766816
000360 d3 2c 66 3e e8 d7 1e be 28 eb 36 3e d5 bd 46 3e
       0.22478037 -0.15512049 0.17863142 0.19408353
000370 65 1d 81 3e a2 67 56 be df bf 75 be 96 9b 73 3e
       0.2521774 -0.2093797 -0.23998974 0.2378982
000380 5f 64 43 3e b9 c0 32 3e 9c 31 12 be da 12 80 3e
       0.19081257 0.1745633 -0.14276737 0.25014383
000390 b2 2f 36 3e 21 88 55 3e 5d eb 57 be 1c cf 79 be
       0.17791632 0.2085271 -0.21085878 -0.24395412
0003a0 5d e8 35 3e bd 8a 4b 3e 43 54 54 3e 30 85 2b be
       0.17764421 0.19877143 0.20735268 -0.16750026
0003b0 f3 dd 43 3e 5d 9f 0b 3e 9b c9 5b 3e 06 c2 66 be
       0.19127636 0.13635011 0.21463625 -0.22534952
0003c0 ef d7 7a be 5f 7b 53 3e 00 fa 6e 3e 1b c4 1d 3e
       -0.24496435 0.20652531 0.23337555 0.1540684
0003d0 ac 2f 2f be 24 7b 54 3e ae 31 31 3e 2f 23 56 3e
       -0.17108029 0.207501 0.17304108 0.20911859
0003e0 1c e5 5a be c8 31 68 be ba 71 2e 3e f9 c6 4e 3e
       -0.21376461 -0.2267524 0.1703557 0.2019309
0003f0 23 64 66 3e 14 6c 35 be 2e d8 35 3e 31 46 39 3e
       0.22499137 -0.1771701 0.17758247 0.18093182

ema_model.q_head.mamba.A_log f4 [18, 16]
000000 4b fc 14 3c 07 ce 14 3f 59 80 73 3f 49 05 a4 3f
       0.009093354 0.5812687 0.9511772 1.2814113
000010 7d 57 bb 3f 5a 5c e8 3f 56 b8 e2 3f 9c 41 f3 3f
       1.4636074 1.8153183 1.7712505 1.9004397
000020 91 4c 13 40 0d 16 16 40 19 3c 1c 40 19 78 12 40
       2.3015482 2.3450959 2.441168 2.2885802
000030 04 35 24 40 33 5e 1b 40 1a d8 1e 40 ae 8d 24 40
       2.5657358 2.4276245 2.4819398 2.5711474
000040 33 22 c0 3a b6 58 1b 3f 48 b0 82 3f 28 1b a4 3f
       0.001465863 0.6068224 1.0210047 1.2820787
000050 23 75 c0 3f 1b 38 e3 3f 94 bd eb 3f 17 78 fc 3f
       1.5035747 1.7751497 1.841723 1.9724149
000060 3a 15 0d 40 3b be 11 40 df 16 18 40 55 c4 17 40
       2.2044206 2.2772357 2.376396 2.3713582
000070 6b c1 20 40 33 99 22 40 d7 f5 26 40 ec ed 29 40
       2.5118053 2.5406005 2.6087549 2.6551466
000080 e2 a1 70 3d 9d b4 b7 3e 94 3f 3f 3f f0 fc 92 3f
       0.058748133 0.35879984 0.7470639 1.148344
000090 36 96 a9 3f 4e e8 e1 3f c8 4c ca 3f 19 67 e0 3f
       1.3248966 1.7649019 1.5804682 1.7531463
0000a0 0e 8e 16 40 cd 0b 15 40 ab 09 1a 40 bc 5d 09 40
       2.3524203 2.3288453 2.40684 2.146346
0000b0 01 75 1e 40 cf 2a 10 40 a9 cd 14 40 89 b8 19 40
       2.4758914 2.2526128 2.3250525 2.4018881
0000c0 aa 54 32 3d 33 16 dc 3e 07 2a 51 3f 57 66 97 3f
       0.043537773 0.42985687 0.81704754 1.1828107
0000d0 a2 31 ad 3f 09 50 e6 3f 80 4e d0 3f 08 01 e5 3f
       1.3530772 1.7993175 1.6273956 1.789094
0000e0 02 33 16 40 cb e9 15 40 aa 7d 1b 40 85 4d 0b 40
       2.3468633 2.3423946 2.429545 2.1766064
0000f0 41 e1 20 40 71 76 12 40 71 10 17 40 86 8f 1b 40
       2.5137484 2.288479 2.3603785 2.430635
000100 64 cf ce 3c 45 49 0e 3f d1 8e 71 3f 3a 57 a1 3f
       0.025245376 0.5558055 0.94358546 1.2604744
000110 bf 18 ba 3f 77 de e9 3f 32 1c e3 3f 1a 25 f4 3f
       1.4538802 1.8271016 1.774298 1.9073822
000120 7f d7 13 40 64 bf 16 40 33 22 1c 40 dc 94 13 40
       2.3100278 2.3554316 2.4395874 2.3059607
000130 5e d1 23 40 ac 79 1c 40 9e d8 20 40 01 b9 25 40
       2.5596538 2.4449263 2.5132213 2.5894167
000140 85 73 e7 3d 98 aa 6c 3e 35 7a 25 3f 84 40 9b 3f
       0.113013305 0.23111951 0.646396 1.2129064
000150 b3 65 b2 3f 19 ed ec 3f 64 78 bf 3f 65 0d e6 3f
       1.3937286 1.8509856 1.4958615 1.7972838
000160 b3 0e 20 40 04 4a 1f 40 3a 90 26 40 75 cb 0c 40
       2.5008972 2.4888926 2.602553 2.199918
000170 9f 07 21 40 ad d8 0d 40 c0 82 12 40 41 c3 16 40
       2.5160902 2.2163498 2.2892303 2.3556674
000180 c7 66 ac 3d 05 49 fc 3e b1 8f 63 3f 21 ae a6 3f
       0.08418041 0.4927446 0.8889113 1.302189
000190 57 ed bd 3f fd 8e ee 3f de 43 dc 3f e4 36 f4 3f
       1.4838055 1.8637387 1.7208211 1.9079251
0001a0 a3 4c 17 40 e3 8e 1a 40 c3 85 20 40 19 40 13 40
       2.3640525 2.414971 2.5081642 2.3007872
0001b0 3a 3c 24 40 79 2b 19 40 64 39 1e 40 1b 5b 22 40
       2.566176 2.3932784 2.4722528 2.5368106
0001c0 cc 4a 08 3d 11 d8 04 3f b4 a8 66 3f 83 5a 9e 3f
       0.033274457 0.5189219 0.9010117 1.2371372
0001d0 ec 19 b6 3f da 0f e9 3f 17 e0 dc 3f fe fb ee 3f
       1.4226661 1.8207963 1.7255887 1.8670652
0001e0 da 19 15 40 c1 91 16 40 7b c9 1b 40 9b ae 10 40
       2.3297029 2.352646 2.4341724 2.260657
0001f0 35 96 22 40 8f 73 18 40 24 f9 1c 40 c5 17 22 40
       2.540418 2.3820531 2.4527063 2.5327008
000200 df d4 51 3d 5e 3c 79 3e 56 06 27 3f 3c 4c 94 3f
       0.0512284 0.24339435 0.6524404 1.1585765
000210 56 aa aa 3f 93 a4 e2 3f 84 f9 bd 3f 19 87 dd 3f
       1.3333232 1.7706474 1.4841771 1.7306854
000220 f5 59 18 40 fe 4a 17 40 ab 2c 1d 40 a8 db 07 40
       2.3804905 2.3639522 2.4558513 2.1227818
000230 7d 58 1b 40 c5 9e 0b 40 bc 39 10 40 75 8e 14 40
       2.427276 2.1815655 2.2535238 2.321195
000240 ac 41 68 b9 3f be 31 3f cf 1b 8d 3f a2 76 b1 3f
       -0.00022149709 0.6943092 1.1024112 1.3864329
000250 07 2e ce 3f 15 33 e5 3f f2 70 f9 3f 14 49 05 40
       1.6107796 1.7906214 1.9487593 2.0825853
000260 49 2e 0c 40 ed 2d 13 40 a9 49 19 40 6c 41 1f 40
       2.190325 2.299678 2.3951209 2.488368
000270 7e 00 24 40 08 45 29 40 cf d0 2d 40 29 a7 31 40
       2.56253 2.6448383 2.7158697 2.7758276
000280 9d 42 01 3e 57 91 fe 3e ce a8 65 3f 2c f0 ab 3f
       0.12623067 0.4972026 0.897107 1.343267
000290 25 75 c1 3f 4f bb f5 3f 3f 25 dd 3f 75 d2 f7 3f
       1.5113875 1.9197787 1.7276992 1.9361101
0002a0 4d 7c 18 40 50 14 1e 40 e8 31 24 40 77 6e 14 40
       2.3825867 2.4699898 2.565546 2.3192422
0002b0 3b 9d 2c 40 34 b8 19 40 5d c9 1e 40 0b 5e 22 40
       2.6970966 2.4018679 2.4810402 2.53699
0002c0 23 c8 89 bd 21 55 2a 3f 3e f6 89 3f 02 cd ae 3f
       -0.06727626 0.66536146 1.0778272 1.3656313
0002d0 c3 0d cf 3f 3e a5 d3 3f ca a9 f6 3f 05 dc 05 40
       1.6176075 1.6534803 1.9270566 2.091554
0002e0 48 00 10 40 30 d7 0b 40 fc 08 12 40 35 a0 1f 40
       2.2500172 2.185009 2.2817984 2.4941533
0002f0 9b 50 1b 40 fe ea 25 40 b0 4f 2c 40 d4 aa 2f 40
       2.4267948 2.5924678 2.6923637 2.7448015
000300 fc d2 cb bd d9 26 6d 3f 75 02 a9 3f cc 39 ba 3f
       -0.099523515 0.926374 1.3203875 1.4548888
000310 05 29 dd 3f dd 29 da 3f dc 78 0d 40 bb 06 10 40
       1.7278143 1.7044026 2.2105017 2.2504108
000320 6c e5 02 40 3d 1a 0b 40 91 ae 12 40 00 7d 2b 40
       2.0452528 2.1734765 2.2919047 2.6795044
000330 48 d6 20 40 c5 16 3a 40 9a c0 3e 40 fd 0f 43 40
       2.5130787 2.9076397 2.9805055 3.0478508
000340 53 a1 cf bc 16 52 4b 3f 17 e1 9c 3f a1 4d b9 3f
       -0.02534548 0.7942213 1.2256192 1.4476815
000350 4a f0 da 3f 1b 27 de 3f b0 60 05 40 b0 05 0d 40
       1.710458 1.7355684 2.0840263 2.2034721
000360 ef 3f 05 40 41 fc 0d 40 49 41 14 40 9d 82 27 40
       2.0820272 2.2185214 2.3164847 2.617347
000370 63 6a 20 40 e2 dc 33 40 ac a4 37 40 33 47 3b 40
       2.5064933 2.8103566 2.8694258 2.9262207
000380 b9 62 59 be 63 b8 5e 3f 29 d4 a6 3f 79 e4 a6 3f
       -0.21229066 0.870001 1.3033496 1.3038474
000390 37 d9 ca 3f 7d 3f c8 3f f0 39 08 40 bf 4a 07 40
       1.5847539 1.5644375 2.1285362 2.1139371
0003a0 cc de fc 3f 2f 3b 03 40 b9 d9 07 40 42 61 22 40
       1.9755492 2.0504873 2.1226637 2.5371861
0003b0 3a 4b 17 40 d1 a6 34 40 4c c0 38 40 48 04 3d 40
       2.3639665 2.8226817 2.8867369 2.9533863
0003c0 71 a1 1b 39 53 19 31 3f b6 32 8c 3f 49 5c b1 3f
       0.00014842094 0.69179267 1.0952976 1.3856288
0003d0 34 c2 cd 3f 67 6d e5 3f fd a3 f8 3f 1e d8 04 40
       1.6074891 1.7924012 1.9425045 2.0756907
0003e0 be ee 0c 40 16 7c 13 40 e5 93 19 40 95 bf 1e 40
       2.2020717 2.3044486 2.3996518 2.4804432
0003f0 b0 36 24 40 f8 82 28 40 db c9 2c 40 c5 26 31 40
       2.5658379 2.6329937 2.6998203 2.7679913

ema_model.q_head.mamba.D f4 [18]
000000 fe 6b 8f 3f 11 df 9e 3f fc 8e b2 3f b1 47 87 3f
       1.1204832 1.2411824 1.3949885 1.0568753
000010 de 91 ae 3f 65 41 9c 3f 3c 90 a3 3f 60 2f b3 3f
       1.3638265 1.2207457 1.2778392 1.3998833
000020 b1 db ab 3f 37 b3 af 3f 54 bd a7 3f ed a0 c3 3f
       1.342642 1.3726567 1.3104653 1.5283486
000030 fd 9a a2 3f 89 61 a0 3f 92 76 b2 3f 0c 4d b5 3f
       1.2703549 1.2529765 1.3942435 1.4164138
000040 e1 08 bd 3f 2b 9d 9e 3f
       1.4768335 1.2391714
