checkpoints/q-mamba/20240817_010332/checkpoint-1.pt (torch, 115222 bytes, 42 tensors)

q_head.action_bin_embeddings f4 [2, 256, 9]
000000 f6 65 16 3e 96 ff 1d be 61 95 1e 3e c0 22 3e 3e
       0.14687333 -0.1542953 0.15486671 0.18567944
000010 60 ca 28 3e 4e 5f 43 be 6e d0 33 be 64 1d 37 3e
       0.1648345 -0.19079325 -0.17559978 0.17882305
000020 a5 3d 18 3e 6b b8 0c 3e 71 54 19 be 42 19 3a 3e
       0.14867266 0.13742225 -0.14973618 0.18173698
000030 5d 2f 08 3e c2 0b 1f 3e 38 e0 41 be ec 59 44 be
       0.13299318 0.15531829 -0.18933189 -0.19174927
000040 ff 14 22 3e 55 6b 0d 3e 73 51 1e 3e 84 47 21 be
       0.15828322 0.13810475 0.15460758 -0.15749937
000050 bf 0a 17 3e 26 2d 0e 3e 8f 33 1f 3e 9e c7 55 be
       0.14750193 0.1388441 0.15547012 -0.20876929
000060 16 09 41 be 08 27 0b 3e ab a0 3d 3e b1 8d 21 3e
       -0.18851122 0.13589108 0.18518321 0.15776707
000070 4b a5 35 be 67 69 4d 3e cb 1e 07 3e e8 2a 11 3e
       -0.17738836 0.20059739 0.1319534 0.14176524
000080 aa 84 4e be 3e 19 11 be 49 ac 39 3e b1 90 fe 3d
       -0.20167795 -0.14169785 0.18132128 0.124299414
000090 df ca ff 3d 5b 60 2b be 89 8d 26 3e 75 9c 00 3e
       0.124898665 -0.16735975 0.16264929 0.12559684
0000a0 d4 bf 2f 3e a9 00 49 be 2c 02 43 be d3 eb 37 3e
       0.1716302 -0.19629158 -0.19043797 0.17961054
0000b0 74 cf 2c 3e c9 5c 04 3e 42 fe 19 be 35 01 55 3e
       0.16876012 0.1292602 -0.15038398 0.20801242
0000c0 9d 78 00 3e 78 bc 57 3e 03 f2 2d be da 60 20 be
       0.1254601 0.21067989 -0.16986851 -0.15661946
0000d0 51 44 14 3e c9 40 1b 3e 8c f7 ef 3d c8 59 13 be
       0.14479186 0.15161432 0.11717138 -0.14389718
0000e0 39 5c 10 3e e2 ec 0b 3e 40 b0 29 3e 42 f0 4d be
       0.1409768 0.13664582 0.1657114 -0.20111182
0000f0 88 21 19 be 45 66 3b 3e f4 c4 10 3e fc 8b 33 3e
       -0.14954197 0.18300731 0.14137632 0.17533869
000100 8e 93 0b be 35 d8 3d 3e 79 93 30 3e 55 3f 1a 3e
       -0.13630506 0.18539508 0.17243756 0.15063222
000110 e5 c1 5c be 7b 1d 13 be 74 7f 2b 3e 46 e2 3e 3e
       -0.2155834 -0.14366715 0.16747838 0.18641004
000120 f0 4d d4 3d 89 0b 10 be 0c 0d 38 3e 95 cf 16 3e
       0.10366428 -0.140669 0.17973727 0.14727624
000130 4b db 34 3e 4e 3a 0f be f2 9f 18 be d3 dc 37 3e
       0.17661779 -0.13987085 -0.14904764 0.17955332
000140 fd 53 12 3e 73 13 3c 3e c2 4c 19 be 55 b4 3f 3e
       0.14289851 0.18366794 -0.14970687 0.18721135
000150 96 9a 03 3e 4e db 23 3e b5 51 21 be 4b ad 19 be
       0.12851939 0.16001627 -0.15753825 -0.15007512
000160 0f ee 13 3e c2 21 2f 3e a1 a0 28 3e 89 39 20 be
       0.14446281 0.17102721 0.16467525 -0.15646948
000170 5b 9b 35 3e 33 25 1b 3e c0 6b 31 3e d0 2f 2f be
       0.17735045 0.15150909 0.1732626 -0.17108083
000180 a6 5b 08 be b2 42 f7 3d 4a 28 37 3e b3 0b 32 3e
       -0.13316211 0.12073268 0.17886463 0.17387275
000190 ac 24 28 be c5 f3 13 3e 47 aa 23 3e 87 e8 28 3e
       -0.16420239 0.1444846 0.15982924 0.16494952
0001a0 76 21 3c be d2 66 20 be ca 48 37 3e af 2f 29 3e
       -0.1837214 -0.15664223 0.1789886 0.16522096
0001b0 0b d9 0d 3e ce 2f 0c be ba 30 2e 3e 57 1e 29 3e
       0.13852327 -0.13690111 0.17010775 0.1651548
0001c0 5d 61 37 3e d6 49 12 be 9c c7 34 be 9a bd 2a 3e
       0.17908235 -0.14285979 -0.1765427 0.1667389
0001d0 67 7f 31 3e d2 f2 1f 3e 07 56 35 be 54 ba 29 3e
       0.17333756 0.15619972 -0.17708598 0.16574985
0001e0 c1 ba 22 3e aa f9 40 3e ee 08 20 be 94 c7 39 be
       0.15891553 0.1884524 -0.15628406 -0.1814254
0001f0 31 dd 28 3e ac e1 1a 3e a5 00 2e 3e 5f 4d 12 be
       0.16490628 0.1512515 0.16992433 -0.14287327
000200 ed 39 1d 3e ad 6a 17 3e e1 50 0a 3e c4 a7 44 be
       0.15354128 0.14786787 0.13507415 -0.19204623
000210 fd a5 26 be 36 4e 43 3e 11 55 20 3e 35 88 26 3e
       -0.16274257 0.19072804 0.1565745 0.16262896
000220 2b 6b 17 be 09 24 06 3e f4 df 35 3e de 64 5c 3e
       -0.14786975 0.13099684 0.17761213 0.21522853
000230 2b f1 31 be 71 f6 35 be 60 d4 38 3e a2 59 14 3e
       -0.17377155 -0.17769791 0.18049765 0.14487317
000240 40 76 1e 3e 5f f1 10 be dc d5 50 3e f8 93 3b 3e
       0.15474796 -0.14154576 0.20394081 0.18318164
000250 4c 56 0d 3e e5 74 32 be 46 8d 43 be 4d 7f 0c 3e
       0.13802451 -0.17427404 -0.1909686 0.13720436
000260 9b 91 3b 3e 5c be 03 3e ab 4d 20 be c5 e3 0b 3e
       0.18317263 0.12865585 -0.15654628 0.13661106
000270 a0 90 41 3e 63 84 da 3d 84 f2 23 be 67 45 3c be
       0.18902826 0.10669782 -0.16010481 -0.1838585
000280 46 e1 36 3e 59 13 f1 3d 13 bf f8 3d 0e 77 35 be
       0.17859372 0.117712684 0.121458195 -0.17721197
000290 59 5d dc 3d aa ae 49 3e 94 a3 0d 3e 90 d4 50 be
       0.10759992 0.19695535 0.13831931 -0.20393586
0002a0 9d 24 31 be 9c ed 39 3e ea e6 26 3e bf 0a f5 3d
       -0.17299123 0.18157047 0.16299024 0.1196494
0002b0 d0 5f 34 be f3 e8 49 3e cf 80 19 3e a1 99 15 3e
       -0.17614675 0.1971777 0.14990543 0.14609386
0002c0 9e af 36 be b4 57 3b be 3b e7 19 3e cb 3b 28 3e
       -0.1784043 -0.18295175 0.15029614 0.16429059
0002d0 91 c7 34 3e f1 0d 35 be 95 92 1a 3e fb 9d 1e 3e
       0.17654254 -0.176811 0.15094979 0.15489952
0002e0 a7 2c 2c 3e 72 47 31 be 3a bd 20 be 99 c4 2f 3e
       0.16813909 -0.1731241 -0.15697184 0.1716484
0002f0 a4 39 ea 3d 79 aa 1e 3e 1c 6f 1b be ad 6a 25 3e
       0.11436775 0.15494718 -0.15179104 0.16153975
000300 99 50 16 3e 33 f2 3e 3e 77 22 30 be 12 74 28 be
       0.14679183 0.18647079 -0.17200647 -0.16450527
000310 15 93 47 3e 58 36 1a 3e 5f 39 05 3e 1e 52 df bd
       0.19489701 0.15059793 0.13010167 -0.109043345
000320 e5 3a 34 3e 72 52 39 3e 4c 49 26 3e e2 b6 07 be
       0.17600591 0.18097857 0.16238898 -0.13253358
000330 45 c5 34 be 49 69 33 3e 82 4e 46 3e 79 95 f3 3d
       -0.17653377 0.17520632 0.19365886 0.11893744
000340 26 f2 18 be d4 3d 22 3e 52 b6 06 3e cb 61 1e 3e
       -0.14936122 0.15843898 0.13155487 0.15466993
000350 09 83 3a be 2b ad 26 be 1c a1 3f 3e c2 d3 33 3e
       -0.18214048 -0.16276996 0.18713802 0.17561248
000360 93 37 32 3e 35 dc 08 be 30 df 2e 3e ea be 2f 3e
       0.17404012 -0.13365252 0.17077327 0.17162672
000370 83 02 2b 3e 4d 65 25 be 15 db 08 be e5 02 37 3e
       0.16700177 -0.16151924 -0.13364823 0.17872198
000380 81 3b 20 3e 8a ac 14 3e 4f 6f 02 be 1a e4 4a 3e
       0.15647699 0.14518943 -0.12737773 0.19813576
000390 e9 3f 2c 3e 59 14 22 3e 71 15 2f be 0f af 29 be
       0.16821255 0.15828075 -0.17098023 -0.16570686
0003a0 20 cc 05 3e b8 53 21 3e 39 93 34 3e 29 5f 1b be
       0.13066149 0.15754592 0.17634286 -0.1517302
0003b0 d2 57 23 3e dc 94 f7 3d ee 34 1b 3e 79 c3 37 be
       0.1595147 0.120889395 0.1515691 -0.1794566
0003c0 05 b3 08 be 02 89 2d 3e 1d e3 2d 3e 13 d8 06 3e
       -0.1334954 0.16946796 0.16981168 0.13168363
0003d0 26 0b 25 be 2e cd 41 3e 73 f7 26 3e fc 0a 2d 3e
       -0.16117534 0.18925926 0.16305332 0.16898721
0003e0 44 3e 42 be a9 f2 2c be 8c 78 12 3e 69 8e 35 3e
       -0.18969065 -0.16889443 0.14303797 0.17730106
0003f0 c7 75 39 3e 99 bd 1b be 03 3a 2e 3e d7 93 20 3e
       0.18111335 -0.15209045 0.17014317 0.15681396

q_head.mamba.A_log f4 [18, 16]
000000 12 24 29 3c 67 c9 1e 3f 42 01 7f 3f d1 96 a9 3f
       0.010323541 0.62026066 0.99611294 1.324915
000010 f1 1f c2 3f 8d 2e ea 3f 35 88 ea 3f a9 20 fb 3f
       1.5165998 1.8295456 1.8322817 1.9619342
000020 d4 f0 12 40 e7 78 17 40 ab 4e 1d 40 31 f1 16 40
       2.295949 2.3667543 2.4579265 2.3584712
000030 15 f6 26 40 d4 e1 1f 40 b3 b9 23 40 de 34 29 40
       2.6087697 2.4981585 2.5582092 2.6438518
000040 9f cf 3f ba 7f 77 30 3f e2 7e 8e 3f f6 74 af 3f
       -0.000731701 0.68932337 1.1132472 1.3707569
000050 aa 3d cd 3f 9a e2 e4 3f a3 88 f9 3f 77 4a 05 40
       1.6034443 1.7881653 1.9494823 2.08267
000060 81 83 0a 40 c8 73 12 40 93 99 18 40 15 3b 1f 40
       2.1642764 2.2883167 2.3843734 2.487981
000070 cb 57 23 40 d9 25 2a 40 72 c5 2e 40 65 86 31 40
       2.5522335 2.65856 2.730801 2.7738278
000080 2f b3 c7 3d 04 89 e4 3e f7 56 55 3f 81 3a 9e 3f
       0.097509734 0.44635785 0.8333582 1.2361604
000090 6a 37 b5 3f e7 12 ed 3f 80 5d d6 3f 37 5b ec 3f
       1.4157536 1.8521394 1.6747284 1.8465337
0000a0 0a 7f 19 40 4a ce 19 40 74 cd 1f 40 8f 85 0f 40
       2.3983788 2.403216 2.4969149 2.2425268
0000b0 cd e8 23 40 1f 28 16 40 d2 0e 1b 40 e5 b9 1f 40
       2.561084 2.3461988 2.4227796 2.495721
0000c0 18 1b 5b 3d 70 8e 04 3f 68 82 68 3f db 31 a3 3f
       0.053492635 0.5177984 0.90823984 1.274959
0000d0 b4 68 ba 3f e3 7d ee 3f d8 86 de 3f 90 4a f3 3f
       1.4563203 1.8632168 1.7384901 1.900713
0000e0 3f 5e 16 40 88 ff 19 40 a1 18 20 40 0f e3 12 40
       2.3495023 2.4062214 2.5015032 2.2951086
0000f0 ab f9 26 40 58 ef 19 40 f9 fe 1e 40 13 27 23 40
       2.6089885 2.4052334 2.4843123 2.54926
000100 89 43 d4 3c 74 3a 10 3f 72 22 73 3f cc 56 a2 3f
       0.02591111 0.5633919 0.94974434 1.2682738
000110 67 4b bb 3f 62 f0 ea 3f 35 46 e4 3f 2c 40 f5 3f
       1.4632386 1.8354609 1.7833925 1.9160209
000120 ee 07 14 40 07 74 17 40 cb 2a 1d 40 cc 2a 14 40
       2.312984 2.3664567 2.4557369 2.315112
000130 18 a4 24 40 b4 08 1d 40 fe 57 21 40 38 50 26 40
       2.5725155 2.4536562 2.5209956 2.5986462
000140 5e fe 67 3e 3d c0 ab 3e 24 dc 3e 3f f9 5d a7 3f
       0.22655627 0.33545104 0.7455466 1.3075553
000150 ab 1b be 3f e1 c8 f7 3f ce 3f cb 3f 61 63 f1 3f
       1.4852194 1.9358178 1.5878847 1.8858453
000160 ed b4 1c 40 53 f9 20 40 a2 36 28 40 b5 40 12 40
       2.4485428 2.5152175 2.6283345 2.2851994
000170 fe f3 24 40 92 12 13 40 36 f0 17 40 6d f9 1b 40
       2.577392 2.2980084 2.3740363 2.4370987
000180 f9 59 b2 3d f8 f3 f4 3e 88 e6 5e 3f ed ca a4 3f
       0.08708567 0.47842383 0.8707051 1.2874428
000190 08 09 bc 3f 38 68 ef 3f eb 06 da 3f 8c 04 f2 3f
       1.4690256 1.870368 1.7033361 1.8907638
0001a0 f5 27 18 40 b6 02 1b 40 83 25 21 40 f0 26 12 40
       2.3774388 2.4220405 2.5179145 2.2836266
0001b0 08 46 24 40 8d 32 18 40 39 fc 1c 40 ac 6d 21 40
       2.5667744 2.3780854 2.4528944 2.5223188
0001c0 10 e2 0f 3d 0c 34 0a 3f ec f8 6b 3f ba 41 a1 3f
       0.0351277 0.5398567 0.921767 1.2598183
0001d0 d8 c4 b9 3f 00 76 eb 3f 35 0f e1 3f 97 38 f3 3f
       1.4513197 1.8395386 1.7582766 1.9001645
0001e0 3d a2 15 40 c0 1a 18 40 ba d1 1d 40 22 20 13 40
       2.3380272 2.3766327 2.4659257 2.2988362
0001f0 5f a0 24 40 9f d9 1a 40 d2 a0 1f 40 13 9e 24 40
       2.5722883 2.4195325 2.4941907 2.572148
000200 75 e9 2e 3e 99 38 c2 3e d4 c4 48 3f fa 39 a5 3f
       0.17081244 0.37933806 0.78425336 1.2908318
000210 2d 8f bb 3f f4 90 f3 3f f6 2c cf 3f 69 6d ee 3f
       1.4653069 1.9028611 1.6185596 1.8627139
000220 36 52 1b 40 62 a9 1d 40 a8 56 24 40 62 36 10 40
       2.4268928 2.4634633 2.567789 2.2533193
000230 8d fe 22 40 27 cb 13 40 ca 8b 18 40 87 9e 1c 40
       2.5467865 2.3092744 2.383532 2.4471757
000240 ce 58 61 b9 72 cd 31 3f a4 25 8d 3f 77 7f b1 3f
       -0.00021490754 0.6945411 1.1027112 1.3867024
000250 4a 3c ce 3f 94 34 e5 3f 0c 85 f9 3f db 53 05 40
       1.6112149 1.790667 1.9493728 2.0832431
000260 20 2e 0c 40 fc 2e 13 40 a3 4a 19 40 8c 50 1f 40
       2.1903152 2.2997427 2.3951805 2.4892912
000270 86 04 24 40 17 55 29 40 45 e5 2d 40 60 b8 31 40
       2.562776 2.6458185 2.7171185 2.7768784
000280 3b 54 02 3e 05 3e 01 3f 05 95 67 3f 07 14 ad 3f
       0.12727444 0.5048526 0.9046176 1.3521737
000290 50 c8 c2 3f cd 52 f6 3f c9 99 de 3f dd 71 f9 3f
       1.521738 1.9244019 1.7390682 1.9487873
0002a0 b7 67 18 40 41 09 1e 40 83 7a 24 40 c4 5c 15 40
       2.3813303 2.4693148 2.5699775 2.333787
0002b0 dc de 2c 40 b6 8d 1a 40 55 c4 1f 40 d9 3d 23 40
       2.7011023 2.4148993 2.4963582 2.55065
0002c0 45 16 8b bd db 51 22 3f a7 00 86 3f 35 1d ab 3f
       -0.06791357 0.6340615 1.0468949 1.3368288
0002d0 dd 52 ca 3f 37 6a d1 3f f8 6b f1 3f 48 5b 03 40
       1.5806538 1.6360539 1.8861074 2.0524464
0002e0 34 72 0a 40 dc 0a 0a 40 93 ee 0f 40 39 fb 1c 40
       2.1632204 2.1569128 2.2489364 2.4528334
0002f0 d4 e8 18 40 1d 43 23 40 04 6d 29 40 02 ee 2c 40
       2.3892107 2.5509713 2.6472788 2.7020268
000300 64 1a d3 bd 09 d9 69 3f 72 aa a8 3f 38 40 b9 3f
       -0.10307768 0.91346794 1.3177016 1.4472723
000310 e1 69 db 3f a9 be d7 3f 74 2c 0c 40 4a 01 0f 40
       1.7141687 1.685506 2.1902132 2.2344537
000320 ab 4b 01 40 0d f6 09 40 1b 93 0f 40 aa 30 2a 40
       2.0202434 2.1556427 2.2433536 2.6592202
000330 1b bc 1f 40 89 19 39 40 83 16 3d 40 1f de 41 40
       2.495856 2.8921835 2.954499 3.0291822
000340 48 c3 d1 bc ac 81 4b 3f ba 3c 9d 3f 38 81 b9 3f
       -0.025605813 0.7949474 1.2284157 1.449256
000350 a9 22 db 3f a1 e0 dd 3f fb 81 05 40 22 39 0d 40
       1.7119952 1.7334176 2.0860584 2.206612
000360 9a 15 05 40 c6 d2 0d 40 77 ff 13 40 c8 bf 27 40
       2.0794435 2.2159896 2.3124673 2.6210804
000370 40 2a 20 40 c1 19 34 40 29 f2 37 40 f5 7b 3b 40
       2.5025787 2.814072 2.8741553 2.9294407
000380 a9 1a 57 be 25 04 60 3f 3f cd a6 3f 8c 85 a7 3f
       -0.21006264 0.87506324 1.3031386 1.308763
000390 20 78 cb 3f 20 37 c9 3f b2 ad 08 40 18 7f 07 40
       1.5896034 1.5719948 2.1356015 2.1171322
0003a0 2f 18 fc 3f 6b f0 03 40 8e c5 08 40 4e ac 22 40
       1.969488 2.061549 2.1370578 2.5417666
0003b0 d0 10 18 40 8f f5 34 40 6f 12 39 40 81 4a 3d 40
       2.3760262 2.8274877 2.89175 2.9576724
0003c0 8d 27 25 39 99 22 31 3f 6e 38 8c 3f f5 61 b1 3f
       0.0001575036 0.69193417 1.0954721 1.3858019
0003d0 f4 ca cd 3f 3b 70 e5 3f 19 b0 f8 3f 8c de 04 40
       1.6077561 1.7924875 1.9428741 2.0760832
0003e0 98 ef 0c 40 4f 7e 13 40 53 95 19 40 18 c8 1e 40
       2.2021236 2.3045843 2.399739 2.4809628
0003f0 45 3c 24 40 06 8d 28 40 cf d4 2c 40 9d 31 31 40
       2.5661786 2.6336074 2.7004888 2.7686532

q_head.mamba.D f4 [18]
000000 7d b1 95 3f d3 4f a0 3f 60 31 a1 3f 60 b6 93 3f
       1.169479 1.252436 1.2593193 1.1540031
000010 7b 3b a0 3f 92 70 9e 3f af 6b 9c 3f 07 51 a5 3f
       1.2518152 1.2378104 1.2220362 1.2915353
000020 8b 64 9f 3f 5a da 9e 3f cf f6 a2 3f 2f ff a6 3f
       1.2452558 1.2410386 1.273157 1.3046626
000030 28 c4 9c 3f fc 04 a1 3f d5 37 a9 3f e8 18 a0 3f
       1.2247362 1.2579646 1.3220164 1.2507601
000040 67 5e a6 3f aa 3d a3 3f
       1.2997559 1.2753193

q_head.mamba.in_proj.weight f4 [36, 9]
000000 76 fb bc be 03 64 50 be 94 d5 07 bf cc 62 70 3e
       -0.369106 -0.20350651 -0.5306027 0.23475188
000010 36 76 af be de 5c 97 be dc 43 a5 be 06 6a a7 be
       -0.34269875 -0.2956304 -0.32278335 -0.32698077
000020 c1 5d cd bd ab 23 9f 3e d2 39 f9 3e 41 fc b5 3d
       -0.10027648 0.310819 0.48676926 0.08886004
000030 3a 12 6a be 74 8b 88 3e 24 ea 57 bd 7f 35 1b 3e
       -0.22858515 0.26668894 -0.05271353 0.15157126
000040 bf b2 18 3f dd b0 11 3f 12 2e 82 be bc da 44 3b
       0.59647745 0.56910497 -0.25425774 0.0030037602
000050 d0 5f 2c be b9 1c 23 3e cf 58 df bd 79 31 81 bd
       -0.16833425 0.15928926 -0.10905611 -0.06308264
000060 2b b0 11 be b9 0f 1c bf 41 da f2 be c9 5f 05 bd
       -0.14227359 -0.6096149 -0.4743214 -0.03256205
000070 fd 29 0a 3f 06 96 cb 3b f6 e3 97 be cb 80 c0 3e
       0.5397032 0.0062129525 -0.29666108 0.3759826
000080 2e 44 8e 3e 72 ce 94 3e 03 d9 15 3e 24 aa 51 3e
       0.27786392 0.29063755 0.14633565 0.2047506
000090 b4 07 d4 3e 57 92 b7 3d 9f fe 0d 3f 1c b0 a2 be
       0.41412127 0.08963459 0.55466646 -0.31774986
0000a0 92 8c 05 3f 8f bf af 3e e5 e9 9b 3d d4 b8 00 3f
       0.5216762 0.34325835 0.07612971 0.50282025
0000b0 6f dc ad bc 9c 1e 3f 3e ee 4f 40 3d 18 8d c8 3d
       -0.021223275 0.1866402 0.046951227 0.097925365
0000c0 92 d5 94 be 72 2c 32 3e c1 bf ed 3e fd ba 89 be
       -0.2906919 0.17399767 0.4643536 -0.26900473
0000d0 42 1b ff 3e 17 a8 8d 3e dd d4 06 bf 6f c1 12 be
       0.49825484 0.27667305 -0.52668554 -0.14331602
0000e0 b6 b9 09 bf 24 f8 21 3e a1 2f af be c0 d2 b9 be
       -0.53799 0.15817314 -0.34216025 -0.36293602
0000f0 e8 23 6e be 82 54 ff be f5 eb 52 be 46 13 f9 3e
       -0.23255885 -0.49869162 -0.20597823 0.48647517
000100 b3 c3 0a 3d 10 98 18 3f 06 e0 0f be bd d4 dc 3e
       0.03387804 0.5960703 -0.14050302 0.43131056
000110 dd f2 1c 3f 13 ab 45 bd 73 79 de 3b 43 49 9d 3e
       0.6130808 -0.048258852 0.00678938 0.30719957
000120 54 54 34 3e 5c 32 c9 3e 5a 51 d1 bd bd ee ac be
       0.17610294 0.39296234 -0.10220595 -0.33775893
000130 b0 87 ab bd 1b f4 c5 bd 67 87 9e 3e dd c6 9e 3e
       -0.0837549 -0.096657 0.3096268 0.31011096
000140 0a d3 10 3d c9 fa 86 3d d3 66 c0 3e fa 8c 11 3e
       0.035357513 0.06590802 0.3757845 0.14213935
000150 92 56 8b bd 03 e9 19 3f 17 ca 04 3e 59 40 93 3e
       -0.06803621 0.6012117 0.12967716 0.2876003
000160 fd a0 51 3e d1 ee d1 3e 64 2c ff 3e 6b 00 f7 3d
       0.20471568 0.41002515 0.49838555 0.120606266
000170 8a d9 8a 3e 75 f6 03 bf 06 27 01 3f 90 36 b9 3e
       0.27119094 -0.5154794 0.5045017 0.3617444
000180 c0 68 71 3e 39 6d 93 3e 45 98 1e 3e ed db c1 3e
       0.23575115 0.28794268 0.15487774 0.37863103
000190 14 b4 06 3e dc 24 cc 3e e3 1c 11 3f 1e 06 75 be
       0.13154632 0.3987187 0.566847 -0.23928115
0001a0 f5 1c b1 3d 16 97 3e 3e 9a bd a0 3e c3 65 59 3e
       0.08648101 0.18612322 0.31394655 0.21230225
0001b0 0d a8 dd bc 4d ea a4 be 2b 4d 85 be bc aa 4d 3e
       -0.027057672 -0.32210007 -0.26035437 0.20084661
0001c0 12 37 b4 be e3 a3 9e be cd 7e 36 bd a2 4a 0d bf
       -0.35198265 -0.3098441 -0.04455452 -0.55192006
0001d0 8a e9 d8 bd 45 2a ee 3e 0d 93 ce 3e d1 29 89 3e
       -0.10591419 0.46516624 0.40346566 0.26789716
0001e0 fc 4a d6 be 49 86 8e 3e 44 b7 07 3f 8c 5a a9 3e
       -0.41854084 0.27836826 0.53014016 0.33076894
0001f0 9a 17 02 3f b2 a5 dc 3e 45 c5 d2 be a8 b3 12 be
       0.50817263 0.43095165 -0.4116613 -0.14326346
000200 57 d6 0d 3e 60 a6 03 3f 8b c7 29 be ae e4 91 be
       0.13851295 0.51425743 -0.16580026 -0.2849478
000210 36 5d a6 bd 5f fc 91 bd e8 5a 2a bf 35 b2 a9 3e
       -0.08123247 -0.07128214 -0.6654496 0.33143774
000220 5b 9a c1 3d f0 c0 b1 bc 70 1c 80 be 95 bc 71 3e
       0.09453269 -0.021698445 -0.25021696 0.23607095
000230 25 3b c9 3e cf 5c ea 3e b0 7c d5 3e 0f e1 f3 3e
       0.39302936 0.45773932 0.41696692 0.47632644
000240 7f c6 c7 be c0 09 6d be eb 35 9e be 5b 9a a1 3d
       -0.39018628 -0.2314825 -0.3090051 0.07890769
000250 66 d4 f7 be 75 ed 43 be 09 ce ca be 61 51 08 bf
       -0.48404235 -0.19133551 -0.39610317 -0.53249174
000260 83 00 11 bf 27 fe 1f 3f 41 08 b8 3e f1 c8 a6 3e
       -0.56641406 0.6249718 0.35943797 0.3257518
000270 89 fd cd be 3a d3 28 3e 18 b4 1d 3f 9a 8f 17 3e
       -0.40232494 0.16486827 0.61602926 0.14800873
000280 f8 13 dc 3d ec 87 c3 3e 84 7f a6 3c 95 9c 30 3e
       0.10745996 0.38189638 0.020324476 0.17247231
000290 03 87 c6 3e 91 24 9e be a1 53 75 3e 33 43 d4 3e
       0.3877488 -0.30887273 0.23957683 0.4145752
0002a0 01 0f e7 3d b3 a4 44 3c 21 f7 fc 3d ec b4 8d 3d
       0.11282159 0.012002158 0.123518236 0.06919274
0002b0 cf ef b5 be 8f b2 33 be 48 92 60 3e b2 13 01 be
       -0.35534522 -0.17548583 0.21930802 -0.1260517
0002c0 f6 6e 40 bc 1a 25 c3 bd 23 89 66 be d9 ab 6d be
       -0.011745205 -0.09528561 -0.22513251 -0.23210086
0002d0 e9 12 b8 3e a5 21 16 bf 0f 05 54 3d b9 64 88 3e
       0.35951927 -0.5864509 0.051762637 0.26639345
0002e0 68 c9 4b be 36 8a 2c be d0 64 92 be ac 0d 04 bd
       -0.19901049 -0.16849598 -0.2859254 -0.0322396
0002f0 a4 ad 4b be 94 ec 06 be 05 31 1d bd e5 02 cd 3c
       -0.19890457 -0.13176185 -0.038376827 0.025025794
000300 88 da ce be bb f0 97 3e 9e 68 d7 3e af 5b 75 3e
       -0.404011 0.2967585 0.42072004 0.23960756
000310 42 ca dc 3e 39 c3 61 bd c9 e5 42 3e 3f d7 27 be
       0.4312306 -0.05511782 0.19032969 -0.16390704
000320 d7 53 83 3d 1a 72 28 3d 95 fc 07 3f 6d 22 94 be
       0.064124756 0.04112444 0.53119785 -0.28932515
000330 4c 30 49 be 8e 55 09 3f 0a 96 35 3e 78 d7 20 be
       -0.1964733 0.5364617 0.17733017 -0.15707195
000340 41 07 92 3e dc b2 44 be 2a 7b a5 be 06 26 d0 bd
       0.2852116 -0.19208854 -0.3232053 -0.101635024
000350 01 99 be 3d 13 20 8d bb 91 39 87 be 5f c5 c8 3d
       0.09306527 -0.004306802 -0.26411107 0.098032705
000360 76 5a ba 3c 5b 41 c7 3e 67 f3 15 3f d5 30 cd be
       0.022748213 0.3891705 0.5857453 -0.40076318
000370 b9 b8 75 3e 60 2e a1 3e ec 8b bd bd e3 41 0b 3f
       0.23996247 0.31480694 -0.092552036 0.5439741
000380 14 5c a0 3e f9 81 ce 3e 21 3c f2 be 97 d5 0c 3e
       0.3132025 0.40333536 -0.473115 0.13753353
000390 d2 35 40 3e 0e 10 56 be 47 dc ee be 5e a2 e2 be
       0.18770531 -0.20904562 -0.46652433 -0.442645
0003a0 10 20 ab 3e 82 4a 1a be ba 7b 8e be 89 2b 7b 3e
       0.334229 -0.15067485 -0.2782877 0.24528326
0003b0 70 82 de 3d 43 5d c8 be 1a d9 f5 bd 91 96 a6 3e
       0.10864723 -0.39133653 -0.120042995 0.32536748
0003c0 d5 b6 b4 3e c5 0c c8 bd a0 2c db 3e 26 45 de 3d
       0.3529574 -0.097680606 0.42807484 0.10853033
0003d0 78 25 7c 3e cf 2f 90 bc a9 45 3b be 7e ee 65 3e
       0.24623668 -0.017600922 -0.18288292 0.22454259
0003e0 64 e7 11 3e d7 30 53 3e a6 98 6f 3e 0a 8d 17 3e
       0.14248425 0.206241 0.23398075 0.14799896
0003f0 8d d8 d6 3e 86 1d 24 bd 29 1a 0c 3f a8 d9 e7 3e
       0.4196209 -0.04006722 0.5472742 0.45283246

q_head.mamba.conv1d.weight f4 [18, 1, 4]
000000 5c a3 da be a4 e6 6b be ba 15 ff bd 68 2d 0f bf
       -0.42702758 -0.23037201 -0.12455316 -0.5592866
000010 a4 a8 7d be 68 b6 a1 3d a5 95 85 be 7b 33 19 3f
       -0.24771363 0.07896119 -0.26090732 0.5984418
000020 70 34 77 3e 60 0b 5a 3d 69 7d 98 bc a2 6a 86 3e
       0.24141097 0.053233504 -0.018614488 0.2625323
000030 26 4f ea 3e 40 50 10 be 63 17 aa 3c 97 81 d3 3e
       0.4576351 -0.14093113 0.020763105 0.41309807
000040 a0 ae ef bd b4 23 0c be 50 05 3c be ab 74 e9 be
       -0.11703229 -0.13685495 -0.18361402 -0.45596823
000050 38 62 b6 3d b6 6b b1 3e bd 2d 11 bf 4f 0e 35 bf
       0.089054525 0.3465249 -0.56710416 -0.7072496
000060 30 22 71 3e ec ea c9 be f5 ea e4 bc ae e7 22 3f
       0.23548198 -0.39437044 -0.027944067 0.63634765
000070 7e 6a 83 3e c0 24 1b be b7 71 08 bf c8 93 b2 be
       0.25667185 -0.15150738 -0.53298515 -0.34878373
000080 50 20 3b 3d f0 5a 02 3d 55 64 13 bf e6 38 0e bd
       0.045685112 0.031825006 -0.5757497 -0.03472223
000090 90 d2 63 bd 28 79 79 3e 7f d8 1f bd 81 44 09 bf
       -0.05562073 0.24362624 -0.039024826 -0.53620154
0000a0 40 d4 8c bd 40 b7 fb bd 2a 71 2f 3f 53 c6 b6 3e
       -0.06876421 -0.122908115 0.6853205 0.35698184
0000b0 b4 61 cf 3e 00 df 04 3d 4c 9c 17 bf 94 cf 1f 3f
       0.4050423 0.032439232 -0.59222865 0.62426114
0000c0 78 7d 20 be e4 b2 35 3e 73 97 85 3e 33 0d fe be
       -0.15672863 0.17744023 0.2609211 -0.49619445
0000d0 18 aa ab 3d 84 b1 03 3e 5f 71 9f be 3f 35 d6 3e
       0.08382052 0.12860686 -0.31141183 0.418375
0000e0 50 e7 2b bd 10 1b 40 be 0e 23 37 bf d8 a0 e7 3e
       -0.041968644 -0.18760324 -0.71537864 0.45239902
0000f0 22 12 b2 3e 68 b1 d7 bd c6 7e 00 bf 47 3a 13 bf
       0.3477946 -0.105318844 -0.5019344 -0.575108
000100 98 e3 c8 be 4a d2 d7 3e c3 61 44 bf e4 b6 19 bf
       -0.3923614 0.42152625 -0.7671167 -0.60044694
000110 88 fa e6 bd a0 e4 25 3e 58 cc 38 bf 8a c5 08 bf
       -0.11278254 0.16200495 -0.72186804 -0.5342642

q_head.mamba.conv1d.bias f4 [18]
000000 2d 04 9f 3e 8f 0d e4 3c 62 80 16 bf c7 f2 2c 3f
       0.31057873 0.027838496 -0.58789647 0.6755795
000010 44 ad 19 bf 4b cc 26 bf 5d 39 cc be 2b 31 28 bf
       -0.6003001 -0.65155476 -0.39887515 -0.65700024
000020 ac 8b 35 bf 03 4e dc be 66 b7 20 3e 29 e5 e1 3e
       -0.7091625 -0.43028268 0.15694961 0.44120148
000030 a0 82 38 3f d0 d7 1f 3e 8f 2b 15 3f e8 64 42 bf
       0.7207432 0.1560967 0.5826959 -0.7593522
000040 45 78 1c 3f 64 88 0f bc
       0.61121017 -0.008760545

q_head.mamba.x_proj.weight f4 [33, 18]
000000 97 25 14 3e 6f a4 77 3e 13 50 e6 bd e7 6e cf 3e
       0.14467464 0.2418382 -0.11245742 0.405143
000010 0f 61 09 be ff 33 8a be 98 27 67 be 09 b8 b4 be
       -0.13415931 -0.26992795 -0.22573698 -0.35296658
000020 fe d1 ab be a8 12 ca be 06 52 22 3c 60 c3 17 3a
       -0.3355865 -0.3946736 0.009907251 0.0005789306
000030 30 e5 06 3e 19 7a af 3e 34 fa b6 be 1c 03 cf be
       0.13173366 0.3427284 -0.35737765 -0.4043206
000040 38 7e 55 3e 51 52 c8 be 5d a3 7e bd 64 6c 5f 3e
       0.2084893 -0.39125302 -0.062167514 0.21818691
000050 55 c9 3c be 27 ba 70 3e a2 0d 47 be b8 7a 23 bd
       -0.18436177 0.23508511 -0.19438794 -0.039911956
000060 42 08 98 3d 98 67 87 3d 0f d0 6d 3c 64 63 c2 bd
       0.0742345 0.06611556 0.014514937 -0.094916135
000070 0c 98 33 be 8e 9e 77 be d3 db 87 3e 9f 74 be 3e
       -0.1753847 -0.24181578 0.265349 0.3719835
000080 02 fd ba be 63 3e 14 be 77 48 80 3e aa a1 e5 bd
       -0.36521155 -0.14476924 0.25055286 -0.112124756
000090 3d c5 de be 1b 58 8a be 49 5c 03 3f b9 d1 e1 be
       -0.43509856 -0.27020344 0.5131269 -0.44105318
0000a0 1a 2c 2b 3e 8c 9b 87 3e 0c 70 0d 3f 2b fc 92 3e
       0.16716042 0.2648586 0.55249095 0.28708014
0000b0 ba 4c 98 3e 7e cf 87 3e cf 49 6b be b9 90 82 3d
       0.29746038 0.2652549 -0.22977374 0.0637526
0000c0 10 8e 01 bf d5 41 d1 be 5b 77 6a bc da 07 0e 3f
       -0.50607395 -0.40870538 -0.014310683 0.5548073
0000d0 41 ac 0f bf 6d c8 e6 3e f3 d9 2a be 4e dc 95 be
       -0.56122214 0.45074788 -0.16684704 -0.29269642
0000e0 1d 2b be 3e 12 fd ff be 43 77 d5 3e 4d 3d b7 3e
       0.37142268 -0.49997765 0.41692552 0.35788956
0000f0 81 d5 8e 3d 52 ac b4 3e 07 9c e9 3e 01 8b fa 3e
       0.069743164 0.3528772 0.45626852 0.48934177
000100 df 9e da be aa 27 a9 bc 25 e1 43 be 7b df 4c be
       -0.42699334 -0.020648796 -0.19128855 -0.20007126
000110 21 5f 16 be 36 5f 06 3f b4 0b 5c be b6 55 be 3e
       -0.14684726 0.5248903 -0.2148884 0.37174767
000120 d7 1d 0f 3e 0a ad b0 3e eb ba e7 bd 4a df d9 3e
       0.13976227 0.34507018 -0.11314949 0.4255317
000130 81 ea d7 be ec c7 10 be f2 e5 0c bf 5b d0 64 be
       -0.421711 -0.14138764 -0.5503837 -0.22345106
000140 82 f8 8b be fc fd 00 be 36 1d ba 3e d2 42 f5 bd
       -0.27338034 -0.12596887 0.3635041 -0.119756356
000150 90 84 41 3e 1e 56 47 3e 1a ec 66 3c ba 14 98 be
       0.18898225 0.19466445 0.014094377 -0.29703313
000160 e3 f0 0a 3f f6 28 3a be 91 07 76 3e d8 a2 8c 3e
       0.54273814 -0.18179688 0.24026324 0.2746799
000170 d3 11 fc be b4 94 1f 3e 8f c8 68 be c6 14 c6 be
       -0.4923235 0.1558407 -0.22732757 -0.38687724
000180 0c 48 86 be 15 3c bd be 73 dc c8 be b0 1e e8 be
       -0.26226842 -0.369599 -0.3923069 -0.45335913
000190 bc e8 aa 3e 2f 9d 0b be 29 0b 01 3f 95 93 ea bc
       0.33380687 -0.1363418 0.50407654 -0.028634826
0001a0 70 92 4b 3e 5e 50 d8 be da 9c 10 3f 8f e2 f7 be
       0.1988008 -0.42248815 0.56489336 -0.48415038
0001b0 b5 54 a7 be d8 95 f1 be 70 c1 e7 3e 49 94 c2 bd
       -0.32681814 -0.47184634 0.4526477 -0.095009394
0001c0 e5 b7 60 3e fe f7 bf 3d 48 19 8b 3d 8d 51 cd 3e
       0.2194515 0.09373473 0.067919314 0.4010128
0001d0 77 33 52 bd 43 85 10 3e 43 96 82 bc 2c 74 af 3e
       -0.051318612 0.14113335 -0.015940791 0.3426832
0001e0 f6 8a d7 be cf f5 db be ee cc 04 3e d1 78 80 3e
       -0.42098206 -0.42960975 0.129688 0.25092176
0001f0 7b 34 20 3d 90 76 74 3e d1 af 83 3e 33 4f 3f bd
       0.03911255 0.23873353 0.25720075 -0.04670639
000200 83 a4 c0 be a3 5d 09 3f b0 24 e4 be df 14 f7 be
       -0.37625512 0.53658503 -0.4455924 -0.4825811
000210 f0 63 0a bf c9 28 65 be f2 95 4d be 50 87 d1 bd
       -0.5405874 -0.2237884 -0.20076731 -0.10230887
000220 4b 47 a0 3e a8 1c 15 3e 97 b9 9d 3e 76 48 25 3d
       0.31304392 0.14561713 0.30805656 0.040352307
000230 c9 6b 0c be 89 54 b3 be d0 e1 8b 3e fc ef 0b bf
       -0.13712992 -0.35025433 0.2732072 -0.5466306
000240 31 00 ca 3e 93 62 8e 3e e4 6f 83 be dc 9e 74 3e
       0.3945327 0.2780958 -0.25671303 0.23888725
000250 5d 3a bf be 33 a2 50 be a4 46 7c be 7f 82 bf be
       -0.37349215 -0.20374374 -0.24636322 -0.37404248
000260 eb f9 05 bf a7 af e7 be 4d 49 02 3f 96 67 98 bd
       -0.5233447 -0.452512 0.508931 -0.074416324
000270 da f5 91 3e fe be 97 3e 9c 0c 1e 3e f1 ee 01 bf
       0.28507882 0.29637903 0.15434498 -0.5075522
000280 0d 6b b8 3e b4 f2 9a be e6 a7 13 3e 03 0a f6 be
       0.36019173 -0.30263293 0.14419517 -0.48054513
000290 a8 99 70 3d bf 30 2c bd 48 79 73 be 12 b6 87 be
       0.058740288 -0.042038675 -0.23776734 -0.26506096
0002a0 17 04 74 bd 24 45 4e bd a1 e7 2c be b6 f9 81 3e
       -0.059574213 -0.050358906 -0.16885234 0.25385827
0002b0 fd 33 f3 3b 33 8c 8e 3e ae c5 14 bd 1c 2a e8 be
       0.007421969 0.2784134 -0.036321335 -0.45344627
0002c0 fa c8 b7 3e 56 a8 2f 3e 62 85 77 3d 68 0c 32 bc
       0.3589552 0.17154059 0.06042994 -0.010867216
0002d0 ee 28 bc 3b 9c 2f f1 3e d9 78 1f be 17 9b ad 3e
       0.005742184 0.47106636 -0.15573443 0.33907387
0002e0 51 5a 8a be 17 b6 cc be 05 a8 86 be c8 9e 1c be
       -0.2702203 -0.39982674 -0.26300064 -0.15294945
0002f0 30 bf 54 3c 9e 4c 25 be 89 21 17 be ec 8f ad be
       0.012985036 -0.16142508 -0.14758886 -0.33898866
000300 87 5c 2c 3e ed 69 da 3e 2c 77 a3 be 6e 90 d4 be
       0.16832171 0.4265894 -0.31926858 -0.4151644
000310 6c de a0 3e d3 01 46 be 2e a7 90 be 06 ef ab bc
       0.31419694 -0.19336633 -0.28252548 -0.020987999
000320 7b 55 eb 3e 2d a5 e9 be b8 be f8 3c 8a 03 4e 3e
       0.45963654 -0.45633832 0.03036438 0.20118538
000330 40 05 9e 3d e2 7b ca bc 8f 09 c9 3c ff ef cc 3e
       0.07715845 -0.024717275 0.02454069 0.40026852
000340 09 da 29 3e f3 24 bd 3c 24 d3 f5 be 90 a2 f6 be
       0.1658708 0.023088908 -0.4801265 -0.481709
000350 2a e6 d6 3e b3 0b 94 3e a6 c7 20 3b 8a 41 fc 3c
       0.41972476 0.28915176 0.0024533062 0.03079297
000360 a8 70 d7 3e dd 77 b9 3d 0d ed c2 be 94 61 0b 3e
       0.42078137 0.09056065 -0.3807148 0.13611442
000370 f0 4b d7 be 60 24 82 be ba 2b d5 be a5 65 cb be
       -0.42050123 -0.25418377 -0.41634923 -0.39725986
000380 b8 e5 eb be 52 0e 07 bf 99 97 4f 3e 30 ae ec 3d
       -0.460737 -0.52756226 0.20272674 0.11556661
000390 4b 8a dd 3e c9 bb 05 3e e0 44 ef bc 1c aa 8c be
       0.43269572 0.13059916 -0.029207647 -0.27473533
0003a0 b2 e8 06 3f b2 1b 46 be a9 d9 be 3e 08 d7 7c 3e
       0.52698815 -0.19346502 0.37275437 0.24691403
0003b0 ec 12 97 bd 15 8e 03 3e f8 42 9c be ee 49 b2 bd
       -0.07376656 0.12847169 -0.30519843 -0.08705507
0003c0 02 b1 8f be 52 65 a3 be 08 d4 3c be 71 99 73 be
       -0.28064734 -0.3191324 -0.18440259 -0.23789002
0003d0 9c 29 71 3e 54 c6 d9 be b5 26 9b 3e d5 a0 a3 3e
       0.23551029 -0.42534125 0.3030297 0.31958643
0003e0 4e 70 dd be a4 47 b9 be cf 78 da 3e 51 7a 2b bc
       -0.43249744 -0.3618747 0.42670295 -0.010466174
0003f0 ab 85 7d 3e e5 c3 92 3e 20 c7 40 be 30 ed 41 3e
       0.24758022 0.2866508 -0.1882596 0.18938136

q_head.mamba.dt_proj.weight f4 [18, 1]
000000 1e 1e 5e 3f ed 71 70 3f c4 81 35 be cc e3 0f 3f
       0.86764705 0.93923837 -0.17725283 0.56206965
000010 1a 0f ef be 51 44 8c 3f 01 7a 9c be fb 11 a0 be
       -0.4669121 1.0958349 -0.30561832 -0.31263718
000020 74 ef 04 3f 42 56 63 be d2 10 5d bf bf 7a 8c 3e
       0.51927876 -0.22200873 -0.8635379 0.27437398
000030 b8 5c 7b 3e 7c 25 89 3c f6 36 9c 3d 7d 8f f6 be
       0.24547088 0.016741507 0.076276705 -0.48156348
000040 49 14 80 3f e3 99 66 3e
       1.000619 0.2251964

q_head.mamba.dt_proj.bias f4 [18]
000000 60 ee ac c0 92 d4 a3 c0 ab 37 5c c0 89 95 a4 c0
       -5.4040985 -5.1196985 -3.4408977 -5.143254
000010 64 f3 ab c0 39 6d 05 c0 da 87 58 c0 47 e3 aa c0
       -5.373461 -2.0847914 -3.3832917 -5.340244
000020 a9 7b 31 c0 1f b2 ca c0 70 aa 92 c0 ae 40 71 c0
       -2.7731726 -6.3342433 -4.5833054 -3.7695727
000030 d6 9f 84 c0 f8 49 ca c0 2c 12 0a c0 d2 97 c0 c0
       -4.144511 -6.3215294 -2.1573591 -6.0185328
000040 53 72 08 c0 ca 39 02 c0
       -2.1319778 -2.0347772

q_head.mamba.out_proj.weight f4 [9, 18]
000000 f1 ea b3 bd 95 5f ca 3e 98 85 07 be 01 e1 81 be
       -0.08785046 0.39526048 -0.13234556 -0.25366977
000010 12 f8 d1 bc c6 2e e9 3e b6 7f e7 3d 72 d4 e8 be
       -0.025630984 0.45543498 0.11303656 -0.45474583
000020 11 d1 21 3e 5c 28 bc 3e bb 10 c1 3e 29 a2 92 be
       0.15802409 0.36749542 0.37708077 -0.28639343
000030 37 12 c9 be bb 58 7d be d6 f4 6e 3e 98 2e 8e 3d
       -0.3927171 -0.24740879 0.23335585 0.06942481
000040 65 fc e0 3e b6 1c bc 3c 8e 74 ff 3c 22 5f 92 be
       0.43942562 0.02296291 0.031183507 -0.28588206
000050 d6 38 fd 3e 57 2e 93 3e 33 40 b0 bd 74 62 93 be
       0.49457425 0.28746292 -0.08605995 -0.2878605
000060 8a ce 8f be 12 4b 00 3f a7 36 af be 35 1c d5 be
       -0.28087264 0.5011455 -0.34221384 -0.41623083
000070 1d 63 ea be 1a de 78 39 c1 d7 ab 3e 6f a5 b6 3e
       -0.45778742 0.00023733862 0.33563045 0.3567309
000080 75 7a a5 be 38 51 a4 bd 24 b4 cb be 12 ce 1c 3e
       -0.3231999 -0.08023304 -0.39785874 0.15312985
000090 80 84 80 be a9 b2 e6 3e cf da dd be 0e c3 e8 bd
       -0.2510109 0.45058182 -0.43331 -0.11365329
0000a0 0e 34 c1 bd 9e b7 f1 3e 29 cc 0b 3d a7 09 e0 be
       -0.09433757 0.472104 0.03413025 -0.43757364
0000b0 73 83 f7 3e 36 8c 6b 3d 69 ca cc 3e d2 91 8c 3d
       0.48342475 0.057506762 0.39998177 0.068637505
0000c0 05 67 95 be 8d c6 94 be ed 6f 1f 3e 0f ac 78 3e
       -0.2918016 -0.29057732 0.1557004 0.24284385
0000d0 3e bc 6d 3e 21 a4 f1 3d 52 85 8b be 75 44 42 3e
       0.2321634 0.11798883 -0.27250153 0.18971427
0000e0 5c af bc bd 52 40 9c bd df 3a 4c be d6 68 c8 3e
       -0.09213135 -0.076294556 -0.19944333 0.39142483
0000f0 28 47 07 3e eb 89 7e be 8c c8 d0 3e ea f0 06 3e
       0.13210738 -0.24857299 0.40778005 0.13177839
000100 39 55 a9 3e a1 02 a3 bd 77 ed 7a be 93 53 b3 be
       0.33072832 -0.07959486 -0.24504648 -0.350247
000110 af c7 32 3e 63 c5 d5 3e d7 95 54 3e 11 4c 36 be
       0.17458986 0.41752157 0.20760284 -0.17802455
000120 23 b6 a7 ba f1 a8 86 3d 7c bb 5e 3d bd 7b 0d be
       -0.001279537 0.06575192 0.054378018 -0.13816734
000130 aa d9 b3 3e b4 7f 1c 3d 0e 27 c3 3d a5 6e 24 be
       0.35127002 0.038207725 0.095289335 -0.16057833
000140 d6 f6 9b 3e 57 4d 4c 3e 02 49 86 be e3 80 dc bd
       0.30461758 0.19951378 -0.26227576 -0.10766771
000150 b8 d6 d1 be b5 71 c8 be c2 5a 06 bf 03 17 9c 3d
       -0.4098413 -0.39149252 -0.52482235 0.07621577
000160 9e 6a 4f 3e f6 03 e2 3e ed 6b 8d 3e 42 5d ce be
       0.20255515 0.44143647 0.27621403 -0.40305525
000170 69 9b 27 3e 42 5b 81 bd 83 78 db be 35 96 63 3e
       0.16367878 -0.06316234 -0.4286538 0.22225268
000180 df 70 ca be 9b 20 c4 3d e5 aa 02 bd 5e 28 d3 be
       -0.3953924 0.095765315 -0.03190126 -0.41241735
000190 da bf 20 3e 2f 8e df 3e 60 9c 8e 3e 14 2c 43 3e
       0.15698186 0.43663165 0.2785368 0.19059783
0001a0 7d c2 cc 3e f4 14 d6 be 39 c5 a3 be 38 cf 04 bf
       0.39992133 -0.4181286 -0.31986406 -0.5187869
0001b0 7c cc 57 3e 6a 92 ac be 19 71 03 3d 02 a5 80 3e
       0.21074098 -0.33705455 0.03209028 0.2512589
0001c0 e7 47 1e be aa c9 5e be 74 47 c4 be c9 0f 86 3d
       -0.15457116 -0.21756616 -0.38335764 0.065459795
0001d0 bb 3e e1 3c de 9b 0a be 2d 5c 89 3e 51 3f b3 3e
       0.027495733 -0.13536021 0.26828137 0.35009244
0001e0 f9 2b bc 3e 9a f6 2f 3e de b3 d2 3e 26 cd a6 be
       0.36752298 0.17183915 0.41152853 -0.3257839
0001f0 bc c2 78 be 57 69 53 be 09 82 b1 be 01 96 cf 3c
       -0.24293035 -0.20645653 -0.3466952 0.025340082
000200 df 5b b3 be b3 c7 b8 be 81 29 5e be 29 01 f7 3e
       -0.3503103 -0.36089858 -0.2169552 0.48243073
000210 82 00 77 3c 08 88 99 be e5 74 32 3e ee 27 70 3c
       0.015075805 -0.29986596 0.17427404 0.0146579575
000220 d6 51 81 3e 74 7b 5e be 22 96 ed bd 31 71 8d be
       0.25257748 -0.21726781 -0.11600901 -0.2762542
000230 a9 aa 88 3e e5 ed d6 3e 6f 7b f5 3e 58 2f 3e be
       0.26692703 0.41978374 0.47945735 -0.18572748
000240 3c e1 a1 be 0a 19 d0 3e dd 11 42 bc a7 64 03 bd
       -0.31617153 0.40644103 -0.011845079 -0.03207841
000250 dc 31 9a 3e d6 83 17 3d 81 54 86 3e bb a4 d7 3c
       0.30116165 0.036990963 0.26236346 0.026323667
000260 1e 1f 4c 3c ea 4e 80 3e fd ff 5c be 52 5f 8b be
       0.012458591 0.25060207 -0.21582027 -0.2722116
000270 f6 bb df be 5e ec eb bc 91 c4 f7 be ce 07 f0 3e
       -0.4369809 -0.028799232 -0.48392156 0.46880955
000280 c7 54 43 3c 63 b2 c0 3e
       0.011922068 0.37636098

q_head.final_norm.gamma f4 [9]
000000 00 00 80 3f 00 00 80 3f 00 00 80 3f 00 00 80 3f
       1.0 1.0 1.0 1.0
000010 00 00 80 3f 00 00 80 3f 00 00 80 3f 00 00 80 3f
       1.0 1.0 1.0 1.0
000020 00 00 80 3f
       1.0

ema_model.q_head.action_bin_embeddings f4 [2, 256, 9]
000000 46 6c fc 3d 77 8a 01 be 49 1b 06 3e f6 06 28 3e
       0.12325339 -0.12650476 0.13096346 0.16408905
000010 65 c2 09 3e 30 e3 21 be b4 2a 11 be bf c3 15 3e
       0.13453062 -0.15809321 -0.14176446 0.14625452
000020 02 25 f7 3d b2 04 e3 3d f7 1c f7 bd 50 6b 1e 3e
       0.120676056 0.1108488 -0.120660715 0.15470624
000030 6c f8 db 3d 08 a2 fe 3d c2 ce 1f be 45 bc 23 be
       0.10740742 0.12433249 -0.15606216 -0.15989788
000040 ab 6d 01 3e b7 9d e3 3d f8 64 09 3e c8 53 09 be
       0.12639491 0.11114066 0.13417423 -0.13410866
000050 6b 0f 02 3e 50 70 f4 3d 86 fe 04 3e 72 4a 38 be
       0.12701194 0.119354844 0.12987718 -0.17997149
000060 cb bf 24 be 4e da e0 3d 2a 65 26 3e 1e 37 0c 3e
       -0.16088788 0.10979138 0.16249529 0.136929
000070 b5 6d 1c be e0 19 38 3e 7b e8 e6 3d b9 86 eb 3d
       -0.15276225 0.1797862 0.11274811 0.11500306
000080 b3 76 30 be 33 9e e3 bd 18 e7 1b 3e b9 d3 ce 3d
       -0.1723278 -0.111141585 0.15224874 0.10098977
000090 d2 63 d3 3d 69 8e 11 be 84 69 10 3e b0 fc d6 3d
       0.103217736 -0.14214481 0.14102751 0.10497415
0000a0 e3 b2 14 3e 23 1f 2b be 3e 19 25 be 7b 41 1a 3e
       0.14521365 -0.16711096 -0.1612291 0.15064041
0000b0 df 04 15 3e 36 e4 dc 3d a8 86 00 be 5f eb 3e 3e
       0.1455264 0.10785715 -0.12551367 0.18644474
0000c0 2c c7 d9 3d 33 d3 3a 3e 98 39 0c be 77 5a 00 be
       0.10633692 0.18244629 -0.13693845 -0.1253451
0000d0 ab d7 ea 3d d7 8a 02 3e 8a e1 c2 3d 6b 20 f2 bd
       0.11466917 0.12748276 0.095156744 -0.118225895
0000e0 1b ed f2 3d f4 4b ed 3d bf c3 0d 3e 80 39 2f be
       0.118616305 0.115867525 0.13844202 -0.17111778
0000f0 98 ef f4 bd 66 b2 1b 3e 25 c7 f1 3d b7 f3 14 3e
       -0.119597614 0.15204772 0.11805562 0.14546095
000100 3b 3c d1 bd 83 4b 1f 3e fc 8f 12 3e 40 09 ee 3d
       -0.10216566 0.15556149 0.14312738 0.11622858
000110 50 b5 36 be 5d 2f dd bd b6 9a 06 3e 35 ad 20 3e
       -0.17842603 -0.108000495 0.13144955 0.15691073
000120 65 35 b4 3d 2e fd fb bd 30 55 28 3e ca 46 07 3e
       0.08799247 -0.123041496 0.16438746 0.13210598
000130 fc 47 21 3e 6a 93 f4 bd 32 67 03 be 65 ce 21 3e
       0.15750116 -0.119421795 -0.12832335 0.1580139
000140 ea 9b ff 3d ea c6 24 3e e1 4a fe bd 46 0e 28 3e
       0.1248091 0.16091505 -0.12416626 0.16411695
000150 5f 5f db 3d 99 6b 07 3e 26 a1 02 be 0d 59 f7 bd
       0.1071155 0.13224639 -0.12756786 -0.12077532
000160 ed 3e ef 3d c5 40 15 3e bf 64 11 3e 25 fc 04 be
       0.11681924 0.14575489 0.14198588 -0.1298681
000170 ce 83 1e 3e 79 d3 04 3e a1 ce 15 3e ff 68 11 be
       0.15479967 0.12971295 0.14629604 -0.14200209
000180 8f ed d2 bd 3f 4c ba 3d f2 5d 21 3e 68 b0 1d 3e
       -0.10299217 0.09096574 0.15758494 0.15399325
000190 99 48 10 be 93 73 fe 3d 2c 2b 10 3e 10 77 10 3e
       -0.14090194 0.12424388 0.14078969 0.14107919
0001a0 c0 f1 21 be 46 87 05 be a7 c7 1b 3e 28 a0 13 3e
       -0.15814877 -0.13039884 0.1521288 0.14416564
0001b0 24 bb ed 3d d2 79 e2 bd 4b 67 17 3e 82 46 13 3e
       0.1160796 -0.11058392 0.14785497 0.14382365
0001c0 3d 67 1b 3e d7 d2 e5 bd c8 6d 15 be 5a 7e 0b 3e
       0.15176101 -0.11221855 -0.1459266 0.13622418
0001d0 22 48 1a 3e de 6d 08 3e f4 bf 19 be d0 44 12 3e
       0.15066579 0.13323161 -0.1501463 0.14284062
0001e0 ec 30 0c 3e a4 d7 24 3e 7a cb 01 be 43 f7 1a be
       0.13690537 0.16097885 -0.12675276 -0.15133385
0001f0 dd 69 0a 3e 27 b4 02 3e 22 58 19 3e 10 13 f3 bd
       0.13516946 0.12764035 0.14975026 -0.1186887
000200 f1 74 08 3e 7a 8b 04 3e 28 39 df 3d df a6 27 be
       0.1332586 0.12943831 0.108995736 -0.1637225
000210 93 7b 09 be 28 61 27 3e ca c1 08 3e 77 22 12 3e
       -0.13426046 0.16345656 0.13355175 0.1427096
000220 a5 51 fe bd 99 d9 e3 3d c2 c2 22 3e 68 21 43 3e
       -0.12417916 0.11125488 0.15894607 0.19055712
000230 3b 73 16 be 50 7b 19 be db f7 1c 3e f2 10 fb 3d
       -0.14692394 -0.14988446 0.15328924 0.122590914
000240 c9 fa 08 3e 5a a0 ee bd e5 58 3b 3e 3d 30 27 3e
       0.13376917 -0.116516784 0.1829563 0.16326995
000250 ec 75 e6 3d 87 f5 15 be 1d 03 26 be 5e f1 dd 3d
       0.112529606 -0.14644442 -0.16212125 0.10837053
000260 ae 5a 24 3e 5f f7 d7 3d d8 83 05 be ea 95 e7 3d
       0.16050217 0.10545229 -0.13038576 0.11307891
000270 74 dd 2a 3e 4e 37 a2 3d 64 ff 05 be db 85 1e be
       0.1668604 0.07920705 -0.13085705 -0.1548075
000280 00 39 19 3e 47 4e bf 3d e5 06 cd 3d 5a f6 1b be
       0.1496315 0.09341102 0.10011081 -0.15230694
000290 59 4a b0 3d 68 d6 34 3e 6b ad e5 3d 6b 1f 33 be
       0.08607931 0.17659914 0.112147175 -0.17492454
0002a0 8d 18 14 be bb 8d 1c 3e 79 e9 0f 3e ab 22 cd 3d
       -0.1446249 0.15288441 0.14053907 0.10016378
0002b0 bc 4f 1d be 99 43 36 3e 01 f9 06 3e 10 9a f9 3d
       -0.15362448 0.17799224 0.13180925 0.12187588
0002c0 91 72 1b be d6 55 1f be 1c 3b fd 3d 34 e9 11 3e
       -0.15180422 -0.15560088 0.1236479 0.14249116
0002d0 09 21 1d 3e 6b 48 18 be 0b 37 03 3e 4c 4e 09 3e
       0.15344633 -0.14871375 0.12813966 0.13408774
0002e0 df 20 0d 3e fb 7d 0e be e0 15 fa bd 70 9c 09 3e
       0.1378207 -0.13915245 -0.122112036 0.13438582
0002f0 09 94 b7 3d 12 8b 08 3e 90 5a 01 be a0 02 0f 3e
       0.08963782 0.13334301 -0.12632203 0.13965845
000300 75 b1 01 3e 5d 4f 22 3e 1c 07 10 be ca b5 08 be
       0.1266535 0.15850587 -0.14065212 -0.13350597
000310 41 26 27 3e 12 c5 02 3e 21 0e dc 3d 00 c2 a8 bd
       0.16323186 0.12770489 0.107448824 -0.082401276
000320 ae 85 1c 3e 84 a8 23 3e c5 04 09 3e db a2 d0 bd
       0.1528537 0.15982252 0.13380726 -0.10187312
000330 d6 b0 14 be 2b e8 12 3e 30 dd 2c 3e 6c 9d ca 3d
       -0.14520583 0.14346378 0.16881251 0.09893307
000340 66 a4 00 be b3 7d 0d 3e d9 c9 e6 3d 43 a6 04 3e
       -0.12562713 0.13817482 0.11268968 0.12954049
000350 b6 70 1e be b3 16 0a be a1 71 23 3e b4 4c 1d 3e
       -0.15472683 -0.13485222 0.15961315 0.15361291
000360 f4 6f 1d 3e 47 f7 df bd eb ee 19 3e d7 69 1c 3e
       0.15374738 -0.10935836 0.15032546 0.1527475
000370 4d 52 10 3e 1d ad 07 be ee 1f d4 bd aa 1c 19 3e
       0.14093895 -0.13249631 -0.103576526 0.1495234
000380 fe c0 08 3e 90 b2 fc 3d 8a 2a d1 bd e9 ab 34 3e
       0.1335487 0.123387456 -0.10213192 0.17643704
000390 33 a1 17 3e d6 e3 05 3e 63 57 10 be 37 95 09 be
       0.14807586 0.13075194 -0.14095835 -0.13435827
0003a0 1a 4a cd 3d 9d 70 08 3e a7 26 1f 3e 24 d4 02 be
       0.100238994 0.13324209 0.15542088 -0.12776238
0003b0 b9 fa 0d 3e 65 0e cf 3d b4 b3 00 3e 4b af 1a be
       0.13865174 0.101101674 0.12568551 -0.15105931
0003c0 5b f2 d7 bd 4a 1a 12 3e fc e9 16 3e ad 4d df 3d
       -0.105442725 0.14267841 0.14737695 0.10903487
0003d0 60 fe 0a be b5 69 2a 3e 1d af 10 3e ec 96 11 3e
       -0.13573599 0.16641887 0.141293 0.14217728
0003e0 2e a6 24 be a2 5e 0f be 53 2b eb 3d 68 60 1d 3e
       -0.16079018 -0.14000943 0.11482873 0.15368807
0003f0 ac a3 21 3e b8 62 02 be 81 8f 16 3e 00 c1 09 3e
       0.15785092 -0.1273297 0.1470318 0.1345253

ema_model.q_head.mamba.A_log f4 [18, 16]
000000 49 e4 cd 3b 14 e9 27 3f 28 14 85 3f 5e f2 ad 3f
       0.006283317 0.65590024 1.0396776 1.358959
000010 7c f4 c7 3f 69 6e e8 3f 32 4d f1 3f 82 06 01 40
       1.5621486 1.8158695 1.8851683 2.0160222
000020 d5 c0 10 40 e4 1c 16 40 16 05 1c 40 23 b0 1a 40
       2.2617695 2.3455133 2.4378104 2.4170005
000030 fc 57 26 40 bb c9 23 40 b3 d7 27 40 4b 13 2d 40
       2.5991201 2.5591877 2.6225402 2.7043025
000040 26 90 05 bb 8e 4b 33 3f 14 b3 8f 3f 62 49 b1 3f
       -0.0020380109 0.7003716 1.1226525 1.385052
000050 2c f6 ce 3f 53 34 e4 3f e9 2e fb 3f a7 28 06 40
       1.6168876 1.7828468 1.9623691 2.0962312
000060 c9 3b 0a 40 59 17 12 40 33 3f 18 40 d4 25 20 40
       2.159899 2.282675 2.3788574 2.5023088
000070 07 f8 22 40 40 ef 2a 40 a8 81 2f 40 03 82 32 40
       2.5463884 2.6708527 2.7422886 2.7891853
000080 49 40 93 3d b6 a9 0b 3f b4 16 6e 3f d7 62 a9 3f
       0.07189996 0.54555833 0.9300339 1.3233289
000090 a9 53 c1 3f 40 9c ee 3f 7b a9 e3 3f 14 16 f9 3f
       1.5103656 1.8641434 1.7786096 1.9459863
0000a0 5a 48 16 40 8c 14 1a 40 5c 3c 20 40 96 0c 16 40
       2.348166 2.407504 2.503684 2.3445182
0000b0 3f 82 26 40 7e fb 1c 40 ba cc 21 40 60 90 26 40
       2.6016996 2.4528499 2.5281205 2.602562
0000c0 83 63 1b 3d f2 35 17 3f 66 fb 79 3f 66 77 ab 3f
       0.0379367 0.5906669 0.9764923 1.3395813
0000d0 21 d8 c3 3f 6e 3c ed 3f 94 0e e9 3f a2 23 fd 3f
       1.5300332 1.8534067 1.8207574 1.9776499
0000e0 b8 01 14 40 fd fe 18 40 79 37 1f 40 93 11 18 40
       2.312605 2.3905632 2.4877608 2.3760726
0000f0 5c d2 27 40 c2 6e 1f 40 de 53 24 40 96 cc 28 40
       2.6222143 2.4911351 2.5676188 2.637487
000100 57 01 8e 3c 3b 4f 1f 3f ca 6a 81 3f ed c8 a9 3f
       0.017334623 0.6223027 1.0110714 1.3264443
000110 c8 d2 c3 3f fc 41 ea 3f d2 64 ed 3f ac 66 fe 3f
       1.52987 1.8301387 1.8546393 1.9875083
000120 7e d3 11 40 d2 ee 16 40 e7 d2 1c 40 03 f0 18 40
       2.2785335 2.3583264 2.4503725 2.3896492
000130 aa 06 26 40 29 03 22 40 54 4f 26 40 e1 38 2b 40
       2.5941567 2.5314429 2.5985918 2.6753466
000140 a6 50 3a 3e 7b f9 e6 3e 67 54 5a 3f ce f4 b1 3f
       0.18194827 0.45112213 0.8528504 1.3902833
000150 3d ab c9 3f a9 fe f6 3f e9 52 d9 3f 35 46 fd 3f
       1.5755383 1.9296466 1.6978427 1.978705
000160 ff 5f 19 40 ec 09 1f 40 60 2c 26 40 a3 03 18 40
       2.3964841 2.4849806 2.5964584 2.375222
000170 57 dd 25 40 0f 65 19 40 9c 12 1e 40 7c 4b 22 40
       2.5916345 2.3967931 2.4698858 2.5358572
000180 ff 48 84 3d 14 bd 0d 3f 9a 9f 70 3f 52 bd ac 3f
       0.064592354 0.55366635 0.9399353 1.3495276
000190 a3 f8 c4 3f f7 c4 ee 3f e8 72 e4 3f e7 a9 fb 3f
       1.5388378 1.8653859 1.7847567 1.9661225
0001a0 3d cb 15 40 2e 4b 1a 40 bb a4 20 40 2f 3b 17 40
       2.3405297 2.4108386 2.5100543 2.3629873
0001b0 10 f7 25 40 73 93 1d 40 48 4b 22 40 dd ef 26 40
       2.5932045 2.4621246 2.5358448 2.60839
0001c0 73 c7 c5 3c 6d 54 1b 3f dd 73 7d 3f 69 7d a9 3f
       0.024142956 0.606757 0.9900492 1.3241397
0001d0 a8 07 c3 3f 39 24 eb 3f 93 09 eb 3f 05 0f fd 3f
       1.5236712 1.8370429 1.8362297 1.9770209
0001e0 47 43 13 40 58 b9 17 40 c7 a3 1d 40 c1 3a 18 40
       2.3009813 2.3706875 2.4631212 2.378586
0001f0 8e 43 26 40 fd 42 20 40 54 f4 24 40 45 f1 29 40
       2.5978732 2.5040886 2.5774126 2.655351
000200 54 be 0b 3e b4 b4 f8 3e 05 fa 61 3f fd a5 af 3f
       0.13646823 0.48575366 0.88272125 1.3722531
000210 da 02 c7 3f 7e 1f f4 3f 0f d5 dc 3f 4e b0 fa 3f
       1.5547745 1.9072111 1.725252 1.9585054
000220 ee 55 18 40 d3 27 1d 40 f9 f2 23 40 3b 81 16 40
       2.3802447 2.4555557 2.5617049 2.3516376
000230 b6 39 25 40 4b 79 1a 40 c0 1a 1f 40 33 70 23 40
       2.5816474 2.4136531 2.4860077 2.553723
000240 ac 61 27 b9 bd b6 31 3f 25 06 8d 3f a8 7a b1 3f
       -0.00015962747 0.6941946 1.10175 1.3865557
000250 c0 2b ce 3f 47 3e e5 3f e6 68 f9 3f 5d 43 05 40
       1.6107101 1.790963 1.9485137 2.0822365
000260 36 48 0c 40 d0 3a 13 40 c9 55 19 40 80 3d 1f 40
       2.1919074 2.3004646 2.395861 2.4881287
000270 87 0e 24 40 bb 3c 29 40 cf c0 2d 40 ed a6 31 40
       2.5633867 2.6443317 2.714893 2.7758133
000280 fd 8d c5 3d bc 53 0e 3f 27 f1 72 3f 2b 0b b1 3f
       0.09646223 0.5559652 0.9489922 1.3831533
000290 59 cb c7 3f 81 96 f2 3f c1 8f e5 3f b0 0e ff 3f
       1.5608932 1.895218 1.7934495 1.9926357
0002a0 e9 17 16 40 a7 df 1b 40 0f 4d 22 40 8b 7b 18 40
       2.3452094 2.4355257 2.5359533 2.3825405
0002b0 c4 4e 2b 40 78 2e 1e 40 31 26 23 40 c8 1d 27 40
       2.6766825 2.4715862 2.549206 2.6111927
0002c0 2f c5 2c bd e8 30 30 3f e5 11 8c 3f 19 24 b2 3f
       -0.042180236 0.68824625 1.0942961 1.3917266
0002d0 ac b3 d0 3f 47 0f db 3f f6 5b f8 3f 24 6f 06 40
       1.6304832 1.7114037 1.9403064 2.1005335
0002e0 be 16 0b 40 bc d4 0e 40 53 c9 14 40 d1 22 20 40
       2.173263 2.2317343 2.3247879 2.502125
0002f0 3a 8a 1e 40 3c 02 27 40 e2 c8 2c 40 f1 8b 30 40
       2.4771867 2.6095114 2.699761 2.7585413
000300 47 69 a1 bd 26 8a 57 3f 86 29 a1 3f 82 56 b2 3f
       -0.07881408 0.8419517 1.2590797 1.393265
000310 2a b8 d3 3f d2 06 da 3f fe 59 07 40 bc e5 0a 40
       1.6540577 1.7033331 2.1148677 2.1702719
000320 1b 62 03 40 19 72 0b 40 46 02 11 40 83 c1 25 40
       2.052863 2.178839 2.2657638 2.589936
000330 c3 d1 1f 40 e6 57 34 40 fe 85 38 40 0b b8 3c 40
       2.4971778 2.817865 2.8831782 2.948733
000340 d4 b2 97 bc 68 0c 42 3f c5 48 98 3f b1 8b b5 3f
       -0.01851789 0.7580018 1.1897207 1.4183255
000350 58 c8 d5 3f 27 8c df 3f db 4e 02 40 aa 33 0a 40
       1.6701765 1.7464646 2.036063 2.1594033
000360 2c b9 06 40 3c fb 0e 40 12 1e 15 40 74 76 24 40
       2.105052 2.2340841 2.3299603 2.5697298
000370 1d 96 20 40 50 6c 30 40 42 71 34 40 46 cd 37 40
       2.5091622 2.7566109 2.8194127 2.871904
000380 82 2f 25 be f9 67 5d 3f ec af a4 3f 58 9f aa 3f
       -0.16131404 0.86486775 1.2866187 1.3329878
000390 00 07 cd 3f 5b f5 d0 3f 10 09 08 40 88 ba 07 40
       1.6017761 1.6324877 2.1255531 2.12076
0003a0 f1 c6 00 40 59 f4 07 40 71 06 0d 40 de c5 22 40
       2.0121424 2.1242888 2.2035182 2.5433269
0003b0 02 77 1c 40 8b 71 34 40 aa 6c 38 40 78 a1 3c 40
       2.4447637 2.81943 2.8816323 2.9473553
0003c0 12 60 f4 38 36 36 31 3f e3 50 8c 3f 59 66 b1 3f
       0.00011652721 0.69223344 1.0962185 1.3859359
0003d0 93 d9 cd 3f dd 69 e5 3f da c8 f8 3f 92 ec 04 40
       1.6082023 1.7922932 1.9436295 2.076939
0003e0 d8 dc 0c 40 d5 75 13 40 95 8d 19 40 89 d8 1e 40
       2.2009792 2.304067 2.3992665 2.4819663
0003f0 de 36 24 40 31 a1 28 40 2c f3 2c 40 6b 41 31 40
       2.5658488 2.6348383 2.702342 2.7696178

ema_model.q_head.mamba.D f4 [18]
000000 94 6c 92 3f 88 d7 98 3f c9 69 97 3f 16 5b 91 3f
       1.1439385 1.1940775 1.1829158 1.1355922
000010 86 c9 95 3f 9f de 96 3f 20 83 96 3f 14 be 9b 3f
       1.1702125 1.1786689 1.1758766 1.2167382
000020 2d 0e 98 3f b4 f9 97 3f 50 f7 9b 3f 1e d1 9c 3f
       1.1879326 1.1873078 1.2184849 1.2251318
000030 b3 59 96 3f a0 92 99 3f 45 27 a0 3f 50 3d 98 3f
       1.1746124 1.1997871 1.2511984 1.1893711
000040 68 57 9c 3f 9f 42 9a 3f
       1.2214174 1.2051581
