checkpoints/q-mamba/20240816_100148/checkpoint-2.pt (torch, 115222 bytes, 42 tensors)

q_head.action_bin_embeddings f4 [2, 256, 9]
000000 c8 1a 82 3c 23 64 36 bc bc 92 1f bc 5f 5e 0e 3c
       0.01588191 -0.011132273 -0.009739574 0.008689492
000010 bb 44 8b bc 21 cf 56 3c 7c ba 22 bc 60 eb 2e 3c
       -0.017000547 0.013110907 -0.009932157 0.010676235
000020 a2 d4 dd bc a0 ad 27 3c 61 c0 9f bb fe 63 81 bc
       -0.02707893 0.0102342665 -0.0048752283 -0.01579475
000030 8f 9f 44 3b 6f 09 0b 3c 75 04 94 3c 63 de 30 b9
       0.003000233 0.008486136 0.018068532 -0.00016867513
000040 92 b7 ab 3c 0a 74 cc 3c 2e 62 29 bc 92 d5 e3 bc
       0.020961557 0.024957675 -0.010338349 -0.0278118
000050 a1 cf 46 3c 77 2d ab bb 86 55 60 bb 97 9e 26 bc
       0.0121344635 -0.0052239257 -0.0034230663 -0.010169647
000060 87 8f 2b 3c 16 f0 1f bd 99 19 44 bb 33 08 2f 3b
       0.010471231 -0.039047323 -0.0029922484 0.0026707768
000070 cd fa 79 bb 00 66 91 bc 73 9a 46 bc 83 2e 74 3c
       -0.0038143874 -0.017748833 -0.0121217845 0.014903667
000080 40 9f 55 3c 5a 15 32 3c bf bf b6 bc 51 41 b6 bc
       0.013038456 0.010869348 -0.022308229 -0.022247942
000090 f4 35 b7 3b f5 c9 05 bc aa 34 d4 bc 77 31 72 3c
       0.0055911485 -0.008165826 -0.025904018 0.014782301
0000a0 d3 9e 03 bd 9b bd 23 3d 12 0d 80 bb 77 b2 9d 3c
       -0.03213389 0.039975744 -0.003907808 0.019250138
0000b0 02 7d 90 bc 16 99 ba 3c 2d 0f 8c 3c 14 26 93 bc
       -0.017637733 0.022778075 0.01709708 -0.017962493
0000c0 a2 79 dd bc fc 85 9b 39 39 4a a3 bb 1d bf a5 bb
       -0.027035538 0.0002966373 -0.0049832133 -0.005058183
0000d0 f9 6c 7c 3b 4f 31 b6 3b b3 18 8a 3c 15 bf bf 3b
       0.0038517101 0.0055600773 0.01685748 0.005851636
0000e0 15 ae ce 3c f5 bf a6 bc 4c 20 49 3c 54 82 0a bd
       0.025229493 -0.020355204 0.012275767 -0.033815697
0000f0 75 b3 0c bc a6 ca 3f bc 20 83 6e 3b 9b b2 91 3b
       -0.008587708 -0.01170603 0.0036394075 0.0044463403
000100 42 36 d6 ba 36 26 e5 bc c4 8f a8 3c f0 6e 00 3c
       -0.0016343074 -0.027972322 0.020576365 0.00783895
000110 8a f7 c4 bc f4 0b 9c 3c 93 c2 d2 bb 65 ea 06 3d
       -0.024043817 0.019048668 -0.0064318865 0.03293838
000120 1b 9c 09 3c 03 58 1b 3c 9b 9f 6e 3b 3a ab a1 bc
       0.008399035 0.009481433 0.003641105 -0.019734967
000130 51 6b 59 3c 1e 1f 74 bb ba 9b 5f 3b 2f 34 0e 3c
       0.013270215 -0.0037249993 0.003411992 0.008679434
000140 31 84 7d bc 9f 97 01 bc 91 f3 0f bc 66 17 96 bc
       -0.015473411 -0.007909684 -0.008786098 -0.018321704
000150 e0 d4 24 3c e1 5f 4b 3c 54 47 45 3a 10 65 1b bc
       0.010060519 0.012412996 0.00075255823 -0.009484544
000160 79 f0 85 bb 08 1c b4 bb 83 38 39 bc e2 6d d9 bc
       -0.0040875045 -0.0054965056 -0.011304977 -0.026541654
000170 58 c6 34 bd 81 78 c4 b9 4c 5f 6d 3c e7 59 5f 3c
       -0.044134468 -0.00037473816 0.014488053 0.013632274
000180 38 9f 90 bc e3 0b 3b bc e2 11 b4 ba 0b f7 c4 3c
       -0.017654046 -0.011416408 -0.001373824 0.02404358
000190 02 62 4d bc 98 76 9b 3c d5 a4 01 3d 7d 39 c5 3c
       -0.012535574 0.018977448 0.031651337 0.024075264
0001a0 1a 11 5f 3c e3 0f 74 bb ec c1 8e bc 69 64 c0 3b
       0.013614917 -0.0037240915 -0.017426454 0.005871345
0001b0 e6 50 74 bc b4 a4 4f 3b 06 5c 1f 3c 16 50 d3 3c
       -0.014911866 0.0031683864 0.00972653 0.025795024
0001c0 6f 4c f4 bc eb f3 db 3c 2d cf 1b bd de 34 c7 3c
       -0.029821603 0.026849708 -0.038039375 0.024317201
0001d0 c9 b4 5f 3c 74 f1 c4 bb 04 c8 91 3c e3 1f c4 bb
       0.013653942 -0.006010229 0.01779557 -0.0059852465
0001e0 ca e7 0b 3c 43 e6 86 bc e0 87 28 3d ae 09 26 bc
       0.00853915 -0.01646722 0.041145205 -0.010134144
0001f0 7f 9d 35 3c a6 e6 fe bc e4 83 dd ba 58 55 28 3d
       0.011084913 -0.031115841 -0.0016900268 0.041097015
000200 6a 4d 00 3c b5 f8 d3 bc ce fc cf bb 2f 45 0e 3d
       0.007830957 -0.025875429 -0.0063472753 0.034733947
000210 37 59 b5 bb b8 0e cf 3b f6 cd fe 3b 7c 26 14 3d
       -0.005534317 0.0063188933 0.0077760173 0.036169514
000220 7c 57 46 3c 7b 27 84 bb c8 43 da ba fe 2f 61 3c
       0.012105819 -0.0040330268 -0.001665228 0.013744352
000230 de 43 44 3c fe 94 aa bc c4 ef 84 3b 96 29 8a 39
       0.011979071 -0.020822998 0.0040569026 0.00026352395
000240 cc 43 e7 bc 74 8d 1a 3c 88 88 4b bc 07 70 38 3c
       -0.02823057 0.009433139 -0.012422688 0.011257178
000250 77 bc 60 bb f5 b8 d3 3c 91 01 cf bc 84 ec 9d bc
       -0.0034292021 0.02584503 -0.025269302 -0.019277819
000260 85 80 6f bc c0 1f 3b 3c ff 74 ab bc 0c 42 65 bc
       -0.014618044 0.011421144 -0.020929812 -0.013992798
000270 6c 6a 00 bd cc b1 fe ba 2e 77 94 bc be ff 98 bc
       -0.03135149 -0.001943165 -0.018123236 -0.018676635
000280 aa 23 03 bc d4 db 00 bc 8b aa 85 bc 2c 97 d3 bc
       -0.008004108 -0.007864911 -0.016316673 -0.02582892
000290 c6 1d bf bc 4a d5 58 bc eb 6e 32 3c f2 33 21 3d
       -0.023329627 -0.013234446 0.010890703 0.03935618
0002a0 f4 85 c2 bc 7b f0 d6 bc c3 a5 0e 3d a1 f5 20 bd
       -0.023745514 -0.026237717 0.03482605 -0.03929675
0002b0 f9 29 01 bc 33 29 76 3c 8b 2d 8b bc 9a c0 d0 3b
       -0.007883542 0.015024471 -0.01698949 0.006370616
0002c0 61 40 83 3c 45 7f 92 bc 83 64 44 bc ef 71 95 3c
       0.01602191 -0.017882952 -0.0119868545 0.018242804
0002d0 82 8e d1 bc e9 b0 b9 3c b0 6c d5 bc b2 ea e6 3b
       -0.025580648 0.022667365 -0.026052803 0.007047021
0002e0 4e 2d fc bb 7e c1 e1 bb 4e ff df 3c f6 0f b5 bc
       -0.0076958304 -0.006889521 0.027343418 -0.022102337
0002f0 58 21 39 ba f6 35 23 bc 89 fa 92 bd b2 c0 a5 bc
       -0.00070621585 -0.009961596 -0.07176692 -0.020233486
000300 5c 97 b7 bb 8f 4c 54 bc 7b a0 9c 3c 2e 00 07 bb
       -0.0056027602 -0.012957706 0.019119492 -0.0020599472
000310 24 36 1b 3d 95 22 92 39 d2 07 26 bc b3 9b f4 3b
       0.03789343 0.00027873056 -0.0101337 0.00746485
000320 16 35 0c 3d 6c f3 ba 3b 17 43 1f 3d b8 ad bc bc
       0.034230314 0.0057052877 0.03888234 -0.023032054
000330 3b 24 86 bc d6 a0 6e bc b5 8a 18 3d f3 d8 85 bc
       -0.016374698 -0.014564713 0.037241656 -0.016338801
000340 27 f9 84 3b 0f de ee bc 3c fd 88 bc 01 9c 1a bd
       0.0040580216 -0.02915862 -0.016722314 -0.037746433
000350 7f 62 d5 3c 69 4c c4 bc e6 a0 0b 3d 11 f3 22 3d
       0.026047943 -0.023962216 0.03408899 0.039782587
000360 a2 9c fd bc 03 6c 02 bd 4d b7 bb bc 2c 06 c1 3c
       -0.030958477 -0.03184129 -0.022914553 0.023562513
000370 3d 9f 58 bb b2 43 52 3c c6 ba 50 3c 06 5b b5 3c
       -0.0033053898 0.012833523 0.012739843 0.02213813
000380 26 50 f5 3c 9a 7b e6 bb b8 ca b8 ba 8b 95 fe 3b
       0.029945444 -0.0070337774 -0.0014098501 0.0077692918
000390 db 24 5d 3b a6 7e 02 3b e1 e4 09 3c ee ae ab 3b
       0.0033743891 0.0019911914 0.008416385 0.005239359
0003a0 f0 e2 44 bb fc 38 9a 3c 84 e1 05 bc 42 09 80 3b
       -0.0030042492 0.018826 -0.008171443 0.0039073536
0003b0 9f 63 ba bb d6 86 92 3b 49 1f 8f 3c fe 72 c7 bc
       -0.0056881453 0.00447164 0.017470973 -0.024346825
0003c0 eb c4 a3 bc 1e d0 31 3a 18 2c 3b bc ae 14 4c 3c
       -0.019991359 0.0006783026 -0.011424087 0.012456102
0003d0 09 c0 ae 3b f7 cc 4c bc 90 7c c6 bc 95 38 07 3d
       0.005332951 -0.012500039 -0.024229318 0.033012945
0003e0 b2 68 83 3b d2 ed 75 bb 44 4b 9b bc 57 44 77 3b
       0.0040102834 -0.0037525785 -0.018956788 0.0037729943
0003f0 39 3e 05 3d 48 ec 59 3c db 48 3c 3c 60 f7 e3 3c
       0.032530043 0.013300963 0.0114919795 0.027827919

q_head.mamba.A_log f4 [18, 16]
000000 1d be cc 2e 18 72 31 3f 54 9f 8c 3f 18 72 b1 3f
       9.310617e-11 0.6931472 1.0986123 1.3862944
000010 10 02 ce 3f 60 58 e5 3f 95 13 f9 3f 92 15 05 40
       1.609438 1.7917595 1.9459101 2.0794415
000020 54 9f 0c 40 8e 5d 13 40 1e 77 19 40 b6 08 1f 40
       2.1972246 2.3025851 2.3978953 2.4849067
000030 21 28 24 40 51 e6 28 40 b2 50 2d 40 18 72 31 40
       2.5649493 2.6390574 2.7080503 2.7725887
000040 2d 84 58 b1 18 72 31 3f 54 9f 8c 3f 18 72 b1 3f
       -3.150727e-09 0.6931472 1.0986123 1.3862944
000050 10 02 ce 3f 60 58 e5 3f 95 13 f9 3f 92 15 05 40
       1.609438 1.7917595 1.9459101 2.0794415
000060 54 9f 0c 40 8e 5d 13 40 1e 77 19 40 b6 08 1f 40
       2.1972246 2.3025851 2.3978953 2.4849067
000070 21 28 24 40 51 e6 28 40 b2 50 2d 40 18 72 31 40
       2.5649493 2.6390574 2.7080503 2.7725887
000080 dc 89 d8 2f 18 72 31 3f 54 9f 8c 3f 18 72 b1 3f
       3.9388126e-10 0.6931472 1.0986123 1.3862944
000090 10 02 ce 3f 60 58 e5 3f 95 13 f9 3f 92 15 05 40
       1.609438 1.7917595 1.9459101 2.0794415
0000a0 54 9f 0c 40 8e 5d 13 40 1e 77 19 40 b6 08 1f 40
       2.1972246 2.3025851 2.3978953 2.4849067
0000b0 21 28 24 40 51 e6 28 40 b2 50 2d 40 18 72 31 40
       2.5649493 2.6390574 2.7080503 2.7725887
0000c0 3b b0 6f af 18 72 31 3f 54 9f 8c 3f 18 72 b1 3f
       -2.1799533e-10 0.6931472 1.0986123 1.3862944
0000d0 10 02 ce 3f 60 58 e5 3f 95 13 f9 3f 92 15 05 40
       1.609438 1.7917595 1.9459101 2.0794415
0000e0 54 9f 0c 40 8e 5d 13 40 1e 77 19 40 b6 08 1f 40
       2.1972246 2.3025851 2.3978953 2.4849067
0000f0 21 28 24 40 51 e6 28 40 b2 50 2d 40 18 72 31 40
       2.5649493 2.6390574 2.7080503 2.7725887
000100 06 4b 82 2e 18 72 31 3f 54 9f 8c 3f 18 72 b1 3f
       5.9250424e-11 0.6931472 1.0986123 1.3862944
000110 10 02 ce 3f 60 58 e5 3f 95 13 f9 3f 92 15 05 40
       1.609438 1.7917595 1.9459101 2.0794415
000120 54 9f 0c 40 8e 5d 13 40 1e 77 19 40 b6 08 1f 40
       2.1972246 2.3025851 2.3978953 2.4849067
000130 21 28 24 40 51 e6 28 40 b2 50 2d 40 18 72 31 40
       2.5649493 2.6390574 2.7080503 2.7725887
000140 53 18 a3 b0 18 72 31 3f 54 9f 8c 3f 18 72 b1 3f
       -1.1866724e-09 0.6931472 1.0986123 1.3862944
000150 10 02 ce 3f 60 58 e5 3f 95 13 f9 3f 92 15 05 40
       1.609438 1.7917595 1.9459101 2.0794415
000160 54 9f 0c 40 8e 5d 13 40 1e 77 19 40 b6 08 1f 40
       2.1972246 2.3025851 2.3978953 2.4849067
000170 21 28 24 40 51 e6 28 40 b2 50 2d 40 18 72 31 40
       2.5649493 2.6390574 2.7080503 2.7725887
000180 29 64 70 2f 18 72 31 3f 54 9f 8c 3f 18 72 b1 3f
       2.1863457e-10 0.6931472 1.0986123 1.3862944
000190 10 02 ce 3f 60 58 e5 3f 95 13 f9 3f 92 15 05 40
       1.609438 1.7917595 1.9459101 2.0794415
0001a0 54 9f 0c 40 8e 5d 13 40 1e 77 19 40 b6 08 1f 40
       2.1972246 2.3025851 2.3978953 2.4849067
0001b0 21 28 24 40 51 e6 28 40 b2 50 2d 40 18 72 31 40
       2.5649493 2.6390574 2.7080503 2.7725887
0001c0 d5 55 d9 b0 18 72 31 3f 54 9f 8c 3f 18 72 b1 3f
       -1.5813223e-09 0.6931472 1.0986123 1.3862944
0001d0 10 02 ce 3f 60 58 e5 3f 95 13 f9 3f 92 15 05 40
       1.609438 1.7917595 1.9459101 2.0794415
0001e0 54 9f 0c 40 8e 5d 13 40 1e 77 19 40 b6 08 1f 40
       2.1972246 2.3025851 2.3978953 2.4849067
0001f0 21 28 24 40 51 e6 28 40 b2 50 2d 40 18 72 31 40
       2.5649493 2.6390574 2.7080503 2.7725887
000200 aa 93 ea 30 18 72 31 3f 53 9f 8c 3f 18 72 b1 3f
       1.706771e-09 0.6931472 1.0986122 1.3862944
000210 10 02 ce 3f 60 58 e5 3f 94 13 f9 3f 92 15 05 40
       1.609438 1.7917595 1.94591 2.0794415
000220 54 9f 0c 40 8e 5d 13 40 1e 77 19 40 b5 08 1f 40
       2.1972246 2.3025851 2.3978953 2.4849064
000230 21 28 24 40 51 e6 28 40 b2 50 2d 40 18 72 31 40
       2.5649493 2.6390574 2.7080503 2.7725887
000240 9d 12 bb 2d 18 72 31 3f 54 9f 8c 3f 18 72 b1 3f
       2.1267705e-11 0.6931472 1.0986123 1.3862944
000250 10 02 ce 3f 60 58 e5 3f 95 13 f9 3f 92 15 05 40
       1.609438 1.7917595 1.9459101 2.0794415
000260 54 9f 0c 40 8e 5d 13 40 1e 77 19 40 b6 08 1f 40
       2.1972246 2.3025851 2.3978953 2.4849067
000270 21 28 24 40 51 e6 28 40 b2 50 2d 40 18 72 31 40
       2.5649493 2.6390574 2.7080503 2.7725887
000280 7f b1 43 b3 19 72 31 3f 49 9f 8c 3f 18 72 b1 3f
       -4.5563407e-08 0.69314724 1.098611 1.3862944
000290 0f 02 ce 3f 60 58 e5 3f 8c 13 f9 3f 92 15 05 40
       1.6094378 1.7917595 1.945909 2.0794415
0002a0 54 9f 0c 40 8f 5d 13 40 1e 77 19 40 ac 08 1f 40
       2.1972246 2.3025854 2.3978953 2.4849043
0002b0 21 28 24 40 51 e6 28 40 b2 50 2d 40 18 72 31 40
       2.5649493 2.6390574 2.7080503 2.7725887
0002c0 20 ae 56 31 18 72 31 3f 57 9f 8c 3f 18 72 b1 3f
       3.1240077e-09 0.6931472 1.0986127 1.3862944
0002d0 12 02 ce 3f 60 58 e5 3f 98 13 f9 3f 92 15 05 40
       1.6094382 1.7917595 1.9459105 2.0794415
0002e0 54 9f 0c 40 8e 5d 13 40 1e 77 19 40 bb 08 1f 40
       2.1972246 2.3025851 2.3978953 2.4849079
0002f0 21 28 24 40 51 e6 28 40 b2 50 2d 40 18 72 31 40
       2.5649493 2.6390574 2.7080503 2.7725887
000300 18 7b 0c 31 18 72 31 3f 58 9f 8c 3f 18 72 b1 3f
       2.0442652e-09 0.6931472 1.0986128 1.3862944
000310 10 02 ce 3f 60 58 e5 3f 96 13 f9 3f 92 15 05 40
       1.609438 1.7917595 1.9459102 2.0794415
000320 54 9f 0c 40 8e 5d 13 40 1e 77 19 40 bd 08 1f 40
       2.1972246 2.3025851 2.3978953 2.4849083
000330 21 28 24 40 51 e6 28 40 b2 50 2d 40 18 72 31 40
       2.5649493 2.6390574 2.7080503 2.7725887
000340 5c 65 a1 ae 18 72 31 3f 54 9f 8c 3f 18 72 b1 3f
       -7.3394374e-11 0.6931472 1.0986123 1.3862944
000350 10 02 ce 3f 60 58 e5 3f 95 13 f9 3f 92 15 05 40
       1.609438 1.7917595 1.9459101 2.0794415
000360 54 9f 0c 40 8e 5d 13 40 1e 77 19 40 b6 08 1f 40
       2.1972246 2.3025851 2.3978953 2.4849067
000370 21 28 24 40 51 e6 28 40 b2 50 2d 40 18 72 31 40
       2.5649493 2.6390574 2.7080503 2.7725887
000380 6b b7 62 2f 18 72 31 3f 54 9f 8c 3f 18 72 b1 3f
       2.0619743e-10 0.6931472 1.0986123 1.3862944
000390 10 02 ce 3f 60 58 e5 3f 95 13 f9 3f 92 15 05 40
       1.609438 1.7917595 1.9459101 2.0794415
0003a0 54 9f 0c 40 8e 5d 13 40 1e 77 19 40 b6 08 1f 40
       2.1972246 2.3025851 2.3978953 2.4849067
0003b0 21 28 24 40 51 e6 28 40 b2 50 2d 40 18 72 31 40
       2.5649493 2.6390574 2.7080503 2.7725887
0003c0 7e a8 c6 af 18 72 31 3f 54 9f 8c 3f 18 72 b1 3f
       -3.613571e-10 0.6931472 1.0986123 1.3862944
0003d0 10 02 ce 3f 60 58 e5 3f 95 13 f9 3f 92 15 05 40
       1.609438 1.7917595 1.9459101 2.0794415
0003e0 54 9f 0c 40 8e 5d 13 40 1e 77 19 40 b6 08 1f 40
       2.1972246 2.3025851 2.3978953 2.4849067
0003f0 21 28 24 40 51 e6 28 40 b2 50 2d 40 18 72 31 40
       2.5649493 2.6390574 2.7080503 2.7725887

q_head.mamba.D f4 [18]
000000 81 4d 7f 3f f4 f0 7f 3f 0a 61 80 3f ac 44 80 3f
       0.99727637 0.9997704 1.0029614 1.0020957
000010 b9 22 80 3f 4f 5d 80 3f 39 5f 80 3f 10 62 80 3f
       1.0010597 1.0028476 1.002906 1.0029926
000020 b2 54 80 3f aa 9d 7f 3f 22 be 7f 3f 0b ba 7f 3f
       1.0025847 0.9984995 0.99899495 0.99893254
000030 4e 26 80 3f bf 5c 80 3f 30 60 80 3f f0 3c 7f 3f
       1.001169 1.0028304 1.0029354 0.9970236
000040 59 6c 7f 3f 07 62 80 3f
       0.997747 1.0029916

q_head.mamba.in_proj.weight f4 [36, 9]
000000 86 90 7c 3d e5 c9 55 be c8 18 b2 bb a7 63 3a bd
       0.061661266 -0.20877798 -0.005435083 -0.045505192
000010 e1 e0 3d be 8d d6 b9 3d 2a 66 35 bd 5f 59 cd 3d
       -0.18542816 0.090741254 -0.044286884 0.10026812
000020 b5 4b 8a be e6 6c 7e 3e 07 ec d3 bd b5 83 51 bc
       -0.27010885 0.24846229 -0.10347753 -0.012787749
000030 a6 de 1f 3d cf 78 7b 3e 77 c0 82 3e fa 89 e8 bd
       0.039030693 0.24557804 0.25537464 -0.11354442
000040 6a 5d a9 bc 70 4b ac bd 92 74 a8 3e e5 ea c4 bd
       -0.020674426 -0.08412826 0.32901436 -0.09615115
000050 65 e1 fa bd 98 55 88 3d d7 e8 63 3e 3e 3e f0 bc
       -0.12250022 0.06656951 0.2225679 -0.029326554
000060 67 a4 99 3c 9d 33 99 3e 82 02 4f bd 45 2a 86 3c
       0.018755151 0.2992219 -0.0505395 0.016377578
000070 85 3a 0a be 8e 21 2b be 1c 87 85 be 68 fa 68 3d
       -0.13498886 -0.16712019 -0.26079643 0.05687943
000080 bb 3a 49 bd da 78 35 3c d8 79 84 be 20 68 80 be
       -0.049128275 0.011076177 -0.2587421 -0.2507944
000090 0a 4c 09 be 46 d0 59 3e c4 53 e9 3c b5 8a 95 bd
       -0.13407913 0.21270856 0.028482325 -0.07301847
0000a0 a8 01 87 be 8b 46 1a 3e 16 ae 0e be b3 e7 6c bd
       -0.2636845 0.15065973 -0.13933596 -0.057838153
0000b0 8e 19 ca 3d 5a 15 35 be 67 1a 21 3e 8b 49 a0 be
       0.098681554 -0.17683926 0.15732728 -0.3130611
0000c0 5b 48 1f 3d 6c b0 18 bd fe 79 98 3d f7 39 83 be
       0.038887363 -0.037277624 0.07445143 -0.2563016
0000d0 15 0e 16 3d 52 87 41 be 09 1e f5 3d 77 20 2b be
       0.036634523 -0.18899277 0.119686194 -0.16711603
0000e0 24 33 4e 3c b7 99 3f bc 1a 50 f1 3c 33 41 44 3e
       0.012585435 -0.011694363 0.02945714 0.19165497
0000f0 7e fb 39 3e 6d 3f 7b 3e b5 19 30 be 81 e5 18 3e
       0.18162343 0.24535914 -0.17197306 0.14931299
000100 8f de 61 3d 7a 46 20 3e af ca 97 be 25 d6 92 3e
       0.05514389 0.15651885 -0.29646823 0.28679004
000110 fc 8d 75 3e 24 f0 47 be 2a 53 b0 bd 34 af 18 3d
       0.23979944 -0.195252 -0.08609612 0.03727646
000120 99 5d 31 bd fc da 99 bc 6d d0 a7 3e ec 74 71 be
       -0.043302152 -0.018781178 0.32776204 -0.23579758
000130 53 c5 91 be db 9c 93 3e a0 64 02 3e 46 62 db bb
       -0.2847086 0.2883061 0.12733698 -0.0066950647
000140 65 82 87 be dc 3b 0e be e2 d6 74 3e a1 dd c7 3d
       -0.2646667 -0.13890022 0.23910096 0.09759069
000150 6a fd 69 be 60 d6 b9 3d a7 97 a2 be 73 58 14 be
       -0.22850576 0.09074092 -0.31756327 -0.14486866
000160 c8 00 fa bd e1 ef ff 3d 44 99 9e be ae 81 2c be
       -0.1220718 0.12496925 -0.30976307 -0.16846344
000170 a3 46 23 be 67 24 60 be 08 e8 67 be ec da a3 3d
       -0.15944915 -0.21888886 -0.22647107 0.080007404
000180 73 0e 01 bd 4b 5b 6e be 21 dd 1b 3e 20 05 40 3e
       -0.03150792 -0.23277013 0.15221073 0.18751955
000190 fc ec 85 be c1 bb 45 3e b4 8b b9 bd 22 ee 67 3d
       -0.26157367 0.19309904 -0.090598494 0.056623586
0001a0 63 42 29 be 98 9b 0e be a3 83 6d be e1 1a 52 3e
       -0.16529231 -0.13926542 -0.23194747 0.20518066
0001b0 14 ee 7e 3e 7f a4 52 be fb 0d 27 be ad cc 57 3e
       0.24895507 -0.20570563 -0.16313927 0.21074171
0001c0 99 00 97 be 9e 63 26 3e 09 94 07 3e 0b 89 11 be
       -0.29492643 0.16248938 0.13240065 -0.14212434
0001d0 96 9a 10 be b9 d5 95 3e b2 6a 8d 3d c1 40 65 3e
       -0.1412147 0.2926462 0.06905116 0.22387983
0001e0 e2 6d 32 be d0 ef 6e be d0 2f 1c bd 9b 1b 92 3a
       -0.1742473 -0.23333669 -0.038131535 0.0011147143
0001f0 fd 20 a3 be a6 5f 52 bb 67 70 db 3b 92 39 8d 3e
       -0.31861106 -0.0032100468 0.006696749 0.27582985
000200 23 b1 51 3e c6 3a 5b 3e ba cc 6a 3d 50 05 9e bd
       0.20477729 0.21409139 0.05732415 -0.07715857
000210 f3 5c 20 be f2 ca a6 be 90 52 b2 bd b2 63 87 3e
       -0.15660457 -0.3257671 -0.08707154 0.2644325
000220 a7 66 11 3e 69 59 d0 bc 2a fd c4 3d bc 5a 39 3e
       0.14199315 -0.02543326 0.096186 0.18101019
000230 d0 35 8f 3e 00 28 57 be 68 f4 fb bc 1b 8d 0d 3e
       0.27970743 -0.21011353 -0.03075619 0.13823359
000240 c6 e4 67 3e 85 0a 9b be 2f 31 02 be 12 43 e2 3c
       0.22645864 -0.30281463 -0.12714075 0.027619872
000250 7c 51 0b 3e 6c be 80 be 8a d9 a7 be 80 70 a3 bd
       0.13605303 -0.2514528 -0.32783157 -0.07980442
000260 db db b3 3d 4b 06 f8 3d 64 f3 65 be 7e ca ef bd
       0.087821685 0.12110575 -0.22456127 -0.11708544
000270 44 41 90 3d c9 e8 2d bd af 27 00 3e 59 38 25 3d
       0.070436984 -0.04245833 0.12515138 0.04033694
000280 ec 1c fc 3d cc 1c d7 3d d0 8a 8a be d0 41 a6 bd
       0.12310204 0.105035394 -0.2705903 -0.081180215
000290 e2 2c 2a bd d5 23 ab 3e 39 0b 69 be 9a 49 53 be
       -0.04154671 0.33425775 -0.22758187 -0.20633546
0002a0 1f 39 0e bd 14 46 a9 bc 9f e6 ec bc 5c 12 96 be
       -0.034722444 -0.020663299 -0.028918562 -0.29310882
0002b0 00 a6 73 3e 14 d0 ea 3b a6 16 a7 3e ba 4f c0 bd
       0.23793793 0.007165918 0.32634467 -0.09390207
0002c0 8d 06 43 3e b6 2b 37 3e 35 3e a9 3e 6f ef 48 3e
       0.19045468 0.17887768 0.33055273 0.19622587
0002d0 00 5c 15 3d e9 e3 a7 be a8 fb f3 bb 8d de 3a 3e
       0.03646469 -0.3279107 -0.0074457712 0.18248959
0002e0 8c 96 61 3e a3 6a 8e be a8 fb 74 bd 1b 13 7c 3d
       0.22030085 -0.27815732 -0.05981031 0.061541658
0002f0 61 54 a2 3e 33 8f 94 be af 7b 55 bc f6 8b f6 bd
       0.31705 -0.29015502 -0.013029977 -0.12038414
000300 a4 93 8a be b2 52 4e be eb 7f 25 3e 6f 61 a2 be
       -0.27065766 -0.20148733 0.16162078 -0.3171496
000310 8b e4 3d 3e 9f 5a 88 bd 6e 0d 7f 3e e9 3d 9a be
       0.18544213 -0.066579096 0.24907467 -0.3012536
000320 58 58 7e 3e c4 d8 3f be dc 71 8e 3d db db 0e 3e
       0.24838388 -0.18735033 0.06955311 0.13951056
000330 f8 87 89 3e f4 7b 59 be 55 eb e1 3d 5a eb a6 bd
       0.26861548 -0.2123869 0.11031214 -0.081503585
000340 1b 80 f9 3d 65 bb 3b 3e 6d ab 85 be 27 3e bd 3d
       0.12182637 0.18333204 -0.2610735 0.0924037
000350 af 2b d7 3c a6 db f8 3d f0 37 bb 3d 78 be 49 3e
       0.026265947 0.121512696 0.091415286 0.19701564
000360 56 a0 19 be 23 a6 f5 bc 5e 40 94 be d4 75 85 3e
       -0.1500257 -0.029986447 -0.28955358 0.26066458
000370 3a e2 f9 bd 51 1a a4 be 8f 90 d6 3c 99 22 86 be
       -0.122013524 -0.32051328 0.026191978 -0.2619827
000380 4d 02 98 be 66 c4 d6 3c 67 77 6b 3e 34 7c 61 3e
       -0.29689255 0.026216697 0.22994767 0.22020036
000390 69 70 88 3d ab 71 72 be 59 d5 92 be d4 bd 06 3e
       0.066620655 -0.23676173 -0.28678396 0.13158351
0003a0 0d c8 21 3e 82 f9 85 be f7 a0 2c bb fe a0 86 be
       0.1579897 -0.26166922 -0.002634106 -0.26294702
0003b0 e7 94 25 3e 19 d1 a2 3e 54 a9 a6 3c f2 b4 74 be
       0.16170083 0.31800154 0.020344414 -0.2389715
0003c0 15 3e 0a be 56 48 a6 3e 13 f2 be bd 74 b8 94 be
       -0.13500245 0.32477063 -0.09323516 -0.29046977
0003d0 db dd 9b be 2b 9e 75 3e cc d0 86 be bb 8f 01 3d
       -0.304427 0.23986118 -0.26331174 0.031631213
0003e0 f1 20 3f 3e 9f cb 74 be 81 14 39 3e 00 74 7e 3e
       0.1866491 -0.239058 0.18074228 0.24848938
0003f0 8a 38 0c 3e ab e5 b3 bd b3 0d d7 39 9f 4d 9e be
       0.13693443 -0.0878404 0.00041018202 -0.30918595

q_head.mamba.conv1d.weight f4 [18, 1, 4]
000000 c0 f8 12 be b0 05 d1 3d 96 3b fc 3e 32 6b 44 be
       -0.14352703 0.10206163 0.4926421 -0.19181517
000010 7a 87 e3 3e 9c 1d 2e 3e 13 ec f4 3e d0 d4 cc 3d
       0.44439298 0.17003483 0.4783636 0.10001528
000020 18 a2 d7 3e 50 6d ba bd fa 60 fc 3d 39 79 ad 3c
       0.42115855 -0.09102881 0.12323184 0.021175968
000030 66 cc bf 3e 42 22 c9 be 2e cf 69 bd 4b 5e 03 3e
       0.3746063 -0.3928395 -0.057082348 0.12828939
000040 30 f9 91 be c0 b0 b5 3d a3 76 a0 be 1b fb a6 be
       -0.28510427 0.08871603 -0.31340513 -0.32613453
000050 74 bf 53 3e ac c8 a0 3e 3d cd da bd 8f e4 a6 3e
       0.20678502 0.314031 -0.10683677 0.3259625
000060 20 32 c7 bd a0 21 9d 3e 8e d9 f8 be f3 ca cc bd
       -0.097263575 0.30689716 -0.4860348 -0.09999647
000070 28 12 9f bd fe 11 d8 be b9 58 54 3e 69 6f 1d be
       -0.07767135 -0.42201227 0.2073697 -0.15374531
000080 c0 4b e3 3d 80 f2 e2 bb a2 47 c1 be 81 ce bf 3e
       0.110984325 -0.006925881 -0.37749964 0.37462237
000090 00 cb ca 3b 06 1b 86 be 26 a3 e1 be 00 cf d8 3d
       0.0061887503 -0.26192492 -0.44069785 0.10586357
0000a0 e0 61 97 3e 00 12 87 bb b5 cf be 3b e5 b9 c3 3e
       0.2956686 -0.004122019 0.0058231005 0.38227764
0000b0 fe d3 81 3e ec 80 c4 be a8 75 60 be 36 88 ed 3e
       0.2535705 -0.3837961 -0.21919882 0.46392983
0000c0 9c 3c 2d be f0 b0 d4 bd 5f fa c0 3d 13 84 45 3b
       -0.16917652 -0.10385311 0.094227545 0.0030138537
0000d0 fa b2 8d 3e aa c5 9d be b9 0d e5 be b8 4e 93 3d
       0.2767561 -0.30814868 -0.44737032 0.07192749
0000e0 d8 5a ca 3d 20 e5 bf be dc de a1 3e 33 92 a9 3e
       0.09880608 -0.37479496 0.3161534 0.33119354
0000f0 40 09 df 3c f8 00 97 be 73 1a 83 bd b6 f5 b8 be
       0.02722609 -0.29492927 -0.06401529 -0.36124963
000100 e4 85 29 3e 60 36 c9 be 1f 66 bc 3e 74 47 63 bc
       0.16554981 -0.39299297 0.36796662 -0.013872016
000110 cc c0 d7 3e 98 ce 8c 3e 12 3e d6 3e 50 32 9e be
       0.4213928 0.2750137 0.4184423 -0.3089776

q_head.mamba.conv1d.bias f4 [18]
000000 16 45 da bd ac e1 fc be 6e cb cb be 61 32 f9 bd
       -0.10657708 -0.49390924 -0.39803642 -0.12167812
000010 47 2f a4 3e b0 08 76 be c7 97 69 be 99 7e ff 3e
       0.3206732 -0.24026752 -0.22811805 0.49901274
000020 13 ea 9c bd e3 fc fe bd 76 ee 93 be 62 35 31 3e
       -0.076618336 -0.12450578 -0.2889287 0.1730552
000030 e6 25 de be 10 f1 ee 3d 2a 21 5a be c8 99 19 be
       -0.4338829 0.11667073 -0.21301714 -0.15000069
000040 42 73 3f be c0 f6 9d be
       -0.18696311 -0.30852318

q_head.mamba.x_proj.weight f4 [33, 18]
000000 d7 36 58 be d7 16 a9 bc 6b 4c d8 3d 0d 88 d5 bc
       -0.2111467 -0.020640774 0.105614506 -0.02606585
000010 4b 5a a8 bd d0 30 70 be eb b0 55 3e ab 14 1e 3e
       -0.08220347 -0.2345612 0.2086827 0.15437572
000020 e6 e8 83 3c b7 23 c4 bd e8 cd 0c 3e 16 e3 46 3e
       0.016102266 -0.095771246 0.13750422 0.19422564
000030 da 2b fe 3d 15 bc 2c be a1 04 41 bd d3 81 14 be
       0.12410708 -0.16868623 -0.047123555 -0.14502649
000040 80 ee 5d 3e 7c 06 1a be 67 1d b0 bd d5 44 25 be
       0.21673012 -0.15041536 -0.08599358 -0.16139539
000050 aa ba 47 be 9f 1c 41 3e 7f 49 5b be 31 64 19 be
       -0.195048 0.18858574 -0.21414755 -0.14979626
000060 b0 21 a6 3d ca af 17 3e 17 8f 67 3e 99 65 35 be
       0.08111894 0.14813152 0.22613178 -0.17714538
000070 4a f6 36 3d 8e 4d 12 be 32 59 df 3c a9 7e f2 3d
       0.044668473 -0.14287397 0.027264211 0.11840565
000080 7f cd e5 bd e9 1b 88 3c 7b 15 5a be 73 d6 44 be
       -0.11220836 0.016614871 -0.21297257 -0.19222431
000090 dd ab 03 bd be de b1 3c c6 d5 9e bd 47 a2 1e be
       -0.032146323 0.021712657 -0.07755618 -0.15491591
0000a0 9a 37 5f 3e 04 a9 b0 3d 5b 4d 2d 3e 1f 5b b0 3d
       0.21798554 0.08625987 0.1692404 0.0861113
0000b0 f8 22 b1 bb 5d 4f 5f 3e 20 c1 4c 3e 0b 66 0a 3e
       -0.00540578 0.21807618 0.19995546 0.13515489
0000c0 dc da ac 3c 20 41 af 3d c7 b5 12 be 8b 3d 83 bd
       0.021100454 0.085573435 -0.14327155 -0.06408223
0000d0 84 2e 63 3c 41 a9 8f 3d 8d ce 0b 3e 6c 90 07 be
       0.013866071 0.070147045 0.13653012 -0.13238686
0000e0 c0 3b d9 3d 5e 8f 90 bd f8 5b 84 bd 52 1b 27 bd
       0.106070995 -0.07058595 -0.06462854 -0.04079754
0000f0 a2 ce d8 bb 97 b1 25 be 9d e3 94 3d 9e b7 11 be
       -0.0066164294 -0.16181026 0.07269976 -0.142302
000100 20 9f 6b 3d 76 06 23 be 3e f2 2d 3e 57 07 b8 bd
       0.0575248 -0.15920433 0.1698694 -0.08985775
000110 48 05 67 3e a2 c9 92 3d 3d 4e 46 be c9 6d c4 3d
       0.22560608 0.07167365 -0.19365783 0.09591252
000120 46 85 a4 3d ab d8 5f bc 07 2b be bd 06 6e ca bd
       0.080332324 -0.0136624975 -0.092855506 -0.098842666
000130 65 db 47 be 36 ff 68 be 58 e4 d8 3d 97 b7 af bd
       -0.19517286 -0.22753605 0.10590428 -0.08579939
000140 a1 dd 38 3e 00 ba 2d be 8a 97 47 be 6b 76 5c 3e
       0.18053295 -0.16965485 -0.19491401 0.21529548
000150 86 1b e3 3c 79 56 ad bd a3 e8 82 3d eb 85 05 3e
       0.027723085 -0.08463759 0.06392028 0.13039367
000160 ac e6 5b be 5b b1 18 bc 94 75 93 bc 9e 14 5e 3b
       -0.21474713 -0.009319629 -0.018000402 0.00338868
000170 d2 b4 d8 bc ba 27 6e 3d b5 3c 27 3e 10 7b 41 3e
       -0.02645341 0.058143355 0.16331752 0.18894601
000180 b8 0d 41 bd 12 d3 f9 bd 38 6b 44 3e 52 00 e2 bd
       -0.047132224 -0.121984616 0.19181526 -0.11035217
000190 ae 29 30 be ee 5b 05 bd d7 4a 26 be b3 43 0e be
       -0.172034 -0.032558374 -0.16239487 -0.13893013
0001a0 f8 55 04 3d f5 a5 59 3e f3 34 ca 3d 1d b2 5f 3e
       0.03230855 0.21254714 0.098733805 0.21845289
0001b0 38 c4 48 be 40 ca 8c 3d 05 41 60 be 3d 3e 8a bd
       -0.19606102 0.068745136 -0.21899803 -0.06750152
0001c0 8a 17 86 bd 52 35 0f be d9 8c 15 3e 25 f5 26 bd
       -0.065474585 -0.13985184 0.1460451 -0.04076113
0001d0 a5 66 04 be 42 1b 1f bd 4a 79 26 3e 38 5b 12 3e
       -0.12929781 -0.038844354 0.16257206 0.1429261
0001e0 16 5c 17 be ed da 96 bd 22 7d fe 3d 8c 22 25 be
       -0.14781222 -0.073659755 0.12426211 -0.1612646
0001f0 fb 66 8a 3d 2d dd 19 3e 4f 29 e5 3d ac 8e 69 be
       0.06757923 0.15025778 0.111895196 -0.22808331
000200 d7 f8 a5 3d f1 42 51 3e 7e 84 56 3e 78 97 53 be
       0.08104103 0.20435692 0.2094898 -0.2066325
000210 5e 89 47 be 33 4f 31 3e 27 1e b5 bd 34 a1 39 bd
       -0.19485995 0.17315368 -0.08843642 -0.04531975
000220 f1 66 5b be 8c 05 6e be 15 cf 15 be a2 1d 72 bd
       -0.21425988 -0.23244303 -0.14629777 -0.05911029
000230 e9 11 ee bd a6 b3 0f 3e 43 d0 66 3e 9f 34 f2 bc
       -0.1162451 0.14033374 0.22540383 -0.029566107
000240 35 42 03 3e 19 1d 39 be 8e a8 e4 3d d5 be 33 3e
       0.12818225 -0.18077506 0.11164962 0.17553265
000250 43 b8 ce bd 59 3d cd bd 94 4e 16 3e db 79 33 3e
       -0.10093739 -0.10021467 0.14678413 0.17526953
000260 41 cd c9 bd f4 c6 50 bd 27 34 fe 3d b6 1d 1a be
       -0.09853602 -0.050970986 0.12412291 -0.15050396
000270 3d 4b 3a 3e 04 7d 63 be 20 a3 2d 3e c5 88 41 bd
       0.18192764 -0.22215658 0.16956758 -0.047249574
000280 87 01 34 3e 29 bc 5c 3e dd ef 09 3e 81 96 02 bc
       0.17578708 0.21556152 0.13470407 -0.007970453
000290 1c 5c 07 be ef f3 ed bd ec 35 c2 bd af 28 80 bd
       -0.1321873 -0.11618792 -0.09482941 -0.0625776
0002a0 74 1b 54 bd 5b 8a f7 bd 54 32 31 be 58 f2 0d be
       -0.051783994 -0.12086936 -0.17304355 -0.13861978
0002b0 ee b5 67 be b8 97 25 bc 60 ca a9 3d fd d2 15 3d
       -0.22627994 -0.010106973 0.08290553 0.036578167
0002c0 17 30 88 bd cd 7e fd bd 5e a3 92 bd 41 b5 f8 bd
       -0.066497974 -0.12377701 -0.07160066 -0.121439464
0002d0 23 76 17 be 3c ce 6b bd 83 43 5a 3d 3c ce 07 3e
       -0.1479116 -0.057569727 0.05328704 0.13262266
0002e0 99 e5 b2 bd 9c 22 09 3e 0c 8b ce 3c e7 94 2c 3e
       -0.087351985 0.13392109 0.025212787 0.16853677
0002f0 18 df fe bd c9 80 b0 3d 8a 6a 45 be 4d 32 bc 3d
       -0.124448955 0.08618314 -0.19278923 0.091892816
000300 84 1e d6 bc 39 6a 6d 3e fe 14 28 bd e9 13 a7 bc
       -0.026137598 0.23185052 -0.041035645 -0.020395236
000310 80 65 01 3b 7c d8 45 bd 00 16 0e 3d 66 cf bd bb
       0.0019744337 -0.04830216 0.03468895 -0.005792546
000320 74 55 ea bd 5f 8e 2e 3e 0c 2b 6d be 08 d4 50 be
       -0.1144208 0.17046498 -0.23160952 -0.20393384
000330 fc 05 4e be 9e b7 4d be 51 1b ff 3a d3 b7 50 be
       -0.2011947 -0.20089576 0.0019463097 -0.20382623
000340 8f 64 65 be 5d 7a b9 bd 65 bc e3 3d 61 c5 59 bd
       -0.22401641 -0.09056542 0.11119918 -0.05316675
000350 1b 58 7f 3d 7b 4b de bd af a1 5c 3e 9f 3d 48 3d
       0.062339883 -0.108542405 0.21546052 0.04888689
000360 b6 a2 9d bd 15 f1 6c bc 1e 31 03 3e 21 5b 81 bd
       -0.0769705 -0.014461775 0.12811705 -0.063162096
000370 8b cd e9 3d 45 46 27 3e 8e 1c eb 3d 95 ac 12 be
       0.11416157 0.163354 0.11480056 -0.14323647
000380 35 60 44 be 32 50 06 be 07 3f f2 3d 49 6f 3a 3d
       -0.19177325 -0.1311653 0.11828428 0.045516286
000390 40 52 c4 3d b4 ab f7 bd 48 1e 19 bd 0f 7b 58 3d
       0.095860004 -0.12093297 -0.037382394 0.052851733
0003a0 31 9f 5e 3e 2c 64 2b bd 1f 31 08 be 80 79 24 bd
       0.21740414 -0.04184358 -0.13299988 -0.040154934
0003b0 41 d0 95 3d a0 10 5f be 40 e3 8d 3c c6 e1 55 3e
       0.07315112 -0.21783686 0.017320275 0.20886907
0003c0 b4 e0 64 3e c3 c0 6d 3e 25 81 25 3e 96 71 0e 3e
       0.22351342 0.23218064 0.16162546 0.13910517
0003d0 51 6e 87 3d 41 66 f8 bc 9b 06 49 be c4 43 5a be
       0.06612838 -0.030322196 -0.19631426 -0.21314913
0003e0 2a f5 e2 3c 6e 7c e2 3d 3d ba 6d 3e 38 ef 50 3e
       0.027704794 0.11058889 0.23215576 0.20403755
0003f0 a0 01 57 3d bd 37 a4 3c b3 a4 f2 bc 6c 76 df bd
       0.052491784 0.02004611 -0.02961955 -0.10911259

q_head.mamba.dt_proj.weight f4 [18, 1]
000000 3b 69 0a bf 32 db db 3e 0b 59 7d 3f 29 27 99 be
       -0.5406682 0.4294067 0.98963994 -0.2991269
000010 5e 07 4d bf 30 96 70 3f bd 95 6a 3e 28 11 bc bd
       -0.80089366 0.9397917 0.22908683 -0.0918296
000020 1e 96 2d bf f4 0e e8 be db ae fa 3e 9b 33 63 3f
       -0.67807186 -0.45323908 0.4896153 0.8875062
000030 60 18 b5 be 48 8d 51 bf ff 55 36 3f ed 43 20 3e
       -0.3537016 -0.81856203 0.7122497 0.15650912
000040 f9 09 cb bd 17 62 1b bf
       -0.099140115 -0.6069655

q_head.mamba.dt_proj.bias f4 [18]
000000 33 d9 9d c0 f8 3c 9a c0 6c 33 b5 c0 2a 89 8c c0
       -4.9327636 -4.8199425 -5.662527 -4.3917437
000010 9c 1c a2 c0 34 8a a2 c0 53 be b0 c0 02 ca 8c c0
       -5.0659924 -5.0793705 -5.523233 -4.399659
000020 57 08 4c c0 bf d1 aa c0 10 ff 24 c0 58 d7 5f c0
       -3.188009 -5.338104 -2.5780678 -3.4975185
000030 2a 9f 82 c0 f4 3f a1 c0 2a 7e ae c0 00 83 94 c0
       -4.081929 -5.039057 -5.452901 -4.640991
000040 29 1d 82 c0 5c 65 55 c0
       -4.0660596 -3.3343115

q_head.mamba.out_proj.weight f4 [9, 18]
000000 b8 9a c5 bd c3 c6 3c be f5 a8 57 be e3 be d8 3d
       -0.09648651 -0.18435197 -0.21060546 0.10583284
000010 6f c7 32 be ce 6a 00 be 8c 59 4b be 69 da 09 be
       -0.1745889 -0.12540743 -0.19858378 -0.13462223
000020 a8 1d 57 3e 4b 02 34 3e 07 88 06 bd 85 7e db bd
       0.21007407 0.17579 -0.03284457 -0.10717491
000030 c9 f9 18 3e 3d 78 6b be 25 7c 42 be 81 2b 1b 3e
       0.14939035 -0.22995086 -0.1899267 0.15153314
000040 53 6a ce bc 89 a0 67 be b8 aa 1b be 6b 97 3d bd
       -0.025197184 -0.22619833 -0.15201843 -0.04628698
000050 5c 43 da 3d a1 9e c9 3d d1 16 ea bc 0c 78 05 be
       0.10657379 0.09844709 -0.028575333 -0.13034075
000060 f6 b7 54 3e ba 1d 17 3d 31 f9 fa 3c 6f d7 f2 3d
       0.207733 0.036893584 0.030636402 0.11857497
000070 5e 21 6f 3e c3 14 3c be b8 e6 04 be a6 ec 10 be
       0.23352572 -0.18367295 -0.12978637 -0.14152774
000080 d4 47 29 bc a7 f0 d9 bd d4 c0 64 be a0 4a 9c bd
       -0.010332067 -0.10641604 -0.22339183 -0.07631421
000090 f7 76 cd bd 18 65 e4 3c a4 bd 8e bd 1f 62 84 3d
       -0.10032456 0.027880237 -0.06969765 0.064640276
0000a0 a0 09 76 3d fe 10 50 3d dc 3b 36 3e 49 da d9 3d
       0.060067773 0.050797455 0.17796272 0.10637338
0000b0 ee 3e 05 3e 64 d2 fa bd c0 14 93 bd a1 a6 0b 3e
       0.13012287 -0.1224716 -0.07181692 0.13637783
0000c0 a2 c8 16 be 23 3a 34 3d 67 04 01 3d 54 a8 58 3c
       -0.14724973 0.044000756 0.03149834 0.013223726
0000d0 8d 6f 2d be 0e 0e 49 be 28 84 66 3e 45 a5 32 be
       -0.16937084 -0.19634268 0.22511351 -0.17445858
0000e0 9d 4c 3f be a9 98 d8 bb 7b 29 3c 3e 19 10 14 be
       -0.1868157 -0.0066099954 0.18375199 -0.14459266
0000f0 77 ec 49 3e fa ae 3f be 14 89 0b 3d 69 fd 44 3d
       0.1971911 -0.18719092 0.034066275 0.048093233
000100 62 a7 fb bd 50 e6 40 3d fb 37 40 be 1a c6 dc bd
       -0.12287785 0.047094643 -0.18771355 -0.107799724
000110 d1 90 4d 3e 11 cf 49 be 55 26 0d 3d 40 e1 38 3d
       0.20074774 -0.19707896 0.034460384 0.04513669
000120 ac 53 44 be fa c4 f9 3d 88 68 bb 3c 80 34 31 bd
       -0.19172543 0.121957734 0.022876993 -0.04326296
000130 82 7b fb 3d d7 a9 57 3d fa d8 19 be 5e 9e 6d be
       0.122794166 0.052652206 -0.15024176 -0.23204944
000140 f6 9f 48 be 7d 25 5d 3b e9 db 39 3e 4c e2 17 be
       -0.1959227 0.0033744269 0.18150295 -0.14832419
000150 28 36 58 be e6 3d 6e 3e 25 56 47 3e dd 6b 2d be
       -0.21114409 0.232658 0.19466455 -0.16935678
000160 00 8e 0b 3e 02 e8 f4 bd 0d 13 50 be 20 de b8 bc
       0.13628387 -0.119583145 -0.20319767 -0.022566855
000170 5e a6 04 be 10 14 c9 bb dc 88 12 3e 89 09 1b 3e
       -0.12954089 -0.006136425 0.1431002 0.15140356
000180 d4 66 5c be 06 5b 48 3e ed 79 17 be 75 1d 57 be
       -0.21523601 0.19565973 -0.14792605 -0.2100733
000190 8a 15 8b 3d 44 a3 91 bd 4c de 91 bd f7 ea ec bd
       0.067912176 -0.071112186 -0.07122478 -0.115682535
0001a0 2b 66 d9 bd f1 70 05 3e 97 1a 19 3c 58 9c 53 3e
       -0.1061519 0.13031365 0.009344718 0.20665109
0001b0 0f 60 03 3d 24 aa 84 bd a5 f9 6f be 3a c6 fd bd
       0.03207403 -0.06477764 -0.23435076 -0.12391324
0001c0 1f 7c 9b 3d 8c 62 e8 bc 3d 42 93 bb 3f b9 8b 3b
       0.075920336 -0.028367303 -0.00449398 0.0042640264
0001d0 52 d1 b7 3d c7 86 23 3e 3a 07 1c 3c 61 a2 59 be
       0.089754716 0.15969382 0.009523207 -0.21253349
0001e0 13 8d 31 3e e5 8c 57 3e b7 84 42 3e d8 dd 0a be
       0.17338972 0.21049841 0.18995939 -0.13561189
0001f0 7a ae 56 3d 21 76 22 bc a7 2c 54 3e 99 65 43 be
       0.052412488 -0.009915859 0.20720159 -0.19081725
000200 0c d8 26 3e d4 44 7a bd c7 04 14 be 12 64 5d 3e
       0.16293353 -0.061100796 -0.14454947 0.21620205
000210 fa ef 64 be 28 af 00 3e 7f bb 00 be 6c f7 d8 3d
       -0.22357169 0.12566817 -0.12571524 0.10594067
000220 b3 ab 5f be 05 75 6b be 88 6a 43 3d 32 e6 85 3d
       -0.21842842 -0.22993858 0.047709018 0.06538047
000230 32 65 01 3d 2d 10 c9 bc b9 cb 58 be f1 83 31 3d
       0.031590648 -0.024543846 -0.21171464 0.04333872
000240 46 77 74 3d 60 53 6d 3e 8d 52 2c 3e c2 da 5c 3c
       0.05968406 0.23176336 0.16828366 0.01347989
000250 de 78 34 3e 03 81 62 3e 59 8b 7c 3d 04 f1 4d be
       0.17624232 0.22119527 0.06165633 -0.20111471
000260 b4 74 48 be 30 db d6 bd 6e 89 2c bd 7b 47 c0 bd
       -0.19575769 -0.104910254 -0.04212325 -0.09388634
000270 ef 91 4d be e1 78 3b be a8 6a 6f 3d 25 bf 4f 3e
       -0.200752 -0.1830783 0.058451325 0.2028776
000280 a4 58 bc bd b5 24 7e bd
       -0.09196594 -0.062046725

q_head.final_norm.gamma f4 [9]
000000 00 00 80 3f 00 00 80 3f 00 00 80 3f 00 00 80 3f
       1.0 1.0 1.0 1.0
000010 00 00 80 3f 00 00 80 3f 00 00 80 3f 00 00 80 3f
       1.0 1.0 1.0 1.0
000020 00 00 80 3f
       1.0

ema_model.q_head.action_bin_embeddings f4 [2, 256, 9]
000000 f5 d6 8b 3c 74 49 23 bc c1 ff 0b bc a7 0c 22 3c
       0.017070273 -0.009966243 -0.008544863 0.009890712
000010 4f 87 93 bc ea 1f 43 3c 2c f3 0e bc fe f3 1b 3c
       -0.018008856 0.011909464 -0.008724969 0.0095186215
000020 8e 1b e7 bc 00 26 3b 3c ee 15 73 bb fe 34 6f bc
       -0.028211381 0.011422634 -0.0037091929 -0.014600037
000030 5d ac 89 3b 54 09 f5 3b d9 2c 8a 3c b8 1e 88 3a
       0.0042014555 0.0074779186 0.016867088 0.0010385131
000040 d2 3b a2 3c 27 2d c3 3c bd e9 15 bc 2e 48 da bc
       0.019803915 0.023825241 -0.009149966 -0.026645746
000050 a6 62 5a 3c d4 d0 83 bb 6b 33 91 bb d3 4d 3a bc
       0.013329184 -0.004022697 -0.0044311783 -0.011371094
000060 db 56 3f 3c 02 ae 24 bd 50 28 87 bb c9 e9 7c 3b
       0.011678423 -0.04020501 -0.0041246787 0.0038591495
000070 e1 8f 2d bb 7e 9c 87 bc 24 ec 32 bc c8 a9 63 3c
       -0.0026483464 -0.016554113 -0.010920558 0.0138954595
000080 05 f0 41 3c ad dc 45 3c 80 3b c0 bc 36 88 bf bc
       0.01183701 0.012076539 -0.023465872 -0.02338038
000090 9e 26 de 3b 9c 5e e5 bb 2e 6b ca bc de ef 82 3c
       0.006779506 -0.0069998037 -0.02470931 0.015983518
0000a0 2a c0 07 bd ce d1 1e 3d ee fc 30 bb d0 36 94 3c
       -0.033142246 0.038774304 -0.0027006227 0.018092543
0000b0 ed c3 99 bc 45 55 c4 3c 86 9c 95 3c 94 5c 89 bc
       -0.018770183 0.02396644 0.018263113 -0.016767778
0000c0 7c a2 d3 bc da 8a 3a ba ac a8 ca bb f2 60 7c bb
       -0.025834315 -0.00071160274 -0.006184658 -0.0038509932
0000d0 28 8f 30 3b b5 15 91 3b e9 d4 93 3c 98 f4 e5 3b
       0.0026940797 0.0044276365 0.01804586 0.0070176832
0000e0 97 77 d8 3c cc e8 9c bc c7 9b 38 3c 23 6e 0f bd
       0.026424212 -0.019153975 0.011267609 -0.035017144
0000f0 3f d8 f1 bb 3e c2 52 bc fb 4b 24 3b 7a a3 b8 3b
       -0.007380515 -0.012863694 0.0025069702 0.0056347223
000100 95 7f f5 b9 b3 5c db bc ed 66 b2 3c 8e d5 df 3b
       -0.00046825098 -0.0267776 0.021777594 0.0068308776
000110 2a cf ce bc 9e ef a5 3c 10 b2 f8 bb f7 46 02 3d
       -0.025245268 0.02025586 -0.007589586 0.03180596
000120 7c 14 1d 3c b6 72 2e 3c cd 75 9e 3b 14 d4 97 bc
       0.009587403 0.010647466 0.0048358203 -0.018533744
000130 5e e6 48 3c 02 6e a1 bb 83 5c 97 3b 86 79 f6 3b
       0.012261955 -0.004926444 0.0046191826 0.007521811
000140 01 09 88 bc 73 3e dc bb a9 b1 f9 bb e5 4d 8c bc
       -0.016605856 -0.0067213117 -0.0076200557 -0.017126987
000150 2e 83 38 3c 36 db 3a 3c 91 58 eb b9 bd 9d 07 bc
       0.011261744 0.011404803 -0.0004488868 -0.008277354
000160 8b df ab bb 96 37 d9 bb 1d c0 25 bc 85 e0 cf bc
       -0.0052451543 -0.006628941 -0.010116604 -0.025375614
000170 98 e1 2f bd 89 a8 58 3a b4 da 5c 3c ae aa 4b 3c
       -0.042939752 0.000826486 0.013479877 0.01243083
000180 8f bb 86 bc 71 03 4e bc fc 3f 24 bb a8 b2 ce 3c
       -0.016446857 -0.012574063 -0.0025062552 0.025231674
000190 a0 50 3a bc b9 40 a5 3c 2e 91 06 3d 65 41 bd 3c
       -0.011371762 0.020172464 0.032853298 0.023102472
0001a0 77 60 4b 3c 0f ec 24 bb 40 24 98 bc 8d 54 9b 3b
       0.012413136 -0.0025165116 -0.018571973 0.004740304
0001b0 c9 d7 60 bc ed 06 8e 3b 8b f4 32 3c 80 29 dd 3c
       -0.013723322 0.0043343217 0.010922561 0.026997328
0001c0 91 a6 fc bc 40 1b d2 3c 17 dc 16 bd df a6 bd 3c
       -0.030841144 0.02564776 -0.036830988 0.02315086
0001d0 49 22 4d 3c 40 07 9e bb 62 46 9b 3c c6 e3 9c bb
       0.012520381 -0.0048226416 0.01895446 -0.004787895
0001e0 84 93 1f 3c bb f2 8e bc f7 a9 23 3d 02 41 12 bc
       0.00973976 -0.017449727 0.039957013 -0.008926632
0001f0 aa 79 22 3c 12 17 04 bd 7b 63 03 ba 65 1d 2d 3d
       0.009916702 -0.032248564 -0.0005012077 0.04226436
000200 40 e1 13 3c 37 24 ca bc 49 1b f1 bb f9 5d 09 3d
       0.009025872 -0.024675472 -0.007357989 0.033536885
000210 33 d7 8d bb 7d a7 a9 3b aa 94 d9 3b 94 04 19 3d
       -0.0043286323 0.005177437 0.0066400366 0.03735788
000220 31 72 59 3c f8 02 3a bb ae 45 f3 b9 17 ab 50 3c
       0.013271854 -0.0028383117 -0.00046400487 0.0127361035
000230 a2 94 30 3c 54 b1 a0 bc b7 01 3e 3b 4a c8 63 ba
       0.010777624 -0.019615807 0.0028992721 -0.0008689208
000240 9b 87 dd bc 26 a8 2d 3c 8c f5 37 bc 52 1e 4c 3c
       -0.0270422 0.010599172 -0.0112279765 0.012458401
000250 26 68 91 bb 5a e1 c9 3c e8 1d c5 bc 3a 68 a7 bc
       -0.0044374643 0.024643589 -0.024062112 -0.020435441
000260 29 07 81 bc 23 98 4e 3c a4 e7 a1 bc 0b af 51 bc
       -0.015750485 0.012609514 -0.019763775 -0.012798081
000270 b0 fd f6 bc b7 6b 41 bb cb 4e 9e bc 15 1c 8f bc
       -0.030150265 -0.0029513666 -0.01932468 -0.017469445
000280 30 1b 16 bc 9e 69 13 bc ae dc 77 bc ce 09 ca bc
       -0.009161755 -0.008997349 -0.015128298 -0.024662878
000290 47 54 b5 bc fd 26 45 bc 79 ea 21 3c 24 48 1c 3d
       -0.022134913 -0.012033221 0.009882563 0.038154736
0002a0 4c a2 b8 bc 49 6c e0 bc 54 02 0a 3d 87 17 1c bd
       -0.022538327 -0.027395384 0.033693627 -0.038108375
0002b0 84 1e dc bb 18 de 84 3c 65 56 81 bc 3d b7 af 3b
       -0.006717505 0.016219184 -0.015788266 0.00536242
0002c0 8c d1 72 3c 9d 9b 88 bc 06 5c 57 bc 0d 2b 8c 3c
       0.014820468 -0.016675765 -0.013144499 0.017110372
0002d0 4d d2 c7 bc 48 3e c3 3c 2f a3 cb bc a9 23 07 3c
       -0.024392271 0.023833409 -0.024858085 0.008248248
0002e0 3c 9b 0e bc f8 8f 04 bc f8 e2 e9 3c be 8b be bc
       -0.008704003 -0.008090965 0.02855061 -0.023259994
0002f0 c2 fe f0 ba 9c bd 0f bc 33 97 90 bd 35 f7 9b bc
       -0.0018386471 -0.008773234 -0.07060089 -0.019038776
000300 cf 3a 90 bb 82 d1 64 bc e2 c8 92 3c f0 8b 5f ba
       -0.004401542 -0.013965966 0.017918054 -0.0008527627
000310 45 78 16 3d 3a cb 5f ba 82 97 12 bc ad 79 0d 3c
       0.03673579 -0.0008537058 -0.008947255 0.008634967
000320 ff 1a 11 3d da 53 e2 3b de 1b 1b 3d 74 82 c6 bc
       0.035426136 0.0069069685 0.037868373 -0.024232127
000330 c2 7f 78 bc ae de 80 bc 1b e7 13 3d af 2d 78 bc
       -0.015167179 -0.015731182 0.03610907 -0.015147611
000340 b9 37 ab 3b fd 12 e5 bc ef 46 7e bc 87 ba 1e bd
       0.0052251485 -0.027963156 -0.015519842 -0.038752105
000350 d9 8e cb 3c b8 67 ba bc 89 ef 06 3d 14 51 1e 3d
       0.024848389 -0.022754535 0.032943282 0.03865154
000360 6e e0 f3 bc a8 4a fb bc ce ed b1 bc 52 dd ca 3c
       -0.029770102 -0.030675247 -0.02171984 0.024763737
000370 c2 58 8d bb 7c 94 3e 3c 16 82 64 3c 3a df ab 3c
       -0.0043135593 0.011632081 0.0139470305 0.020980466
000380 47 09 ec 3c c1 88 bf bb 6d b9 84 b9 a7 e2 12 3c
       0.028813018 -0.0058451598 -0.00025315155 0.008965171
000390 fc e8 95 3b 14 0c 88 3a ae 56 ec 3b bc 42 d3 3b
       0.004574893 0.0010379576 0.0072124815 0.0064471643
0003a0 f5 3a 88 bb cf eb 90 3c da da e4 bb 06 1f a6 3b
       -0.004157419 0.017690567 -0.006984097 0.0050696163
0003b0 25 72 93 bb 68 d8 b9 3b a4 f2 86 3c 99 4c d1 bc
       -0.004499691 0.0056715496 0.016473122 -0.02554922
0003c0 21 e1 99 bc 61 22 fb b9 7f b0 4d bc 17 8d 5f 3c
       -0.018784108 -0.00047900065 -0.012554287 0.013644478
0003d0 85 f5 d4 3b f2 39 39 bc 67 a5 bc bc 73 17 03 3d
       0.006498995 -0.011305319 -0.023028089 0.032004785
0003e0 6f 14 38 3b 80 d0 26 bb 0b c7 a4 bc 3e 0d 2d 3b
       0.0028088351 -0.0025453866 -0.020114442 0.0026405598
0003f0 53 1c 0a 3d 0a 07 6d 3c dd db 4f 3c 87 ce ed 3c
       0.03371842 0.01446701 0.012686697 0.029029144

ema_model.q_head.mamba.A_log f4 [18, 16]
000000 b4 65 d9 2d 18 72 31 3f 54 9f 8c 3f 18 72 b1 3f
       2.4715209e-11 0.6931472 1.0986123 1.3862944
000010 10 02 ce 3f 60 58 e5 3f 95 13 f9 3f 92 15 05 40
       1.609438 1.7917595 1.9459101 2.0794415
000020 54 9f 0c 40 8e 5d 13 40 1e 77 19 40 b6 08 1f 40
       2.1972246 2.3025851 2.3978953 2.4849067
000030 21 28 24 40 51 e6 28 40 b2 50 2d 40 18 72 31 40
       2.5649493 2.6390574 2.7080503 2.7725887
000040 d1 4c 2d b1 18 72 31 3f 54 9f 8c 3f 18 72 b1 3f
       -2.5218478e-09 0.6931472 1.0986123 1.3862944
000050 10 02 ce 3f 60 58 e5 3f 95 13 f9 3f 92 15 05 40
       1.609438 1.7917595 1.9459101 2.0794415
000060 54 9f 0c 40 8e 5d 13 40 1e 77 19 40 b6 08 1f 40
       2.1972246 2.3025851 2.3978953 2.4849067
000070 21 28 24 40 51 e6 28 40 b2 50 2d 40 18 72 31 40
       2.5649493 2.6390574 2.7080503 2.7725887
000080 0e 72 58 2f 18 72 31 3f 54 9f 8c 3f 18 72 b1 3f
       1.9685606e-10 0.6931472 1.0986123 1.3862944
000090 10 02 ce 3f 60 58 e5 3f 95 13 f9 3f 92 15 05 40
       1.609438 1.7917595 1.9459101 2.0794415
0000a0 54 9f 0c 40 8e 5d 13 40 1e 77 19 40 b6 08 1f 40
       2.1972246 2.3025851 2.3978953 2.4849067
0000b0 21 28 24 40 51 e6 28 40 b2 50 2d 40 18 72 31 40
       2.5649493 2.6390574 2.7080503 2.7725887
0000c0 ee a7 9d af 18 72 31 3f 54 9f 8c 3f 18 72 b1 3f
       -2.8677455e-10 0.6931472 1.0986123 1.3862944
0000d0 10 02 ce 3f 60 58 e5 3f 95 13 f9 3f 92 15 05 40
       1.609438 1.7917595 1.9459101 2.0794415
0000e0 54 9f 0c 40 8e 5d 13 40 1e 77 19 40 b6 08 1f 40
       2.1972246 2.3025851 2.3978953 2.4849067
0000f0 21 28 24 40 51 e6 28 40 b2 50 2d 40 18 72 31 40
       2.5649493 2.6390574 2.7080503 2.7725887
000100 63 73 b7 ad 18 72 31 3f 54 9f 8c 3f 18 72 b1 3f
       -2.0855933e-11 0.6931472 1.0986123 1.3862944
000110 10 02 ce 3f 60 58 e5 3f 95 13 f9 3f 92 15 05 40
       1.609438 1.7917595 1.9459101 2.0794415
000120 54 9f 0c 40 8e 5d 13 40 1e 77 19 40 b6 08 1f 40
       2.1972246 2.3025851 2.3978953 2.4849067
000130 21 28 24 40 51 e6 28 40 b2 50 2d 40 18 72 31 40
       2.5649493 2.6390574 2.7080503 2.7725887
000140 00 cc 33 b0 18 72 31 3f 54 9f 8c 3f 18 72 b1 3f
       -6.540972e-10 0.6931472 1.0986123 1.3862944
000150 10 02 ce 3f 60 58 e5 3f 95 13 f9 3f 92 15 05 40
       1.609438 1.7917595 1.9459101 2.0794415
000160 54 9f 0c 40 8e 5d 13 40 1e 77 19 40 b6 08 1f 40
       2.1972246 2.3025851 2.3978953 2.4849067
000170 21 28 24 40 51 e6 28 40 b2 50 2d 40 18 72 31 40
       2.5649493 2.6390574 2.7080503 2.7725887
000180 81 d1 04 2f 18 72 31 3f 54 9f 8c 3f 18 72 b1 3f
       1.2079761e-10 0.6931472 1.0986123 1.3862944
000190 10 02 ce 3f 60 58 e5 3f 95 13 f9 3f 92 15 05 40
       1.609438 1.7917595 1.9459101 2.0794415
0001a0 54 9f 0c 40 8e 5d 13 40 1e 77 19 40 b6 08 1f 40
       2.1972246 2.3025851 2.3978953 2.4849067
0001b0 21 28 24 40 51 e6 28 40 b2 50 2d 40 18 72 31 40
       2.5649493 2.6390574 2.7080503 2.7725887
0001c0 4d 8b 5f af 18 72 31 3f 54 9f 8c 3f 18 72 b1 3f
       -2.0331221e-10 0.6931472 1.0986123 1.3862944
0001d0 10 02 ce 3f 60 58 e5 3f 95 13 f9 3f 92 15 05 40
       1.609438 1.7917595 1.9459101 2.0794415
0001e0 54 9f 0c 40 8e 5d 13 40 1e 77 19 40 b6 08 1f 40
       2.1972246 2.3025851 2.3978953 2.4849067
0001f0 21 28 24 40 51 e6 28 40 b2 50 2d 40 18 72 31 40
       2.5649493 2.6390574 2.7080503 2.7725887
000200 fc 66 16 b0 18 72 31 3f 52 9f 8c 3f 18 72 b1 3f
       -5.471603e-10 0.6931472 1.0986121 1.3862944
000210 10 02 ce 3f 60 58 e5 3f 93 13 f9 3f 92 15 05 40
       1.609438 1.7917595 1.9459099 2.0794415
000220 54 9f 0c 40 8e 5d 13 40 1e 77 19 40 b4 08 1f 40
       2.1972246 2.3025851 2.3978953 2.4849062
000230 21 28 24 40 51 e6 28 40 b2 50 2d 40 18 72 31 40
       2.5649493 2.6390574 2.7080503 2.7725887
000240 66 8b 86 ae 18 72 31 3f 54 9f 8c 3f 18 72 b1 3f
       -6.1183766e-11 0.6931472 1.0986123 1.3862944
000250 10 02 ce 3f 60 58 e5 3f 95 13 f9 3f 92 15 05 40
       1.609438 1.7917595 1.9459101 2.0794415
000260 54 9f 0c 40 8e 5d 13 40 1e 77 19 40 b6 08 1f 40
       2.1972246 2.3025851 2.3978953 2.4849067
000270 21 28 24 40 51 e6 28 40 b2 50 2d 40 18 72 31 40
       2.5649493 2.6390574 2.7080503 2.7725887
000280 02 c2 f7 b2 19 72 31 3f 4d 9f 8c 3f 18 72 b1 3f
       -2.8842809e-08 0.69314724 1.0986115 1.3862944
000290 0f 02 ce 3f 60 58 e5 3f 8f 13 f9 3f 92 15 05 40
       1.6094378 1.7917595 1.9459094 2.0794415
0002a0 54 9f 0c 40 8f 5d 13 40 1e 77 19 40 af 08 1f 40
       2.1972246 2.3025854 2.3978953 2.484905
0002b0 21 28 24 40 51 e6 28 40 b2 50 2d 40 18 72 31 40
       2.5649493 2.6390574 2.7080503 2.7725887
0002c0 d4 f7 08 31 18 72 31 3f 57 9f 8c 3f 18 72 b1 3f
       1.9931479e-09 0.6931472 1.0986127 1.3862944
0002d0 12 02 ce 3f 60 58 e5 3f 98 13 f9 3f 92 15 05 40
       1.6094382 1.7917595 1.9459105 2.0794415
0002e0 54 9f 0c 40 8e 5d 13 40 1e 77 19 40 bb 08 1f 40
       2.1972246 2.3025851 2.3978953 2.4849079
0002f0 21 28 24 40 51 e6 28 40 b2 50 2d 40 18 72 31 40
       2.5649493 2.6390574 2.7080503 2.7725887
000300 82 eb cb 30 18 72 31 3f 54 9f 8c 3f 18 72 b1 3f
       1.4837129e-09 0.6931472 1.0986123 1.3862944
000310 10 02 ce 3f 60 58 e5 3f 95 13 f9 3f 92 15 05 40
       1.609438 1.7917595 1.9459101 2.0794415
000320 54 9f 0c 40 8e 5d 13 40 1e 77 19 40 b9 08 1f 40
       2.1972246 2.3025851 2.3978953 2.4849074
000330 21 28 24 40 51 e6 28 40 b2 50 2d 40 18 72 31 40
       2.5649493 2.6390574 2.7080503 2.7725887
000340 9f 6b 6d ae 18 72 31 3f 54 9f 8c 3f 18 72 b1 3f
       -5.3983148e-11 0.6931472 1.0986123 1.3862944
000350 10 02 ce 3f 60 58 e5 3f 95 13 f9 3f 92 15 05 40
       1.609438 1.7917595 1.9459101 2.0794415
000360 54 9f 0c 40 8e 5d 13 40 1e 77 19 40 b6 08 1f 40
       2.1972246 2.3025851 2.3978953 2.4849067
000370 21 28 24 40 51 e6 28 40 b2 50 2d 40 18 72 31 40
       2.5649493 2.6390574 2.7080503 2.7725887
000380 96 0f b5 2e 18 72 31 3f 54 9f 8c 3f 18 72 b1 3f
       8.233696e-11 0.6931472 1.0986123 1.3862944
000390 10 02 ce 3f 60 58 e5 3f 95 13 f9 3f 92 15 05 40
       1.609438 1.7917595 1.9459101 2.0794415
0003a0 54 9f 0c 40 8e 5d 13 40 1e 77 19 40 b6 08 1f 40
       2.1972246 2.3025851 2.3978953 2.4849067
0003b0 21 28 24 40 51 e6 28 40 b2 50 2d 40 18 72 31 40
       2.5649493 2.6390574 2.7080503 2.7725887
0003c0 d2 fb c0 af 18 72 31 3f 54 9f 8c 3f 18 72 b1 3f
       -3.5103526e-10 0.6931472 1.0986123 1.3862944
0003d0 10 02 ce 3f 60 58 e5 3f 95 13 f9 3f 92 15 05 40
       1.609438 1.7917595 1.9459101 2.0794415
0003e0 54 9f 0c 40 8e 5d 13 40 1e 77 19 40 b6 08 1f 40
       2.1972246 2.3025851 2.3978953 2.4849067
0003f0 21 28 24 40 51 e6 28 40 b2 50 2d 40 18 72 31 40
       2.5649493 2.6390574 2.7080503 2.7725887
