checkpoints/q-mamba/20240816_100148/checkpoint-1.pt (torch, 115222 bytes, 42 tensors)

q_head.action_bin_embeddings f4 [2, 256, 9]
0	0x3c8e4542	0.01736701
1	0xbc1e9fe9	-0.00968168
2	0xbc072b9f	-0.008250146
3	0x3c26f5a0	0.0101903975
4	0xbc9576b7	-0.018245084
5	0x3c3e2ddd	0.011607614
6	0xbc0a02cd	-0.008423519
7	0x3c173afa	0.00923037
8	0xbce95a85	-0.028485546
9	0x3c40029c	0.011719372
10	0xbb606fb7	-0.0034246275
11	0xbc6a60da	-0.014305318
12	0x3b937e52	0.0045011425
13	0x3bed4bf2	0.0072417194
14	0x3c87b3d2	0.016565237
15	0x3aafa1b6	0.0013399634
16	0x3c9fdf4a	0.019515652
17	0x3cc0ee32	0.02355108
18	0xbc110d1c	-0.008853223
19	0xbcd7f364	-0.026361175
20	0x3c5f36cc	0.013623904
21	0xbb73fdb5	-0.0037230079
22	0xbb98f083	-0.004667343
23	0xbc3f3fe3	-0.011672947
24	0x3c44473c	0.011979874
25	0xbd25dc4a	-0.040493287
26	0xbb902420	-0.0043988377
27	0x3b882e20	0.004155889
28	0xbb1ae9a5	-0.0023637798
29	0xbc85326c	-0.016259395
30	0xbc2e0329	-0.010620871
31	0x3c5fcb1c	0.013659265
32	0x3c3cfdf6	0.011535158
33	0x3c4acd0d	0.0123779895
34	0xbcc29807	-0.023754133
35	0xbcc1c72b	-0.023654541
36	0x3be7dfcf	0.0070762406
37	0xbbdc0b8c	-0.0067152437
38	0xbcc8011e	-0.024414595
39	0x3c85645a	0.016283203
40	0xbd08b7e2	-0.03337849
41	0x3d1d954b	0.038472455
42	0xbb1d3b77	-0.0023991743
43	0x3c91da51	0.017804297
44	0xbc9c02e4	-0.019044347
45	0x3cc6c393	0.024263179
46	0x3c97f14c	0.018547677
47	0xbc86f282	-0.016473059
48	0xbcd12dff	-0.025534628
49	0xba787657	-0.0009478083
50	0xbbd48cc8	-0.006486509
51	0xbb689f72	-0.0035495427
52	0x3b1dab00	0.0024058223
53	0x3b8819df	0.0041534747
54	0x3c964339	0.018342601
55	0x3bef47bb	0.007302252
56	0x3cdae1aa	0.026718933
57	0xbc9a744e	-0.018854287
58	0x3c34bd2c	0.01103143
59	0xbd10aaa7	-0.035318997
60	0xbbe7f77d	-0.0070790634
61	0xbc577b55	-0.013151963
62	0x3b125453	0.0022328093
63	0x3bc25cbb	0.0059314645
64	0xb94099d2	-0.0001836785
65	0xbcd8f2a0	-0.02648288
66	0x3cb4db6c	0.022077285
67	0x3bd8188d	0.0065947236
68	0xbcd14833	-0.025547123
69	0x3ca867cf	0.020557312
70	0xbc01122d	-0.007877869
71	0x3d01277e	0.031531803
72	0x3c21f118	0.009884141
73	0x3c331c42	0.01093203
74	0x3ba81e14	0.0051305387
75	0xbc955f97	-0.018234057
76	0x3c4507a0	0.012025744
77	0xbbab521e	-0.005228295
78	0x3ba13d43	0.004920633
79	0x3bed0778	0.0072335564
80	0xbc8a47f7	-0.016880019
81	0xbbd28538	-0.0064245723
82	0xbbf05e8a	-0.0073354887
83	0xbc89e3d3	-0.016832268
84	0x3c3d6c29	0.011561432
85	0x3c36fc8e	0.011168612
86	0xba44cd37	-0.0007507386
87	0xbc02ad5d	-0.007975903
88	0xbbb551b0	-0.0055334195
89	0xbbe23369	-0.006903101
90	0xbc20e37f	-0.009819864
91	0xbccd8bbd	-0.025091046
92	0xbd2eac8f	-0.042645033
93	0x3a939c21	0.001126174
94	0x3c58fc11	0.013243691
95	0x3c46b89f	0.012128978
96	0xbc84435f	-0.016145406
97	0xbc52bc85	-0.012862329
98	0xbb36379d	-0.0027804144
99	0x3cd12120	0.02552849
100	0xbc35aed5	-0.0110890465
101	0x3ca7aae1	0.020467224
102	0x3d07cb6d	0.033152986
103	0x3cbb70e7	0.022880984
104	0x3c4671f7	0.012112132
105	0xbb112a44	-0.0022150436
106	0xbc9a7b24	-0.018857546
107	0x3b925f3b	0.0044669188
108	0xbc5bfc8d	-0.013426912
109	0x3b975896	0.0046187146
110	0x3c37c92f	0.0112173995
111	0x3cdf9de3	0.027296966
112	0xbcfea0f5	-0.03108261
113	0x3ccfa381	0.02534652
114	0xbd15a00c	-0.036529586
115	0x3cbb4753	0.022861158
116	0x3c48a193	0.012245554
117	0xbb944feb	-0.0045261285
118	0x3c9d9c0d	0.01923945
119	0xbb933aa0	-0.0044930726
120	0x3c247c86	0.010039454
121	0xbc90e059	-0.017685102
122	0x3d2271d8	0.03965935
123	0xbc0d510a	-0.008625278
124	0x3c1da9ed	0.009623033
125	0xbd05364a	-0.032522477
126	0xb9566647	-0.00020446732
127	0x3d2e481a	0.04254923
128	0x3c18b5d9	0.0093207
129	0xbcc7b04b	-0.024376055
130	0xbbf8db30	-0.0075944886
131	0x3d082311	0.033236567
132	0xbb83fa8d	-0.0040276707
133	0x3ba06506	0.0048948554
134	0x3bd098f2	0.0063658888
135	0x3d1a3bbb	0.03765462
136	0x3c5e1bbf	0.01355642
137	0xbb26b26a	-0.0025435933
138	0xb92c4cd0	-0.00016431813
139	0x3c4ccc5e	0.012499897
140	0x3c2ba293	0.010475772
141	0xbc9e3924	-0.019314356
142	0x3b2b1d8c	0.002611014
143	0xba95d392	-0.0011430851
144	0xbcdb194d	-0.026745463
145	0x3c3251b2	0.0108837355
146	0xbc33216a	-0.0109332595
147	0x3c51074c	0.012758087
148	0xbb9925a3	-0.004673676
149	0x3cc76853	0.024341738
150	0xbcc2a5b8	-0.023760661
151	0xbca9c4be	-0.020723697
152	0xbc83461e	-0.016024645
153	0x3c5374c0	0.012906253
154	0xbc9f92dd	-0.01947921
155	0xbc4cdae7	-0.012503362
156	0xbcf48932	-0.029850576
157	0xbb50e665	-0.0031875607
158	0xbca0c7d2	-0.019626532
159	0xbc8ca3e5	-0.017167995
160	0xbc1ad441	-0.009450019
161	0xbc17e788	-0.00927151
162	0xbc73000f	-0.014831557
163	0xbcc7b506	-0.02437831
164	0xbcb2ea35	-0.021840194
165	0xbc403e01	-0.011733533
166	0x3c1e0be2	0.009646388
167	0x3d1b0ba0	0.037852883
168	0xbcb62a1c	-0.022236876
169	0xbce2c8d5	-0.027683655
170	0x3d08e2db	0.03341947
171	0xbd1ae05f	-0.037811633
172	0xbbd2cb69	-0.00643294
173	0x3c87482a	0.016513903
174	0xbc7dc3cf	-0.015488579
175	0x3ba7f9ea	0.0051262276
176	0x3c6ddf7e	0.014518617
177	0xbc86236d	-0.016374314
178	0xbc5c1516	-0.013432762
179	0x3c89ec1a	0.016836215
180	0xbcc563fe	-0.024095532
181	0x3cc59310	0.024117976
182	0xbcc9391d	-0.024563367
183	0x3c0c0ca5	0.008547937
184	0xbc1279dd	-0.008940187
185	0xbc098207	-0.008392817
186	0x3cec5b28	0.02885206
187	0xbcc0e848	-0.02354826
188	0xbb0a76fd	-0.0021128051
189	0xbc0ae101	-0.008476497
190	0xbd900202	-0.07031633
191	0xbc998d24	-0.018744059
192	0xbb8668dc	-0.0041018557
193	0xbc68b044	-0.014202181
194	0x3c904fdc	0.017616205
195	0xba108606	-0.0005513135
196	0x3d154a02	0.036447532
197	0xba93d4ed	-0.0011278667
198	0xbc0dbd2e	-0.008651061
199	0x3c1227f7	0.008920661
200	0x3d125043	0.035721075
201	0x3bec2659	0.00720672
202	0x3d1a2429	0.03763214
203	0xbcc8f94b	-0.024532935
204	0xbc738f97	-0.014865777
205	0xbc834360	-0.016023338
206	0x3d12c795	0.035834868
207	0xbc734dc3	-0.014850083
208	0x3bb48d5d	0.005510016
209	0xbce2a89a	-0.027668286
210	0xbc795d65	-0.015220021
211	0xbd1fb1f2	-0.03898806
212	0x3cc918a2	0.024547879
213	0xbcb7eff4	-0.022453286
214	0x3d05c674	0.032659963
215	0x3d1d3208	0.03837779
216	0xbcf1721f	-0.029473362
217	0xbcf8f5e0	-0.03039068
218	0xbcaf83bc	-0.02142512
219	0x3ccd51cf	0.025063423
220	0xbb951608	-0.0045497455
221	0x3c39a26e	0.01133023
222	0x3c697276	0.014248481
223	0x3ca982ae	0.020692196
224	0x3ce9ca54	0.02853886
225	0xbbb5ce1a	-0.005548251
226	0x37f97dca	2.9741688e-05
227	0x3c17b5e7	0.0092596775
228	0x3b9fb9a8	0.004874427
229	0x3a55f516	0.0008161826
230	0x3be26fce	0.006910301
231	0x3bdd2346	0.0067485897
232	0xbb91ab26	-0.0044454513
233	0x3c8eaab8	0.01741539
234	0xbbdb24e8	-0.006687749
235	0x3baf66be	0.005352824
236	0xbb89dd80	-0.004207313
237	0x3bc3a591	0.005970665
238	0x3c850a67	0.016240312
239	0xbcd3c616	-0.02585129
240	0xbc976920	-0.018482745
241	0xba4900fe	-0.00076676894
242	0xbc522b20	-0.012827665
243	0x3c6469b6	0.013941219
244	0x3bde48a6	0.0067835627
245	0xbc3465cd	-0.011010599
246	0xbcba30e9	-0.0227284
247	0x3d021fcc	0.031768605
248	0x3b244c2f	0.0025069823
249	0xbb130efc	-0.0022439351
250	0xbca72395	-0.020402709
251	0x3b1b159a	0.0023663999
252	0x3d0b537a	0.034015156
253	0x3c71b09c	0.01475158
254	0x3c54b001	0.012981416
255	0x3cf04304	0.02932883

q_head.mamba.A_log f4 [18, 16]
0	0x2d1e7698	9.007593e-12
1	0x3f317218	0.6931472
2	0x3f8c9f54	1.0986123
3	0x3fb17218	1.3862944
4	0x3fce0210	1.609438
5	0x3fe55860	1.7917595
6	0x3ff91395	1.9459101
7	0x40051592	2.0794415
8	0x400c9f54	2.1972246
9	0x40135d8e	2.3025851
10	0x4019771e	2.3978953
11	0x401f08b6	2.4849067
12	0x40242821	2.5649493
13	0x4028e651	2.6390574
14	0x402d50b2	2.7080503
15	0x40317218	2.7725887
16	0xb1225a82	-2.362555e-09
17	0x3f317218	0.6931472
18	0x3f8c9f54	1.0986123
19	0x3fb17218	1.3862944
20	0x3fce0210	1.609438
21	0x3fe55860	1.7917595
22	0x3ff91395	1.9459101
23	0x40051592	2.0794415
24	0x400c9f54	2.1972246
25	0x40135d8e	2.3025851
26	0x4019771e	2.3978953
27	0x401f08b6	2.4849067
28	0x40242821	2.5649493
29	0x4028e651	2.6390574
30	0x402d50b2	2.7080503
31	0x40317218	2.7725887
32	0x2f378b1c	1.6693175e-10
33	0x3f317218	0.6931472
34	0x3f8c9f54	1.0986123
35	0x3fb17218	1.3862944
36	0x3fce0210	1.609438
37	0x3fe55860	1.7917595
38	0x3ff91395	1.9459101
39	0x40051592	2.0794415
40	0x400c9f54	2.1972246
41	0x40135d8e	2.3025851
42	0x4019771e	2.3978953
43	0x401f08b6	2.4849067
44	0x40242821	2.5649493
45	0x4028e651	2.6390574
46	0x402d50b2	2.7080503
47	0x40317218	2.7725887
48	0xaf9295c3	-2.6663657e-10
49	0x3f317218	0.6931472
50	0x3f8c9f54	1.0986123
51	0x3fb17218	1.3862944
52	0x3fce0210	1.609438
53	0x3fe55860	1.7917595
54	0x3ff91395	1.9459101
55	0x40051592	2.0794415
56	0x400c9f54	2.1972246
57	0x40135d8e	2.3025851
58	0x4019771e	2.3978953
59	0x401f08b6	2.4849067
60	0x40242821	2.5649493
61	0x4028e651	2.6390574
62	0x402d50b2	2.7080503
63	0x40317218	2.7725887
64	0xae504695	-4.7356414e-11
65	0x3f317218	0.6931472
66	0x3f8c9f54	1.0986123
67	0x3fb17218	1.3862944
68	0x3fce0210	1.609438
69	0x3fe55860	1.7917595
70	0x3ff91395	1.9459101
71	0x40051592	2.0794415
72	0x400c9f54	2.1972246
73	0x40135d8e	2.3025851
74	0x4019771e	2.3978953
75	0x401f08b6	2.4849067
76	0x40242821	2.5649493
77	0x4028e651	2.6390574
78	0x402d50b2	2.7080503
79	0x40317218	2.7725887
80	0xb01672c2	-5.473276e-10
81	0x3f317218	0.6931472
82	0x3f8c9f54	1.0986123
83	0x3fb17218	1.3862944
84	0x3fce0210	1.609438
85	0x3fe55860	1.7917595
86	0x3ff91395	1.9459101
87	0x40051592	2.0794415
88	0x400c9f54	2.1972246
89	0x40135d8e	2.3025851
90	0x4019771e	2.3978953
91	0x401f08b6	2.4849067
92	0x40242821	2.5649493
93	0x4028e651	2.6390574
94	0x402d50b2	2.7080503
95	0x40317218	2.7725887
96	0x2edca68a	1.0034025e-10
97	0x3f317218	0.6931472
98	0x3f8c9f54	1.0986123
99	0x3fb17218	1.3862944
100	0x3fce0210	1.609438
101	0x3fe55860	1.7917595
102	0x3ff91395	1.9459101
103	0x40051592	2.0794415
104	0x400c9f54	2.1972246
105	0x40135d8e	2.3025851
106	0x4019771e	2.3978953
107	0x401f08b6	2.4849067
108	0x40242821	2.5649493
109	0x4028e651	2.6390574
110	0x402d50b2	2.7080503
111	0x40317218	2.7725887
112	0x2dbcfd59	2.1485634e-11
113	0x3f317218	0.6931472
114	0x3f8c9f54	1.0986123
115	0x3fb17218	1.3862944
116	0x3fce0210	1.609438
117	0x3fe55860	1.7917595
118	0x3ff91395	1.9459101
119	0x40051592	2.0794415
120	0x400c9f54	2.1972246
121	0x40135d8e	2.3025851
122	0x4019771e	2.3978953
123	0x401f08b6	2.4849067
124	0x40242821	2.5649493
125	0x4028e651	2.6390574
126	0x402d50b2	2.7080503
127	0x40317218	2.7725887
128	0xb0b31fe8	-1.3033032e-09
129	0x3f317218	0.6931472
130	0x3f8c9f52	1.0986121
131	0x3fb17218	1.3862944
132	0x3fce0210	1.609438
133	0x3fe55860	1.7917595
134	0x3ff91393	1.9459099
135	0x40051592	2.0794415
136	0x400c9f54	2.1972246
137	0x40135d8e	2.3025851
138	0x4019771e	2.3978953
139	0x401f08b4	2.4849062
140	0x40242821	2.5649493
141	0x4028e651	2.6390574
142	0x402d50b2	2.7080503
143	0x40317218	2.7725887
144	0xae95ef82	-6.818281e-11
145	0x3f317218	0.6931472
146	0x3f8c9f54	1.0986123
147	0x3fb17218	1.3862944
148	0x3fce0210	1.609438
149	0x3fe55860	1.7917595
150	0x3ff91395	1.9459101
151	0x40051592	2.0794415
152	0x400c9f54	2.1972246
153	0x40135d8e	2.3025851
154	0x4019771e	2.3978953
155	0x401f08b6	2.4849067
156	0x40242821	2.5649493
157	0x4028e651	2.6390574
158	0x402d50b2	2.7080503
159	0x40317218	2.7725887
160	0xb2daf813	-2.5491351e-08
161	0x3f317219	0.69314724
162	0x3f8c9f4e	1.0986116
163	0x3fb17218	1.3862944
164	0x3fce020f	1.6094378
165	0x3fe55860	1.7917595
166	0x3ff9138f	1.9459094
167	0x40051592	2.0794415
168	0x400c9f54	2.1972246
169	0x40135d8f	2.3025854
170	0x4019771e	2.3978953
171	0x401f08b0	2.4849052
172	0x40242821	2.5649493
173	0x4028e651	2.6390574
174	0x402d50b2	2.7080503
175	0x40317218	2.7725887
176	0x30f5cf9a	1.78851e-09
177	0x3f317218	0.6931472
178	0x3f8c9f57	1.0986127
179	0x3fb17218	1.3862944
180	0x3fce0212	1.6094382
181	0x3fe55860	1.7917595
182	0x3ff91398	1.9459105
183	0x40051592	2.0794415
184	0x400c9f54	2.1972246
185	0x40135d8e	2.3025851
186	0x4019771e	2.3978953
187	0x401f08bb	2.4849079
188	0x40242821	2.5649493
189	0x4028e651	2.6390574
190	0x402d50b2	2.7080503
191	0x40317218	2.7725887
192	0x3099dbe6	1.1194714e-09
193	0x3f317218	0.6931472
194	0x3f8c9f54	1.0986123
195	0x3fb17218	1.3862944
196	0x3fce0210	1.609438
197	0x3fe55860	1.7917595
198	0x3ff91395	1.9459101
199	0x40051592	2.0794415
200	0x400c9f54	2.1972246
201	0x40135d8e	2.3025851
202	0x4019771e	2.3978953
203	0x401f08b8	2.4849072
204	0x40242821	2.5649493
205	0x4028e651	2.6390574
206	0x402d50b2	2.7080503
207	0x40317218	2.7725887
208	0xae6bc3c6	-5.3606695e-11
209	0x3f317218	0.6931472
210	0x3f8c9f54	1.0986123
211	0x3fb17218	1.3862944
212	0x3fce0210	1.609438
213	0x3fe55860	1.7917595
214	0x3ff91395	1.9459101
215	0x40051592	2.0794415
216	0x400c9f54	2.1972246
217	0x40135d8e	2.3025851
218	0x4019771e	2.3978953
219	0x401f08b6	2.4849067
220	0x40242821	2.5649493
221	0x4028e651	2.6390574
222	0x402d50b2	2.7080503
223	0x40317218	2.7725887
224	0x2e84b12d	6.034138e-11
225	0x3f317218	0.6931472
226	0x3f8c9f54	1.0986123
227	0x3fb17218	1.3862944
228	0x3fce0210	1.609438
229	0x3fe55860	1.7917595
230	0x3ff91395	1.9459101
231	0x40051592	2.0794415
232	0x400c9f54	2.1972246
233	0x40135d8e	2.3025851
234	0x4019771e	2.3978953
235	0x401f08b6	2.4849067
236	0x40242821	2.5649493
237	0x4028e651	2.6390574
238	0x402d50b2	2.7080503
239	0x40317218	2.7725887
240	0xafbda21b	-3.4494083e-10
241	0x3f317218	0.6931472
242	0x3f8c9f54	1.0986123
243	0x3fb17218	1.3862944
244	0x3fce0210	1.609438
245	0x3fe55860	1.7917595
246	0x3ff91395	1.9459101
247	0x40051592	2.0794415
248	0x400c9f54	2.1972246
249	0x40135d8e	2.3025851
250	0x4019771e	2.3978953
251	0x401f08b6	2.4849067
252	0x40242821	2.5649493
253	0x4028e651	2.6390574
254	0x402d50b2	2.7080503
255	0x40317218	2.7725887

q_head.mamba.D f4 [18]
0	0x3f7fa877	0.9986643
1	0x3f7fbb6c	0.9989536
2	0x3f803024	1.0014691
3	0x3f80179c	1.0007205
4	0x3f802708	1.0011911
5	0x3f802e26	1.0014083
6	0x3f802f02	1.0014346
7	0x3f8030bb	1.0014871
8	0x3f802a13	1.001284
9	0x3f7ff459	0.9998222
10	0x3f7fea01	0.99966437
11	0x3f7fff2e	0.9999875
12	0x3f800024	1.0000043
13	0x3f803041	1.0014726
14	0x3f802f4b	1.0014433
15	0x3f7f9f37	0.9985232
16	0x3f7fa288	0.9985738
17	0x3f8030b6	1.0014865

q_head.mamba.in_proj.weight f4 [36, 9]
0	0x3d811cc0	0.06304312
1	0xbe545f3d	-0.20739456
2	0xbb865e3f	-0.0041005905
3	0xbd4053f5	-0.046955068
4	0xbe3c7cc6	-0.18406972
5	0x3dbcaf51	0.092131265
6	0xbd300268	-0.042971045
7	0x3dd02532	0.101633444
8	0xbe898e5f	-0.26866433
9	0x3e7f2037	0.24914633
10	0xbdd2473d	-0.10267494
11	0xbc44ef1b	-0.012019898
12	0x3d2366a6	0.039892815
13	0x3e7c3900	0.24631119
14	0x3e832a6f	0.25618312
15	0xbde72cef	-0.11287867
16	0xbca2cf21	-0.019874157
17	0xbdaa9fc2	-0.08331253
18	0x3ea91f95	0.33031908
19	0xbdc20d9b	-0.09475251
20	0xbdf84808	-0.12123114
21	0x3d8ac251	0.06775344
22	0x3e654468	0.22389376
23	0xbce4f754	-0.027949966
24	0x3ca401f0	0.020020455
25	0x3e99e5da	0.30058175
26	0xbd48f26b	-0.049059313
27	0x3c908ee5	0.017646262
28	0xbe08e44c	-0.13368338
29	0xbe29d52f	-0.1658523
30	0xbe84db94	-0.25948775
31	0x3d6dcc9f	0.05805647
32	0xbd43ec4f	-0.047832783
33	0x3c49ed90	0.012324706
34	0xbe83d151	-0.25745633
35	0xbe7f669c	-0.24941486
36	0xbe096988	-0.13419163
37	0x3e59bc87	0.21263324
38	0x3ce8a751	0.028400095
39	0xbd9460c1	-0.07245017
40	0xbe872395	-0.26394334
41	0x3e1a2c16	0.1505588
42	0xbe0ebec4	-0.13939959
43	0xbd6d3086	-0.057907604
44	0x3dc9b471	0.098488696
45	0xbe33a3a8	-0.17542899
46	0x3e228f9c	0.15875095
47	0xbe9f9165	-0.31165615
48	0x3d19ca0d	0.037546206
49	0xbd131ba4	-0.035915032
50	0x3d9b65c0	0.07587767
51	0xbe828319	-0.25490645
52	0x3d1be089	0.03805593
53	0xbe400c4f	-0.18754695
54	0x3df22e3f	0.11825227
55	0xbe2c9f68	-0.16857684
56	0x3c369616	0.011144182
57	0xbc32c09d	-0.01091018
58	0x3ce5e76d	0.028064454
59	0x3e42c2bb	0.19019596
60	0x3e388554	0.1801961
61	0x3e79c1b9	0.24390306
62	0xbe319c06	-0.17344674
63	0x3e1a3ccf	0.15062259
64	0x3d67a607	0.05655482
65	0x3e217113	0.1576579
66	0xbe987669	-0.2977784
67	0x3e938b10	0.28817034
68	0x3e76f836	0.24118122
69	0xbe46b9d3	-0.19406824
70	0xbdad8e0e	-0.084743604
71	0x3d1ede37	0.03878614
72	0xbd2c799f	-0.042108174
73	0xbc903cbf	-0.017607091
74	0x3ea84bb9	0.32870272
75	0xbe72f41c	-0.23725933
76	0xbe911483	-0.28335962
77	0x3e943180	0.28944016
78	0x3e038467	0.12843476
79	0xbbb7e726	-0.005612272
80	0xbe86cce3	-0.2632819
81	0xbe0f209b	-0.13977282
82	0x3e73961e	0.23787734
83	0x3dc5ca27	0.09657698
84	0xbe68a33f	-0.22718523
85	0x3db749c8	0.089496195
86	0xbea336fe	-0.31877893
87	0xbe1526b5	-0.14565547
88	0xbdfc78ee	-0.12327753
89	0x3dfd4136	0.123659536
90	0xbe9f361e	-0.31095976
91	0xbe2d6e6c	-0.16936654
92	0xbe242cde	-0.1603274
93	0xbe5e987d	-0.21737857
94	0xbe693d45	-0.22777279
95	0x3da2435c	0.07923004
96	0xbd057ec3	-0.032591593
97	0xbe6f1f31	-0.23351742
98	0x3e1a8218	0.1508869
99	0x3e3f4f75	0.18682654
100	0xbe864af6	-0.26229066
101	0x3e44ac31	0.19206311
102	0xbdbca27f	-0.09210681
103	0x3d6cc0f2	0.057801194
104	0xbe2a1c94	-0.16612464
105	0xbe0f82aa	-0.14014688
106	0xbe6e6a0e	-0.23282644
107	0x3e5326e1	0.206203
108	0x3e7f09cb	0.2490608
109	0xbe522a2b	-0.20523898
110	0xbe26ccfa	-0.1628913
111	0x3e579ac2	0.21055129
112	0xbe96cc0f	-0.2945256
113	0x3e26d41d	0.16291852
114	0x3e07ae75	0.13250144
115	0xbe1120b8	-0.14172637
116	0xbe0fa876	-0.14029106
117	0x3e95381b	0.29144368
118	0x3d8ac5c8	0.06776005
119	0x3e63fdac	0.22264737
120	0xbe32c461	-0.17457725
121	0xbe703e9b	-0.23461382
122	0xbd2172da	-0.03941617
123	0xb800dd18	-3.0723488e-05
124	0xbea3c8ed	-0.31989232
125	0xbb94ca19	-0.0045406935
126	0x3c0563db	0.008141483
127	0x3e8df981	0.2772942
128	0x3e532b14	0.20621902
129	0x3e5a1cd0	0.21300054
130	0x3d70991d	0.05873977
131	0xbd9b05c8	-0.07569462
132	0xbe1eec2c	-0.1551978
133	0xbea60ca3	-0.32431516
134	0xbdaf42b1	-0.08557642
135	0x3e8823c5	0.2658979
136	0x3e12e8d8	0.14346635
137	0xbcc48508	-0.023989215
138	0x3dc23550	0.09482825
139	0x3e3acd61	0.18242408
140	0x3e8ff649	0.28117588
141	0xbe55ad42	-0.20866874
142	0xbceff7bb	-0.029292932
143	0x3e0f16b7	0.13973509
144	0x3e689e4b	0.22716634
145	0xbe9b0c7f	-0.3028297
146	0xbe01be3c	-0.12670225
147	0x3ce43aeb	0.027860126
148	0x3e0b5564	0.13606793
149	0xbe80c276	-0.25148362
150	0xbea79aad	-0.32735196
151	0xbda37f2e	-0.07983242
152	0x3db40174	0.0878934
153	0x3df50d0e	0.119653806
154	0xbe6779c6	-0.22605047
155	0xbdf2b3f3	-0.11850729
156	0x3d92905c	0.071564406
157	0xbd338c3e	-0.043834917
158	0x3dfd4592	0.12366785
159	0x3d1f5a80	0.038904667
160	0x3df9175f	0.12162661
161	0x3dd40425	0.10352353
162	0xbe8b451d	-0.27201167
163	0xbda93487	-0.08261972
164	0xbd2fca32	-0.042917438
165	0x3eaa7f73	0.3330036
166	0xbe6a7942	-0.22897819
167	0xbe54bf17	-0.2077602
168	0xbd13e5e1	-0.0361079
169	0xbcb4cd64	-0.022070594
170	0xbcf8e8d5	-0.03038446
171	0xbe9681fe	-0.2939605
172	0x3e72c33e	0.23707291
173	0x3bd1ade9	0.0063989055
174	0x3ea6cc6b	0.32577834
175	0xbdc227c9	-0.09480245
176	0x3e422979	0.18961133
177	0x3e366559	0.17812099
178	0x3ea8da60	0.32979107
179	0x3e4802b2	0.19532278
180	0x3d0f5c01	0.03499985
181	0xbea8a8f7	-0.3294141
182	0xbc125b69	-0.008932927
183	0x3e39d25b	0.1814665
184	0x3e60239a	0.21888581
185	0xbe8f2f42	-0.27965742
186	0xbd7afca6	-0.0612761
187	0x3d75efd4	0.06004317
188	0x3ea18ffb	0.3155516
189	0xbe93dbcf	-0.28878638
190	0xbc3e599f	-0.011618047
191	0xbdf3aecb	-0.118985735
192	0xbe8a671f	-0.270318
193	0xbe4ced31	-0.20012356
194	0x3e26f373	0.16303806
195	0xbea1ae16	-0.3157813
196	0x3e3f59d4	0.1868661
197	0xbd856f75	-0.06515399
198	0x3e7f3640	0.24923038
199	0xbe9a2b58	-0.30111194
200	0x3e7e5305	0.24836357
201	0xbe3fbeaa	-0.18725076
202	0x3d8ec656	0.06971423
203	0x3e0efc62	0.13963464
204	0x3e8993bd	0.26870528
205	0xbe598906	-0.21243677
206	0x3de22f57	0.110441856
207	0xbda9d971	-0.08293427
208	0x3df680f2	0.12036313
209	0x3e3a3f50	0.18188214
210	0xbe85a9e1	-0.2610617
211	0x3dba6673	0.09101572
212	0x3ccb2e51	0.024802359
213	0x3df5ef1a	0.12008496
214	0x3db839ad	0.08995376
215	0x3e483edd	0.1955523
216	0xbe182da6	-0.14861163
217	0xbce98c12	-0.028509174
218	0xbe93814f	-0.28809592
219	0x3e86234f	0.26198813
220	0xbdf6fa3b	-0.120594464
221	0xbea3585e	-0.31903356
222	0x3ce232d5	0.02761213
223	0xbe85608a	-0.26050216
224	0xbe974124	-0.29541886
225	0x3ce286b1	0.027652116
226	0x3e6d0387	0.23145877
227	0x3e6306a7	0.22170506
228	0x3d8a931c	0.0676634
229	0xbe70e405	-0.23524483
230	0xbe921134	-0.2852875
231	0x3e0834c3	0.13301377
232	0x3e235531	0.15950467
233	0xbe85317f	-0.26014325
234	0xbaa01928	-0.0012214528
235	0xbe85dfc7	-0.2614729
236	0x3e2711d5	0.16315396
237	0x3ea380d7	0.31934234
238	0x3cb215d8	0.021738932
239	0xbe7331fb	-0.23749535
240	0xbe08c882	-0.13357738
241	0x3ea709c8	0.3262465
242	0xbdbbed65	-0.09176139
243	0xbe940da0	-0.28916645
244	0xbe9b2e6e	-0.3030886
245	0x3e76fb9b	0.24119417
246	0xbe868c73	-0.2627903
247	0x3d06d9cd	0.032922555
248	0x3e408230	0.18799663
249	0xbe737c26	-0.23777828
250	0x3e3a7621	0.18209125
251	0x3e7fd739	0.24984445
252	0x3e0db65e	0.13839099
253	0xbdb0d48f	-0.08634292
254	0x3af78380	0.0018883795
255	0xbe9de542	-0.30838972

q_head.mamba.conv1d.weight f4 [18, 1, 4]
0	0xbe12f8c0	-0.14352703
1	0x3dd105b0	0.10206163
2	0x3efbf1ba	0.4920786
3	0xbe42f202	-0.19037631
4	0x3ee3877a	0.44439298
5	0x3e2e1d9c	0.17003483
6	0x3ef4d1c3	0.47816285
7	0x3dce5f05	0.10076717
8	0x3ed7a218	0.42115855
9	0xbdba6d50	-0.09102881
10	0x3dfd554e	0.12369786
11	0x3cb93b0e	0.022611167
12	0x3ebfcc66	0.3746063
13	0xbec92242	-0.3928395
14	0xbd68c756	-0.056830727
15	0x3e01f255	0.12690099
16	0xbe91f930	-0.28510427
17	0x3db5b0c0	0.08871603
18	0xbea024c6	-0.31278056
19	0xbea6e110	-0.32593584
20	0x3e53bf74	0.20678502
21	0x3ea0c8ac	0.314031
22	0xbdd85302	-0.105627075
23	0x3ea628d4	0.32453024
24	0xbdc73220	-0.097263575
25	0x3e9d21a0	0.30689716
26	0xbef8e722	-0.4861384
27	0xbdcfc0fd	-0.101442315
28	0xbd9f1228	-0.07767135
29	0xbed811fe	-0.42201227
30	0x3e555cdf	0.20836209
31	0xbe1ef3b4	-0.15522653
32	0x3de34bc0	0.110984325
33	0xbbe2f280	-0.006925881
34	0xbec179a5	-0.3778812
35	0x3ebf34c4	0.37344944
36	0x3bcacb00	0.0061887503
37	0xbe861b06	-0.26192492
38	0xbee140a2	-0.43994623
39	0x3dd607ef	0.10450732
40	0x3e9761e0	0.2956686
41	0xbb871200	-0.004122019
42	0x3bcb8f1d	0.006212129
43	0x3ec2fc6b	0.38083205
44	0x3e81d3fe	0.2535705
45	0xbec480ec	-0.3837961
46	0xbe6069eb	-0.21915404
47	0x3eee4a73	0.46541175
48	0xbe2d3c9c	-0.16917652
49	0xbdd4b0f0	-0.10385311
50	0x3dbe9997	0.09306639
51	0x3b0ded91	0.0021656493
52	0x3e8db2fa	0.2767561
53	0xbe9dc5aa	-0.30814868
54	0xbee4ffab	-0.4472631
55	0x3d954823	0.072891496
56	0x3dca5ad8	0.09880608
57	0xbebfe520	-0.37479496
58	0x3ea17830	0.31537008
59	0x3ea8daec	0.32979524
60	0x3cdf0940	0.02722609
61	0xbe9700f8	-0.29492927
62	0xbd832792	-0.06404032
63	0xbeb9baa2	-0.36275202
64	0x3e2985e4	0.16554981
65	0xbec93660	-0.39299297
66	0x3ebcb293	0.3685499
67	0xbc569ef8	-0.013099425
68	0x3ed7c0cc	0.4213928
69	0x3e8cce98	0.2750137
70	0x3ed5f856	0.41791028
71	0xbe9d6e09	-0.30748013

q_head.mamba.conv1d.bias f4 [18]
0	0xbddd371d	-0.10801528
1	0xbefc766e	-0.49309105
2	0xbecb07ae	-0.39654297
3	0xbdf65c36	-0.120293066
4	0x3ea442e5	0.32082286
5	0xbe748e88	-0.23882496
6	0xbe681581	-0.22664453
7	0x3efeb833	0.49749908
8	0xbd9a2d12	-0.07528128
9	0xbe00dff4	-0.12585431
10	0xbe948b58	-0.2901256
11	0x3e310f58	0.1729101
12	0xbedd8f19	-0.43273237
13	0x3dec297f	0.11531352
14	0xbe5896a2	-0.21151212
15	0xbe1b2262	-0.15149835
16	0xbe404c6b	-0.18779151
17	0xbe9d3197	-0.30701897

q_head.mamba.x_proj.weight f4 [33, 18]
0	0xbe5837f2	-0.21115091
1	0xbca928a5	-0.020649264
2	0x3dd8487e	0.10560702
3	0xbcd5a01c	-0.026077323
4	0xbda8535c	-0.082190245
5	0xbe7030ff	-0.2345619
6	0x3e55af56	0.20867667
7	0x3e1e1e1a	0.1544117
8	0x3c83d1d4	0.016091265
9	0xbdc42960	-0.09578204
10	0x3e0cc754	0.13747913
11	0x3e46dc4c	0.19419974
12	0x3dfe2796	0.12409894
13	0xbe2cbc36	-0.16868672
14	0xbd40f79a	-0.04711113
15	0xbe14843a	-0.14503565
16	0x3e5ded7c	0.21672624
17	0xbe1a0908	-0.15042508
18	0xbdb0206d	-0.08599935
19	0xbe255067	-0.16143952
20	0xbe47c49e	-0.19508597
21	0x3e411719	0.18856467
22	0xbe5b3df2	-0.21410349
23	0xbe196bcf	-0.14982532
24	0x3da61520	0.08109498
25	0x3e17c3a0	0.14820719
26	0x3e6788dc	0.22610801
27	0xbe3569da	-0.1771616
28	0x3d36cdf1	0.044629995
29	0xbe1248a3	-0.14285521
30	0x3cdf03f2	0.027223561
31	0x3df28546	0.11841826
32	0xbde5d6db	-0.11222621
33	0x3c87df8b	0.016586086
34	0xbe5a1ae3	-0.21299319
35	0xbe44df92	-0.1922591
36	0xbd034f55	-0.03205808
37	0x3cb5d3aa	0.022195656
38	0xbd9df1fe	-0.07712172
39	0xbe1e6110	-0.15466714
40	0x3e5ebe23	0.21752219
41	0x3db17199	0.08664245
42	0x3e2d9d32	0.16954497
43	0x3daf0e01	0.08547593
44	0xbba91be0	-0.0051607937
45	0x3e5f81fb	0.21826927
46	0x3e4d26e6	0.2003437
47	0x3e0a075f	0.13479374
48	0x3cb09629	0.021555977
49	0x3daed671	0.08536995
50	0xbe12650a	-0.14296356
51	0xbd828c8a	-0.06374462
52	0x3c67a4b7	0.014138392
53	0x3d907aaf	0.0705465
54	0x3e0bf8ba	0.136691
55	0xbe06d6dc	-0.131679
56	0x3dda919c	0.10672304
57	0xbd8fb5ff	-0.07017135
58	0xbd85c397	-0.065314464
59	0xbd24b34e	-0.04021006
60	0xbbc8ca20	-0.006127611
61	0xbe2695a2	-0.16268018
62	0x3d95bb83	0.07311156
63	0xbe116057	-0.14196907
64	0x3d6e141e	0.058124654
65	0xbe2397ff	-0.1597595
66	0x3e2ea39b	0.17054598
67	0xbdb8bb61	-0.09020115
68	0x3e67854d	0.22609444
69	0x3d93e18f	0.07220756
70	0xbe45d99e	-0.19321296
71	0x3dc5ae23	0.096523546
72	0x3da4bfaa	0.080443695
73	0xbc5685d1	-0.013093428
74	0xbdbd1c3f	-0.09233903
75	0xbdc9cc60	-0.098534346
76	0xbe486b3b	-0.19572155
77	0xbe6886ef	-0.22707723
78	0x3dd9a6ce	0.106275186
79	0xbdb13693	-0.08652987
80	0x3e392e1c	0.18083996
81	0xbe2d7a6e	-0.16941234
82	0xbe471cea	-0.19444624
83	0x3e5c04f2	0.21486261
84	0x3ce786ec	0.028262578
85	0xbdadda48	-0.084888995
86	0x3d83abd5	0.06429259
87	0x3e05f16b	0.13080375
88	0xbe5b8f32	-0.21441343
89	0xbc10d8d9	-0.008840763
90	0xbc927396	-0.017877381
91	0x3b82cb7a	0.0039915415
92	0xbcd43539	-0.025904285
93	0x3d6f83a6	0.05847516
94	0x3e26a452	0.1627362
95	0x3e41fb45	0.18943508
96	0xbd3f6bf3	-0.046733808
97	0xbdfb6416	-0.12274949
98	0x3e44c15c	0.19214386
99	0xbde176eb	-0.1100901
100	0xbe2fa725	-0.17153604
101	0xbd074045	-0.033020277
102	0xbe25b4b8	-0.1618222
103	0xbe0e8b2c	-0.13920277
104	0x3d05f9f8	0.032709092
105	0x3e5a18e3	0.21298556
106	0x3dcaf16e	0.0990933
107	0x3e6037c8	0.21896279
108	0xbe48f6a6	-0.19625339
109	0x3d8b3063	0.067963384
110	0xbe60ff58	-0.21972406
111	0xbd8b38cf	-0.06797945
112	0xbd8488ff	-0.064714424
113	0xbe0fe293	-0.14051275
114	0x3e14faaf	0.14548753
115	0xbd231d1d	-0.039822686
116	0xbe04e357	-0.12977348
117	0xbd20b2f4	-0.039233163
118	0x3e25c911	0.16189982
119	0x3e13004b	0.1435558
120	0xbe1820e4	-0.14856297
121	0xbd9608de	-0.0732591
122	0x3dfd583b	0.12370344
123	0xbe25c132	-0.1618698
124	0x3d895b21	0.067068346
125	0x3e1929c0	0.14957333
126	0x3de50cd4	0.111840874
127	0xbe69e6e3	-0.22841983
128	0x3da55cb6	0.08074324
129	0x3e5118e0	0.20419645
130	0x3e56d820	0.20980883
131	0xbe53dada	-0.20688954
132	0xbe47bdc6	-0.19505987
133	0x3e31c95e	0.17361972
134	0xbdb570d2	-0.088594094
135	0xbd3a2155	-0.045441944
136	0xbe5bab35	-0.21452029
137	0xbe6dc654	-0.23220187
138	0xbe16217d	-0.14661212
139	0xbd719606	-0.058980964
140	0xbdee7c68	-0.11644822
141	0x3e0f7910	0.14011025
142	0x3e66a1d3	0.22522669
143	0xbcf46bc1	-0.029836537
144	0x3e03428d	0.12818356
145	0xbe391a5d	-0.18076463
146	0x3de4ad40	0.11165857
147	0x3e33bfdd	0.17553659
148	0xbdcebe07	-0.100948386
149	0xbdcd384e	-0.10020505
150	0x3e165018	0.14678991
151	0x3e3375f5	0.17525466
152	0xbdc9cbac	-0.098533005
153	0xbd50c3dd	-0.05096804
154	0x3dfe3877	0.124131136
155	0xbe1a2094	-0.1505149
156	0x3e3a4dc2	0.18193725
157	0xbe637e22	-0.22216085
158	0x3e2da4da	0.16957417
159	0xbd4181d0	-0.04724294
160	0x3e3402d1	0.175792
161	0x3e5cbe4f	0.21556972
162	0x3e0a0baa	0.13481012
163	0xbbf2f9a1	-0.007415012
164	0xbe06d82e	-0.13168404
165	0xbded57b5	-0.115889944
166	0xbdc34e12	-0.09536375
167	0xbd7e7d64	-0.0621313
168	0xbd52a2ca	-0.05142478
169	0xbdf901b0	-0.12158525
170	0xbe30e3f8	-0.17274463
171	0xbe0db526	-0.13838634
172	0xbe673f51	-0.22582747
173	0xbc2c8b34	-0.0105312355
174	0x3daade3a	0.083431676
175	0x3d14d497	0.036335554
176	0xbd8771b3	-0.06613483
177	0xbdfcae13	-0.123378895
178	0xbd91f9e9	-0.07127745
179	0xbdf7c0fa	-0.12097354
180	0xbe1754e2	-0.14778474
181	0xbd6943a4	-0.056949273
182	0x3d5c9541	0.053853277
183	0x3e082846	0.13296613
184	0xbdb41e50	-0.08794844
185	0x3e09a6fc	0.13442606
186	0x3cd1eb7c	0.025624983
187	0x3e2bc84a	0.16775623
188	0xbdfe2b18	-0.12410563
189	0x3db10eb3	0.08645382
190	0xbe44e52c	-0.19228047
191	0x3dbb3492	0.09140886
192	0xbcd14965	-0.025547693
193	0x3e6d1fc5	0.2315665
194	0xbd265d75	-0.04061647
195	0xbca35e33	-0.019942379
196	0x3b19dcf4	0.0023477646
197	0xbd43b0f6	-0.047776185
198	0x3d0de5d4	0.03464301
199	0xbbc7cb16	-0.006097208
200	0xbdeae265	-0.114689626
201	0x3e2e693a	0.17032328
202	0xbe6cdf2d	-0.2313201
203	0xbe51110b	-0.20416658
204	0xbe4e34b4	-0.20137292
205	0xbe4d4867	-0.2004715
206	0x3aec3141	0.001802005
207	0xbe50d3e7	-0.20393334
208	0xbe65a0f0	-0.22424674
209	0xbdb9035b	-0.09033843
210	0x3de3274c	0.1109148
211	0xbd594d03	-0.05305196
212	0x3d7e9534	0.06215401
213	0xbddeb4bf	-0.10874318
214	0x3e5c7837	0.21530233
215	0x3d473e6d	0.04864352
216	0xbd9d37de	-0.076766714
217	0xbc5fbddd	-0.013656107
218	0x3e03f5cf	0.12886737
219	0xbd8055bc	-0.062663525
220	0x3de832b4	0.11337796
221	0x3e27f9d8	0.16403902
222	0x3dec4d18	0.11538142
223	0xbe13a7df	-0.14419506
224	0xbe43de24	-0.19127709
225	0xbe05e59a	-0.13075867
226	0x3df3ab11	0.11897863
227	0x3d37bf41	0.04486013
228	0x3dc5e879	0.09663481
229	0xbdf888a5	-0.12135438
230	0xbd16b9be	-0.03679823
231	0x3d5b0e07	0.053480174
232	0x3e5f2b1e	0.21793792
233	0xbd287d89	-0.041135345
234	0xbe0839ca	-0.13303295
235	0xbd256aa1	-0.040384892
236	0x3d9566b8	0.07294983
237	0xbe5f2bfd	-0.21794124
238	0x3c8facdf	0.017538486
239	0x3e55b483	0.20869641
240	0x3e64be47	0.2233821
241	0x3e6e1788	0.23251164
242	0x3e2565ce	0.16152117
243	0x3e0e5ceb	0.13902633
244	0x3d871302	0.06595422
245	0xbcf710e8	-0.030159429
246	0xbe493e9c	-0.1965279
247	0xbe5a2e0c	-0.21306628
248	0x3ce1db56	0.027570408
249	0x3de22e94	0.1104404
250	0x3e6d9bff	0.23204039
251	0x3e50bf97	0.20385586
252	0x3d56f9b7	0.05248424
253	0x3ca3bae2	0.019986574
254	0xbcf30f91	-0.029670509
255	0xbddf8406	-0.10913853

q_head.mamba.dt_proj.weight f4 [18, 1]
0	0xbf0a6945	-0.5406688
1	0x3edbdc0a	0.42941314
2	0x3f7d5991	0.9896479
3	0xbe9926f3	-0.29912528
4	0xbf4d0761	-0.80089384
5	0x3f70971c	0.93980575
6	0x3e6a978e	0.22909376
7	0xbdbc0ed7	-0.09182518
8	0xbf2d9571	-0.67806154
9	0xbee80f11	-0.45323995
10	0x3efaae32	0.48961025
11	0x3f63336d	0.88750345
12	0xbeb51833	-0.35370025
13	0xbf518d20	-0.81855965
14	0x3f36560f	0.71225065
15	0x3e20422e	0.15650246
16	0xbdcb0b45	-0.09914259
17	0xbf1b6093	-0.60694236

q_head.mamba.dt_proj.bias f4 [18]
0	0xc09dd94d	-4.932776
1	0xc09a3bbc	-4.819792
2	0xc0b531f5	-5.6623483
3	0xc08c88cd	-4.3916993
4	0xc0a21c9d	-5.065993
5	0xc0a287ec	-5.079092
6	0xc0b0bd07	-5.5230746
7	0xc08cc936	-4.399562
8	0xc04c055e	-3.1878276
9	0xc0aad1e5	-5.338122
10	0xc024ff36	-2.5780768
11	0xc05fd7f0	-3.4975548
12	0xc0829eec	-4.0818996
13	0xc0a13f77	-5.038997
14	0xc0ae7df8	-5.452877
15	0xc094842d	-4.6411347
16	0xc0821db1	-4.0661244
17	0xc0555ea4	-3.3339014

q_head.mamba.out_proj.weight f4 [9, 18]
0	0xbdc85d38	-0.09783405
1	0xbe3b5117	-0.18292652
2	0xbe563319	-0.2091793
3	0x3dd5e428	0.10443908
4	0xbe342f55	-0.1759618
5	0xbdfdf425	-0.124000825
6	0xbe4ccf2f	-0.2000091
7	0xbe08674c	-0.13320655
8	0x3e55d57c	0.20882219
9	0x3e356b26	0.17716655
10	0xbd033eea	-0.03204242
11	0xbdd949f3	-0.10609808
12	0x3e17f36b	0.1483895
13	0xbe6cee40	-0.2313776
14	0xbe43e9a6	-0.19132099
15	0x3e19b7a5	0.15011461
16	0xbcc2c277	-0.023774369
17	0xbe6630bf	-0.22479533
18	0xbe1cfb80	-0.15330315
19	0xbd388576	-0.045049153
20	0x3ddcdea1	0.107846506
21	0x3dc72e78	0.0972566
22	0xbcf4649f	-0.029833136
23	0xbe042800	-0.12905884
24	0x3e536657	0.20644508
25	0x3d1c6f80	0.038192272
26	0x3cf167d1	0.029468449
27	0x3df58a49	0.119892664
28	0x3e701482	0.23445323
29	0xbe3af502	-0.18257526
30	0xbe05d8e3	-0.13071017
31	0xbe123c42	-0.14280799
32	0xbc3e0f3c	-0.011600312
33	0xbddc94e6	-0.107705876
34	0xbe637eaa	-0.22216287
35	0xbd99b9a6	-0.07506113
36	0xbdd0752d	-0.101785995
37	0x3cf0db45	0.02940143
38	0xbd8b9ec5	-0.06817392
39	0x3d814ee6	0.06313877
40	0x3d6ff460	0.058582664
41	0x3d5641c8	0.052308828
42	0x3e34aab1	0.17643239
43	0x3ddcf4c8	0.10788876
44	0x3e03daa0	0.12876368
45	0xbdf7d9e5	-0.12102107
46	0xbd9172bd	-0.07101963
47	0x3e0cc411	0.13746668
48	0xbe17dad8	-0.14829576
49	0x3d2df4df	0.042469855
50	0x3cf5b682	0.029994253
51	0x3c3fbba4	0.011702452
52	0xbe2be0b3	-0.16784935
53	0xbe477fd9	-0.19482364
54	0x3e656e21	0.22405292
55	0xbe319dab	-0.17345302
56	0xbe3e2f82	-0.1857281
57	0xbbf8bb43	-0.0075906827
58	0x3e3b0b72	0.18266085
59	0xbe12eb5f	-0.143476
60	0x3e48ce1d	0.19609876
61	0xbe3e841c	-0.18605083
62	0x3d0700d9	0.032959793
63	0x3d4992ab	0.04921214
64	0xbdf9cfed	-0.12197862
65	0x3d454ca4	0.048168793
66	0xbe413e20	-0.18871355
67	0xbddf0535	-0.10889665
68	0x3e4c7475	0.199663
69	0xbe4af396	-0.19819483
70	0x3d1165a6	0.03549733
71	0x3d3d9ed3	0.046294045
72	0xbe44e6be	-0.19228646
73	0x3dfaf4bc	0.12253711
74	0x3cbfd306	0.023416054
75	0xbd334073	-0.043762635
76	0x3dfa9eae	0.12237297
77	0x3d59b417	0.053150263
78	0xbe1a6897	-0.1507896
79	0xbe6d1d3a	-0.2315568
80	0xbe48e94b	-0.19620244
81	0x3b85a4de	0.0040784916
82	0x3e39b856	0.18136725
83	0xbe17d27d	-0.14826389
84	0xbe57df8e	-0.21081373
85	0x3e6db2bc	0.23212713
86	0x3e46d14e	0.19415781
87	0xbe2df3e4	-0.16987568
88	0x3e0c1894	0.13681251
89	0xbdf43174	-0.11923495
90	0xbe4e9838	-0.20175254
91	0xbcc5266e	-0.024066176
92	0xbe062cbb	-0.13103001
93	0xbb98df05	-0.004665258
94	0x3e1404fb	0.14455025
95	0x3e1986c7	0.1499282
96	0xbe5ade53	-0.21373872
97	0x3e46d759	0.19418086
98	0xbe162007	-0.14660655
99	0xbe58975c	-0.21151489
100	0x3d895435	0.06705514
101	0xbd93df49	-0.07220323
102	0xbd900c8a	-0.07033642
103	0xbde9da36	-0.114185736
104	0xbdd66486	-0.10468392
105	0x3e06f6f6	0.13180146
106	0x3c009d04	0.007849935
107	0x3e521b3b	0.205182
108	0x3cfb3ce9	0.030668693
109	0xbd819691	-0.063275464
110	0xbe6e70ee	-0.23285267
111	0xbe0067cd	-0.12539597
112	0x3d9882f9	0.07446856
113	0xbcdc472f	-0.026889412
114	0xbbc463cf	-0.0059933434
115	0x3bbc4d88	0.005746547
116	0x3db5217a	0.08844276
117	0x3e24f74a	0.16109958
118	0x3c29279b	0.010324384
119	0xbe588a02	-0.21146396
120	0x3e306d6a	0.17229238
121	0x3e5603d6	0.20899901
122	0x3e41035e	0.1884894
123	0xbe0c64a5	-0.13710268
124	0x3d5cd623	0.053915154
125	0xbc0a1fb9	-0.008430415
126	0x3e55a799	0.20864715
127	0xbe44f435	-0.19233783
128	0x3e2549c6	0.16141424
129	0xbd741fd1	-0.059600655
130	0xbe128199	-0.1430725
131	0x3e5bd990	0.21469712
132	0xbe63603a	-0.22204676
133	0x3dfe476e	0.12415968
134	0xbdfeb379	-0.124365754
135	0x3dd60187	0.1044951
136	0xbe607b15	-0.21921952
137	0xbe6c8d08	-0.23100674
138	0x3d479b60	0.04873216
139	0x3d89062b	0.066906296
140	0x3d078701	0.033087734
141	0xbcbca543	-0.023028022
142	0xbe5a5a4d	-0.2132351
143	0x3d2b508b	0.04182486
144	0x3d7a099f	0.06104433
145	0x3e6bc79d	0.23025365
146	0x3e2ac7d1	0.16677786
147	0x3c755319	0.014973425
148	0x3e35f577	0.17769419
149	0x3e60fc95	0.21971352
150	0x3d815ac5	0.06316141
151	0xbe4f76b2	-0.20260122
152	0xbe471cce	-0.19444582
153	0xbdd9b1c8	-0.10629612
154	0xbd2f6e94	-0.042830065
155	0xbdc25f74	-0.094908625
156	0xbe4c6428	-0.19960082
157	0xbe39ee34	-0.18157274
158	0x3d7574b5	0.059925754
159	0x3e5146cf	0.20437168
160	0xbdbf7126	-0.09347753
161	0xbd82239f	-0.063544504

q_head.final_norm.gamma f4 [9]
0	0x3f800000	1.0
1	0x3f800000	1.0
2	0x3f800000	1.0
3	0x3f800000	1.0
4	0x3f800000	1.0
5	0x3f800000	1.0
6	0x3f800000	1.0
7	0x3f800000	1.0
8	0x3f800000	1.0

ema_model.q_head.action_bin_embeddings f4 [2, 256, 9]
0	0x3c980ece	0.018561747
1	0xbc0b46aa	-0.008500734
2	0xbbe757c5	-0.0070600235
3	0x3c3a8f9c	0.011386778
4	0xbc9eb03d	-0.019371146
5	0x3c2aab64	0.010416839
6	0xbbecc14c	-0.007225191
7	0x3c054507	0.008134133
8	0xbcf2eb31	-0.029653164
9	0x3c5395b6	0.012914112
10	0xbb130ab8	-0.0022436809
11	0xbc56e11d	-0.013115195
12	0x3bbab24d	0.0056975246
13	0x3bc86637	0.0061157006
14	0x3c7be520	0.015374452
15	0x3b26597b	0.0025382924
16	0x3c96e417	0.018419309
17	0x3cb75d8c	0.022383474
18	0xbbfaf3f8	-0.007658478
19	0xbcce46c0	-0.02518022
20	0x3c72b686	0.014814025
21	0xbb2595c9	-0.002526628
22	0xbbbdd5b9	-0.0057933
23	0xbc52c272	-0.012863742
24	0x3c57e961	0.0131782
25	0xbd2a5a10	-0.041589797
26	0xbbb666b3	-0.005566442
27	0x3baf5454	0.005350629
28	0xba9b093e	-0.0011828316
29	0xbc76e51b	-0.015069271
30	0xbc1a692b	-0.009424488
31	0x3c4d5847	0.012533254
32	0x3c297b71	0.010344372
33	0x3c5e6f35	0.0135763185
34	0xbccb933f	-0.024850486
35	0xbccb57d1	-0.024822148
36	0x3c0782fd	0.008270976
37	0xbbb55913	-0.0055343
38	0xbcbe4140	-0.023224473
39	0x3c8f3156	0.01747958
40	0xbd0d54ad	-0.03450458
41	0x3d18b4ae	0.037281685
42	0xba9d65c8	-0.0012008483
43	0x3c88df7e	0.016708132
44	0xbca59390	-0.020211965
45	0x3cd08d1f	0.025457917
46	0x3ca19de9	0.019728618
47	0xbc7a6546	-0.0152829345
48	0xbcc760ff	-0.024338244
49	0xbb07e932	-0.002073836
50	0xbbfb91cf	-0.007677294
51	0xbb1a16c9	-0.0023512116
52	0x3aaba403	0.0013095144
53	0x3b43ae8a	0.0029858672
54	0x3ca00cc7	0.019537343
55	0x3c0afd21	0.008483202
56	0x3ce4a188	0.027909055
57	0xbc90a74f	-0.017657904
58	0x3c224a76	0.009905448
59	0xbd158b4a	-0.03650979
60	0xbbc0b329	-0.0058807326
61	0xbc697220	-0.014248401
62	0x3a8b9e4d	0.0010652036
63	0x3be982f9	0.007126209
64	0x3a82b70c	0.0009972765
65	0xbccf32c2	-0.025292758
66	0x3cbea86a	0.023273665
67	0x3bb33377	0.0054687816
68	0xbcdb097e	-0.026737925
69	0x3cb238e2	0.02175564
70	0xbc130978	-0.0089744255
71	0x3cf8be5a	0.030364204
72	0x3c358430	0.011078879
73	0x3c46757f	0.012112974
74	0x3bcf1d8f	0.0063206623
75	0xbc8b9297	-0.017037673
76	0x3c3294af	0.010899707
77	0xbbd2571f	-0.006419077
78	0x3bc88196	0.0061189635
79	0x3bc91b37	0.0061372775
80	0xbc93d89e	-0.018047627
81	0xbbab5f02	-0.0052298317
82	0xbbc9ac05	-0.0061545395
83	0xbc8023f5	-0.015642146
84	0x3c510625	0.012757813
85	0x3c2489c1	0.010042609
86	0xbafe7ac9	-0.0019415255
87	0xbbde166c	-0.0067775752
88	0xbbd93ec7	-0.006629798
89	0xbc043b02	-0.008070709
90	0xbc0d5065	-0.008625125
91	0xbcc3df1c	-0.023910098
92	0xbd29cca1	-0.041454915
93	0x3b183604	0.0023225555
94	0x3c46894b	0.012117694
95	0x3c333618	0.01093819
96	0xbc74e497	-0.014947078
97	0xbc64b31d	-0.01395872
98	0xbb815e61	-0.0039480184
99	0x3cdaec0a	0.02672388
100	0xbc2274ee	-0.0099155735
101	0x3cb16a87	0.021657242
102	0x3d0cb15e	0.034348838
103	0x3cb28898	0.021793649
104	0x3c32f94a	0.010923693
105	0xba8547d2	-0.0010168499
106	0xbca3606d	-0.01994344
107	0x3b5864dc	0.0033019101
108	0xbc487140	-0.012234032
109	0x3bbe0473	0.00579887
110	0x3c4b458c	0.012406718
111	0x3ce968c6	0.028492343
112	0xbd03fc35	-0.032222945
113	0x3cc5e5c9	0.024157422
114	0xbd10b863	-0.035332095
115	0x3cb237c5	0.021755109
116	0x3c357696	0.011075636
117	0xbb5a423a	-0.0033303634
118	0x3ca7487f	0.020420311
119	0xbb58a64a	-0.00330581
120	0x3c381300	0.011234999
121	0xbc99f118	-0.01879172
122	0x3d1daaa2	0.038492806
123	0xbbf36d2a	-0.007428785
124	0x3c0b520f	0.008503451
125	0xbd09fea7	-0.03369012
126	0x3a8167a3	0.0009872805
127	0x3d331e62	0.043730147
128	0x3c2c2a35	0.01050811
129	0xbcbded3d	-0.023184413
130	0xbc0edfb3	-0.008720326
131	0x3d034b75	0.032054383
132	0xbb39c29e	-0.002834476
133	0x3b7b5887	0.0038352327
134	0x3baa564a	0.0051982747
135	0x3d1f2081	0.038849358
136	0x3c7174ff	0.014737367
137	0xbab166de	-0.0013534685
138	0x3a874660	0.0010320656
139	0x3c3a596f	0.011373862
140	0x3c18200d	0.009284985
141	0xbc94680f	-0.018116025
142	0x3ac688e7	0.0015147001
143	0xbb176f11	-0.0023106972
144	0xbcd14fc0	-0.025550723
145	0x3c45aaf2	0.012064682
146	0xbc1fa1b2	-0.009743141
147	0x3c64a145	0.013954465
148	0xbbbe0b84	-0.0057997126
149	0x3cbda717	0.023150964
150	0xbcb8d4a5	-0.022562334
151	0xbcb2bfca	-0.021819968
152	0xbc8cd6c6	-0.017192256
153	0x3c6707da	0.014100993
154	0xbc95e63f	-0.018298266
155	0xbc395b29	-0.011313238
156	0xbceabc32	-0.028654192
157	0xbb8d58d1	-0.0043135663
158	0xbcaa8916	-0.02081732
159	0xbc82d2d0	-0.015969664
160	0xbc2ccac0	-0.010546386
161	0xbc2b08d3	-0.010439116
162	0xbc5f6cf3	-0.013636815
163	0xbcbe0865	-0.023197362
164	0xbca92a58	-0.020650074
165	0xbc2ca404	-0.010537151
166	0x3c0b992e	0.008520408
167	0x3d162afe	0.036662094
168	0xbcac5909	-0.021038549
169	0xbcebc437	-0.028780086
170	0x3d041a89	0.03225187
171	0xbd15fb98	-0.03661689
172	0xbbac18eb	-0.005251994
173	0x3c910806	0.017704021
174	0xbc6a29d6	-0.014292201
175	0x3b831451	0.0040002246
176	0x3c5a5cfe	0.013327835
177	0xbc78a4b4	-0.015175987
178	0xbc6e0b80	-0.014529109
179	0x3c805b77	0.015668614
180	0xbcbb9a6e	-0.022900786
181	0x3ccf3fb2	0.025298927
182	0xbcbf7940	-0.023373246
183	0x3c1fa69f	0.009744315
184	0xbc24ec9b	-0.010066177
185	0xbc1d048c	-0.009583604
186	0x3cf62c3a	0.030050386
187	0xbcc9e398	-0.024644658
188	0xbb56fc28	-0.0032804105
189	0xbbee9bd3	-0.0072817593
190	0xbd8d96da	-0.06913538
191	0xbc8fcd46	-0.017553937
192	0xbb3e69ca	-0.0029054754
193	0xbc7b2336	-0.015328219
194	0x3c868e9f	0.016425429
195	0x3a299c54	0.0006470133
196	0x3d10cc78	0.035351247
197	0xbb166fb0	-0.0022954755
198	0xbbf463d4	-0.0074581895
199	0x3c258baf	0.010104104
200	0x3d172edf	0.036909934
201	0x3c09aace	0.008402539
202	0x3d1592be	0.036516897
203	0xbcd2a2e4	-0.025712438
204	0xbc5ff49b	-0.013669158
205	0xbc8c995a	-0.017162967
206	0x3d0dff23	0.034667145
207	0xbc5fafd2	-0.013652759
208	0x3bdb45e5	0.0066916817
209	0xbcd8ea59	-0.026478933
210	0xbc65ccb8	-0.01402586
211	0xbd24508a	-0.04011587
212	0x3cbf75a9	0.023371534
213	0xbcae286e	-0.021259513
214	0x3d018cd6	0.031628452
215	0x3d186adc	0.037211284
216	0xbce7a891	-0.02827862
217	0xbcef493e	-0.02920973
218	0xbca5c3df	-0.020235
219	0x3cd71ecb	0.0262598
220	0xbbb9fb88	-0.005675737
221	0x3c261fec	0.010139447
222	0x3c7d1499	0.015446805
223	0x3ca08759	0.019595789
224	0x3ce039b0	0.027371258
225	0xbb8ea534	-0.00435319
226	0x3a9e65b6	0.0012084756
227	0x3c2b3463	0.010449502
228	0x3bc6eb50	0.006070532
229	0xb9998673	-0.00029282607
230	0x3bbb680d	0.005719191
231	0x3c023315	0.007946749
232	0xbbb58ea5	-0.005540686
233	0x3c851740	0.016246438
234	0xbbb40470	-0.005493693
235	0x3bd60a26	0.0065319715
236	0xbb45f260	-0.0030204281
237	0x3bead15d	0.0071660713
238	0x3c77b2d6	0.015118321
239	0xbcdd87dc	-0.027042322
240	0xbc8d98c7	-0.017284764
241	0xbaf42b92	-0.0018628708
242	0xbc654821	-0.013994248
243	0x3c77fcd0	0.015135959
244	0x3c027d94	0.0079645105
245	0xbc20e60f	-0.009820475
246	0xbcb063e9	-0.021532016
247	0x3cfb0637	0.030642612
248	0x3aac83eb	0.0013161873
249	0xba890c9e	-0.0010456031
250	0xbcb01eea	-0.021499116
251	0x3a9d20f7	0.0011987974
252	0x3d103841	0.035209898
253	0x3c8284f1	0.015932532
254	0x3c682fbd	0.014171538
255	0x3cfa1003	0.030525213

ema_model.q_head.mamba.A_log f4 [18, 16]
0	0xabd75caa	-1.5302388e-12
1	0x3f317218	0.6931472
2	0x3f8c9f54	1.0986123
3	0x3fb17218	1.3862944
4	0x3fce0210	1.609438
5	0x3fe55860	1.7917595
6	0x3ff91395	1.9459101
7	0x40051592	2.0794415
8	0x400c9f54	2.1972246
9	0x40135d8e	2.3025851
10	0x4019771e	2.3978953
11	0x401f08b6	2.4849067
12	0x40242821	2.5649493
13	0x4028e651	2.6390574
14	0x402d50b2	2.7080503
15	0x40317218	2.7725887
16	0xb08a5dda	-1.0067496e-09
17	0x3f317218	0.6931472
18	0x3f8c9f54	1.0986123
19	0x3fb17218	1.3862944
20	0x3fce0210	1.609438
21	0x3fe55860	1.7917595
22	0x3ff91395	1.9459101
23	0x40051592	2.0794415
24	0x400c9f54	2.1972246
25	0x40135d8e	2.3025851
26	0x4019771e	2.3978953
27	0x401f08b6	2.4849067
28	0x40242821	2.5649493
29	0x4028e651	2.6390574
30	0x402d50b2	2.7080503
31	0x40317218	2.7725887
32	0x2edf13ec	1.0144405e-10
33	0x3f317218	0.6931472
34	0x3f8c9f54	1.0986123
35	0x3fb17218	1.3862944
36	0x3fce0210	1.609438
37	0x3fe55860	1.7917595
38	0x3ff91395	1.9459101
39	0x40051592	2.0794415
40	0x400c9f54	2.1972246
41	0x40135d8e	2.3025851
42	0x4019771e	2.3978953
43	0x401f08b6	2.4849067
44	0x40242821	2.5649493
45	0x4028e651	2.6390574
46	0x402d50b2	2.7080503
47	0x40317218	2.7725887
48	0xaed2e76d	-9.590804e-11
49	0x3f317218	0.6931472
50	0x3f8c9f54	1.0986123
51	0x3fb17218	1.3862944
52	0x3fce0210	1.609438
53	0x3fe55860	1.7917595
54	0x3ff91395	1.9459101
55	0x40051592	2.0794415
56	0x400c9f54	2.1972246
57	0x40135d8e	2.3025851
58	0x4019771e	2.3978953
59	0x401f08b6	2.4849067
60	0x40242821	2.5649493
61	0x4028e651	2.6390574
62	0x402d50b2	2.7080503
63	0x40317218	2.7725887
64	0xae67033a	-5.2526185e-11
65	0x3f317218	0.6931472
66	0x3f8c9f54	1.0986123
67	0x3fb17218	1.3862944
68	0x3fce0210	1.609438
69	0x3fe55860	1.7917595
70	0x3ff91395	1.9459101
71	0x40051592	2.0794415
72	0x400c9f54	2.1972246
73	0x40135d8e	2.3025851
74	0x4019771e	2.3978953
75	0x401f08b6	2.4849067
76	0x40242821	2.5649493
77	0x4028e651	2.6390574
78	0x402d50b2	2.7080503
79	0x40317218	2.7725887
80	0xaf362b18	-1.6568114e-10
81	0x3f317218	0.6931472
82	0x3f8c9f54	1.0986123
83	0x3fb17218	1.3862944
84	0x3fce0210	1.609438
85	0x3fe55860	1.7917595
86	0x3ff91395	1.9459101
87	0x40051592	2.0794415
88	0x400c9f54	2.1972246
89	0x40135d8e	2.3025851
90	0x4019771e	2.3978953
91	0x401f08b6	2.4849067
92	0x40242821	2.5649493
93	0x4028e651	2.6390574
94	0x402d50b2	2.7080503
95	0x40317218	2.7725887
96	0x2e00c820	2.9281577e-11
97	0x3f317218	0.6931472
98	0x3f8c9f54	1.0986123
99	0x3fb17218	1.3862944
100	0x3fce0210	1.609438
101	0x3fe55860	1.7917595
102	0x3ff91395	1.9459101
103	0x40051592	2.0794415
104	0x400c9f54	2.1972246
105	0x40135d8e	2.3025851
106	0x4019771e	2.3978953
107	0x401f08b6	2.4849067
108	0x40242821	2.5649493
109	0x4028e651	2.6390574
110	0x402d50b2	2.7080503
111	0x40317218	2.7725887
112	0xb006e167	-4.906923e-10
113	0x3f317218	0.6931472
114	0x3f8c9f54	1.0986123
115	0x3fb17218	1.3862944
116	0x3fce0210	1.609438
117	0x3fe55860	1.7917595
118	0x3ff91395	1.9459101
119	0x40051592	2.0794415
120	0x400c9f54	2.1972246
121	0x40135d8e	2.3025851
122	0x4019771e	2.3978953
123	0x401f08b6	2.4849067
124	0x40242821	2.5649493
125	0x4028e651	2.6390574
126	0x402d50b2	2.7080503
127	0x40317218	2.7725887
128	0xb1025ede	-1.8971416e-09
129	0x3f317218	0.6931472
130	0x3f8c9f53	1.0986122
131	0x3fb17218	1.3862944
132	0x3fce0210	1.609438
133	0x3fe55860	1.7917595
134	0x3ff91394	1.94591
135	0x40051592	2.0794415
136	0x400c9f54	2.1972246
137	0x40135d8e	2.3025851
138	0x4019771e	2.3978953
139	0x401f08b5	2.4849064
140	0x40242821	2.5649493
141	0x4028e651	2.6390574
142	0x402d50b2	2.7080503
143	0x40317218	2.7725887
144	0xae002e85	-2.9145148e-11
145	0x3f317218	0.6931472
146	0x3f8c9f54	1.0986123
147	0x3fb17218	1.3862944
148	0x3fce0210	1.609438
149	0x3fe55860	1.7917595
150	0x3ff91395	1.9459101
151	0x40051592	2.0794415
152	0x400c9f54	2.1972246
153	0x40135d8e	2.3025851
154	0x4019771e	2.3978953
155	0x401f08b6	2.4849067
156	0x40242821	2.5649493
157	0x4028e651	2.6390574
158	0x402d50b2	2.7080503
159	0x40317218	2.7725887
160	0xb20851fa	-7.934881e-09
161	0x3f317219	0.69314724
162	0x3f8c9f52	1.0986121
163	0x3fb17218	1.3862944
164	0x3fce020f	1.6094378
165	0x3fe55860	1.7917595
166	0x3ff91393	1.9459099
167	0x40051592	2.0794415
168	0x400c9f54	2.1972246
169	0x40135d8f	2.3025854
170	0x4019771e	2.3978953
171	0x401f08b4	2.4849062
172	0x40242821	2.5649493
173	0x4028e651	2.6390574
174	0x402d50b2	2.7080503
175	0x40317218	2.7725887
176	0x301827d2	5.5353866e-10
177	0x3f317218	0.6931472
178	0x3f8c9f54	1.0986123
179	0x3fb17218	1.3862944
180	0x3fce0210	1.609438
181	0x3fe55860	1.7917595
182	0x3ff91395	1.9459101
183	0x40051592	2.0794415
184	0x400c9f54	2.1972246
185	0x40135d8e	2.3025851
186	0x4019771e	2.3978953
187	0x401f08b7	2.484907
188	0x40242821	2.5649493
189	0x4028e651	2.6390574
190	0x402d50b2	2.7080503
191	0x40317218	2.7725887
192	0x2f464555	1.8032627e-10
193	0x3f317218	0.6931472
194	0x3f8c9f54	1.0986123
195	0x3fb17218	1.3862944
196	0x3fce0210	1.609438
197	0x3fe55860	1.7917595
198	0x3ff91395	1.9459101
199	0x40051592	2.0794415
200	0x400c9f54	2.1972246
201	0x40135d8e	2.3025851
202	0x4019771e	2.3978953
203	0x401f08b6	2.4849067
204	0x40242821	2.5649493
205	0x4028e651	2.6390574
206	0x402d50b2	2.7080503
207	0x40317218	2.7725887
208	0xab95984a	-1.0629355e-12
209	0x3f317218	0.6931472
210	0x3f8c9f54	1.0986123
211	0x3fb17218	1.3862944
212	0x3fce0210	1.609438
213	0x3fe55860	1.7917595
214	0x3ff91395	1.9459101
215	0x40051592	2.0794415
216	0x400c9f54	2.1972246
217	0x40135d8e	2.3025851
218	0x4019771e	2.3978953
219	0x401f08b6	2.4849067
220	0x40242821	2.5649493
221	0x4028e651	2.6390574
222	0x402d50b2	2.7080503
223	0x40317218	2.7725887
224	0x2dd4c75b	2.4190141e-11
225	0x3f317218	0.6931472
226	0x3f8c9f54	1.0986123
227	0x3fb17218	1.3862944
228	0x3fce0210	1.609438
229	0x3fe55860	1.7917595
230	0x3ff91395	1.9459101
231	0x40051592	2.0794415
232	0x400c9f54	2.1972246
233	0x40135d8e	2.3025851
234	0x4019771e	2.3978953
235	0x401f08b6	2.4849067
236	0x40242821	2.5649493
237	0x4028e651	2.6390574
238	0x402d50b2	2.7080503
239	0x40317218	2.7725887
240	0xaefd9714	-1.1531945e-10
241	0x3f317218	0.6931472
242	0x3f8c9f54	1.0986123
243	0x3fb17218	1.3862944
244	0x3fce0210	1.609438
245	0x3fe55860	1.7917595
246	0x3ff91395	1.9459101
247	0x40051592	2.0794415
248	0x400c9f54	2.1972246
249	0x40135d8e	2.3025851
250	0x4019771e	2.3978953
251	0x401f08b6	2.4849067
252	0x40242821	2.5649493
253	0x4028e651	2.6390574
254	0x402d50b2	2.7080503
255	0x40317218	2.7725887

ema_model.q_head.mamba.D f4 [18]
0	0x3f7fec9a	0.999704
1	0x3f7fec5d	0.99970037
2	0x3f8009ce	1.0002992
3	0x3f7ff2f0	0.9998007
4	0x3f8009c6	1.0002983
5	0x3f8009c7	1.0002984
6	0x3f8009c7	1.0002984
7	0x3f8009c3	1.0002979
8	0x3f800985	1.0002905
9	0x3f80091f	1.0002784
10	0x3f7fecad	0.99970514
11	0x3f800536	1.000159
12	0x3f7fed5f	0.99971575
13	0x3f8009ce	1.0002992
14	0x3f8009c0	1.0002975
15	0x3f7fec73	0.9997017
16	0x3f7fec6b	0.9997012
17	0x3f8009c7	1.0002984
