checkpoints/q-mamba/20240816_100148/checkpoint-4.pt (torch, 115222 bytes, 42 tensors)

q_head.action_bin_embeddings f4 [2, 256, 9]
00000000: 4dd7 523c 685e 67bc 143a 51bc b3c1 b93b
00000010: 734e 6fbc f790 843c 28cc 54bc b63c 603c
00000020: cc67 c5bc c19e ec3b 8bda 00bc a737 9abc
00000030: 7c25 abb7 2f43 323c d32d ad3c 3f54 53bb
00000040: 5060 c43c e0e0 e43c b3c0 5abc ed52 fcbc
00000050: 1628 153c 6514 07bc 54e8 86ba 6597 e8bb
00000060: 92fb f23b 969b 13bd d8d8 31b7 308b b3b9
00000070: 60f2 debb bc39 aabc 0f18 78bc 0bb4 8d3c
00000080: 0ef9 833c a003 003c ef16 9ebc 6ad4 9dbc
00000090: 51f3 283b 0bc4 36bc 4708 edbc 0bb4 403c
000000a0: d79f f3bc 4a52 303d 3d30 e4bb 025b b63c
000000b0: 7a20 70bc ede9 a13c 0024 673c c6f9 abbc
000000c0: 6938 f6bc e658 303b 8992 faba 3bf1 04bc
000000d0: 64d9 e03b 5ef2 0b3c ead2 623c ad93 3b3b
000000e0: 4fda b53c cb7e bfbc 3659 703c 2edb fbbc
000000f0: 3bc5 3ebc c678 0ebc 58f5 d83b 6ed6 bb3a
00000100: 1d83 97bb fef9 fdbc f1d0 8f3c dda6 273c
00000110: 19ce abbc 1803 833c 9a3c 60bb e120 133d
00000120: 877b b03b 55bb d43b af07 203a 056a babc
00000130: cc52 803c 324f 2bba 0ea7 ba39 9f85 3f3c
00000140: 7aaa 4cbc fdf5 32bc 0dee 40bc 1deb aebc
00000150: 9fae e63b 5099 723c 0e9d 7a3b bb76 4dbc
00000160: bf34 8dba f3d0 24bb d096 6abc 1beb f1bc
00000170: 3030 41bd 0985 5ebb 444c 8a3c 50d6 883c
00000180: 03a8 a9bc 51ba 09bc 25bc d23a 884e ac3c
00000190: 23fd 7cbc d77b 823c fc9d ea3c a5bd d63c
000001a0: 289c 883c c64e debb 1535 6cbc 2f01 113c
000001b0: cecf 92bc 64a9 3d39 f68b db3b 629a ba3c
000001c0: d843 e0bc 1b0a f53c f54d 28bd c3b5 df3c
000001d0: 0a49 883c 14be 13bc 77b6 743c bf54 14bc
000001e0: c64e b53b 2394 6bbc 2b0f 353d c73e 58bc
000001f0: 1940 673c 6a71 e6bc 5cf0 99bb 0d19 1c3d
00000200: 315a 9d3b ceae ecbc f777 81bb 19d1 1a3d
00000210: 47ae 0cbc f07e 183c fb3a 303c eace 073d
00000220: 195d 153c 4876 e7bb 108c 99bb 0a35 843c
00000230: b796 763c d89d c3bc cd92 e73b 1bac 543b
00000240: f3f2 ffbc 5626 d33b d92f 7dbc 85f2 063c
00000250: 1ca7 87ba 56e2 ec3c 620a e8bc d743 85bc
00000260: dda6 3ebc 68c1 093c 36f2 c3bc bd74 8bbc
00000270: cfc9 0cbd d66b ec39 959b 76bc 9308 b2bc
00000280: 2aa4 a3bb 1a04 a0bb af59 9ebc 6114 ecbc
00000290: 6bf1 d7bc 5a29 85bc 8aa7 593c 9cc8 2d3d
000002a0: b38e dbbc b147 bebc 32dc 1a3d 364d 2dbd
000002b0: 4e24 32bc e781 443c 46ec a3bc a199 0f3c
000002c0: ba69 9c3c 0c88 abbc 1313 13bc c6de ad3c
000002d0: be3d eabc a333 a13c 6f40 eebc 6aef 833b
000002e0: feba adbb 8d37 7abb 70f6 c63c 1567 9cbc
000002f0: f61e 153b 1894 54bc cf19 99bd 4d94 bebc
00000300: 0649 0dbc 1112 2dbc c7c9 b53c 08a3 a7bb
00000310: 758a 273d c3aa 553b 384f 57bc 16fb 963b
00000320: ef62 ff3c 1379 303b 9cda 273d fd8a a3bc
00000330: 5f32 9fbc eb41 3dbc bfc0 243d 0f8c 9ebc
00000340: c86f 8c3a f0d5 03bd a8b5 a1bc aaae 10bd
00000350: 6881 ee3c 0a4b ddbc 58e7 173d f726 2f3d
00000360: e325 0bbd 9eaa 0ebd f58a d4bc 7547 a83c
00000370: 8de9 6eba 2f4b 823c 40a9 1e3c d203 ce3c
00000380: 81de 063d 0298 24bc 2bc6 8ebb 3ee1 9a3b
00000390: 7066 bc39 123f 8a3b 0127 3c3c 11c1 0e3b
000003a0: 9887 4337 f7ad b23c 332f 37bc 2ade 713a
000003b0: 30b0 0ebc 88bb be3a 2693 a23c d64d aebc
000003c0: 25c9 bcbc fc14 713b 5c5d 0abc 49b6 1a3c
000003d0: e995 193b 7174 7ebc 5e3b dfbc d006 113d
000003e0: 5d0e e83b 501a dfbb 69a2 82bc d155 dd3b
000003f0: 3ecd f13c b5f1 283c 5fa1 0a3c 8d38 cb3c
0.0128687145 -0.014121629 -0.012770195 0.0056688427 -0.014606106 0.016182406 -0.012988128 0.01368635
-0.024097346 0.0072210734 -0.007864605 -0.018825365 -2.0402244e-05 0.010880276 0.021140015 -0.003224626
0.023971707 0.02793926 -0.013351607 -0.03080126 0.0091037955 -0.0082446085 -0.0010292628 -0.0070981258
0.0074152434 -0.03603705 -1.060051e-05 -0.00034245243 -0.0068037957 -0.020779483 -0.015142455 0.017297765
0.01610997 0.007813364 -0.019298045 -0.019266326 0.0025779794 -0.011155139 -0.028934611 0.011761676
-0.029739304 0.043047227 -0.0069637583 0.022260193 -0.0146561805 0.019764865 0.014107704 -0.020993125
-0.030056195 0.0026908456 -0.0019117157 -0.008114154 0.0068618525 0.008541672 0.013844231 0.0028621957
0.022198824 -0.02337589 0.014669707 -0.030744161 -0.011643703 -0.008695787 0.006621044 0.0014330873
-0.004623784 -0.031002995 0.017555686 0.010232654 -0.020972298 0.015992686 -0.003421581 0.035920028
0.0053858194 0.0064920583 0.00061046606 -0.022755632 0.01566448 -0.00065349333 0.0003560115 0.011689573
-0.012491817 -0.010922906 -0.011775506 -0.021352345 0.0070398594 0.01480706 0.0038240585 -0.012540515
-0.0010773166 -0.0025148958 -0.014318183 -0.029531052 -0.047165096 -0.0033953807 0.01688207 0.016703755
-0.020709997 -0.008406238 0.00160778 0.02103354 -0.015441212 0.015928192 0.028639786 0.026213476
0.016676024 -0.006784293 -0.014416953 0.00885038 -0.017921355 0.00018087548 0.0067000343 0.022778694
-0.0273761 0.029912045 -0.04108997 0.02730835 0.01663639 -0.009017486 0.014936081 -0.009053408
0.005533072 -0.01437858 0.04420392 -0.013198561 0.014114403 -0.028130252 -0.0046978425 0.038109828
0.0048020114 -0.028891947 -0.0039510685 0.037797067 -0.008586473 0.009307608 0.01075625 0.033156313
0.0091164345 -0.007063661 -0.004685886 0.016138572 0.015050582 -0.023878977 0.0070670606 0.0032451216
-0.031243777 0.006443779 -0.015453302 0.008236532 -0.0010349485 0.02891652 -0.028325263 -0.0162677
-0.011636463 0.008407928 -0.023919206 -0.017023439 -0.034372147 0.00045093772 -0.015051742 -0.021732604
-0.004993935 -0.0048833014 -0.019329874 -0.028818311 -0.026360234 -0.01625507 0.013284573 0.042427644
-0.026801443 -0.023227545 0.03780765 -0.042309962 -0.0108729135 0.011993862 -0.020010125 0.008764655
0.019093383 -0.020938896 -0.008976716 0.02122439 -0.028593894 0.019677943 -0.029083459 0.004026343
-0.005301832 -0.0038180084 0.024287432 -0.019092122 0.002275405 -0.012974761 -0.07475626 -0.023264075
-0.008623367 -0.010563389 0.022190941 -0.0051158704 0.040903527 0.0032603003 -0.013141446 0.0046075685
0.031175105 0.0026927635 0.040979967 -0.019963736 -0.019433198 -0.011551361 0.04022288 -0.019353895
0.0010714466 -0.03218645 -0.01973994 -0.035322823 0.02911444 -0.02701332 0.03708586 0.04276177
-0.03397168 -0.034830682 -0.025945166 0.020541886 -0.0009113781 0.015904991 0.009683907 0.025148306
0.03292704 -0.010046007 -0.0043571196 0.004726558 0.00035934476 0.0042189443 0.011483909 0.0021782557
1.1654476e-05 0.021811469 -0.011180687 0.00092265254 -0.008708999 0.0014551738 0.019845556 -0.02127735
-0.023045132 0.003678619 -0.00844511 0.009442874 0.00234353 -0.0155306915 -0.027249988 0.035406888
0.0070817904 -0.0068085566 -0.015946584 0.006754615 0.029516812 0.010311534 0.008461325 0.024807239

q_head.mamba.A_log f4 [18, 16]
00000000: bf62 832f 1872 313f 549f 8c3f 1872 b13f
00000010: 1002 ce3f 6058 e53f 9513 f93f 9215 0540
00000020: 549f 0c40 8e5d 1340 1e77 1940 b608 1f40
00000030: 2128 2440 51e6 2840 b250 2d40 1872 3140
00000040: 0625 bcb1 1872 313f 549f 8c3f 1872 b13f
00000050: 1002 ce3f 6058 e53f 9513 f93f 9215 0540
00000060: 549f 0c40 8e5d 1340 1e77 1940 b608 1f40
00000070: 2128 2440 51e6 2840 b250 2d40 1872 3140
00000080: 01bd 6c30 1872 313f 549f 8c3f 1872 b13f
00000090: 1002 ce3f 6058 e53f 9513 f93f 9215 0540
000000a0: 549f 0c40 8e5d 1340 1e77 1940 b608 1f40
000000b0: 2128 2440 51e6 2840 b250 2d40 1872 3140
000000c0: b2e9 3fae 1872 313f 549f 8c3f 1872 b13f
000000d0: 1002 ce3f 6058 e53f 9513 f93f 9215 0540
000000e0: 549f 0c40 8e5d 1340 1e77 1940 b608 1f40
000000f0: 2128 2440 51e6 2840 b250 2d40 1872 3140
00000100: 5c38 4230 1872 313f 549f 8c3f 1872 b13f
00000110: 1002 ce3f 6058 e53f 9513 f93f 9215 0540
00000120: 549f 0c40 8e5d 1340 1e77 1940 b608 1f40
00000130: 2128 2440 51e6 2840 b250 2d40 1872 3140
00000140: ec19 2fb1 1872 313f 549f 8c3f 1872 b13f
00000150: 1002 ce3f 6058 e53f 9513 f93f 9215 0540
00000160: 549f 0c40 8e5d 1340 1e77 1940 b608 1f40
00000170: 2128 2440 51e6 2840 b250 2d40 1872 3140
00000180: dd9f e02f 1872 313f 549f 8c3f 1872 b13f
00000190: 1002 ce3f 6058 e53f 9513 f93f 9215 0540
000001a0: 549f 0c40 8e5d 1340 1e77 1940 b608 1f40
000001b0: 2128 2440 51e6 2840 b250 2d40 1872 3140
000001c0: f45c 02b2 1872 313f 519f 8c3f 1872 b13f
000001d0: 1002 ce3f 6058 e53f 9513 f93f 9215 0540
000001e0: 549f 0c40 8e5d 1340 1e77 1940 af08 1f40
000001f0: 2128 2440 51e6 2840 b250 2d40 1872 3140
00000200: d634 9b32 1672 313f 5c9f 8c3f 1872 b13f
00000210: 1202 ce3f 6058 e53f 9a13 f93f 9215 0540
00000220: 549f 0c40 8c5d 1340 1e77 1940 bf08 1f40
00000230: 2128 2440 51e6 2840 b250 2d40 1872 3140
00000240: fb6a b92f 1872 313f 549f 8c3f 1872 b13f
00000250: 1002 ce3f 6058 e53f 9513 f93f 9215 0540
00000260: 549f 0c40 8e5d 1340 1e77 1940 b608 1f40
00000270: 2128 2440 51e6 2840 b250 2d40 1872 3140
00000280: 7ace a6b3 1972 313f 419f 8c3f 1872 b13f
00000290: 0e02 ce3f 6058 e53f 8513 f93f 9215 0540
000002a0: 549f 0c40 8f5d 1340 1e77 1940 a508 1f40
000002b0: 2128 2440 51e6 2840 b250 2d40 1872 3140
000002c0: 6deb 3432 1872 313f 579f 8c3f 1872 b13f
000002d0: 1202 ce3f 6058 e53f 9813 f93f 9215 0540
000002e0: 549f 0c40 8e5d 1340 1e77 1940 bc08 1f40
000002f0: 2128 2440 51e6 2840 b250 2d40 1872 3140
00000300: c967 5132 1672 313f 649f 8c3f 1872 b13f
00000310: 1602 ce3f 6058 e53f a013 f93f 9215 0540
00000320: 549f 0c40 875d 1340 1e77 1940 cc08 1f40
00000330: 2128 2440 51e6 2840 ae50 2d40 1872 3140
00000340: 8cf2 a5ae 1872 313f 549f 8c3f 1872 b13f
00000350: 1002 ce3f 6058 e53f 9513 f93f 9215 0540
00000360: 549f 0c40 8e5d 1340 1e77 1940 b608 1f40
00000370: 2128 2440 51e6 2840 b250 2d40 1872 3140
00000380: 6e43 0b30 1872 313f 549f 8c3f 1872 b13f
00000390: 1002 ce3f 6058 e53f 9513 f93f 9215 0540
000003a0: 549f 0c40 8e5d 1340 1e77 1940 b608 1f40
000003b0: 2128 2440 51e6 2840 b250 2d40 1872 3140
000003c0: b3eb baaf 1872 313f 549f 8c3f 1872 b13f
000003d0: 1002 ce3f 6058 e53f 9513 f93f 9215 0540
000003e0: 549f 0c40 8e5d 1340 1e77 1940 b608 1f40
000003f0: 2128 2440 51e6 2840 b250 2d40 1872 3140
2.3898925e-10 0.6931472 1.0986123 1.3862944 1.609438 1.7917595 1.9459101 2.0794415
2.1972246 2.3025851 2.3978953 2.4849067 2.5649493 2.6390574 2.7080503 2.7725887
-5.475729e-09 0.6931472 1.0986123 1.3862944 1.609438 1.7917595 1.9459101 2.0794415
2.1972246 2.3025851 2.3978953 2.4849067 2.5649493 2.6390574 2.7080503 2.7725887
8.612489e-10 0.6931472 1.0986123 1.3862944 1.609438 1.7917595 1.9459101 2.0794415
2.1972246 2.3025851 2.3978953 2.4849067 2.5649493 2.6390574 2.7080503 2.7725887
-4.3635935e-11 0.6931472 1.0986123 1.3862944 1.609438 1.7917595 1.9459101 2.0794415
2.1972246 2.3025851 2.3978953 2.4849067 2.5649493 2.6390574 2.7080503 2.7725887
7.065688e-10 0.6931472 1.0986123 1.3862944 1.609438 1.7917595 1.9459101 2.0794415
2.1972246 2.3025851 2.3978953 2.4849067 2.5649493 2.6390574 2.7080503 2.7725887
-2.5480587e-09 0.6931472 1.0986123 1.3862944 1.609438 1.7917595 1.9459101 2.0794415
2.1972246 2.3025851 2.3978953 2.4849067 2.5649493 2.6390574 2.7080503 2.7725887
4.0858952e-10 0.6931472 1.0986123 1.3862944 1.609438 1.7917595 1.9459101 2.0794415
2.1972246 2.3025851 2.3978953 2.4849067 2.5649493 2.6390574 2.7080503 2.7725887
-7.588131e-09 0.6931472 1.098612 1.3862944 1.609438 1.7917595 1.9459101 2.0794415
2.1972246 2.3025851 2.3978953 2.484905 2.5649493 2.6390574 2.7080503 2.7725887
1.8068402e-08 0.69314706 1.0986133 1.3862944 1.6094382 1.7917595 1.9459107 2.0794415
2.1972246 2.3025846 2.3978953 2.4849088 2.5649493 2.6390574 2.7080503 2.7725887
3.3727318e-10 0.6931472 1.0986123 1.3862944 1.609438 1.7917595 1.9459101 2.0794415
2.1972246 2.3025851 2.3978953 2.4849067 2.5649493 2.6390574 2.7080503 2.7725887
-7.767535e-08 0.69314724 1.09861 1.3862944 1.6094377 1.7917595 1.9459082 2.0794415
2.1972246 2.3025854 2.3978953 2.4849026 2.5649493 2.6390574 2.7080503 2.7725887
1.0530909e-08 0.6931472 1.0986127 1.3862944 1.6094382 1.7917595 1.9459105 2.0794415
2.1972246 2.3025851 2.3978953 2.484908 2.5649493 2.6390574 2.7080503 2.7725887
1.2188999e-08 0.69314706 1.0986142 1.3862944 1.6094387 1.7917595 1.9459114 2.0794415
2.1972246 2.3025835 2.3978953 2.484912 2.5649493 2.6390574 2.7080493 2.7725887
-7.546416e-11 0.6931472 1.0986123 1.3862944 1.609438 1.7917595 1.9459101 2.0794415
2.1972246 2.3025851 2.3978953 2.4849067 2.5649493 2.6390574 2.7080503 2.7725887
5.066373e-10 0.6931472 1.0986123 1.3862944 1.609438 1.7917595 1.9459101 2.0794415
2.1972246 2.3025851 2.3978953 2.4849067 2.5649493 2.6390574 2.7080503 2.7725887
-3.4000677e-10 0.6931472 1.0986123 1.3862944 1.609438 1.7917595 1.9459101 2.0794415
2.1972246 2.3025851 2.3978953 2.4849067 2.5649493 2.6390574 2.7080503 2.7725887

q_head.mamba.D f4 [18]
00000000: 05a5 7e3f 7f5a 803f e5c9 803f c3aa 803f
00000010: 9a9a 7f3f b6c5 803f 5ec8 803f 39c9 803f
00000020: 21b8 803f a3d9 7e3f 4967 7f3f f31c 7f3f
00000030: f17e 803f e78f 803f efc7 803f f26a 7e3f
00000040: a8db 7f3f 54cb 803f
0.9947055 1.0027617 1.0061613 1.0052112 0.9984528 1.0060337 1.0061147 1.0061408
1.0056192 0.9955084 0.99766976 0.9965355 1.003874 1.0043916 1.0061015 0.99381936
0.99944544 1.0062051

q_head.mamba.in_proj.weight f4 [36, 9]
00000000: 9dbc 713d db91 58be ae87 03bc 0fd5 2ebd
00000010: 46b0 40be 4e47 b43d a6eb 3fbd 56de c73d
00000020: 6dbc 8bbe 639b 7b3e 6aed d9bd 4748 7fbc
00000030: 25f9 133d 4597 783e 0b42 813e 630e eebd
00000040: cf23 c1bc 8b5b b2bd f802 a73e 9e33 cbbd
00000050: 555a 00be 0518 833d 4dd9 603e c390 04bd
00000060: c6d9 823c 68a8 973e 1b02 5cbd 89c9 5c3c
00000070: c94e 0dbe 9f18 2ebe 510e 87be 6e12 5d3d
00000080: e56a 55bd 9db1 063c 3afd 85be aa00 82be
00000090: 30bf 06be e666 5c3e a22d fd3c 913b 9bbd
000000a0: 5da1 85be bbdc 1c3e 8733 0cbe ccbe 62bd
000000b0: 408f cf3d c13e 38be 7ddb 1d3e 0be4 a1be
000000c0: b2a6 2b3d 7f53 25bd 85fb 913d 0ecd 84be
000000d0: 9015 093d 97cb 44be fe70 fb3d addc 27be
000000e0: c5b7 803c 268c 5dbc 7177 053d 4084 473e
000000f0: 0323 3d3e 2981 7e3e f6d0 2cbe a5ef 153e
00000100: 7869 553d 5296 1d3e 3c75 96be 2e45 913e
00000110: d380 723e 62b3 4abe ad51 b6bd c489 0b3d
00000120: 33fe 3cbd 0ebb b0bc 79aa a63e 993e 6ebe
00000130: e855 93be 0c47 923e 9c74 ff3d 74dd 15bc
00000140: 5c1c 89be ffc6 0bbe 52d6 773e 3123 cd3d
00000150: e511 6dbe 9edd bf3d 441c a1be 2b30 12be
00000160: 6c27 f4bd f620 033e 5f4c 9dbe 9e82 2abe
00000170: 2b57 21be e340 63be 341e 65be 211f a73d
00000180: 3749 efbc a9d3 6cbe 90a1 1e3e 0e83 413e
00000190: 5003 85be 5801 483e ce2d b3bd 08d1 5c3d
000001a0: 8437 27be 46dc 0cbe 7a71 6bbe 60b5 4f3e
000001b0: a7d6 7d3e 2336 54be d330 28be e655 583e
000001c0: 7aab 97be f8e8 243e c7a9 063e 5cf0 12be
000001d0: e0e7 12be 4b81 963e 5162 903d 18a6 663e
000001e0: d12b 32be 6474 6dbe 584d 16bd 8e02 1c3b
000001f0: 3564 a2be d826 e1ba ad52 703b 02a2 8b3e
00000200: 3f97 4e3e 3da6 5d3e a820 5e3d f55b a4bd
00000210: 566e 23be c85e a8be bad1 b8bd e8cd 853e
00000220: fb26 0e3e 67cd e9bc 000c cb3d 0625 363e
00000230: 5c97 8d3e da4e 5abe a3df 0abd 9e42 0a3e
00000240: c173 663e 06b9 9bbe 586a 03be 3afc ed3c
00000250: 8b80 093e aa67 81be 6258 a8be 21e5 a5bd
00000260: 6806 b03d f946 fe3d dbb2 62be 3c96 e9bd
00000270: 9606 8b3d 8b55 21bd 0662 033e cbb3 313d
00000280: 1743 013e c0b6 dd3d d52f 89be bda0 a0bd
00000290: 7bbb 1fbd 646c ac3e 5657 66be b478 50be
000002a0: 42bc 03bd d84b 93bc b91e d6bc 5895 94be
000002b0: 32b9 763e f8f6 243c f871 a83e 0b39 babd
000002c0: e016 463e eb17 3a3e 4bc2 aa3e 3c06 4c3e
000002d0: 4814 223d 723d a6be 888e 8cbb ca68 3d3e
000002e0: 11d1 643e abc4 8cbe d74b 68bd 2c9e 843d
000002f0: 73fa a33e d020 96be 63aa 84bc cfe4 fcbd
00000300: 2d7e 8bbe cb81 51be 7943 223e 73f1 a3be
00000310: b6a8 3a3e 3adc 8ebd d767 7c3e 8d9d 9bbe
00000320: 39d2 7b3e c2e7 41be 2af5 883d ae1a 0c3e
00000330: ae45 883e dc13 5cbe bf5e dc3d 2498 a0bd
00000340: 4906 003e bff0 3e3e 2998 85be 38af c33d
00000350: 1659 f13c f62a ff3d dac0 c13d 8706 4d3e
00000360: adba 1cbe 0fe2 07bd 14d4 95be 72f5 833e
00000370: 122d 00be 7dba a5be 01f0 bd3c b1c1 87be
00000380: c9a5 99be bf37 be3c 7133 683e 6d4c 5e3e
00000390: bf56 833d 96bd 75be ba74 94be a1a5 033e
000003a0: e985 1e3e 86a1 87be 488b babb 3b45 88be
000003b0: 6d5c 223e 6348 a13e 5813 8d3c 6cfd 77be
000003c0: ca60 0dbe 77a4 a43e 6f7c c5bd 3147 96be
000003d0: 1d7a 9dbe c176 723e 4bf0 87be 34bf e93c
000003e0: 6be8 3b3e 3be3 77be e8dd 353e a538 7b3e
000003f0: 313c 093e 062d babd e323 29bb 1723 9fbe
0.059017766 -0.2114939 -0.008027954 -0.042683657 -0.18817243 0.08802663 -0.04685559 0.09759204
-0.27292195 0.24570994 -0.10640986 -0.015581197 0.036126275 0.24276455 0.252457 -0.11623838
-0.023576645 -0.08708867 0.32619452 -0.099219546 -0.12534459 0.06401066 0.21957894 -0.032364618
0.015972983 0.2962067 -0.053712945 0.013475784 -0.13799585 -0.1700158 -0.2637811 0.053972654
-0.052103896 0.008221057 -0.2616976 -0.25391132 -0.1315887 0.21523628 0.030905548 -0.07579721
-0.26099673 0.15318577 -0.13691531 -0.05535774 0.10134745 -0.17992689 0.1541576 -0.31619295
0.04190702 -0.04036283 0.07128052 -0.25937694 0.03346783 -0.19218288 0.12277411 -0.16392775
0.015712628 -0.0135221835 0.03258461 0.19484043 0.18470387 0.24853958 -0.16876587 0.14642198
0.052102536 0.15389374 -0.29386318 0.28373092 0.23681955 -0.19794992 -0.08902297 0.03406693
-0.04614086 -0.02157357 0.32551935 -0.23266067 -0.2877648 0.2856983 0.12473413 -0.009147037
-0.2677945 -0.1365013 0.2420285 0.10016478 -0.23151357 0.09368442 -0.31466877 -0.14276187
-0.119215816 0.12805542 -0.3072233 -0.16651389 -0.15755908 -0.22192721 -0.22374803 0.08160234
-0.029209716 -0.23127617 0.15491319 0.1889765 -0.2597909 0.19531763 -0.08748971 0.053910285
-0.16329771 -0.13755903 -0.22992507 0.20284033 0.24788915 -0.20723777 -0.16424875 0.21126518
-0.29623014 0.16104496 0.13150702 -0.14349502 -0.14346266 0.29395518 0.07050002 0.22524297
-0.17399527 -0.23188931 -0.036694854 0.0023805234 -0.31717077 -0.0017177714 0.0036670372 0.2727204
0.20174883 0.21645446 0.054230362 -0.08025352 -0.15960059 -0.32884812 -0.09024377 0.26133657
0.13882057 -0.028540326 0.09914398 0.17787561 0.2765454 -0.21319142 -0.033904683 0.13501975
0.22505094 -0.304146 -0.12833536 0.029050935 0.13427942 -0.25274402 -0.3287993 -0.081003435
0.08594972 0.12415881 -0.2213854 -0.11405608 0.067883655 -0.03938822 0.12830362 0.043384355
0.12623249 0.108258724 -0.26794305 -0.078431584 -0.038997155 0.33676445 -0.22494254 -0.20358545
-0.03216196 -0.017980501 -0.026137697 -0.2902019 0.24094084 0.010068648 0.3289945 -0.09092911
0.19344664 0.18173186 0.3335136 0.19924253 0.039570123 -0.32468754 -0.004289452 0.18497005
0.22345378 -0.27493796 -0.05671295 0.064754814 0.32027015 -0.2932191 -0.016194528 -0.12348329
-0.27244702 -0.20459668 0.15846051 -0.3202015 0.1822842 -0.06975599 0.24648987 -0.3039364
0.24591912 -0.18936065 0.06687386 0.13682052 0.2661566 -0.21491951 0.10760259 -0.078415185
0.12502398 0.18646525 -0.2609265 0.09554905 0.029461425 0.12459366 0.09460612 0.20022021
-0.15305586 -0.03317457 -0.29263365 0.25773197 -0.12517193 -0.32368842 0.023185732 -0.26514962
-0.30009297 0.023219941 0.22675873 0.21708842 0.0641303 -0.23998103 -0.28995305 0.12856151
0.1548077 -0.2649042 -0.005692873 -0.2661532 0.1585557 0.3150054 0.017221138 -0.24217767
-0.13806453 0.32156727 -0.096428744 -0.2935119 -0.30757228 0.23678114 -0.26550516 0.028533556
0.18350379 -0.24207775 0.17760432 0.24533327 0.13401867 -0.09090619 -0.0025808744 -0.3108146

q_head.mamba.conv1d.weight f4 [18, 1, 4]
00000000: c0f8 12be b005 d13d a5f9 fc3e e54f 47be
00000010: 7a87 e33e 9c1d 2e3e 6f0d f53e 59f0 c73d
00000020: 18a2 d73e 506d babd a032 fa3d d2c6 933c
00000030: 66cc bf3e 4222 c9be f0e8 66bd 6d91 063e
00000040: 30f9 91be c0b0 b53d 77dd a0be 9051 a8be
00000050: 74bf 533e acc8 a03e 54d8 dfbd 8b84 a83e
00000060: 2032 c7bd a021 9d3e 7096 f8be fe7d c6bd
00000070: 2812 9fbd fe11 d8be 9abc 513e 4334 1abe
00000080: c04b e33d 80f2 e2bb e7ba c0be e34a c13e
00000090: 00cb ca3b 061b 86be 24ce e2be e229 df3d
000000a0: e061 973e 0012 87bb ccf0 af3b 7733 c53e
000000b0: fed3 813e ec80 c4be dc6e 60be fc05 ec3e
000000c0: 9c3c 2dbe f0b0 d4bd 63ac c53d 8baa bf3b
000000d0: fab2 8d3e aac5 9dbe 1709 e5be cb28 913d
000000e0: d85a ca3d 20e5 bfbe 43bc a23e 6222 ab3e
000000f0: 4009 df3c f800 97be 5204 83bd 4351 b7be
00000100: e485 293e 6036 c9be f5b4 bc3e b914 4cbc
00000110: ccc0 d73e 98ce 8c3e e5af d53e f4d3 9fbe
-0.14352703 0.10206163 0.49409214 -0.19464071 0.44439298 0.17003483 0.47861812 0.097626396
0.42115855 -0.09102881 0.12216687 0.01803914 0.3746063 -0.3928395 -0.05637449 0.13141413
-0.28510427 0.08871603 -0.31418964 -0.32874727 0.20678502 0.314031 -0.10929933 0.32913622
-0.097263575 0.30689716 -0.48552275 -0.09692 -0.07767135 -0.42201227 0.20482102 -0.15058999
0.110984325 -0.006925881 -0.37642595 0.37752447 0.0061887503 -0.26192492 -0.44297898 0.108966604
0.2956686 -0.004122019 0.0053692814 0.38515827 0.2535705 -0.3837961 -0.2191729 0.46098316
-0.16917652 -0.10385311 0.09652021 0.0058491877 0.2767561 -0.30814868 -0.44733498 0.07087859
0.09880608 -0.37479496 0.31784257 0.3342467 0.02722609 -0.29492927 -0.063973084 -0.35804185
0.16554981 -0.39299297 0.3685681 -0.012456113 0.4213928 0.2750137 0.4173576 -0.31216395

q_head.mamba.conv1d.bias f4 [18]
00000000: f08f d4bd d069 febe f96e cdbe cc9a ffbd
00000010: fbd5 a23e 604c 79be 79e1 6cbe c38e 003f
00000020: bc29 a3bd ffae f8bd 92ab 92be d2fa 313e
00000030: b586 dfbe 1625 f23d c361 5dbe ab51 16be
00000040: f535 41be f89b 9fbe
-0.103790164 -0.49690104 -0.40123728 -0.12480697 0.3180388 -0.24345541 -0.23132886 0.5021784
-0.079669446 -0.12142753 -0.28646523 0.17380837 -0.4365746 0.1182348 -0.21619324 -0.14679591
-0.18868239 -0.31173682

q_head.mamba.x_proj.weight f4 [33, 18]
00000000: 3a30 58be 8a03 a8bc eb87 d83d 20e1 d4bc
00000010: b79f a8bd a21b 70be f7c4 553e 91d0 1d3e
00000020: 0777 843c 2f02 c4bd b5f4 0c3e 94e4 463e
00000030: 336b fe3d 7cc5 2cbe feea 40bd 986a 14be
00000040: 67fe 5d3e 9ee9 19be 3619 b0bd 4d34 25be
00000050: 52ac 47be 8326 413e 275c 5bbe 905c 19be
00000060: 6d33 a63d 958d 173e d29e 673e b25d 35be
00000070: 833e 373d 424d 12be 4dd4 df3c 5079 f23d
00000080: a5c9 e5bd 827e 883c 990d 5abe cec8 44be
00000090: 1d5e 05bd 4fc8 a33c 4e1b a2bd 85b2 1fbe
000000a0: 57ea 603e b9a9 ad3d 720b 2c3e 1893 b43d
000000b0: fd1a d2bb ed76 5e3e db45 4b3e 62d7 0b3e
000000c0: 2653 9f3c 6317 b13d b001 14be 6fe9 85bd
000000d0: ddde 503c e195 8c3d 8c1c 0b3e 24ca 09be
000000e0: e901 d53d 88a2 93bd 9f04 80bd 3107 2fbd
000000f0: 6d41 08bc fb2c 23be 60df 913d 2bff 12be
00000100: 6bb8 633d 431c 21be 6dc8 2b3e 2952 b5bd
00000110: 5240 653e 6e22 8f3d d2ec 47be bc61 c03d
00000120: 1382 a33d 99f9 7ebc 55d0 c1bd 81e9 ccbd
00000130: 88f8 45be 92ae 6abe b803 d63d 8828 abbd
00000140: dba5 373e a8ba 2ebe 5744 49be f115 5e3e
00000150: 9316 d43c 4131 abbd fbee 7f3d 99ff 033e
00000160: 9138 5dbe 9256 34bc 6cdb 97bc 330a ba3a
00000170: 3adf e7bc 0feb 683d 9131 293e 03b9 3f3e
00000180: 291a 47bd cf24 f5bd a223 433e 0a21 e4bd
00000190: c4e8 31be 5126 fdbc e83d 28be da1f 0dbe
000001a0: 014c fc3c 2f0d 583e 436c c73d 34e5 5d3e
000001b0: 94f3 47be 4b8a 913d 74fb 5dbe b9ce 86bd
000001c0: 2fbe 8abd f70e 0dbe 0a78 173e 9480 31bd
000001d0: fbb5 02be 874a 19bd c29d 283e ec43 103e
000001e0: a30a 15be d8eb 99bd 7331 013e db21 23be
000001f0: 4c00 8e3d 7e0d 1c3e 58ac e53d 743d 68be
00000200: 085e a83d 77f8 513e 0b44 553e 9e85 52be
00000210: 1fac 46be d3a1 2f3e 59c0 b3bd d874 37bd
00000220: a359 5abe bb0a 6fbe 248f 14be 3182 74bd
00000230: ec45 ecbd 4da1 103e 2196 673e a459 e9bc
00000240: 3d43 033e b70e 39be 44c1 e43d 81c5 333e
00000250: b9cf cebd 7a2d cdbd 0a56 163e 8162 333e
00000260: 54bc c9bd bdb5 50bd b046 fe3d 2423 1abe
00000270: 5958 3a3e a880 63be 12aa 2d3e 0a67 41bd
00000280: 1808 343e f4c6 5c3e d174 093e ca4e 21bc
00000290: 1d28 09be 1463 f0bd 427e bebd 517a 83bd
000002a0: d9c1 59bd e607 f3bd f865 32be 72ec 0ebe
000002b0: d85a 69be ebee 0bbc 7116 a63d 3805 1a3d
000002c0: d415 8bbd 4a3f 00be 4e3a 95bd a01c fcbd
000002d0: d90c 18be 0b28 74bd 5f62 523d 306c 063e
000002e0: 80d8 aebd 2a4d 073e 0bd5 c13c 5dfa 2e3e
000002f0: aacb 00be c43e ae3d b83a 47be 67c3 bf3d
00000300: fc4b e6bc f3a0 6e3e 559c 2ebd fa75 b4bc
00000310: e94d 0d3a f858 4dbd 73f9 0e3d 96da 94bb
00000320: 1502 e8bd 833d 2f3e 6863 6ebe cec8 4fbe
00000330: f52f 4dbe 2258 4fbe 2148 2b3b dc33 50be
00000340: 7b61 64be ad83 bbbd d329 e63d 7714 5cbd
00000350: 216e 813d c27c dcbd 0361 5d3e 7e8a 4c3d
00000360: 8f5d 9fbd 49d7 89bc e1de 003e f4e6 84bd
00000370: 3d8c ee3d 7512 253e fb28 e73d e900 10be
00000380: 701e 46be 7dd2 07be ebdc ed3d fd07 433d
00000390: be96 bf3d 7e7b f4bd 5528 21bd e040 503d
000003a0: 6bc3 5c3e 6559 34bd 3a06 08be 895d 20bd
000003b0: 6ca8 973d 688b 5ebe 041a 863c bbb2 563e
000003c0: 3d85 653e 8d64 6c3e cc03 263e 66d5 0e3e
000003d0: 1007 893d 37a1 febc df0e 48be ebb1 5abe
000003e0: e554 e83c b3e1 e33d a74b 6e3e c4c7 513e
000003f0: ce32 573d ea99 a63c 8695 f0bc 2333 dfbd
-0.21112147 -0.0205095 0.10572799 -0.025986254 -0.08233588 -0.23448041 0.20875917 0.15411593
0.016170038 -0.09570729 0.13765223 0.19423133 0.124227904 -0.1687221 -0.047099106 -0.14493787
0.21679078 -0.15030524 -0.085985586 -0.16133232 -0.19499329 0.18862347 -0.21421872 -0.14976716
0.081152774 0.14800103 0.22619179 -0.17711523 0.04473735 -0.14287284 0.027322913 0.11839545
-0.11220101 0.016661886 -0.2129425 -0.19217226 -0.032560457 0.019992976 -0.07915364 -0.15595444
0.21964394 0.08479638 0.16801241 0.088171184 -0.0064119087 0.21725054 0.19850866 0.13656381
0.019448828 0.08647039 -0.14453769 -0.065386645 0.012748447 0.06864525 0.13585109 -0.13456017
0.10400755 -0.07208735 -0.062508814 -0.042731468 -0.00831638 -0.15935127 0.071226835 -0.14355151
0.055595797 -0.15733437 0.16775675 -0.088535614 0.22387818 0.06988989 -0.19523934 0.09393641
0.07983794 -0.015562438 -0.09463564 -0.10005475 -0.19333088 -0.22918156 0.10449928 -0.0835734
0.17934363 -0.17063391 -0.19654976 0.21688057 0.02588967 -0.08359004 0.06248377 0.12890472
-0.2160361 -0.011006968 -0.018537246 0.0014193713 -0.028304685 0.056864794 0.16522814 0.1872292
-0.048608933 -0.11969911 0.19056562 -0.11139114 -0.1737395 -0.03090206 -0.16429865 -0.13781682
0.03079796 0.21098779 0.09737446 0.21669465 -0.19526511 0.071064554 -0.21677953 -0.06582398
-0.06774556 -0.1377524 0.14791885 -0.043335512 -0.12764733 -0.03742459 0.1646643 0.1408841
-0.14554839 -0.07515687 0.1261652 -0.15930884 0.069336504 0.15239522 0.112145126 -0.22679693
0.0822106 0.20504938 0.20826738 -0.20558783 -0.19401596 0.17151575 -0.08776922 -0.044789165
-0.21323256 -0.23343937 -0.14507729 -0.059694473 -0.11536774 0.14124031 0.22615863 -0.028485127
0.12818618 -0.1807202 0.11169675 0.1755581 -0.10098214 -0.100184396 0.14681259 0.17518045
-0.09850374 -0.05095457 0.12415826 -0.15052468 0.18197764 -0.22217047 0.16959408 -0.047217406
0.17581213 0.2156027 0.13423468 -0.009845445 -0.13394208 -0.11737648 -0.093014255 -0.064198144
-0.053163383 -0.11866741 -0.1742171 -0.13957384 -0.2278856 -0.008540849 0.08109749 0.037602633
-0.06791273 -0.12524143 -0.07286511 -0.12310147 -0.14848651 -0.0596085 0.051363345 0.13127208
-0.08537388 0.1321303 0.023661157 0.17087694 -0.12577692 0.08508065 -0.19455993 0.09363442
-0.028112404 0.23303585 -0.04262956 -0.022028912 0.00053903327 -0.050133675 0.034905862 -0.004542659
-0.11328522 0.17113309 -0.23280108 -0.20291445 -0.20037825 -0.20248464 0.0026135521 -0.20332283
-0.22302811 -0.091559745 0.11238446 -0.053730454 0.063198335 -0.10765983 0.21619038 0.049936764
-0.07781517 -0.016826289 0.12585022 -0.06489363 0.11647842 0.16120322 0.11287113 -0.14062847
-0.19347548 -0.13263889 0.116144024 0.04761504 0.09354924 -0.11937617 -0.039345104 0.05084312
0.21558921 -0.044030566 -0.13283625 -0.039151702 0.07405171 -0.21732867 0.016369827 0.20966618
0.22414108 0.23085232 0.16212386 0.13948593 0.066908 -0.031082733 -0.19536923 -0.21356933
0.028360793 0.11127033 0.23271047 0.20486361 0.052538686 0.020337064 -0.029368173 -0.108984254

q_head.mamba.dt_proj.weight f4 [18, 1]
00000000: 2d69 0abf e9d4 db3e 4857 7d3f 1328 99be
00000010: 3207 4dbf b692 703f 288f 6a3e a618 bcbd
00000020: ee98 2dbf 870e e8be 0cb0 fa3e 0434 633f
00000030: 3419 b5be 6b8d 51bf d355 363f 1549 203e
00000040: 480d cbbd 0267 1bbf
-0.54066736 0.42935875 0.98961306 -0.29913387 -0.80089104 0.93973863 0.22906172 -0.09184389
-0.6781148 -0.45323583 0.48962438 0.88751245 -0.3537079 -0.8185641 0.7122471 0.15652879
-0.099146426 -0.6070405

q_head.mamba.dt_proj.bias f4 [18]
00000000: 0dd9 9dc0 ce44 9ac0 1738 b5c0 b28a 8cc0
00000010: 361c a2c0 e091 a2c0 c6c2 b0c0 73cc 8cc0
00000020: dd13 4cc0 2ed1 aac0 72ff 24c0 12d6 5fc0
00000030: 2ca0 82c0 6340 a1c0 af7e aec0 aa7f 94c0
00000040: 6e1e 82c0 7278 55c0
-4.9327455 -4.820899 -5.663097 -4.3919306 -5.0659437 -5.080307 -5.523776 -4.399957
-3.1887124 -5.3380346 -2.5780911 -3.4974408 -4.082052 -5.0391097 -5.4529643 -4.640584
-4.0662146 -3.3354764

q_head.mamba.out_proj.weight f4 [9, 18]
00000000: e049 bfbd e106 40be 34e6 5abe 6c2b df3d
00000010: 7d96 2fbe dda9 03be 7316 48be 9b0a 0dbe
00000020: e831 5a3e 04ec 303e efeb 0cbd 5ab2 e0bd
00000030: 3e9d 1b3e 8636 68be d643 3fbe 9a6a 1e3e
00000040: 727d e8bc f4dc 6abe f686 18be 1451 4abd
00000050: 82e6 d33d 7be5 cf3d dae4 d0bc 10aa 08be
00000060: 07ed 573e 478f 0a3d 79ae 093d eeb1 ec3d
00000070: 9e61 6d3e ceb1 3ebe 7149 02be d5b9 0dbe
00000080: 0525 edbb 2f8c d3bd e4f0 67be aca5 a2bd
00000090: 6b23 c7bd a40a ca3c 9b4f 95bd 2ee4 8a3d
000000a0: f373 813d 6fe7 423d 9c8a 393e 2f5e d33d
000000b0: fe60 083e 448a 00be 725a 96bd a41e 093e
000000c0: 6638 14be c375 413d 4813 0e3d b18d 863c
000000d0: c7ba 30be ef58 4cbe 2795 693e eec2 35be
000000e0: 2c6c 42be ff2b 6cbb 5a43 3f3e 5034 17be
000000f0: e811 4d3e d2c4 42be a1a2 173d 2be2 383d
00000100: 2c4f ffbd 8178 363d edb3 3dbe 7a7e d6bd
00000110: 9aad 503e 60ab 46be 09a1 003d 064e 2c3d
00000120: f146 46be 0e14 fe3d 1391 cd3c 19e3 39bd
00000130: 98ea f63d fa18 613d 791f 1cbe 5c45 6bbe
00000140: 6d26 4bbe 1436 b23b 6325 3b3e 3b9a 15be
00000150: e19c 5abe a0eb 6b3e 880d 453e b5af 2fbe
00000160: 4cc0 0d3e b0f0 efbd 6844 53be e58d 9ebc
00000170: 1b60 01be 7a6f 18bc c04f 0f3e 6e51 1e3e
00000180: 6db3 5fbe 9394 4b3e fd97 1abe 6df8 53be
00000190: 837d 8e3d f17c 8cbd aee0 96bd ce81 f3bd
000001a0: 72e8 dfbd 3329 023e efcc 4d3c 1be2 563e
000001b0: 0f10 103d 413f 8bbd 5e41 73be 6344 f7bd
000001c0: 38ed a13d 7352 01bd 7593 a6ba 6b25 913a
000001d0: 5e0b be3d 256b 203e 867c 013c 5f35 5cbe
000001e0: 873f 343e 05d9 5a3e 1dc6 453e ab95 07be
000001f0: ae7c 493d d9f8 56bc 97fd 503e ed18 40be
00000200: 3c22 2a3e 72a5 83bd d03e 17be 5faf 603e
00000210: cd3f 68be f8ec 033e bfdc 03be 3c46 df3d
00000220: 0300 5ebe 83f1 68be 4d8e 393d 158e 7e3d
00000230: a0a6 e83c 915c e3bc da7e 55be d8b1 3e3d
00000240: 2ee1 673d 289f 703e 3a9b 2f3e 65b0 283c
00000250: 7540 313e 2fca 653e d353 6f3d 4db5 4abe
00000260: 8f91 4bbe b6a8 d0bd 2377 26bd 5f3b bbbd
00000270: 2546 50be 16c6 3ebe 1061 623d ce76 4c3e
00000280: 69bd b5bd a8fe 70bd
-0.093402624 -0.18752624 -0.21376878 0.10896954 -0.1714725 -0.12857766 -0.19539814 -0.13773577
0.213081 0.17277533 -0.03440469 -0.10971518 0.15196702 -0.22677049 -0.18678221 0.15470353
-0.02838013 -0.2293585 -0.14895234 -0.04939373 0.103467 0.10151192 -0.02549975 -0.13346124
0.21086513 0.033828046 0.033613656 0.11557375 0.23181769 -0.18622515 -0.12723328 -0.1384042
-0.007237079 -0.10329472 -0.22650486 -0.07941756 -0.09723552 0.024663277 -0.07290574 0.06781803
0.06320944 0.047583994 0.18119282 0.103206985 0.1331825 -0.12552744 -0.0734147 0.13390595
-0.1447464 0.047231447 0.034686357 0.016424986 -0.1725875 -0.199558 0.22810803 -0.17750141
-0.18986577 -0.0036036966 0.18678036 -0.1476605 0.20026362 -0.19020393 0.03702033 0.045137566
-0.12466273 0.044548515 -0.18525667 -0.10473342 0.20378724 -0.19401312 0.031403575 0.042066596
-0.19363 0.12406169 0.02509359 -0.045382593 0.12056464 0.05495546 -0.15246381 -0.22975677
-0.19838877 0.0054385755 0.1827598 -0.14609616 -0.21348907 0.23039103 0.19243443 -0.1715687
0.13842887 -0.11715829 -0.20631564 -0.01935477 -0.12634318 -0.009303922 0.13995266 0.1546075
-0.21845789 0.19880895 -0.15097041 -0.20700236 0.06957533 -0.06859768 -0.07367073 -0.11889993
-0.10933007 0.12711029 0.012561067 0.2098469 0.035171565 -0.06799174 -0.23755404 -0.120735906
0.07906574 -0.03157277 -0.001270874 0.0011073773 0.09279512 0.15665872 0.007903224 -0.21504734
0.17602359 0.21371849 0.19313855 -0.13240688 0.04919117 -0.013120853 0.20409237 -0.18759508
0.16614622 -0.064280406 -0.14770055 0.21941899 -0.22680588 0.12883365 -0.12877177 0.10902068
-0.21679692 -0.2274838 0.045301724 0.06214722 0.028399765 -0.0277541 -0.20849171 0.046556324
0.056611232 0.23498213 0.17149058 0.010295962 0.17309745 0.22440408 0.05842955 -0.19795723
-0.19879745 -0.10188429 -0.04064096 -0.091421835 -0.20339258 -0.18630251 0.055268347 0.19967195
-0.08874018 -0.05883661

q_head.final_norm.gamma f4 [9]
00000000: 0000 803f 0000 803f 0000 803f 0000 803f
00000010: 0000 803f 0000 803f 0000 803f 0000 803f
00000020: 0000 803f
1.0 1.0 1.0 1.0 1.0 1.0 1.0 1.0
1.0

ema_model.q_head.action_bin_embeddings f4 [2, 256, 9]
00000000: c1b7 663c 1c90 53bc 343a 3dbc 9871 e13b
00000010: 2fe5 7ebc 0bc9 743c 7ba5 40bc 9e38 4c3c
00000020: 6a51 cfbc d02f 0a3c 6918 dabb ba37 90bc
00000030: b212 9c3a f3ac 223c 6701 a33c bab9 02bb
00000040: 405e ba3c 3ff7 da3c 23e0 46bc ab6b f2bc
00000050: 0e28 293c c378 e6bb e4ca 01bb a1a4 08bc
00000060: 80a4 0d3c ac9c 18bd f8fe 9fba 9842 643a
00000070: 9355 b7bb c439 a0bc 1240 64bc f6e8 853c
00000080: 3399 733c 542a 143c 0919 a8bc 13be a7bc
00000090: e674 783b d7f5 22bc 5e08 e3bc f18b 543c
000000a0: 536b fbbc 133c 2b3d fbe2 bbbb 0459 ac3c
000000b0: d1f9 81bc 2ada ab3c 57f2 7a3c d2f9 a1bc
000000c0: 6e4c ecbc f8fe e33a caac 4ebb 1b95 e1bb
000000d0: 22d1 b83b 333e f03b 79b3 763c cb66 853b
000000e0: 4cda bf3c c792 b5bc 4bc3 603c d403 03bd
000000f0: 809e 2abc 157d 22bc 974e b13b 716d 2d3b
00000100: 08cc 5fbb 01fa f3bc f1bc 993c 5711 183c
00000110: 8ffa b5bc 7216 8d3c 1927 98bb 052c 0e3d
00000120: 813c d83b 0258 fc3b 2803 f03a 087e b0bc
00000130: 260f 713c cc6e f8ba 56df cf3a 7e81 2b3c
00000140: be7d 60bc 8015 1fbc a61f 2dbc 28eb a4bc
00000150: 462f 073c 3403 633c 8439 293b 0e50 39bc
00000160: 2dab 16bb 311e 74bb 5cb6 56bc eb03 e8bc
00000170: 3730 3cbd 5a25 0fbb 4181 823c c953 7d3c
00000180: b294 9fbc 78be 1dbc 1787 d039 323c b63c
00000190: c57e 69bc fc7f 8c3c 0886 f43c a297 cf3c
000001a0: ace6 7c3c b4f6 b5bb 9619 80bc e658 fa3b
000001b0: d0df 88bc 0a2c b63a 5cc6 013c df85 c43c
000001c0: 5327 e8bc 34e1 ea3c c544 23bd 5fc0 d53c
000001d0: 3bc1 7c3c f5d5 ffbb 59c4 833c 2311 00bc
000001e0: f0cb dc3b ace2 78bc 53fb 2f3d 9807 44bc
000001f0: 7821 533c 3061 f0bc b678 64bb 080c 213d
00000200: f554 c53b 93c5 e2bc bcae a0bb 00be 153d
00000210: f619 f1bb 989b 043c 1466 1c3c 08c7 0c3d
00000220: 742b 293c 7a76 bfbb 44b8 63bb b4d3 783c
00000230: d03d 623c 808a b9bc 7b8a bf3b ff5e 053b
00000240: b802 f6bc efc2 fa3b fc2f 69bc 74ca 1a3c
00000250: 322d 02bb e7b5 e23c 0ef7 ddbc e345 8fbc
00000260: 187a 52bc e4a1 1d3c 060b babc c874 81bc
00000270: d2d3 07bd fa2c 03ba 3a7a 85bc 3df5 a7bc
00000280: 83ac cbbb b5aa c7bb 7869 94bc 332d e2bc
00000290: 80f1 cdbc d47a 76bc c211 4a3c 69b2 283d
000002a0: 697b d1bc c249 c8bc 5fe7 153d 1855 28bd
000002b0: fc55 1ebc c081 583c 5300 9abc 9303 003c
000002c0: 503d 923c be74 a1bc 2b17 27bc 26f5 a33c
000002d0: 784d e0bc da1a ab3c 7640 e4bc 6e9f ab3b
000002e0: fbe6 ccbb 9ecd a5bb cb09 d13c 3769 a6bc
000002f0: 31a3 8b3a b8b3 40bc 07a0 96bd 6794 b4bc
00000300: 5be2 f2bb 98a8 3cbc 649d ab3c cbab 7ebb
00000310: 7489 223d f35d 063b eb76 43bc ccd1 bc3b
00000320: 51b8 043d bfb1 7f3b c17c 243d 4cb9 adbc
00000330: f51c 95bc b537 51bc a3cb 1f3d 5699 94bc
00000340: bb5e 153b 57ad fdbc 83ca 97bc 53a1 14bd
00000350: fe53 e43c fd38 d3bc e2e6 123d 1b33 2a3d
00000360: c72d 06bd 07b7 09bd 088b cabc 6733 b23c
00000370: eb24 f4ba 8e3d 703c dacf 323c bf01 c43c
00000380: afe9 013d 2bbb 10bc b458 4fbb 9403 c33b
00000390: 3796 cd3a 9952 593b c3cc 273c ee86 5f3b
000003a0: a3ea 9eba 22c3 a83c 0553 23bc 09a6 0b3b
000003b0: 2870 f5bb 42b1 2e3b bfd0 9a3c c878 b8bc
000003c0: 43b6 b2bc 7047 213b cc2f 1ebc ca96 2e3c
000003d0: a2cf 683b 8274 6abc 614f d5bc 5621 0d3d
000003e0: 935c bf3b f0cc b6bb 87a4 8cbc 23af b53b
000003f0: 81bd fb3c 29c0 3c3c 50a1 1e3c 8f24 d53c
0.014081896 -0.012912776 -0.011549521 0.0068799965 -0.015557571 0.0149405105 -0.011758204 0.01246467
-0.025307376 0.008434251 -0.006655742 -0.017604697 0.0011907427 0.00992893 0.01989813 -0.0019947127
0.02275002 0.026729224 -0.012138399 -0.029592356 0.010324491 -0.007033439 -0.001980477 -0.008340032
0.008645177 -0.03725879 -0.0012206724 0.0008707433 -0.005594918 -0.019558795 -0.013931291 0.016346436
0.0148680685 0.009043295 -0.02051975 -0.020476377 0.0037911474 -0.009946308 -0.02771395 0.012972818
-0.030690825 0.041805338 -0.0057338453 0.02103854 -0.015866192 0.020978052 0.015316567 -0.019772444
-0.028845038 0.0017394712 -0.0031536096 -0.00688423 0.005640165 0.0073316335 0.015057438 0.004071092
0.023419522 -0.022164715 0.0137184365 -0.031986073 -0.010413766 -0.009917517 0.00541098 0.0026462937
-0.0034148712 -0.029782297 0.018766852 0.009281478 -0.022214202 0.017222617 -0.0046433327 0.03470995
0.0065990095 0.007700921 0.0018311488 -0.021544471 0.014713084 -0.0018953918 0.0015859406 0.010467885
-0.013701854 -0.009709716 -0.010566628 -0.020131662 0.008251017 0.013855744 0.0025821635 -0.01131059
-0.0022990212 -0.003724944 -0.013105001 -0.02832218 -0.04594442 -0.0021842332 0.015930774 0.0154618705
-0.019480083 -0.009627931 0.000397735 0.0222455 -0.014251416 0.017150871 0.029849067 0.025340859
0.015435856 -0.005553091 -0.0156372 0.007639992 -0.016708285 0.0013898623 0.007920828 0.023989616
-0.028339064 0.028671838 -0.039860506 0.026092706 0.015426929 -0.007807488 0.016084837 -0.007816586
0.0067381784 -0.015190762 0.04296429 -0.011964701 0.012886398 -0.029343218 -0.0034861988 0.039318115
0.0060220906 -0.027682101 -0.0049036425 0.03655815 -0.007357831 0.008093737 0.009545822 0.0343695
0.010325301 -0.005842981 -0.0034747282 0.015187193 0.013808683 -0.02264905 0.0058453656 0.0020350812
-0.030030593 0.0076526324 -0.014232632 0.009447683 -0.0019863364 0.027674628 -0.027095344 -0.01748938
-0.012846492 0.009621117 -0.022710335 -0.015802756 -0.033160992 -0.00050039554 -0.016293634 -0.02050268
-0.0062156334 -0.006093348 -0.018116698 -0.027609443 -0.02513957 -0.015043933 0.012333335 0.04118577
-0.025571542 -0.024449233 0.036597606 -0.041096777 -0.009664055 0.013214529 -0.018798983 0.007813352
0.017851502 -0.019708987 -0.010198395 0.020014357 -0.02738069 0.020886827 -0.027862769 0.0052375114
-0.006253121 -0.005059912 0.025517365 -0.020313842 0.0010653493 -0.011761598 -0.073547415 -0.02204342
-0.0074122376 -0.011514805 0.020949073 -0.003885972 0.039681867 0.0020502775 -0.011930208 0.0057623144
0.03240234 0.0039015857 0.040158037 -0.02120652 -0.018202284 -0.012769629 0.039012562 -0.018139523
0.002279206 -0.030966444 -0.018529182 -0.036286663 0.027872082 -0.02578401 0.03586472 0.041552644
-0.0327585 -0.033621814 -0.024724498 0.021753026 -0.0018626725 0.014663113 0.0109138135 0.023926614
0.031717 -0.008833687 -0.0031638565 0.0059513543 0.0015685026 0.0033160804 0.01024169 0.0034107524
-0.001212437 0.02060086 -0.009968524 0.0021308681 -0.0074901767 0.0026655947 0.018898366 -0.02251853
-0.021815425 0.002460923 -0.00965495 0.010656068 0.003552415 -0.014310004 -0.026038827 0.03445562
0.005839893 -0.0055786297 -0.017168297 0.0055445596 0.030730011 0.011520424 0.009682015 0.026018409

ema_model.q_head.mamba.A_log f4 [18, 16]
00000000: 542f 4c2f 1872 313f 549f 8c3f 1872 b13f
00000010: 1002 ce3f 6058 e53f 9513 f93f 9215 0540
00000020: 549f 0c40 8e5d 1340 1e77 1940 b608 1f40
00000030: 2128 2440 51e6 2840 b250 2d40 1872 3140
00000040: 3052 a2b1 1872 313f 549f 8c3f 1872 b13f
00000050: 1002 ce3f 6058 e53f 9513 f93f 9215 0540
00000060: 549f 0c40 8e5d 1340 1e77 1940 b608 1f40
00000070: 2128 2440 51e6 2840 b250 2d40 1872 3140
00000080: 38b5 3f30 1872 313f 549f 8c3f 1872 b13f
00000090: 1002 ce3f 6058 e53f 9513 f93f 9215 0540
000000a0: 549f 0c40 8e5d 1340 1e77 1940 b608 1f40
000000b0: 2128 2440 51e6 2840 b250 2d40 1872 3140
000000c0: 1f7a 4caf 1872 313f 549f 8c3f 1872 b13f
000000d0: 1002 ce3f 6058 e53f 9513 f93f 9215 0540
000000e0: 549f 0c40 8e5d 1340 1e77 1940 b608 1f40
000000f0: 2128 2440 51e6 2840 b250 2d40 1872 3140
00000100: 1c7f de2f 1872 313f 549f 8c3f 1872 b13f
00000110: 1002 ce3f 6058 e53f 9513 f93f 9215 0540
00000120: 549f 0c40 8e5d 1340 1e77 1940 b608 1f40
00000130: 2128 2440 51e6 2840 b250 2d40 1872 3140
00000140: 1bda 05b1 1872 313f 549f 8c3f 1872 b13f
00000150: 1002 ce3f 6058 e53f 9513 f93f 9215 0540
00000160: 549f 0c40 8e5d 1340 1e77 1940 b608 1f40
00000170: 2128 2440 51e6 2840 b250 2d40 1872 3140
00000180: f744 b52f 1872 313f 549f 8c3f 1872 b13f
00000190: 1002 ce3f 6058 e53f 9513 f93f 9215 0540
000001a0: 549f 0c40 8e5d 1340 1e77 1940 b608 1f40
000001b0: 2128 2440 51e6 2840 b250 2d40 1872 3140
000001c0: 99ce b2b1 1872 313f 549f 8c3f 1872 b13f
000001d0: 1002 ce3f 6058 e53f 9513 f93f 9215 0540
000001e0: 549f 0c40 8e5d 1340 1e77 1940 b308 1f40
000001f0: 2128 2440 51e6 2840 b250 2d40 1872 3140
00000200: 3690 0732 1872 313f 579f 8c3f 1872 b13f
00000210: 1002 ce3f 6058 e53f 9613 f93f 9215 0540
00000220: 549f 0c40 8e5d 1340 1e77 1940 ba08 1f40
00000230: 2128 2440 51e6 2840 b250 2d40 1872 3140
00000240: 98c5 1d2f 1872 313f 549f 8c3f 1872 b13f
00000250: 1002 ce3f 6058 e53f 9513 f93f 9215 0540
00000260: 549f 0c40 8e5d 1340 1e77 1940 b608 1f40
00000270: 2128 2440 51e6 2840 b250 2d40 1872 3140
00000280: 6a0c 88b3 1972 313f 459f 8c3f 1872 b13f
00000290: 0f02 ce3f 6058 e53f 8913 f93f 9215 0540
000002a0: 549f 0c40 8f5d 1340 1e77 1940 a908 1f40
000002b0: 2128 2440 51e6 2840 b250 2d40 1872 3140
000002c0: 9a7e f931 1872 313f 579f 8c3f 1872 b13f
000002d0: 1202 ce3f 6058 e53f 9813 f93f 9215 0540
000002e0: 549f 0c40 8e5d 1340 1e77 1940 bb08 1f40
000002f0: 2128 2440 51e6 2840 b250 2d40 1872 3140
00000300: 0732 0432 1872 313f 5e9f 8c3f 1872 b13f
00000310: 1202 ce3f 6058 e53f 9c13 f93f 9215 0540
00000320: 549f 0c40 8b5d 1340 1e77 1940 c408 1f40
00000330: 2128 2440 51e6 2840 b250 2d40 1872 3140
00000340: 91c6 96ae 1872 313f 549f 8c3f 1872 b13f
00000350: 1002 ce3f 6058 e53f 9513 f93f 9215 0540
00000360: 549f 0c40 8e5d 1340 1e77 1940 b608 1f40
00000370: 2128 2440 51e6 2840 b250 2d40 1872 3140
00000380: 94a2 d22f 1872 313f 549f 8c3f 1872 b13f
00000390: 1002 ce3f 6058 e53f 9513 f93f 9215 0540
000003a0: 549f 0c40 8e5d 1340 1e77 1940 b608 1f40
000003b0: 2128 2440 51e6 2840 b250 2d40 1872 3140
000003c0: ab2b d9af 1872 313f 549f 8c3f 1872 b13f
000003d0: 1002 ce3f 6058 e53f 9513 f93f 9215 0540
000003e0: 549f 0c40 8e5d 1340 1e77 1940 b608 1f40
000003f0: 2128 2440 51e6 2840 b250 2d40 1872 3140
1.8570506e-10 0.6931472 1.0986123 1.3862944 1.609438 1.7917595 1.9459101 2.0794415
2.1972246 2.3025851 2.3978953 2.4849067 2.5649493 2.6390574 2.7080503 2.7725887
-4.724164e-09 0.6931472 1.0986123 1.3862944 1.609438 1.7917595 1.9459101 2.0794415
2.1972246 2.3025851 2.3978953 2.4849067 2.5649493 2.6390574 2.7080503 2.7725887
6.974292e-10 0.6931472 1.0986123 1.3862944 1.609438 1.7917595 1.9459101 2.0794415
2.1972246 2.3025851 2.3978953 2.4849067 2.5649493 2.6390574 2.7080503 2.7725887
-1.8597078e-10 0.6931472 1.0986123 1.3862944 1.609438 1.7917595 1.9459101 2.0794415
2.1972246 2.3025851 2.3978953 2.4849067 2.5649493 2.6390574 2.7080503 2.7725887
4.0471881e-10 0.6931472 1.0986123 1.3862944 1.609438 1.7917595 1.9459101 2.0794415
2.1972246 2.3025851 2.3978953 2.4849067 2.5649493 2.6390574 2.7080503 2.7725887
-1.9478026e-09 0.6931472 1.0986123 1.3862944 1.609438 1.7917595 1.9459101 2.0794415
2.1972246 2.3025851 2.3978953 2.4849067 2.5649493 2.6390574 2.7080503 2.7725887
3.297271e-10 0.6931472 1.0986123 1.3862944 1.609438 1.7917595 1.9459101 2.0794415
2.1972246 2.3025851 2.3978953 2.4849067 2.5649493 2.6390574 2.7080503 2.7725887
-5.2039693e-09 0.6931472 1.0986123 1.3862944 1.609438 1.7917595 1.9459101 2.0794415
2.1972246 2.3025851 2.3978953 2.484906 2.5649493 2.6390574 2.7080503 2.7725887
7.890824e-09 0.6931472 1.0986127 1.3862944 1.609438 1.7917595 1.9459102 2.0794415
2.1972246 2.3025851 2.3978953 2.4849076 2.5649493 2.6390574 2.7080503 2.7725887
1.4349266e-10 0.6931472 1.0986123 1.3862944 1.609438 1.7917595 1.9459101 2.0794415
2.1972246 2.3025851 2.3978953 2.4849067 2.5649493 2.6390574 2.7080503 2.7725887
-6.3352516e-08 0.69314724 1.0986105 1.3862944 1.6094378 1.7917595 1.9459087 2.0794415
2.1972246 2.3025854 2.3978953 2.4849036 2.5649493 2.6390574 2.7080503 2.7725887
7.2612467e-09 0.6931472 1.0986127 1.3862944 1.6094382 1.7917595 1.9459105 2.0794415
2.1972246 2.3025851 2.3978953 2.4849079 2.5649493 2.6390574 2.7080503 2.7725887
7.694786e-09 0.6931472 1.0986135 1.3862944 1.6094382 1.7917595 1.9459109 2.0794415
2.1972246 2.3025844 2.3978953 2.48491 2.5649493 2.6390574 2.7080503 2.7725887
-6.856483e-11 0.6931472 1.0986123 1.3862944 1.609438 1.7917595 1.9459101 2.0794415
2.1972246 2.3025851 2.3978953 2.4849067 2.5649493 2.6390574 2.7080503 2.7725887
3.8314296e-10 0.6931472 1.0986123 1.3862944 1.609438 1.7917595 1.9459101 2.0794415
2.1972246 2.3025851 2.3978953 2.4849067 2.5649493 2.6390574 2.7080503 2.7725887
-3.9503098e-10 0.6931472 1.0986123 1.3862944 1.609438 1.7917595 1.9459101 2.0794415
2.1972246 2.3025851 2.3978953 2.4849067 2.5649493 2.6390574 2.7080503 2.7725887

ema_model.q_head.mamba.D f4 [18]
00000000: 59e6 7e3f 6430 803f c09e 803f 4380 803f
00000010: a1e8 7f3f 879a 803f f99c 803f d89e 803f
00000020: 1c8f 803f d22a 7f3f 178a 7f3f c15c 7f3f
00000030: 0c59 803f 9d83 803f 2a9d 803f e6c0 7e3f
00000040: d496 7f3f 0ba0 803f
0.9957023 1.0014768 1.0048447 1.0039142 0.9996434 1.0047158 1.0047904 1.0048475
1.0043674 0.99674714 0.99820083 0.99750906 1.0027175 1.0040165 1.0047963 0.9951309
0.9983952 1.0048841
